model/model_7.pth (torch_old, 571877 bytes, 24 tensors)

conv1.weight f4 [32, 3, 2, 2]
0	0xbdbaf4a4	-0.09128693
1	0xbdefa37f	-0.11701106
2	0xbe1b2a07	-0.15152751
3	0x3ea8de6a	0.32982188
4	0xbf09b58c	-0.53792644
5	0x3e363fa7	0.17797719
6	0xbdf779b8	-0.12083763
7	0x3ec7c991	0.3902097
8	0xbe85a0fe	-0.2609939
9	0xbd962035	-0.07330362
10	0xbb1ed789	-0.0024237356
11	0x3e5dcdbf	0.21660517
12	0x3e45e8dd	0.19327112
13	0xbe24112d	-0.16022177
14	0x3dfe67e2	0.12422158
15	0xbc753bd6	-0.014967879
16	0x3dca2e51	0.098721154
17	0xbd8ce18a	-0.06878956
18	0x3eb9f62d	0.3632063
19	0x3d3f0fff	0.046646114
20	0xbdd8705d	-0.105683066
21	0xbe7f0c3b	-0.2490701
22	0x39f15341	0.0004602913
23	0xbe599072	-0.21246508
24	0xbe11c8e0	-0.14236784
25	0x3d28007e	0.041016094
26	0x3df151b9	0.117831655
27	0x3e64f06a	0.22357336
28	0xbeae726d	-0.34071675
29	0x3e43478c	0.19070262
30	0xbc6d6a89	-0.014490732
31	0x3e992757	0.29912826
32	0x3e0890ae	0.13336441
33	0xbe74b054	-0.23895389
34	0xbed0736a	-0.40713054
35	0xbe10fa2b	-0.14157932
36	0x3ed955c8	0.42448258
37	0xbcaca195	-0.021073142
38	0x3daeb457	0.08530491
39	0xbe8f5330	-0.27993155
40	0x3ec8670f	0.39141127
41	0xbe6618b5	-0.22470362
42	0x3e3b5d3c	0.18297285
43	0xbe409a4c	-0.1880886
44	0xbd41bee9	-0.047301207
45	0x3c26d1ec	0.010181885
46	0xbe545507	-0.2073556
47	0xbe1e289d	-0.1544518
48	0xbe15c628	-0.14626372
49	0xbdb8b914	-0.09019676
50	0xbeadcf54	-0.3394724
51	0xbe423c67	-0.18968354
52	0x3e3d84b3	0.18507652
53	0xbdbe9a77	-0.093068056
54	0x3ea39703	0.3195115
55	0x3e6ab688	0.22921193
56	0xbc5f7667	-0.013639069
57	0xbe7e10da	-0.24811116
58	0x3e5d00b8	0.21582305
59	0x3d99a9f0	0.07503116
60	0xbe551c66	-0.20811614
61	0x3dcac0c3	0.09900048
62	0x3e735497	0.23762737
63	0x3e7f5505	0.24934776
64	0xbe5314e4	-0.20613438
65	0xbe0c6e9f	-0.13714074
66	0xbbafb5fe	-0.0053622713
67	0xbc8a1dab	-0.01685985
68	0xbeb18fac	-0.34679925
69	0xbebaaedc	-0.36461532
70	0x3ddaa9bb	0.10676905
71	0xbe345295	-0.17609628
72	0x3d921f45	0.071348704
73	0xbd1238db	-0.035698753
74	0x3b4a5a63	0.0030876629
75	0x3c83a45e	0.016069587
76	0x3dd9fd9f	0.106440775
77	0x3e05ecf9	0.13078679
78	0xbe75f886	-0.24020585
79	0x3e3ce573	0.18446903
80	0xbe773eed	-0.24145098
81	0xbe73d8ad	-0.23813124
82	0xba906462	-0.0011016245
83	0xbd782cf9	-0.060589764
84	0x3e6d0cf8	0.23149478
85	0x3d16e985	0.036843795
86	0xbf0e4947	-0.5558056
87	0x3d83375f	0.064070456
88	0x3df504e6	0.11963825
89	0x3ef42d54	0.47690833
90	0xbdd5dea2	-0.104428545
91	0xbe6d696e	-0.2318475
92	0x3e7e9d16	0.24864611
93	0x3ea5cd7c	0.32383335
94	0xbeaa0610	-0.3320775
95	0xbe359362	-0.17732003
96	0x3d552342	0.052035578
97	0xbe78793e	-0.24265
98	0x3e1c11b4	0.15241128
99	0xbd98ccc9	-0.07460935
100	0x3e18d48d	0.14924832
101	0xbed7866a	-0.42094737
102	0x3ec8fc26	0.39254874
103	0x3d4e9af0	0.05044073
104	0xbe501dee	-0.20323917
105	0xbebbee3e	-0.36705202
106	0x3f0b6d25	0.54463416
107	0x3df4fdde	0.11962484
108	0x3e34a1df	0.17639874
109	0xbc65e2e7	-0.0140311485
110	0x3d2b4c74	0.04182096
111	0x3e21589d	0.1575646
112	0x3e6a6212	0.22888973
113	0xbe8d35b5	-0.27580038
114	0xba6d6271	-0.00090555014
115	0x3e5004f2	0.20314386
116	0x3e230370	0.1591928
117	0x3dec498c	0.115374655
118	0xbe588fce	-0.21148607
119	0xbe37309e	-0.1788964
120	0xbdec3fbf	-0.11535596
121	0x3d45ea48	0.04831913
122	0x3e8f14da	0.27945596
123	0xbe873767	-0.26409456
124	0x3e5d58fa	0.21615973
125	0xbdfe39d2	-0.12413372
126	0xbea5df3e	-0.32396883
127	0xbdef53a1	-0.11685873
128	0x3e5bf754	0.21481067
129	0x3e8d5d03	0.27610025
130	0xbe6b6e22	-0.22991231
131	0x3c2064ee	0.0097896885
132	0x3eb0bdab	0.34519705
133	0x3e5f4b2e	0.21806023
134	0x3df4f351	0.119604714
135	0x3df42a41	0.11922122
136	0x3dd3232f	0.10309445
137	0xbc9da66a	-0.019244391
138	0xbeffb771	-0.49944642
139	0xbefe2034	-0.49633944
140	0xbd337038	-0.043808192
141	0x3d32e4b6	0.043675147
142	0xbe98d92b	-0.29853186
143	0x3d865815	0.06559769
144	0x3c415913	0.011801022
145	0x3c0f8641	0.008760036
146	0xbe0abf8a	-0.13549629
147	0x3d36a71b	0.044592958
148	0x3e20b1bd	0.15692802
149	0x3eaaf0c4	0.33386815
150	0xbe65854e	-0.22414133
151	0x3eb2e9ed	0.34944096
152	0xbdeae2a8	-0.114690125
153	0x3d3bb0ac	0.045822784
154	0xbee73c07	-0.45162985
155	0xbe52ff35	-0.20605166
156	0xbe9cf1eb	-0.3065332
157	0xbdc222df	-0.094793074
158	0x3e6fb4f4	0.23408872
159	0x3dc19042	0.09451343
160	0xbe8e1c27	-0.27755854
161	0x3e65ff42	0.22460654
162	0x3dc01e05	0.09380726
163	0x3ebdef63	0.370967
164	0xbe8f0240	-0.27931404
165	0x3de9eb60	0.11421847
166	0xbe275cac	-0.16343945
167	0x3d733fe7	0.059387114
168	0xbf0081af	-0.5019788
169	0xbe995723	-0.29949293
170	0xbe689ca1	-0.22715999
171	0x3e0878d0	0.13327336
172	0xbd2c9425	-0.04213347
173	0x3d8bcbd9	0.0682599
174	0x3ea13a31	0.3148971
175	0x3ee3ab3b	0.44466576
176	0x3d85a569	0.0652569
177	0xbd90e14f	-0.07074224
178	0xbe7145d5	-0.23561795
179	0x3ea1d43d	0.31607237
180	0x3df2d25c	0.11856529
181	0x3dd62c1e	0.104576334
182	0xbe73e624	-0.2381826
183	0xbe28dc74	-0.16490346
184	0xbbbe1216	-0.005800496
185	0x3eae9c7b	0.3410376
186	0xbe536fda	-0.20648137
187	0xbe944409	-0.28958157
188	0x3deedf20	0.116636515
189	0xbe13e1a0	-0.14441538
190	0x3e0f17bc	0.13973898
191	0xbe62d857	-0.2215284
192	0x3c1c87f9	0.009553903
193	0xbdb9fb9e	-0.09081195
194	0x3ea4ef8e	0.32214016
195	0xbec150bf	-0.37756917
196	0x3e6533b6	0.22383007
197	0xbcb0a16f	-0.021561353
198	0x3ebc341a	0.367585
199	0xbeea1f04	-0.45726788
200	0x3e58eb2f	0.21183465
201	0xbe9eb8ac	-0.31000268
202	0x3ea7b3b4	0.3275429
203	0xbe9a1a7b	-0.30098328
204	0xbcc0d8a1	-0.023540797
205	0x3df4f5b5	0.119609274
206	0xbe5af883	-0.21383862
207	0x3e3f84aa	0.18702951
208	0xbe53ae75	-0.20672019
209	0x3e69a8b9	0.22818269
210	0xbe3eec1a	-0.18644753
211	0x3e894401	0.26809695
212	0xbf14f941	-0.5819283
213	0x3e416fdf	0.18890332
214	0xbd14fffe	-0.036376946
215	0x3e9290bd	0.28626052
216	0x3e06be07	0.13158427
217	0xbe3f00f5	-0.18652709
218	0xbe3bfcdd	-0.18358178
219	0x3e8ead76	0.27866715
220	0xbebcd080	-0.36877823
221	0x3ea61fca	0.32446128
222	0xbed90e9b	-0.42393956
223	0xbe45b076	-0.19305596
224	0x3e59444a	0.21217456
225	0xbcc03e9a	-0.02346735
226	0xbd3c4732	-0.045966335
227	0x3ebbf8bf	0.36713216
228	0x3e324b4c	0.17411536
229	0x3ee47f1a	0.4462822
230	0xbe82d613	-0.2555395
231	0xbe851ae1	-0.2599707
232	0x3e9da063	0.30786428
233	0x3e6230ea	0.22088972
234	0xbe8f71eb	-0.280166
235	0x3db33886	0.08751015
236	0xbead57da	-0.33856088
237	0x3ea01fde	0.31274313
238	0xbe1bccbd	-0.1521482
239	0xbec03471	-0.3754001
240	0xbe95cae4	-0.29256356
241	0xbd8ffada	-0.07030268
242	0x3e0d6e6f	0.13811658
243	0x3ccaa889	0.024738567
244	0xbeb1b59c	-0.3470887
245	0xbe0a4017	-0.13501011
246	0xbed5df78	-0.41772056
247	0xbe955178	-0.29163718
248	0xbe18a547	-0.14906798
249	0x3ea268af	0.31720492
250	0x3ec2e5e3	0.38066015
251	0x3d80287d	0.062577225
252	0xbd489450	-0.048969567
253	0x3e3e4ccb	0.18583982
254	0xbe2c8224	-0.1684652
255	0xbe8070a6	-0.25085944

conv1.bias f4 [32]
0	0xbece7116	-0.40320653
1	0xbc805972	-0.01566765
2	0xbecc36e9	-0.39885643
3	0xbd082214	-0.033235624
4	0xbe930180	-0.28712082
5	0xbec1d838	-0.37860274
6	0xbee4b694	-0.44670546
7	0x3e0504f8	0.12990177
8	0x3dbdfbaa	0.09276517
9	0xbe9bb3d8	-0.30410647
10	0xbe9bc8f8	-0.30426764
11	0xbc506e95	-0.012721677
12	0x3c675ff5	0.014121999
13	0xbe06ae4c	-0.13152426
14	0x3d9e0f65	0.0771778
15	0xbe829534	-0.25504458
16	0xbd31e954	-0.04343541
17	0x3dab8e7e	0.083767876
18	0xbdca23f3	-0.09870138
19	0xbed37b57	-0.41305038
20	0xbee64ed9	-0.4498203
21	0xbf22101d	-0.63305837
22	0x3e0b2d5d	0.13591523
23	0xbf0afd67	-0.5429291
24	0x3cc4582c	0.023967825
25	0xbd99deff	-0.07513236
26	0xbeb19b53	-0.34688815
27	0xbeb0de09	-0.345444
28	0x3dd85ad4	0.10564199
29	0xbee3b51a	-0.44474107
30	0xbeaedcd8	-0.34152865
31	0x3db83298	0.08994025

conv2.weight f4 [32, 32, 2, 2]
0	0xbe372e4a	-0.17888752
1	0xbd0e76b0	-0.034781158
2	0xbd15712d	-0.036484886
3	0xbe08e404	-0.13368231
4	0x3d2dd004	0.042434707
5	0xbbadbe5b	-0.005302233
6	0x3d729a85	0.059229393
7	0x3d329cc1	0.043606523
8	0xbb1feac0	-0.0024401397
9	0xbca9d74a	-0.02073254
10	0xbd9e3498	-0.07724875
11	0xbe0048d1	-0.12527777
12	0xbc7751b1	-0.01509516
13	0xbdbcf101	-0.09225655
14	0x3d4b0947	0.049569394
15	0xbcb71c27	-0.022352291
16	0x3b5e3127	0.0033903809
17	0x3dcf34f7	0.10117524
18	0xbd86387b	-0.065537415
19	0xbe0fa8b7	-0.14029203
20	0xbd1e516c	-0.03865187
21	0x3d084aba	0.03327439
22	0xbd1fe1b4	-0.039033607
23	0x3d9bef5f	0.07614016
24	0xbc64feb0	-0.013976738
25	0x3c7ba45a	0.015359009
26	0xbda7baeb	-0.08189949
27	0xbc2774b9	-0.0102207
28	0xbea60709	-0.32427242
29	0xbeaa8a8c	-0.33308828
30	0xbdb69b8d	-0.08916388
31	0xbefbc100	-0.49170685
32	0x3da03234	0.078220755
33	0x3d519519	0.05116758
34	0x3e218fff	0.15777586
35	0x3e7d0955	0.24710591
36	0x3df37879	0.11888213
37	0xbdc93f67	-0.09826546
38	0x3deeeb73	0.11666002
39	0x3d30a3a4	0.04312481
40	0xbe0bc64f	-0.13649867
41	0x3d6ce749	0.05783776
42	0x3d1b27aa	0.037879623
43	0xbcd8a443	-0.026445514
44	0xbd94276d	-0.07234082
45	0xbe6be6c9	-0.23037256
46	0x3e358c10	0.17729211
47	0xbde743e3	-0.11292245
48	0x3d87f488	0.066384375
49	0xbdda8bc8	-0.106711924
50	0x3d00de50	0.031462014
51	0xbe67e127	-0.22644483
52	0x3dad9a90	0.08476746
53	0xbc1c9f0b	-0.009559403
54	0x3c570cf7	0.01312565
55	0xbdffc837	-0.1248936
56	0x3dba00b8	0.09082168
57	0x3c92f5bc	0.01793944
58	0x3e16bad5	0.14719708
59	0x3dd982a9	0.106206246
60	0xbce14f52	-0.027503643
61	0x3e98c9f2	0.29841572
62	0xbde6e942	-0.11274959
63	0xbdf2edf5	-0.11861793
64	0x3dea5882	0.11442663
65	0xbd6b1699	-0.057394598
66	0xbe57470f	-0.210232
67	0xb9c64b71	-0.0003782171
68	0xbcbb3226	-0.022851061
69	0xbe7023ca	-0.23451152
70	0x3d1e5f87	0.03866532
71	0xbb1ee43d	-0.0024244927
72	0xbbb3d8e6	-0.005488503
73	0x3cc0e232	0.023545358
74	0xbe041c4e	-0.12901422
75	0xbe80d519	-0.2516258
76	0xbe44b5a1	-0.19209911
77	0xbec5e69b	-0.386525
78	0x3ddbd501	0.10733987
79	0x3b88d900	0.004176259
80	0x3e8ae5fa	0.27128583
81	0x3eafc193	0.34327373
82	0xbee6e30e	-0.45095104
83	0xbe46a091	-0.19397189
84	0xbe08d5ce	-0.1336281
85	0xbdaf1325	-0.085485734
86	0x3d1c0ec6	0.038100027
87	0xbdbba3cd	-0.09162102
88	0xbdb19a10	-0.08671963
89	0xbce30143	-0.027710563
90	0xbdbcd262	-0.09219815
91	0xbd19b188	-0.037522823
92	0x3f037c29	0.5136133
93	0x3e7d91e5	0.24762686
94	0xbe445926	-0.19174632
95	0xbe802ae9	-0.25032738
96	0xbe8d355c	-0.27579772
97	0x3d68c8e0	0.056832194
98	0x3da7c041	0.081909664
99	0xbeaa1aa6	-0.33223456
100	0x3e07a6bd	0.132472
101	0x3df45271	0.11929787
102	0xbe266b5f	-0.16251896
103	0xbe5d9d5f	-0.21642064
104	0xbd4d60cd	-0.050141145
105	0x3e38faff	0.18064497
106	0xbced1346	-0.028939854
107	0xbdda9161	-0.1067226
108	0xbc8d741b	-0.017267277
109	0x3d8b7928	0.06810218
110	0x3b19d8b1	0.0023475105
111	0x3c81e36f	0.01585552
112	0x3e141041	0.14459325
113	0x3e3d12f0	0.18464255
114	0x3e625565	0.22102888
115	0x3ea5473d	0.32280913
116	0x3da1220e	0.078678235
117	0x3e9ed3ab	0.31020865
118	0xbeb5e28a	-0.35524398
119	0xbe3b1fe1	-0.1827388
120	0xbe48c169	-0.1960503
121	0x3e87aeb8	0.26500487
122	0xbe64c783	-0.22341733
123	0x3dfcd4f0	0.12345302
124	0x3e063580	0.13106346
125	0xbda0c1c6	-0.07849459
126	0x3dfaaedc	0.12240383
127	0x3dc4b61c	0.09605047
128	0xbe822ffa	-0.25427228
129	0xbc94d302	-0.018167023
130	0xbe451aa5	-0.19248445
131	0xbe83bcc6	-0.2572996
132	0xbee01dfd	-0.4377288
133	0xbe92a8e9	-0.28644493
134	0xbeab548d	-0.33462945
135	0xbeb9c395	-0.3628203
136	0xbecbd41c	-0.39810264
137	0xbefc1582	-0.4923516
138	0xbf056a73	-0.52115554
139	0xbeb0b244	-0.34511006
140	0xbe1bcff7	-0.15216051
141	0xbe884a18	-0.2661903
142	0xbebaf9e1	-0.36518767
143	0xbea519b3	-0.3224617
144	0xbe5341f5	-0.2063063
145	0xbe8be926	-0.27326316
146	0xbe8473b7	-0.25869533
147	0xbea133fb	-0.3148497
148	0x3d57c11f	0.05267441
149	0x3d7b2828	0.061317593
150	0x3d825b55	0.063650765
151	0x3dea8671	0.11451424
152	0xbea19a14	-0.31562865
153	0xbe96a4fb	-0.29422745
154	0xbe8719ca	-0.26386863
155	0xbe93ee87	-0.2889292
156	0xbe8edd14	-0.27903044
157	0xbe2e3bdd	-0.17015024
158	0xbf0d6143	-0.55226535
159	0xbeb8499f	-0.35993668
160	0xbee0b3ff	-0.43887326
161	0xbe8a7b5a	-0.27047235
162	0xbed1172d	-0.40837994
163	0xbebead13	-0.3724142
164	0x3b80d1f1	0.003931277
165	0x3d62456d	0.05524199
166	0xbd9d5f91	-0.076842435
167	0x3daa6582	0.08320142
168	0x3b8af640	0.004240781
169	0xbde5009b	-0.11181756
170	0xbd4ab102	-0.049485214
171	0x3d0d3bcb	0.03448085
172	0x3e16def6	0.1473349
173	0x3e2db591	0.16963793
174	0x3e094b2c	0.13407582
175	0x3e68b533	0.22725372
176	0xbf0944ad	-0.53620416
177	0xbf0e0fce	-0.55492866
178	0xbf32cc7d	-0.69843274
179	0xbef63f2b	-0.48095068
180	0xbd97b8a8	-0.07408267
181	0xbe18d7a0	-0.14926004
182	0xbd98e492	-0.07465471
183	0xbdccbcd4	-0.099969536
184	0xbdc98183	-0.098391555
185	0xbe818463	-0.25296316
186	0xbd9392e4	-0.072057515
187	0xbe66b688	-0.22530568
188	0x3dff131c	0.12454817
189	0x3dc85571	0.09781922
190	0x3e311ed3	0.17296915
191	0x3e541c0d	0.20713826
192	0xbebda513	-0.37040004
193	0xbe05c7fb	-0.13064568
194	0xbe3ac9e7	-0.18241082
195	0xbda6653b	-0.08124777
196	0xbe49a18d	-0.19690533
197	0xbe50839a	-0.20362702
198	0xbe975275	-0.29555097
199	0xbe898fca	-0.26867515
200	0x3dee688d	0.11641035
201	0x3dcfb21e	0.10141395
202	0x3e2d753b	0.16939251
203	0x3dd2a016	0.1028444
204	0xbe6942f0	-0.22779441
205	0xbe832fea	-0.25622493
206	0xbcdd5514	-0.027018107
207	0xbe3693e4	-0.17829853
208	0x3ea1acea	0.31577235
209	0x3eaafdda	0.33396798
210	0x3e95400c	0.29150426
211	0x3ec77697	0.38957664
212	0x3df8c994	0.12147823
213	0xbd87ff7d	-0.066405274
214	0x3e2b57ee	0.16732761
215	0xbd8c8b4d	-0.06862507
216	0xbedc39ff	-0.43012998
217	0xbec7c7ce	-0.39019626
218	0xbf12c675	-0.5733407
219	0xbea46ff8	-0.32116675
220	0xbea8bbd0	-0.3295579
221	0xbec71ef5	-0.38890806
222	0xbebb7631	-0.3661361
223	0xbec5e510	-0.38651323
224	0xbefc4fec	-0.49279726
225	0xbebb90ee	-0.3663401
226	0xbf1daf79	-0.61595875
227	0xbeeca91c	-0.4622277
228	0x3db503ea	0.08838637
229	0xbc6db325	-0.014508043
230	0xbd8d9c6c	-0.06914601
231	0xbcc7b2f9	-0.024377333
232	0xbe23ba8b	-0.15989129
233	0xbe013c84	-0.12620741
234	0xbe220fda	-0.1582636
235	0xbc5a8bfa	-0.013339037
236	0xbd04714d	-0.032334615
237	0x3c8eca45	0.017430434
238	0x3c91b4e5	0.017786453
239	0x3b2de360	0.002653323
240	0xbe0d2136	-0.137822
241	0xbce811bc	-0.028328769
242	0xbcc0b7d2	-0.023525152
243	0xbd03267d	-0.032019127
244	0xbb99b016	-0.0046901805
245	0x3d81881c	0.06324789
246	0xbdcbbb3f	-0.09947824
247	0xbd28ce33	-0.041212272
248	0x3cba35e2	0.022730771
249	0xbcac4db7	-0.021033151
250	0x3cb07904	0.02154208
251	0xbd4c1f17	-0.049834337
252	0xbee1f630	-0.4413314
253	0xbea5c82a	-0.32379276
254	0xbe7dfb15	-0.24802811
255	0xbea11c81	-0.3146706

conv2.bias f4 [32]
0	0x3d8afd1a	0.067865565
1	0xbdd69d7b	-0.10479256
2	0xbdd983fc	-0.10620877
3	0xbdf5142a	-0.119667366
4	0x3db5bfc6	0.088744685
5	0xbdb91ad5	-0.09038321
6	0xbe14d56b	-0.14534537
7	0x3e23ab49	0.15983309
8	0xbd7af773	-0.061271142
9	0x3e0a1f73	0.1348856
10	0xbe2dce2c	-0.1697318
11	0x3e4e5c10	0.20152307
12	0x3d9dc89d	0.077042796
13	0xbd8b0311	-0.06787694
14	0xbee85d51	-0.45383695
15	0xbdeb819b	-0.1149933
16	0x3cf970bf	0.03044927
17	0x3ce7eec2	0.02831209
18	0x3d8aa9c5	0.06770662
19	0x3e0e4840	0.13894749
20	0x3cd23816	0.02566151
21	0xbe577717	-0.21041523
22	0x3db3c1a5	0.08777169
23	0x3e3f2b7b	0.1866893
24	0xbcd51640	-0.026011586
25	0x3e4acb72	0.1980417
26	0xbd472540	-0.04861951
27	0xbe000ac1	-0.12504102
28	0x3ccaa05a	0.024734665
29	0x3e611c05	0.21983345
30	0x3e91f8fd	0.28510275
31	0xbdfc32c0	-0.12314367

conv3.weight f4 [64, 32, 2, 2]
0	0xbdd4260b	-0.103588186
1	0x3dc0e0da	0.09417887
2	0x3cb74dfc	0.022376053
3	0x3e8a8d0f	0.27060744
4	0xbcbde2af	-0.02317938
5	0xbe0c5dc0	-0.13707638
6	0x3e389f75	0.18029578
7	0xbe1ef254	-0.15522128
8	0x3d745bcc	0.059657857
9	0x3d95f578	0.0732221
10	0x3db96dbb	0.090541326
11	0x3cf63d7e	0.030058619
12	0x3d61f020	0.05516064
13	0xbd710c22	-0.05884946
14	0x3c69c707	0.014268643
15	0x3cbee9de	0.023304876
16	0xbe7e8f18	-0.24859273
17	0xbe2a57ee	-0.16635105
18	0xbe06a785	-0.13149841
19	0xbe39c217	-0.18140446
20	0xbd92e2db	-0.071721755
21	0x3d45cfb8	0.0482938
22	0xbd6f2496	-0.0583845
23	0x3d28e0cd	0.04123001
24	0x3cf4c9f9	0.029881464
25	0xbd0581d2	-0.03259451
26	0xbd3e3797	-0.046439733
27	0xbd864a6d	-0.06557164
28	0xbe222d03	-0.15837483
29	0xbe80cd7e	-0.25156778
30	0xbe6c79a6	-0.2309328
31	0xbee51a3e	-0.44746584
32	0xbced2aca	-0.028951067
33	0xbdbd1d0b	-0.09234055
34	0x3cd60426	0.026125025
35	0xbcce5576	-0.025187235
36	0x3e56dcb4	0.20982629
37	0xbd45cc21	-0.048290376
38	0x3e2ecf0e	0.17071173
39	0xbea27bed	-0.31735173
40	0x3e2fa1af	0.17151521
41	0x3e9e6a5f	0.3094053
42	0x3e684ff7	0.22686754
43	0x3e9a72f7	0.30165836
44	0x3de482cf	0.11157762
45	0x3e3e90cb	0.18609922
46	0x3e13a16a	0.14417043
47	0x3d60d10f	0.054886874
48	0xbc88968d	-0.01667335
49	0xbe7cc31d	-0.24683805
50	0x3eabe716	0.33574742
51	0x3c0945ad	0.008378428
52	0x3dae3f17	0.08508127
53	0x3dad2dc3	0.08455994
54	0xbbff416b	-0.007789781
55	0xbecb3c52	-0.39694458
56	0xbdfa1401	-0.12210847
57	0xbdf20eca	-0.11819227
58	0x3ce20087	0.027588142
59	0xbe93cf42	-0.28869063
60	0x3dea15f3	0.11429968
61	0x3d9be322	0.076116815
62	0x3d702c2e	0.058635883
63	0x3d49c849	0.049263272
64	0x3d63bdf1	0.055601064
65	0x3d21743a	0.039417483
66	0x3db50ea9	0.08840687
67	0xbc20d14c	-0.009815525
68	0x3d4ff40c	0.05076985
69	0x3d14094a	0.03614167
70	0xbdadea80	-0.08491993
71	0xbd8d9873	-0.06913843
72	0x3dffc195	0.12488095
73	0xbccd7503	-0.02508021
74	0xbe3b1298	-0.18268812
75	0xbd453760	-0.048148513
76	0x3e901b2e	0.28145736
77	0xbc84692c	-0.016163431
78	0x3d4b0085	0.049561042
79	0x3d0bc1a3	0.034120213
80	0xbea0ea1a	-0.31428605
81	0x3c9b4a2c	0.018956266
82	0x3a071f91	0.0005154545
83	0x3e13b7cb	0.1442558
84	0x3e4889b0	0.19583774
85	0x3e1eb49c	0.15498585
86	0xbd259a13	-0.04043014
87	0x3dcade99	0.099057384
88	0xbe022df5	-0.12712844
89	0xbcf1d7d9	-0.02952187
90	0xbdc6e485	-0.097115554
91	0xbc8268c8	-0.015919104
92	0xbec206ea	-0.378959
93	0xbe0141b2	-0.12622717
94	0x3eb27f37	0.34862682
95	0x3e8a57c8	0.27020097
96	0x3e3ad77e	0.18246266
97	0xbe776a07	-0.2416154
98	0x3ea6b7c9	0.32562092
99	0xbe5cca5f	-0.21561573
100	0x3ea3b107	0.31971
101	0xbe7bf535	-0.24605258
102	0x3badebfa	0.0053076716
103	0xbeb57ee3	-0.3544837
104	0x3d258748	0.040412217
105	0xbe573629	-0.21016754
106	0xbe3936b3	-0.18087272
107	0xbd6985a0	-0.0570122
108	0x3d898ef4	0.06716719
109	0x3c50d27e	0.012745498
110	0xbda29909	-0.079393454
111	0xbc30253b	-0.010751064
112	0x3d6d30e7	0.057907965
113	0x3dae2ced	0.08504663
114	0x3dd2ad4e	0.102869615
115	0x3ccfbc2c	0.025358282
116	0x3e6d7911	0.23190714
117	0xbda2907e	-0.07937716
118	0x3df1b856	0.118027374
119	0xbcfa96e7	-0.030589534
120	0x3d9b941d	0.0759661
121	0x3e241d92	0.16026905
122	0x3e0a3614	0.13497192
123	0x3e3e9125	0.18610056
124	0x3c259d88	0.010108359
125	0x3c850235	0.016236404
126	0x3dd88822	0.1057284
127	0xbd3506a5	-0.04419579
128	0xbe17d1d5	-0.14826138
129	0xbef07e4c	-0.46971357
130	0x3ddf97ec	0.10917649
131	0x3c82d4c2	0.015970591
132	0x3df2d138	0.118563116
133	0xbe1a330c	-0.15058535
134	0x3daa683f	0.083206646
135	0x3d9ef8b6	0.077622816
136	0x3d1b7372	0.037951894
137	0x3b32db16	0.002729123
138	0xbdd67e5f	-0.10473322
139	0xbda5efe5	-0.08102397
140	0xbd79781d	-0.060905565
141	0xbdca92d2	-0.09891285
142	0x3d1513cb	0.03639583
143	0x3d7511ed	0.05983155
144	0xbe116d63	-0.14201884
145	0xbe49f9bc	-0.19724172
146	0xbe5cb5a1	-0.21553661
147	0xbdc124f1	-0.09430874
148	0xbbf1d674	-0.007380301
149	0xbcd1f678	-0.02563022
150	0xbcd133f0	-0.025537461
151	0x3d75ce0b	0.06001095
152	0xbc71b4ce	-0.01475258
153	0x3cd1e13f	0.025620101
154	0x3d6d80b4	0.05798407
155	0x3d16adc5	0.036786813
156	0x3c6fab59	0.014628255
157	0xbe8d2e02	-0.27574164
158	0x3db0d899	0.08635063
159	0xbe6836bf	-0.22677134
160	0xbc0cb367	-0.008587695
161	0x3c6363f4	0.013878811
162	0xbc6ec74d	-0.014573884
163	0xbc9b0e9e	-0.018927868
164	0x3d34554f	0.04402667
165	0x3e072e3c	0.13201231
166	0xbe282a69	-0.16422428
167	0xbe622466	-0.22084197
168	0xbd27f2e5	-0.041003127
169	0x3d88d41f	0.06681084
170	0xbe705322	-0.23469213
171	0xbdcb4972	-0.09926118
172	0x3cc4a307	0.024003519
173	0xbec40d09	-0.38291195
174	0x3e80e5a2	0.25175196
175	0xbdc3a201	-0.09552384
176	0x3e348bf0	0.17631507
177	0x3e33c2cb	0.17554776
178	0xbddc77c6	-0.107650325
179	0xbe7498ef	-0.23886465
180	0x3dca1327	0.09866934
181	0x3d335861	0.043785457
182	0x3da604b6	0.08106367
183	0x3e2271a4	0.15863663
184	0xbde9724c	-0.113987535
185	0x3dca54e5	0.098794736
186	0xbe332307	-0.1749383
187	0x3d57c1b4	0.052674964
188	0xbcfc31d8	-0.030785486
189	0x3d9e0ea2	0.07717635
190	0xbd1ca08f	-0.038239058
191	0x3cac4533	0.02102909
192	0x3e242fd9	0.16033877
193	0x3c790b12	0.015200393
194	0xbc2171ef	-0.009853824
195	0x3d541267	0.051775362
196	0xbc831c74	-0.016004778
197	0xbd8e3833	-0.06944313
198	0xbd9cea4e	-0.076618776
199	0x3da48ce4	0.08034685
200	0x3dd418b6	0.10356276
201	0xbc91fd6f	-0.017821042
202	0xbea442fa	-0.3208235
203	0xbe48db9a	-0.19615021
204	0xbd61e92e	-0.055154018
205	0x3cbee373	0.023301816
206	0xbef8ced6	-0.48595303
207	0xbd89f70b	-0.06736573
208	0xbe938907	-0.2881548
209	0x3ce58384	0.028016813
210	0xbebe59d7	-0.37177917
211	0xbe71284a	-0.23550525
212	0xbd62f84e	-0.055412583
213	0xbcbbed89	-0.022940414
214	0x3cc1b278	0.02364467
215	0x3e041567	0.1289879
216	0xbc163465	-0.009167765
217	0x3cffed3b	0.03124105
218	0x3cb87b85	0.022519836
219	0x3e05c030	0.13061595
220	0xbdd276c0	-0.10276556
221	0xbe3a341d	-0.18183942
222	0x3e397a81	0.18113138
223	0x3d12de9d	0.03585683
224	0x3e8763b4	0.26443255
225	0x3e8d655a	0.27616388
226	0xbdcea089	-0.100892134
227	0xbd12c3f5	-0.03583141
228	0x3e6b5bf3	0.22984295
229	0x3dcb0ebc	0.0991492
230	0xbe409066	-0.18805084
231	0xbe3c27d5	-0.1837457
232	0xbe75efed	-0.24017306
233	0xbf318655	-0.693456
234	0xbdeeb1bc	-0.11654994
235	0xbebbcbe1	-0.36678985
236	0x3c8e7246	0.017388474
237	0xbd9a565e	-0.075360045
238	0x3d1a3710	0.037650168
239	0x3da7fe2f	0.082027785
240	0x3d478dd4	0.048719242
241	0x3d52d416	0.051471792
242	0xbebc8308	-0.3681872
243	0xbcdc52f2	-0.02689502
244	0x3d336d85	0.043805618
245	0x3e3c59d9	0.18393649
246	0xbe545fba	-0.20739642
247	0x3deaad2c	0.11458811
248	0x3da59647	0.08085304
249	0x3dcc9317	0.09988993
250	0xbdb82dba	-0.08993097
251	0xbf2072a5	-0.62674934
252	0xbd5e2c02	-0.054241188
253	0x3d0177e3	0.031608474
254	0xbd703d3a	-0.05865214
255	0x3bc777c1	0.006087274

conv3.bias f4 [64]
0	0x3c4eb4cd	0.012616348
1	0x3e99321a	0.29921037
2	0x3e0369fc	0.12833399
3	0xbeb2839a	-0.3486603
4	0x3db08de3	0.08620813
5	0xbd095493	-0.033527922
6	0x3dce866b	0.10084232
7	0xbe1e0452	-0.15431336
8	0x3e1dc82a	0.15408388
9	0x3e09e5b5	0.13466533
10	0xbead9df3	-0.33909568
11	0xbda7a8e3	-0.081865095
12	0x3da9a567	0.08283501
13	0xbd88b31b	-0.06674787
14	0x3e09a5de	0.1344218
15	0x3e27927c	0.16364473
16	0xbd8193e1	-0.06327034
17	0x3c2ed368	0.01067052
18	0x3d7e75ce	0.062124066
19	0x3ce33ff8	0.027740464
20	0x3e0f3f0e	0.13988897
21	0xbc78dc5e	-0.015189258
22	0xbee30627	-0.4434063
23	0xbe0f79ff	-0.14011382
24	0xbc087737	-0.008329204
25	0xbdb4ac35	-0.088219084
26	0x3e8c6ea7	0.2742817
27	0x3c89ee0a	0.016837139
28	0x3e7c5091	0.24640109
29	0x3dd5a336	0.10431521
30	0x3dabf9a5	0.08397225
31	0x3e813561	0.25236037
32	0xbc149b08	-0.009070165
33	0x3e6f2793	0.2335494
34	0xbdd08ceb	-0.10183128
35	0xbe5f898c	-0.21829814
36	0xbb16060a	-0.0022891783
37	0x3e6cf76b	0.23141257
38	0xbdf99d05	-0.12188152
39	0xbd4463dc	-0.047946796
40	0x3dd33000	0.1031189
41	0x3e158c42	0.14604285
42	0x3cc05b7e	0.023481127
43	0xbe2a69ae	-0.16641876
44	0x3dcaac02	0.09896089
45	0xbcec2643	-0.028826838
46	0x3cdf9435	0.02729235
47	0x3da2c777	0.07948201
48	0xbdc55198	-0.096347034
49	0xbd869e6f	-0.065731876
50	0x3de9576a	0.11393626
51	0xbdc2f749	-0.09519822
52	0x3dda2baf	0.10652863
53	0xbe1c3048	-0.15252793
54	0x3df74878	0.12074369
55	0xbd0f6edd	-0.035017837
56	0xbddef949	-0.10887391
57	0x3d90592d	0.07048259
58	0xbe031c11	-0.12803675
59	0xbe4d37aa	-0.20040765
60	0x3dbe91f1	0.0930518
61	0xbb490442	-0.0030672704
62	0xbe034886	-0.12820634
63	0xbd6457d8	-0.055747837

conv4.weight f4 [64, 64, 2, 2]
0	0x3dc47055	0.09591738
1	0xbe6aebbb	-0.22941487
2	0xbc6036ba	-0.013684923
3	0xbf02383b	-0.5086705
4	0xbe1b7d23	-0.15184455
5	0x3e5ca5b4	0.21547586
6	0xbe40bce8	-0.18822062
7	0x3b034218	0.0020028409
8	0xbec95e92	-0.39329964
9	0x3de31c49	0.11089379
10	0xbec5cce0	-0.3863287
11	0xbd883686	-0.066510245
12	0xbe6996a3	-0.2281137
13	0xbe6d8102	-0.23193744
14	0xbe2b64dc	-0.16737694
15	0xbe8f070d	-0.27935067
16	0x3dc3c702	0.09559442
17	0x3e22cae2	0.15897706
18	0x3e1ad75f	0.1512122
19	0xbeb6997d	-0.35663977
20	0x3d9adaf4	0.07561293
21	0xbe5694f8	-0.20955265
22	0x3d5322c1	0.051546816
23	0xbce67657	-0.0281326
24	0x3d0387e3	0.032112014
25	0xbedce3fc	-0.43142688
26	0x3d70cc83	0.058788788
27	0xbe115fdf	-0.14196728
28	0xbd9952dc	-0.07486507
29	0x3dcc1f76	0.09966938
30	0x3e6db97a	0.23215285
31	0xb9bc8b6d	-0.00035962035
32	0x3e5974b2	0.21235922
33	0xbe3c82f8	-0.18409336
34	0x3e9bb807	0.3041384
35	0xbd5ad0ac	-0.05342166
36	0xbe5ac520	-0.2136426
37	0xbe6e0b91	-0.232466
38	0xbde6f43a	-0.11277051
39	0xbe096c46	-0.1342021
40	0xbde101ca	-0.10986669
41	0xbdb4bdbc	-0.088252515
42	0xbe5094d3	-0.20369272
43	0xbe88edc0	-0.2674389
44	0xbeb102e0	-0.34572506
45	0x3da7a5b5	0.08185903
46	0xbe513076	-0.20428643
47	0xbeb919d6	-0.36152524
48	0xbea65a4c	-0.32490766
49	0xbc89f2ca	-0.016839404
50	0x3bc38d39	0.005967763
51	0xbe8375c1	-0.25675777
52	0xbcfaddb8	-0.030623302
53	0xbdba69a0	-0.091021776
54	0xbc886d83	-0.016653782
55	0xbe2791a4	-0.16364151
56	0x3e492bd0	0.1964562
57	0x3daf29e4	0.08552912
58	0x3ec4b485	0.38418975
59	0x3e806576	0.2507741
60	0xbdb05477	-0.086098604
61	0xbe63a3cc	-0.22230452
62	0x3e454d60	0.19267797
63	0xbca712f6	-0.020394783
64	0xbc6b7ebf	-0.01437348
65	0x3d552241	0.05203462
66	0xbe5e348c	-0.21699733
67	0xbc4f0410	-0.012635246
68	0xbe1e9ae2	-0.1548877
69	0xbda64280	-0.081181526
70	0xbe591629	-0.2119986
71	0xbec7eedd	-0.39049426
72	0x3dc154b3	0.09439983
73	0xbdc7ef23	-0.097624086
74	0x3d2e942b	0.042621773
75	0x3ddb48b8	0.107072294
76	0xbe9c3057	-0.3050563
77	0xbbeea826	-0.0072832284
78	0xbe89b82d	-0.26898327
79	0x3dac2ef5	0.08407394
80	0xbdd5414a	-0.104128435
81	0x3e0ce999	0.13760985
82	0x3d6ab41e	0.05730068
83	0x3df8ce42	0.121487156
84	0xbef5e840	-0.48028755
85	0x3eb6d1c9	0.35706928
86	0xbe25a344	-0.16175562
87	0xbd767cdb	-0.060177665
88	0x3d8fd60e	0.070232496
89	0xbd0b0c07	-0.033947017
90	0xbe507911	-0.20358683
91	0xbd5c2f4c	-0.053756043
92	0xbce50260	-0.027955234
93	0x3d2fed2a	0.042950787
94	0x3d0b53fb	0.034015637
95	0x3dad4965	0.084612645
96	0xbeb99165	-0.3624374
97	0x3c3cffa1	0.011535556
98	0xbe45b4c2	-0.19307235
99	0x3e84f95e	0.25971502
100	0x3d008c9f	0.031384107
101	0x3ea305e0	0.3184042
102	0xbe0c0e23	-0.13677268
103	0x3e274fee	0.16339085
104	0x3c8e4634	0.01736746
105	0xbe5006bd	-0.2031507
106	0x3dab29e6	0.08357601
107	0xbe2b0f34	-0.16705018
108	0xbe770d84	-0.2412625
109	0xbf0a3fe8	-0.54003763
110	0xbdcca41b	-0.09992238
111	0xbea9a9e2	-0.33137423
112	0xbdadecce	-0.084924325
113	0xbed4e4d1	-0.41580823
114	0x3c20e274	0.009819616
115	0xbe2bad0b	-0.1676523
116	0xbe2fac22	-0.17155507
117	0xbe2652b6	-0.16242489
118	0xbeee4672	-0.4653812
119	0xbe86f7ee	-0.2636103
120	0x3de6b5fb	0.11265179
121	0x3e37cb34	0.1794861
122	0xbc547760	-0.012967914
123	0xbe582b9f	-0.2111039
124	0xbd6aa02e	-0.057281666
125	0x3e18b09f	0.14911126
126	0xbe99568f	-0.2994885
127	0xbb1dd216	-0.002408152
128	0xbdb96170	-0.09051788
129	0xbd37665f	-0.044775363
130	0xbe0fd9b6	-0.14047894
131	0xbe5eb202	-0.21747592
132	0x3db3254e	0.0874735
133	0xbe9fe71b	-0.31231007
134	0x3d5392cd	0.051653672
135	0x3dd7a91c	0.10530302
136	0x3d26e25c	0.040743217
137	0xbdbbf5ba	-0.09177728
138	0xbe8545d3	-0.26029834
139	0x3e12f99d	0.14353032
140	0xbe10d4e5	-0.14143713
141	0x3d35a0f8	0.044342965
142	0xbdddd0ee	-0.10830866
143	0x3c786ab2	0.015162157
144	0x3c9d69fb	0.019215574
145	0xbd97bd42	-0.07409145
146	0x3e374927	0.17898999
147	0x3e34f371	0.1767099
148	0x3db8f11b	0.09030362
149	0x3e0b9b36	0.13633427
150	0x3e0315d5	0.12801297
151	0x3e1b3a3d	0.15158935
152	0xbe845ef0	-0.25853682
153	0x3dc1dfa1	0.09466482
154	0xbeeb8af5	-0.46004453
155	0xbee6de0c	-0.45091283
156	0xbe28f6a1	-0.16500331
157	0x3e03edd4	0.12883693
158	0xbe6f5c33	-0.23375015
159	0xbe0d4760	-0.13796759
160	0xbe2c305b	-0.16815321
161	0x3e6d878a	0.23196235
162	0xbe532876	-0.20620903
163	0x3eb0fb6b	0.34566817
164	0xbe3ef936	-0.18649754
165	0x3b11a490	0.002222333
166	0xbe2feac7	-0.17179404
167	0xbd2841e2	-0.041078456
168	0x3d91628a	0.07098873
169	0xbe42c3a4	-0.19019943
170	0xbe1c3c5e	-0.15257403
171	0xbe5189db	-0.20462744
172	0xbd7e0ba2	-0.062022813
173	0xbd4c93e5	-0.04994573
174	0xbd08d02a	-0.033401646
175	0x3aff27e8	0.0019466849
176	0x3dd68965	0.10475425
177	0x3e12ff54	0.14355212
178	0xbc4b66fe	-0.012414692
179	0x3ede757f	0.43449017
180	0xbe5f657f	-0.21816061
181	0x3d05a566	0.03262844
182	0xbe5ceb79	-0.215742
183	0xbdde5478	-0.10855955
184	0x3d5b950c	0.05360894
185	0xbe871fc8	-0.26391435
186	0x3e3d4188	0.1848203
187	0xbecaaa40	-0.39583015
188	0x3cb16a70	0.021657199
189	0xbee6e88b	-0.4509929
190	0x3e36f630	0.1786735
191	0xbe0b3719	-0.13595237
192	0xbe9679f3	-0.29389915
193	0x3e273de7	0.16332208
194	0xbe3de57e	-0.18544576
195	0x3c7607c7	0.015016503
196	0xbc2bd187	-0.010486967
197	0xbe610b61	-0.21976997
198	0x3ea84322	0.32863718
199	0xbe06e43a	-0.13172999
200	0x3d73aea8	0.059492737
201	0xbdbf5c27	-0.093437485
202	0x3ebc9854	0.36834967
203	0x3de5333e	0.11191414
204	0xbdad3994	-0.08458248
205	0x3d1a25a3	0.03763355
206	0x3d0eb173	0.034837198
207	0x3d8e31ec	0.069431156
208	0x3d8ce590	0.06879723
209	0x3c5a39c3	0.0133194355
210	0x3e23b746	0.15987882
211	0x3e0f3e4b	0.13988607
212	0x3d301eca	0.042998113
213	0xbeb54af9	-0.35408762
214	0x3ccabf4e	0.024749424
215	0xbe838fa9	-0.25695542
216	0x3ea12563	0.31473836
217	0xbe30d6c3	-0.17269425
218	0x3dfa6cca	0.12227781
219	0x3e32abe0	0.17448378
220	0xbe963b65	-0.2934219
221	0xbddbbc5a	-0.107292846
222	0xbc5fc213	-0.013657111
223	0x3d18dedb	0.037321907
224	0x3d8512fc	0.064977616
225	0x3e117d64	0.14207989
226	0xbe092a80	-0.13395119
227	0x3eb1c689	0.34721783
228	0xbe9ac899	-0.3023117
229	0x3e37fe8d	0.17968197
230	0xbedfa2ac	-0.43678796
231	0xbe000ffe	-0.125061
232	0xbdbe2e65	-0.09286193
233	0x3e359a7b	0.17734711
234	0x3e48cd9b	0.19609682
235	0xbe95564f	-0.2916741
236	0xbdc21c5f	-0.094780676
237	0xbdc6a9b8	-0.0970034
238	0x3c374e1d	0.011188057
239	0x3c0fce72	0.008777248
240	0x3e088a2c	0.13333958
241	0xbe9f5bee	-0.31124824
242	0x3e9a0771	0.30083802
243	0xbe93599e	-0.2877931
244	0xbc35eb4f	-0.011103465
245	0xbec4622e	-0.38356155
246	0x3e61b822	0.22042897
247	0x3c7c26bb	0.015390093
248	0xbe83db12	-0.25753075
249	0x3db5d33c	0.088781804
250	0xbd83a3f9	-0.0642776
251	0xbde42701	-0.11140252
252	0xbda8190d	-0.08207903
253	0x3d1db2c0	0.038500547
254	0xbe13bc36	-0.14427266
255	0x3dc190a6	0.094514176

conv4.bias f4 [64]
0	0xbdc4b657	-0.09605091
1	0xbda463be	-0.08026837
2	0x3c61eedb	0.013789858
3	0xbdd1081f	-0.10206627
4	0x3d43b16b	0.04777662
5	0x3db8a681	0.09016133
6	0x3c88e611	0.016711267
7	0xbd55980f	-0.052146968
8	0xbde933af	-0.11386811
9	0x3e641853	0.22274904
10	0xbdc6c19c	-0.09704897
11	0xbca7fa2a	-0.02050503
12	0x3e01a04e	0.12658808
13	0x3e8c7a64	0.27437127
14	0x3ddf7e2c	0.10912737
15	0x3e21ac80	0.1578846
16	0xbd278c48	-0.040905267
17	0xbe0e34a2	-0.13887265
18	0x3dd5d227	0.10440474
19	0x3cdd7878	0.027034983
20	0x3e95a5c2	0.29228026
21	0x3db4fd1b	0.088373385
22	0xbe91a5a4	-0.28446686
23	0xbd4aabfb	-0.04948042
24	0xbdbb44be	-0.09143971
25	0x3e4e42f5	0.2014273
26	0xbda16a9d	-0.07881663
27	0x3e89348b	0.267979
28	0x3d9f8afe	0.077901825
29	0x3deb0d77	0.114771776
30	0xbdf3a2f4	-0.11896315
31	0x3df6c9af	0.12050187
32	0x3e80ad30	0.25132132
33	0x3df6e87b	0.12056061
34	0xbdce1d4f	-0.10064184
35	0xbe0cc4c1	-0.1374693
36	0xbc6db611	-0.01450874
37	0xbe601a76	-0.21885094
38	0xbe86275e	-0.2620191
39	0xbe56f1ef	-0.20990728
40	0x3d64be20	0.05584538
41	0xbe80799b	-0.25092778
42	0x3d5d96e1	0.054098967
43	0x3d88bff9	0.06677241
44	0x3d740609	0.059576068
45	0xbe016740	-0.12637043
46	0x3db2b5ba	0.08726068
47	0xbe14fca1	-0.14549495
48	0x3df9d88e	0.12199508
49	0xbe3a764b	-0.18209188
50	0xbdc2986a	-0.09501727
51	0xbc51e191	-0.012810127
52	0x3e00cf1b	0.12579004
53	0x3e67c89c	0.2263512
54	0x3e6dc8e2	0.23221162
55	0xbdd42308	-0.10358244
56	0xbc0c7809	-0.0085735405
57	0x3d3590da	0.044327594
58	0xbd2fa11d	-0.04287826
59	0xbde88407	-0.11353307
60	0x3e0af702	0.13570789
61	0x3e31bc15	0.17356904
62	0xbdd85ce2	-0.10564591
63	0xbd9371bf	-0.0719943

conv5.weight f4 [128, 64, 2, 2]
0	0xbe2cfef9	-0.1689414
1	0xbe304627	-0.17214261
2	0xbe74cff7	-0.23907457
3	0xbe28b0e9	-0.16473736
4	0x3caac8ea	0.020847756
5	0xbd51d8e0	-0.05123222
6	0x3cd98828	0.026554182
7	0xbdad3083	-0.084565185
8	0x3e680c0f	0.2266085
9	0x3c27775b	0.010221328
10	0x3e8c0271	0.27345613
11	0xbe29e824	-0.16592461
12	0xbe8484ec	-0.2588266
13	0x3dc2443b	0.0948567
14	0xbe65249a	-0.22377244
15	0xbe0ec2fc	-0.13941568
16	0xbe9beb06	-0.30452746
17	0xbed9327b	-0.42421326
18	0xbe587e9d	-0.21142049
19	0xbeb0c2d7	-0.3452365
20	0xbeb2b1cd	-0.34901276
21	0x3d2887fb	0.041145306
22	0xbde07a8e	-0.109608755
23	0xbe1353fb	-0.14387505
24	0xbd86a9fd	-0.065753914
25	0x3da7c46d	0.08191762
26	0x3cc4093d	0.023930186
27	0x3e310324	0.17286354
28	0xbe71ab54	-0.23600513
29	0xbe6b36a5	-0.22970064
30	0xbd20f05c	-0.039291725
31	0x3d11b207	0.03557017
32	0xbd5e6d5e	-0.05430352
33	0xbebcc9e7	-0.3687279
34	0xbcb6b7c2	-0.02230442
35	0xbd94cd1e	-0.072656855
36	0x3db90afd	0.09035299
37	0x3d198efb	0.037489872
38	0x3e8e7f47	0.2783148
39	0xbe2b159c	-0.16707462
40	0xbea7c77d	-0.32769385
41	0xbe861cec	-0.2619394
42	0x3d16b9b9	0.036798213
43	0x3d9512c3	0.07278969
44	0xbed21b8d	-0.41036645
45	0x3d3102fa	0.04321573
46	0x3d0fe958	0.035134643
47	0x3e779e82	0.2418156
48	0xbe0189cb	-0.1265022
49	0xbf483f45	-0.7822154
50	0xbd9d4e3b	-0.07680937
51	0xbe702a83	-0.23453717
52	0xbe887679	-0.26652887
53	0xbe090ced	-0.13383837
54	0xbe857e08	-0.26072717
55	0x3d410167	0.047120478
56	0x3c9efe15	0.019408265
57	0xbe505686	-0.20345506
58	0xbe9e5486	-0.3092386
59	0x3e38fd0b	0.18065278
60	0xbec92585	-0.39286438
61	0x3de740c2	0.112916484
62	0xbcc025c3	-0.023455506
63	0xbcead650	-0.028666645
64	0x3e779455	0.24177678
65	0x3e29ac5e	0.16569659
66	0xbef695a8	-0.48161054
67	0xbe851740	-0.259943
68	0xbb498ee4	-0.0030755335
69	0x3c581816	0.013189336
70	0x3c6f108d	0.014591348
71	0x3d6b6fe6	0.05747976
72	0xbcb665cc	-0.022265337
73	0x3e368307	0.1782342
74	0xbea0757e	-0.3133964
75	0xbda3057e	-0.07960032
76	0x3d5b1d31	0.053494636
77	0xbdde14e8	-0.10843831
78	0x3d8d04d3	0.06885686
79	0x3e8020e6	0.250251
80	0x3d753594	0.05986555
81	0xbc775785	-0.01509655
82	0x3e2dcd7e	0.1697292
83	0x3cc88060	0.024475276
84	0x3d06fd68	0.03295651
85	0xbc09b13c	-0.008404072
86	0x3cd3f683	0.025874382
87	0x3e477808	0.19479382
88	0xbeab80c5	-0.3349668
89	0x3d9be858	0.076126754
90	0xbc13af39	-0.009013944
91	0x3ea91c8d	0.33029595
92	0xbe9cd854	-0.30633795
93	0xbe48234a	-0.19544712
94	0x3dacff62	0.08447148
95	0xbd0f500c	-0.034988448
96	0xbd957e59	-0.072994895
97	0xbd030121	-0.0319835
98	0xbd9b9f6d	-0.075987674
99	0xbda9e74f	-0.08296072
100	0xbdc73673	-0.09727182
101	0xbe98ebf9	-0.29867533
102	0x3e6f0e92	0.23345402
103	0x3dc47e66	0.09594421
104	0xbd7d2829	-0.061805878
105	0xbcf34660	-0.029696643
106	0x3e078ee5	0.13238104
107	0xbf06dca1	-0.52680403
108	0x3ee7dc23	0.45285138
109	0xbcced61d	-0.025248582
110	0x3e92173b	0.28533348
111	0x3e24a98c	0.16080302
112	0x3db91a95	0.09038273
113	0x3d860aad	0.06545005
114	0x3f1ebc3c	0.6200597
115	0xbd452006	-0.048126243
116	0x3e7a47b6	0.24441418
117	0x3dd91c04	0.10601047
118	0x3e9a8456	0.3017909
119	0x3e93934c	0.28823316
120	0xbd72def2	-0.05929465
121	0xbb84852e	-0.0040441966
122	0xbba44e98	-0.005014252
123	0xbd499ea3	-0.049223553
124	0x3e09f4a6	0.13472232
125	0xbdbf05fa	-0.09327312
126	0x3ea31bc2	0.31857115
127	0xbe96b068	-0.29431462
128	0xbca6f9c0	-0.020382762
129	0xbddeb65e	-0.108746275
130	0xbe6b0ddc	-0.22954506
131	0xbdf74443	-0.12073567
132	0xbea65a36	-0.324907
133	0x3c6f7db0	0.014617369
134	0xbe3a9c75	-0.18223746
135	0xbe0854f1	-0.13313653
136	0x3ea52521	0.3225489
137	0x3ef63aa5	0.48091617
138	0x3dc74da2	0.09731604
139	0x3eca3edf	0.39501092
140	0xbe465676	-0.1936892
141	0x3e549486	0.20759782
142	0xbe8ce078	-0.27515006
143	0x3dce9fb8	0.10089058
144	0x3d978b12	0.073995724
145	0x3e1bea80	0.15226173
146	0x3c4f859d	0.012666133
147	0xbe67df7d	-0.22643848
148	0xbeb67e3a	-0.35643178
149	0xbe9e3439	-0.30899218
150	0xbe362011	-0.1778567
151	0x3e8728a6	0.263982
152	0xbd3c9239	-0.046037886
153	0x3ec812bc	0.39076793
154	0xbdbe0a99	-0.09279365
155	0xbdc2a08a	-0.09503277
156	0xbe21e69f	-0.15810631
157	0xbe089cfa	-0.13341132
158	0xbeb8fc70	-0.36130095
159	0xbe172cb5	-0.14763148
160	0xbe2c71cb	-0.16840284
161	0xbe5b5311	-0.21418406
162	0x3e2fe4eb	0.17177169
163	0xbc521441	-0.012822212
164	0xbeb50fa0	-0.35363483
165	0xbe25cdeb	-0.16191833
166	0xbe0b05b6	-0.13576397
167	0xbe648f48	-0.22320282
168	0x3c8c22fc	0.017106526
169	0x3cdebe07	0.027190221
170	0xbeafd19c	-0.34339607
171	0xbefa3bee	-0.48873848
172	0x3d17c0c2	0.037049063
173	0xbca62479	-0.020281063
174	0x3cb12f84	0.021629103
175	0x3eab0057	0.33398697
176	0xbd981ff3	-0.07427969
177	0xbe8afdca	-0.2714675
178	0x3dafefa7	0.08590632
179	0xbe00fdfa	-0.12596884
180	0x3e09931b	0.13435023
181	0x3e0019ec	0.12509888
182	0xbe3c424a	-0.18384662
183	0xbe010219	-0.12598456
184	0xbe79a5c5	-0.24379642
185	0xbd4302a5	-0.047609944
186	0xbf04514f	-0.5168657
187	0xbed8af34	-0.4232117
188	0x3d72d85b	0.059288364
189	0xbe256d51	-0.16154982
190	0xbea3287e	-0.3186683
191	0xbebaa886	-0.36456698
192	0xbda1cafd	-0.07900045
193	0x3d6a4221	0.05719197
194	0xbe0dc33e	-0.1384401
195	0xbd8758b1	-0.066087134
196	0x3e48a2a6	0.19593295
197	0xbf1ae8db	-0.6051156
198	0xbe8e81da	-0.27833444
199	0xbf0346b3	-0.51279753
200	0xbda303c7	-0.07959705
201	0x3df41558	0.119181335
202	0xbdb65e51	-0.08904708
203	0xbe0b622d	-0.1361167
204	0x3dddf49d	0.10837672
205	0x3de2f10d	0.11081133
206	0x3e600ce3	0.21879916
207	0xbeaa7607	-0.33293173
208	0x3ce94b1c	0.028478198
209	0xbcbfe183	-0.023422962
210	0xbdfa775c	-0.12229797
211	0xbd90f461	-0.070778616
212	0x3e89c4da	0.26907998
213	0x3eb78791	0.35845616
214	0xbd38f2a9	-0.045153294
215	0xbe70bb6b	-0.23508994
216	0x3e342432	0.17591932
217	0xbebe4a1c	-0.37165916
218	0xbd87156b	-0.06595882
219	0xbe5ea788	-0.21743596
220	0xbe92818d	-0.28614464
221	0xbe68440c	-0.22682208
222	0x3e3fe6fd	0.18740459
223	0xbeb66013	-0.35620174
224	0x3db53717	0.08848398
225	0xbd8fd7da	-0.07023592
226	0x3de17ceb	0.11010154
227	0x3d5aba34	0.053400233
228	0x3d76fa07	0.06029704
229	0xbcae9745	-0.021312365
230	0xbec41bfc	-0.383026
231	0xbdfe30f4	-0.12411681
232	0x3e09d093	0.13458471
233	0x3eaef285	0.34169403
234	0xbe0de19d	-0.13855596
235	0x3e8cbf1e	0.2748956
236	0xbe2cf2da	-0.16889516
237	0xbdbb9f97	-0.09161299
238	0xbd0714a3	-0.032978665
239	0x3e2e13ac	0.16999692
240	0xbda1f991	-0.07908929
241	0x3de7e13f	0.11322259
242	0x3db0f16d	0.08639798
243	0x3f444e49	0.76681954
244	0xbec68b54	-0.38778174
245	0xbe006223	-0.12537436
246	0x3dc01612	0.093792096
247	0xbe94eeb9	-0.2908838
248	0x3e2d05a7	0.16896687
249	0xbdd0e825	-0.10200528
250	0x3da7c838	0.081924856
251	0xbe841252	-0.25795227
252	0xbd64db39	-0.05587313
253	0xbc67617b	-0.014122362
254	0x3a70fa8a	0.00091926067
255	0x3c71fd0e	0.014769806

conv5.bias f4 [128]
0	0x3e46a044	0.19397074
1	0x3dc5c4d3	0.09656682
2	0x3e3cd218	0.1843952
3	0x3de602a8	0.112309754
4	0xbdd23dd5	-0.102657
5	0x3e2ff7a8	0.17184317
6	0x3e07850a	0.13234344
7	0x3e2d5e00	0.1693039
8	0x3dc6f3fe	0.097145066
9	0xbe8e043e	-0.27737612
10	0x3dcea998	0.10090941
11	0x3c86a9af	0.016438333
12	0xbe21373d	-0.15743728
13	0xbe24bb8b	-0.16087167
14	0xbe156f0f	-0.14593147
15	0x3dafcb74	0.085837275
16	0xbe703644	-0.234582
17	0x3df25b6a	0.11833842
18	0x3db40403	0.08789828
19	0xbddd087b	-0.10792633
20	0x3db3a1dc	0.087711066
21	0x3dc0c5ff	0.09412765
22	0xbc8c93ea	-0.017160375
23	0x3b87468e	0.004128284
24	0x3ec4a435	0.3840653
25	0x3e4316b5	0.19051631
26	0x3d9450b3	0.07241955
27	0xbeaf005d	-0.34179965
28	0xbd9a19ad	-0.075244285
29	0xbe261882	-0.16220286
30	0x3d6e8e27	0.058241036
31	0xbd144724	-0.036200657
32	0xbbd4d050	-0.0064945593
33	0xbe4cb097	-0.19989239
34	0x3e23b991	0.15988757
35	0x3e871ed4	0.26390707
36	0x3d86d733	0.06584015
37	0x3e033cac	0.12816113
38	0xbd14f16f	-0.03636306
39	0xbd33851a	-0.043828107
40	0x3cd83c7f	0.026396034
41	0x3ca4333f	0.020043967
42	0x3d3d24a6	0.04617753
43	0x3cdd3e09	0.02700712
44	0x3d3c9ead	0.046049763
45	0x3e3d2997	0.18472897
46	0xbd7636f9	-0.06011102
47	0x3e49bd19	0.19701041
48	0x3de27ea0	0.11059308
49	0x3e017896	0.12643656
50	0xbe261d1a	-0.16222039
51	0xbe5efb8d	-0.21775647
52	0xbec5100d	-0.38488808
53	0xbe2d5d93	-0.16930227
54	0x3deaa1c7	0.11456638
55	0x3e3ecd34	0.18632966
56	0x3cff663c	0.031176679
57	0x3e0cebbc	0.137618
58	0xbe27e9c9	-0.16397776
59	0x3da64d15	0.08120171
60	0xbdaa5ef8	-0.08318895
61	0x3e4ab592	0.19795826
62	0x3e23d73d	0.16000076
63	0x3e0d9385	0.13825805
64	0xbdc83f65	-0.097777165
65	0x3e417b01	0.18894579
66	0xbccb4e6f	-0.024817673
67	0x3e7a5b6b	0.24448936
68	0xbccefc7f	-0.025266884
69	0xbc729a32	-0.014807271
70	0x3ce63362	0.028100673
71	0xbd04b0ee	-0.032395296
72	0x3d8a7575	0.067606844
73	0xbd22c0f0	-0.03973478
74	0xbdca5f5d	-0.0988147
75	0xbe3e6be2	-0.18595842
76	0x3cf32f84	0.029685743
77	0xbe75cf9c	-0.24004978
78	0xbe42074d	-0.18948098
79	0x3ca8a203	0.020585066
80	0x3dc733b3	0.09726658
81	0xbd611468	-0.0549511
82	0x3cebef32	0.02880058
83	0xbda3ba34	-0.079945
84	0x3dc0c1aa	0.094119385
85	0x3a441c6e	0.0007481043
86	0xbdb70083	-0.089356445
87	0x3e06bfad	0.13159056
88	0xbe645995	-0.22299798
89	0x3e6f7bf7	0.23387133
90	0x3e350a16	0.17679629
91	0x3d834841	0.06410266
92	0xbdf2e711	-0.11860479
93	0x3ba015a9	0.0048853946
94	0xbca3937c	-0.019967787
95	0x3d9f260c	0.07770929
96	0x3e7d8521	0.24757816
97	0xbcc8446b	-0.024446687
98	0xbe0f727a	-0.14008513
99	0x3eb0182f	0.3439345
100	0xbe06f245	-0.13178356
101	0xbe118863	-0.14212184
102	0x3deffd5a	0.11718245
103	0xbd87a41b	-0.066230975
104	0xbde4bccc	-0.11168823
105	0xbb1685c0	-0.0022967905
106	0x3e3db0b9	0.18524446
107	0xbe39451e	-0.18092772
108	0x3e04b877	0.12960993
109	0x3e6ea33e	0.2330446
110	0x3e592e8f	0.21209167
111	0xbce139d0	-0.027493387
112	0x3e477e3e	0.19481751
113	0x3d76fe94	0.06030138
114	0x3d999af7	0.0750026
115	0xbd0ae388	-0.033908397
116	0xbe226604	-0.15859228
117	0x3da13143	0.07870724
118	0xbeac42ce	-0.33644718
119	0x3e10ac4e	0.14128229
120	0x3e53a5fe	0.2066879
121	0xbd8c75d2	-0.0685841
122	0x3d3b4b10	0.045725882
123	0x3db32d9a	0.08748932
124	0x3e31a661	0.17348625
125	0xbd88f059	-0.06686468
126	0xbe2f7e74	-0.17138082
127	0xbe502204	-0.20325476

conv6.weight f4 [64, 128, 2, 2]
0	0xbdcfeb1e	-0.10152267
1	0xb9e659be	-0.00043935882
2	0xbeec0172	-0.46094853
3	0xbef2d875	-0.4743077
4	0xbea33055	-0.31872812
5	0xbe902cd8	-0.28159213
6	0xbea884bf	-0.32913777
7	0xbea57c79	-0.32321528
8	0xbe6be594	-0.23036796
9	0xbefe79c9	-0.4970229
10	0xbe1fd3df	-0.15608166
11	0x3d2d87f4	0.042365983
12	0x3e4e2c90	0.20134187
13	0x3cc5e7e4	0.024158426
14	0x3d9dd893	0.07707324
15	0xbddf263c	-0.108959645
16	0xbe355cd3	-0.17711191
17	0xbd24613f	-0.040131804
18	0x3d309b97	0.043117132
19	0x3e8ce482	0.27518088
20	0x3d83b9ec	0.06431946
21	0x3dbaace0	0.091150045
22	0x3ea87b94	0.32906783
23	0x3e75c68e	0.24001524
24	0xbe2d9017	-0.16949497
25	0x3e62f62e	0.22164223
26	0x3d927ebc	0.07153079
27	0xbea62e54	-0.3245722
28	0x3e3c6835	0.18399127
29	0x3da91262	0.08255459
30	0xbe051c00	-0.12998962
31	0x3da6f24a	0.08151682
32	0xbe1286aa	-0.14309183
33	0xbe58fc1e	-0.21189925
34	0xbe009fb4	-0.12560922
35	0xbdb0b17c	-0.086276025
36	0xbedb66b9	-0.4285181
37	0xbe4eb417	-0.20185886
38	0xbdb6321c	-0.08896276
39	0xbe83e9ed	-0.2576441
40	0x3d88b9b2	0.066760436
41	0xbbcdcb40	-0.006280333
42	0x3d8ad2e4	0.067785054
43	0x3da8d1b6	0.08243124
44	0x3d25e59c	0.040502176
45	0xbe9dba02	-0.30805975
46	0xbebe2542	-0.371378
47	0xbed6cd8f	-0.41953704
48	0xbe43e606	-0.19130716
49	0xbead6fc5	-0.33874336
50	0x3e54ce9c	0.2078194
51	0x3ce3259a	0.02772789
52	0xbda0da4b	-0.07854136
53	0x3d88f8dd	0.06688092
54	0xbcf1adff	-0.029501913
55	0xbe52ea1a	-0.20597115
56	0xbe5aab35	-0.21354373
57	0xbe9cac2c	-0.30600107
58	0x3dda7db9	0.10668511
59	0xbd879eaf	-0.06622063
60	0xbcdebaa9	-0.027188616
61	0x3e15eb41	0.14640523
62	0xbdf814fa	-0.12113376
63	0xbe3745dd	-0.17897744
64	0xbcac64e1	-0.021044197
65	0x3d86027a	0.06543441
66	0x3c1295df	0.008946865
67	0x3ddb5a5e	0.107105955
68	0x3d42e66c	0.04758303
69	0x3d7fd132	0.062455364
70	0x3eb7476a	0.35796672
71	0x3ec826e8	0.39092183
72	0x3dbffffc	0.09374997
73	0xbbe53a8e	-0.0069955057
74	0x3e86dc97	0.26340172
75	0x3e5aacd3	0.2135499
76	0xbca7fe57	-0.02050702
77	0x3c91a5c7	0.017779244
78	0xbccde9d3	-0.02513591
79	0x3cd0b8ba	0.02547871
80	0x3e25dfd5	0.16198666
81	0x3d9bccd1	0.07607425
82	0x3e1f7f53	0.15575914
83	0xbe309686	-0.1724492
84	0xbdfc35ca	-0.12314947
85	0x3e32703c	0.17425627
86	0x3ea47f11	0.32128194
87	0x3e852492	0.26004463
88	0x3dfe55b9	0.12418694
89	0xbe9ea7ee	-0.30987495
90	0xbe4fb73a	-0.20284739
91	0xbf1a5045	-0.6027873
92	0xbe663355	-0.22480519
93	0xbe8e7d94	-0.27830184
94	0xbf0fe427	-0.5620751
95	0xbf47bd5f	-0.7802333
96	0xbdc3e895	-0.09565846
97	0xbeccbc1f	-0.39987275
98	0xbf0f6707	-0.5601658
99	0xbed6320a	-0.41835052
100	0x3cb6bf28	0.022307947
101	0xbeba2684	-0.3635751
102	0xbeb68ec0	-0.35655785
103	0xbf78f4db	-0.9724862
104	0xbe1ba071	-0.15197922
105	0xbea39bbb	-0.3195475
106	0x3e3a5fcb	0.18200605
107	0xbdce09a8	-0.100604355
108	0x3dcbe7f6	0.099563524
109	0xbe632a06	-0.22184
110	0x3da3d9d0	0.08000529
111	0x3e94cc3c	0.29062068
112	0xbdb63dd9	-0.08898515
113	0xbc8bce2e	-0.017066088
114	0x3e09d63d	0.13460632
115	0x3c378776	0.01120173
116	0xbcc02346	-0.02345432
117	0xbcbbc798	-0.022922322
118	0xbd8133fe	-0.06308745
119	0xbcf2d0d1	-0.029640587
120	0xbdaa1a35	-0.0830578
121	0x3e090391	0.13380267
122	0x3e139dd8	0.14415681
123	0xbe54acc3	-0.20769028
124	0xbe82d75b	-0.25554928
125	0x3d8a2ad7	0.06746452
126	0xbd469e22	-0.04849065
127	0xbdf88fc5	-0.12136797
128	0x3e74c269	0.23902287
129	0x3dff9da7	0.12481242
130	0xbc85ba89	-0.016324298
131	0x3e8cd510	0.27506304
132	0x3cca0248	0.02465929
133	0xbd4c3fcf	-0.04986554
134	0xbda06d19	-0.07833309
135	0xbd8a6b99	-0.06758804
136	0x3e7b03b5	0.24513133
137	0xbd2499fe	-0.04018592
138	0xbe4ecb92	-0.20194843
139	0xbd6f39b6	-0.058404647
140	0xbd508b34	-0.050914004
141	0xbe67e4bd	-0.2264585
142	0x3dd68b92	0.1047584
143	0x3c35dc47	0.0110998815
144	0x3e8773b4	0.26455462
145	0x3e894daf	0.2681708
146	0x3e1b04c3	0.15138535
147	0x3e1e3e3c	0.15453428
148	0x3dc31a25	0.09526471
149	0x3ede969f	0.4347429
150	0x3e8134c3	0.25235566
151	0x3dd2b3b4	0.10288182
152	0xbd118dfb	-0.035535794
153	0xbe9f19df	-0.31074426
154	0x3d65f924	0.056145802
155	0xbe8cc999	-0.27497557
156	0xbd5314ac	-0.051533386
157	0xbe72d3ff	-0.23713683
158	0x3d10c9a6	0.035348557
159	0x3e4a8b63	0.19779734
160	0x3e2a054a	0.1660358
161	0xbe1fae10	-0.15593743
162	0xbd2c427c	-0.042055592
163	0x3e406e5b	0.18792097
164	0x3df76383	0.12079527
165	0xbd00008c	-0.03125052
166	0x3dda11d0	0.10647929
167	0x3e39de3e	0.18151185
168	0x3de75448	0.11295372
169	0xbe33ad72	-0.17546633
170	0xbd19d759	-0.037558887
171	0xbe8a1876	-0.26971787
172	0xbe7817ee	-0.24227878
173	0xbe01ecde	-0.12688014
174	0x3ea3de28	0.3200543
175	0x3e7958d0	0.24350286
176	0x3cfaa448	0.030595914
177	0x3ced03f1	0.028932543
178	0x3e4176b8	0.18892944
179	0x3e288644	0.16457468
180	0xbe8fd398	-0.2809112
181	0xbe0a4f7d	-0.13506885
182	0xbe490aec	-0.19633073
183	0x3d937a49	0.072010584
184	0x3e52b23d	0.20575805
185	0xbe33308a	-0.17498985
186	0x3e4e9eda	0.20177785
187	0x3e053fa1	0.13012554
188	0xbe21aefb	-0.15789406
189	0xbd0eeb74	-0.034892514
190	0xbe34e4f3	-0.17665462
191	0xbd241e7f	-0.040068146
192	0xbe6c05ee	-0.23049137
193	0xbf0fbbc7	-0.561459
194	0xbea9ccfa	-0.33164197
195	0xbeb1dd1b	-0.34739003
196	0xbe01a637	-0.12661062
197	0x3da99889	0.08281047
198	0x3eb5c617	0.35502693
199	0xbe7f0be5	-0.24906881
200	0xbe938bc2	-0.28817564
201	0xbdccd5e6	-0.100017354
202	0xbe40f4ca	-0.1884338
203	0xbddb8383	-0.10718443
204	0x3e45d2d7	0.1931871
205	0xbd8e3637	-0.069439344
206	0x3e38fff7	0.18066393
207	0x3db7205a	0.089417174
208	0x3e1e3af2	0.15452173
209	0xbdae6565	-0.08515433
210	0xbce404e8	-0.02783437
211	0xbe4f4c54	-0.2024396
212	0x3e887304	0.2665025
213	0x3ddd4be7	0.10805493
214	0xbd403f13	-0.046935152
215	0xbc4eb5c8	-0.012616582
216	0xbe081fb5	-0.13293345
217	0x3e149107	0.14508449
218	0x3eaf6a30	0.34260702
219	0x3df31f5e	0.11871217
220	0xbe627741	-0.22115804
221	0xbe0bb200	-0.1364212
222	0xbde2271d	-0.110426165
223	0xbe1119e9	-0.1417004
224	0x3b999fe9	0.004688252
225	0xbbd94338	-0.0066303276
226	0x3e8e3f62	0.27782732
227	0x3de00aa2	0.10939528
228	0xbda99d9e	-0.08282016
229	0x3dcc6aa1	0.09981275
230	0x3e1bd666	0.15218505
231	0xbd111e0f	-0.035429057
232	0x3b2f4a9b	0.002674735
233	0xbc8c7d09	-0.017149465
234	0xbcac2483	-0.021013504
235	0x3d03ab89	0.03214601
236	0x3e233059	0.15936412
237	0x3e17051f	0.14748047
238	0xbe951fa2	-0.29125696
239	0xbe28db4a	-0.16489902
240	0x3e238f25	0.15972574
241	0x3d0c42ca	0.034243383
242	0xbe08db5c	-0.13364929
243	0x3e0c63ec	0.13709992
244	0x3e9fdbd0	0.3122239
245	0x3e19343c	0.14961332
246	0xbd8853fa	-0.06656642
247	0xbd8de078	-0.0692758
248	0xbdcd1f56	-0.100157425
249	0x3e0df6cb	0.13863675
250	0xbdef7924	-0.116930276
251	0x3ca3c35d	0.019990617
252	0x3e5196e5	0.20467718
253	0x3dae19a9	0.08500988
254	0xbe1f2f98	-0.155455
255	0x3ccf4f3e	0.02530634
