model/model_17.pth (torch_old, 571877 bytes, 24 tensors)

conv1.weight f4 [32, 3, 2, 2]
000000 55 4a e0 bd b1 fd e6 bd 27 57 1c be d5 59 c8 3e
       -0.10951678 -0.112788565 -0.15267621 0.39131036
000010 b6 15 18 bf f1 00 1b 3e d8 58 0c be c6 ed dc 3e
       -0.5940813 0.15137078 -0.13705766 0.43150157
000020 7b d5 97 be ae 30 99 bd 32 44 6d 3b 32 ca 8c 3e
       -0.2965506 -0.07479988 0.0036203978 0.27498013
000030 16 06 4f 3e ff 86 04 be cc 5b fa 3d 2d bb 77 3c
       0.20217165 -0.12942122 0.1222454 0.01512031
000040 08 37 8f 3d 29 36 82 bd 19 99 a6 3e df 9e 23 3d
       0.06992918 -0.063579865 0.3253868 0.039946433
000050 27 cb 0b be a3 19 7b be cd cc 27 bd 1d c5 72 be
       -0.13651715 -0.24521498 -0.040966798 -0.23708005
000060 41 42 f5 bd 7b 72 30 3d fa 65 00 3e 38 19 6b 3e
       -0.119755276 0.043077927 0.12538901 0.22958839
000070 ad 8b ab be ad 30 4e 3e 13 f7 32 bd 4a 98 9e 3e
       -0.33505002 0.20135756 -0.04369266 0.30975562
000080 b7 55 0b 3e d3 53 4c be ea c7 eb be e0 48 f1 bd
       0.13606916 -0.19953851 -0.4605096 -0.11781478
000090 a6 1a c6 3e ac 04 45 bd f7 9a 8a 3d e2 52 8d be
       0.38692206 -0.04810016 0.067678384 -0.27602297
0000a0 af 96 c6 3e d0 0f 6c be 8a 4c 2a 3e 7c a1 46 be
       0.38786837 -0.23052907 0.1663076 -0.19397539
0000b0 5d ea 71 bd 39 b2 8d 3c 02 89 5b be 33 3a 16 be
       -0.059061397 0.017296897 -0.21438983 -0.14670639
0000c0 cc 9f 20 be 49 a8 d5 bd 84 70 be be da 95 61 be
       -0.15685958 -0.104324885 -0.37195218 -0.2202982
0000d0 1a 62 49 3e 67 a4 aa bd 8a e7 9a 3e 02 ee 62 3e
       0.19666329 -0.083321385 0.30254775 0.22161105
0000e0 f3 cb 3c bd c5 34 91 be e0 6c 1d 3e 8b a0 bf 3c
       -0.04609294 -0.28360572 0.15373564 0.023391983
0000f0 f5 4b 43 be 25 1f ef 3d f1 c5 76 3e 5c 16 83 3e
       -0.19071944 0.11675862 0.24098946 0.25602996
000100 c6 b8 47 be 16 ff 07 be 8e a0 a4 bb a6 9c be bc
       -0.19504079 -0.13280901 -0.0050240224 -0.023268055
000110 82 63 a8 be b5 64 b7 be 16 7c f7 3d 91 39 2f be
       -0.32888418 -0.3581902 0.120842144 -0.17111804
000120 54 53 0d 3d ac 3c 9b bd b4 37 63 bd d5 79 31 bd
       0.034503296 -0.075799316 -0.055473045 -0.04332908
000130 5b 8f 2a 3e c9 61 22 3e e3 5f 4d be ba cc 4b 3e
       0.16656248 0.15857615 -0.20056109 0.19902316
000140 2e 8b 22 be a7 1a 57 be bc 75 99 bb 55 59 d4 bd
       -0.15873405 -0.21006261 -0.0046832245 -0.10368601
000150 b0 8e 72 3e 5b ce 52 3d 84 4c 12 bf 32 e4 75 3d
       0.23687243 0.051466327 -0.57148004 0.060032077
000160 1f ad 02 3e de 02 fa 3e 1c d3 f0 bd d4 42 7a be
       0.12761353 0.48830312 -0.11759016 -0.24439555
000170 d1 0f 79 3e 51 80 a2 3e 62 88 b3 be ec c1 52 be
       0.2432244 0.31738523 -0.3506499 -0.20581788
000180 15 d9 2b 3d 51 3c 94 be 7e 9a 38 3e 05 28 c9 bd
       0.041955072 -0.28952268 0.18027684 -0.09822086
000190 51 3f 09 3e da a6 ea be 62 bd d4 3e 05 81 0f 3d
       0.1340306 -0.45830423 0.41550738 0.035035152
0001a0 2f 00 6d be 9d 1e ce be 23 c9 0d 3f db de d4 3d
       -0.23144601 -0.4025773 0.55385035 0.10394069
0001b0 80 62 14 3e 5e 2f 07 bd a8 cd 15 3d b7 5a 21 3e
       0.144907 -0.033004157 0.036573082 0.15757261
0001c0 e8 0c 60 3e f8 99 8d be a7 c1 54 3c a8 d0 65 3e
       0.21879923 -0.2765653 0.012985623 0.22442877
0001d0 72 cd 18 3e 3e 08 0f 3e d6 98 49 be 6e 79 17 be
       0.14922121 0.13967988 -0.19687209 -0.14792415
0001e0 17 65 ef bd 7b 4b 26 3d 4f 28 91 3e f4 6a 88 be
       -0.11689203 0.040599328 0.28351066 -0.266441
0001f0 4e 76 2e 3e 68 14 3f be 2f f6 ac be a2 03 00 be
       0.17037317 -0.18660128 -0.33781573 -0.12501386
000200 f6 38 57 3e 68 cd 88 3e 81 c0 66 be 35 82 03 3d
       0.21017823 0.26719213 -0.22534372 0.032106597
000210 56 74 be 3e 1c 72 64 3e 65 f9 00 3e c4 21 c6 3d
       0.37198132 0.22309154 0.12595136 0.09674409
000220 9b f4 10 3e 61 6f 86 bc 3e d7 f3 be 8a 6c 05 bf
       0.1415581 -0.016410531 -0.47625154 -0.5211874
000230 75 ea 02 bc 70 86 5f 3d 32 b6 8d be 92 f1 3b 3d
       -0.007990469 0.05457157 -0.27678066 0.045884676
000240 7b 2d 53 3c 40 8a 0f 3c 28 92 00 be a5 27 67 3d
       0.012889261 0.008760989 -0.12555754 0.056434292
000250 60 d9 24 3e df 64 a9 3e a6 e0 3f be 60 ac c4 3e
       0.16098547 0.3308477 -0.1873804 0.38412762
000260 31 05 0b be 80 ac ca 3c 6b e3 d8 be c2 f5 3a be
       -0.13576199 0.024740458 -0.42361006 -0.18257812
000270 fc 3c ba be a5 73 19 be 7e 8c 36 3e ba d1 b3 3c
       -0.36374652 -0.14985521 0.17827031 0.021950591
000280 c6 8c 86 be 20 54 5d 3e c4 34 ba 3d ab b5 b3 3e
       -0.26279277 0.21614122 0.090920955 0.3509954
000290 a5 c7 a0 be db a4 63 3d 0c 75 77 be 34 53 ed bc
       -0.31402317 0.05557714 -0.24165744 -0.028970338
0002a0 3f 6a 08 bf c6 d3 9d be 12 ce 7d be 05 b8 09 3e
       -0.5328712 -0.30825633 -0.24785641 0.13449104
0002b0 46 27 51 bd c7 b5 a7 3d 19 e7 a3 3e f3 2c f1 3e
       -0.051062845 0.08188968 0.3201225 0.47104606
0002c0 da 10 89 3d e0 36 82 bd a0 6c 59 be ee d5 b0 3e
       0.06692667 -0.06358123 -0.21232843 0.34538215
0002d0 44 fe 05 3e 0d d0 ce 3d 42 99 5d be 22 30 1a be
       0.13085276 0.10098276 -0.21640494 -0.15057424
0002e0 9e 65 1e 3c 94 a5 ae 3e a0 8d 2d be 91 d8 83 be
       0.009667782 0.341107 -0.16948557 -0.25751165
0002f0 c7 c0 ef 3d 97 86 18 be 7f c7 1f 3e 9f fd 51 be
       0.11706691 -0.14895092 0.15603445 -0.20506905
000300 d7 09 ae 3c 5a d0 c3 bd bc ae ae 3e 73 c0 bd be
       0.021244926 -0.09561224 0.34117687 -0.3706089
000310 ec 08 66 3e 62 b4 42 bd 71 14 c0 3e dd 99 f0 be
       0.22464341 -0.047535308 0.37515596 -0.46992388
000320 86 bc 44 3e fd c3 b7 be 13 3a a4 3e 68 9d a7 be
       0.19212541 -0.35891715 0.32075557 -0.3273728
000330 e3 96 bc bc 6b 3e 16 3e 4f f8 63 be 98 28 5d 3e
       -0.023021167 0.14672248 -0.22262691 0.21597517
000340 cb 88 5e be 6d 3e 80 3e 63 af 4f be 13 da 97 3e
       -0.2173187 0.25047627 -0.20281748 0.29658565
000350 62 fb 1a bf 12 6d 39 3e 2e 35 83 bd 4e 6a 93 3e
       -0.6053983 0.18108013 -0.064066276 0.28792042
000360 87 00 f0 3d 0f 49 3e be 9b da 35 be 1f 89 96 3e
       0.117188506 -0.18582557 -0.17759173 0.2940149
000370 4b 51 cc be ef 04 a3 3e 5d 41 de be 4d 5c 4a be
       -0.39905772 0.31839702 -0.43409243 -0.19761772
000380 e6 c9 7d 3e 0f b8 47 3c cf de 3e 3b d4 df ce 3e
       0.2478405 0.012189879 0.0029124503 0.40405142
000390 ad 04 42 3e 0e 5e e4 3e 0f 11 86 be e4 b3 89 be
       0.18947096 0.44603008 -0.2618489 -0.26895058
0003a0 00 f6 a4 3e 80 8b 5e 3e 8a 97 8f be c3 d3 a0 3d
       0.32218933 0.21732903 -0.28045303 0.0785289
0003b0 c7 1d a0 be 17 fa a8 3e 98 02 3d be fa 2e c3 be
       -0.31272718 0.33003303 -0.1845802 -0.38121778
0003c0 57 29 86 be fd 93 52 bd 50 41 2f 3e f5 d7 5d 3d
       -0.26203415 -0.051410664 0.17114758 0.05416103
0003d0 39 08 b5 be 63 52 1b be c4 dd d7 be 3e 19 96 be
       -0.35357836 -0.15168147 -0.4216138 -0.29316133
0003e0 f2 cc 2d be 70 e3 94 3e f7 25 bb 3e 77 58 57 3d
       -0.16972712 0.2907977 0.36552402 0.0525746
0003f0 4e c3 93 bc da 59 49 3e d6 cc f0 bd 9c 43 5d be
       -0.018037464 0.19663182 -0.11757819 -0.21607822

conv1.bias f4 [32]
000000 e1 17 c2 be 6b 36 bf bd b0 50 fc be d1 6f 2d be
       -0.37908843 -0.09336551 -0.4928031 -0.16937186
000010 95 ba c6 be 97 3d 01 bf 3b 26 0f bf ea 55 05 3e
       -0.38814226 -0.50484604 -0.5591771 0.13021055
000020 55 39 af 3d fa 17 b4 be fd ab cf be db 4c c2 bc
       0.08555857 -0.35174543 -0.40560904 -0.023718288
000030 63 d2 be bd cf 28 49 be 18 e6 9e 3d b7 fa ca be
       -0.09317472 -0.19644473 0.07758731 -0.39644405
000040 be d5 a9 bd 9c 8b f6 3d b2 aa 27 be d4 4f 07 bf
       -0.08292721 0.12038347 -0.16373709 -0.52856183
000050 fd 3c 02 bf 80 31 41 bf 9f 55 0a 3e 01 62 1c bf
       -0.5087431 -0.75466156 0.13509224 -0.6108704
000060 82 ae 50 3d 94 94 d4 bd cd 42 bd be 1b 35 eb be
       0.050947674 -0.103799015 -0.36965027 -0.45938954
000070 13 4e eb 3d f2 9d ef be 6a c3 cb be a8 b5 90 3d
       0.11489501 -0.4680019 -0.39797527 0.07065898

conv2.weight f4 [32, 32, 2, 2]
000000 8b 68 4a be 3f f2 f5 3d 52 7e c3 bd 87 69 b3 bd
       -0.19766442 0.120090954 -0.09545578 -0.08760362
000010 fa 30 a8 3c 25 0b 33 3d f1 ee 8e bd 0d 1d 50 3c
       0.020531166 0.0437118 -0.06979168 0.012702239
000020 d7 d7 a4 bc 38 74 03 3d c6 fc 53 be f2 88 36 be
       -0.020122452 0.032093257 -0.20701894 -0.17825678
000030 13 75 c7 bd 55 fd a1 bd e7 77 08 bd 1a 3b c8 bd
       -0.09739127 -0.079096474 -0.033317473 -0.09776898
000040 e2 3f c0 bd 4c 5a da 3c 48 ab e0 bd 92 8d 48 be
       -0.09387185 0.026654385 -0.10970169 -0.19585255
000050 97 be 35 bd b6 45 07 3d d2 0a 03 bd ed 8e 9c 3d
       -0.044371214 0.033025466 -0.03199274 0.076444484
000060 3b 6c 14 3d 5f f9 13 3e 4d 75 ff bd b7 d6 f3 3c
       0.03623603 0.14450596 -0.12473545 0.02976547
000070 e3 75 9b be dd aa a3 be b8 ca 59 bd fb b9 e3 be
       -0.30363378 -0.31966296 -0.053171843 -0.4447783
000080 10 76 e1 3d 34 c2 e1 3d 65 fc 10 3e 8b 39 89 3e
       0.11008847 0.110233694 0.14158781 0.26801714
000090 7a da df 3d f7 63 ad bd ca 83 fb 3d 62 30 d2 3d
       0.10930343 -0.084663324 0.12280996 0.102631345
0000a0 96 9a e6 bd e9 0b 94 3d 02 7f 88 3d 3a 8c c1 bc
       -0.11259954 0.07228834 0.0666485 -0.023626436
0000b0 96 2b ef bc 38 27 86 be d6 56 31 3e e5 57 25 be
       -0.029195588 -0.26201797 0.17318282 -0.1614681
0000c0 4d ac 05 3e 21 51 0d bd 7b 7a 96 3d 00 91 39 be
       0.13054009 -0.0345012 0.0734758 -0.1812172
0000d0 df 83 7b 3d 8d 63 9b 3d 24 a3 cc 3b 4f 19 e6 bd
       0.06140506 0.07587347 0.006245034 -0.11235296
0000e0 77 c8 e0 3d 3d 9e cb 3b 05 89 1c 3e fe 7f f2 3d
       0.10975736 0.006213932 0.15286644 0.11840819
0000f0 87 fe b1 b9 8a c5 a3 3e a1 8d a1 bd c5 24 a3 bd
       -0.00033949708 0.31986648 -0.07888342 -0.079659976
000100 46 50 1c 3e 65 a5 c5 bc 53 9c 48 be b5 ef 14 bc
       0.15264997 -0.024126718 -0.19590883 -0.009090354
000110 f1 10 2c 3d 46 be 80 be c2 dc 58 3d 8c c9 20 3b
       0.042008344 -0.25145167 0.052944906 0.0024534194
000120 59 a6 8a 3d 03 9c 4b 3d b3 ee ab bd 28 2c 55 be
       0.067700095 0.04970933 -0.08395138 -0.20817626
000130 f0 5b ff bd a5 18 85 be 23 5a 5a 3d 22 d0 be 3d
       -0.124687076 -0.25995365 0.053308617 0.09317042
000140 5c 3e 95 3e 04 07 b7 3e 9f bf dc be b2 82 3c be
       0.2914914 0.3574754 -0.43114945 -0.18409231
000150 9d 18 8c be 23 f6 09 be 3b 47 60 bd a3 12 5c be
       -0.27362528 -0.134728 -0.05475543 -0.21491484
000160 87 8e 04 be c3 39 d6 ba 0f b6 0f bd 77 02 89 bc
       -0.12944995 -0.0016344119 -0.035085734 -0.016724808
000170 a4 5c fb 3e c2 1c 66 3e 6a 96 75 be 0c 23 94 be
       0.49094117 0.22471908 -0.2398316 -0.2893299
000180 de 84 94 be 2e 5c d0 3d 0b 67 03 3e 5f 44 90 be
       -0.2900762 0.10173832 0.12832277 -0.28177163
000190 0f 84 05 3e 65 a8 e5 3d 8f f5 4c be 95 7a 66 be
       0.13038658 0.11213759 -0.20015548 -0.22507699
0001a0 16 76 b3 bd 86 d1 70 3e ed 14 70 3d dd c6 7d bd
       -0.087627575 0.23517427 0.058613706 -0.06195723
0001b0 b4 91 3a bd 40 d5 e1 3d 54 a4 c4 ba d4 92 30 3d
       -0.04554911 0.11027002 -0.0015002587 0.043108776
0001c0 6b 8b 18 3e 9b b8 2c 3e cd 89 35 3e 1b 9f 9b 3e
       0.14896934 0.16867296 0.17728348 0.30394825
0001d0 f2 a5 0e 3d 6b 6a 85 3e 31 32 aa be 8b b0 24 be
       0.034826227 0.26057753 -0.33241418 -0.16082971
0001e0 cd 11 85 be 0b f1 49 3e 82 7c fe bd 55 4e ae 3d
       -0.25990143 0.19720857 -0.12426092 0.085110344
0001f0 d6 2b 1e 3e 0c f5 8f bd c6 81 93 3d 4a 35 99 3d
       0.1544641 -0.07029161 0.07202487 0.07480867
000200 7a fb 68 be 11 a1 fe bd 04 a7 2d be a9 e1 8a be
       -0.2275218 -0.12433065 -0.16958243 -0.2712529
000210 fb ec c8 be 72 1a 71 be bc 42 9d be 01 03 b1 be
       -0.39243302 -0.23545244 -0.30714977 -0.34572604
000220 f9 3a bc be ac a9 e7 be 41 f8 0a bf 59 4e 9a be
       -0.36763743 -0.45246637 -0.54285055 -0.301379
000230 b3 32 57 be f4 53 d7 be 1a 67 d7 be ec 55 dc be
       -0.21015434 -0.4205624 -0.42070848 -0.43034303
000240 2b 15 6c be 04 4e 86 be a1 c0 6d be 02 9f 9e be
       -0.2305495 -0.26231396 -0.23218013 -0.30980688
000250 88 78 3e 3e bb cf 59 3e c3 cc 37 3e dd 3a 74 3e
       0.18600667 0.21270649 0.17949204 0.2385058
000260 62 8b b3 be 25 ed 9e be 2c c1 92 be c0 f4 8b be
       -0.35067278 -0.31040302 -0.28663003 -0.27335167
000270 ec a3 b5 be e7 94 ae be 8a fe 08 bf 95 87 cc be
       -0.35476625 -0.34097978 -0.53513396 -0.3994719
000280 70 36 e8 be 57 a5 f0 bd 83 a8 e0 be 87 a7 b2 be
       -0.45354033 -0.11750286 -0.43878564 -0.34893438
000290 a6 0e 48 bc 04 b2 a4 3c 60 0b 0c be 72 12 55 3d
       -0.012210524 0.020104416 -0.13676214 0.052019544
0002a0 a8 3f ee 3c 54 9e 9a bd e5 4c d2 3c 4b 22 f1 3d
       0.029083088 -0.0754973 0.025671432 0.11774119
0002b0 c8 6b d8 3d d7 13 03 3e 7a 49 eb 3d 23 bb 4d 3e
       0.10567433 0.12800537 0.11488624 0.20090918
0002c0 a5 f7 d9 be 6b cc 15 bf 61 6d 2a bf 79 49 02 bf
       -0.4257175 -0.5851504 -0.6657315 -0.5089336
0002d0 8e 28 cd bd af 3b 24 be f3 46 f3 bd c0 dc 0c be
       -0.10017501 -0.16038392 -0.11878767 -0.13756084
0002e0 6b 7b 35 be dd 29 a0 be c0 fc a2 bd 18 51 3a be
       -0.17722861 -0.3128194 -0.079583645 -0.18194997
0002f0 05 b3 65 3e 3d 92 31 3e 28 fd 80 3e ff 9e 85 3e
       0.22431572 0.17340942 0.25193143 0.26097867
000300 27 ba 6d be 6c f6 d5 bc 03 82 83 bd 18 be 82 bd
       -0.23215543 -0.02611848 -0.06421282 -0.06383914
000310 74 d9 46 be f9 df 82 be ae 02 38 be 45 47 7e be
       -0.1941889 -0.25561503 -0.17969772 -0.24831875
000320 e4 25 99 3c 5d 18 a3 3c fa 07 c4 3d 53 f9 13 3d
       0.018694825 0.019909078 0.09571834 0.036126446
000330 86 f1 3b be c0 b6 80 be 22 9b 4a bc f0 c8 0c be
       -0.18353853 -0.25139427 -0.012366088 -0.13748527
000340 7c c2 ab 3e 47 f8 c8 3e be 7c a8 3e 63 d6 e2 3e
       0.33546817 0.3925192 0.3290767 0.4430419
000350 15 cd 50 3e 29 3e e2 3b 34 47 91 3e ea ba e8 3c
       0.20390733 0.0069043827 0.28374636 0.02840944
000360 50 00 be be bb 3a c1 be cd 5e 10 bf 02 0c 9f be
       -0.37109613 -0.3774012 -0.56394655 -0.3106385
000370 47 69 73 be c7 d4 90 be 59 4d 90 be 7f 8c 8a be
       -0.23770629 -0.28287336 -0.28184012 -0.27060315
000380 38 01 f6 be ef 05 da be 11 ee 1c bf be 9b e4 be
       -0.48047805 -0.42582652 -0.6130076 -0.44650072
000390 f6 37 c4 3d 4c e2 da bc 0a 2a 49 bd 93 56 af 3a
       0.09580986 -0.026719235 -0.049112357 0.0013377242
0003a0 f9 c2 63 be c1 4a 34 be 8e b2 34 be 74 0c d5 bc
       -0.22242345 -0.17606641 -0.17646238 -0.026006915
0003b0 47 bd 45 bd dd e9 8e 3b 61 e1 d1 3b c0 a8 39 bc
       -0.048276212 0.004361375 0.006405041 -0.011331737
0003c0 73 25 33 be f1 ee 76 3c df 0a 97 bd 08 68 62 bd
       -0.17494754 0.0150716165 -0.0737512 -0.055274993
0003d0 7e 08 12 bd 54 2b 7c 3c 42 48 3e be 6d d2 ca bc
       -0.03565263 0.01539119 -0.18582252 -0.024758542
0003e0 79 50 96 bd 06 bc 1a bd 35 f7 27 3d 4e 10 f9 3c
       -0.07339568 -0.03777697 0.04100724 0.030403282
0003f0 65 bd f1 be 7f 7f a0 be 83 11 b5 be 66 50 c9 be
       -0.4721481 -0.31347272 -0.35364923 -0.39319152

conv2.bias f4 [32]
000000 eb 64 3e 3d f6 44 9a bd fc 83 d9 bd 41 00 1b be
       0.04648296 -0.075326845 -0.10620877 -0.15136816
000010 e6 dd f3 3d d5 1a b9 bd 6b d5 14 be 48 87 1a 3e
       0.11907558 -0.09038321 -0.14534537 0.15090668
000020 73 f7 7a bd bb b3 17 3e fe d3 4f be cc aa 41 3e
       -0.061271142 0.14814655 -0.20295712 0.1891281
000030 8b 7f d2 3d cd 05 f1 bd 77 62 e8 be 9b 81 eb bd
       0.10278233 -0.117686845 -0.45387623 -0.1149933
000040 e9 28 2c 3c e3 f7 5e 3b 5d cf 52 3d 5e c0 f0 3d
       0.010507801 0.0034022264 0.05146729 0.11755441
000050 94 36 4f 3d 17 77 57 be 4b 33 3f 3d 24 e9 08 3e
       0.05058916 -0.21041523 0.046679776 0.13370186
000060 f5 20 88 bd 70 15 45 3e 1d c5 0b 3d c1 0a 00 be
       -0.06646911 0.19246459 0.03412353 -0.12504102
000070 90 8a d0 3b 92 c0 50 3e 3c 0f 8c 3e 3c 73 1e be
       0.006364174 0.2038596 0.27355373 -0.15473646

conv3.weight f4 [64, 32, 2, 2]
000000 0c ae d2 bd 1b 2c b9 3d 24 f1 23 3c a6 d6 96 3e
       -0.10287103 0.090416156 0.010006223 0.2946064
000010 44 cd 21 3d 50 45 61 be c1 c8 70 3e 9f fd 51 be
       0.039502397 -0.21999097 0.23514082 -0.20506905
000020 cc 5b 74 3d 78 f5 95 3d bb 6d b9 3d 7e 3d f6 3c
       0.059657857 0.0732221 0.090541326 0.030058619
000030 46 3a 06 3d 1a 0c 71 bd 7a e1 6d 3c 6b 12 08 bd
       0.032770418 -0.05884943 0.01451909 -0.03322069
000040 22 6c c4 be 78 08 a4 be 2f 7e 6d be bd 3e 8c be
       -0.3836375 -0.3203771 -0.23192666 -0.27391616
000050 db e2 92 bd b8 cf 45 3d 96 24 6f bd cd e0 28 3d
       -0.071721755 0.0482938 -0.0583845 0.04123001
000060 f9 c9 f4 3c d2 81 05 bd 97 37 3e bd 6d 4a 86 bd
       0.029881464 -0.03259451 -0.046439733 -0.06557164
000070 ad ab 16 be 03 03 58 be 0d d4 9f be d1 a3 d8 be
       -0.14713927 -0.21094899 -0.3121647 -0.42312482
000080 ca 2a ed bc 0b 1d bd bd 26 04 d6 3c 76 55 ce bc
       -0.028951067 -0.09234055 0.026125025 -0.025187235
000090 0f d7 81 3e 31 35 92 bd be a1 78 3e c5 c6 c8 be
       0.2535939 -0.07139052 0.2428045 -0.3921415
0000a0 65 97 3a 3e 01 5c 9e 3e ac 62 66 3e b1 1e 9a 3e
       0.18221815 0.30929568 0.22498578 0.3010154
0000b0 e4 57 4f 3d ef 9e bc 3d e2 23 d8 3c dc cd 38 3d
       0.05062093 0.09210002 0.026384298 0.045118198
0000c0 24 2b 95 bc bf 9e bb be 62 49 c6 3e 11 23 31 bd
       -0.018209048 -0.3664455 0.38727862 -0.043246333
0000d0 62 1c 46 3e 3b bc 54 3e 21 60 6a bd 9d f6 f2 be
       0.19346765 0.20774929 -0.057220582 -0.47453776
0000e0 32 52 0c be 05 00 69 bd 89 b1 09 bd ac 92 73 be
       -0.1370323 -0.056884784 -0.033616576 -0.2378642
0000f0 f3 15 ea 3d 22 e3 9b 3d 2e 2c 70 3d 49 c8 49 3d
       0.11429968 0.076116815 0.058635883 0.049263272
000100 7c 37 8b 3d 1d 71 76 3d a7 0e b5 3d 3f 93 28 bc
       0.06797692 0.060166467 0.08840685 -0.010289012
000110 53 ce 3b 3d 94 a0 8b 3d 45 5c df bd 2a 0f ca bd
       0.045851063 0.06817737 -0.10906271 -0.098661736
000120 0e 09 22 3e 14 69 3b bc 85 54 03 be 43 4e 11 bd
       0.15823767 -0.011438627 -0.1282521 -0.035475027
000130 3f 45 89 3e 68 c6 30 bd 30 7f fa 3d 4a 33 a0 3c
       0.26810643 -0.043157965 0.1223129 0.019555707
000140 52 22 86 be 48 4a 47 3d ca a3 4f 3d f2 ff 22 3e
       -0.2619806 0.048654824 0.05069331 0.15917948
000150 b0 89 48 3e 9c b4 1e 3e 13 9a 25 bd 99 de ca 3d
       0.19583774 0.15498585 -0.04043014 0.099057384
000160 79 42 b0 bd 23 d2 b1 bc 5d 71 84 bd e5 60 00 bd
       -0.08606429 -0.021706646 -0.06466935 -0.031342406
000170 64 ff c7 be 0f 50 0a be a9 69 b7 3e ad 60 53 3e
       -0.39062035 -0.13507102 0.358228 0.20642348
000180 99 b7 17 3e 7a 94 6d be 56 e0 87 3e 5a 45 5b be
       0.1481613 -0.2320117 0.26538342 -0.21413174
000190 93 96 ca 3e a9 7f 45 be e4 b0 b6 3c 04 c6 a3 be
       0.39568004 -0.1928698 0.022301145 -0.3198701
0001a0 16 75 8f 3d 42 8a 1f be c2 19 49 be 43 93 f3 bd
       0.07004754 -0.15580085 -0.19638732 -0.11893322
0001b0 f4 8e 89 3d 7e d2 50 3c 09 99 a2 bd 3b 25 30 bc
       0.06716719 0.012745498 -0.079393454 -0.010751064
0001c0 67 57 04 3d 94 e6 24 3d 56 3d d2 3d 1b 79 39 3d
       0.032309916 0.04025896 0.10265605 0.04528151
0001d0 30 6b 7e 3e f1 b7 b8 bd ac 7a 20 3e 90 f6 a7 3b
       0.24845576 -0.09019459 0.15671796 0.005125828
0001e0 8c 5d 76 3d 94 60 89 3e 84 c9 ef 3d bd eb 67 3e
       0.060147807 0.26831496 0.11708358 0.22648521
0001f0 88 9d 25 3c 35 02 85 3c 22 88 d8 3d a5 06 35 bd
       0.010108359 0.016236404 0.1057284 -0.04419579
000200 1e 58 56 be 9f e9 0c bf 5f c0 7d 3d c8 89 89 bc
       -0.20932052 -0.5504398 0.061951037 -0.016789332
000210 c2 9a 75 3e 1d 04 bd bd 09 ae 80 3e dd 2b 54 3e
       0.23984817 -0.092293 0.25132778 0.20719858
000220 72 73 1b 3d 16 db 32 3b 5f 7e d6 bd e5 ef a5 bd
       0.037951894 0.002729123 -0.10473322 -0.08102397
000230 be fa 80 bd fb 16 d0 bd cb 13 15 3d ed 11 75 3d
       -0.06297825 -0.10160633 0.03639583 0.05983155
000240 37 5b a9 bd c5 fe 1c be d9 ad 3c be 7b e2 bf bd
       -0.08269351 -0.15331562 -0.18425693 -0.093693696
000250 74 d6 f1 bb 78 f6 d1 bc f0 33 d1 bc 0b ce 75 3d
       -0.007380301 -0.02563022 -0.025537461 0.06001095
000260 ce b4 71 bc 3f e1 d1 3c b4 80 6d 3d c5 ad 16 3d
       -0.01475258 0.025620101 0.05798407 0.036786813
000270 cf 1d ff bc 4d 84 93 be d4 70 e2 3c 24 46 34 be
       -0.031142144 -0.28811875 0.027641691 -0.17604882
000280 67 b3 0c bc f4 63 63 3c 4d c7 6e bc 9e 0e 9b bc
       -0.008587695 0.013878811 -0.014573884 -0.018927868
000290 85 0b d0 3d 3a b3 1f 3e 9b b8 cb bd 57 1d 60 be
       0.10158447 0.15595713 -0.0994732 -0.21886192
0002a0 a0 38 6d bd 93 5b 52 3d 94 0e 83 be 73 22 f9 bd
       -0.05791533 0.051356863 -0.2559706 -0.12164774
0002b0 13 39 38 3d 9c 35 ae be 74 7a 75 3e 7d b1 a1 bd
       0.044976305 -0.34025276 0.23972493 -0.07895181
0002c0 49 40 56 3e 11 bf 85 3e 72 2e a7 bd a8 c7 40 be
       0.2092296 0.26122335 -0.081631556 -0.18826163
0002d0 22 e8 ce 3d 3b 47 a4 3d b9 a5 e1 3d 20 61 82 3e
       0.101028696 0.08021399 0.11017937 0.25464725
0002e0 80 d3 a2 be 7e f2 0f bd 73 4d 8c be 61 86 52 3d
       -0.31801987 -0.035143368 -0.2740284 0.051397685
0002f0 d8 31 fc bc a2 0e 9e 3d 8f a0 1c bd 33 45 ac 3c
       -0.030785486 0.07717635 -0.038239058 0.02102909
000300 25 30 24 3e c9 10 79 3c 46 71 21 bc 67 12 54 3d
       0.1603399 0.015201756 -0.009853667 0.051775362
000310 74 1c 83 bc 99 70 8c bd 4e ea 9c bd e4 8c a4 3d
       -0.016004778 -0.06857414 -0.076618776 0.08034685
000320 ee 3b 39 3d 58 0f 06 bd 9c 16 b6 be 70 ff 30 be
       0.04522317 -0.032729477 -0.35564125 -0.17284942
000330 43 2a 08 be ea e6 db 3c 7a f4 05 bf f9 04 c3 bd
       -0.13297372 0.026843507 -0.52326167 -0.09522433
000340 40 45 09 be 79 b2 c0 bc 1a 98 a5 be 13 75 b8 be
       -0.13405323 -0.023522602 -0.32342607 -0.3602682
000350 4e f8 62 bd 89 ed bb bc 78 b2 c1 3c 67 15 04 3e
       -0.055412583 -0.022940414 0.02364467 0.1289879
000360 d7 a1 1c 3d 85 88 81 3d 1c da 96 3d be ba 31 3e
       0.03824028 0.06324867 0.0736582 0.17356393
000370 f6 1b 71 be 1a ed 8c be e8 f6 03 3e 69 44 f8 bc
       -0.23545823 -0.27524644 0.12887156 -0.030306058
000380 37 3e 6c 3e f8 ff 88 3e de c4 f9 bd 29 0e a0 bc
       0.23070608 0.2675779 -0.121957526 -0.019538002
000390 b9 78 62 3e ef 95 f0 3d 8e 54 0e be 4c 54 44 be
       0.22116365 0.117473476 -0.13899443 -0.19172782
0003a0 e8 cb 95 be b6 bd 40 bf 80 39 74 be 16 f5 f4 be
       -0.2925713 -0.75289476 -0.2385006 -0.47843236
0003b0 46 72 8e 3c 5e 56 9a bd 10 37 1a 3d 2f fe a7 3d
       0.017388474 -0.075360045 0.037650168 0.082027785
0003c0 48 b2 6e 3e d3 c4 bb 3d ae e7 97 be 0d b1 b2 bd
       0.23310196 0.091684006 -0.29668945 -0.08725176
0003d0 0a 50 90 3d 6b f3 51 3e 7a 53 4a be 46 c5 70 3d
       0.07046516 0.20503013 -0.19758406 0.058781885
0003e0 c7 f9 09 3e 14 8d a7 3d 62 0c ab 3d fa c6 24 bf
       0.13474189 0.081812054 0.08351971 -0.64366114
0003f0 02 2c 5e bd e3 77 01 3d 3a 3d 70 bd c1 77 c7 3b
       -0.054241188 0.031608474 -0.05865214 0.006087274

conv3.bias f4 [64]
000000 5d 97 d8 3a 32 06 b1 3e 12 27 16 3e 05 45 cd be
       0.0016524602 0.3457504 0.14663342 -0.4009172
000010 f4 6a 29 3d 5e cc c4 bc 9f b6 ed 3d d0 0e b4 bd
       0.041361764 -0.024023231 0.11607098 -0.08791888
000020 1f 3b 09 3e e2 5d 09 3e 9f 33 bd be 07 4b b8 bd
       0.13401459 0.1341472 -0.36953446 -0.08998685
000030 42 9e 23 3d 39 aa da bd 5b c3 d3 3d 7f 36 1b 3e
       0.03994585 -0.10676999 0.103399955 0.15157507
000040 4e 54 3c bd d3 87 03 3d 86 13 33 3d 44 5a 81 3d
       -0.045978837 0.032111954 0.04371979 0.06316045
000050 d0 74 01 3e 51 d4 ea ba 3c d0 ee be ff 79 0f be
       0.12642217 -0.0017916058 -0.46643245 -0.14011382
000060 46 a1 a5 3a f9 56 27 be d5 f8 b2 3e 31 d5 ae 3d
       0.0012636564 -0.16341771 0.3495547 0.08536757
000070 a0 c6 79 3e fc d0 13 3e b2 54 04 3e 54 b3 54 3e
       0.24392176 0.1443519 0.12922934 0.20771533
000080 d6 51 ab bd 05 f8 65 3e 7f f4 87 bd 8c 89 5f be
       -0.08365218 0.22457893 -0.06638431 -0.21829814
000090 c5 94 f1 3c 56 e1 7f 3e 94 fa 63 be 34 99 0c 3d
       0.029489884 0.24988303 -0.22263557 0.034325793
0000a0 44 cb b9 3d 78 1a 3b 3e 81 33 fe 3c ae 69 2a be
       0.09071973 0.18271816 0.031030418 -0.16641876
0000b0 36 f2 4a 3d 80 09 12 bd c3 1a 6e 3d 4b e6 e2 3d
       0.049547397 -0.03565359 0.05813099 0.11079081
0000c0 3e 84 2f bd 4a 8a 84 bd a5 7a a5 3d 49 f7 c2 bd
       -0.042850725 -0.06471689 0.08080033 -0.09519822
0000d0 dd f7 69 3d 77 f1 2c be 99 7b 05 3e ce bb 17 bc
       0.057121146 -0.16888987 0.1303543 -0.009261085
0000e0 b4 23 04 be a4 04 ec 3c 94 ad e2 bd aa 37 4d be
       -0.12904245 0.028810807 -0.11068264 -0.20040765
0000f0 10 fa a1 3d 05 3d f9 3b 16 18 12 be d0 59 32 bd
       0.07909024 0.007606151 -0.14267 -0.043542683

conv4.weight f4 [64, 64, 2, 2]
000000 cf b5 31 3d bb 10 4a be 57 e2 af bd 9b ed 10 bf
       0.043386277 -0.19732945 -0.08588093 -0.5661256
000010 e1 b6 67 be 86 df 6f 3e f9 1d 55 be da 47 7a 3d
       -0.22628357 0.23425111 -0.20812215 0.06110368
000020 b0 c5 c6 be 7d 82 ed 3d 13 af 8f be b4 f5 30 bd
       -0.388227 0.11597154 -0.2806326 -0.04320307
000030 17 c0 da bd 28 ad 44 be 98 08 28 be 43 1a 3c be
       -0.106811695 -0.19206679 -0.16409528 -0.18369393
000040 dd 46 0c 3e a3 c2 c8 3d 2e 10 aa 3d ae f0 a9 be
       0.13698907 0.09802749 0.08303867 -0.33191437
000050 79 a7 7a be c4 06 ac be 9f 2b 04 be 9e a5 48 be
       -0.24477948 -0.33598912 -0.12907265 -0.19594428
000060 44 a3 1a 3d 01 ad 11 bf 73 e2 07 3e 1f 6c 30 be
       0.03775336 -0.5690461 0.13269977 -0.17228745
000070 44 b0 5b bd 8a 1a ee 3c ae 83 37 3e ed cd d8 3c
       -0.053634897 0.02906539 0.17921326 0.02646538
000080 8b 75 2d 3e c4 1e 47 be 05 68 99 3e bb 5d 0b 3d
       0.1693937 -0.1944533 0.29962173 0.034024935
000090 c2 36 46 be ca c4 90 be 90 15 f2 bd 1b c0 04 be
       -0.19356826 -0.28275138 -0.11820519 -0.12963907
0000a0 93 b9 05 be 76 57 cb 3c 00 9a 86 be 64 dc d5 be
       -0.13059072 0.024821978 -0.26289368 -0.41769707
0000b0 41 04 f6 be 84 f5 cb 3d f6 e1 f4 be 41 27 e5 be
       -0.4805012 0.09958938 -0.47828645 -0.4475651
0000c0 c8 09 b9 be 06 32 21 3d 8e 70 c7 bd 53 9e 85 be
       -0.36140275 0.039354347 -0.09738265 -0.26097354
0000d0 a2 a2 a4 bc ff 77 92 bd ff fb 43 3d cc b1 a4 bd
       -0.02009708 -0.07151794 0.047847744 -0.080417246
0000e0 c4 c7 86 3e 67 f7 b1 bc 6b 59 e5 3e 91 41 88 3e
       0.26324284 -0.021724416 0.44794783 0.26612523
0000f0 eb cf 0d be 3b d5 4b be 15 b5 86 3e 8f 5e 58 bc
       -0.13848846 -0.1990556 0.2631003 -0.013206138
000100 dd 2e b9 bd a9 09 69 3d 42 71 ad be 5b 8e 8c bc
       -0.090421416 0.05689398 -0.3387547 -0.017157724
000110 fc e3 51 be 29 8f 3b bd 5e 3b c2 bd 24 1c ba be
       -0.20497125 -0.045790825 -0.0948398 -0.36349595
000120 16 d0 15 3e 31 ab 40 be b7 2b 65 3d 29 6c a7 3d
       0.1463016 -0.18815304 0.055949893 0.08174927
000130 3e 38 c3 be ca 4b ef bd 8f c5 83 be c4 00 9b bd
       -0.38128847 -0.116843775 -0.25736663 -0.075685054
000140 c1 98 19 be b6 06 bc 3e dc 5f 54 bc d6 a8 eb 3d
       -0.14999677 0.3672387 -0.012962308 0.11506812
000150 bf bb c2 be 8e da f7 3e 33 c5 db 3c 56 f6 43 bd
       -0.38033864 0.48408931 0.02682743 -0.047842346
000160 1c d6 32 3d a6 4d 20 3d 73 96 a5 be 62 cc a9 3d
       0.04366122 0.03913655 -0.32341346 0.08290936
000170 60 02 e5 bc 2a ed 2f 3d fb 53 0b 3d 65 49 ad 3d
       -0.027955234 0.042950787 0.034015637 0.084612645
000180 10 0f fb be 94 4e 0c be c2 8a 4a be c7 8d 84 3e
       -0.4903493 -0.1370185 -0.19779494 0.25889418
000190 a7 0c 02 3d 59 c5 90 3e 28 06 0c be b0 c3 21 3e
       0.031750347 0.28275564 -0.13674223 0.15797305
0001a0 01 53 e6 3d f1 a1 3f be 32 c0 55 3e 6a e0 b4 bd
       0.112463005 -0.1871412 0.20874098 -0.08831866
0001b0 1b 55 64 be f2 3f 04 bf b7 c0 1f be 5b 98 b5 be
       -0.2229809 -0.5166007 -0.15600859 -0.354678
0001c0 bd d7 23 be fc 36 ed be 1f 53 24 3d 1a 87 6f be
       -0.16000266 -0.46331012 0.040118333 -0.23391381
0001d0 44 7c 1c be 8d c8 81 be ae bc 07 bf 6b 3f bb be
       -0.15281779 -0.2534832 -0.5302228 -0.36571822
0001e0 84 53 81 3d 42 be 90 3e 9f 1c e5 3c 5a e8 85 be
       0.063147575 0.28270155 0.02796775 -0.26153833
0001f0 52 3f 1a be a3 26 56 3e b5 b6 6e be 70 51 bd 3d
       -0.15063217 0.20913176 -0.23311885 0.092440486
000200 6d b9 33 be 9b dc e1 bd 2a e1 5d be aa a7 32 be
       -0.17551203 -0.11028405 -0.21667925 -0.17446771
000210 da 5a 91 3d 02 54 b5 be 71 20 cc 3c 94 b6 2c 3e
       0.07097407 -0.35415655 0.024917813 0.16866523
000220 f4 b3 a2 3d 7a bf 10 be 6b 6c 63 be 16 9c 4a 3e
       0.079444796 -0.14135543 -0.22209327 0.19786105
000230 e5 d4 10 be f8 a0 35 3d ee d0 dd bd b2 6a 78 3c
       -0.14143713 0.044342965 -0.10830866 0.015162157
000240 bc 3b 25 bd 80 8d 70 bd b9 40 34 3e 83 cc 0d 3e
       -0.04034017 -0.058728695 0.17602815 0.13847546
000250 1b 0d bf 3d 0a a1 32 3d 99 c5 19 3e 94 9b 20 3d
       0.093286715 0.04361061 0.15016784 0.03921087
000260 23 53 2b be ab 0e f9 3c 86 9d 00 bf f7 39 04 bf
       -0.16730933 0.030402502 -0.5024036 -0.5165095
000270 20 6c a5 be ca b7 07 3e 1d f5 97 be 46 08 e4 bd
       -0.32309055 0.13253704 -0.29679194 -0.111343905
000280 7d f8 22 be ec ef 4e 3e 66 bb 4a be 9e da 9f 3e
       -0.15915103 0.2020871 -0.1979805 0.3122148
000290 4e 67 5d be 0e 79 8e bc eb 84 2b bd 08 a9 c4 bd
       -0.21621439 -0.017391708 -0.041874807 -0.09602553
0002a0 0e 67 14 3e 99 1b 13 be c9 21 fb bd 75 37 8a be
       0.14492437 -0.14365996 -0.122623034 -0.26995435
0002b0 a2 0b 7e bd e5 93 4c bd 2a d0 08 bd e8 27 ff 3a
       -0.062022813 -0.04994573 -0.033401646 0.0019466849
0002c0 4c 72 c7 3d 8d 74 b6 3d e1 63 3c bc 19 e7 b1 3e
       0.09738597 0.08908949 -0.011498422 0.34746626
0002d0 81 87 08 be a2 bf b6 3c 8c dc c0 be e7 63 08 be
       -0.1333294 0.022308175 -0.37668264 -0.1331936
0002e0 01 3b 71 bc e3 59 cd be 06 99 7a 3e 40 12 c6 be
       -0.01472354 -0.4010764 0.24472436 -0.386858
0002f0 74 e7 d3 3d a1 f3 10 bf a3 5e 3b 3e 44 3b b6 bd
       0.103468806 -0.5662175 0.1829782 -0.08898023
000300 5e 66 95 be f8 a3 76 3e d6 d8 34 be ae be b9 3d
       -0.29179662 0.24085987 -0.17660841 0.090695724
000310 7a 32 6d bd fc 40 6e be 97 97 b7 3e 4e 1f 0d be
       -0.057909466 -0.23266977 0.3585784 -0.13781473
000320 2b d0 29 3e a5 a3 23 be b9 b8 c0 3e 16 f9 f7 3d
       0.16583316 -0.15980394 0.37640932 0.12108056
000330 94 39 ad bd a3 25 1a 3d 73 b1 0e 3d ec 31 8e 3d
       -0.08458248 0.03763355 0.034837198 0.069431156
000340 f9 16 fd 3d 75 75 cc 3c 95 fb 81 3e 65 f9 7a 3e
       0.12357897 0.024958352 0.25387254 0.24509199
000350 7c 6c 3d 3e bb 8b d0 be 73 c4 79 bd 70 cb f7 bd
       0.18498415 -0.40731606 -0.060978364 -0.120993495
000360 8b 5f a3 3e 6f b9 6f be f6 30 ab 3e 9a 6b ab 3e
       0.3190883 -0.23410581 0.33435792 0.3348053
000370 18 d8 96 be a4 76 6b be 50 3f de bd d9 ca aa 3c
       -0.2946174 -0.22994477 -0.1085192 0.020848678
000380 69 c2 17 3e e4 97 49 3e a3 05 f8 bd d6 c7 b1 3e
       0.14820255 0.19686848 -0.1211045 0.34722775
000390 7d f7 87 be 79 a5 30 3e 2f 9b d9 be a9 37 d1 bd
       -0.26556006 0.17250623 -0.42501208 -0.102156945
0003a0 5f 5b 08 be d3 3c 1a 3e f5 8e ce 3d b9 d3 ad be
       -0.13316105 0.15062265 0.10085861 -0.33950594
0003b0 5f 1c c2 bd b8 a9 c6 bd 1d 4e 37 3c 72 ce 0f 3c
       -0.094780676 -0.0970034 0.011188057 0.008777248
0003c0 f5 51 3d 3d 44 a4 85 be 0a 80 ad 3e 4d 80 c0 be
       0.04622074 -0.26101887 0.3388675 -0.37597886
0003d0 1b c9 09 3d 0e e8 bf be 8b 62 4c 3e 6f d8 16 3b
       0.033639055 -0.3748173 0.19959466 0.0023017188
0003e0 24 a7 7f be ad a5 01 3e 59 53 bd bd d0 8a 39 be
       -0.24966103 0.12660857 -0.09244413 -0.18119359
0003f0 cf e9 3d be 9d 1f 0d 3e 63 5a 58 be 68 89 e3 3d
       -0.18546222 0.13781591 -0.2112823 0.111101925

conv4.bias f4 [64]
000000 98 a3 9d bd c7 63 a4 bd cd 23 b4 bb 1f 08 d1 bd
       -0.07697219 -0.080268435 -0.005497432 -0.10206627
000010 ed 79 a9 3d ea 9b 0c 3e 31 ff 81 3b 6d f4 68 bd
       0.082752086 0.13731351 0.0039671888 -0.056873728
000020 04 10 0e be c4 48 5e 3e 9c c1 c6 bd 8a a6 e4 bc
       -0.13873297 0.21707445 -0.09704897 -0.027911443
000030 2e 23 fc 3d cb e1 96 3e 4c f0 f2 3d 19 d6 2d 3e
       0.123113975 0.2946914 0.11862239 0.16976203
000040 c1 ff 21 3c a2 34 0e be 6b 50 27 3e e5 51 2f 3d
       0.009887637 -0.13887265 0.16339271 0.04280271
000050 56 7e bd 3e 69 e8 b3 3d a5 dc a1 be b8 b7 45 bd
       0.3701045 0.08784563 -0.3161365 -0.04827091
000060 be 44 bb bd 70 1c 3d 3e 85 ba 3f bd 6e 22 a2 3e
       -0.09143971 0.1846788 -0.04680874 0.31666893
000070 6c de b9 3d 83 cc fd 3d b5 e1 19 be d5 17 b0 3d
       0.09075627 0.12392523 -0.15027507 0.085982956
000080 86 bf 82 3e 0b b4 0f 3e d6 32 e6 bd c1 c4 0c be
       0.25536746 0.14033525 -0.11240165 -0.1374693
000090 eb 5a 92 bd ba 97 66 be e5 a4 98 be 21 75 77 be
       -0.071462475 -0.22518817 -0.29813305 -0.24165775
0000a0 0d c4 69 3d b2 f9 99 be 08 67 5a 3c d8 d2 9a 3d
       0.057071734 -0.30073315 0.013330229 0.075597465
0000b0 9a 58 d3 3d 66 38 90 bd c4 3a d7 3d 31 e3 14 be
       0.10319634 -0.07042007 0.105092555 -0.14539792
0000c0 56 71 23 3e 4b 76 3a be 6a 98 c2 bd f1 e2 13 3a
       0.15961203 -0.18209188 -0.09501727 0.0005641422
0000d0 dc d7 2f 3e ca 95 89 3e ee 90 8a 3e 08 23 d4 bd
       0.17172188 0.26872092 0.27063698 -0.10358244
0000e0 21 63 d0 bc 21 8d 82 3c be 05 83 bd d0 6d cb bd
       -0.025437893 0.015936436 -0.063975796 -0.099330544
0000f0 f2 d8 08 3e 15 d6 3a 3e e2 5c d8 bd c9 5d 93 bd
       0.13364008 0.18245728 -0.10564591 -0.071956225

conv5.weight f4 [128, 64, 2, 2]
000000 d3 dd 17 bd 32 23 3c be d2 73 02 be 64 a3 5d be
       -0.037076782 -0.18372801 -0.12739494 -0.2164436
000010 ea c8 aa 3c e0 d8 51 bd 28 88 d9 3c 83 30 ad bd
       0.020847756 -0.05123222 0.026554182 -0.084565185
000020 19 a1 2d 3e 9e 28 a2 3c 5e e1 42 3e 64 15 5e be
       0.16955985 0.019794758 0.19031283 -0.21687847
000030 de 08 55 be 78 00 d3 3c 18 e3 62 be ea 94 12 be
       -0.20804164 0.02575706 -0.22156942 -0.14314619
000040 64 4d de be 6f a8 0b bf 0c d7 14 be 6b 18 9a be
       -0.4341842 -0.54553884 -0.14535159 -0.30096754
000050 e9 d3 ad be 0d 7d 10 3d 0c cd ff bd f7 f9 2d be
       -0.33950737 0.035275508 -0.124902815 -0.16989885
000060 72 1b 20 be 3c 68 c8 3c 97 3b 8e 3d 11 f2 2f 3d
       -0.1563547 0.024463765 0.069449596 0.042955462
000070 03 05 81 be ba 61 77 be e1 21 4f be 31 ec 12 bd
       -0.25199136 -0.24158373 -0.20227768 -0.03586978
000080 bd 73 6f bd 3e 12 de be 1b 19 1a bd dc 93 bb bd
       -0.058459986 -0.43373293 -0.0376216 -0.09159061
000090 f7 09 19 3e ff 12 18 bd d2 54 8b 3e e3 a0 5c bd
       0.14945208 -0.03712749 0.2721315 -0.05386437
0000a0 fd bc 2c be b0 7b a1 be 83 54 13 3d 91 38 05 3e
       -0.16868968 -0.3153968 0.03596927 0.1300986
0000b0 39 05 d3 be 17 00 81 bd b9 23 0e 3d c7 c4 96 3e
       -0.41214922 -0.06298845 0.034702037 0.29447004
0000c0 ac 08 61 be 4c 73 4b bf 0d 63 4c bd 23 be 0e be
       -0.21975964 -0.79472804 -0.04989915 -0.13939719
0000d0 13 36 88 be 77 42 2b bc 3c 2e 54 be a9 93 71 3d
       -0.26603755 -0.010452858 -0.20720762 0.05897871
0000e0 e0 a2 eb bc a4 84 35 be 5f 6e c7 be 4d 1a 60 3e
       -0.028764188 -0.1772638 -0.38951394 0.21885033
0000f0 ab 58 99 be 01 cd d2 3d 93 d9 9c 3d f0 2b a1 bc
       -0.2995046 0.10293008 0.076586865 -0.019674271
000100 15 be 86 3e 44 19 65 3e 3d e2 eb be 38 3f 9f be
       0.26316896 0.2237292 -0.46071044 -0.3110292
000110 e4 8e 49 bb 16 18 58 3c 8d 10 6f 3c e6 6f 6b 3d
       -0.0030755335 0.013189336 0.014591348 0.05747976
000120 ee af 32 3d 25 c8 87 3e a6 32 a0 be 54 5f 33 be
       0.04362481 0.26519886 -0.31288642 -0.17516834
000130 be 3d ed 3d ec 3f 20 be 45 36 3c 3d c6 76 4e 3e
       0.11584042 -0.15649384 0.045950193 0.20162496
000140 a6 85 ec 3d 42 a9 39 bb 34 fe f3 3d ea 8f 24 3d
       0.11548929 -0.0028329645 0.1191372 0.04017631
000150 e5 6a 11 bd 92 8d cb bd 20 e4 ad bc 92 4d fc 3d
       -0.035502333 -0.09939112 -0.021226943 0.12319483
000160 c5 80 ab be 2b 07 36 3d 39 af 13 bc 8d 1c a9 3e
       -0.3349668 0.04444043 -0.009013944 0.33029595
000170 22 24 c9 be 7b 1b 90 be 19 21 a9 3d 4e bb 04 bc
       -0.3928538 -0.28145966 0.08258266 -0.008101298
000180 59 7e 95 bd 21 01 03 bd 6d 9f 9b bd 4f e7 a9 bd
       -0.072994895 -0.0319835 -0.075987674 -0.08296072
000190 68 02 1f be da 26 5a be d9 3d ac 3e a1 7e 20 3e
       -0.15528262 -0.21303883 0.33640936 0.15673305
0001a0 a9 83 03 bc 5c 1c 7e bd 3c c2 65 3e 42 a4 03 bf
       -0.008026996 -0.062038764 0.22437376 -0.5142251
0001b0 d8 81 f5 3e 91 d9 2a bd b1 ca 83 3e 5b d6 27 3e
       0.47950625 -0.041711394 0.2574058 0.16390364
0001c0 d4 5c 1f 3e d8 45 ca 3c e0 b9 26 3f da 6f 56 bd
       0.15562755 0.024691507 0.6512737 -0.052352764
0001d0 50 12 48 3e 59 1c 87 3e db 8d bc 3e 43 90 9f 3e
       0.19538236 0.26388815 0.36826977 0.3116475
0001e0 93 9b 34 bd 19 eb 0e 3d 11 eb 04 bd 82 eb 45 be
       -0.04409368 0.034892175 -0.03245074 -0.1932812
0001f0 f7 be 61 3e bf d7 3b be 2b 52 5e 3e 66 ba b7 be
       0.22045504 -0.1834402 0.21711032 -0.35884398
000200 a9 41 db bd ea 57 7f bd 23 e8 aa bd 94 92 a5 bd
       -0.10705883 -0.0623397 -0.08345058 -0.08084598
000210 6f 35 88 be 67 57 e6 bb 7b 22 87 bd 26 90 15 bd
       -0.26603267 -0.007029462 -0.065983735 -0.036514424
000220 3f d9 d3 3e f7 dc 17 3f 7e 8a 4c 3e 9c 60 ee 3e
       0.41376683 0.5932154 0.19974706 0.46558082
000230 55 bc 40 be ed 99 8c 3e 66 5e a0 be 9a 0c 80 bc
       -0.18821843 0.27461186 -0.3132202 -0.015631009
000240 08 9c 24 3d ab d4 8a 3d d7 94 dc 3c 46 9d 8d be
       0.040187865 0.067788444 0.026926441 -0.27659053
000250 2e f6 b6 be 7e 72 8f be 42 35 25 be c8 ad 98 3e
       -0.35734695 -0.28017038 -0.16133597 0.29820085
000260 04 c4 eb bc c7 1d c4 3e 56 4e e2 bd 4e 46 75 be
       -0.028779991 0.38303968 -0.11050098 -0.239526
000270 41 10 40 be 50 d6 32 be 43 ee fb be 32 d0 82 be
       -0.187562 -0.17464566 -0.49205217 -0.25549465
000280 5b df b1 bd 01 21 94 be 13 84 7a 3e f0 68 5e bd
       -0.0868518 -0.2893143 0.24464445 -0.054299295
000290 03 ca bc be 33 ea 79 be 39 59 55 be 15 e9 97 be
       -0.36872873 -0.24405746 -0.20834817 -0.29670015
0002a0 eb 84 3f bd f1 0f b9 3d 53 14 45 be c1 e6 cf be
       -0.04675762 0.09036244 -0.19246034 -0.4060574
0002b0 5c 62 a5 3d 6e a4 10 3e 25 a2 f6 3d 1d f8 c2 3e
       0.08075401 0.14125225 0.12042645 0.3807992
0002c0 1f 57 8d bd f7 89 6a be 6a 7a 63 ba d2 6f 60 be
       -0.06901383 -0.22904192 -0.0008677604 -0.21917656
0002d0 52 78 2f 3d 87 f5 00 3e 78 4d 64 be 60 20 c9 bd
       0.042839356 0.12593661 -0.22295177 -0.09820628
0002e0 74 9c e0 be 17 78 b8 bc 9f d5 e8 be 94 15 a5 be
       -0.43869364 -0.0225182 -0.4547548 -0.32243025
0002f0 52 22 2f 3e 4b c8 bf bd 95 a8 93 be 76 be b4 be
       0.17102936 -0.09364375 -0.28839555 -0.3530156
000300 73 85 07 be 8d b1 ca bc 12 0e 1a be a2 3e 4e bd
       -0.132345 -0.024742866 -0.1504443 -0.0503527
000310 76 c3 1d 3e 61 e1 3b bf 76 a5 91 be 53 43 1e bf
       0.15406594 -0.73390776 -0.2844655 -0.6182148
000320 c2 00 4d be 16 95 9d 3d 3b 14 9d bd 8a 64 84 be
       -0.2001982 0.076944515 -0.07669874 -0.25857955
000330 b9 d0 36 3e f1 a9 99 3d b6 3a 5c 3e 73 fd 89 be
       0.17853059 0.07503117 0.21506771 -0.2695118
000340 66 9d 8c 3d 9c a9 73 be 61 38 56 be d0 78 93 be
       0.06865959 -0.2379517 -0.20919944 -0.2880311
000350 95 aa 90 3e c8 9f d9 3e f1 c6 52 3d 19 34 5a be
       0.28255144 0.42504716 0.051459257 -0.21308936
000360 a8 bc 57 3e 90 25 8e be ef 2a 2e be 24 d3 ac be
       0.2106806 -0.27763033 -0.17008565 -0.33754838
000370 9f f1 a7 be 1c 2a e8 be 5c 77 3e 3e 8c 40 6f be
       -0.3280153 -0.45344627 0.1860022 -0.23364466
000380 c2 b7 84 3d 53 e0 04 be c9 2a 13 3e 86 81 6c 3d
       0.064803615 -0.12976198 0.1437179 0.05774071
000390 34 f1 84 3d 47 ed 10 3e c5 17 ce be 9f 2c 2e be
       0.06491318 0.14153014 -0.4025251 -0.17009209
0003a0 eb 63 cc 3c fa 5a 99 3e 24 6e 68 be e8 ab 9a 3e
       0.024949988 0.29952222 -0.22698265 0.3020928
0003b0 04 2d 6b be 64 09 00 be 62 a4 c3 bd 03 12 97 3d
       -0.22966391 -0.12503582 -0.09552838 0.07376482
0003c0 fa a9 b9 bd 86 9a ce 3d a9 66 d9 3d db 2c 6a 3f
       -0.090656236 0.10088067 0.10615284 0.91474694
0003d0 ae ac af be ee 2d 4c be dc 18 6c bd 9e 22 d5 be
       -0.34311432 -0.19939396 -0.057640895 -0.41627973
0003e0 5e f4 0b 3e dd 34 c8 3d 1c 97 cd bc cb 6f 14 be
       0.13667437 0.09775708 -0.025096469 -0.1449577
0003f0 39 db 64 bd 7b 61 67 bc 8a fa 70 3a 0e fd 71 3c
       -0.05587313 -0.014122362 0.00091926067 0.014769806

conv5.bias f4 [128]
000000 57 8d 68 3e d0 08 06 3d a1 44 60 3e 9d 7d 3d 3e
       0.22710167 0.032723248 0.2190118 0.18504949
000010 4e 7a c4 bd a0 5c ec 3d 68 84 4e 3e ef ae b1 3d
       -0.0959364 0.11541104 0.20167696 0.08675944
000020 3e d9 4b 3e 85 19 9e be ba 57 08 3e a4 f0 36 3d
       0.1990709 -0.30878845 0.13314715 0.044663087
000030 b1 30 83 be de b1 49 be 2b 93 f2 bd d2 93 6f 3d
       -0.25623086 -0.19696757 -0.11844476 0.05849058
000040 31 e8 85 be bd e6 20 3e 99 93 f1 3d 7b 08 dd bd
       -0.2615371 0.1571302 0.1179573 -0.10792633
000050 06 a6 f9 3d 39 bd cd 3c 29 b3 a3 bc 27 24 c3 3c
       0.121898696 0.025114642 -0.019982891 0.02382095
000060 4a db cc 3e 4f fa 2e 3e f6 d9 f5 3d 3a 39 e8 be
       0.40011054 0.17087673 0.120044634 -0.4535616
000070 0a 7a f4 bd 82 18 26 be e9 cc 68 bc 24 c4 47 bc
       -0.119373396 -0.16220286 -0.014209011 -0.01219276
000080 d2 61 e8 3b f4 33 6d be 02 ed 20 3e 07 b0 4c 3e
       0.007091739 -0.2316435 0.15715411 0.19989024
000090 64 28 32 3d 51 eb cc 3d 67 74 f6 bc 9d 99 c4 bc
       0.04349555 0.100058205 -0.030084802 -0.02399903
0000a0 e8 67 72 3d bc a8 47 3d 19 35 b5 3d 23 1b a1 3d
       0.059181124 0.048744902 0.08848018 0.07866504
0000b0 c4 0f 53 3c 4e 18 2c 3e b3 34 39 bd fb fc 60 3e
       0.012882177 0.16806147 -0.045216274 0.21971504
0000c0 0b 01 03 3e 6e 3b 03 3e 6e 19 0a be 43 64 88 be
       0.12793367 0.1281564 -0.13486263 -0.26638994
0000d0 cd 6b cd be 9e a9 85 be d0 85 8c 3d e8 be 43 3e
       -0.40121308 -0.2610597 0.0686146 0.19115794
0000e0 2d b9 2d 3d 08 56 3a 3e c9 e9 27 be 00 2f 49 3d
       0.042412926 0.18196881 -0.16397776 0.04911709
0000f0 56 20 49 bd 4c ee 65 3e 4c 16 37 3e 49 1a 4c 3e
       -0.049103104 0.22454184 0.178796 0.19931902
000100 ca d4 1d be 6d a1 81 3e 00 37 c6 bd 32 9f 6b 3e
       -0.15413204 0.2531847 -0.09678459 0.23009947
000110 e3 9c 81 bd a3 6a 86 3c 8f 84 21 bc 54 8b b1 bc
       -0.06328752 0.01640827 -0.009858265 -0.021672882
000120 ac 1c 8b 3d 7a 3c 2c be a6 15 d0 bd aa 35 57 be
       0.06792578 -0.16819945 -0.10160379 -0.21016565
000130 8e 53 7f 3c 67 5b 8e be 69 07 42 be 18 48 0b 3d
       0.015583886 -0.2780411 -0.18948139 0.0340043
000140 2e 43 05 3e 50 c3 3b bd 56 eb 1c 3c 34 ba a3 bd
       0.13013908 -0.04584056 0.009577593 -0.079945
000150 95 92 b4 ba 49 d1 09 bc 40 4a ae bd 46 88 d0 3d
       -0.0013776595 -0.008411714 -0.08510256 0.10182242
000160 39 bf b0 be 70 4c 8f 3e 5b cb 0a 3e a1 46 32 bc
       -0.3452089 0.27988005 0.13554136 -0.010881097
000170 f4 41 0b be ad 56 81 bd f8 3f 02 be 4d 74 b6 3c
       -0.13599378 -0.0631536 -0.12719715 0.022272253
000180 e1 34 86 3e 0a aa 7f 3d 3b 0c 0e be 8d f9 9b 3e
       0.26212218 0.06241802 -0.13871853 0.3046383
000190 45 f2 06 be 6d 6b 0c be 0c 4b 0b 3e 31 55 07 bd
       -0.13178356 -0.13712855 0.13602847 -0.03304023
0001a0 60 ce 02 be 1a 14 9f bd b5 0d 45 3e fc f5 2d be
       -0.12774038 -0.07767506 0.1924351 -0.16988367
0001b0 a6 e3 13 3e 93 99 2f 3e a0 c4 84 3e 1d 66 c2 bd
       0.1444231 0.17148428 0.25931263 -0.09492133
0001c0 1d 5b 5f 3e a4 3d 1e 3d 7e 15 83 3d 71 4d c6 bc
       0.218121 0.038633004 0.06400584 -0.024206849
0001d0 43 cc 3b be 76 cb 69 3d 1c 44 e7 be b1 7b 38 3e
       -0.18339638 0.0570788 -0.4516915 0.18015935
0001e0 a4 e4 70 3e ba 4f ce 3c 21 bd 8f 3c 67 c1 9e 3c
       0.2352472 0.025184501 0.017546238 0.01937933
0001f0 10 82 f9 3d f5 a1 a4 bd 74 7e 2f be 38 ef 37 be
       0.121830106 -0.08038703 -0.17138082 -0.17962348
