model/model_24.pth (torch_old, 571877 bytes, 24 tensors)

conv1.weight f4 [32, 3, 2, 2]
-0.10941208 -0.11257968 -0.15274042 0.39133593 -0.593984 0.15156262 -0.13718036 0.43148446
-0.2965906 -0.074722745 0.0034543534 0.2748802 0.20193484 -0.12970303 0.12202029 0.014916872
0.06986983 -0.06369493 0.3253281 0.039886195 -0.13666262 -0.24544036 -0.04107789 -0.23725764
-0.11975332 0.043250106 0.12543012 0.22978115 -0.33482784 0.20167239 -0.04343774 0.31009442
0.13625391 -0.19917038 -0.46031448 -0.117413 0.3868037 -0.04843374 0.067590035 -0.276239
0.3877776 -0.23084113 0.16626501 -0.19413836 -0.059169117 0.016967358 -0.21445973 -0.14690098
-0.15711702 -0.10461491 -0.3721824 -0.22055319 0.1963694 -0.083651766 0.30229002 0.22131681
-0.04629439 -0.2838554 0.15357408 0.023187766 -0.19079937 0.116685934 0.2408751 0.25592816
-0.19508772 -0.1328713 -0.00511791 -0.023348207 -0.32895312 -0.35830328 0.12071804 -0.17124213
0.03448149 -0.075858794 -0.055503707 -0.0434226 0.16647711 0.15847762 -0.20065363 0.19892213
-0.15859152 -0.21003398 -0.0046088905 -0.103688166 0.23660201 0.051210634 -0.5717822 0.059727814
0.12736529 0.48805228 -0.11784554 -0.24465516 0.24301709 0.3171706 -0.3508618 -0.20604542
0.042557735 -0.28888753 0.18091553 -0.09753108 0.13457838 -0.45769373 0.41606778 0.035672903
-0.23095246 -0.40199268 0.55434567 0.104533054 0.14486997 -0.033031803 0.03653938 0.15756167
0.21880342 -0.27658263 0.013016869 0.22447158 0.14918563 0.13961422 -0.19688627 -0.14794484
-0.11706379 0.040500063 0.28330866 -0.2666239 0.17022507 -0.18665606 -0.33801958 -0.12520579
0.21002094 0.2671077 -0.22563162 0.03179698 0.3719122 0.22307114 0.125859 0.0966634
0.14151046 -0.016422017 -0.47632796 -0.5212523 -0.007991006 0.05458128 -0.27681297 0.04584611
0.0129657565 0.00883834 -0.12550043 0.05647665 0.16100827 0.3308365 -0.18735595 0.38412815
-0.13570866 0.024763724 -0.42359012 -0.18257119 -0.36360008 -0.14972548 0.17842011 0.022102645
-0.2626197 0.21627921 0.09106108 0.35113195 -0.3137987 0.055706315 -0.2414748 -0.028825859
-0.532759 -0.30817553 -0.24770874 0.1345679 -0.050988726 0.08193609 0.3202357 0.47110406
0.067014754 -0.06352055 -0.21220618 0.34546238 0.13082369 0.100870274 -0.21663818 -0.15084557
0.009775763 0.34115008 -0.16956757 -0.25762132 0.11727761 -0.14880855 0.15610386 -0.20503479
0.021735337 -0.0951665 0.3416161 -0.37019157 0.22506012 -0.04712369 0.37550417 -0.46955496
0.19257854 -0.358463 0.32113925 -0.32696187 -0.022972636 0.14674057 -0.22259426 0.21594208
-0.21732114 0.25042778 -0.20285454 0.29647914 -0.6053838 0.18102367 -0.06410162 0.2878014
0.11746905 -0.18557733 -0.17741585 0.2941526 -0.39865202 0.31878603 -0.43379593 -0.19736025
0.24822603 0.012545825 0.0032238627 0.40431523 0.189822 0.44622067 -0.2613563 -0.268639
0.32248017 0.21753451 -0.28012607 0.078717634 -0.31247714 0.33019063 -0.18428324 -0.38109937
-0.26206687 -0.051477194 0.17114128 0.054175418 -0.35361034 -0.15177271 -0.42159456 -0.293128
-0.16978282 0.2906703 0.36552405 0.052593924 -0.017815338 0.19686788 -0.117680356 -0.21590704
00000000: 7113 e0bd 2d90 e6bd fc67 1cbe 2f5d c83e
00000010: 560f 18bf 3b33 1b3e 0279 0cbe 88eb dc3e
00000020: b9da 97be 3d08 99bd 6f62 623b 19bd 8c3e
00000030: 02c8 4e3e dfd0 04be c6e5 f93d e565 743c
00000040: ea17 8f3d 7d72 82bd 6891 a63e b55f 233d
00000050: 49f1 0bbe b854 7bbe 4a41 28bd abf3 72be
00000060: 3b41 f5bd 0627 313d c170 003e c04b 6b3e
00000070: 8e6e abbe 3583 4e3e c6eb 31bd b2c4 9e3e
00000080: 2586 0b3e 52f3 4bbe 57ae ebbe 3a76 f0bd
00000090: 220b c63e 7562 46bd a56c 8a3d 336f 8dbe
000000a0: c98a c63e 9e61 6cbe 6041 2a3e 35cc 46be
000000b0: 515b 72bd 21ff 8a3c 559b 5bbe 366d 16be
000000c0: 49e3 20be 5840 d6bd b18e bebe b2d8 61be
000000d0: 0f15 493e 9e51 abbd c2c5 9a3e e0a0 623e
000000e0: 309f 3dbd 7f55 91be 8642 1d3e 45f4 bd3c
000000f0: e960 43be 09f9 ee3d f6a7 763e 0409 833e
00000100: 13c5 47be 6a0f 08be 24b4 a7bb bd44 bfbc
00000110: 8b6c a8be 8773 b7be 053b f73d 195a 2fbe
00000120: 763c 0d3d db5b 9bbd db57 63bd e5db 31bd
00000130: fa78 2a3e f547 223e 2578 4dbe 3eb2 4b3e
00000140: d165 22be 2613 57be 2d06 97bb 765a d4bd
00000150: cc47 723e 3ec2 513d 5160 12bf 27a5 743d
00000160: 0c6c 023e fde1 f93e 0159 f1bd e286 7abe
00000170: 79d9 783e 2f64 a23e 28a4 b3be 92fd 52be
00000180: 0551 2e3d 11e9 93be ec41 393e 60be c7bd
00000190: eace 093e d556 eabe d606 d53e c01d 123d
000001a0: cd7e 6cbe fcd1 cdbe 99e9 0d3f 6d15 d63d
000001b0: cb58 143e 5b4c 07bd 51aa 153d d957 213e
000001c0: 010e 603e 3d9c 8dbe b544 553c e1db 653e
000001d0: 1ec4 183e 08f7 0e3e 8e9c 49be da7e 17be
000001e0: 24bf efbd 65e3 253d d50d 913e ee82 88be
000001f0: 7b4f 2e3e c422 3fbe e710 adbe f235 00be
00000200: bb0f 573e 57c2 883e fa0b 67be 8d3d 023d
00000210: 476b be3e c36c 643e 2fe1 003e 76f7 c53d
00000220: 1ee8 103e 7787 86bc 42e1 f3be ca70 05bf
00000230: b5ec 02bc 9f90 5f3d 6eba 8dbe 21c9 3b3d
00000240: 536e 543c afce 103c 2f83 00be 0f54 673d
00000250: 5adf 243e 6763 a93e 3dda 3fbe 72ac c43e
00000260: 36f7 0abe 4bdd ca3c cee0 d8be f1f3 3abe
00000270: ca29 babe a351 19be c3b3 363e 9b10 b53c
00000280: 1776 86be 4c78 5d3e 3b7e ba3d 91c7 b33e
00000290: 39aa a0be 4e2c 643d 2c45 77be 3524 ecbc
000002a0: e562 08bf 2fc9 9dbe 5ca7 7dbe 2bcc 093e
000002b0: 8ed9 50bd 1cce a73d eff5 a33e 8d34 f13e
000002c0: 083f 893d 1017 82bd 944c 59be 72e0 b03e
000002d0: a5f6 053e 1395 ce3d 66d6 5dbe 4377 1abe
000002e0: 862a 203c 39ab ae3e 1fa3 2dbe f1e6 83be
000002f0: 3e2f f03d 4561 18be b1d9 1f3e a4f4 51be
00000300: 4e0e b23c a7e6 c2bd 4ee8 ae3e c089 bdbe
00000310: 2976 663e c504 41bd 1542 c03e 8269 f0be
00000320: 4f33 453e 7688 b7be 5d6c a43e 8c67 a7be
00000330: 1c31 bcbc 2943 163e c0ef 63be ec1f 5d3e
00000340: 6f89 5ebe 1238 803e 1ab9 4fbe 1dcc 973e
00000350: 6ffa 1abf 455e 393e b647 83bd b55a 933e
00000360: 9d93 f03d fc07 3ebe 80ac 35be 2b9b 963e
00000370: 1e1c ccbe ec37 a33e 801a debe ce18 4abe
00000380: f72e 7e3e 018d 4d3c 7147 533b 6802 cf3e
00000390: b360 423e 0977 e43e 7ed0 85be 0d8b 89be
000003a0: 1f1c a53e 5ec1 5e3e af6c 8fbe b636 a13d
000003b0: 01fd 9fbe bf0e a93e bfb4 3cbe 751f c3be
000003c0: a12d 86be c0d9 52bd a93f 2f3e 0be7 5d3d
000003d0: 6a0c b5be 4e6a 1bbe 3edb d7be e014 96be
000003e0: 8cdb 2dbe bdd2 943e f825 bb3e ba6c 573d
000003f0: 79f1 91bc bc97 493e 6602 f1bd bc16 5dbe

conv1.bias f4 [32]
-0.37915674 -0.09312971 -0.4927381 -0.16906606 -0.38789204 -0.50476074 -0.5592621 0.13045934
0.08504584 -0.35181746 -0.40552324 -0.02353205 -0.093253925 -0.19674604 0.07712316 -0.39627442
-0.08315545 0.120022394 -0.16364777 -0.5285558 -0.5088367 -0.7544104 0.13479699 -0.6105917
0.05132399 -0.10355665 -0.3695416 -0.45913357 0.11447935 -0.4684051 -0.39776853 0.07048537
00000000: d520 c2be caba bebd 2b48 fcbe a71f 2dbe
00000010: c999 c6be 0038 01bf cd2b 0fbf 2297 053e
00000020: 832c ae3d 6b21 b4be bea0 cfbe 49c6 c0bc
00000030: eafb bebd cb77 49be bff2 9d3d 7be4 cabe
00000040: 684d aabd 4dce f53d 4893 27be 6f4f 07bf
00000050: 1f43 02bf 0a21 41bf 3908 0a3e bd4f 1cbf
00000060: 1b39 523d 8215 d4bd 8e34 bdbe 8e13 ebbe
00000070: 2674 ea3d cbd2 efbe 51a8 cbbe a25a 903d

conv2.weight f4 [32, 32, 2, 2]
-0.1974768 0.120417 -0.09541639 -0.08759056 0.020393942 0.043782786 -0.069960006 0.012465316
-0.020041281 0.032187715 -0.20693913 -0.17826508 -0.09751597 -0.07912277 -0.03344507 -0.097948305
-0.09409627 0.026607431 -0.10998633 -0.19601439 -0.044474453 0.03291322 -0.03198425 0.076365046
0.036441673 0.14459774 -0.12476702 0.029766599 -0.30379486 -0.31994647 -0.05322679 -0.44464356
0.11002813 0.110387996 0.14157741 0.2679072 0.10970177 -0.084236205 0.12325051 0.10309866
-0.112527 0.07234534 0.06680562 -0.023608627 -0.02930691 -0.26223755 0.17312431 -0.16144276
0.13051018 -0.034645423 0.07357139 -0.18113804 0.06153266 0.07578795 0.006301193 -0.112444885
0.110055916 0.0065586683 0.15312986 0.11864009 -0.00030419364 0.31977087 -0.07887022 -0.07973804
0.15230522 -0.024252523 -0.19604662 -0.009408644 0.042353984 -0.25108328 0.053290844 0.002761515
0.06762267 0.049629543 -0.08422364 -0.2084156 -0.12458216 -0.25999463 0.05319923 0.09314645
0.29121667 0.35715568 -0.4313984 -0.18436779 -0.27363104 -0.13476177 -0.05478428 -0.21500982
-0.12958437 -0.0016282476 -0.035197783 -0.01675302 0.49097887 0.22462575 -0.23996942 -0.2895194
-0.2903412 0.10144711 0.12834986 -0.28174442 0.13032094 0.11191771 -0.20042829 -0.22531815
-0.08797339 0.23518336 0.058460254 -0.061937205 -0.045409583 0.110460915 -0.0014365446 0.042997014
0.14933667 0.16914535 0.1775318 0.3040683 0.034427207 0.2605283 -0.33247557 -0.16111445
-0.25943375 0.1971527 -0.124090984 0.085100725 0.15454192 -0.07015465 0.07210625 0.07479069
-0.22757196 -0.12436235 -0.16954127 -0.2712503 -0.39249268 -0.23553787 -0.30721262 -0.3456982
-0.36752364 -0.4524491 -0.5427798 -0.30151573 -0.21005177 -0.420668 -0.42066228 -0.43037224
-0.2303696 -0.2620914 -0.23190202 -0.3095678 0.18632804 0.21305811 0.17977488 0.23882775
-0.35067278 -0.31040302 -0.28663003 -0.27335167 -0.35448107 -0.3408696 -0.5348508 -0.39924523
-0.4533015 -0.117 -0.43851218 -0.34849796 -0.012023014 0.02022966 -0.13654876 0.05219587
0.02892163 -0.07570435 0.025510795 0.117460415 0.105662264 0.12797092 0.11485924 0.20087957
-0.42562965 -0.5850807 -0.6656869 -0.50908947 -0.09969404 -0.15985136 -0.11823267 -0.13700403
-0.17683412 -0.31236425 -0.079175025 -0.18156776 0.224316 0.17349744 0.25193143 0.26094347
-0.23178303 -0.025639156 -0.06382031 -0.06344827 -0.194084 -0.25555488 -0.17949577 -0.24825649
0.0185612 0.019760784 0.09557329 0.03597185 -0.1835608 -0.2512914 -0.0123375775 -0.1373536
0.33563426 0.39267555 0.32924664 0.44316614 0.20390733 0.0069043827 0.28374636 0.02840944
-0.37090078 -0.37727237 -0.5638557 -0.3103895 -0.2375676 -0.282601 -0.28165036 -0.27029938
-0.48000956 -0.42551064 -0.6128345 -0.4463086 0.09604514 -0.026545411 -0.048850227 0.0015224569
-0.22242345 -0.17606641 -0.17646238 -0.026006915 -0.048276212 0.0043377792 0.0064096716 -0.01133258
-0.17493644 0.015187316 -0.07368306 -0.055261478 -0.035258055 0.015806701 -0.18543571 -0.024340568
-0.073443025 -0.03792782 0.04097772 0.030455608 -0.47180814 -0.3130513 -0.35335416 -0.39275077
00000000: 5c37 4abe 309d f63d ab69 c3bd ae62 b3bd
00000010: 3211 a73c 9455 333d 3147 8fbd 533b 4c3c
00000020: 9d2d a4bc 44d7 033d dae7 53be 1f8b 36be
00000030: 74b6 c7bd 1e0b a2bd b3fd 08bd 1f99 c8bd
00000040: 8cb5 c0bd d4f7 d93c 8340 e1bd ffb7 48be
00000050: d82a 36bd 03d0 063d eb01 03bd 4765 9c3d
00000060: dd43 153d 6e11 143e da85 ffbd 15d9 f33c
00000070: 008b 9bbe 06d0 a3be 5604 5abd 52a8 e3be
00000080: 6e56 e13d 1a13 e23d abf9 103e 222b 893e
00000090: 52ab e03d 0884 acbd c36a fc3d 6425 d33d
000000a0: 8e74 e6bd cb29 943d 63d1 883d e166 c1bc
000000b0: 0b15 f0bc 0044 86be 8047 313e 4051 25be
000000c0: 76a4 053e 5ce8 0dbd 99ac 963d 407c 39be
000000d0: ac09 7c3d b636 9b3d 3d7a ce3b 8149 e6bd
000000e0: ff64 e13d 19ea d63b 13ce 1c3e 93f9 f23d
000000f0: 2e7c 9fb9 02b9 a33e b686 a1bd b34d a3bd
00000100: e6f5 1b3e 3aad c6bc 72c0 48be b726 1abc
00000110: 5f7b 2d3d fd8d 80be 8047 5a3d 89fa 343b
00000120: c17d 8a3d 5948 4b3d 727d acbd e66a 55be
00000130: ee24 ffbd 041e 85be 70e7 593d 91c3 be3d
00000140: 5a1a 953e 1cdd b63e 40e0 dcbe e9ca 3cbe
00000150: 5e19 8cbe fdfe 09be 7b65 60bd 892b 5cbe
00000160: c4b1 04be ec6a d5ba 8d2b 10bd a13d 89bc
00000170: 9561 fb3e 4b04 663e 8bba 75be e33b 94be
00000180: 9aa7 94be 81c3 cf3d 256e 033e ce40 90be
00000190: da72 053e 1d35 e53d 133d 4dbe cdb9 66be
000001a0: 652b b4bd e8d3 703e 0574 6f3d deb1 7dbd
000001b0: 66ff 39bd 5539 e23d 704a bcba a31d 303d
000001c0: b6eb 183e 7034 2d3e e5ca 353e d7ae 9b3e
000001d0: 8b03 0d3d f763 853e 3d3a aabe 30fb 24be
000001e0: 80d4 84be 66e2 493e 6a23 febd 4a49 ae3d
000001f0: 3d40 1e3e 3ead 8fbd 71ac 933d dc2b 993d
00000200: a008 69be b0b1 febd 3a9c 2dbe 52e1 8abe
00000210: cdf4 c8be d730 71be f94a 9dbe 5bff b0be
00000220: 0f2c bcbe 69a7 e7be 9ef3 0abf 4560 9abe
00000230: d017 57be cc61 d7be 0c61 d7be c059 dcbe
00000240: 02e6 6bbe d830 86be b977 6dbe ac7f 9ebe
00000250: c7cc 3e3e e82b 5a3e e816 383e 438f 743e
00000260: 628b b3be 25ed 9ebe 2cc1 92be c0f4 8bbe
00000270: 8b7e b5be 7686 aebe fbeb 08bf df69 ccbe
00000280: 2217 e8be b29d efbd ab84 e0be 536e b2be
00000290: 2dfc 44bc acb8 a53c 70d3 0bbe 56cb 553d
000002a0: 0eed ec3c e20a 9bbd 04fc d03c 168f f03d
000002b0: 7565 d83d cf0a 033e 523b eb3d 60b3 4d3e
000002c0: 21ec d9be d9c7 15bf 756a 2abf b053 02bf
000002d0: 642c ccbd 13b0 23be f823 f2bd c94a 0cbe
000002e0: 0114 35be 35ee 9fbe 8426 a2bd e6ec 39be
000002f0: 18b3 653e 50a9 313e 28fd 803e 629a 853e
00000300: 8858 6dbe 3509 d2bc 39b4 82bd 2bf1 81bd
00000310: f5bd 46be 17d8 82be bdcd 37be f336 7ebe
00000320: a80d 983c 5ee1 a13c eebb c33d 3857 133d
00000330: 5df7 3bbe 44a9 80be 8d23 4abc 6ca6 0cbe
00000340: 41d8 ab3e c50c c93e 0493 a83e ace6 e23e
00000350: 15cd 503e 293e e23b 3447 913e eaba e83c
00000360: b5e6 bdbe d829 c1be d958 10bf 5feb 9ebe
00000370: ec44 73be 14b1 90be 7a34 90be ae64 8abe
00000380: d0c3 f5be 88dc d9be b9e2 1cbf 9082 e4be
00000390: 50b3 c43d c375 d9bc 2d17 48bd 2d8d c73a
000003a0: f9c2 63be c14a 34be 8eb2 34be 740c d5bc
000003b0: 47bd 45bd ee23 8e3b 3908 d23b 49ac 39bc
000003c0: 8a22 33be 38d4 783c 25e7 96bd dc59 62bd
000003d0: c06a 10bd 0e7d 813c dce2 3dbe df65 c7bc
000003e0: 4c69 96bd 345a 1bbd 41d8 273d 0a7e f93c
000003f0: d690 f1be 4348 a0be d6ea b4be a116 c9be

conv2.bias f4 [32]
0.046483506 -0.07516597 -0.10620877 -0.15136816 0.11896485 -0.09038321 -0.14534537 0.15063561
-0.061271142 0.14831926 -0.20295712 0.18931672 0.10282173 -0.11786053 -0.45367634 -0.1149933
0.010507801 0.0034022264 0.05170912 0.11794939 0.05015976 -0.21041523 0.0464094 0.13377501
-0.0664178 0.19276682 0.03405189 -0.12504102 0.0062087434 0.20425336 0.27418068 -0.15473646
00000000: 7d65 3e3d 9ef0 99bd fc83 d9bd 4100 1bbe
00000010: d8a3 f33d d51a b9bd 6bd5 14be 3940 1a3e
00000020: 73f7 7abd 01e1 173e fed3 4fbe 3edc 413e
00000030: 3394 d23d dd60 f1bd 4448 e8be 9b81 ebbd
00000040: e928 2c3c e3f7 5e3b f1cc 533d 738f f13d
00000050: 5274 4d3d 1777 57be c817 3e3d 51fc 083e
00000060: 0e06 88bd aa64 453e ff79 0b3d c10a 00be
00000070: b772 cb3b cb27 513e 6961 8c3e 3c73 1ebe

conv3.weight f4 [64, 32, 2, 2]
-0.10259744 0.0907009 0.0103933355 0.29489163 0.039647136 -0.21994112 0.23552652 -0.20482142
0.059657857 0.0732221 0.090541326 0.030058619 0.032770418 -0.05884943 0.01451909 -0.03322069
-0.38360912 -0.32039377 -0.23224398 -0.27420133 -0.071721755 0.0482938 -0.0583845 0.04123001
0.029881464 -0.03259451 -0.046439733 -0.06557164 -0.14716016 -0.21069628 -0.3121201 -0.42271772
-0.028951067 -0.09234055 0.026125025 -0.025187235 0.2537196 -0.07130154 0.24311206 -0.3916718
0.18221815 0.30929568 0.22498578 0.3010154 0.050816964 0.092350245 0.026662944 0.04538393
-0.0181114 -0.3666406 0.3874102 -0.04321286 0.19372775 0.20770569 -0.0570543 -0.47446316
-0.1369148 -0.056699324 -0.033739634 -0.23785564 0.11429968 0.076116815 0.058635883 0.049263272
0.06797692 0.060166467 0.08840685 -0.010289012 0.045851063 0.06817737 -0.10906271 -0.098661736
0.15823579 -0.010943827 -0.12810902 -0.035075538 0.26857308 -0.04266204 0.12272602 0.01992262
-0.26143923 0.049007155 0.05117662 0.1594751 0.19583774 0.15498585 -0.04043014 0.099057384
-0.085392416 -0.021092193 -0.063965164 -0.030796623 -0.39004296 -0.13481885 0.35837546 0.20658968
0.14839803 -0.2319407 0.26573458 -0.21379422 0.39566228 -0.19268794 0.02233273 -0.3195542
0.069958694 -0.15577237 -0.19620979 -0.11878694 0.06716719 0.012745498 -0.079393454 -0.010751064
0.032554027 0.040661637 0.10272404 0.045407917 0.24895121 -0.089920335 0.15710601 0.005429926
0.060493644 0.2688742 0.117374584 0.22698843 0.010108359 0.016236404 0.1057284 -0.04419579
-0.2088061 -0.5496877 0.062255517 -0.016359873 0.23973787 -0.092470504 0.25103924 0.20680772
0.037951894 0.002729123 -0.10473322 -0.08102397 -0.06297825 -0.10160633 0.03639583 0.05983155
-0.0831037 -0.15369648 -0.1847754 -0.09423243 -0.007380301 -0.02563022 -0.025537461 0.06001095
-0.01475258 0.025620101 0.05798407 0.036786813 -0.031186055 -0.28801578 0.027633198 -0.17566858
-0.008587695 0.013878811 -0.014573884 -0.018927868 0.10149906 0.15584412 -0.099554636 -0.21897002
-0.05791533 0.051356863 -0.2559706 -0.12164774 0.045272123 -0.33974817 0.23979808 -0.07867224
0.20930578 0.26132417 -0.08171767 -0.1882337 0.10101022 0.08015637 0.110218644 0.25458938
-0.3180903 -0.03519275 -0.27407274 0.051384732 -0.030785486 0.07717635 -0.038239058 0.02102909
0.1603399 0.015201756 -0.009853667 0.051775362 -0.016004778 -0.06857414 -0.076618776 0.08034685
0.044962745 -0.03314055 -0.3555025 -0.17304161 -0.13319752 0.026462499 -0.52318144 -0.09556329
-0.13405609 -0.023696875 -0.32309246 -0.3601612 -0.055412583 -0.022940414 0.02364467 0.1289879
0.03857756 0.06352979 0.07418805 0.17393543 -0.23512271 -0.27515924 0.129084 -0.030029822
0.23064792 0.2675087 -0.1220871 -0.019665355 0.22100733 0.11721171 -0.13896947 -0.1915259
-0.2927535 -0.75328016 -0.23842195 -0.4784961 0.017388474 -0.075360045 0.037650168 0.082027785
0.23327987 0.0915943 -0.296425 -0.087144226 0.07048872 0.20505777 -0.19762339 0.058635037
0.1345396 0.08137531 0.08364378 -0.6439296 -0.054241188 0.031608474 -0.05865214 0.006087274
00000000: 9b1e d2bd 65c1 b93d cf48 2a3c 09fc 963e
00000010: 0965 223d 3f38 61be dd2d 713e b5bc 51be
00000020: cc5b 743d 78f5 953d bb6d b93d 7e3d f63c
00000030: 463a 063d 1a0c 71bd 7ae1 6d3c 6b12 08bd
00000040: 6a68 c4be a70a a4be 5ed1 6dbe 1e64 8cbe
00000050: dbe2 92bd b8cf 453d 9624 6fbd cde0 283d
00000060: f9c9 f43c d281 05bd 9737 3ebd 6d4a 86bd
00000070: 27b1 16be c4c0 57be 35ce 9fbe 756e d8be
00000080: ca2a edbc 0b1d bdbd 2604 d63c 7655 cebc
00000090: 89e7 813e 8b06 92bd 5ef2 783e 3589 c8be
000000a0: 6597 3a3e 015c 9e3e ac62 663e b11e 9a3e
000000b0: 7325 503d 2022 bd3d 3f6c da3c 80e4 393d
000000c0: 5c5e 94bc 51b8 bbbe a15a c63e f8ff 30bd
000000d0: 9160 463e cdb0 543e c5b1 69bd d6ec f2be
000000e0: 6533 0cbe 8d3d 68bd 9232 0abd 6e90 73be
000000f0: f315 ea3d 22e3 9b3d 2e2c 703d 49c8 493d
00000100: 7c37 8b3d 1d71 763d a70e b53d 3f93 28bc
00000110: 53ce 3b3d 94a0 8b3d 455c dfbd 2a0f cabd
00000120: 9008 223e bd4d 33bc 032f 03be 5eab 0fbd
00000130: 6982 893e 64be 2ebd c857 fb3d c334 a33c
00000140: 5ddb 85be babb 483d 939e 513d 714d 233e
00000150: b089 483e 9cb4 1e3e 139a 25bd 99de ca3d
00000160: 38e2 aebd 89c9 acbc 2b00 83bd 3349 fcbc
00000170: b6b3 c7be f40d 0abe fd7c b73e 3f8c 533e
00000180: a7f5 173e dd81 6dbe 5d0e 883e dfec 5abe
00000190: 3f94 ca3e fd4f 45be 21f3 b63c 9c9c a3be
000001a0: 8146 8f3d cb82 1fbe 38eb 48be 9146 f3bd
000001b0: f48e 893d 7ed2 503c 0999 a2bd 3b25 30bc
000001c0: 5f57 053d d18c 263d fb60 d23d a7fd 393d
000001d0: 11ed 7e3e 2728 b8bd 66e0 203e 85ed b13b
000001e0: 2fc8 773d e1a9 893e 1662 f03d a86f 683e
000001f0: 889d 253c 3502 853c 2288 d83d a506 35bd
00000200: 44d1 55be 55b8 0cbf a4ff 7e3d 2405 86bc
00000210: d87d 753e 2d61 bdbd 3788 803e 67c5 533e
00000220: 7273 1b3d 16db 323b 5f7e d6bd e5ef a5bd
00000230: befa 80bd fb16 d0bd cb13 153d ed11 753d
00000240: 4632 aabd 9c62 1dbe c335 3dbe effc c0bd
00000250: 74d6 f1bb 78f6 d1bc f033 d1bc 0bce 753d
00000260: ceb4 71bc 3fe1 d13c b480 6d3d c5ad 163d
00000270: e679 ffbc ce76 93be 045f e23c 77e2 33be
00000280: 67b3 0cbc f463 633c 4dc7 6ebc 9e0e 9bbc
00000290: bdde cf3d 9a95 1f3e 4de3 cbbd ad39 60be
000002a0: a038 6dbd 935b 523d 940e 83be 7322 f9bd
000002b0: 436f 393d 79f3 adbe a18d 753e e91e a1bd
000002c0: 4154 563e 48cc 853e 985b a7bd 56c0 40be
000002d0: 72de ce3d 0629 a43d 50ba e13d 8a59 823e
000002e0: bbdc a2be 4626 10bd 4353 8cbe cc78 523d
000002f0: d831 fcbc a20e 9e3d 8fa0 1cbd 3345 ac3c
00000300: 2530 243e c910 793c 4671 21bc 6712 543d
00000310: 741c 83bc 9970 8cbd 4eea 9cbd e48c a43d
00000320: db2a 383d 63be 07bd 6c04 b6be d231 31be
00000330: ee64 08be e2c7 d83c 38ef 05bf b0b6 c3bd
00000340: 0046 09be f31f c2bc 606c a5be 0c67 b8be
00000350: 4ef8 62bd 89ed bbbc 78b2 c13c 6715 043e
00000360: 8103 1e3d e81b 823d e8ef 973d 211c 323e
00000370: 02c4 70be ace1 8cbe 992e 043e 1a01 f6bc
00000380: f82e 6c3e e6f6 883e cd08 fabd 3d19 a1bc
00000390: bf4f 623e b10c f03d 034e 0ebe 5e1f 44be
000003a0: c9e3 95be f8d6 40bf e224 74be 71fd f4be
000003b0: 4672 8e3c 5e56 9abd 1037 1a3d 2ffe a73d
000003c0: ebe0 6e3e cb95 bb3d 05c5 97be ac78 b2bd
000003d0: 645c 903d aafa 513e c95d 4abe 4b2b 703d
000003e0: c0c4 093e 19a8 a63d 6e4d ab3d 92d8 24bf
000003f0: 022c 5ebd e377 013d 3a3d 70bd c177 c73b

conv3.bias f4 [64]
0.0022477305 0.34598896 0.1469659 -0.40100423 0.041514523 -0.023958497 0.11618598 -0.08747953
0.13383429 0.1342782 -0.36955875 -0.08968679 0.040316615 -0.10693395 0.103141405 0.15129034
-0.046010323 0.031821337 0.043267574 0.06335194 0.12648958 -0.0015714576 -0.46642938 -0.14011382
0.0011202696 -0.16341771 0.34878704 0.08546834 0.24414726 0.1442552 0.12927888 0.2079715
-0.08303287 0.22446246 -0.0664308 -0.21829814 0.02959883 0.25022283 -0.22279859 0.03410444
0.09079257 0.18268234 0.030951269 -0.16641876 0.04970808 -0.035379086 0.05868643 0.110776655
-0.042790852 -0.06447529 0.0808597 -0.09519822 0.056987204 -0.16900624 0.13076743 -0.009403197
-0.12867828 0.029079616 -0.1105049 -0.20040765 0.079065286 0.0074847233 -0.14251326 -0.043611668
00000000: a94e 133b 7725 b13e 3b7e 163e 6d50 cdbe
00000010: 220b 2a3d 9c44 c4bc eaf2 ed3d 7828 b3bd
00000020: db0b 093e 3980 093e ce36 bdbe b5ad b7bd
00000030: 0923 253d 3000 dbbd cd3b d33d dbeb 1a3e
00000040: 5275 3cbd 1757 023d 5739 313d a9be 813d
00000050: 7c86 013e 5ef9 cdba d5cf eebe ff79 0fbe
00000060: 03d6 923a f956 27be 3794 b23e 060a af3d
00000070: bd01 7a3e a3b7 133e af61 043e 7bf6 543e
00000080: 230d aabd 7dd9 653e df0c 88bd 8c89 5fbe
00000090: 3f79 f23c 351d 803e 5025 64be 19b1 0b3d
000000a0: 74f1 b93d 1411 3b3e 848d fd3c ae69 2abe
000000b0: b39a 4b3d a9e9 10bd 2f61 703d dfde e23d
000000c0: 7645 2fbd 9f0b 84bd c599 a53d 49f7 c2bd
000000d0: 6a6b 693d f90f 2dbe e6e7 053e de0f 1abc
000000e0: 3dc4 03be 6038 ee3c 6550 e2bd aa37 4dbe
000000f0: fbec a13d 6942 f53b ffee 11be 26a2 32bd

conv4.weight f4 [64, 64, 2, 2]
0.043502457 -0.19716787 -0.08558628 -0.5659495 -0.22664654 0.23434708 -0.20844765 0.060990892
-0.38847813 0.11566391 -0.2805345 -0.04339478 -0.10687958 -0.19188331 -0.16414742 -0.18362664
0.13685626 0.09784722 0.083028175 -0.33186245 -0.2446106 -0.33622992 -0.12912811 -0.1958607
0.037483435 -0.56930834 0.13267086 -0.17225443 -0.053504333 0.028834654 0.17905223 0.026568031
0.1697329 -0.19422005 0.29977354 0.03436238 -0.19380584 -0.28276986 -0.1182447 -0.12961136
-0.13027468 0.024832346 -0.26250538 -0.41789383 -0.4805607 0.099496864 -0.4785209 -0.4476241
-0.36128792 0.03952292 -0.09740957 -0.26104012 -0.020096645 -0.071987316 0.04763248 -0.08040276
0.26300713 -0.02214969 0.44785365 0.26603264 -0.13856561 -0.19910063 0.26294315 -0.013072033
-0.090484306 0.05669454 -0.33872464 -0.017352415 -0.2050385 -0.045931455 -0.09447214 -0.3636824
0.1460518 -0.18835162 0.056205947 0.081635706 -0.38124898 -0.11687588 -0.25727245 -0.07563315
-0.14978428 0.36727506 -0.012988627 0.11519822 -0.38026315 0.483983 0.026847508 -0.047820468
0.04383866 0.038944867 -0.32330185 0.0831131 -0.027955234 0.042950787 0.034015637 0.084612645
-0.49029228 -0.13720833 -0.19836994 0.25856736 0.031750347 0.28275564 -0.13674223 0.15797305
0.1122713 -0.18701172 0.20844655 -0.08826613 -0.2228567 -0.51655215 -0.15617119 -0.3545178
-0.16027826 -0.46330023 0.039893202 -0.23369208 -0.15267476 -0.25357562 -0.5302955 -0.36582693
0.06334417 0.28275186 0.028458105 -0.26143652 -0.15104078 0.2090992 -0.23339286 0.09219919
-0.17532158 -0.110141695 -0.21652363 -0.17447044 0.07104607 -0.354022 0.024680741 0.16836762
0.0794815 -0.14127065 -0.22191639 0.19812939 -0.14143713 0.044342965 -0.10830866 0.015162157
-0.039941963 -0.058674507 0.176197 0.13874388 0.093184 0.043538943 0.15016465 0.039177477
-0.16719672 0.030361734 -0.50245374 -0.5164523 -0.3230044 0.13280417 -0.29689458 -0.111204535
-0.15924627 0.20216946 -0.19800572 0.3119838 -0.21652482 -0.017533872 -0.04185202 -0.09635666
0.1447421 -0.14375557 -0.12280044 -0.26967192 -0.062022813 -0.04994573 -0.033401646 0.0019466849
0.097301595 0.088576436 -0.011765454 0.34716615 -0.13331003 0.022261057 -0.37712827 -0.13299745
-0.014715463 -0.40098375 0.24479206 -0.38705704 0.10358927 -0.5661729 0.18287481 -0.08884917
-0.29191154 0.24100415 -0.17663376 0.090652175 -0.057762682 -0.23274542 0.35856256 -0.13813908
0.16561438 -0.15974191 0.37625262 0.12098885 -0.08458248 0.03763355 0.034837198 0.069431156
0.123533115 0.02480233 0.2538772 0.24495949 0.18510403 -0.4072691 -0.060926165 -0.12115717
0.3193531 -0.23396891 0.3340909 0.3348667 -0.29475868 -0.2298241 -0.10885034 0.02077062
0.14820671 0.19682603 -0.12093175 0.34726256 -0.26590502 0.17256072 -0.42493415 -0.101866014
-0.13313556 0.1506525 0.10106076 -0.3394862 -0.094780676 -0.0970034 0.011188057 0.008777248
0.046397086 -0.26098442 0.33898035 -0.37617585 0.033563115 -0.3749151 0.19947696 0.0023482356
-0.24953349 0.12645271 -0.092166565 -0.18114999 -0.18514131 0.13777146 -0.21119307 0.11104539
00000000: a22f 323d 60e6 49be dc47 afbd 11e2 10bf
00000010: 0816 68be aef8 6f3e 4d73 55be 96d1 793d
00000020: 9be6 c6be 33e1 ec3d 38a2 8fbe babe 31bd
00000030: aee3 dabd 0f7d 44be 4316 28be 9f08 3cbe
00000040: 0c24 0c3e 2064 c83d ad0a aa3d e0e9 a9be
00000050: 337b 7abe 5426 acbe 293a 04be b58f 48be
00000060: 3b88 193d 31be 11bf dfda 073e 7763 30be
00000070: 5c27 5bbd a736 ec3c 7859 373e 33a5 d93c
00000080: 76ce 2d3e 9fe1 46be eb7b 993e 91bf 0c3d
00000090: 0a75 46be 36c7 90be 472a f2bd d7b8 04be
000000a0: ba66 05be 346d cb3c 1b67 86be 2ef6 d5be
000000b0: 0d0c f6be 03c5 cb3d b100 f5be fc2e e5be
000000c0: bbfa b8be c9e2 213d ab7e c7bd 0da7 85be
000000d0: b8a1 a4bc 166e 93bd 461a 433d 34aa a4bd
000000e0: dfa8 863e 4473 b5bc 134d e53e 6e35 883e
000000f0: 25e4 0dbe 09e1 4bbe 7ca0 863e 152c 56bc
00000100: d64f b9bd 8938 683d 516d adbe a726 8ebc
00000110: 9df5 51be 9f22 3cbd 9c7a c1bd 9434 babe
00000120: 9a8e 153e 3fdf 40be 3538 663d 9f30 a73d
00000130: 1133 c3be 9f5c efbd 37b9 83be 8ee5 9abd
00000140: 0d61 19be 7a0b bc3e 40ce 54bc 0bed eb3d
00000150: dab1 c2be 9fcc f73e 4eef db3c 65df 43bd
00000160: 2b90 333d a784 1f3d d287 a5be 3337 aa3d
00000170: 6002 e5bc 2aed 2f3d fb53 0b3d 6549 ad3d
00000180: 9707 fbbe 5780 0cbe 7d21 4bbe f162 843e
00000190: a70c 023d 59c5 903e 2806 0cbe b0c3 213e
000001a0: 7fee e53d 0080 3fbe 0373 553e dfc4 b4bd
000001b0: 8c34 64be c33c 04bf 57eb 1fbe 5b83 b5be
000001c0: fc1f 24be b035 edbe 0e67 233d fa4c 6fbe
000001d0: c656 1cbe aad4 81be 72c1 07bf ab4d bbbe
000001e0: 97ba 813d dac4 903e f920 e93c 02db 85be
000001f0: 6faa 1abe 1a1e 563e 8afe 6ebe eed2 bc3d
00000200: 8087 33be f891 e1bd 5fb8 5dbe 61a8 32be
00000210: 9a80 913d 5f42 b5be 442f ca3c 9068 2c3e
00000220: 32c7 a23d 41a9 10be 0d3e 63be 6ee2 4a3e
00000230: e5d4 10be f8a0 353d eed0 ddbd b26a 783c
00000240: 2f9a 23bd ae54 70bd fd6c 343e e012 0e3e
00000250: 41d7 be3d e455 323d c3c4 193e 9078 203d
00000260: 9e35 2bbe 2cb9 f83c cfa0 00bf 3836 04bf
00000270: d560 a5be d1fd 073e 9102 98be 34bf e3bd
00000280: 7411 23be 8305 4f3e 03c2 4abe 57bc 9f3e
00000290: afb8 5dbe 32a3 8fbc 066d 2bbd a456 c5bd
000002a0: 4637 143e a934 13be cc7e fbbd 7012 8abe
000002b0: a20b 7ebd e593 4cbd 2ad0 08bd e827 ff3a
000002c0: 0f46 c73d 9067 b53d e4c3 40bc c3bf b13e
000002d0: 6d82 08be d25c b63c f516 c1be 7c30 08be
000002e0: 2019 71bc be4d cdbe c5aa 7a3e 572c c6be
000002f0: 9c26 d43d b5f0 10bf 8943 3b3e 8ef6 b5bd
00000300: 6e75 95be cbc9 763e 7bdf 34be d9a7 b93d
00000310: 9098 6cbd d154 6ebe 8395 b73e 5574 0dbe
00000320: d196 293e 6293 23be 2fa4 c03e 01c9 f73d
00000330: 9439 adbd a325 1a3d 73b1 0e3d ec31 8e3d
00000340: eefe fc3d 422e cb3c 31fc 813e a9d6 7a3e
00000350: e98b 3d3e 9385 d0be b78d 79bd 4021 f8bd
00000360: 4082 a33e 8c95 6fbe f60d ab3e a673 ab3e
00000370: 9cea 96be 0257 6bbe edec debd 2627 aa3c
00000380: 80c3 173e c38c 493e 11ab f7bd 66cc b13e
00000390: b424 88be c2b3 303e f890 d9be 219f d0bd
000003a0: b054 08be a644 1a3e f2f8 ce3d 23d1 adbe
000003b0: 5f1c c2bd b8a9 c6bd 1d4e 373c 72ce 0f3c
000003c0: df0a 3e3d c09f 85be d58e ad3e 1f9a c0be
000003d0: 7a79 093d dff4 bfbe b043 4c3e dbe4 193b
000003e0: b585 7fbe d27c 013e d3c1 bcbd 627f 39be
000003f0: af95 3dbe f613 0d3e ff42 58be c46b e33d

conv4.bias f4 [64]
-0.07711598 -0.080268435 -0.0053411117 -0.10206627 0.08280828 0.13707033 0.004249921 -0.05661052
-0.13873297 0.21709312 -0.09704897 -0.027561856 0.12258975 0.29457596 0.1183834 0.16954918
0.009922701 -0.13887265 0.16301002 0.042148367 0.37014973 0.087826155 -0.3161365 -0.0478739
-0.09143971 0.184482 -0.04686753 0.31667954 0.090346605 0.12385677 -0.15027507 0.08596208
0.25516987 0.13989174 -0.11199277 -0.1374693 -0.070961624 -0.22505899 -0.2982159 -0.24165775
0.05683906 -0.30068 0.0133837275 0.07556852 0.10329783 -0.07018124 0.10520364 -0.14539792
0.15975828 -0.18209188 -0.09501727 0.0005807725 0.1716667 0.26915854 0.27038658 -0.10358244
-0.025441103 0.016156467 -0.063975796 -0.098973475 0.13403012 0.18244259 -0.10564591 -0.071956225
00000000: fcee 9dbd c763 a4bd 7e04 afbb 1f08 d1bd
00000010: 6397 a93d 2a5c 0c3e ec42 8b3b 6fe0 67bd
00000020: 0410 0ebe a94d 5e3e 9cc1 c6bd 67c9 e1bc
00000030: 5610 fb3d a9d2 963e ff72 f23d 4d9e 2d3e
00000040: d392 223c a234 0ebe 19ec 263e c4a3 2c3d
00000050: 4484 bd3e 33de b33d a5dc a1be 6c17 44bd
00000060: be44 bbbd d9e8 3c3e 2bf8 3fbd d223 a23e
00000070: a407 b93d 9ea8 fd3d b5e1 19be e30c b03d
00000080: a0a5 823e c83f 0f3e 775c e5bd c1c4 0cbe
00000090: 5454 91bd dd75 66be c1af 98be 2175 77be
000000a0: 13d0 683d bbf2 99be 6c47 5b3c abc3 9a3d
000000b0: d08d d33d 2fbb 8fbd 0275 d73d 31e3 14be
000000c0: ad97 233e 4b76 3abe 6a98 c2bd fc3e 183a
000000d0: 65c9 2f3e 26cf 893e 1c70 8a3e 0823 d4bd
000000e0: dc69 d0bc 915a 843c be05 83bd 9bb2 cabd
000000f0: 313f 093e 3bd2 3a3e e25c d8bd c95d 93bd

conv5.weight f4 [128, 64, 2, 2]
-0.037587106 -0.1836063 -0.1272574 -0.21643642 0.020847756 -0.05123222 0.026554182 -0.084565185
0.16946526 0.019452829 0.19002493 -0.21726012 -0.2078543 0.025902316 -0.22161016 -0.14316827
-0.43398488 -0.5455419 -0.14499168 -0.30106178 -0.33927116 0.035219084 -0.12480703 -0.1698693
-0.15648168 0.024299715 0.069431886 0.042747553 -0.25196838 -0.24165425 -0.20249498 -0.036103483
-0.058561213 -0.43385738 -0.03766815 -0.09168962 0.14937781 -0.037025087 0.27204537 -0.053710822
-0.16864331 -0.31515828 0.036228836 0.12993707 -0.41196775 -0.06277717 0.03458363 0.29447484
-0.22003527 -0.7947044 -0.049671136 -0.13938075 -0.2664641 -0.010566778 -0.20693114 0.059142232
-0.028856486 -0.17727101 -0.38943824 0.21883449 -0.2996471 0.10294473 0.076773874 -0.01957386
0.2632592 0.22411595 -0.4601403 -0.31050554 -0.0030755335 0.013189336 0.014591348 0.05747976
0.04337678 0.26558888 -0.31298795 -0.17480503 0.11587056 -0.15659998 0.046067856 0.20160188
0.11551071 -0.0029482322 0.11931176 0.040332705 -0.03568543 -0.099656284 -0.020962423 0.12315704
-0.3349668 0.04444043 -0.009013944 0.33029595 -0.3927657 -0.28129232 0.08241516 -0.008264042
-0.072994895 -0.0319835 -0.075987674 -0.08296072 -0.15539572 -0.21312661 0.33669052 0.1570115
-0.0077789202 -0.062167883 0.22450691 -0.5141983 0.47934547 -0.04189124 0.25742596 0.16395402
0.1557045 0.024699127 0.6512246 -0.05249396 0.19555932 0.26381886 0.36830428 0.31184712
-0.043999694 0.035097294 -0.032464955 -0.19359188 0.22036791 -0.18375877 0.21691267 -0.35912284
-0.107132815 -0.062354602 -0.08331811 -0.080911815 -0.266326 -0.0071148626 -0.06607649 -0.036526058
0.4137437 0.59336746 0.19988132 0.46600777 -0.18803065 0.27465698 -0.31327724 -0.015875682
0.0403937 0.067664705 0.026889341 -0.27658123 -0.35722616 -0.28000662 -0.16118366 0.29797766
-0.028847273 0.38319084 -0.11051437 -0.23956 -0.18752612 -0.17452286 -0.4919399 -0.2552445
-0.0867046 -0.28909913 0.24443564 -0.05429378 -0.368716 -0.24389029 -0.20818155 -0.2965942
-0.046734806 0.09035461 -0.19269153 -0.40619206 0.080685 0.14103796 0.12040535 0.38063535
-0.0692229 -0.22902821 -0.00077336136 -0.21928446 0.04283085 0.12563255 -0.22303261 -0.09813935
-0.43885082 -0.022612987 -0.45474213 -0.32247415 0.17107438 -0.093582064 -0.2881657 -0.35309157
-0.13230242 -0.024931025 -0.15050828 -0.050192278 0.15378495 -0.734258 -0.28434026 -0.6187194
-0.19996586 0.077014364 -0.07682076 -0.25867194 0.17834444 0.0751839 0.2147494 -0.26971528
0.06866141 -0.23761804 -0.20909052 -0.2878232 0.28248093 0.42515072 0.051347654 -0.21308789
0.2107115 -0.27787313 -0.16999155 -0.3374098 -0.32799935 -0.4532414 0.18602224 -0.23362571
0.06481446 -0.12957205 0.1438016 0.05794549 0.06521055 0.14153932 -0.40244204 -0.16975345
0.024748536 0.29929498 -0.2271103 0.30214548 -0.22947158 -0.12499404 -0.09545045 0.07367195
-0.09041867 0.10093674 0.10613524 0.9146551 -0.3430398 -0.19931158 -0.057690747 -0.41646996
0.13654625 0.097648405 -0.025397437 -0.14529313 -0.05587313 -0.014122362 0.00091926067 0.014769806
00000000: f0f4 19bd 4a03 3cbe c44f 02be 82a1 5dbe
00000010: eac8 aa3c e0d8 51bd 2888 d93c 8330 adbd
00000020: 4d88 2d3e 8a5b 9f3c e595 423e 7079 5ebe
00000030: c2d7 54be 1831 d43c c6ed 62be b49a 12be
00000040: 4433 debe a2a8 0bbf b378 14be c524 9abe
00000050: f3b4 adbe e341 103d d49a ffbd 38f2 2dbe
00000060: bc3c 20be 3210 c73c 4e32 8e3d 0f18 2f3d
00000070: 0002 81be 3674 77be d85a 4fbe 3fe1 13bd
00000080: e2dd 6fbd 8e22 debe eb49 1abd c4c7 bbbd
00000090: 7ff6 183e 9ea7 17bd 8849 8b3e e1ff 5bbd
000000a0: d5b0 2cbe 6d5c a1be b064 143d 390e 053e
000000b0: 70ed d2be 5191 80bd 90a7 0d3d 68c5 963e
000000c0: ed50 61be bf71 4bbf f673 4bbd d4b9 0ebe
000000d0: fc6d 88be 4720 2dbc c2e5 53be 203f 723d
000000e0: 7064 ecbc 8886 35be 7364 c7be 2616 603e
000000f0: 586b 99be b0d4 d23d 9f3b 9d3d 5c59 a0bc
00000100: e9c9 863e a77e 653e 8297 ebbe 95fa 9ebe
00000110: e48e 49bb 1618 583c 8d10 6f3c e66f 6b3d
00000120: daab 313d 44fb 873e f53f a0be 1700 33be
00000130: 8b4d ed3d bf5b 20be a6b1 3c3d b970 4e3e
00000140: e190 ec3d 2137 41bb b959 f43d e833 253d
00000150: e32a 12bd 9818 ccbd 63b9 abbc c239 fc3d
00000160: c580 abbe 2b07 363d 39af 13bc 8d1c a93e
00000170: 9618 c9be 8c05 90be 48c9 a83d e865 07bc
00000180: 597e 95bd 2101 03bd 6d9f 9bbd 4fe7 a9bd
00000190: 0e20 1fbe dd3d 5abe b362 ac3e 9fc7 203e
000001a0: 50e6 febb c0a3 7ebd 24e5 653e 80a2 03bf
000001b0: c56c f53e 2696 2bbd 56cd 833e 90e3 273e
000001c0: 0071 1f3e d355 ca3c a8b6 263f e803 57bd
000001d0: b440 483e 4413 873e 6192 bc3e 6daa 9f3e
000001e0: 0639 34bd 2ec2 0f3d f9f9 04bd f33c 46be
000001f0: 20a8 613e 422b 3cbe 5b1e 5e3e f3de b7be
00000200: 7368 dbbd 8a67 7fbd afa2 aabd 18b5 a5bd
00000210: e25b 88be cb23 e9bb 1c53 87bd 599c 15bd
00000220: 37d6 d33e eee6 173f b0ad 4c3e 9298 ee3e
00000230: 1b8b 40be d79f 8c3e e065 a0be b80d 82bc
00000240: dd73 253d cb93 8a3d 0947 dc3c 0e9c 8dbe
00000250: 59e6 b6be 075d 8fbe 540d 25be 8790 983e
00000260: 1e51 ecbc 9731 c43e 5c55 e2bd 374f 75be
00000270: d906 40be 1fb6 32be 8cdf fbbe 68af 82be
00000280: 2e92 b1bd cd04 94be 564d 7a3e 2863 5ebd
00000290: 58c8 bcbe 60be 79be 8b2d 55be 32db 97be
000002a0: ff6c 3fbd d60b b93d ee50 45be 68f8 cfbe
000002b0: 2d3e a53d 416c 103e 1597 f63d a3e2 c23e
000002c0: bcc4 8dbd 5f86 6abe 67bb 4aba 1b8c 60be
000002d0: 676f 2f3d d2a5 003e a962 64be 49fd c8bd
000002e0: 0eb1 e0be df3e b9bc f6d3 e8be 551b a5be
000002f0: 1f2e 2f3e f4a7 bfbd 748a 93be 6bc8 b4be
00000300: 497a 07be 263c ccbc d81e 1abe 6b96 4dbd
00000310: cd79 1d3e 55f8 3bbf 0c95 91be 6564 1ebf
00000320: dac3 4cbe b5b9 9d3d 3454 9dbd a670 84be
00000330: ed9f 363e 04fa 993d 44e7 5b3e 1f18 8abe
00000340: 5a9e 8c3d 2552 73be d31b 56be 905d 93be
00000350: 57a1 903e 5bad d93e eb51 523d b633 5abe
00000360: c1c4 573e 6345 8ebe 4412 2ebe fac0 acbe
00000370: 88ef a7be 420f e8be 9d7c 3e3e 943b 6fbe
00000380: 72bd 843d 89ae 04be ba40 133e 4058 6d3d
00000390: 1c8d 853d afef 103e e20c cebe d9d3 2dbe
000003a0: 71bd ca3c 313d 993e 9a8f 68be d0b2 9a3e
000003b0: 99fa 6abe e0fc ffbd 877b c3bd 52e1 963d
000003c0: 6c2d b9bd ecb7 ce3d 6f5d d93d d626 6a3f
000003d0: eaa2 afbe 5618 4cbe 224d 6cbd 8d3b d5be
000003e0: c8d2 0b3e e3fb c73d 490e d0bc b9c7 14be
000003f0: 39db 64bd 7b61 67bc 8afa 703a 0efd 713c

conv5.bias f4 [128]
0.22698349 0.032605175 0.21864559 0.18476981 -0.09543014 0.115957715 0.20145422 0.08688633
0.19952026 -0.30887792 0.1335577 0.044475213 -0.25651267 -0.19667298 -0.118616305 0.058734026
-0.2615371 0.15714246 0.11821493 -0.10792633 0.12196278 0.024876535 -0.020372586 0.023788024
0.4000422 0.17122178 0.12040373 -0.4534841 -0.119260855 -0.16220286 -0.014390019 -0.011985243
0.0072997697 -0.2316435 0.15759006 0.19947973 0.043536853 0.09983759 -0.030076269 -0.023769628
0.05924825 0.04867785 0.08873383 0.07873976 0.012860272 0.16835003 -0.04501668 0.21963096
0.12771614 0.12845404 -0.13487539 -0.26597825 -0.40078166 -0.26091456 0.06848864 0.19087215
0.042593315 0.18177344 -0.16397776 0.048979614 -0.04919795 0.22501028 0.17904241 0.1992839
-0.1544257 0.25292897 -0.09675423 0.23039055 -0.06293435 0.015971703 -0.010024717 -0.022056082
0.0677606 -0.16797839 -0.102020614 -0.21013778 0.015489261 -0.27763525 -0.18948139 0.034082986
0.13036637 -0.0461522 0.009657808 -0.079945 -0.0016484112 -0.0083334325 -0.08518776 0.10192636
-0.345412 0.2799221 0.1354757 -0.011000486 -0.13599378 -0.06325542 -0.12780373 0.02233323
0.2619078 0.062847815 -0.13872811 0.30501443 -0.13178356 -0.13678646 0.13582647 -0.03301459
-0.12753032 -0.077898666 0.19249009 -0.16990557 0.14453077 0.17164655 0.2594275 -0.09522125
0.21785785 0.038123403 0.06407832 -0.023724565 -0.18307894 0.056806944 -0.45123792 0.17990191
0.23517525 0.02474564 0.017619165 0.019817656 0.12218415 -0.08012799 -0.17138082 -0.17956428
00000000: 5c6e 683e 018d 053d a1e4 5f3e 4c34 3d3e
00000010: e170 c3bd 3d7b ed3d 044a 4e3e 76f1 b13d
00000020: 0a4f 4c3e 3f25 9ebe 5ac3 083e a42b 363d
00000030: a155 83be a464 49be 1bed f2bd 1793 703d
00000040: 31e8 85be f4e9 203e ab1a f23d 7b08 ddbd
00000050: 9fc7 f93d e0c9 cb3c 69e4 a6bc 1adf c23c
00000060: 55d2 cc3e c354 2f3e 3b96 f63d 112f e8be
00000070: 093f f4bd 8218 26be 1dc4 6bbc c15d 44bc
00000080: e832 ef3b f433 6dbe 4a5f 213e 6a44 4c3e
00000090: b353 323d a677 cc3d 8262 f6bc 86b8 c2bc
000000a0: 4bae 723d 6d62 473d 15ba b53d 5042 a13d
000000b0: e4b3 523c f363 2c3e 6963 38bd f0e6 603e
000000c0: 05c8 023e 7589 033e c61c 0abe 4d2e 88be
000000d0: 4133 cdbe 9896 85be c643 8c3d fd73 433e
000000e0: 5476 2e3d d122 3a3e c9e9 27be d99e 483d
000000f0: ca83 49bd 1869 663e e556 373e 1411 4c3e
00000100: c521 1ebe e87f 813e 1527 c6bd 80eb 6b3e
00000110: b9e3 80bd 17d7 823c b63e 24bc f5ae b4bc
00000120: 12c6 8a3d 8702 2cbe 2ff0 d0bd 5c2e 57be
00000130: abc6 7d3c 3526 8ebe 6907 42be 9a9a 0b3d
00000140: c37e 053e 170a 3dbd c83b 1e3c 34ba a3bd
00000150: 800f d8ba f388 08bc ec76 aebd c4be d03d
00000160: d7d9 b0be f351 8f3e 24ba 0a3e 623b 34bc
00000170: f441 0bbe 0f8c 81bd fbde 02be 2ef4 b63c
00000180: c718 863e 5bb6 803d be0e 0ebe da2a 9c3e
00000190: 45f2 06be c011 0cbe 1816 0b3e 4f3a 07bd
000001a0: 4f97 02be 5689 9fbd 1f1c 453e bafb 2dbe
000001b0: e0ff 133e 1dc4 2f3e aed3 843e 5c03 c3bd
000001c0: 2116 5f3e 4927 1c3d 7f3b 833d 055a c2bc
000001d0: 0c79 3bbe 66ae 683d a808 e7be 3538 383e
000001e0: c8d1 703e 5eb7 ca3c 1156 903c a358 a23c
000001f0: af3b fa3d 251a a4bd 747e 2fbe b3df 37be

conv6.weight f4 [64, 128, 2, 2]
-0.03310323 -0.019686973 -0.59960383 -0.4750687 -0.21468055 -0.2947649 -0.3513199 -0.29890874
-0.1286622 -0.40728694 -0.24192621 0.19690837 0.20574011 -0.03317471 -0.01715893 -0.09902054
-0.112028584 0.07357624 0.13562538 0.24060774 0.07606265 0.14818245 0.37602836 0.30909973
-0.04707593 0.16222975 0.06039166 -0.41104022 0.22457258 -0.027373165 -0.16649511 0.07312436
-0.20526315 -0.1363731 -0.07484016 -0.07172869 -0.35334367 -0.2368937 0.002168191 -0.16224681
0.06635669 -0.01987516 0.14480071 0.059212822 0.00033555302 -0.17294773 -0.28613475 -0.36410218
-0.22681002 -0.45940793 0.16448122 -0.013570419 -0.270289 0.071769945 0.06985524 -0.16327411
-0.25159958 -0.358784 0.1842644 -0.09338134 -0.008197509 0.085363835 -0.020429516 -0.09310087
-0.021044197 0.06543441 0.008946865 0.107105955 0.04997644 0.04866168 0.45180786 0.43848425
0.024144672 0.07260818 0.19151244 0.21959187 -0.02050702 0.017779244 -0.02513591 0.02547871
0.11858273 0.037925832 0.052710764 -0.348717 -0.105236836 0.20094979 0.22044565 0.2561198
0.10280985 -0.41205293 -0.21354234 -0.624223 -0.24540643 -0.19725043 -0.65246534 -0.79425776
-0.05227292 -0.43642482 -0.63277334 -0.38883924 -0.00046805487 -0.43799073 -0.33462733 -0.85747564
-0.21407819 -0.34168577 0.07604863 -0.09618563 0.031132542 -0.12792417 0.0556676 0.23701383
-0.12822042 -0.056779653 0.06463935 -0.06149613 -0.02345432 -0.022922322 -0.06308745 -0.029640587
-0.11909213 0.25292036 0.044876326 -0.25330064 -0.17113362 -0.038664766 -0.0081174 -0.022852864
0.24322245 0.1295461 -0.0988984 0.23015004 0.024633935 -0.04986554 -0.07833309 -0.06758804
0.28048813 0.034291156 -0.21909413 -0.012094032 -0.119004846 -0.13166592 0.034180686 0.04423359
0.2609109 0.32370394 0.06668208 0.38968143 0.112987585 0.316508 0.20187144 0.09229994
0.042432763 -0.3343312 0.097811736 -0.5141886 -0.17842162 -0.15500405 -0.029718613 0.26613274
0.12978078 -0.38669202 0.048484974 0.011943692 0.1352164 -0.09852421 0.048958823 0.08979678
0.18484855 -0.19659492 -0.2108804 -0.51163715 -0.2980258 0.065053456 0.3302319 0.19622983
0.1456614 0.034026194 0.24272546 0.2261705 -0.33903718 -0.36616278 -0.27006996 0.19204298
0.21620812 -0.06824042 0.2881801 0.14458299 -0.19524361 -0.010004878 -0.16270724 -0.13467275
-0.16607833 -0.6037141 -0.095482744 -0.28192273 -0.16927227 0.20986462 0.29409903 -0.3420901
-0.23917821 -0.094754174 0.05450731 -0.15015869 0.25286028 -0.01901641 0.12588646 0.25480878
0.3272173 0.052995123 0.117084 -0.090372786 0.24178343 0.24637605 0.047549244 0.087908655
-0.035487458 0.19661108 0.38716874 0.17193265 -0.16958515 -0.23593202 -0.06846387 -0.084649734
-0.058340486 -0.060464293 0.3341063 0.09684414 0.01939265 0.0249118 0.27013472 0.02098064
0.002674735 -0.017149465 -0.021013504 0.03214601 0.16670406 0.16362844 -0.22968931 -0.22892416
0.090998515 0.008765448 -0.18814066 0.2529062 0.30936337 0.16070455 -0.11974224 0.03231442
-0.0045294757 0.15293443 -0.16165273 0.11265966 0.2305283 0.1012336 -0.23561545 -0.10325171
00000000: 4197 07bd 9346 a1bc a37f 19bf 343c f3be
00000010: 38d5 5bbe 6deb 96be 34e0 b3be 910a 99be
00000020: 06c0 03be ea87 d0be 81bb 77be 59a2 493e
00000030: 89ad 523e 34e2 07bd e290 8cbc 48cb cabd
00000040: 3e6f e5bd 24af 963d 61e1 0a3e e061 763e
00000050: bcc6 9b3d 24bd 173e ca86 c03e 5242 9e3e
00000060: b1d2 40bd 8e1f 263e 3f5d 773d dd73 d2be
00000070: 5bf6 653e b03d e0bc b27d 2abe 39c2 953d
00000080: 8130 52be 64a5 0bbe cc45 99bd 7ee6 92bd
00000090: 76e9 b4be 4394 72be 3518 0e3b 0724 26be
000000a0: 04e6 873d 3bd1 a2bc a346 143e 2589 723d
000000b0: 2aed af39 3619 31be 4180 92be 9a6b babe
000000c0: e340 68be 8437 ebbe c46d 283e 7656 5ebc
000000d0: 5263 8abe 1ffc 923d 4410 8f3d 5431 27be
000000e0: a9d1 80be 89b2 b7be cfaf 3c3e b73e bfbd
000000f0: d84e 06bc 3cd3 ae3d cd5b a7bc abab bebd
00000100: e164 acbc 7a02 863d df95 123c 5e5a db3d
00000110: 18b4 4c3d 7851 473d 5c53 e73e 0281 e03e
00000120: 0ccb c53c 99b3 943d d61b 443e b1dc 603e
00000130: 57fe a7bc c7a5 913c d3e9 cdbc bab8 d03c
00000140: 81db f23d 1e58 1b3d 3ee7 573d 098b b2be
00000150: 6986 d7bd c8c5 4d3e 81bc 613e 2222 833e
00000160: f88d d23d 9af8 d2be d8aa 5abe 14cd 1fbf
00000170: d34b 7bbe 04fc 49be f807 27bf 7a54 4bbf
00000180: 211c 56bd 1373 dfbe 6ffd 21bf f015 c7be
00000190: 4365 f5b9 5240 e0be 4654 abbe 8683 5bbf
000001a0: 5037 5bbe 70f1 aebe 62bf 9b3d f9fc c4bd
000001b0: ac09 ff3c 8efe 02be b603 643d c1b3 723e
000001c0: 374c 03be c891 68bd a361 843d 5ee3 7bbd
000001d0: 4623 c0bc 98c7 bbbc fe33 81bd d1d0 f2bc
000001e0: 93e6 f3bd c77e 813e 3dd0 373d 9fb0 81be
000001f0: a73d 2fbe f25e 1ebd d8fe 04bc ee35 bbbc
00000200: 4e0f 793e bca7 043e 3f8b cabd 74ac 6b3e
00000210: 1bcd c93c cf3f 4cbd 196d a0bd 996b 8abd
00000220: 249c 8f3e e274 0c3d 365a 60be 0c26 46bc
00000230: d0b8 f3bd 6ed3 06be 0c01 0c3d 482e 353d
00000240: 1d96 853e 86bc a53e 9d90 883d 5384 c73e
00000250: 0966 e73d 560d a23e 63b7 4e3e c007 bd3d
00000260: facd 2d3d 762d abbe 8551 c83d dda1 03bf
00000270: 28b4 36be 62b9 1ebe 7374 f3bc 8d42 883e
00000280: 41e5 043e 7ffc c5be 2e98 463d 7aaf 433c
00000290: 2b76 0a3e 10c7 c9bd 0c89 483d 60e7 b73d
000002a0: f048 3d3e 2e50 49be 08f1 57be a7fa 02bf
000002b0: d696 98be bf3a 853d 2814 a93e 79f0 483e
000002c0: 4328 153e 0d5f 0b3d 068d 783e 3d99 673e
000002d0: 4896 adbe b079 bbbe 9c46 8abe eaa6 443e
000002e0: a965 5d3e a2c1 8bbd 588c 933e 900d 143e
000002f0: f1ed 47be 80eb 23bc ba9c 26be a7e7 09be
00000300: 7010 2abe 028d 1abf 758c c3bd 2d58 90be
00000310: b655 2dbe c0e6 563e 2694 963e 6f26 afbe
00000320: 22eb 74be 7a0e c2bd 0f43 5f3d 33c3 19be
00000330: e776 813e 4dc8 9bbc 61e8 003e 4c76 823e
00000340: 0789 a73e 6a11 593d bcc9 ef3d 5e15 b9bd
00000350: 1396 773e 014a 7c3e ffc2 423d 7409 b43d
00000360: 4c5b 11bd 6a54 493e fb3a c63e 1d0f 303e
00000370: bba7 2dbe 2a98 71be c936 8cbd d75c adbd
00000380: 6ff6 6ebd 68a9 77bd fb0f ab3e 3856 c63d
00000390: 56dd 9e3c d513 cc3c 194f 8a3e 97df ab3c
000003a0: 9b4a 2f3b 097d 8cbc 8324 acbc 89ab 033d
000003b0: 78b4 2a3e 378e 273e ad33 6bbe 186b 6abe
000003c0: 6e5d ba3d f49c 0f3c f2a7 40be ec7c 813e
000003d0: e064 9e3e bc8f 243e 6b3b f5bd 205c 043d
000003e0: ff6b 94bb d89a 1c3e 4b88 25be 1cba e63d
000003f0: 9c0f 6c3e 9053 cf3d 2d45 71be a275 d3bd

conv6.bias f4 [64]
0.13543548 -0.06575603 -0.11108443 0.19949156 -0.123265356 0.29485872 0.11786368 0.06815603
0.1380972 0.06458869 0.14215387 0.2890002 0.117197014 -0.29703677 0.078320734 -0.27436045
0.39972162 -0.10604722 -0.19051602 0.06168594 -0.14330254 0.03377238 -0.06631779 -0.11232531
-0.1302985 0.08276727 -0.31613654 0.079395816 -0.19552997 -0.094861075 -0.31846657 0.07018411
-0.15124266 -0.4764735 -0.33760664 0.118975095 -0.13989559 -0.15107639 -0.10895442 -0.041864317
-0.11269222 -0.053244267 -0.24150778 -0.1639607 -0.13644621 0.1400647 0.03359746 0.24610445
-0.17630969 0.00743267 0.1815356 0.11872965 -0.24945486 -0.37583274 -0.2653754 0.17584161
0.08249832 0.21544473 0.3349105 -0.07684345 -0.41607666 -0.1671522 0.3278878 -0.090306394
00000000: 99af 0a3e 19ab 86bd 3c80 e3bd 8447 4c3e
00000010: 8c72 fcbd b9f7 963e 8362 f13d 6395 8b3d
00000020: 5a69 0d3e 1347 843d c990 113e d6f7 933e
00000030: fd04 f03d 3415 98be 9f66 a03d f978 8cbe
00000040: 50a8 cc3e 492f d9bd a216 43be 65aa 7c3d
00000050: e7bd 12be e854 0a3d 9fd1 87bd d00a e6bd
00000060: f86c 05be e381 a93d a6dc a1be 469a a23d
00000070: 0239 48be 8646 c2bd 0d0e a3be b0bc 8f3d
00000080: 5bdf 1abe 56f4 f3be c7da acbe 37a9 f33d
00000090: ca40 0fbe c5b3 1abe 7f23 dfbd eb79 2bbd
000000a0: 2ecb e6bd a916 5abd d14d 77be 50e5 27be
000000b0: 8eb8 0bbe 1f6d 0f3e 7d9d 093d ce02 7c3e
000000c0: 878a 34be c18d f33b 78e4 393e 8828 f33d
000000d0: 1871 7fbe 266d c0be 49df 87be d30f 343e
000000e0: e1f4 a83d 8b9d 5c3e 6479 ab3e 1960 9dbd
000000f0: 0008 d5be f229 2bbe e9e0 a73e 8ff2 b8bd
