model/model_5.pth (torch_old, 571877 bytes, 24 tensors)

conv1.weight f4 [32, 3, 2, 2]
-0.055267677 -0.114475355 -0.12077811 0.32154408 -0.48668554 0.20208468 -0.07393574 0.40542057
-0.21499832 -0.06439958 0.017510286 0.20882522 0.17994082 -0.16841958 0.13622858 -0.0045392993
0.08417652 -0.08356728 0.3694008 0.05467347 -0.110489786 -0.25902063 0.02203863 -0.18325761
-0.1578283 0.003473239 0.087307535 0.1671296 -0.26713696 0.20178935 0.055538047 0.31439823
0.1548067 -0.25567144 -0.37734708 -0.14340907 0.40114012 -0.045784906 0.068144746 -0.29235628
0.41277245 -0.20313114 0.2117616 -0.16465212 -0.007816229 0.067605026 -0.15123695 -0.10139762
-0.18894617 -0.11129246 -0.38657656 -0.21503341 0.17725517 -0.06968703 0.30603802 0.24507089
-0.025753086 -0.2530855 0.18145233 0.053999666 -0.19446832 0.12080271 0.2526809 0.273062
-0.20275745 -0.12332226 0.017783368 0.017673131 -0.356773 -0.3570465 0.10842644 -0.14811769
0.1328684 0.0070156455 0.06774848 0.06807607 0.09261218 0.10979419 -0.24358407 0.18526042
-0.30068335 -0.3004214 -0.04630346 -0.0922719 0.23302683 0.031908445 -0.51648426 0.09023906
0.08759972 0.43897748 -0.09059517 -0.23348929 0.22178575 0.30395257 -0.31590348 -0.16878168
0.048182134 -0.214016 0.11290228 -0.08019886 0.15222979 -0.38971552 0.35339016 0.04695761
-0.20603345 -0.3675261 0.51140773 0.10096465 0.13564815 -0.038959812 0.035596676 0.14458548
0.24278587 -0.23209488 0.007837499 0.21051918 0.1746663 0.16236225 -0.2029691 -0.17649502
-0.120248795 0.06853166 0.26236933 -0.23684096 0.23115212 -0.092664964 -0.307168 -0.08857307
0.25065455 0.31463948 -0.18901055 0.03259285 0.338577 0.24709016 0.11660052 0.13707739
0.120539196 0.030331597 -0.46682328 -0.44507864 -0.056252517 0.048015967 -0.2976118 0.06956906
0.028945478 0.008916336 -0.10558543 0.050577693 0.15918995 0.33196592 -0.22344111 0.3411324
-0.10097514 0.047970165 -0.43366382 -0.20830894 -0.34289134 -0.14407486 0.22952095 0.059820276
-0.3145362 0.18704832 0.09538649 0.356158 -0.29453233 0.10075832 -0.12930998 0.076460175
-0.46943933 -0.2827348 -0.2130549 0.13049397 -0.03331599 0.067766786 0.30149493 0.415526
0.08570893 -0.04236098 -0.22746857 0.31715405 0.109416306 0.0892315 -0.20856465 -0.14718889
-0.023148516 0.33227715 -0.1865246 -0.26751012 0.113496594 -0.15046434 0.1725958 -0.18878922
-0.0060065794 -0.0770661 0.3091448 -0.35999373 0.1990702 -0.0042086574 0.34066448 -0.44017276
0.19362092 -0.30497026 0.31375682 -0.29542136 -0.023326486 0.08017743 -0.20216222 0.14601326
-0.18546313 0.20702259 -0.16777183 0.22815286 -0.55377007 0.18361883 -0.008107333 0.2675989
0.1597307 -0.142532 -0.15037304 0.3173654 -0.37031603 0.31528184 -0.40168443 -0.18844973
0.17294094 -0.06823476 -0.06646195 0.32842544 0.20534205 0.41136444 -0.20387979 -0.27564555
0.30478472 0.15399726 -0.26823014 0.039770678 -0.33098507 0.24592687 -0.11626105 -0.41150984
-0.27737013 -0.054081403 0.14877228 0.039999034 -0.31751025 -0.11375242 -0.37422803 -0.25521716
-0.16250798 0.301918 0.37644458 0.062655054 -0.020745859 0.13289408 -0.17965215 -0.33250675
00000000: 5c60 62bd 0e72 eabd 845a f7bd 6da1 a43e
00000010: d92e f9be 49ef 4e3e 9f6b 97bd 4993 cf3e
00000020: 8528 5cbe ede3 83bd bb71 8f3c 47d6 553e
00000030: 6842 383e 2f76 2cbe 817f 0b3e 67be 94bb
00000040: bd64 ac3d 5225 abbd 1a22 bd3e 4af1 5f3d
00000050: 7848 e2bd 5a9e 84be 5b8a b43c e2a7 3bbe
00000060: be9d 21be 489f 633b 4bce b23d 0624 2b3e
00000070: 2dc6 88be dea1 4e3e dd7b 633d cef8 a03e
00000080: a685 1e3e 5ee7 82be a333 c1be d4d9 12be
00000090: 3d62 cd3e f488 3bbd 798f 8b3d b9af 95be
000000a0: e956 d33e 9c01 50be 08d8 583e 919a 28be
000000b0: a40f 00bc 8174 8a3d dcdd 1abe 8ea9 cfbd
000000c0: 1b7b 41be 4ded e3bd 5ded c5be b831 5cbe
000000d0: 6182 353e 13b8 8ebd 04b1 9c3e ddf3 7a3e
000000e0: 23f8 d2bc 6c94 81be a4ce 393e c12e 5d3d
000000f0: b422 47be 6967 f73d 645f 813e c8ce 8b3e
00000100: a69f 4fbe 6290 fcbd 6dae 913c 3ec7 903c
00000110: f3aa b6be cdce b6be ae0e de3d 2aac 17be
00000120: a70e 083e 80e3 e53b b7bf 8a3d 776b 8b3d
00000130: 74ab bd3d c7db e03d 1a6e 79be e8b4 3d3e
00000140: 2bf3 99be d5d0 99be b2a8 3dbd 0df9 bcbd
00000150: 969e 6e3e 6eb2 023d 5038 04bf 42cf b83d
00000160: 7b67 b33d a8c1 e03e f689 b9bd d117 6fbe
00000170: ce1b 633e ac9f 9b3e 1abe a1be 1bd5 2cbe
00000180: a15a 453d 0327 5bbe 5039 e73d 4d3f a4bd
00000190: 20e2 1b3e cb88 c7be 8eef b43e 9f56 403d
000001a0: 6ffa 52be 622c bcbe 9eeb 023f 8ec6 ce3d
000001b0: 59e7 0a3e 5394 1fbd d2cd 113d 370e 143e
000001c0: dc9c 783e 48aa 6dbe da68 003c 5792 573e
000001d0: b9db 323e 4a42 263e 22d7 4fbe 1cbb 34be
000001e0: 0045 f6bd 545a 8c3d 4655 863e 7086 72be
000001f0: 24b3 6c3e 21c7 bdbd 2045 9dbe cc65 b5bd
00000200: cb55 803e 6d18 a13e fb8b 41be 1580 053d
00000210: f759 ad3e 3405 7d3e 41cc ee3d 045e 0c3e
00000220: 41dd f63d f879 f83c 7603 efbe 59e1 e3be
00000230: 0a69 66bd 64ac 443d 9360 98be 397a 8e3d
00000240: 111f ed3c d315 123c 2d3d d8bd 8e2a 4f3d
00000250: b102 233e 70f7 a93e bfcd 64be e8a8 ae3e
00000260: 0ecc cebd 5d7c 443d 2f09 debe f04e 55be
00000270: 748f afbe 5c88 13be 8a07 6b3e 1b06 753d
00000280: e40a a1be 9889 3f3e fe59 c33d 575a b63e
00000290: f1cc 96be 615a ce3d d669 04be 2797 9c3d
000002a0: 5a5a f0be 9ec2 90be 102b 5abe 36a0 053e
000002b0: 5976 08bd 50c9 8a3d 8b5d 9a3e d3bf d43e
000002c0: 2a88 af3d b582 2dbd 85ed 68be 0462 a23e
000002d0: a815 e03d 01bf b63d f991 55be afb8 16be
000002e0: f5a1 bdbc 3b20 aa3e 4e00 3fbe 16f7 88be
000002f0: e770 e83d 5313 1abe f4bc 303e f651 41be
00000300: d7d2 c4bb d5d4 9dbd 3a48 9e3e 1951 b8be
00000310: 0fd9 4b3e c7e8 89bb 936b ae3e 535e e1be
00000320: 9044 463e 1025 9cbe bca4 a03e 7841 97be
00000330: 3017 bfbc 1034 a43d 9d03 4fbe 8084 153e
00000340: 0cea 3dbe bbfd 533e 61cc 2bbe e7a0 693e
00000350: e0c3 0dbf 9306 3c3e 9fd4 04bc b902 893e
00000360: 7290 233e e9f3 11be 64fb 19be b87d a23e
00000370: 109a bdbe 9f6c a13e 95a9 cdbe f7f8 40be
00000380: 6e17 313e aabe 8bbd 341d 88bd 6127 a83e
00000390: 3045 523e 5c9e d23e ddc5 50be 6a21 8dbe
000003a0: be0c 9c3e 75b1 1d3e 7655 89be 94e6 223d
000003b0: e076 a9be 41d4 7b3e 461a eebd 6bb1 d2be
000003c0: 7503 8ebe 7684 5dbd c357 183e 07d6 233d
000003d0: b490 a2be 07f7 e8bd d19a bfbe d3ab 82be
000003e0: 7e68 26be ff94 9a3e 58bd c03e 4b51 803d
000003f0: 38f3 a9bc 6315 083e bcf6 37be 533e aabe

conv1.bias f4 [32]
-0.26188594 0.06994376 -0.29959035 0.03266882 -0.14097197 -0.314852 -0.2516098 0.13818868
0.100769624 -0.2986081 -0.1329095 -0.031944096 0.050452314 -0.0018117065 0.096749455 -0.19406971
-0.0628847 0.08505249 -0.02955746 -0.42169023 -0.38299063 -0.55202675 0.11823236 -0.43087173
0.05775801 -0.01780088 -0.28432178 -0.18993506 0.12440058 -0.37398583 -0.21740566 0.09020039
00000000: ea15 86be ad3e 8f3d e863 99be becf 053d
00000010: f55a 10be 4834 a1be 00d3 80be 5581 0d3e
00000020: 4e60 ce3d 29e3 98be 6e19 08be d0d7 02bd
00000030: 16a7 4e3d c876 edba 9424 c63d 36ba 46be
00000040: b2c9 80bd 0030 ae3d 7d22 f2bc c8e7 d7be
00000050: 5917 c4be a051 0dbf cf23 f23d 389b dcbe
00000060: aa93 6c3d 27d3 91bc a092 91be 567e 42be
00000070: bbc5 fe3d 127b bfbe 979f 5ebe fbba b83d

conv2.weight f4 [32, 32, 2, 2]
-0.30145708 -0.06644297 -0.0687281 -0.07167602 -0.033280812 0.0250838 0.07485354 0.07524764
-0.044599637 0.05212215 -0.04645508 -0.08654974 -0.026848223 -0.13615462 0.07786354 -0.034860156
-0.034739938 0.0885278 -0.084864154 -0.1267698 -0.04208042 0.0013181276 -0.0131957615 0.0717383
-0.035391454 0.009107872 -0.07041746 -0.003115882 -0.432607 -0.39751035 -0.09172949 -0.41024846
0.068568766 0.08342032 0.18744662 0.26386482 0.12424327 -0.06705774 0.11162764 0.035595823
-0.106337525 0.024282616 0.043112155 -0.002213399 -0.07771007 -0.28792098 0.16248995 -0.099198036
0.013291581 -0.18823425 0.04582648 -0.19893162 0.15289032 0.013746564 0.032252207 -0.020644244
0.1434462 0.047231127 0.13228895 0.11707305 -0.05438813 0.24892198 -0.08382425 -0.08914877
0.0303855 -0.04653045 -0.18020679 0.02178862 0.005322158 -0.23645426 0.024842566 0.028892232
-0.0671232 0.06960064 -0.12846984 -0.08695415 -0.23652437 -0.33130622 0.04857983 -0.0762714
0.20802855 0.30776018 -0.40092337 -0.15412636 -0.12918559 -0.13309188 -0.04891276 -0.11821204
-0.054846525 0.02437813 -0.05761525 0.03504094 0.4619014 0.18114604 -0.1295692 -0.25348035
-0.29722285 0.04724152 0.035593573 -0.34607515 0.029884515 0.08342338 -0.20201463 -0.12898356
-0.024794055 0.1719138 0.014763052 -0.07516896 -0.0598627 0.038310945 -0.06638252 0.041699577
0.17805994 0.18917696 0.22696044 0.32175723 0.10407183 0.28852433 -0.35364473 -0.17802209
-0.14783387 0.109538935 -0.15628223 0.04418405 0.12733507 -0.0483507 0.12136782 0.07002159
-0.28735375 -0.10599866 -0.2082975 -0.21235618 -0.30735698 -0.1853268 -0.222295 -0.2597232
-0.20683128 -0.26718944 -0.27621236 -0.1719055 -0.095100544 -0.24055055 -0.32033995 -0.29216892
-0.2538762 -0.2578929 -0.27016866 -0.31039003 0.094056815 0.11540337 0.103933394 0.15652385
-0.17288035 -0.16504845 -0.124408886 -0.17108302 -0.24758714 -0.17354704 -0.49596542 -0.31309962
-0.41986087 -0.33976924 -0.3760682 -0.49410504 6.0029484e-05 -0.0069862828 -0.046628043 0.025981361
0.04472896 -0.06069061 -0.06794188 0.056459326 0.19789667 0.21650997 0.15606603 0.24753691
-0.34240603 -0.3558468 -0.48587665 -0.35847992 -0.19154443 -0.2474003 -0.083556354 -0.07690649
-0.17550708 -0.29959399 -0.12438141 -0.23201053 0.15950459 0.13686185 0.22164571 0.25994492
-0.3942194 -0.2004903 -0.19871478 -0.11796584 -0.22057971 -0.16638626 -0.24509694 -0.18367012
0.12019404 0.112096325 0.1436313 0.09868365 -0.12667927 -0.20640966 -0.094455585 -0.20310952
0.33186397 0.35176703 0.2893529 0.38436976 0.12599371 0.019152166 0.20229755 0.0054853605
-0.31703177 -0.30235803 -0.43297374 -0.29093635 -0.2932595 -0.35498795 -0.31314787 -0.32202056
-0.31161314 -0.2554383 -0.408366 -0.25470605 0.0944536 0.0050104195 -0.067036435 0.027153036
-0.16100067 -0.12664753 -0.15858771 -0.015112354 -0.06175178 -0.06348703 -0.009714226 -0.07411208
-0.15347514 -0.030743033 -0.050586134 -0.05035617 -0.01183474 0.0835379 -0.13830748 -0.05486775
0.07183804 -0.002357597 0.014969063 -0.053045824 -0.3812368 -0.29791838 -0.18669479 -0.2510342
00000000: 9558 9abe 4013 88bd 51c1 8cbd e1ca 92bd
00000010: 7651 08bd 8b7c cd3c d04c 993d 6f1b 9a3d
00000020: 1cae 36bd 097e 553d af47 3ebd fd40 b1bd
00000030: cef0 dbbc 1e6c 0bbe eb76 9f3d 86c9 0ebd
00000040: 774b 0ebd 104e b53d 42cd adbd f1cf 01be
00000050: 855c 2cbd 06c5 ac3a 0933 58bc 88eb 923d
00000060: a1f6 10bd 2f39 153c 0737 90bd d333 4cbb
00000070: aa7e ddbe 7a86 cbbe acdc bbbd 160c d2be
00000080: c86d 8c3d 46d8 aa3d 02f2 3f3e 4a19 873e
00000090: 4173 fe3d 9255 89bd 089d e43d edcc 113d
000000a0: 7dc7 d9bd 56ec c63c 5f96 303d ac0e 11bb
000000b0: 7526 9fbd 616a 93be c463 263e 5728 cbbd
000000c0: eec4 593c 7bc0 40be 8cb4 3b3d bbb4 4bbe
000000d0: 488f 1c3e 4539 613c e41a 043d 1e1e a9bc
000000e0: 90e3 123e 6d75 413d c176 073e ffc3 ef3d
000000f0: 16c6 5ebd 67e5 7e3e 0cac abbd a193 b6bd
00000100: 03eb f83c b796 3ebd 2188 38be 0c7e b23c
00000110: 7f65 ae3b 1121 72be a382 cb3c 67af ec3c
00000120: e377 89bd c88a 8e3d 998d 03be 0415 b2bd
00000130: 7233 72be f8a0 a9be a5fb 463d 2e34 9cbd
00000140: 7005 553e be92 9d3e d445 cdbe 4dd3 1dbe
00000150: 3a49 04be 3d49 08be bf58 48bd 2719 f2bd
00000160: c0a6 60bd a5b4 c73c f8fd 6bbd 1787 0f3d
00000170: 577e ec3e 597e 393e caad 04be 2dc8 81be
00000180: 982d 98be 5380 413d 91ca 113d c330 b1be
00000190: 5fd0 f43c e1d9 aa3d ecdc 4ebe 4414 04be
000001a0: e71c cbbc 2c0a 303e bae0 713c 2ff2 99bd
000001b0: 9732 75bd f0eb 1c3d 8ff3 87bd 2dcd 2a3d
000001c0: 5855 363e 9bb7 413e 5168 683e 5dbd a43e
000001d0: 9d23 d53d 76b9 933e ec10 b5be 6c4b 36be
000001e0: c361 17be f355 e03d 7308 20be 56fa 343d
000001f0: 2064 023e 620b 46bd b18f f83d 7b67 8f3d
00000200: 0820 93be d315 d9bd f14b 55be e673 59be
00000210: e55d 9dbe 4fc6 3dbe 4da1 63be 70fa 84be
00000220: 94cb 53be 0ecd 88be b56b 8dbe ff07 30be
00000230: 13c4 c2bd e252 76be 9903 a4be 2a97 95be
00000240: 10fc 81be 8a0a 84be 8c53 8abe 71eb 9ebe
00000250: dca0 c03d 9a58 ec3d 08db d43d ca47 203e
00000260: 8c07 31be 7602 29be 16ca febd 6330 2fbe
00000270: 7c87 7dbe 51b6 31be 2eef fdbe 984e a0be
00000280: 01f8 d6be 3cf6 adbe 038c c0be 56fb fcbe
00000290: 2bc8 7b38 30ed e4bb 0cfd 3ebd ddd6 d43c
000002a0: b735 373d b896 78bd 1d25 8bbd e541 673d
000002b0: 6da5 4a3e cab4 5d3e c6cf 1f3e 517a 7d3e
000002c0: d84f afbe 8d31 b6be d3c4 f8be ae8a b7be
000002d0: 3924 44be 8156 7dbe 981f abbd 2681 9dbd
000002e0: 21b8 33be 6264 99be aebb febd 2b94 6dbe
000002f0: 2c55 233e 8325 0c3e 18f7 623e 8017 853e
00000300: 20d7 c9be 544d 4dbe e37b 4bbe 1398 f1bd
00000310: a6df 61be 2961 2abe b1fa 7abe 0514 3cbe
00000320: 4b28 f63d c292 e53d 1514 133e a71a ca3d
00000330: 36b8 01be 0e5d 53be ee71 c1bd f1fb 4fbe
00000340: 13ea a93e cf1a b43e 1026 943e 1dcc c43e
00000350: 7f04 013e 01e5 9c3c 1727 4f3e 8abe b33b
00000360: fd51 a2be acce 9abe bcae ddbe 9cf5 94be
00000370: 1c26 96be fbc0 b5be eb54 a0be e1df a4be
00000380: c28b 9fbe cfc8 82be 5915 d1be d568 82be
00000390: e470 c13d 722e a43b 664a 89bd 0b70 de3c
000003a0: 5cdd 24be e4af 01be d164 22be cf99 77bc
000003b0: 6fef 7cbd 7d05 82bd 6b28 1fbc 13c8 97bd
000003c0: 9628 1dbe d0d8 fbbc 6833 4fbd 4542 4ebd
000003d0: 7fe6 41bc eb15 ab3d 7aa0 0dbe 01bd 60bd
000003e0: d31f 933d ea81 1abb cd40 753c 9446 59bd
000003f0: 7831 c3be c288 98be eb2c 3fbe 8e87 80be

conv2.bias f4 [32]
0.1104478 -0.091207415 -0.10620877 -0.119667366 0.061513994 -0.09038321 -0.14534537 0.15500437
-0.061271142 0.11585979 -0.11596016 0.1714211 0.022457346 -0.05396078 -0.4079618 -0.1149933
0.012965503 0.028312346 0.08526263 0.12410415 0.018067949 -0.21041523 0.06165341 0.1768241
-0.0632392 0.20536791 -0.046039715 -0.12504102 0.019486744 0.1899234 0.2950931 -0.12314367
00000000: 7532 e23d f4ca babd fc83 d9bd 2a14 f5bd
00000010: 19f6 7b3d d51a b9bd 6bd5 14be 77b9 1e3e
00000020: 73f7 7abd e647 ed3d 857c edbd 0389 2f3e
00000030: 78f8 b73c fb05 5dbd 5ee0 d0be 9b81 ebbd
00000040: 436d 543c 4bef e73c 2c9e ae3d 512a fe3d
00000050: 3c03 943c 1777 57be 4988 7c3d 6011 353e
00000060: 8e83 81bd f74b 523e 2494 3cbd c10a 00be
00000070: aaa2 9f3c 487b 423e 7116 973e c032 fcbd

conv3.weight f4 [64, 32, 2, 2]
-0.10704939 0.09678299 -0.0019442216 0.28417578 -0.013113856 -0.15329349 0.117468916 -0.18994571
0.059657857 0.0732221 0.090541326 0.030058619 0.05516064 -0.05884946 0.014268643 0.023304876
-0.38355514 -0.29758826 -0.084942326 -0.08686201 -0.071721755 0.0482938 -0.0583845 0.04123001
0.029881464 -0.03259451 -0.046439733 -0.06557164 -0.17401166 -0.28145233 -0.32850766 -0.31827483
-0.028951067 -0.09234055 0.026125025 -0.025187235 0.1546144 -0.15419294 0.1740741 -0.3028383
0.030843055 0.1648347 0.13233724 0.12192331 0.050044395 0.05930481 0.07239913 0.008453742
0.028927926 -0.28122696 0.31543398 -0.018337358 0.027056009 0.0050987834 -0.021301039 -0.35657194
-0.16881719 -0.19824217 0.024455922 -0.2395989 0.11429968 0.076116815 0.058635883 0.049263272
0.04707665 0.005549144 0.087463364 0.00055133953 0.05076985 0.03614167 -0.08491993 -0.06913843
0.094184145 0.055052824 -0.24450563 0.053690538 0.25391927 0.037937872 0.018188976 0.099648505
-0.23471712 0.009988417 0.013880814 0.0870216 0.19583774 0.15498585 -0.04043014 0.099057384
-0.16476649 -0.02088528 -0.16053861 0.00540714 -0.48858213 -0.17940876 0.33700264 0.2428581
0.18667021 -0.21468143 0.31433803 -0.20979403 0.22301073 -0.19525005 -0.016631123 -0.19852224
-0.025587302 -0.20118092 -0.24619682 -0.03615056 0.06716719 0.012745498 -0.079393454 -0.010751064
0.17655572 0.10567084 0.12662193 0.058235668 0.25933233 -0.1025269 0.12477581 -0.09484065
0.10777828 0.11571139 0.094225444 0.11563589 0.010108359 0.016236404 0.1057284 -0.04419579
-0.1477228 -0.34036672 0.11601305 0.09543236 0.22308205 0.067168996 0.10523001 0.1393359
0.037951894 0.002729123 -0.10473322 -0.08102397 -0.060905565 -0.09891285 0.03639583 0.05983155
-0.15709266 -0.15904802 -0.20005788 -0.089467205 -0.007380301 -0.02563022 -0.025537461 0.06001095
-0.01475258 0.025620101 0.05798407 0.036786813 -0.03262592 -0.2202414 -0.05772943 -0.22590932
-0.008587695 0.013878811 -0.014573884 -0.018927868 0.064540066 0.11805614 -0.17705598 -0.19689254
-0.12785594 -0.020047164 -0.21329615 -0.13540873 -0.008376998 -0.3386069 0.24389867 -0.08689839
0.24914147 0.22294578 -0.014558816 -0.19018856 0.067743964 -0.02107544 0.051142193 0.015167307
-0.1585884 0.124190725 -0.46079442 -0.18553463 -0.030785486 0.07717635 -0.038239058 0.02102909
0.054162256 -0.083398394 -0.082640335 0.0044171223 -0.016004778 -0.06944313 -0.076618776 0.08034685
0.009498321 0.0011025962 -0.30631897 -0.13470897 -0.099478975 0.012638647 -0.31507808 -0.0982795
-0.33370855 -0.038632657 -0.23969151 -0.39510036 -0.055412583 -0.022940414 0.02364467 0.1289879
0.016119506 0.025435306 0.09727106 0.12680466 -0.149266 -0.14529 0.23111953 0.14928548
0.18790358 0.18482405 -0.117422454 -0.107837655 0.18573722 0.085785724 -0.10772972 -0.09988204
-0.36454502 -0.53902 -0.07811238 -0.34918284 0.017388474 -0.075360045 0.037650168 0.082027785
0.017594218 0.045501858 -0.19054475 -0.020339468 0.045751154 0.15786108 -0.13690323 0.067165375
0.07098515 0.044462256 -0.00018602892 -0.40444344 -0.054241188 0.031608474 -0.05865214 0.006087274
00000000: b63c dbbd 2936 c63d 40d5 feba 7d7f 913e
00000010: 80db 56bc f8f8 1cbe 8b93 f03d 2181 42be
00000020: cc5b 743d 78f5 953d bb6d b93d 7e3d f63c
00000030: 20f0 613d 220c 71bd 07c7 693c dee9 be3c
00000040: 5761 c4be 7d5d 98be 3ef6 adbd b6e4 b1bd
00000050: dbe2 92bd b8cf 453d 9624 6fbd cde0 283d
00000060: f9c9 f43c d281 05bd 9737 3ebd 6d4a 86bd
00000070: 1d30 32be 851a 90be 2832 a8be ebf4 a2be
00000080: ca2a edbc 0b1d bdbd 2604 d63c 7655 cebc
00000090: 3d53 1e3e c1e4 1dbe 7b40 323e 9f0d 9bbe
000000a0: 93aa fc3c 6dca 283e 6a83 073e eeb2 f93d
000000b0: 5afb 4c3d 9ae9 723d ff45 943d 9081 0a3c
000000c0: 42fa ec3c fbfc 8fbe 9080 a13e 3a38 96bc
000000d0: 90a4 dd3c b213 a73b 847f aebc 9990 b6be
000000e0: 6ade 2cbe ffff 4abe c957 c83c 6a59 75be
000000f0: f315 ea3d 22e3 9b3d 2e2c 703d 49c8 493d
00000100: 72d3 403d 98d5 b53b fe1f b33d c587 103a
00000110: 0cf4 4f3d 4a09 143d 80ea adbd 7398 8dbd
00000120: 9ee3 c03d 127f 613d af5f 7abe 9cea 5b3d
00000130: b501 823e be64 1b3d 0c01 953c 8414 cc3d
00000140: af59 70be 75a6 233c 5b6c 633c 6138 b23d
00000150: b089 483e 9cb4 1e3e 139a 25bd 99de ca3d
00000160: 8cb8 28be 9b17 abbc 3c64 24be 612e b13b
00000170: 7027 fabe eeb6 37be 9c8b ac3e cbaf 783e
00000180: 7a26 3f3e 73d5 5bbe eaf0 a03e 3fd4 56be
00000190: ed5c 643e a1ef 47be fe3d 88bc 6a49 4bbe
000001a0: 769c d1bc 5f02 4ebe 051b 7cbe 9c12 14bd
000001b0: f48e 893d 7ed2 503c 0999 a2bd 3b25 30bc
000001c0: 06cb 343e f469 d83d 2ea9 013e 8688 6e3d
000001d0: 35c7 843e a0f9 d1bd 768a ff3d d13b c2bd
000001e0: dcba dc3d 18fa ec3d 45f9 c03d 82d2 ec3d
000001f0: 889d 253c 3502 853c 2288 d83d a506 35bd
00000200: a544 17be 8c44 aebe 4098 ed3d 0b72 c33d
00000210: 9f6f 643e e68f 893d d582 d73d 12ae 0e3e
00000220: 7273 1b3d 16db 323b 5f7e d6bd e5ef a5bd
00000230: 1d78 79bd d292 cabd cb13 153d ed11 753d
00000240: e6dc 20be 7cdd 22be f9db 4cbe 953a b7bd
00000250: 74d6 f1bb 78f6 d1bc f033 d1bc 0bce 753d
00000260: ceb4 71bc 3fe1 d13c b480 6d3d c5ad 163d
00000270: c2a2 05bd f686 61be b275 6cbd c654 67be
00000280: 67b3 0cbc f463 633c 4dc7 6ebc 9e0e 9bbc
00000290: 952d 843d 6bc7 f13d 2a4e 35be 339e 49be
000002a0: abec 02be f339 a4bc 4e6a 5abe 96a8 0abe
000002b0: ad3f 09bc e25d adbe 93c0 793e c8f7 b1bd
000002c0: f11e 7f3e e64b 643e 1a88 6ebc cac0 42be
000002d0: 59bd 8a3d 67a6 acbc 7a7a 513d 4c80 783c
000002e0: ff64 22be b557 fe3d 3fed ebbe cafc 3dbe
000002f0: d831 fcbc a20e 9e3d 8fa0 1cbd 3345 ac3c
00000300: 3ed9 5d3d c7cc aabd 563f a9bd 82bd 903b
00000310: 741c 83bc 3338 8ebd 4eea 9cbd e48c a43d
00000320: d99e 1b3c fd84 903a d7d5 9cbe 26f1 09be
00000330: a2bb cbbd 5412 4f3c ea51 a1be c346 c9bd
00000340: d9db aabe 473d 1ebd b171 75be 984a cabe
00000350: 4ef8 62bd 89ed bbbc 78b2 c13c 6715 043e
00000360: 0e0d 843c b45d d03c 0d36 c73d 15d9 013e
00000370: 30d9 18be e7c6 14be 99aa 6c3e 4bde 183e
00000380: cc69 403e 8442 3d3e 2f7b f0bd fdd9 dcbd
00000390: e631 3e3e 6db0 af3d 66a1 dcbd f48e ccbd
000003a0: a5a5 babe 37fd 09bf 62f9 9fbd 18c8 b2be
000003b0: 4672 8e3c 5e56 9abd 1037 1a3d 2ffe a73d
000003c0: c021 903c 2860 3a3d 2a1e 43be f59e a6bc
000003d0: 9065 3b3d 56a6 213e 5c30 0cbe 008e 893d
000003e0: aa60 913d 0e1e 363d c210 43b9 3613 cfbe
000003f0: 022c 5ebd e377 013d 3a3d 70bd c177 c73b

conv3.bias f4 [64]
0.020177169 0.27337563 0.08735256 -0.2883679 0.09956098 -0.06866896 0.095327005 -0.20052668
0.12947166 0.13769569 -0.18550135 -0.13950826 0.05781878 -0.077502355 0.13471073 0.18383676
-0.02021421 0.03426861 0.021859579 0.025057133 0.15802279 0.002505426 -0.36355245 -0.14011382
0.0131042125 -0.074465096 0.28664413 0.11519255 0.23367055 0.11639001 0.11381802 0.24202399
-0.0012424339 0.21831457 -0.060900502 -0.16633594 -0.038176212 0.2599686 -0.120160915 -0.03054811
0.11906579 0.08907206 0.023673872 -0.16641876 0.040192377 -0.03941249 0.0662076 0.025954705
-0.06020634 -0.039936412 0.07047306 -0.06343611 0.12481713 -0.2249019 0.105702356 -0.0015751182
-0.10535049 0.041231304 -0.12711564 -0.20040765 0.044571854 0.07051176 -0.110850155 -0.056110844
00000000: 974a a53c e4f7 8b3e e6e5 b23d f5a4 93be
00000010: a1e6 cb3d 50a2 8cbd ce3a c33d de56 4dbe
00000020: 3894 043e 1900 0d3e 11f4 3dbe 41db 0ebe
00000030: 63d3 6c3d 8eb9 9ebd 9cf1 093e b43f 3c3e
00000040: 4598 a5bc 3e5d 0c3d dc12 b33c 9e44 cd3c
00000050: bad0 213e 1332 243b 8c23 babe ff79 0fbe
00000060: 0db3 563c 2881 98bd 05c3 923e 12ea eb3d
00000070: 5547 6f3e e35d ee3d 6c19 e93d 23d5 773e
00000080: 2ad9 a2ba db8d 5f3e ce72 79bd f853 2abe
00000090: a95e 1cbd 9b1a 853e ed16 f6bd 0840 fabc
000000a0: c4d8 f33d 6a6b b63d b5ef c13c ae69 2abe
000000b0: c3a0 243d fe6e 21bd da97 873d f69e d43c
000000c0: ec9a 76bd 5d94 23bd 2e54 903d cbea 81bd
000000d0: 20a0 ff3d af4c 66be 7a7a d83d 3274 ceba
000000e0: ffc1 d7bd 28e2 283d 9a2a 02be aa37 4dbe
000000f0: fa90 363d 7868 903d 6805 e3bd 7cd4 65bd

conv4.weight f4 [64, 64, 2, 2]
0.049652413 -0.15746169 0.027811999 -0.24198152 -0.098627456 0.14548211 -0.24567863 0.07384058
-0.40538344 0.14978617 -0.29521063 0.09800017 -0.24168786 -0.11141601 -0.09536007 -0.21597965
-0.08143981 -0.031760793 0.11100377 -0.27908394 0.04718069 -0.24597566 0.07255916 0.07960743
-0.06269705 -0.33951774 0.06243085 -0.0978817 -0.09428393 0.0027042755 0.18973975 0.019728547
0.24370134 -0.19115995 0.21987952 -0.04883703 -0.17551532 -0.14836283 0.06246189 -0.1870396
-0.12347983 0.06254415 -0.14490943 -0.0913948 -0.30790544 -0.03643725 -0.17969035 -0.21838057
-0.3537486 -0.08068217 0.11068099 -0.14578272 0.12550226 -0.11296194 0.19720134 -0.19158836
0.22158611 -0.041915372 0.33962092 0.28631172 -0.007229922 -0.22476296 0.18450446 0.06611516
0.0022034808 -0.012393295 -0.33056682 0.06622511 -0.24257977 0.041630566 -0.27372694 -0.17013565
0.07567347 -0.10941928 0.09062317 0.13741675 -0.1477264 0.033679835 -0.19264452 -0.043143403
-0.21241206 -0.019991027 -0.19106972 0.002325413 -0.28747493 0.37313917 -0.35408774 -0.048458852
0.059783537 -0.06475578 -0.094566725 -0.036333703 -0.027955234 0.042950787 0.034015637 0.084612645
-0.3278295 -0.017973488 -0.30728054 0.19871627 -0.04787569 0.16960044 -0.18790433 0.082418494
-0.037759975 -0.2209883 0.1424548 -0.266127 -0.301453 -0.3958333 -0.12108995 -0.28758353
-0.039836988 -0.35107094 -0.0002452727 -0.08318522 0.069282405 -0.15241726 -0.13532142 -0.25343204
-0.0077748275 0.2189048 -0.008499693 -0.1694026 -0.11266883 0.13140745 -0.17307717 0.08225154
0.020934723 -0.10119845 -0.06501069 -0.23935795 9.117611e-05 -0.3155075 0.07855308 0.13860182
0.09120375 -0.08349516 -0.1635812 0.058017902 -0.11822307 0.09603495 -0.10830866 0.015162157
-0.042160325 0.013602893 0.10207558 0.23117933 0.119272694 0.18358846 0.18784748 0.18271999
-0.25109982 0.03227804 -0.37150338 -0.37154552 -0.19129263 0.19740763 -0.28157607 -0.049991168
-0.1648075 0.2002222 -0.18424597 0.25780466 -0.12062914 0.11454547 -0.13735594 0.027032603
-0.07805831 -0.16373281 -0.1454983 -0.043236166 -0.062022813 -0.04994573 -0.033401646 0.0019466849
0.071629055 0.08135698 -0.02847155 0.39700034 -0.22042349 -0.039739005 -0.099762686 0.101385444
0.018384557 -0.24772474 0.20471787 -0.3069626 0.02239368 -0.4098885 0.20022261 -0.041665945
-0.2829612 0.16051039 -0.32972103 0.016028868 0.14449152 -0.1638612 0.34474897 -0.0709574
0.11781089 -0.13948284 0.37560588 0.0066365814 -0.08458248 0.06935919 0.034837198 0.069431156
0.08751823 -0.041982204 0.16934144 0.117716946 0.06516083 -0.32048348 0.15835766 -0.22991435
0.25920552 -0.15054366 0.004752956 0.2058581 -0.35208362 -0.0071112406 -0.0086759385 -0.062226765
0.08223476 0.25169426 -0.11857996 0.41672555 -0.23743698 0.07183303 -0.21235189 -0.17558022
-0.10848491 0.16997941 0.07807631 -0.23451282 -0.094780676 -0.0970034 0.011188057 0.008777248
0.087336645 -0.26508132 0.28659293 -0.20129313 0.015205879 -0.3913589 0.1612712 -0.005740461
-0.10894946 0.14721885 -0.01831916 0.057298183 0.049452554 0.13583185 -0.1397734 0.20736016
00000000: 5460 4b3d a33d 21be fdd5 e33c 01ca 77be
00000010: 31fd c9bd 43f9 143e 2e93 7bbe bb39 973d
00000020: 6b8e cfbe 8c61 193e d925 97be 50b4 c83d
00000030: 067d 77be 142e e4bd 244c c3bd c529 5dbe
00000040: eac9 a6bd 9b17 02bd f255 e33d 17e4 8ebe
00000050: 8a40 413d 0be1 7bbe e699 943d 3809 a33d
00000060: 5067 80bd 45d5 adbe 7eb7 7f3d 3376 c8bd
00000070: ef17 c1bd 373a 313b 234b 423e c39d a13c
00000080: d88c 793e 6fbf 43be 1928 613e 5609 48bd
00000090: 4aba 33be 6dec 17be 0ad8 7f3d 4f87 3fbe
000000a0: fee2 fcbd 2617 803d 2363 14be 322d bbbd
000000b0: c8a5 9dbe 3a3f 15bd bf00 38be 289f 5fbe
000000c0: 891e b5be b23c a5bd b7ac e23d 1148 15be
000000d0: aa83 003e 9758 e7bd 26ef 493e bd2f 44be
000000e0: 78e7 623e 74af 2bbd cbe2 ad3e 7397 923e
000000f0: fbe8 ecbb 4328 66be bdee 3c3e 6367 873d
00000100: 4668 103b 3f0d 4bbc 0e40 a9be 08a1 873d
00000110: d566 78be d084 2a3d f025 8cbe 0a38 2ebe
00000120: b1fa 9a3d 3717 e0bd a498 b93d fab6 0c3e
00000130: 9745 17be def3 093d 9b44 45be 23b7 30bd
00000140: 8c82 59be 39c4 a3bc c8a7 43be f565 183b
00000150: ea2f 93be 190c bf3e fd4a b5be ca7c 46bd
00000160: 95df 743d ae9e 84bd 33ac c1bd a6d2 14bd
00000170: 6002 e5bc 2aed 2f3d fb53 0b3d 6549 ad3d
00000180: 45d9 a7be 233d 93bc e053 9dbe 477c 4b3e
00000190: 4d19 44bd bdab 2d3e fe69 40be 07cb a83d
000001a0: 34aa 1abd c24a 62be acdf 113e cc41 88be
000001b0: 0c58 9abe aaaa cabe 02fe f7bd 263e 93be
000001c0: 1c2c 23bd 92bf b3be f297 80b9 035d aabd
000001d0: efe3 8d3d 4513 1cbe b391 0abe d8c1 81be
000001e0: fbc3 febb 9428 603e 4c42 0bbc e077 2dbe
000001f0: eabe e6bd ad8f 063e 243b 31be 7f73 a83d
00000200: 4c7f ab3c 2241 cfbd 5324 85bd 401a 75be
00000210: cd35 bf38 338a a1be 70e0 a03d a3ed 0d3e
00000220: 08c9 ba3d 83ff aabd d581 27be 2ea4 6d3d
00000230: f01e f2bd f9ad c43d eed0 ddbd b26a 783c
00000240: 4eb0 2cbd abde 5e3c 000d d13d 46ba 6c3e
00000250: 3e45 f43d 9dfe 3b3e 175b 403e f31a 3b3e
00000260: 2890 80be fa35 043d b135 bebe 373b bebe
00000270: 37e2 43be 3a25 4a3e bd2a 90be 8ac3 4cbd
00000280: 4cc3 28be 0c07 4d3e faaa 3cbe f9fe 833e
00000290: 690c f7bd d196 ea3d 09a7 0cbe 7a73 dd3c
000002a0: 09dd 9fbd 93a9 27be 82fd 14be 6818 31bd
000002b0: a20b 7ebd e593 4cbd 2ad0 08bd e827 ff3a
000002c0: 41b2 923d 7d9e a63d 2b3d e9bc a143 cb3e
000002d0: b2b6 61be 5ec5 22bd 6150 ccbd 2ca3 cf3d
000002e0: 369b 963c 8eab 7dbe 90a1 513e 342a 9dbe
000002f0: f372 b73c e8dc d1be 2807 4d3e e9a9 2abd
00000300: 4ae0 90be d65c 243e 32d1 a8be f94e 833c
00000310: 96f5 133e 3bcb 27be f082 b03e 1d52 91bd
00000320: d646 f13d 97d4 0ebe 6a4f c03e ae77 d93b
00000330: 9439 adbd 310c 8e3d 73b1 0e3d ec31 8e3d
00000340: c23c b33d 88f5 2bbd d867 2d3e 9515 f13d
00000350: 0b73 853d 6916 a4be 8328 223e ab6e 6bbe
00000360: 96b6 843e 1e28 1abe afbe 9b3b 77cc 523e
00000370: 4e44 b4be 6905 e9bb 8625 0ebc 7ee1 7ebd
00000380: b36a a83d 12de 803e 0dda f2bd 0d5d d53e
00000390: ae22 73be 321d 933d c672 59be 4dcb 33be
000003a0: 562d debd 150f 2e3e 79e6 9f3d 2124 70be
000003b0: 5f1c c2bd b8a9 c6bd 1d4e 373c 72ce 0f3c
000003c0: 8edd b23d bdb8 87be 4fbc 923e c91f 4ebe
000003d0: 1422 793c 3260 c8be 4724 253e 7a1a bcbb
000003e0: e520 dfbd 8ac0 163e 1012 96bc 80b1 6a3d
000003f0: c38e 4a3d 8117 0b3e c220 0fbe 3956 543e

conv4.bias f4 [64]
-0.07139989 -0.054140482 0.05096221 -0.10206627 0.06050234 0.0793277 0.021489395 -0.07107611
-0.11386811 0.18218556 -0.09704897 -0.024843264 0.09688464 0.2372655 0.1115496 0.12194244
0.010142272 -0.10908149 0.09454954 0.059068803 0.26066443 0.09334548 -0.23868448 -0.039062604
-0.09143971 0.18402673 -0.056150362 0.23428853 0.0629444 0.036799356 -0.091132574 0.082679644
0.17070647 0.10819512 -0.045511775 -0.1374693 -0.029197814 -0.16994749 -0.19943744 -0.1965513
0.07702283 -0.21484998 0.03181565 0.059872612 0.0759155 -0.07616149 0.07258293 -0.14549495
0.14689916 -0.15005808 -0.09501727 -0.047872234 0.10818426 0.22765246 0.18896021 -0.10358244
-0.0005917726 0.03823068 -0.016754065 -0.0989716 0.09341414 0.115516596 -0.074205786 -0.0719943
00000000: 1b3a 92bd 69c2 5dbd c0bd 503d 1f08 d1bd
00000010: 4dd1 773d 9076 a23d 870a b03c 5a90 91bd
00000020: af33 e9bd da8e 3a3e 9cc1 c6bd 1a84 cbbc
00000030: 746b c63d baf5 723e 1e74 e43d f5bc f93d
00000040: c62b 263c 1e66 dfbd 30a3 c13d 21f2 713d
00000050: cf75 853e ea2b bf3d b469 74be 1c00 20bd
00000060: be44 bbbd 8171 3c3e ecfd 65bd 55e9 6f3e
00000070: fee8 803d ecba 163d b7a3 babd f253 a93d
00000080: adcd 2e3e 6795 dd3d 8e6a 3abd c1c4 0cbe
00000090: 4130 efbc b706 2ebe 5439 4cbe be44 49be
000000a0: 25be 9d3d a201 5cbe 2151 023d fc3c 753d
000000b0: 9679 9b3d 8efa 9bbd 5ca6 943d a1fc 14be
000000c0: bc6c 163e d3a8 19be 6a98 c2bd ad15 44bd
000000d0: b68f dd3d ba1d 693e c97e 413e 0823 d4bd
000000e0: 3021 1bba c697 1c3d d23f 89bc 9fb1 cabd
000000f0: ea4f bf3d f793 ec3d 34f9 97bd bf71 93bd

conv5.weight f4 [128, 64, 2, 2]
-0.07834124 -0.16704878 -0.3083507 -0.22534402 0.020847756 -0.05123222 0.026554182 -0.084565185
0.19542654 0.010811313 0.2599907 -0.11002462 -0.1542414 0.07338234 -0.30409 -0.2612407
-0.33678204 -0.32160634 -0.26756018 -0.21181281 -0.21949886 0.10888342 -0.104081824 -0.028418396
-0.07714144 -0.015059556 0.08440137 0.2065141 -0.28489062 -0.26111138 0.0439354 -0.07786104
0.013011226 -0.27173942 0.058430385 -0.029442064 0.04954473 -0.0037557336 0.21661699 -0.25453207
-0.33956224 -0.11556381 0.06712898 0.13737439 -0.41555735 -0.017796837 0.07730749 0.19573568
-0.057679534 -0.56127673 -0.08142591 -0.26773238 -0.27753094 -0.13282818 -0.28564698 0.009154505
-0.12683587 -0.23966432 -0.35934836 0.1848681 -0.2813502 0.004468729 0.09464023 -0.071492866
0.19719237 0.07081955 -0.59300625 -0.013541898 -0.0030755335 0.013189336 0.014591348 0.03488925
-0.08127862 0.038568214 -0.2292822 -0.09620759 0.09321565 -0.10886043 0.1132972 0.23415588
0.0907474 0.00077015586 0.05800888 0.13984552 0.06711498 -0.117863774 -0.010396594 0.16550407
-0.32684132 0.056231376 -0.063736364 0.30210605 -0.24581082 -0.13598272 0.13063735 -0.017864494
-0.072994895 -0.0319835 -0.075987674 -0.08296072 -0.14543207 -0.10468575 0.1420779 0.16462743
-0.06706749 -0.05661157 0.12283795 -0.3936484 0.38803202 -0.11730122 0.21447709 0.084901996
0.090786695 -0.047179934 0.53673357 0.038392793 0.18929785 0.12769479 0.29071677 0.26054808
-0.05929465 -0.0040441966 -0.005014252 -0.049223553 0.18764856 -0.0228508 0.28331745 -0.24696311
-0.043803982 -0.19499582 -0.16623972 -0.14292797 -0.2614805 -0.012198843 -0.16477448 -0.20625046
0.15910944 0.22825788 0.05742796 0.1301369 -0.27161437 0.13957737 -0.29826483 0.18356599
0.059012614 0.102028035 0.067577966 -0.16432112 -0.19441268 -0.24277192 -0.15280354 0.25867411
-0.07509459 0.14120296 -0.17467877 -0.17369317 -0.1475864 -0.028941134 -0.2339828 -0.27160108
-0.19335687 -0.328319 0.13393152 0.05418288 -0.18920289 -0.14882651 -0.14691998 -0.17816068
0.109960206 -0.06055358 -0.29717955 -0.26892832 0.088920325 -0.15859826 0.082966514 0.29461238
-0.027534546 -0.25527605 0.033153176 -0.1709651 0.14184979 0.13490891 -0.22503917 -0.075516544
-0.31402245 -0.0666145 -0.5314328 -0.30989176 -0.02369569 -0.21196096 -0.22488113 -0.39017943
-0.05904977 0.041574314 -0.17462476 -0.1551849 0.1864244 -0.5777379 -0.13703774 -0.40525237
-0.21107614 0.15666895 -0.05064161 -0.11296713 0.09754998 0.02932161 0.24002127 -0.3165569
0.012319726 -0.047617555 -0.13673535 -0.0802621 0.3245113 0.3235526 -0.04225477 -0.11602811
0.19931671 -0.20990133 -0.0063162823 -0.055793226 -0.08494893 -0.2825192 0.27066237 -0.42868188
0.11241377 -0.05667483 0.10792538 0.009690496 0.020808453 0.01100688 -0.26758817 -0.09598068
0.11911901 0.35315952 -0.17378281 0.27331746 -0.35458565 -0.03728529 -0.18024632 0.0830513
-0.015716478 0.10159542 0.14705117 0.58613485 -0.4631366 -0.025902594 -0.060714 -0.2018601
0.14737739 0.023655344 0.1579806 -0.14584915 -0.055876218 -0.014122362 0.00091926067 0.014769806
00000000: 5f71 a0bd d60e 2bbe 25e0 9dbe 95c0 66be
00000010: eac8 aa3c e0d8 51bd 2888 d93c 8330 adbd
00000020: e51d 483e ef21 313c 801d 853e 9754 e1bd
00000030: 75f1 1dbe 7b49 963d afb1 9bbe 57c1 85be
00000040: b26e acbe 96a9 a4be a6fd 88be 75e5 58be
00000050: 4fc4 60be 45fe de3d da28 d5bd b2cd e8bc
00000060: 55fc 9dbd 5bbc 76bc a0da ac3d 6f78 533e
00000070: 2fdd 91be 64b0 85be 9bf5 333d 9c75 9fbd
00000080: 0a2d 553c 6e21 8bbe b354 6f3d 7c30 f1bc
00000090: 6aef 4a3d c122 76bb d8d0 5d3e 0752 82be
000000a0: 1adb adbe b8ac ecbd eb7a 893d dfab 0c3e
000000b0: efc3 d4be acca 91bc 6453 9e3d ef6e 483e
000000c0: 6041 6cbd d5af 0fbf a1c2 a6bd 3814 89be
000000d0: 8918 8ebe 1c04 08be 5240 92be c7fc 153c
000000e0: 43e1 01be 906a 75be 82fc b7be 104e 3d3e
000000f0: 220d 90be 6a6e 923b bdd2 c13d da6a 92bd
00000100: ccec 493e d709 913d 42cf 17bf d6de 5dbc
00000110: e48e 49bb 1618 583c 8d10 6f3c 08e8 0e3d
00000120: 6875 a6bd b4f9 1d3d f4c8 6abe 7c08 c5bd
00000130: d9e7 be3d 38f2 debd 5d08 e83d 8fc6 6f3e
00000140: c6d9 b93d 49e4 493a b89a 6d3d aa33 0f3e
00000150: 9473 893d 9062 f1bd 7a56 2abc e679 293e
00000160: bf57 a7be df52 663d 3688 82bd a5ad 9a3e
00000170: d5b5 7bbe 0e3f 0bbe ccc5 053e 8f58 92bc
00000180: 597e 95bd 2101 03bd 6d9f 9bbd 4fe7 a9bd
00000190: 25ec 14be 7c65 d6bd de7c 113e 1894 283e
000001a0: ae5a 89bd 89e1 67bd 7792 fb3d 488c c9be
000001b0: 22ac c63e 9f3b f0bd e29f 5b3e 19e1 ad3d
000001c0: 60ee b93d bf3f 41bd 5f67 093f c341 1d3d
000001d0: 4cd7 413e 6cc2 023e d4d8 943e 8f66 853e
000001e0: f2de 72bd 2e85 84bb 984e a4bb a39e 49bd
000001f0: f226 403e 9a31 bbbc fc0e 913e e6e3 7cbe
00000200: ce6b 33bd fcac 47be bf3a 2abe b65b 12be
00000210: c6e0 85be a8dd 47bc a4ba 28be 5233 53be
00000220: 96ed 223e 6fbc 693e 9539 6b3d 9c42 053e
00000230: 0a11 8bbe 5fed 0e3e 2bb6 98be b9f8 3b3e
00000240: 36b7 713d 13f4 d03d 5166 8a3d cc43 28be
00000250: 1e14 47be 3499 78be 8878 1cbe ef70 843e
00000260: 31cb 99bd 8297 103e fede 32be 9fdc 31be
00000270: e420 17be f515 edbc 3099 6fbe 4c0f 8bbe
00000280: 58ff 45be 6e19 a8be 5825 093e deee 5d3d
00000290: 67be 41be fa65 18be 3172 16be c16f 36be
000002a0: d132 e13d 0807 78bd eb27 98be f9b0 89be
000002b0: dc1b b63d 9567 22be 59ea a93d 6fd7 963e
000002c0: 2190 e1bc 8bb3 82be a0cb 073d 7a11 2fbe
000002d0: 1241 113e 9025 0a3e ab70 66be 6ba8 9abd
000002e0: 8dc7 a0be 2f6d 88bd fb0b 08bf 22aa 9ebe
000002f0: 771d c2bc 4b0c 59be 3d47 66be 99c5 c7be
00000300: 2cde 71bd d449 2a3d d5d0 32be cae8 1ebe
00000310: 0ae6 3e3e a2e6 13bf 9f53 0cbe 3d7d cfbe
00000320: 5824 58be d36d 203e 946d 4fbd 505b e7bd
00000330: 49c8 c73d e033 f03c 23c8 753e bf13 a2be
00000340: add8 493c a00a 43bd 5a04 0cbe 7560 a4bd
00000350: 5826 a63e b0a8 a53e 5613 2dbd 25a0 edbd
00000360: ae19 4c3e 60f0 56be d1f8 cebb 7087 64bd
00000370: b4f9 adbd 5ba6 90be 4294 8a3e 317c dbbe
00000380: 3139 e63d de23 68bd fb07 dd3d e3c4 1e3c
00000390: 7d76 aa3c 3356 343c 5101 89be 8591 c4bd
000003a0: abf4 f33d 53d1 b43e 1ff4 31be 44f0 8b3e
000003b0: 408c b5be 76b8 18bd 7e92 38be cd16 aa3d
000003c0: d8bf 80bc 4211 d03d 9594 163e ef0c 163f
000003d0: 3e20 edbe ad31 d4bc 3eaf 78bd 6ab4 4ebe
000003e0: 19ea 163e dac8 c13c abc5 213e 7b59 15be
000003f0: 76de 64bd 7b61 67bc 8afa 703a 0efd 713c

conv5.bias f4 [128]
0.1932609 0.069160916 0.11758512 0.097395 -0.06891074 0.18525258 0.1653982 0.11322582
0.1147127 -0.14746976 -0.02222108 0.0315542 -0.06473895 -0.11672546 -0.10982307 0.112433866
-0.11278672 0.10536977 0.10350525 -0.10792633 0.13688986 0.07370449 -0.046436157 -0.022442525
0.3365878 0.18062858 0.09664652 -0.2992543 -0.03749353 -0.16220286 0.11872784 0.0042099417
0.023515873 -0.16425128 0.16026726 0.26941863 0.09549882 0.11614451 0.03251218 -0.03959036
0.031996578 0.026113437 -0.031424887 0.07739999 -0.0198262 0.16382076 -0.038979758 0.1803251
0.105887376 0.03758152 -0.14255221 -0.17940262 -0.33480644 -0.06941164 0.10434743 0.18580785
0.0874769 0.18898943 -0.13900077 0.11580818 -0.06826347 0.17361258 0.186879 0.10113234
-0.10769174 0.16359259 0.018215656 0.261662 0.01873551 0.021955693 0.086861804 0.0027635288
0.03671569 -0.021495594 -0.07658617 -0.14247786 0.05433546 -0.21696556 -0.18905668 0.05200271
0.1341135 0.014785098 0.008851926 -0.079945 0.09109037 0.03156024 -0.04528592 0.12648308
-0.12284154 0.22495355 0.16610236 0.11488623 -0.11860479 0.062366933 0.0073175514 0.109591074
0.21763732 0.052950997 -0.12265917 0.36890873 -0.13178356 -0.08613061 0.013813866 -0.010658315
-0.12577291 0.027304487 0.22317348 -0.055216487 0.047269862 0.25419915 0.22551987 -0.08166941
0.23052871 0.09185822 0.05568817 -0.006858997 -0.10956417 0.14866228 -0.3469357 0.1722064
0.17571382 -0.017034017 0.066334255 0.040909734 0.10037195 -0.043793216 -0.17138082 -0.1676568
00000000: 2fe6 453e 3da4 8d3d 78d0 f03d 0877 c73d
00000010: 1321 8dbd dab2 3d3e 255e 293e f0e2 e73d
00000020: 7eee ea3d 5002 17be fb08 b6bc fa3e 013d
00000030: db95 84bd c20d efbd ebea e0bd ba43 e63d
00000040: b9fc e6bd 1bcc d73d 8ffa d33d 7b08 ddbd
00000050: db2c 0c3e 61f2 963d d733 3ebd 63d9 b7bc
00000060: 3c55 ac3e b3f6 383e 9cee c53d dc37 99be
00000070: d192 19bd 8218 26be 9527 f33d 8df3 893b
00000080: 5ca4 c03c 7d31 28be 1a1d 243e 3df1 893e
00000090: e394 c33d 2cdd ed3d 7e2b 053d 8029 22bd
000000a0: d80e 033d d9eb d53c 62b7 00bd e383 9e3d
000000b0: 8e6a a2bc a1c0 273e 3da9 1fbd 25a7 383e
000000c0: 7bdb d83d 14ef 193d 35f9 11be 52b5 37be
000000d0: c06b abbe b127 8ebd 1bb4 d53d 6a44 3e3e
000000e0: 1727 b33d 7286 413e 3856 0ebe d72c ed3d
000000f0: b8cd 8bbd 7fc7 313e 355d 3f3e 791e cf3d
00000100: 7d8d dcbd d184 273e 0039 953c 90f8 853e
00000110: 367b 993c 6ddc b33c 9ae4 b13d 521c 353b
00000120: 3163 163d 8717 b0bc 36d9 9cbd b7e5 11be
00000130: dc8e 5e3d 382c 5ebe 1398 41be cb00 553d
00000140: 0d55 093e 323d 723c ab07 113c 34ba a3bd
00000150: 978d ba3d 4f45 013d bb7d 39bd c884 013e
00000160: 5894 fbbd 395a 663e bd16 2a3e 7949 eb3d
00000170: 11e7 f2bd 7874 7f3d 12c8 ef3b 4971 e03d
00000180: 51dc 5e3e 25e3 583d bb34 fbbd 9be1 bc3e
00000190: 45f2 06be 3f65 b0bd 8e53 623c 37a0 2ebc
000001a0: 9dca 00be a9ad df3c 9787 643e af2a 62bd
000001b0: 0b9e 413d 6426 823e aeee 663e 4b42 a7bd
000001c0: b80f 6c3e 2a20 bc3d 4719 643d 70c1 e0bb
000001d0: 2e63 e0bd ed3a 183e 8ea1 b1be e056 303e
000001e0: 53ee 333e ec8a 8bbc 41da 873d f790 273d
000001f0: cf8f cd3d 8460 33bd 747e 2fbe 39ae 2bbe

conv6.weight f4 [64, 128, 2, 2]
-0.12042435 -0.0720086 -0.3254985 -0.3642197 -0.16134226 -0.19288899 -0.35833138 -0.24076203
-0.13417606 -0.43980795 -0.1732877 0.09544033 0.11657433 0.004081661 0.10426287 -0.065764576
-0.13880485 0.05741403 -0.0070026275 0.27953336 -0.034294702 0.08923873 0.33159897 0.26884243
-0.16803798 0.1845853 0.07830669 -0.27600455 0.21729684 0.08799637 -0.15296935 -0.009794037
-0.1734495 -0.21521221 -0.03721978 -0.10182676 -0.40961796 -0.23407094 -0.1442133 -0.0399446
0.0078108236 0.028746521 0.07467115 -0.044525877 0.083362184 -0.16985068 -0.31348556 -0.30266002
-0.07334867 -0.31315875 0.18594225 0.07572396 -0.045078054 0.1488859 0.03463367 0.051833473
-0.20817429 -0.12412695 0.1434504 0.12169262 -0.10879802 0.09941589 -0.13765292 -0.09125378
-0.01990668 0.07218371 0.00526039 0.11418899 0.1113054 0.1964093 0.3033664 0.3427216
0.09814757 0.058288805 0.20369267 0.18208097 -0.02050702 0.017779244 -0.02513591 0.02547871
0.13707744 0.06505554 0.2050522 -0.16662723 -0.16305463 0.008665014 0.21529312 0.065781444
0.20133688 -0.238501 -0.22679448 -0.5521052 -0.14831387 -0.31137213 -0.61707896 -0.5353004
-0.0903074 -0.26027933 -0.6491017 -0.19454049 -0.10471412 -0.39578405 -0.2315659 -0.76744497
-0.07798932 -0.339439 0.21967112 -0.072535545 0.05148646 -0.18772987 0.068514965 0.2796903
-0.109055884 -0.11626236 0.09438361 0.080234565 -0.02345432 -0.022922322 -0.06308745 -0.029640587
-0.13086821 0.04604265 0.2641667 -0.24686429 -0.29885653 0.08070758 -0.090539105 -0.05628403
0.13933152 0.17561463 0.023922127 0.2538551 -0.012670503 -0.08166171 -0.0495659 -0.09895579
0.17613156 0.03948799 -0.25197706 0.0539152 -0.09785809 -0.19576415 0.10203365 0.076722205
0.0999917 0.32271928 0.27278838 0.23794186 0.17512172 0.2808659 0.211362 0.09997598
-0.10475683 -0.44432062 0.15981998 -0.17015135 0.012480239 -0.1557593 0.071573034 0.21733171
0.18047218 -0.2507861 -0.1180941 0.1205553 0.10681993 0.017603418 0.079832196 0.12171591
0.077042155 -0.031289928 -0.146312 -0.2843478 -0.064377494 -0.111948 0.32732064 0.25344422
0.06796768 0.008232363 0.19703737 0.12076474 -0.2555531 -0.138516 -0.08713356 -0.003056878
0.1019038 -0.17176875 0.26476228 0.10724521 -0.14663053 -0.12366433 -0.18552144 -0.012648231
-0.245241 -0.44473222 -0.09819143 -0.37365738 -0.02747394 0.17740022 0.3350199 -0.11761509
-0.30045956 -0.1205605 -0.1753263 -0.11955858 0.22177404 -0.030671675 0.15236545 0.011339269
0.19045004 -0.0951358 0.033719774 -0.14991246 0.035696723 0.0005842583 -0.022679703 0.0048094443
-0.06530586 0.05687214 0.33158565 0.020775665 -0.105702505 -0.046014037 -0.13144477 -0.09453104
-0.04564745 -0.030630374 0.15548994 0.18517445 -0.10522901 0.32150802 0.1251796 -0.10915793
0.002674735 -0.017149465 -0.021013504 0.03214601 0.033942245 -0.0006766772 -0.11457852 -0.097849816
0.23776443 0.17076345 -0.105190836 0.14868076 0.19507085 0.1737591 -0.067595914 -0.18469515
-0.0024650062 0.17190266 0.096807934 0.0496326 0.2905551 0.21280706 -0.11678852 -0.038635045
00000000: 0ba1 f6bd 3f79 93bd bda7 a6be 017b babe
00000010: e836 25be b184 45be 3677 b7be 528a 76be
00000020: 7365 09be 822e e1be 5572 31be 3876 c33d
00000030: 86be ee3d 74bf 853b c687 d53d 94af 86bd
00000040: dc22 0ebe f92a 6b3d 4c76 e5bb ff1e 8f3e
00000050: 9a78 0cbd ccc2 b63d 57c7 a93e b7a5 893e
00000060: 2612 2cbe ee03 3d3e 425f a03d 7850 8dbe
00000070: 1083 5e3e 7137 b43d ffa3 1cbe 2b77 20bc
00000080: bf9c 31be 9760 5cbe c573 18bd 8c8a d0bd
00000090: 72b9 d1be 4bb0 6fbe a7ac 13be f39c 23bd
000000a0: f0f1 ff3b d37d eb3c 30ed 983d c460 36bd
000000b0: cbb9 aa3d 56ed 2dbe 2e81 a0be 41f6 9abe
000000c0: d437 96bd 5856 a0be a567 3e3e 2a15 9b3d
000000d0: c4a3 38bd 8c75 183e 09dc 0d3d 564f 543d
000000e0: a42b 55be 4536 febd a9e4 123e fb39 f93d
000000f0: 7fd1 debd 8f9a cb3d e3f4 0cbe 43e3 babd
00000100: 5513 a3bc 0ed5 933d 5a5f ac3b ebdb e93d
00000110: 16f4 e33d 851f 493e d752 9b3e 3579 af3e
00000120: 9801 c93d 3ec0 6e3d d094 503e 6f73 3a3e
00000130: 57fe a7bc c7a5 913c d3e9 cdbc bab8 d03c
00000140: 075e 0c3e d73b 853d 34f9 513e 54a0 2abe
00000150: cbf7 26be b4f7 0d3c cd75 5c3e 6cb8 863d
00000160: 412b 4e3e 9b39 74be d03c 68be c456 0dbf
00000170: 97df 17be 2b6c 9fbe e3f8 1dbf 7209 09bf
00000180: 16f3 b8bd 5543 85be 872b 26bf 9f35 47be
00000190: 5b74 d6bd 35a4 cabe 9c1f 6dbe 4677 44bf
000001a0: ddb8 9fbd f3ca adbe 77f1 603e 848d 94bd
000001b0: 77e3 523d 423c 40be 9351 8c3d 9133 8f3e
000001c0: b158 dfbd f61a eebd 324c c13d 0552 a43d
000001d0: 4623 c0bc 98c7 bbbc fe33 81bd d1d0 f2bc
000001e0: 5102 06be 3897 3c3d dc40 873e fec9 7cbe
000001f0: b903 99be 044a a53d 916c b9bd 158a 66bd
00000200: ecac 0e3e 52d4 333e 56f8 c33c 4cf9 813e
00000210: f197 4fbc 413e a7bd 9d05 4bbd 55a9 cabd
00000220: d55b 343e 29be 213d 2303 81be 2fd6 5c3d
00000230: d369 c8bd 6676 48be 05f7 d03d 8820 9d3d
00000240: 73c8 cc3d 763b a53e ebaa 8b3e 08a7 733e
00000250: 1c53 333e a8cd 8f3e 486f 583e 35c0 cc3d
00000260: c08a d6bd fe7d e3be d9a7 233e 283c 2ebe
00000270: eb79 4c3c 5e7f 1fbe e294 923d 348c 5e3e
00000280: b3cd 383e 0967 80be 52db f1bd b2e5 f63d
00000290: 68c4 da3d 0b35 903c 107f a33d 3146 f93d
000002a0: 47c8 9d3d de29 00bd d0d2 15be 0996 91be
000002b0: 59d8 83bd fe44 e5bd 9296 a73e 71c3 813e
000002c0: a432 8b3d 08e1 063c 2ac4 493e 8153 f73d
000002d0: dbd7 82be 23d7 0dbe 1473 b2bd e755 48bb
000002e0: f1b2 d03d 26e4 2fbe ec8e 873e 60a3 db3d
000002f0: 5026 16be b943 fdbd 55f9 3dbe 873a 4fbc
00000300: 7520 7bbe f1b3 e3be 9718 c9bd 0550 bfbe
00000310: 0711 e1bc 67a8 353e ba87 ab3e 2ee0 f0bd
00000320: d6d5 99be 6ce8 f6bd bd88 33be 21db f4bd
00000330: bc18 633e 2a43 fbbc b005 1c3e 57c8 393c
00000340: 5605 433e 8fd6 c2bd bf1d 0a3d a782 19be
00000350: ba36 123d e928 193a c9ca b9bc 8b98 9d3b
00000360: 14bf 85bd c3f2 683d 98c5 a93e ba31 aa3c
00000370: 8e7a d8bd 3779 3cbd 7599 06be 7d99 c1bd
00000380: d2f8 3abd 8dec fabc c138 1f3e 5f9e 3d3e
00000390: 4f82 d7bd b39c a43e 152f 003e 318e dfbd
000003a0: 9b4a 2f3b 097d 8cbc 8324 acbc 89ab 033d
000003b0: 0607 0b3d 0a63 31ba 25a8 eabd 7c65 c8bd
000003c0: 8578 733e 9ddc 2e3e 4b6e d7bd c53f 183e
000003d0: a7c0 473e e8ed 313e ba6f 8abd ba20 3dbe
000003e0: f18b 21bb 4007 303e 3d43 c63d 8e4b 4b3d
000003f0: a3c3 943e 18ea 593e d22e efbd c83f 1ebd

conv6.bias f4 [64]
0.21587653 -0.06632101 -0.051321004 0.20576143 -0.027391203 0.24024987 0.14600237 0.052514568
0.119802445 0.13120686 0.02957508 0.23196192 0.12900004 -0.12890549 -0.0013465943 -0.10170822
0.31823882 -0.07442649 -0.15128313 -0.030717527 -0.11200618 0.06989977 -0.02246618 -0.082181215
-0.06875514 0.08030953 -0.18813436 0.010704241 -0.09507429 -0.06314603 -0.07774845 0.13146202
-0.070058845 -0.17154716 -0.10712804 0.05406845 -0.06867789 -0.12056108 -0.10765851 0.017069172
-0.06734435 -0.011853117 -0.11806844 -0.012429417 -0.12863915 0.1398697 0.02920971 0.17743
-0.07367883 0.028610304 0.15595266 0.08578022 -0.09076093 -0.20868888 -0.17398542 0.13054125
0.0638339 0.035070214 0.28703305 0.0030323882 -0.25927532 -0.060523648 0.25825948 -0.062236607
00000000: bd0e 5d3e 4fd3 87bd f935 52bd 20b3 523e
00000010: 8463 e0bc 1004 763e a581 153e 8419 573d
00000020: fc5a f53d 175b 063e 7047 f23c 6d87 6d3e
00000030: 9618 043e cdff 03be 3580 b0ba 664c d0bd
00000040: 33f0 a23e ea6c 98bd f7e9 1abe 53a3 fbbc
00000050: 7f63 e5bd 9c27 8f3d ff0a b8bc a04e a8bd
00000060: 7fcf 8cbd 5379 a43d 4ba6 40be d760 2f3c
00000070: 4fb6 c2bd b552 81bd 943a 9fbd fb9d 063e
00000080: 037b 8fbd 0faa 2fbe f265 dbbd e176 5d3d
00000090: fea6 8cbd bae8 f6bd 117c dcbd a6d4 8b3c
000000a0: d6eb 89bd 9333 42bc decd f1bd c1a4 4bbc
000000b0: fbb9 03be 013a 0f3e 3449 ef3c 36b0 353e
000000c0: ede4 96bd 2860 ea3c 0eb2 1f3e 8aad af3d
000000d0: dee0 b9bd 8ab2 55be 3c29 32be 9bac 053e
000000e0: 59bb 823d c9a5 0f3d fff5 923e 08bb 463b
000000f0: bcbf 84be a5e7 77bd 963a 843e d0eb 7ebd
