model/model_19.pth (torch_old, 571877 bytes, 24 tensors)

conv1.weight f4 [32, 3, 2, 2]
0	0xbde0421c	-0.10950109
1	0xbde6f103	-0.11276438
2	0xbe1c6dee	-0.1527631
3	0x3ec84ecd	0.3912262
4	0xbf181475	-0.59406215
5	0x3e1b0028	0.15136778
6	0xbe0c7616	-0.13716921
7	0x3edcdee0	0.4313879
8	0xbe97d5ec	-0.29655397
9	0xbd9936be	-0.07481144
10	0x3b66434b	0.0035135325
11	0x3e8cba80	0.27486038
12	0x3e4ee6dd	0.20205255
13	0xbe04a7bc	-0.1295461
14	0x3dfa28d8	0.122148216
15	0x3c7683a5	0.015046035
16	0x3d8f4092	0.06994738
17	0xbd823b99	-0.063590236
18	0x3ea69f5f	0.32543465
19	0x3d23cdb2	0.03999109
20	0xbe0bd591	-0.13655688
21	0xbe7b2d09	-0.24528898
22	0xbd27bd91	-0.04095227
23	0xbe72cb37	-0.23710333
24	0xbdf53b3d	-0.119741894
25	0x3d308b52	0.043101616
26	0x3e007302	0.12543872
27	0x3e6b243a	0.22963038
28	0xbeab78ee	-0.334907
29	0x3e4e4836	0.20144734
30	0xbd320f57	-0.04347166
31	0x3e9ea90f	0.30988356
32	0x3e0b74fe	0.13618848
33	0xbe4c37b7	-0.19943129
34	0xbeebb502	-0.46036536
35	0xbdf1017c	-0.11767861
36	0x3ec6118c	0.38685262
37	0xbd45e5ba	-0.048314787
38	0x3d8a8be5	0.06764964
39	0xbe8d62c4	-0.27614415
40	0x3ec68c94	0.38779128
41	0xbe6c4e73	-0.23076801
42	0x3e2a45ec	0.16628236
43	0xbe46c1c3	-0.19409852
44	0xbd7279db	-0.05919824
45	0x3c8b43cf	0.017000107
46	0xbe5b9c35	-0.21446307
47	0xbe166e3c	-0.14690489
48	0xbe20ba25	-0.15696009
49	0xbdd5e4c8	-0.10444027
50	0xbebe7b98	-0.3720367
51	0xbe61af4c	-0.22039527
52	0x3e494c3f	0.19657992
53	0xbdaadaa2	-0.08342482
54	0x3e9adf95	0.30248705
55	0x3e62d915	0.22153123
56	0xbd3d1e74	-0.04617162
57	0xbe9140bc	-0.283697
58	0x3e1d61e4	0.15369374
59	0x3cbf306d	0.02333852
60	0xbe43590d	-0.19076939
61	0x3def0493	0.11670794
62	0x3e76b9ad	0.24094267
63	0x3e830f05	0.25597396
64	0xbe47c823	-0.1950994
65	0xbe081136	-0.13287815
66	0xbba699f3	-0.00508427
67	0xbcbf2f03	-0.023337847
68	0xbea86b53	-0.32894382
69	0xbeb76f68	-0.35827184
70	0x3df75883	0.12077429
71	0xbe2f4ecc	-0.17119902
72	0x3d0d2382	0.03445769
73	0xbd9b6cf2	-0.07589139
74	0xbd636849	-0.055519376
75	0xbd31f86a	-0.043449797
76	0x3e2a8995	0.16654046
77	0x3e22594f	0.15854381
78	0xbe4d65e9	-0.20058407
79	0x3e4bc51d	0.19899411
80	0xbe227834	-0.15866166
81	0xbe572598	-0.21010435
82	0xbb979c63	-0.004626797
83	0xbdd46e3b	-0.10372587
84	0x3e72487a	0.2366046
85	0x3d51c0de	0.051209323
86	0xbf125ffb	-0.57177705
87	0x3d74bc6f	0.059750017
88	0x3e02682f	0.12735055
89	0x3ef9e160	0.4880476
90	0xbdf16a2e	-0.1178783
91	0xbe7a8bcc	-0.24467391
92	0x3e78d105	0.24298485
93	0x3ea2609a	0.31714326
94	0xbeb3aaf2	-0.35091358
95	0xbe5305fe	-0.20607755
96	0x3d2d6b48	0.04233864
97	0xbe9404cd	-0.28909913
98	0x3e3908ff	0.18069838
99	0xbdc8368d	-0.0977603
100	0x3e099848	0.13436997
101	0xbeea74f0	-0.4579234
102	0x3ed4ee52	0.41588074
103	0x3d113814	0.03545387
104	0xbe6ca842	-0.2311106
105	0xbecdebbd	-0.40218917
106	0x3f0de0e9	0.5542131
107	0x3dd5b757	0.1043536
108	0x3e14457a	0.14479628
109	0xbd0782bd	-0.033083666
110	0x3d156835	0.036476333
111	0x3e21463d	0.1574945
112	0x3e5ff0e1	0.21869232
113	0xbe8da5e4	-0.27665627
114	0x3c53533e	0.012898264
115	0x3e65be3d	0.22435851
116	0x3e18a9aa	0.14908472
117	0x3e0ee79b	0.13955538
118	0xbe49ba2f	-0.1969993
119	0xbe179847	-0.14804183
120	0xbdef7845	-0.116928615
121	0x3d262ea4	0.040571824
122	0x3e91257e	0.28348917
123	0xbe886d1b	-0.2664574
124	0x3e2e65cd	0.17031021
125	0xbe3f19f3	-0.18662243
126	0xbeacfc46	-0.3378622
127	0xbe0008c7	-0.12503348
128	0x3e5725ff	0.21010588
129	0x3e88c78b	0.2671474
130	0xbe66daf4	-0.22544461
131	0x3d031050	0.03199798
132	0x3ebe6725	0.37188068
133	0x3e645e0e	0.22301504
134	0x3e00dc6b	0.12584083
135	0x3dc5e5a8	0.09662944
136	0x3e10e5ca	0.14150158
137	0xbc86bc14	-0.016447105
138	0xbef3e095	-0.4763228
139	0xbf057145	-0.5212596
140	0xbc0363b9	-0.008019381
141	0x3d5f6ad3	0.054545235
142	0xbe8dbc3c	-0.27682674
143	0x3d3bab39	0.045817588
144	0x3c54b54e	0.0129826795
145	0x3c10b91c	0.008833196
146	0xbe0077a1	-0.12545635
147	0x3d676ca0	0.056500077
148	0x3e24ec39	0.16105737
149	0x3ea966ec	0.33086336
150	0xbe3fcc31	-0.18730237
151	0x3ec4af0c	0.384148
152	0xbe0af2fc	-0.13569254
153	0x3ccac98d	0.02475431
154	0xbed8d8ee	-0.42353004
155	0xbe3aefe7	-0.18255578
156	0xbeba312a	-0.36365634
157	0xbe196048	-0.14978135
158	0x3e369ebf	0.17833994
159	0x3cb46026	0.022018503
160	0xbe8680dc	-0.26270187
161	0x3e5d609d	0.21618886
162	0x3dba5310	0.09097874
163	0x3eb3bb6c	0.3510393
164	0xbea0ba42	-0.31392103
165	0x3d63c594	0.055608347
166	0xbe77659f	-0.24159859
167	0xbced17f9	-0.028942095
168	0xbf0860e5	-0.5327285
169	0xbe9dc55e	-0.30814642
170	0xbe7da23d	-0.2476892
171	0x3e09d52b	0.13460223
172	0xbd50a717	-0.0509406
173	0x3da7e804	0.0819855
174	0x3ea3fab9	0.32027224
175	0x3ef13b31	0.47115472
176	0x3d894bb1	0.0670389
177	0xbd82053c	-0.06348655
178	0xbe5945a0	-0.21217966
179	0x3eb0e54d	0.34549943
180	0x3e05ff2d	0.13085623
181	0x3dcebe3e	0.100948796
182	0xbe5db556	-0.21651205
183	0xbe1a4ffc	-0.15069574
184	0x3c1ecfd4	0.009693105
185	0x3eaea70b	0.3411182
186	0xbe2da063	-0.16955714
187	0xbe83e0a2	-0.2575732
188	0x3defe59c	0.117137164
189	0xbe187821	-0.14889576
190	0x3e1fbdcd	0.15599747
191	0xbe5205e6	-0.20510063
192	0x3cafc083	0.021454101
193	0xbdc36297	-0.09540289
194	0x3eaec91d	0.34137812
195	0xbebda52d	-0.37040082
196	0x3e662fc8	0.22479165
197	0xbd41f748	-0.047354966
198	0x3ec02620	0.37529087
199	0xbef0828b	-0.46974596
200	0x3e44e962	0.19229653
201	0xbeb7aa26	-0.35872
202	0x3ea44e74	0.32091105
203	0xbea78372	-0.32717472
204	0xbcbce26e	-0.023057189
205	0x3e162dee	0.14665958
206	0xbe640423	-0.22267203
207	0x3e5d1142	0.21588615
208	0xbe5e9965	-0.21738203
209	0x3e80310e	0.25037426
210	0xbe4fc454	-0.20289737
211	0x3e97c8a4	0.29645264
212	0xbf1afdb1	-0.6054335
213	0x3e3955fa	0.18099204
214	0xbd8350e0	-0.0641191
215	0x3e935bc3	0.28780946
216	0x3df01685	0.11723045
217	0xbe3e3ec4	-0.1857863
218	0xbe35d8fb	-0.17758553
219	0x3e968816	0.294007
220	0xbecc4118	-0.39893413
221	0x3ea316a4	0.3185321
222	0xbede364d	-0.43400803
223	0xbe4a483e	-0.1975412
224	0x3e7dee80	0.24798012
225	0x3c4a50f0	0.012348399
226	0x3b45d13b	0.0030184526
227	0x3eceee54	0.40416205
228	0x3e421286	0.18952379
229	0x3ee458d3	0.44599018
230	0xbe85fa56	-0.26167554
231	0xbe89ae0b	-0.26890597
232	0x3ea4f806	0.32220477
233	0x3e5e832e	0.21729729
234	0xbe8f891e	-0.280343
235	0x3da0d022	0.07852198
236	0xbea0214b	-0.312754
237	0x3ea8f33a	0.32998067
238	0xbe3cf43a	-0.1845254
239	0xbec33832	-0.3812881
240	0xbe862940	-0.26203346
241	0xbd52b156	-0.051438652
242	0x3e2f49d1	0.17118002
243	0x3d5de457	0.05417284
244	0xbeb508e9	-0.3535836
245	0xbe1b5eeb	-0.15172927
246	0xbed7d703	-0.42156228
247	0xbe96161d	-0.29313746
248	0xbe2dd61b	-0.16976206
249	0x3e94d95a	0.29072076
250	0x3ebb2a4c	0.36555707
251	0x3d576f44	0.052596346
252	0xbc941fb9	-0.018081533
253	0x3e494797	0.19656216
254	0xbdf104a2	-0.11768462
255	0xbe5d5ac6	-0.21616659

conv1.bias f4 [32]
0	0xbec22e2c	-0.3792585
1	0xbdbeda28	-0.09318954
2	0xbefc54b9	-0.49283388
3	0xbe2d222f	-0.16907571
4	0xbec6aafe	-0.38802332
5	0xbf01377d	-0.50475293
6	0xbf0f26e8	-0.5591874
7	0x3e05a117	0.13049732
8	0x3dae9021	0.08523584
9	0xbeb424c6	-0.35184306
10	0xbecfadc5	-0.40562263
11	0xbcc13cfa	-0.023588646
12	0xbdbefe91	-0.093258984
13	0xbe4959b8	-0.19663131
14	0x3d9e55f7	0.0773124
15	0xbecaef9f	-0.3963594
16	0xbdaa13bb	-0.083045445
17	0x3df5e904	0.12007335
18	0xbe278f93	-0.16363363
19	0xbf075564	-0.5286467
20	0xbf0242c7	-0.50883144
21	0xbf413299	-0.7546783
22	0x3e0a4a3f	0.13504885
23	0xbf1c5c30	-0.61078167
24	0x3d521fc3	0.05129982
25	0xbdd43f4e	-0.10363637
26	0xbebd3108	-0.3695147
27	0xbeeb1b9c	-0.45919502
28	0x3dea89e6	0.11452083
29	0xbeefb854	-0.4682032
30	0xbecbbdaa	-0.3979314
31	0x3d9073c6	0.07053332

conv2.weight f4 [32, 32, 2, 2]
0	0xbe4a40db	-0.19751303
1	0x3df65f99	0.120299526
2	0xbdc34b1d	-0.09535811
3	0xbdb36018	-0.08758563
4	0x3ca64869	0.0202982
5	0x3d32c106	0.043641113
6	0xbd8f464a	-0.069958284
7	0x3c4bf8af	0.0124494275
8	0xbca49709	-0.02009155
9	0x3d03c3f2	0.03216929
10	0xbe53ee3a	-0.20696345
11	0xbe36723e	-0.17817017
12	0xbdc7a9ab	-0.097491585
13	0xbda23a48	-0.079212725
14	0xbd08c707	-0.033392932
15	0xbdc8c0f6	-0.098024294
16	0xbdc08e36	-0.094021246
17	0x3cda5ff2	0.026657078
18	0xbde12683	-0.10993674
19	0xbe48b4ba	-0.19600192
20	0xbd35eab6	-0.04441329
21	0x3d073096	0.03300532
22	0xbd03016b	-0.031983774
23	0x3d9c78f8	0.076402605
24	0x3d14fd53	0.0363744
25	0x3e140c72	0.14457873
26	0xbdff7fb7	-0.124755315
27	0x3cf386ae	0.029727306
28	0xbe9b8d5d	-0.3038129
29	0xbea3bcb2	-0.319799
30	0xbd5a735c	-0.05333267
31	0xbee3c3e5	-0.44485393
32	0x3de168fd	0.11006353
33	0x3de1eb8a	0.11031254
34	0x3e110a8f	0.14164184
35	0x3e8936a3	0.26799497
36	0x3de05339	0.109533735
37	0xbdacd925	-0.084398545
38	0x3dfbfccc	0.123040766
39	0x3dd2bed3	0.10290303
40	0xbde669d4	-0.11250654
41	0x3d9445b6	0.07239859
42	0x3d88b4af	0.06675088
43	0xbcc0de4c	-0.0235435
44	0xbcf00397	-0.029298587
45	0xbe8636b3	-0.26213607
46	0x3e313fc7	0.17309485
47	0xbe255a5e	-0.16147754
48	0x3e05a337	0.13050543
49	0xbd0d59a1	-0.034509305
50	0x3d967ce8	0.07348043
51	0xbe39795b	-0.181127
52	0x3d7bd0ad	0.061478306
53	0x3d9b6551	0.07587684
54	0x3bcd20a7	0.006259996
55	0xbde62a79	-0.1123857
56	0x3de123e3	0.10993173
57	0x3bd05b17	0.006358515
58	0x3e1cbde5	0.15306814
59	0x3df2cb6d	0.11855207
60	0xb9c2ebcd	-0.0003717825
61	0x3ea3c62e	0.31987137
62	0xbda1ae37	-0.07894557
63	0xbda30b64	-0.07961157
64	0x3e1c0e46	0.1523982
65	0xbcc6d94f	-0.024273543
66	0xbe48c04d	-0.19604607
67	0xbc1901e5	-0.009338831
68	0x3d2cdfde	0.042205684
69	0xbe809a40	-0.25117683
70	0x3d599dba	0.053128935
71	0x3b2ba54c	0.0026191054
72	0x3d8a8ff0	0.06765735
73	0x3d4b643f	0.04965615
74	0xbdac28be	-0.084062085
75	0xbe555c41	-0.20835973
76	0xbdff39f0	-0.124622226
77	0xbe8514ab	-0.2599233
78	0x3d5a399e	0.053277604
79	0x3dbee734	0.09321442
80	0x3e95279e	0.29131788
81	0x3eb6f451	0.35733274
82	0xbedcdb4f	-0.4313607
83	0xbe3cb245	-0.1842738
84	0xbe8c1b82	-0.27364737
85	0xbe09ed3f	-0.13469408
86	0xbd601748	-0.054709703
87	0xbe5c2846	-0.21499738
88	0xbe04a799	-0.12954558
89	0xbadaeea0	-0.0016703196
90	0xbd1000d7	-0.03515705
91	0xbc897447	-0.016779078
92	0x3efb50d8	0.49085116
93	0x3e65fca2	0.22459653
94	0xbe75cc93	-0.2400382
95	0xbe943f2c	-0.28954446
96	0xbe94a278	-0.29030204
97	0x3dcfeb9a	0.10152359
98	0x3e034665	0.12819822
99	0xbe9051e6	-0.28187484
100	0x3e0563f9	0.13026418
101	0x3de56b2d	0.11202083
102	0xbe4d32ed	-0.20038958
103	0xbe66abb0	-0.22526431
104	0xbdb40346	-0.08789687
105	0x3e70c621	0.2351308
106	0x3d6ff4ad	0.05858295
107	0xbd7dc22b	-0.06195275
108	0xbd3a7042	-0.045517214
109	0x3de21f3c	0.11041114
110	0xbac7c722	-0.0015241841
111	0x3d30717b	0.043076973
112	0x3e18bf33	0.14916687
113	0x3e2cfa58	0.16892374
114	0x3e35c16e	0.17749569
115	0x3e9badfd	0.3040618
116	0x3d0dec55	0.034649212
117	0x3e856c47	0.26059172
118	0xbeaa3333	-0.33242187
119	0xbe24c9f0	-0.16092658
120	0xbe84ef5f	-0.25963876
121	0x3e49e157	0.19714867
122	0xbdfe2ba7	-0.1241067
123	0x3dae4fca	0.08511312
124	0x3e1e307b	0.15448181
125	0xbd8fdbfb	-0.0702438
126	0x3d93a29c	0.0720875
127	0x3d992e57	0.07479542
128	0xbe68efe3	-0.2274776
129	0xbdfeab78	-0.12435049
130	0xbe2d8fcb	-0.16949384
131	0xbe8adfd3	-0.2712389
132	0xbec8e4ab	-0.3923696
133	0xbe7110c5	-0.23541553
134	0xbe9d387b	-0.30707154
135	0xbeb0f5cd	-0.3456253
136	0xbebc3f43	-0.36767015
137	0xbee7addf	-0.4524984
138	0xbf0af54f	-0.5428056
139	0xbe9a5195	-0.30140367
140	0xbe571f0f	-0.21007942
141	0xbed75c58	-0.4206264
142	0xbed76495	-0.42068925
143	0xbedc55d5	-0.43034235
144	0xbe6bf627	-0.23043118
145	0xbe863754	-0.26214087
146	0xbe6d8ea9	-0.23198952
147	0xbe9e8799	-0.30962828
148	0x3e3ea681	0.18618204
149	0x3e5a07b7	0.21292005
150	0x3e37f5ff	0.17964934
151	0x3e746e9b	0.23870318
152	0xbeb38b62	-0.35067278
153	0xbe9eed25	-0.31040302
154	0xbe92c12c	-0.28663003
155	0xbe8bf4c0	-0.27335167
156	0xbeb58baa	-0.35458118
157	0xbeae90d2	-0.34094864
158	0xbf08f483	-0.53498095
159	0xbecc8080	-0.39941788
160	0xbee831a1	-0.45350364
161	0xbdf033ec	-0.11728653
162	0xbee09e65	-0.43870845
163	0xbeb29220	-0.3487711
164	0xbc463835	-0.012098362
165	0x3ca58610	0.020205528
166	0xbe0bed92	-0.13664845
167	0x3d557e0f	0.052122172
168	0x3cee8a2e	0.029118624
169	0xbd9aab20	-0.07552171
170	0x3cd26418	0.025682494
171	0x3df0f740	0.11765909
172	0x3dd865eb	0.10566314
173	0x3e030b77	0.12797342
174	0x3deb39c2	0.11485626
175	0x3e4db169	0.20087208
176	0xbed9f7a9	-0.42571762
177	0xbf15cadd	-0.5851267
178	0xbf2a6e3f	-0.6657447
179	0xbf025008	-0.5090337
180	0xbdcccad5	-0.09999625
181	0xbe2401f9	-0.16016378
182	0xbdf2c916	-0.1185476
183	0xbe0c9504	-0.1372872
184	0xbe354017	-0.1770023
185	0xbea00ccd	-0.31259766
186	0xbda28970	-0.079363704
187	0xbe3a12c7	-0.18171225
188	0x3e65b305	0.22431572
189	0x3e3195ce	0.17342302
190	0x3e80fd28	0.25193143
191	0x3e859ada	0.26094705
192	0xbe6d97cd	-0.23202439
193	0xbcd3809d	-0.025818164
194	0xbd833971	-0.064074405
195	0xbd824fc0	-0.06362867
196	0xbe46e638	-0.19423759
197	0xbe82e65e	-0.2556638
198	0xbe37f142	-0.17963126
199	0xbe7e47c0	-0.24832058
200	0x3c9898c8	0.01862754
201	0x3ca27e57	0.019835634
202	0x3dc3dfe1	0.09564186
203	0x3d13a200	0.036043167
204	0xbe3bf75d	-0.1835608
205	0xbe80b78a	-0.2514003
206	0xbc49fba1	-0.012328059
207	0xbe0cc1e5	-0.1374584
208	0x3eabcb3f	0.33553502
209	0x3ec90057	0.39258072
210	0x3ea88724	0.32915604
211	0x3ee2dcf1	0.4430919
212	0x3e50cd15	0.20390733
213	0x3be23e29	0.0069043827
214	0x3e914734	0.28374636
215	0x3ce8baea	0.02840944
216	0xbebdeba7	-0.3709385
217	0xbec12ed4	-0.3773104
218	0xbf105baf	-0.563899
219	0xbe9efc45	-0.3105184
220	0xbe73524a	-0.2376186
221	0xbe90c1a3	-0.28272733
222	0xbe903a45	-0.28169456
223	0xbe8a758b	-0.27042803
224	0xbef5ccd3	-0.4800783
225	0xbed9f00c	-0.42565954
226	0xbf1ce580	-0.6128769
227	0xbee4941c	-0.44644248
228	0x3dc47ebd	0.09594486
229	0xbcda4245	-0.026642928
230	0xbd488163	-0.048951518
231	0x3abbbdcc	0.0014323532
232	0xbe63c2f9	-0.22242345
233	0xbe344ac1	-0.17606641
234	0xbe34b28e	-0.17646238
235	0xbcd50c74	-0.026006915
236	0xbd45bd47	-0.048276212
237	0x3b8ee9dd	0.004361375
238	0x3bd1c1b8	0.006401267
239	0xbc39ac71	-0.011332617
240	0xbe3336cd	-0.17501374
241	0x3c771931	0.01508169
242	0xbd970651	-0.07374252
243	0xbd628761	-0.05530489
244	0xbd111650	-0.03542167
245	0x3c800285	0.015626201
246	0xbe3e0aed	-0.18558855
247	0xbcc8d5c8	-0.024516001
248	0xbd964c56	-0.07338779
249	0xbd1aec28	-0.037822872
250	0x3d27e191	0.0409866
251	0x3cf9bc11	0.030485185
252	0xbef1a2de	-0.4719457
253	0xbea05f38	-0.31322646
254	0xbeb4f980	-0.35346603
255	0xbec928ea	-0.39289027

conv2.bias f4 [32]
0	0x3d3e3a40	0.04644227
1	0xbd9a2fe2	-0.07528664
2	0xbdd983fc	-0.10620877
3	0xbe1b0041	-0.15136816
4	0x3df3f032	0.11911048
5	0xbdb91ad5	-0.09038321
6	0xbe14d56b	-0.14534537
7	0x3e1a626e	0.1507661
8	0xbd7af773	-0.061271142
9	0x3e17bba7	0.14817677
10	0xbe4fd3fe	-0.20295712
11	0x3e41c98d	0.18924542
12	0x3dd23810	0.10264599
13	0xbdf1622d	-0.11786304
14	0xbee86617	-0.45390388
15	0xbdeb819b	-0.1149933
16	0x3c2c28e9	0.010507801
17	0x3b5ef7e3	0.0034022264
18	0x3d54140c	0.05177693
19	0x3df14d14	0.117822796
20	0x3d4d8bbb	0.050182085
21	0xbe577717	-0.21041523
22	0x3d3e2682	0.046423443
23	0x3e0903d9	0.13380374
24	0xbd88287b	-0.06648346
25	0x3e455d71	0.19273926
26	0x3d0bc3aa	0.034122147
27	0xbe000ac1	-0.12504102
28	0x3bcce96e	0.006253413
29	0x3e51029c	0.20411152
30	0x3e8c4412	0.27395684
31	0xbe1e733c	-0.15473646

conv3.weight f4 [64, 32, 2, 2]
0	0xbdd2589a	-0.10270806
1	0x3db9798b	0.090563856
2	0x3c27cb57	0.010241351
3	0x3e96f69b	0.2948502
4	0x3d223210	0.039598525
5	0xbe61413c	-0.21997541
6	0x3e7102aa	0.23536173
7	0xbe51e645	-0.20497997
8	0x3d745bcc	0.059657857
9	0x3d95f578	0.0732221
10	0x3db96dbb	0.090541326
11	0x3cf63d7e	0.030058619
12	0x3d063a46	0.032770418
13	0xbd710c1a	-0.05884943
14	0x3c6de17a	0.01451909
15	0xbd08126b	-0.03322069
16	0xbec4642b	-0.38357672
17	0xbea40511	-0.32035115
18	0xbe6d9b04	-0.23203665
19	0xbe8c5876	-0.2741124
20	0xbd92e2db	-0.071721755
21	0x3d45cfb8	0.0482938
22	0xbd6f2496	-0.0583845
23	0x3d28e0cd	0.04123001
24	0x3cf4c9f9	0.029881464
25	0xbd0581d2	-0.03259451
26	0xbd3e3797	-0.046439733
27	0xbd864a6d	-0.06557164
28	0xbe169452	-0.14705017
29	0xbe57ca7c	-0.21073335
30	0xbe9fd075	-0.31213728
31	0xbed87e72	-0.4228397
32	0xbced2aca	-0.028951067
33	0xbdbd1d0b	-0.09234055
34	0x3cd60426	0.026125025
35	0xbcce5576	-0.025187235
36	0x3e81d50a	0.25357848
37	0xbd92094a	-0.07130678
38	0x3e78ccba	0.24296847
39	0xbec8a439	-0.39187792
40	0x3e3a9765	0.18221815
41	0x3e9e5c01	0.30929568
42	0x3e6662ac	0.22498578
43	0x3e9a1eb1	0.3010154
44	0x3d4fd135	0.050736625
45	0x3dbcf254	0.09225908
46	0x3cd9d1b6	0.026589256
47	0x3d39bb3d	0.04534458
48	0xbc9539f1	-0.018216105
49	0xbebba6ea	-0.36650783
50	0x3ec65149	0.3873389
51	0xbd312204	-0.04324533
52	0x3e463ac4	0.19358355
53	0x3e54c4f0	0.2077825
54	0xbd6a293f	-0.05716824
55	0xbef2f470	-0.47452116
56	0xbe0c42af	-0.13697313
57	0xbd686e5d	-0.056745876
58	0xbd0a0dec	-0.033704683
59	0xbe737835	-0.23776324
60	0x3dea15f3	0.11429968
61	0x3d9be322	0.076116815
62	0x3d702c2e	0.058635883
63	0x3d49c849	0.049263272
64	0x3d8b377c	0.06797692
65	0x3d76711d	0.060166467
66	0x3db50ea7	0.08840685
67	0xbc28933f	-0.010289012
68	0x3d3bce53	0.045851063
69	0x3d8ba094	0.06817737
70	0xbddf5c45	-0.10906271
71	0xbdca0f2a	-0.098661736
72	0x3e221d0b	0.15831392
73	0xbc369d46	-0.011145895
74	0xbe03460b	-0.12819688
75	0xbd109f2c	-0.035308048
76	0x3e896d32	0.26841122
77	0xbd2f8fcd	-0.04286175
78	0x3dfae1e7	0.12250119
79	0x3ca16483	0.019701248
80	0xbe85f4a9	-0.26163223
81	0x3d4809ad	0.048837353
82	0x3d512e91	0.0510698
83	0x3e2337ad	0.15939207
84	0x3e4889b0	0.19583774
85	0x3e1eb49c	0.15498585
86	0xbd259a13	-0.04043014
87	0x3dcade99	0.099057384
88	0xbdaf6e68	-0.0856598
89	0xbcaf68d4	-0.02141229
90	0xbd836596	-0.0641586
91	0xbcfe2ef3	-0.031028247
92	0xbec7d45c	-0.39029205
93	0xbe0a27ea	-0.13491789
94	0x3eb7854f	0.35843894
95	0x3e5396a8	0.2066294
96	0x3e17c8a6	0.14822635
97	0xbe6d98bb	-0.23202793
98	0x3e8804ed	0.26566258
99	0xbe5afe64	-0.21386105
100	0x3ecaa2fe	0.39577478
101	0xbe454f48	-0.19268525
102	0x3cb6a740	0.022296548
103	0xbea3b880	-0.319767
104	0x3d8f96a2	0.07011153
105	0xbe1f669c	-0.15566486
106	0xbe4901e4	-0.19629627
107	0xbdf37a6f	-0.11888587
108	0x3d898ef4	0.06716719
109	0x3c50d27e	0.012745498
110	0xbda29909	-0.079393454
111	0xbc30253b	-0.010751064
112	0x3d04ee39	0.03245375
113	0x3d25b945	0.04045989
114	0x3dd21aba	0.10259004
115	0x3d39391a	0.045220472
116	0x3e7ecb57	0.24882255
117	0xbdb83ff2	-0.089965716
118	0x3e20d393	0.15705709
119	0x3baf7d53	0.005355516
120	0x3d774d35	0.060376365
121	0x3e898fbc	0.26867473
122	0x3df03946	0.11729674
123	0x3e6827b7	0.226714
124	0x3c259d88	0.010108359
125	0x3c850235	0.016236404
126	0x3dd88822	0.1057284
127	0xbd3506a5	-0.04419579
128	0xbe55f670	-0.2089479
129	0xbf0ccc71	-0.5499945
130	0x3d7ef321	0.062243585
131	0xbc86c50c	-0.016451381
132	0x3e759907	0.23984157
133	0xbdbd26f3	-0.092359446
134	0x3e80a2e6	0.25124282
135	0x3e5404cc	0.20704955
136	0x3d1b7372	0.037951894
137	0x3b32db16	0.002729123
138	0xbdd67e5f	-0.10473322
139	0xbda5efe5	-0.08102397
140	0xbd80fabe	-0.06297825
141	0xbdd016fb	-0.10160633
142	0x3d1513cb	0.03639583
143	0x3d7511ed	0.05983155
144	0xbda9bd86	-0.08288102
145	0xbe1d30eb	-0.15350692
146	0xbe3ce462	-0.18446496
147	0xbdc0868e	-0.09400664
148	0xbbf1d674	-0.007380301
149	0xbcd1f678	-0.02563022
150	0xbcd133f0	-0.025537461
151	0x3d75ce0b	0.06001095
152	0xbc71b4ce	-0.01475258
153	0x3cd1e13f	0.025620101
154	0x3d6d80b4	0.05798407
155	0x3d16adc5	0.036786813
156	0xbcfee7cd	-0.03111639
157	0xbe937ba5	-0.2880527
158	0x3ce30fc5	0.02771748
159	0xbe3411d3	-0.17584924
160	0xbc0cb367	-0.008587695
161	0x3c6363f4	0.013878811
162	0xbc6ec74d	-0.014573884
163	0xbc9b0e9e	-0.018927868
164	0x3dcfff71	0.101561435
165	0x3e1fa8f3	0.15591793
166	0xbdcbd5e4	-0.09952906
167	0xbe602c20	-0.21891832
168	0xbd6d38a0	-0.05791533
169	0x3d525b93	0.051356863
170	0xbe830e94	-0.2559706
171	0xbdf92273	-0.12164774
172	0x3d391a0a	0.04519085
173	0xbeae1201	-0.3399811
174	0x3e75a005	0.23986824
175	0xbda141ec	-0.07873902
176	0x3e564876	0.20926079
177	0x3e85c376	0.26125687
178	0xbda75f06	-0.08172421
179	0xbe40cf4f	-0.18829082
180	0x3dcf01d0	0.101077676
181	0x3da45cb9	0.08025498
182	0x3de1c278	0.1102342
183	0x3e8268a5	0.25470462
184	0xbea2dbd4	-0.3180834
185	0xbd0fed5b	-0.03513847
186	0xbe8c5f4d	-0.2741646
187	0x3d51fc7f	0.05126619
188	0xbcfc31d8	-0.030785486
189	0x3d9e0ea2	0.07717635
190	0xbd1ca08f	-0.038239058
191	0x3cac4533	0.02102909
192	0x3e243025	0.1603399
193	0x3c7910c9	0.015201756
194	0xbc217146	-0.009853667
195	0x3d541267	0.051775362
196	0xbc831c74	-0.016004778
197	0xbd8c7099	-0.06857414
198	0xbd9cea4e	-0.076618776
199	0x3da48ce4	0.08034685
200	0x3d386e89	0.04502729
201	0xbd071c29	-0.03298584
202	0xbeb6190e	-0.3556599
203	0xbe311f11	-0.17297007
204	0xbe0853e8	-0.13313258
205	0x3cda4732	0.026645277
206	0xbf05f45a	-0.52325976
207	0xbdc361d1	-0.095401414
208	0xbe0942a6	-0.1340433
209	0xbcc128b1	-0.023578973
210	0xbea58935	-0.32331243
211	0xbeb8727b	-0.36024842
212	0xbd62f84e	-0.055412583
213	0xbcbbed89	-0.022940414
214	0x3cc1b278	0.02364467
215	0x3e041567	0.1289879
216	0x3d1d3fc4	0.03839089
217	0x3d81f5ec	0.06345734
218	0x3d975eea	0.0739115
219	0x3e31f761	0.17379524
220	0xbe70df23	-0.2352262
221	0xbe8ceadb	-0.2752293
222	0x3e04365e	0.12911364
223	0xbcf5d89e	-0.030010518
224	0x3e6c386b	0.23068397
225	0x3e88fe35	0.26756445
226	0xbdf9bed0	-0.12194598
227	0xbca057ec	-0.019573174
228	0x3e625985	0.22104461
229	0x3df04e02	0.11733629
230	0xbe0e5bb7	-0.13902174
231	0xbe44333c	-0.1916017
232	0xbe95ce52	-0.29258972
233	0xbf40c8d3	-0.75306433
234	0xbe743be9	-0.23850979
235	0xbef4f881	-0.47845843
236	0x3c8e7246	0.017388474
237	0xbd9a565e	-0.075360045
238	0x3d1a3710	0.037650168
239	0x3da7fe2f	0.082027785
240	0x3e6ec454	0.2331708
241	0x3dbb9f75	0.091612734
242	0xbe97d88e	-0.29657406
243	0xbdb2a0e0	-0.08722091
244	0x3d905afc	0.07048604
245	0x3e51fa1b	0.20505564
246	0xbe4a5965	-0.19760664
247	0x3d709b3d	0.058741797
248	0x3e09c183	0.13452725
249	0x3da6fdac	0.08153853
250	0x3dab0410	0.08350384
251	0xbf24d4da	-0.64387286
252	0xbd5e2c02	-0.054241188
253	0x3d0177e3	0.031608474
254	0xbd703d3a	-0.05865214
255	0x3bc777c1	0.006087274

conv3.bias f4 [64]
0	0x3b02fbf1	0.0019986595
1	0x3eb11a3a	0.34590322
2	0x3e165287	0.14679919
3	0xbecd4530	-0.40091848
4	0x3d2a0cd5	0.041516144
5	0xbcc3b109	-0.023888128
6	0x3dedb798	0.11607283
7	0xbdb34b76	-0.087546274
8	0x3e0901fd	0.13379665
9	0x3e097b2b	0.13425891
10	0xbebd3280	-0.3695259
11	0xbdb7d76a	-0.08976634
12	0x3d249bcb	0.04018764
13	0xbddb067a	-0.10694595
14	0x3dd3a640	0.10334444
15	0x3e1b135d	0.15144105
16	0xbd3c1b9d	-0.04592477
17	0x3d02cd71	0.031934205
18	0x3d317baa	0.043330826
19	0x3d819699	0.06327552
20	0x3e019dda	0.12657872
21	0xbae6b0e9	-0.0017600331
22	0xbeeed34d	-0.46645585
23	0xbe0f79ff	-0.14011382
24	0x3aa9fd21	0.0012969115
25	0xbe2756f9	-0.16341771
26	0x3eb2cc90	0.34921694
27	0x3daecc00	0.08535004
28	0x3e79f57b	0.2441005
29	0x3e13ba0f	0.14426444
30	0x3e047473	0.12935047
31	0x3e54c6ec	0.20779008
32	0xbdab0560	-0.083506346
33	0x3e65e45d	0.22450395
34	0xbd882f8d	-0.066496946
35	0xbe5f898c	-0.21829814
36	0x3cf2a95a	0.029621769
37	0x3e7ffec6	0.24999532
38	0xbe63f34c	-0.22260779
39	0x3d0bd97b	0.034142952
40	0x3dba1fe6	0.090881154
41	0x3e3b27d4	0.18276912
42	0x3cfde1a0	0.030991375
43	0xbe2a69ae	-0.16641876
44	0x3d4bc1f2	0.049745508
45	0xbd11b7a0	-0.03557551
46	0x3d6f6949	0.058450017
47	0x3de2a64a	0.11066873
48	0xbd2ed381	-0.042682175
49	0xbd841862	-0.06449963
50	0x3da5f6a1	0.08103681
51	0xbdc2f749	-0.09519822
52	0x3d6973a7	0.05699506
53	0xbe2d14eb	-0.16902511
54	0x3e05b92f	0.13058923
55	0xbc191fdc	-0.009345975
56	0xbe03e498	-0.1288017
57	0x3cecc55a	0.028902698
58	0xbde29d97	-0.11065214
59	0xbe4d37aa	-0.20040765
60	0x3da1de46	0.079037234
61	0x3bfd9494	0.007738659
62	0xbe1214b7	-0.14265715
63	0xbd328bf6	-0.04359051

conv4.weight f4 [64, 64, 2, 2]
0	0x3d329441	0.043598417
1	0xbe49f97b	-0.19724075
2	0xbdaf8c6b	-0.085717045
3	0xbf10d8b6	-0.56580675
4	0xbe67dd71	-0.22643067
5	0x3e6ffbe1	0.23435928
6	0xbe552cf4	-0.2081793
7	0x3d7a1c87	0.061062362
8	0xbec6c7f9	-0.38824442
9	0x3ded4e45	0.11587194
10	0xbe8f99ba	-0.28046972
11	0xbd317082	-0.043320186
12	0xbddaa847	-0.106766276
13	0xbe448bed	-0.19194002
14	0xbe27ec3b	-0.16398709
15	0xbe3c1141	-0.18365957
16	0x3e0c2d38	0.13689125
17	0x3dc8b565	0.09800223
18	0x3da9f37d	0.08298395
19	0xbea9eeb2	-0.33189923
20	0xbe7a7ff6	-0.24462876
21	0xbeac1554	-0.33610022
22	0xbe042d18	-0.12907827
23	0xbe4899ee	-0.1958997
24	0x3d1a6ad0	0.03769952
25	0xbf11ae80	-0.5690689
26	0x3e07f92f	0.1327865
27	0xbe3052d3	-0.17219095
28	0xbd5bf162	-0.053696997
29	0x3ced3366	0.028955173
30	0x3e3760bc	0.17907995
31	0x3cd911a6	0.026497673
32	0x3e2dbe87	0.16967212
33	0xbe470d71	-0.19438721
34	0x3e997403	0.29971322
35	0x3d0c2bbb	0.034221392
36	0xbe464ab3	-0.19364433
37	0xbe90c5c4	-0.28275883
38	0xbdf1f149	-0.118135996
39	0xbe04a9ff	-0.12955473
40	0xbe0588f8	-0.1304053
41	0x3ccb6d34	0.024832346
42	0xbe867e1c	-0.2626809
43	0xbed5fa70	-0.4179263
44	0xbef6008b	-0.4804729
45	0x3dcba804	0.09944156
46	0xbef4e28a	-0.47829086
47	0xbee524f9	-0.4475477
48	0xbeb8f005	-0.3612062
49	0x3d219d4b	0.039456647
50	0xbdc77379	-0.097388215
51	0xbe85a744	-0.26104176
52	0xbca5278d	-0.02016046
53	0xbd92c163	-0.07165792
54	0x3d43c33a	0.047793604
55	0xbda47c49	-0.08031518
56	0x3e86b7d2	0.2631212
57	0xbcb27c1b	-0.021787694
58	0x3ee560e3	0.4480048
59	0x3e88408f	0.26611754
60	0xbe0db5d8	-0.13838899
61	0xbe4be9d0	-0.19913411
62	0x3e86c01e	0.2631845
63	0xbc58cd6b	-0.013232569
64	0xbdb937fe	-0.09043883
65	0x3d68d0e1	0.056839827
66	0xbead6af9	-0.33870676
67	0xbc8cfe38	-0.017211065
68	0xbe51f00f	-0.20501731
69	0xbd3bbff1	-0.045837346
70	0xbdc1e157	-0.09466808
71	0xbeba0e96	-0.36339253
72	0x3e15c04b	0.14624135
73	0xbe40b987	-0.18820773
74	0x3d65e6e0	0.056128383
75	0x3da7696e	0.08174406
76	0xbec3274f	-0.38115928
77	0xbdef3808	-0.11680609
78	0xbe83bda4	-0.25730622
79	0xbd9adc62	-0.07561566
80	0xbe197927	-0.14987622
81	0x3ebc043f	0.3672199
82	0xbc55b700	-0.013044119
83	0x3debf0cc	0.11520538
84	0xbec2bcf1	-0.38034776
85	0x3ef7d7ee	0.4840693
86	0x3cdbff5f	0.026855169
87	0xbd43ca2f	-0.04780024
88	0x3d33543d	0.043781508
89	0x3d1ffefe	0.03906154
90	0xbea57ad6	-0.3232028
91	0x3da9fbf6	0.08300011
92	0xbce50260	-0.027955234
93	0x3d2fed2a	0.042950787
94	0x3d0b53fb	0.034015637
95	0x3dad4965	0.084612645
96	0xbefb0c18	-0.49032664
97	0xbe0c62a9	-0.13709511
98	0xbe4ad42e	-0.19807503
99	0x3e8486bd	0.25884047
100	0x3d020ca7	0.031750347
101	0x3e90c559	0.28275564
102	0xbe0c0628	-0.13674223
103	0x3e21c3b0	0.15797305
104	0x3de6355c	0.11240646
105	0xbe3f8419	-0.18702735
106	0x3e559e4a	0.20861164
107	0xbdb4b52c	-0.08823618
108	0xbe64333f	-0.22285174
109	0xbf04402d	-0.51660424
110	0xbe1fac04	-0.15592963
111	0xbeb59197	-0.3546264
112	0xbe23dd32	-0.16002348
113	0xbeed32e0	-0.46327877
114	0x3d247a72	0.040155835
115	0xbe6f6102	-0.2337685
116	0xbe1c7417	-0.1527866
117	0xbe81c40e	-0.2534489
118	0xbf07c136	-0.5302919
119	0xbebb3923	-0.3656703
120	0x3d819570	0.06327331
121	0x3e90b763	0.28264913
122	0x3ce69be8	0.028150514
123	0xbe85e044	-0.26147664
124	0xbe1a673b	-0.15078442
125	0x3e562fa4	0.20916611
126	0xbe6ec71e	-0.23318145
127	0x3dbd1c06	0.09233861
128	0xbe33a451	-0.1754315
129	0xbde1b5ec	-0.11021027
130	0xbe5dce6c	-0.21660775
131	0xbe3294e7	-0.17439614
132	0x3d918698	0.0710575
133	0xbeb53d45	-0.35398307
134	0x3ccb4fa9	0.024818258
135	0x3e2cbf9f	0.16869973
136	0x3da2b967	0.07945519
137	0xbe10a1c4	-0.14124209
138	0xbe63728a	-0.22211662
139	0x3e4acc36	0.19804463
140	0xbe10d4e5	-0.14143713
141	0x3d35a0f8	0.044342965
142	0xbdddd0ee	-0.10830866
143	0x3c786ab2	0.015162157
144	0xbd24dac8	-0.04024771
145	0xbd70703c	-0.058700785
146	0x3e343a7c	0.17600435
147	0x3e0de64f	0.13857387
148	0x3dbef966	0.09324913
149	0x3d3263ae	0.043552093
150	0x3e19c59d	0.1501679
151	0x3d206951	0.039162938
152	0xbe2b3ea0	-0.16723108
153	0x3cf9c266	0.030488204
154	0xbf009e8d	-0.5024193
155	0xbf043e05	-0.51657134
156	0xbea55892	-0.32294136
157	0x3e07ec47	0.13273726
158	0xbe97fe8e	-0.29686397
159	0xbde3c99c	-0.11122438
160	0xbe22ffc6	-0.15917882
161	0x3e4ef7e9	0.20211758
162	0xbe4ab0a4	-0.19793946
163	0x3e9fcde3	0.31211767
164	0xbe5d7446	-0.21626386
165	0xbc8f50b1	-0.017494531
166	0xbd2b4154	-0.04181035
167	0xbdc4e154	-0.096132904
168	0x3e1454d6	0.14485487
169	0xbe133d4b	-0.1437885
170	0xbdfb13b7	-0.1225962
171	0xbe8a224c	-0.2697929
172	0xbd7e0ba2	-0.062022813
173	0xbd4c93e5	-0.04994573
174	0xbd08d02a	-0.033401646
175	0x3aff27e8	0.0019466849
176	0x3dc76b1d	0.09737227
177	0x3db60280	0.088871956
178	0xbc3ddca5	-0.01158825
179	0x3eb1d995	0.34736314
180	0xbe087281	-0.1332493
181	0x3cb63b71	0.02224514
182	0xbec0f500	-0.3768692
183	0xbe0837f4	-0.13302594
184	0xbc6ff7a2	-0.014646443
185	0xbecd4686	-0.40092868
186	0x3e7ab00d	0.2448122
187	0xbec6107f	-0.3868446
188	0x3dd41782	0.10356046
189	0xbf10eb42	-0.56608975
190	0x3e3b6e8b	0.18303888
191	0xbdb5c376	-0.08875172
192	0xbe957176	-0.29188126
193	0x3e76b595	0.24092706
194	0xbe34e302	-0.17664722
195	0x3db9ede7	0.090785794
196	0xbd6d4e51	-0.057936016
197	0xbe6e5fe3	-0.23278765
198	0x3eb79c81	0.3586159
199	0xbe0d4194	-0.13794547
200	0x3e29b57a	0.16573134
201	0xbe237b56	-0.15965018
202	0x3ec0bb98	0.37643123
203	0x3df8198c	0.12114248
204	0xbdad3994	-0.08458248
205	0x3d1a25a3	0.03763355
206	0x3d0eb173	0.034837198
207	0x3d8e31ec	0.069431156
208	0x3dfcee02	0.12350084
209	0x3ccc2275	0.024918774
210	0x3e81fac7	0.2538664
211	0x3e7afc28	0.24510252
212	0x3e3d84e9	0.18507732
213	0xbed0815f	-0.40723702
214	0xbd79d02a	-0.060989536
215	0xbdf7db13	-0.12102332
216	0x3ea369bd	0.3191661
217	0xbe6fb25e	-0.23407885
218	0x3eab1ab4	0.3341881
219	0x3eab6d8e	0.3348202
220	0xbe96dd7a	-0.29465848
221	0xbe6b59dd	-0.22983499
222	0xbdde738f	-0.10861885
223	0x3cab0833	0.020877933
224	0x3e17cf7a	0.1482524
225	0x3e49b897	0.19699322
226	0xbdf7ccb7	-0.12099593
227	0x3eb1db00	0.34737396
228	0xbe880025	-0.2656261
229	0x3e30b4fd	0.17256542
230	0xbed99cd6	-0.4250247
231	0xbdd0c30e	-0.10193454
232	0xbe08516b	-0.13312308
233	0x3e1a3a25	0.15061243
234	0x3dcec38c	0.10095891
235	0xbeadd3af	-0.33950564
236	0xbdc21c5f	-0.094780676
237	0xbdc6a9b8	-0.0970034
238	0x3c374e1d	0.011188057
239	0x3c0fce72	0.008777248
240	0x3d3d7ff3	0.0462646
241	0xbe85ae0a	-0.26109344
242	0x3ead85c0	0.33891106
243	0xbec08adb	-0.37605938
244	0x3d09ee88	0.033674747
245	0xbebfdc8f	-0.3747296
246	0x3e4c6073	0.19958667
247	0x3b18d42d	0.0023319826
248	0xbe7f8346	-0.2495242
249	0x3e018e02	0.12651828
250	0xbdbcf047	-0.09225517
251	0xbe3989b9	-0.18118943
252	0xbe3dc0ef	-0.1853063
253	0x3e0d22a4	0.13782746
254	0xbe582633	-0.21108322
255	0x3de3dc8e	0.11126052

conv4.bias f4 [64]
0	0xbd9d9d01	-0.07695962
1	0xbda463c7	-0.080268435
2	0xbbade66d	-0.00530701
3	0xbdd1081f	-0.10206627
4	0x3da9cd9c	0.0829117
5	0x3e0c6519	0.1371044
6	0x3b8822d5	0.004154543
7	0xbd681140	-0.056657076
8	0xbe0e1004	-0.13873297
9	0x3e5e3f36	0.217038
10	0xbdc6c19c	-0.09704897
11	0xbce2833b	-0.027650466
12	0x3dfb691e	0.12275909
13	0x3e96d482	0.29459006
14	0x3df255cb	0.1183277
15	0x3e2da956	0.16959128
16	0x3c20ae77	0.009807221
17	0xbe0e34a2	-0.13887265
18	0x3e2705e5	0.16310842
19	0x3d2de62c	0.042455837
20	0x3ebd7ebc	0.37010753
21	0x3db4198a	0.08793934
22	0xbea1dca5	-0.3161365
23	0xbd449905	-0.047997493
24	0xbdbb44be	-0.09143971
25	0x3e3d1bba	0.18467608
26	0xbd3ffeb0	-0.04687375
27	0x3ea2107a	0.31653196
28	0x3db8ed10	0.09029591
29	0x3dfd7b0a	0.123769835
30	0xbe19e1b5	-0.15027507
31	0x3db01d52	0.085993424
32	0x3e82c0c5	0.25537696
33	0x3e0f7dc9	0.14012827
34	0xbde59ad2	-0.1121117
35	0xbe0cc4c1	-0.1374693
36	0xbd91ec84	-0.0712519
37	0xbe666491	-0.224993
38	0xbe98b36f	-0.29824397
39	0xbe777521	-0.24165775
40	0x3d68fe54	0.05688317
41	0xbe99f817	-0.3007209
42	0x3c5cc3f2	0.013474451
43	0x3d9a9cd9	0.075494476
44	0x3dd38991	0.10328973
45	0xbd8ff7fa	-0.0702972
46	0x3dd75f15	0.10516182
47	0xbe14e331	-0.14539792
48	0x3e23928e	0.15973875
49	0xbe3a764b	-0.18209188
50	0xbdc2986a	-0.09501727
51	0x3a2ef5c4	0.0006674195
52	0x3e2fd762	0.17172006
53	0x3e89a1dc	0.268813
54	0x3e8a8920	0.27057743
55	0xbdd42308	-0.10358244
56	0xbccf7650	-0.02532497
57	0x3c83e1ae	0.016098823
58	0xbd8305be	-0.063975796
59	0xbdcb0e49	-0.09914834
60	0x3e092e16	0.13396487
61	0x3e3abc9a	0.18236008
62	0xbdd85ce2	-0.10564591
63	0xbd935dc9	-0.071956225

conv5.weight f4 [128, 64, 2, 2]
0	0xbd190d67	-0.037366297
1	0xbe3bfd0c	-0.18358248
2	0xbe026c75	-0.12736686
3	0xbe5dbcf4	-0.21654111
4	0x3caac8ea	0.020847756
5	0xbd51d8e0	-0.05123222
6	0x3cd98828	0.026554182
7	0xbdad3083	-0.084565185
8	0x3e2d7b90	0.16941667
9	0x3ca033de	0.019555982
10	0x3e429615	0.19002564
11	0xbe5e6c4a	-0.21720996
12	0xbe550013	-0.2080081
13	0x3cd24e41	0.02567208
14	0xbe62f4c3	-0.22163682
15	0xbe129c23	-0.14317374
16	0xbede434f	-0.43410727
17	0xbf0baa30	-0.5455656
18	0xbe14a0cc	-0.14514464
19	0xbe9a20b2	-0.3010307
20	0xbeadc851	-0.33941892
21	0x3d10a3f9	0.035312627
22	0xbdffcd15	-0.12490288
23	0xbe2debf0	-0.16984534
24	0xbe205a7c	-0.15659517
25	0x3cc69a4f	0.024243502
26	0x3d8e7865	0.06956557
27	0x3d2fa4ed	0.042881895
28	0xbe811964	-0.25214684
29	0xbe777784	-0.24166685
30	0xbe4f4778	-0.20242107
31	0xbd13c69e	-0.036078088
32	0xbd6fb31d	-0.058520425
33	0xbede19de	-0.4337911
34	0xbd1a4c95	-0.03767069
35	0xbdbbe615	-0.09174744
36	0x3e18fc4d	0.14939995
37	0xbd17ff4b	-0.0371087
38	0x3e8b56e8	0.27214742
39	0xbd5c3888	-0.05376485
40	0xbe2cb20c	-0.16864794
41	0xbea16828	-0.31524777
42	0x3d13d74e	0.036094002
43	0x3e052b75	0.13004859
44	0xbed2f0b2	-0.4119926
45	0xbd80797f	-0.062731735
46	0x3d0da945	0.034585256
47	0x3e96b7ab	0.29437003
48	0xbe613104	-0.21991354
49	0xbf4b6fbd	-0.79467374
50	0xbd4b7a44	-0.04967715
51	0xbe0eb69b	-0.13936846
52	0xbe885192	-0.26624733
53	0xbc2ccc42	-0.010546746
54	0xbe541efb	-0.20714943
55	0x3d71761a	0.05895052
56	0xbcec4a79	-0.028844105
57	0xbe358c98	-0.17729414
58	0xbec76e8e	-0.38951534
59	0x3e60040d	0.21876545
60	0xbe995804	-0.29949963
61	0x3dd31287	0.10306268
62	0x3d9d0297	0.076665096
63	0xbca0cf93	-0.01963023
64	0x3e86b853	0.26312503
65	0x3e651b96	0.22373804
66	0xbeebb63c	-0.4603747
67	0xbe9f169a	-0.3107193
68	0xbb498ee4	-0.0030755335
69	0x3c581816	0.013189336
70	0x3c6f108d	0.014591348
71	0x3d6b6fe6	0.05747976
72	0x3d324638	0.043523997
73	0x3e87e07a	0.2653845
74	0xbea02ddf	-0.31284997
75	0xbe3339c3	-0.17502503
76	0x3ded4e41	0.115871914
77	0xbe2050bb	-0.15655796
78	0x3d3c8467	0.046024706
79	0x3e4e6b38	0.20158088
80	0x3dec6dbf	0.1154437
81	0xbb36dac6	-0.0027901395
82	0x3df45396	0.11930005
83	0x3d253a0c	0.04033856
84	0xbd126be4	-0.035747424
85	0xbdcc0a67	-0.099629216
86	0xbcae1116	-0.021248382
87	0x3dfbed09	0.1230107
88	0xbeab80c5	-0.3349668
89	0x3d36072b	0.04444043
90	0xbc13af39	-0.009013944
91	0x3ea91c8d	0.33029595
92	0xbec91218	-0.39271617
93	0xbe900095	-0.28125444
94	0x3da8c062	0.08239819
95	0xbc063eae	-0.008193655
96	0xbd957e59	-0.072994895
97	0xbd030121	-0.0319835
98	0xbd9b9f6d	-0.075987674
99	0xbda9e74f	-0.08296072
100	0xbe1f018d	-0.15527935
101	0xbe5a3b13	-0.21311598
102	0x3eac439e	0.33645338
103	0x3e20958f	0.15682052
104	0xbc02860e	-0.007966531
105	0xbd7e166c	-0.062033102
106	0x3e65b7d2	0.22433403
107	0xbf03a97d	-0.51430494
108	0x3ef56d88	0.47935128
109	0xbd2b6ddb	-0.041852813
110	0x3e83c829	0.25738648
111	0x3e27dbb0	0.16392398
112	0x3e1f5c51	0.1556256
113	0x3ccaa092	0.024734769
114	0x3f26b582	0.6512071
115	0xbd56c1bb	-0.05243085
116	0x3e48158d	0.19539471
117	0x3e870eda	0.26378518
118	0x3ebc8850	0.36822748
119	0x3e9f9d94	0.3117491
120	0xbd342615	-0.04398163
121	0x3d0f7068	0.03501931
122	0xbd050aeb	-0.032481115
123	0xbe4625f0	-0.1935041
124	0x3e619018	0.22027624
125	0xbe3c198a	-0.18369117
126	0x3e5e1543	0.21687798
127	0xbeb7debf	-0.3591213
128	0xbddb6c01	-0.107139595
129	0xbd7f6b6f	-0.062358316
130	0xbdaa96ef	-0.083295695
131	0xbda5d222	-0.0809672
132	0xbe883dff	-0.266098
133	0xbbe73614	-0.007056007
134	0xbd872982	-0.06599714
135	0xbd1619a0	-0.03664553
136	0x3ed3d629	0.4137433
137	0x3f17e1bd	0.59328824
138	0x3e4c91d9	0.19977511
139	0x3eee75b1	0.46574166
140	0xbe40b77b	-0.18819992
141	0x3e8c9068	0.27453923
142	0xbea05f5b	-0.3132275
143	0xbc81e102	-0.015854362
144	0x3d253ba0	0.040340066
145	0x3d8aba87	0.067738585
146	0x3cdc869f	0.026919661
147	0xbe8da5a6	-0.27665442
148	0xbeb6ff39	-0.35741594
149	0xbe8f6df5	-0.28013578
150	0xbe251fb8	-0.16125381
151	0x3e98a324	0.29811966
152	0xbcebb299	-0.028771685
153	0x3ec423a5	0.38308445
154	0xbde2745d	-0.11057351
155	0xbe7552a6	-0.23957309
156	0xbe4024e3	-0.18764071
157	0xbe32c084	-0.17456251
158	0xbefbf90f	-0.49213454
159	0xbe82c473	-0.25540504
160	0xbdb1e76e	-0.0868672
161	0xbe941359	-0.2892101
162	0x3e7a4a19	0.24442329
163	0xbd5e75a1	-0.0543114
164	0xbebcd603	-0.36882028
165	0xbe79f330	-0.24409175
166	0xbe555624	-0.20833641
167	0xbe97df6f	-0.29662654
168	0xbd3f91c1	-0.04676986
169	0x3db8e6a7	0.090283684
170	0xbe454894	-0.19265968
171	0xbecffa4b	-0.40620646
172	0x3da50026	0.08056669
173	0x3e1048c8	0.14090264
174	0x3df6a531	0.120432265
175	0x3ec2ecfb	0.38071427
176	0xbd8dc77c	-0.06922814
177	0xbe6aac5c	-0.22917312
178	0xba1a0b06	-0.00058762764
179	0xbe60652e	-0.21913597
180	0x3d2edbe7	0.042690184
181	0x3e00cc89	0.12578024
182	0xbe647b1f	-0.22312592
183	0xbdc8fd7c	-0.09813973
184	0xbee0b7ab	-0.43890128
185	0xbcb7bac9	-0.022427933
186	0xbee8d7db	-0.45477185
187	0xbea51ec3	-0.32250032
188	0x3e2ee870	0.17080855
189	0xbdbfd9e2	-0.0936773
190	0xbe93a5ca	-0.28837425
191	0xbeb4caee	-0.35311073
192	0xbe07a23e	-0.13245484
193	0xbccc7f34	-0.024962999
194	0xbe1a1c5a	-0.15049878
195	0xbd4d0ef6	-0.050063096
196	0x3e1d8c0b	0.15385453
197	0xbf3bf5cf	-0.7342195
198	0xbe91a610	-0.28447008
199	0xbf1e5875	-0.61853725
200	0xbe4cd73f	-0.20003985
201	0x3d9d9c78	0.0769586
202	0xbd9d34f2	-0.07676114
203	0xbe847985	-0.25873962
204	0x3e36b020	0.17840624
205	0x3d99934c	0.07498798
206	0x3e5c01c3	0.21485047
207	0xbe8a07df	-0.2695913
208	0x3d8c88dc	0.06862041
209	0xbe735244	-0.2376185
210	0xbe563c66	-0.20921478
211	0xbe93675d	-0.28789797
212	0x3e90a11f	0.28247926
213	0x3ed9993d	0.42499724
214	0x3d52e73d	0.051490057
215	0xbe5a3771	-0.21310212
216	0x3e57c384	0.21070677
217	0xbe8e3de4	-0.27781594
218	0xbe2e1fd0	-0.17004323
219	0xbeacb8fc	-0.33734882
220	0xbea7ec0e	-0.32797283
221	0xbee82104	-0.4533769
222	0x3e3e6fc3	0.18597321
223	0xbe6f4b78	-0.23368633
224	0x3d848dd4	0.06472364
225	0xbe04d986	-0.12973604
226	0x3e13221c	0.1436848
227	0x3d6cd67f	0.057821747
228	0x3d852a77	0.0650224
229	0x3e10d5d8	0.14144075
230	0xbece1603	-0.4025117
231	0xbe2e008e	-0.16992399
232	0x3ccb4b36	0.024816137
233	0x3e9953a2	0.2994662
234	0xbe68a6d4	-0.2271989
235	0x3e9a9fd0	0.30200052
236	0xbe6b320d	-0.22968312
237	0xbe000c7d	-0.12504764
238	0xbdc3a7a7	-0.095534615
239	0x3d96eafa	0.07369037
240	0xbdb96388	-0.09052187
241	0x3dceaab0	0.1009115
242	0x3dd96fbe	0.10617016
243	0x3f6a2dbd	0.9147604
244	0xbeafad35	-0.34311834
245	0xbe4c0c11	-0.19926478
246	0xbd6c367c	-0.057669148
247	0xbed53009	-0.4163821
248	0x3e0bd54e	0.13655588
249	0x3dc8016f	0.097658984
250	0xbccec2cc	-0.02523937
251	0xbe14a5f2	-0.14516428
252	0xbd64db39	-0.05587313
253	0xbc67617b	-0.014122362
254	0x3a70fa8a	0.00091926067
255	0x3c71fd0e	0.014769806

conv5.bias f4 [128]
0	0x3e685d5f	0.22691868
1	0x3d05add2	0.03263647
2	0x3e602124	0.21887642
3	0x3e3d2f71	0.18475129
4	0xbdc44ec3	-0.09585335
5	0x3ded3e1e	0.115841135
6	0x3e4e6b09	0.20158018
7	0x3db1d640	0.08683443
8	0x3e4c054e	0.19923899
9	0xbe9e2968	-0.30890965
10	0x3e08981b	0.13339274
11	0x3d36001e	0.044433706
12	0xbe834221	-0.2563639
13	0xbe497982	-0.19675258
14	0xbdf2a9d6	-0.118488
15	0x3d6fedfb	0.058576565
16	0xbe85e831	-0.2615371
17	0x3e20c928	0.15701735
18	0x3df1dc3e	0.11809586
19	0xbddd087b	-0.10792633
20	0x3df9c363	0.1219547
21	0x3ccc57e1	0.024944248
22	0xbca4e9bf	-0.02013099
23	0x3cc35859	0.023845838
24	0x3eccd0be	0.40003008
25	0x3e2f1e30	0.1710136
26	0x3df64ce6	0.12026386
27	0xbee83336	-0.4535157
28	0xbdf461ef	-0.11932742
29	0xbe261882	-0.16220286
30	0xbc6acbea	-0.014330843
31	0xbc4716f1	-0.012151466
32	0x3be7de19	0.0070760367
33	0xbe6d33f4	-0.2316435
34	0x3e213a43	0.15744881
35	0x3e4c7cd6	0.19969496
36	0x3d325024	0.04353346
37	0x3dccb36e	0.09995161
38	0xbcf602b8	-0.030030593
39	0xbcc400fb	-0.023926249
40	0x3d723578	0.059133023
41	0x3d47cfcc	0.048782155
42	0x3db56f53	0.08859124
43	0x3da1349a	0.07871361
44	0x3c524562	0.012833925
45	0x3e2c4d8a	0.16826454
46	0xbd381ba3	-0.04494823
47	0x3e60e149	0.2196094
48	0x3e02edbe	0.12786004
49	0x3e037761	0.12838508
50	0xbe0a21af	-0.13489412
51	0xbe884eba	-0.26622564
52	0xbecd5f2f	-0.40111682
53	0xbe8599b5	-0.26093832
54	0x3d8c47fe	0.06849669
55	0x3e43a82b	0.1910712
56	0x3d2dee83	0.04246379
57	0x3e3a392d	0.18185873
58	0xbe27e9c9	-0.16397776
59	0x3d49a2dd	0.049227584
60	0xbd49a01f	-0.04922497
61	0x3e664423	0.2248693
62	0x3e373346	0.17890653
63	0x3e4c2e0e	0.19939443
64	0xbe1de80e	-0.15420553
65	0x3e819146	0.25306147
66	0xbdc60c1c	-0.096702784
67	0x3e6bdaca	0.2303268
68	0xbd811368	-0.063025296
69	0x3c8408f5	0.016117552
70	0xbc21e71d	-0.009881762
71	0xbcb1008b	-0.021606704
72	0x3d8aa762	0.06770207
73	0xbe2c192b	-0.16806476
74	0xbdd08fb7	-0.101836614
75	0xbe5734a2	-0.21016172
76	0x3c7e46db	0.015519823
77	0xbe8e553d	-0.27799407
78	0xbe420769	-0.18948139
79	0x3d0bf554	0.03416951
80	0x3e05770b	0.13033693
81	0xbd3c218c	-0.04593043
82	0x3c1fbd1c	0.009749677
83	0xbda3ba34	-0.079945
84	0xbac9738b	-0.0015369517
85	0xbc082541	-0.008309663
86	0xbdaea448	-0.08527428
87	0x3dd0e897	0.10200613
88	0xbeb0d59c	-0.3453797
89	0x3e8f504e	0.27990955
90	0x3e0ab5ff	0.13545989
91	0xbc33a538	-0.010964684
92	0xbe0b41f4	-0.13599378
93	0xbd816f24	-0.063200265
94	0xbe02c1fb	-0.1276931
95	0x3cb5f82d	0.022213066
96	0x3e861e19	0.26194838
97	0x3d806b54	0.06270471
98	0xbe0e2619	-0.1388172
99	0x3e9c148e	0.30484432
100	0xbe06f245	-0.13178356
101	0xbe0c2ffe	-0.13690183
102	0x3e0b3ddd	0.13597818
103	0xbd077726	-0.033072613
104	0xbe029ebf	-0.1275587
105	0xbd9f32cb	-0.0777336
106	0x3e450089	0.19238485
107	0xbe2df140	-0.16986561
108	0x3e1417ec	0.1446225
109	0x3e2fdb79	0.17173566
110	0x3e84d5be	0.25944322
111	0xbdc2dd3a	-0.09514852
112	0x3e5f314e	0.21796152
113	0x3d1ce9c4	0.038308874
114	0x3d8311c0	0.0639987
115	0xbcc47e5c	-0.023986034
116	0xbe3b8531	-0.18312527
117	0x3d6944c0	0.05695033
118	0xbee7234a	-0.4514411
119	0x3e3855ab	0.1800143
120	0x3e70d862	0.23520043
121	0x3ccc4966	0.024937343
122	0x3c8f8b14	0.017522372
123	0x3ca025f7	0.019549353
124	0x3df9d754	0.12199274
125	0xbda4937f	-0.08035945
126	0xbe2f7e74	-0.17138082
127	0xbe37e456	-0.17958197

conv6.weight f4 [64, 128, 2, 2]
0	0xbd07037c	-0.032962307
1	0xbca008a8	-0.019535378
2	0xbf196f16	-0.5993513
3	0xbef34c36	-0.47519082
4	0xbe5be5d3	-0.2147439
5	0xbe96e7be	-0.2947368
6	0xbeb3ebbd	-0.35140792
7	0xbe990e80	-0.29893875
8	0xbe040042	-0.12890723
9	0xbed0ad49	-0.40757206
10	0xbe77dab5	-0.24204524
11	0x3e498538	0.19679725
12	0x3e52cebe	0.20586678
13	0xbd07ce70	-0.03315586
14	0xbc8d30cd	-0.017235184
15	0xbdcaf2dd	-0.09909604
16	0xbde5850c	-0.11207017
17	0x3d96c87b	0.07362457
18	0x3e0aebd2	0.13566521
19	0x3e7683aa	0.24073663
20	0x3d9bb65b	0.07603141
21	0x3e17867c	0.14797395
22	0x3ec06faa	0.37585193
23	0x3e9e2161	0.3088484
24	0xbd408369	-0.047000322
25	0x3e262221	0.16223957
26	0x3d77846d	0.060429025
27	0xbed27e90	-0.41112185
28	0x3e65cda6	0.2244173
29	0xbcdfbff8	-0.027313218
30	0xbe2a9756	-0.16659293
31	0x3d95df5f	0.07317995
32	0xbe523a19	-0.20529975
33	0xbe0b9198	-0.13629758
34	0xbd98efd0	-0.074676156
35	0xbd928b3d	-0.07155464
36	0xbeb4ece2	-0.35336977
37	0xbe727fb5	-0.23681529
38	0x3b101e1b	0.00219906
39	0xbe264e3c	-0.16240782
40	0x3d8784e6	0.06617145
41	0xbca2441e	-0.019807871
42	0x3e142fea	0.14471403
43	0x3d7280d6	0.0592049
44	0x39c3c52f	0.00037340212
45	0xbe312f78	-0.17303264
46	0xbe9291cc	-0.2862686
47	0xbeba6614	-0.36406004
48	0xbe684a4e	-0.22684595
49	0xbeeb3a30	-0.4594283
50	0x3e289237	0.16462027
51	0xbc5da701	-0.013528586
52	0xbe8a690d	-0.27033272
53	0x3d934473	0.0719079
54	0x3d8f2cb7	0.069909506
55	0xbe270fc4	-0.16314608
56	0xbe80eb14	-0.2517935
57	0xbeb7bd10	-0.3588643
58	0x3e3c99cf	0.18418048
59	0xbdbf65a6	-0.0934556
60	0xbc09517f	-0.008381247
61	0x3dae9c36	0.085258886
62	0xbca7e82b	-0.020496449
63	0xbdbf2f5f	-0.09335207
64	0xbcac64e1	-0.021044197
65	0x3d86027a	0.06543441
66	0x3c1295df	0.008946865
67	0x3ddb5a5e	0.107105955
68	0x3d4c0732	0.04981155
69	0x3d47d6eb	0.048788946
70	0x3ee7434a	0.45168525
71	0x3ee0736f	0.4383807
72	0x3cc5b165	0.02413244
73	0x3d94b22e	0.072605476
74	0x3e441b88	0.19151127
75	0x3e60b932	0.21945646
76	0xbca7fe57	-0.02050702
77	0x3c91a5c7	0.017779244
78	0xbccde9d3	-0.02513591
79	0x3cd0b8ba	0.02547871
80	0x3df306b9	0.118665166
81	0x3d1ba4b0	0.037998855
82	0x3d576e21	0.05259526
83	0xbeb2a612	-0.34892327
84	0xbdd770a3	-0.105195306
85	0x3e4ddad9	0.20103015
86	0x3e61a6fc	0.22036356
87	0x3e83146a	0.25601512
88	0x3dd2649d	0.10273097
89	0xbed2f135	-0.4119965
90	0xbe5abe00	-0.21361542
91	0xbf1fcce9	-0.62422043
92	0xbe7b5635	-0.24544604
93	0xbe49dc27	-0.19712888
94	0xbf270b40	-0.6525154
95	0xbf4b547a	-0.79425776
96	0xbd558736	-0.0521309
97	0xbedf6883	-0.43634424
98	0xbf220304	-0.6328585
99	0xbec71078	-0.38879752
100	0xba1fe67e	-0.00060997147
101	0xbee03f56	-0.4379832
102	0xbeab5566	-0.3346359
103	0xbf5b7d7a	-0.8573834
104	0xbe5b26d5	-0.21401532
105	0xbeaeeb54	-0.34163916
106	0x3d9bb8f4	0.076036364
107	0xbdc50c05	-0.09621433
108	0x3cfeaf48	0.03108944
109	0xbe031ec4	-0.12804705
110	0x3d63c574	0.055608228
111	0x3e72b9c7	0.23703681
112	0xbe031f29	-0.12804855
113	0xbd68201a	-0.05667124
114	0x3d8443d7	0.06458252
115	0xbd7c8fae	-0.06166046
116	0xbcc02346	-0.02345432
117	0xbcbbc798	-0.022922322
118	0xbd8133fe	-0.06308745
119	0xbcf2d0d1	-0.029640587
120	0xbdf41126	-0.11917333
121	0x3e818064	0.25293267
122	0x3d379afd	0.044825543
123	0xbe81af0c	-0.25328863
124	0xbe2f58cd	-0.17123719
125	0xbd1e88e8	-0.038704783
126	0xbc08680a	-0.008325586
127	0xbcbae751	-0.022815378
128	0x3e793ce6	0.24339637
129	0x3e04cf55	0.12969716
130	0xbdca5730	-0.09879911
131	0x3e6bddf2	0.23033884
132	0x3cc9cd1b	0.024633935
133	0xbd4c3fcf	-0.04986554
134	0xbda06d19	-0.07833309
135	0xbd8a6b99	-0.06758804
136	0x3e8fb50e	0.2806782
137	0x3d0c3dfe	0.034238808
138	0xbe605179	-0.2190608
139	0xbc455b68	-0.012045719
140	0xbdf3da4b	-0.119068705
141	0xbe06b1be	-0.13153741
142	0x3d0b589d	0.034020055
143	0x3d3526ae	0.04422634
144	0x3e858ec1	0.26085475
145	0x3ea5aeb4	0.3235985
146	0x3d88a8a4	0.06672791
147	0x3ec77805	0.38958755
148	0x3de772f8	0.113012254
149	0x3ea20b8e	0.3164944
150	0x3e4ebcdd	0.20189233
151	0x3dbd0f8b	0.0923148
152	0x3d2d9b1b	0.04238425
153	0xbeab3a7e	-0.33443063
154	0x3dc7f4c1	0.0976348
155	0xbf03ab8e	-0.51433647
156	0xbe36a800	-0.17837524
157	0xbe1ee6c4	-0.15517718
158	0xbcf44f6f	-0.029823033
159	0x3e883c51	0.26608518
160	0x3e04d3d6	0.12971434
161	0xbec605d3	-0.3867632
162	0x3d466122	0.048432477
163	0x3c42888e	0.0118733775
164	0x3e0a642c	0.13514775
165	0xbdc9d141	-0.09854365
166	0x3d484a35	0.048898894
167	0x3db7b89a	0.08970757
168	0x3e3d4777	0.18484293
169	0xbe493317	-0.19648395
170	0xbe57eb87	-0.2108594
171	0xbf02fbd1	-0.5116549
172	0xbe98c599	-0.29838255
173	0x3d853a26	0.065052316
174	0x3ea90523	0.33011732
175	0x3e490eb1	0.1963451
176	0x3e1537b2	0.14572027
177	0x3d0afe20	0.03393376
178	0x3e78815b	0.24268095
179	0x3e679edf	0.22619198
180	0xbeada01d	-0.3391122
181	0xbebb7306	-0.36611193
182	0xbe8a5488	-0.27017617
183	0x3e44a7c7	0.19204627
184	0x3e5d2f83	0.21600156
185	0xbd8bfdf1	-0.06835545
186	0x3e93859d	0.28812876
187	0x3e13feb2	0.14452627
188	0xbe480027	-0.19531308
189	0xbc23ccd1	-0.0099975625
190	0xbe26b6ed	-0.16280718
191	0xbe0a0ef0	-0.1348226
192	0xbe2a23b0	-0.16615176
193	0xbf1a90ff	-0.60377496
194	0xbdc3cbb8	-0.09560341
195	0xbe9048c4	-0.28180516
196	0xbe2d57b0	-0.16927981
197	0x3e56e21a	0.20984688
198	0x3e968db9	0.29405
199	0xbeaf347b	-0.34219727
200	0xbe74f755	-0.23922475
201	0xbdc1e3bd	-0.09467266
202	0x3d5fb81b	0.054618936
203	0xbe19d89e	-0.15024039
204	0x3e817a37	0.25288555
205	0xbc9b895f	-0.018986402
206	0x3e00e19b	0.12586062
207	0x3e8278a9	0.2548268
208	0x3ea77e7b	0.32713684
209	0x3d58c44e	0.052921586
210	0x3defc5c7	0.11707645
211	0xbdb90f2f	-0.09036099
212	0x3e77ac74	0.2418688
213	0x3e7c2014	0.24621612
214	0x3d429ba2	0.047511704
215	0x3db3aaba	0.08772798
216	0xbd113d30	-0.035458744
217	0x3e4949c9	0.19657053
218	0x3ec63ef6	0.3871991
219	0x3e2fdd1d	0.17174192
220	0xbe2d9010	-0.16949487
221	0xbe71ac34	-0.23600847
222	0xbd8c01a7	-0.06836253
223	0xbdad3744	-0.08457807
224	0xbd6f4e46	-0.058424257
225	0xbd776b0d	-0.060404826
226	0x3eab1405	0.3341371
227	0x3dc6afdb	0.097015105
228	0x3ca02e4f	0.019553332
229	0x3ccc478a	0.024936456
230	0x3e8a52a7	0.27016184
231	0x3caaf649	0.020869391
232	0x3b2f4a9b	0.002674735
233	0xbc8c7d09	-0.017149465
234	0xbcac2483	-0.021013504
235	0x3d03ab89	0.03214601
236	0x3e2ab717	0.16671406
237	0x3e2783d8	0.16358888
238	0xbe6b6b32	-0.2299011
239	0xbe6a9458	-0.22908151
240	0x3dba2153	0.09088387
241	0x3c0e1d57	0.008673987
242	0xbe40ca7a	-0.18827239
243	0x3e816dea	0.2527917
244	0x3e9e3daa	0.3090642
245	0x3e24778e	0.16061231
246	0xbdf590f2	-0.11990537
247	0x3d0405d1	0.03223211
248	0xbb8c8775	-0.0042886087
249	0x3e1cdb86	0.15318117
250	0xbe25612d	-0.16150351
251	0x3de6c433	0.11267891
252	0x3e6beb9c	0.23039097
253	0x3dcefb61	0.101065405
254	0xbe711b00	-0.23545456
255	0xbdd3a837	-0.10334819
