model/model_3.pth (torch_old, 571877 bytes, 24 tensors)

conv1.weight f4 [32, 3, 2, 2]
-0.016558878 -0.10200712 -0.11010397 0.29620415 -0.4445302 0.21676247 -0.05446594 0.37031284
-0.23563482 -0.122753866 -0.00014165099 0.12319326 0.1622033 -0.18077196 0.11826656 -0.015076746
0.07212938 -0.09256644 0.35092956 0.051134676 -0.10840569 -0.26558998 0.016787665 -0.1719408
-0.18629882 0.012545207 0.07799459 0.18014644 -0.3037685 0.22840463 0.046794157 0.34324938
0.1322948 -0.225276 -0.34920293 -0.08698905 0.3633065 -0.06809881 0.03882475 -0.30319104
0.38527986 -0.18854776 0.1825331 -0.15677702 -0.048874244 0.07682158 -0.20311803 -0.10960533
-0.17945111 -0.101534314 -0.3814245 -0.19461171 0.17756368 -0.057021584 0.29506207 0.2609171
-0.008306812 -0.21996939 0.16833892 0.07514818 -0.20582004 0.12358314 0.21872984 0.25176376
-0.21111996 -0.12298406 0.0005309334 0.013561883 -0.34140962 -0.34035993 0.101922184 -0.14595345
0.15212706 0.047690194 0.09003628 0.094364546 0.08164387 0.13388953 -0.26318938 0.18863934
-0.29947004 -0.26074472 -0.033471502 -0.04603029 0.2319132 0.01790873 -0.46229145 0.121991865
0.06786849 0.3980118 -0.04754959 -0.21733548 0.17870718 0.24859339 -0.31035846 -0.17704965
0.043377493 -0.18237945 0.057815146 -0.09011334 0.16166213 -0.34308308 0.31214237 0.058667827
-0.20808052 -0.3615873 0.4681263 0.082201615 0.12223727 -0.049729567 0.015898187 0.13600975
0.28130227 -0.20875743 0.038180158 0.22972573 0.17399736 0.15621024 -0.22207502 -0.19448332
-0.119183116 0.09367264 0.21298468 -0.26051253 0.2317587 -0.084739774 -0.34494075 -0.11430915
0.25502405 0.31611913 -0.21644992 0.003083495 0.29351696 0.23171431 0.09309843 0.12425559
0.10029802 0.03651316 -0.44975948 -0.42995223 -0.07418099 0.070215195 -0.27964437 0.08669549
0.050810784 0.009729069 -0.0779944 0.053923313 0.16853555 0.3170233 -0.22274514 0.3140175
-0.06542491 0.058936033 -0.40815192 -0.20415013 -0.29035366 -0.12450316 0.2610505 0.062155586
-0.30042204 0.1737096 0.09341925 0.3279371 -0.27357772 0.10455105 -0.11891133 0.077140436
-0.42641833 -0.2553992 -0.18665992 0.13743228 -0.029575175 0.04627457 0.28546864 0.3756653
0.09408148 -0.04039756 -0.22465944 0.30619043 0.08513669 0.0685378 -0.21146111 -0.13387115
-0.044880986 0.31708062 -0.20140712 -0.26665172 0.11891119 -0.14354287 0.18923967 -0.15121727
-0.022110483 -0.059534907 0.2902948 -0.3473963 0.18598413 0.02849077 0.31963843 -0.40860316
0.18768623 -0.2806387 0.30287662 -0.27710417 -0.0044421256 0.05838057 -0.18184872 0.11315227
-0.15468656 0.1916373 -0.13057274 0.20950758 -0.52574545 0.18053426 0.027243929 0.26755816
0.17289864 -0.12752092 -0.14472438 0.33046642 -0.35622093 0.31677133 -0.3752566 -0.16106918
0.14736387 -0.0743625 -0.08041449 0.33400744 0.18235554 0.3858094 -0.18174592 -0.23637798
0.270458 0.12508619 -0.25338012 0.058662385 -0.33975333 0.22979735 -0.04687093 -0.37593412
-0.27683595 -0.06206582 0.14284478 0.035581656 -0.27261603 -0.09766959 -0.3254487 -0.22146603
-0.16063824 0.28290984 0.36995104 0.04943469 -0.054429784 0.10116297 -0.1771837 -0.34447366
00000000: 7ca6 87bc 1ce9 d0bd 317e e1bd 12a8 973e
00000010: 7699 e3be fbf6 5d3e ad17 5fbd a599 bd3e
00000020: 414a 71be 6166 fbbd 2688 14b9 bf4c fc3d
00000030: 9f18 263e 491c 39be bd35 f23d 7504 77bc
00000040: 92b8 933d 7993 bdbd 0aad b33e 9872 513d
00000050: cd03 debd 69fb 87be 4986 893c 4011 30be
00000060: 1ec5 3ebe 698a 4d3c a1bb 9f3d 4f78 383e
00000070: 8b87 9bbe e7e2 693e 3bab 3f3d 62be af3e
00000080: 4a78 073e c0ae 66be baca b2be 5127 b2bd
00000090: 4f03 ba3e 6477 8bbd b306 1f3d db3b 9bbe
000000a0: 6743 c53e aa12 41be f5e9 3a3e 288a 20be
000000b0: 5c30 48bd a254 9d3d 2cfe 4fbe c278 e0bd
000000c0: 08c2 37be 39f1 cfbd 124a c3be 4b48 47be
000000d0: 41d3 353e 778f 69bd 6012 973e ed96 853e
000000e0: 4b19 08bc a83f 61be 0a61 2c3e 4ae7 993d
000000f0: 7dc2 52be 2819 fd3d b7fa 5f3e 2ee7 803e
00000100: d52f 58be 11df fbbd 562e 0b3a a932 5e3c
00000110: 3ecd aebe a843 aebe 94bc d03d d274 15be
00000120: 32c7 1b3e cb56 433d f164 b83d 3342 c13d
00000130: e734 a73d 561a 093e c2c0 86be ac2a 413e
00000140: 2354 99be 5580 85be 6a19 09bd 428a 3cbd
00000150: a77a 6d3e 54b5 923c 77b1 ecbe dfd6 f93d
00000160: a3fe 8a3d 34c8 cb3e 5cc3 42bd 318d 5ebe
00000170: 04ff 363e 448f 7e3e 4ee7 9ebe 814c 35be
00000180: 99ac 313d aec1 3abe 93cf 6c3d 588d b8bd
00000190: c28a 253e 96a8 afbe 20d1 9f3e ad4d 703d
000001a0: 0f13 55be f821 b9be 40ae ef3e 5259 a83d
000001b0: 8957 fa3d 3bb1 4bbd ea3c 823c 2446 0b3e
000001c0: da06 903e 82c4 55be cc62 1c3d 393d 6b3e
000001d0: 5d2c 323e 94f5 1f3e a267 63be a326 47be
000001e0: 4716 f4bd 71d7 bf3d a818 5a3e e661 85be
000001f0: 2752 6d3e 0c8c adbd 139c b0be ea1a eabd
00000200: 8392 823e 5eda a13e 0ca5 5dbe 7614 4a3b
00000210: db47 963e 8446 6d3e 64aa be3d b779 fe3d
00000220: 0c69 cd3d d38e 153d e046 e6be b322 dcbe
00000230: 34ec 97bd fccc 8f3d 8c2d 8fbe 688d b13d
00000240: f81e 503d ac66 1f3c 87bb 9fbd b1de 5c3d
00000250: 9594 2c3e e150 a23e 4d17 64be e7c6 a03e
00000260: 7ffd 85bd e966 713d 4af9 d0be bb0c 51be
00000270: 3ca9 94be 83fb febd 69a8 853e db96 7e3d
00000280: ebd0 99be eee0 313e 9752 bf3d 5fe7 a73e
00000290: 6112 8cbe dc1e d63d c987 f3bd cefb 9d3d
000002a0: 8153 dabe afc3 82be c723 3fbe 0cbb 0c3e
000002b0: a347 f2bc 678a 3d3d f228 923e 3457 c03e
000002c0: caad c03d e977 25bd 200d 66be fec4 9c3e
000002d0: 255c ae3d 8c5d 8c3d 4389 58be 8515 09be
000002e0: 20d5 37bd 6458 a23e ab3d 4ebe 9386 88be
000002f0: b687 f33d e7fc 12be 0bc8 413e b3d8 1abe
00000300: 0b21 b5bc e0da 73bd 85a1 943e eedd b1be
00000310: a072 3e3e 7a65 e93c a6a7 a33e 6f34 d1be
00000320: d230 403e e0af 8fbe a512 9b3e 99e0 8dbe
00000330: 408f 91bb 7720 6f3d 8d36 3abe 61bc e73d
00000340: 2766 1ebe 923c 443e dcb4 05be 2889 563e
00000350: 4197 06bf f9dd 383e a92e df3c 62fd 883e
00000360: 570c 313e d894 02be a132 14be e532 a93e
00000370: 9762 b6be da2f a23e a221 c0be 52ef 24be
00000380: 8ee6 163e 5e4b 98bd 5ab0 a4bd 0603 ab3e
00000390: 69bb 3a3e cf88 c53e 9a1b 3abe 120d 72be
000003a0: 7979 8a3e 9816 003e 0abb 81be f847 703d
000003b0: 26f4 adbe ff4f 6b3e bbfb 3fbd 707a c0be
000003c0: 71bd 8dbe bb38 7ebd e745 123e 12be 113d
000003d0: 5494 8bbe fe06 c8bd 36a1 a6be fec7 62be
000003e0: 5a7e 24be 8fd9 903e 396a bd3e 087c 4a3d
000003f0: c4f1 5ebd 882e cf3d a56f 35be da5e b0be

conv1.bias f4 [32]
-0.17754784 0.085490584 -0.06821677 0.10167704 -0.061114978 -0.24596202 -0.13756165 0.11693365
0.08695075 -0.23253062 0.0361601 0.009254585 0.14017093 0.057941444 0.14543673 -0.11429285
-0.018772945 0.11962839 0.035253163 -0.32222155 -0.31175962 -0.48755127 0.11217855 -0.3677985
0.08441702 -0.010091348 -0.21181364 0.008679443 0.11522417 -0.30373764 -0.17049867 0.07418832
00000000: 1acf 35be b015 af3d 3cb5 8bbd 0d3c d03d
00000010: b353 7abd 78dd 7bbe f6dc 0cbe e97a ef3d
00000020: 3c13 b23d 821c 6ebe 9d1c 143d 8ba0 173c
00000030: f888 0f3e 0254 6d3d 5eed 143e 5f12 eabd
00000040: b8c9 99bc bbff f43d 9f65 103d 39fa a4be
00000050: f59e 9fbe 52a0 f9be debd e53d 1650 bcbe
00000060: d5e2 ac3d 2e56 25bc ade5 58be 3934 0e3c
00000070: a6fa eb3d 8083 9bbe 3497 2ebe 0cf0 973d

conv2.weight f4 [32, 32, 2, 2]
-0.24799511 0.005980145 -0.032552525 0.053809106 -0.010249773 0.04381998 0.040007852 0.11004043
0.0225935 0.01729595 -0.0076012104 -0.04991304 -0.030282512 -0.09481818 0.05545564 -0.091351494
0.007473695 0.10766808 -0.0277458 -0.07251742 -0.04854363 -0.021865055 -0.03769345 0.035211563
-0.06612855 0.017615318 -0.08509906 0.004382198 -0.43827567 -0.33182392 -0.18854356 -0.3910773
0.055904493 0.03504761 0.15797101 0.27584875 0.11441062 -0.047195833 0.110553645 0.051999614
-0.085664734 0.01954102 -0.014590654 -0.05319461 -0.06682777 -0.2114626 0.16218068 -0.045178544
-0.032290157 -0.1405734 0.058669616 -0.14456365 0.23795551 0.040083453 0.066505425 0.010866532
0.16703752 0.08953977 0.16027549 0.15776843 -0.06700629 0.19913515 -0.06034452 -0.10160985
0.06540361 -0.10705375 -0.17377955 0.008432619 0.03375909 -0.2122538 0.014671875 0.052512385
-0.09282939 0.0531993 -0.12152618 -0.044553675 -0.044661928 -0.22603524 -0.0029392762 -0.048528444
0.19227836 0.28578654 -0.2850226 -0.035028197 -0.21443416 -0.10400047 -0.07465617 0.028942741
-0.051153105 0.01706652 -0.0847836 0.0006339247 0.3603855 0.1095328 -0.13219887 -0.19336973
-0.33364767 0.0024445679 -0.092497535 -0.43488696 0.025284262 0.10532719 -0.1861524 -0.01995134
0.05204415 0.17540511 -0.018286683 -0.08721449 -0.042359743 -0.021057127 0.008677813 0.14535758
0.2003544 0.18250749 0.25851408 0.3685917 0.03881629 0.18762018 -0.23577471 -0.10364249
-0.074296646 0.10617329 -0.10271251 0.05394995 0.16566214 -0.019923188 0.083323374 0.12092019
-0.2580689 -0.095174894 -0.17623714 -0.045574367 -0.30578023 -0.212735 -0.24226978 -0.27982563
-0.08962243 -0.1556613 -0.15544017 -0.05235765 -0.14680782 -0.24884234 -0.33660242 -0.33545628
-0.23636584 -0.24431168 -0.24902058 -0.29312462 0.11801883 0.1370274 0.10740811 0.17099646
-0.0587845 -0.022823386 -0.0001688202 -0.023574902 -0.21781908 -0.15679672 -0.36957422 -0.22380507
-0.31206754 -0.33964837 -0.2796161 -0.34260732 -0.1462448 -0.14604673 -0.20836881 -0.102767184
0.027498083 -0.075335 -0.073359445 0.023124438 0.16008641 0.18686879 0.10669727 0.18590431
-0.29870096 -0.27874354 -0.41915366 -0.2623163 -0.29956084 -0.31783113 -0.20440666 -0.06630886
-0.153994 -0.24145246 -0.14946304 -0.19541802 0.10156215 0.08371854 0.17673577 0.20684178
-0.39284447 -0.25311422 -0.24725264 -0.23133384 -0.20235954 -0.16758266 -0.18512233 -0.113514975
0.08103397 0.06603973 0.11452712 0.061580867 -0.015178973 -0.086512096 0.014049285 -0.012423308
0.26933533 0.2848496 0.20925662 0.28347766 0.064004965 0.07648382 0.12973398 -0.022733951
-0.2685354 -0.26336464 -0.33642223 -0.24467206 -0.22843616 -0.26269177 -0.25975978 -0.23033673
-0.2610888 -0.2060351 -0.3354619 -0.23912984 0.10649716 0.014310025 -0.027833866 0.054991066
-0.15676005 -0.081316374 -0.14619726 -0.023071583 -0.028140573 -0.028728737 0.002807805 -0.015153372
-0.13418414 -0.0042471588 -0.04974551 -0.019326434 -0.10642135 -0.0062983762 -0.07430193 -0.18409549
0.024438446 -0.014917372 0.03562024 -0.06863013 -0.35755596 -0.33995143 -0.16786547 -0.20812747
00000000: 6ef2 7dbe 18f5 c33b cc55 05bd f066 5c3d
00000010: aaee 27bc 947c 333d 46df 233d e15c e13d
00000020: 0116 b93c 3cb0 8d3c 9313 f9bb 9e71 4cbd
00000030: 0813 f8bc 0930 c2bd 7425 633d 7e16 bbbd
00000040: e6e5 f43b 1581 dc3d 294b e3bc 0384 94bd
00000050: afd5 46bd 581e b3bc 7264 1abd 003a 103d
00000060: 686e 87bd 004e 903c 6a48 aebd 8b98 8f3b
00000070: ab65 e0be d3e4 a9be 9011 41be 493b c8be
00000080: 1cfc 643d 158e 0f3d 27c3 213e 0c3c 8d3e
00000090: 1d50 ea3d 6b50 41bd f369 e23d 8cfd 543d
000000a0: fe70 afbd 7d14 a03c a30d 6fbc 97e2 59bd
000000b0: ffdc 88bd a789 58be b112 263e 230d 39bd
000000c0: af42 04bd 79f2 0fbe 8d4f 703d 7e08 14be
000000d0: 9caa 733e 8c2e 243d ff33 883d 8a09 323c
000000e0: e20b 2b3e a060 b73d 421f 243e 0c8e 213e
000000f0: 983a 89bd 16ea 4b3e d12b 77bd d318 d0bd
00000100: 54f2 853d ff3e dbbd 44f3 31be f828 0a3c
00000110: f946 0a3d 0f59 59be 4e62 703c 3a17 573d
00000120: 561d bebd 82e7 593d b8e2 f8bd ea7d 36bd
00000130: 6def 36bd c875 67be dfa0 40bb c3c5 46bd
00000140: 9ee4 443e 9d52 923e 7bee 91be ba79 0fbd
00000150: a194 5bbe 33fe d4bd 56e5 98bd 5419 ed3c
00000160: eb85 51bd 16cf 8b3c 06a3 adbd f72d 263a
00000170: 7384 b83e bc52 e03d 245f 07be b702 46be
00000180: ded3 aabe 0b35 203b 596f bdbd 81a9 debe
00000190: f120 cf3c c8b5 d73d bc9e 3ebe fe70 a3bc
000001a0: 3f2c 553d 669d 333e f4cd 95bc 839d b2bd
000001b0: 6981 2dbd ff7f acbc 632d 0e3c 9ed8 143e
000001c0: b429 4d3e 3ee3 3a3e f55b 843e 0db8 bc3e
000001d0: d5fd 1e3d 811f 403e ed6e 71be 8442 d4bd
000001e0: d728 98bd 6271 d93d f05a d2bd 9ffa 5c3d
000001f0: 56a3 293e f435 a3bc 72a5 aa3d 01a5 f73d
00000200: 9b21 84be 0eeb c2bd 8277 34be 30ac 3abd
00000210: 3a8f 9cbe 34d7 59be 9215 78be 4e45 8fbe
00000220: f78b b7bd ad65 1fbe b52b 1fbe fa74 56bd
00000230: ca54 16be 87d0 7ebe 2757 acbe edc0 abbe
00000240: e309 72be d72c 7abe 40ff 7ebe 6e14 96be
00000250: dbb3 f13d e950 0c3e c8f8 db3d b219 2f3e
00000260: 04c8 70bd 1cf8 babc 5405 31b9 2720 c1bc
00000270: f70b 5fbe 528f 20be d538 bdbe 282d 65be
00000280: 51c7 9fbe 64e6 adbe d729 8fbe 3a6a afbe
00000290: 32c1 15be 468d 15be a25e 55be 9a77 d2bd
000002a0: a943 e13c 3d49 9abd 7a3d 96bd 766f bd3c
000002b0: b1ed 233e 885a 3f3e 1984 da3d b35d 3e3e
000002c0: 55ef 98be 79b7 8ebe 4f9b d6be 524e 86be
000002d0: 0a60 99be c3ba a2be fb4f 51be f1cc 87bd
000002e0: 9ab0 1dbe 503f 77be d70c 19be a91b 48be
000002f0: d1ff cf3d a074 ab3d 39fa 343e 55ce 533e
00000300: e922 c9be 3098 81be cc2f 7dbe c7e2 6cbe
00000310: 5737 4fbe ca9a 2bbe b590 3dbe 8a7a e8bd
00000320: 23f5 a53d d73f 873d 328d ea3d 383c 7c3d
00000330: 3ab1 78bc 412d b1bd f92e 663c 218b 4bbc
00000340: 52e6 893e cfd7 913e 5e47 563e fc23 913e
00000350: 0915 833d 8da3 9c3d fcd8 043e 8d3c babc
00000360: 797d 89be bbd7 86be 893f acbe 508b 7abe
00000370: 2beb 69be 897f 86be 3cff 84be 64dd 6bbe
00000380: 6ead 85be defa 52be aac1 abbe 74de 74be
00000390: 2f1b da3d 9874 6a3c d903 e4bc 503e 613d
000003a0: b585 20be 3389 a6bd bcb4 15be 9e00 bdbc
000003b0: 0f87 e6bc 8758 ebbc 2703 383b d945 78bc
000003c0: 9167 09be c02b 8bbb f3c1 4bbd 7852 9ebc
000003d0: 70f3 d9bd 9c62 cebb 9c2b 98bd 8783 3cbe
000003e0: 2333 c83c fe67 74bc 87e6 113d f48d 8cbd
000003f0: 9311 b7be 1d0e aebe ede4 2bbe 5e1f 55be

conv2.bias f4 [32]
0.13883878 -0.08880809 -0.10620877 -0.119667366 0.0386356 -0.09038321 -0.14534537 0.1207588
-0.061271142 0.06891468 -0.11744723 0.12430392 -0.016026268 -0.049974766 -0.3095093 -0.1149933
0.012965503 0.028312346 0.066008456 0.10139537 0.037437476 -0.1508173 0.04155944 0.14878252
-0.04377284 0.18614028 -0.063587785 -0.12504102 0.05733345 0.18277133 0.26353848 -0.08576093
00000000: c12b 0e3e 04e1 b5bd fc83 d9bd 2a14 f5bd
00000010: 5d40 1e3d d51a b9bd 6bd5 14be 6450 f73d
00000020: 73f7 7abd 2423 8d3d 2c88 f0bd 0e93 fe3d
00000030: 8549 83bc 57b2 4cbd 0178 9ebe 9b81 ebbd
00000040: 436d 543c 4bef e73c 712f 873d 60a8 cf3d
00000050: 0a58 193d da6f 1abe 3b3a 2a3d 725a 183e
00000060: 264b 33bd 8f9b 3e3e 503a 82bd c10a 00be
00000070: 7bd6 6a3d 6828 3b3e 84ee 863e 6da3 afbd

conv3.weight f4 [64, 32, 2, 2]
-0.19286422 0.04090241 -0.0025147882 0.30040878 -0.0023734455 -0.11021306 0.103376865 -0.17917083
0.059657857 0.0732221 0.090541326 0.030058619 0.05516064 -0.05884946 0.014268643 0.023304876
-0.16530842 -0.07176304 -0.011864611 -0.012671014 -0.071721755 0.0482938 -0.0583845 0.04123001
0.029881464 -0.03259451 -0.046439733 -0.06557164 -0.14921036 -0.13251136 -0.24200876 -0.3071923
-0.028951067 -0.09234055 0.026125025 -0.025187235 0.06964891 -0.119544774 0.14110497 -0.30546933
-0.010931266 0.10937235 -0.10652776 -0.14779453 0.1448682 0.17815265 0.20758288 0.054976415
-0.010472835 -0.23655955 0.2590486 -0.03440488 -0.023929913 -0.021876706 0.013822245 -0.2823914
-0.07306994 -0.0036836157 0.14177665 -0.1492321 0.11429968 0.076116815 0.058635883 0.049263272
0.04707665 0.005549144 0.087463364 0.00055133953 0.05076985 0.03614167 -0.08491993 -0.06913843
0.09360298 0.09762702 -0.2032032 0.07889246 0.25262028 -0.00915525 0.020418432 0.07854603
-0.17326424 -0.011632522 -0.046130214 0.13150482 0.19885658 0.13578486 -0.020908644 0.111724935
-0.112649925 -0.07289253 -0.19058515 0.03707302 -0.3275526 -0.061534937 0.25141653 0.22841494
0.106873184 -0.19926 0.20693141 -0.24874783 0.1612074 -0.07983003 -0.041700605 -0.15692624
-0.044637926 -0.25183645 -0.11448856 0.04957973 0.06716719 0.012745498 -0.079393454 -0.010751064
0.1366807 0.030607045 0.093833454 -0.0016267898 0.2098975 -0.028041387 0.082040146 -0.047343846
0.15382609 0.09707132 0.11715535 0.08864348 -0.027379345 0.023181548 0.069023475 0.00600084
-0.15335469 -0.27181226 0.07087778 0.05140459 0.26050577 0.100872844 0.22280693 0.1645126
0.037951894 0.002729123 -0.10473322 -0.08102397 -0.060905565 -0.09891285 0.03639583 0.05983155
-0.10228459 -0.093434595 -0.20694353 -0.08035689 -0.007380301 -0.02563022 -0.025537461 0.06001095
-0.01475258 0.025620101 0.05798407 0.036786813 0.02801732 -0.15413621 0.004385191 -0.20867892
-0.008587695 0.013878811 -0.014573884 -0.018927868 0.09933632 0.14047039 -0.114783265 -0.0837557
-0.0617976 0.0020528461 -0.16468398 -0.12824984 -0.010589557 -0.31336924 0.18279019 -0.13492602
0.18107557 0.15947367 -0.028643712 -0.15368879 0.16968307 0.07518258 0.16140342 0.097645946
-0.05976912 0.1644837 -0.40812007 -0.18367839 -0.030785486 0.07717635 -0.038239058 0.02102909
0.054162256 -0.083398394 -0.082640335 0.0044171223 -0.016004778 -0.06944313 -0.076618776 0.08034685
-0.024283558 0.05270941 -0.27667642 -0.07105776 -0.07427177 0.023526194 -0.16299678 -0.016555753
-0.31878567 -0.093760245 -0.19050308 -0.36532295 -0.03033336 -0.018959139 0.045367654 0.14971274
0.027166216 0.06771955 0.08439526 0.11185688 -0.14365187 -0.12033312 0.18747686 0.11394951
0.19706464 0.20150642 -0.084681846 -0.061907552 0.18496755 0.12070594 -0.044136547 -0.019223867
-0.318869 -0.42704916 -0.09721173 -0.3383912 0.017388474 -0.075360045 0.037650168 0.082027785
0.012686488 0.03520036 -0.16758634 -0.11474936 0.11273103 0.15728238 -0.08495536 0.058760602
0.018004114 0.014711822 0.007713522 -0.32752386 -0.054241188 0.031601056 -0.05865214 0.0060894424
00000000: 337e 45be 4989 273d 25cf 24bb 2ecf 993e
00000010: cf8b 1bbb 63b7 e1bd 40b7 d33d 8f78 37be
00000020: cc5b 743d 78f5 953d bb6d b93d 7e3d f63c
00000030: 20f0 613d 220c 71bd 07c7 693c dee9 be3c
00000040: 9c46 29be 80f8 92bd c963 42bc 169a 4fbc
00000050: dbe2 92bd b8cf 453d 9624 6fbd cde0 283d
00000060: f9c9 f43c d281 05bd 9737 3ebd 6d4a 86bd
00000070: 9aca 18be 0fb1 07be 25d1 77be 4f48 9dbe
00000080: ca2a edbc 0b1d bdbd 2604 d63c 7655 cebc
00000090: 16a4 8e3d e4d3 f4bd d27d 103e 7a66 9cbe
000000a0: 0d19 33bc 9cfe df3d 3a2b dabd 7357 17be
000000b0: 5458 143e a66d 363e 9b90 543e f32e 613d
000000c0: 4196 2bbc ab3c 72be 05a2 843e 22ec 0cbd
000000d0: aa08 c4bc c736 b3bc b376 623c 9b95 90be
000000e0: b1a5 95bd d168 71bb e62d 113e 4dd0 18be
000000f0: f315 ea3d 22e3 9b3d 2e2c 703d 49c8 493d
00000100: 72d3 403d 98d5 b53b fe1f b33d c587 103a
00000110: 0cf4 4f3d 4a09 143d 80ea adbd 7398 8dbd
00000120: ebb2 bf3d adf0 c73d 8014 50be 5f92 a13d
00000130: 7257 813e e7ff 15bc 8e44 a73c bedc a03d
00000140: 2e6c 31be 5596 3ebc 09f3 3cbd 33a9 063e
00000150: 0fa1 4b3e 300b 0b3e 9b48 abbc 0bd0 e43d
00000160: 01b5 e6bd ae48 95bd c128 43be e1d9 173d
00000170: f9b4 a7be 0f0c 7cbd abb9 803e 9be5 693e
00000180: 54e0 da3d d00a 4cbe d4e5 533e c0b7 7ebe
00000190: 8d13 253e ed7d a3bd 41ce 2abd 46b1 20be
000001a0: 42d6 36bd b5f0 80be fa78 eabd 1d14 4b3d
000001b0: f48e 893d 7ed2 503c 0999 a2bd 3b25 30bc
000001c0: 07f6 0b3e a0bb fa3c c12b c03d 023a d5ba
000001d0: 5fef 563e 0db7 e5bc aa04 a83d 9feb 41bd
000001e0: 9684 1d3e 54cd c63d 25ef ef3d b68a b53d
000001f0: a64a e0bc 3be7 bd3c 2e5c 8d3d b2a2 c43b
00000200: 0309 1dbe fa2a 8bbe 5f28 913d 9f8d 523d
00000210: 0361 853e 6c96 ce3d 8027 643e fe75 283e
00000220: 7273 1b3d 16db 323b 5f7e d6bd e5ef a5bd
00000230: 1d78 79bd d292 cabd cb13 153d ed11 753d
00000240: 957a d1bd a35a bfbd 01e9 53be 2792 a4bd
00000250: 74d6 f1bb 78f6 d1bc f033 d1bc 0bce 753d
00000260: ceb4 71bc 3fe1 d13c b480 6d3d c5ad 163d
00000270: 9484 e53c e2d5 1dbe a6b1 8f3b edaf 55be
00000280: 67b3 0cbc f463 633c 4dc7 6ebc 9e0e 9bbc
00000290: d770 cb3d 78d7 0f3e 7d13 ebbd 1c88 abbd
000002a0: 7b1f 7dbd 0b89 063b eba2 28be ed53 03be
000002b0: d27f 2dbc ef71 a0be 5a2d 3b3e 0c2a 0abe
000002c0: e06b 393e 114d 233e 38a6 eabc 9860 1dbe
000002d0: 66c1 2d3e 53f9 993d f046 253e 99fa c73d
000002e0: 77d0 74bd 6a6e 283e 1df5 d0be 3016 3cbe
000002f0: d831 fcbc a20e 9e3d 8fa0 1cbd 3345 ac3c
00000300: 3ed9 5d3d c7cc aabd 563f a9bd 82bd 903b
00000310: 741c 83bc 3338 8ebd 4eea 9cbd e48c a43d
00000320: 50ee c6bc d3e5 573d 88a8 8dbe bb86 91bd
00000330: cc1b 98bd 01ba c03c a1e8 26be ee9f 87bc
00000340: e037 a3be 5f05 c0bd 3d13 43be 9c0b bbbe
00000350: ab7d f8bc 3250 9bbc 6fd3 393d 4c4e 193e
00000360: af8b de3c 8cb0 8a3d 6cd7 ac3d 3815 e53d
00000370: 7a19 13be 3671 f6bd eff9 3f3e 5c5e e93d
00000380: 50cb 493e b357 4e3e ad6d adbd c692 7dbd
00000390: 2268 3d3e ad34 f73d 86c8 34bd 5f7b 9dbc
000003a0: cc42 a3be 30a6 dabe f216 c7bd 9d41 adbe
000003b0: 4672 8e3c 5e56 9abd 1037 1a3d 2ffe a73d
000003c0: fdda 4f3c 412e 103d c19b 2bbe b601 ebbd
000003d0: 87df e63d a20e 213e 13fd adbd f5ae 703d
000003e0: 5d7d 933c db09 713c b6c1 fc3b 35b1 a7be
000003f0: 022c 5ebd 1c70 013d 3a3d 70bd f289 c73b

conv3.bias f4 [64]
0.02424525 0.22749701 0.06701391 -0.2800735 0.1221243 -0.105934426 0.10099027 -0.18756557
0.10985859 0.10264031 -0.1794827 -0.1043198 0.053802837 -0.041881535 0.07861772 0.18710402
-0.036310397 -0.011206457 0.070508935 0.047783274 0.15508126 -0.03580666 -0.3363527 -0.14011382
0.0014834767 -0.052979894 0.25009272 0.07256544 0.21307296 0.1099592 0.08328124 0.18139292
0.027715994 0.21597897 -0.018400224 -0.12376091 0.00836642 0.19314517 -0.11601759 -0.05753519
0.1403218 0.012230326 -0.028478742 -0.16641876 0.017073734 -0.032252457 -0.012443419 0.03625707
-0.0435648 -0.02304463 0.09934447 -0.061060477 0.08606525 -0.25158167 0.019763524 -0.0039433734
-0.035716597 0.041614536 -0.099054195 -0.1583316 -0.0021930432 0.08152248 -0.073151015 -0.025480984
00000000: f99d c63c faf4 683e 973e 893d cb65 8fbe
00000010: 4e1c fa3d 26f4 d8bd fdd3 ce3d 3011 40be
00000020: 8afd e03d 1535 d23d 50ca 37be 9fa5 d5bd
00000030: 5d60 5c3d f98b 2bbd 5402 a13d 3298 3f3e
00000040: 36ba 14bd 4a9b 37bc fd66 903d 65b8 433d
00000050: 9fcd 1e3e 01aa 12bd 6c36 acbe ff79 0fbe
00000060: 3871 c23a 7201 59bd 270c 803e 309d 943d
00000070: cc2f 5a3e 4a32 e13d 5b8f aa3d 11bf 393e
00000080: a70c e33c 9729 5d3e 11bc 96bc 5c76 fdbd
00000090: 4f13 093c d9c7 453e a19a edbd 05aa 6bbd
000000a0: 85b0 0f3e b561 483c 404c e9bc ae69 2abe
000000b0: 37de 8b3c 271b 04bd 7bdf 4bbc 4b82 143d
000000c0: 0171 32bd 18c8 bcbc 1d75 cb3d 8d1a 7abd
000000d0: fa42 b03d 50cf 80be 1de7 a13c 6a37 81bb
000000e0: 914b 12bd 0174 2a3d eddc cabd ae21 22be
000000f0: 29b9 0fbb 42f5 a63d 33d0 95bd 7fbd d0bc

conv4.weight f4 [64, 64, 2, 2]
0.090596296 -0.17032047 -0.03187515 -0.2191799 -0.021387286 0.14785051 -0.3280468 0.06736529
-0.33628568 0.13193041 -0.08759427 0.1466233 -0.23215729 -0.04888447 -0.18726355 -0.039110057
0.025707882 -0.03992156 0.061697833 -0.30261967 0.10285546 -0.13200092 -0.003750161 0.05252104
-0.021688262 -0.32675675 0.026976451 -0.114260264 -0.07944386 0.027613023 0.15647906 -0.03335047
0.18624099 -0.13896015 0.24910545 -0.10813498 -0.16385163 -0.08183604 0.1047273 -0.19105273
-0.08589364 -0.04214052 -0.09132141 -0.0881696 -0.40795636 -0.08461664 0.027618282 -0.1748466
-0.16407418 -0.0892736 -0.07406013 -0.3452128 0.0380052 -0.15325333 0.12157672 -0.12982154
0.14491993 -0.0761426 0.3305903 0.17510001 0.015751474 -0.18257429 0.15273187 0.060456645
0.03786984 -0.074028224 -0.052504066 0.05198764 -0.13824199 0.122294605 -0.16854423 0.048353486
0.038764298 -0.029540448 0.16047703 0.17030174 -0.11864504 0.12740375 -0.12258363 -0.04185029
-0.049896028 -0.010893975 -0.08163468 0.105897374 -0.18624867 0.17396148 -0.3520436 -0.036856346
0.046596855 -0.12109269 -0.010894722 -0.056452423 -0.027955234 0.042950787 0.034015637 0.084612645
-0.19596443 0.009410298 -0.24846831 0.28974807 0.029566813 0.22698729 -0.052628458 0.18413316
-0.00395911 -0.15087415 0.08529906 -0.16224636 -0.2209123 -0.1866914 -0.08706854 -0.21217537
-0.036916744 -0.39557356 -0.020360453 -0.13966583 -0.09328019 -0.17286259 -0.15060857 -0.18351462
0.13281986 0.21802647 0.088364325 0.028572401 -0.037449226 0.22465363 -0.06841218 0.18731222
-0.01872082 -0.1674362 0.16964751 -0.24761431 0.0016544907 -0.1801668 0.07112696 0.14215107
0.033636373 -0.11251995 -0.09118297 0.010174984 -0.09084973 0.09029791 -0.06582381 0.06135406
-0.031088801 0.061663445 -0.039955202 0.15072806 0.007915363 0.090707876 0.12090387 0.07136527
-0.30625552 0.04801841 -0.25452507 -0.24050522 -0.17172936 0.11401032 -0.27985883 -0.06447847
-0.15832077 0.19884336 -0.2581561 0.16787829 -0.12529002 0.20657797 -0.15252425 0.15935506
-0.2044152 -0.22033307 -0.11144277 -0.009900083 -0.062022813 -0.04994573 -0.033401646 0.0019466849
0.1732252 0.10570378 0.14789794 0.32407963 -0.14125499 -0.0643422 -0.09514428 0.123130426
-0.030730698 -0.30899864 0.18874419 -0.21969873 0.051631022 -0.3636024 0.118903324 -0.02969711
-0.103369325 0.05925023 -0.2285145 0.07155762 0.028998362 -0.2027832 0.25002563 -0.14278266
0.030727372 -0.22615589 0.26967263 -0.024654977 -0.08458248 0.06935919 0.046951793 0.069431975
0.08420973 -0.018874282 0.20893656 0.12907813 0.07572565 -0.18746348 0.14891262 -0.19357577
0.19004504 -0.23379262 -0.034397375 0.13722675 -0.30549267 -0.10173679 -0.01091675 -0.03250842
0.09611999 0.10298617 -0.043953918 0.30007282 -0.18780093 0.11379474 -0.21089172 -0.059323374
-0.13886806 0.046932355 0.03178706 -0.23675795 -0.081507 -0.14431448 -0.048684184 -0.048511043
-0.15091065 -0.3917627 0.162085 -0.23791873 -0.05781522 -0.29084277 0.16436724 0.019186618
-0.19480751 0.08323024 0.0021244106 0.055727307 0.018549405 0.07724811 -0.024161937 0.13721843
00000000: 8d8a b93d 7d68 2ebe 848f 02bd b270 60be
00000010: 6434 afbc 2066 173e c0f5 a7be d0f6 893d
00000020: a32d acbe c418 073e a064 b3bd 6b24 163e
00000030: a4ba 6dbe 153b 48bd 04c2 3fbe de31 20bd
00000040: 5699 d23c ca84 23bd deb6 7c3d f7f0 9abe
00000050: e2a5 d23d 402b 07be 43c5 75bb 4d20 573d
00000060: 95ab b1bc a94c a7be b8fd dc3c 4901 eabd
00000070: 76b3 a2bd b534 e23c 0c3c 203e 819a 08bd
00000080: f5b5 3e3e 924b 0ebe 8015 7f3e df75 ddbd
00000090: b9c8 27be a799 a7bd 447b d63d 54a3 43be
000000a0: 01e9 afbd 8a9b 2cbd b806 bbbd 4392 b4bd
000000b0: a8df d0be 7d4b adbd bc3f e23c fd0a 33be
000000c0: 1003 28be 14d5 b6bd d6ac 97bd bbbf b0be
000000d0: 57ab 1b3d 71ee 1cbe 37fd f83d f0ef 04be
000000e0: e465 143e a7f0 9bbd 2243 a93e 6b4d 333e
000000f0: 3c09 813c c1f4 3abe be65 1c3e 63a1 773d
00000100: 681d 1b3d 1c9c 97bd 810e 57bd fef0 543d
00000110: 4f8f 0dbe 9875 fa3d dc96 2cbe 4e0e 463d
00000120: 50c7 1e3d cffe f1bc 1754 243e 9463 2e3e
00000130: 2cfc f2bd 2176 023e 200d fbbd 366b 2bbd
00000140: c75f 4cbd a57c 32bc 1530 a7bd b9e0 d83d
00000150: f9b7 3ebe f522 323e 0f3f b4be aef6 16bd
00000160: 58dc 3e3d 72ff f7bd c77f 32bc a83a 67bd
00000170: 6002 e5bc 2aed 2f3d fb53 0b3d 6549 ad3d
00000180: e6aa 48be a72d 1a3c 7a6e 7ebe dc59 943e
00000190: 1a36 f23c 5b6f 683e f090 57bd 678d 3c3e
000001a0: 6cbb 81bb c17e 1abe 46b1 ae3d e923 26be
000001b0: d536 62be 082c 3fbe fe50 b2bd 8044 59be
000001c0: 0336 17bd 9e88 cabe f7ca a6bc 8f04 0fbe
000001d0: af09 bfbd e402 31be 2239 1abe 42eb 3bbe
000001e0: ee01 083e 5542 5f3e 5bf8 b43d ab10 ea3c
000001f0: 5c64 19bd 9a0b 663e af1b 8cbd c6ce 3f3e
00000200: 685c 99bc 6574 2bbe 14b8 2d3e 9b8e 7dbe
00000210: 7fdb d83a a57d 38be 03ab 913d 0d90 113e
00000220: 4bc6 093d dc70 e6bd 23be babd fab4 263c
00000230: 6c0f babd 1cee b83d a2ce 86bd 654e 7b3d
00000240: f1ad febc cf92 7c3d 11a8 23bd 7558 1a3e
00000250: 70af 013c 0dc5 b93d 739c f73d f427 923d
00000260: 86cd 9cbe f4ae 443d 1c51 82be 0047 76be
00000270: d2d9 2fbe 3e7e e93d a849 8fbe 4a0d 84bd
00000280: d71e 22be 989d 4b3e 092d 84be 49e8 2b3e
00000290: 074c 00be 2d89 533e 512f 1cbe f92d 233e
000002a0: 3852 51be fe9e 61be 1b3c e4bd f533 22bc
000002b0: a20b 7ebd e593 4cbd 2ad0 08bd e827 ff3a
000002c0: f261 313e 397b d83d 8f72 173e c4ed a53e
000002d0: 26a5 10be d8c5 83bd 01db c2bd ce2b fc3d
000002e0: f2be fbbc 1235 9ebe 2846 413e b4f8 60be
000002f0: 0d7b 533d 182a babe 9683 f33d 5b47 f3bc
00000300: 4cb3 d3bd 5fb0 723d b5ff 69be cd8c 923d
00000310: f98d ed3c 66a6 4fbe 5c03 803e 9e35 12be
00000320: f8b7 fb3c 6995 67be 8812 8a3e 3cf9 c9bc
00000330: 9439 adbd 310c 8e3d 8650 403d 5a32 8e3d
00000340: 2776 ac3d 3d9e 9abc 77f3 553e 0f2d 043e
00000350: 0d16 9b3d 6df6 3fbe 8d7c 183e ba38 46be
00000360: 2b9b 423e 5567 6fbe 43e4 0cbd 2b85 0c3e
00000370: 8969 9cbe 615b d0bd 2bdc 32bc 8d27 05bd
00000380: 8fda c43d 6aea d23d 0609 34bd 25a3 993e
00000390: e34e 40be 370d e93d 00f4 57be 11fd 72bd
000003a0: 6e33 0ebe 243c 403d 2633 023d ad70 72be
000003b0: 24ed a6bd 2dc7 13be 1169 47bd 84b3 46bd
000003c0: 5288 1abe 1f95 c8be 9cf9 253e f8a0 73be
000003d0: a7cf 6cbd 58e9 94be e34f 283e 412d 9d3c
000003e0: 9f7b 47be 9e74 aa3d b239 0b3b 5142 643d
000003f0: ecf4 973c 4234 9e3d 41ef c5bc fd82 0c3e

conv4.bias f4 [64]
0.005080202 -0.053407233 0.08111277 -0.10206627 0.030678075 0.09180147 0.019243289 -0.046614822
-0.11386811 0.16671893 -0.06531593 -0.00847508 0.025296776 0.18903199 0.09313712 0.12912528
0.028896945 -0.10908149 0.09027026 0.06907444 0.23012674 0.11002103 -0.13748927 -0.030014155
-0.028160097 0.1523203 0.014940227 0.16907838 0.043118108 0.07985994 -0.091132574 0.1292146
0.119585425 0.0831641 -0.0455117 -0.1374693 -0.025459973 -0.07764458 -0.15571454 -0.1203859
0.037840303 -0.1426747 0.006998716 0.035385728 0.035886664 -0.046095446 0.062954694 -0.14549495
0.14967184 -0.15005808 -0.06325707 0.002775387 0.08740499 0.17696567 0.15116051 -0.10358244
0.0040830113 -0.043428086 -0.028958315 -0.07455674 0.089900516 0.10131868 -0.074205786 -0.0719943
00000000: d377 a63b 8bc1 5abd 741e a63d 1f08 d1bd
00000010: 9650 fb3c 6902 bc3d 1aa4 9d3c 2fef 3ebd
00000020: af33 e9bd 5eb8 2a3e 5cc4 85bd 10db 0abc
00000030: 2f3b cf3c 9a91 413e adbe be3d 6b39 043e
00000040: 49b9 ec3c 1e66 dfbd 9ddf b83d e676 8d3d
00000050: 58a6 6b3e b552 e13d fdc9 0cbe 3fe0 f5bc
00000060: 01b0 e6bc daf9 1b3e dbc7 743c e222 2d3e
00000070: 9d9c 303d 9c8d a33d b7a3 babd d550 043e
00000080: 34e9 f43d f151 aa3d 7a6a 3abd c1c4 0cbe
00000090: 6f91 d0bc 1f04 9fbd a273 1fbe e28c f6bd
000000a0: 6ffe 1a3d 5119 12be 7c55 e53b a0f0 103d
000000b0: e5fd 123d 94ce 3cbd 64ee 803d a1fc 14be
000000c0: 9343 193e d3a8 19be ec8c 81bd 44e3 353b
000000d0: 6301 b33d 7d36 353e d2c9 1a3e 0823 d4bd
000000e0: c8ca 853b a6e1 31bd fd39 edbc 34b1 98bd
000000f0: c31d b83d 2b80 cf3d 34f9 97bd bf71 93bd

conv5.weight f4 [128, 64, 2, 2]
-0.17858836 -0.11472805 -0.36106613 -0.22671588 0.020847756 -0.05123222 0.026554182 -0.084565185
0.15029934 0.064550936 0.325791 -0.020742707 0.028405856 0.16023731 -0.263527 -0.21576416
-0.16988198 -0.19643946 -0.23281479 -0.13760634 -0.114540935 0.08431898 -0.016362874 -0.05197321
-0.111771785 -0.064462475 -0.019321581 0.2484098 -0.21725143 -0.23107566 0.05191528 0.050275736
-0.08135905 -0.23602821 0.03645856 -0.109268576 0.022882842 -0.09293909 0.16471907 -0.30066323
-0.09740511 -0.10319993 0.12924398 0.19641642 -0.25926167 0.13033876 0.017443707 0.2121646
-0.0069519402 -0.44034654 -0.110784434 -0.31224838 -0.30268335 -0.11886487 -0.23505957 -0.0002096449
-0.032422144 -0.13085005 -0.27309796 0.1638887 -0.2080099 0.008579321 0.0059395516 -0.15603624
0.086955845 0.043774925 -0.4558687 0.04715266 -0.0030755335 0.013189336 0.014591348 0.03488925
-0.036953624 0.09343548 -0.12252897 0.000803468 0.07047644 -0.014317738 0.077865705 0.23193611
0.10773675 -0.0065972395 0.11230149 -0.010456893 0.036124878 -0.11455128 -0.023638837 0.21022461
-0.16086836 -0.03692337 0.018163767 0.07826402 -0.19205745 -0.07699586 0.08292713 -0.04231029
-0.072994895 -0.0319835 -0.075987674 -0.08296072 -0.075098455 -0.005422755 0.11340831 0.21139145
-0.049369216 -0.0931829 0.09211688 -0.40728778 0.322813 -0.019423174 0.26061606 -0.0021566001
0.060857385 -0.13548899 0.40422958 0.082077295 0.17035653 0.17807432 0.18040305 0.09376142
-0.05929465 -0.0040441966 -0.005014252 -0.049223553 0.12541409 -0.0037645383 0.2692053 -0.26816034
0.027652327 -0.11807714 -0.21679376 -0.09336878 -0.34198216 -0.08532535 -0.12220417 -0.32913095
0.016573958 0.06821856 -0.04617625 -0.052116413 -0.17800392 0.03789619 -0.023834746 0.02612364
-0.03580811 0.03864437 0.017342577 -0.140573 -0.23882005 -0.23201653 -0.17143525 0.2271037
0.005568862 -0.052474152 -0.07723563 -0.13371421 -0.081212685 0.014888627 -0.27025473 0.035403438
-0.1879083 -0.26338091 0.07396784 -0.066941015 -0.25298956 -0.2963332 -0.1466213 -0.14547274
0.019316284 -0.06423787 -0.20798226 -0.19026028 0.12496341 -0.13843384 0.017609553 0.23069033
0.07722662 -0.29062036 0.0042922623 -0.12650426 0.115218624 0.053446934 -0.16011934 -0.05057533
-0.10367569 -0.06692577 -0.4609972 -0.23231854 0.082271576 -0.15426615 -0.16559565 -0.27004927
0.045089252 -0.017258514 -0.14288743 -0.13567092 0.029676735 -0.46309888 -0.012349157 -0.29332334
-0.13409685 0.17720024 -0.13216387 -0.03125308 0.1447831 0.17356777 0.27831626 -0.33224583
-0.0336601 -0.07603852 -0.07660323 -0.022854548 0.27987722 0.26088485 0.022646032 -0.16260679
0.27359164 -0.102949224 0.05509305 0.049641833 0.012681082 -0.27730492 0.21860756 -0.2976666
0.081907935 -0.11821755 0.08638612 -0.0014440012 -0.020634566 0.013301792 -0.071534306 -0.1264162
0.09568888 0.27555817 -0.09117294 0.22859706 -0.3275851 -0.071541764 -0.18973482 0.13219707
-0.056772437 0.014456273 0.124357425 0.5157344 -0.41200182 0.01623389 -0.15146686 -0.22136432
0.09825845 -0.04538672 0.15581831 -0.062345706 -0.055876218 -0.014122362 0.00091926067 0.014769806
00000000: dedf 36be 8af6 eabd a9dd b8be 3528 68be
00000010: eac8 aa3c e0d8 51bd 2888 d93c 8330 adbd
00000020: 12e8 193e 4833 843d 14ce a63e 9cec a9bc
00000030: 66b3 e83c 4015 243e 03ed 86be 48f1 5cbe
00000040: 8bf5 2dbe 6d27 49be 0067 6ebe ade8 0cbe
00000050: 7094 eabd 6eaf ac3d 6f0b 86bc dce1 54bd
00000060: 9be8 e4bd e704 84bd 4b48 9ebc 235f 7e3e
00000070: 2977 5ebe 199f 6cbe 1ea5 543d eeed 4d3d
00000080: 939f a6bd 61b1 71be 9255 153d 34c8 dfbd
00000090: cc74 bb3c da56 bebd 1eac 283e 88f0 99be
000000a0: 557c c7bd 7c5a d3bd 8958 043e 6321 493e
000000b0: f2bd 84be 8677 053e 1be6 8e3c ad41 593e
000000c0: 1acd e3bb 1a75 e1be f3e2 e2bd 05df 9fbe
000000d0: 50f9 9abe 6d6f f3bd 75b3 70be 20d4 5bb9
000000e0: 15cd 04bd 8efd 05be 7fd3 8bbe 70d2 273e
000000f0: 8c00 55be 4890 0c3c 92a0 c23b f7c7 1fbe
00000100: e815 b23d 564d 333d 9f67 e9be 2623 413d
00000110: e48e 49bb 1618 583c 8d10 6f3c 08e8 0e3d
00000120: af5c 17bd 1a5b bf3d 78f0 fabd d39f 523a
00000130: f455 903d f294 6abc 0e78 9f3d a980 6d3e
00000140: 16a5 dc3d a82d d8bb 53fe e53d 6353 2bbc
00000150: aef7 133d dd99 eabd 3ca6 c1bc 1f45 573e
00000160: adba 24be f63c 17bd 2ecc 943c e348 a03d
00000170: b5aa 44be 01b0 9dbd b3d5 a93d 8e4d 2dbd
00000180: 597e 95bd 2101 03bd 6d9f 9bbd 4fe7 a9bd
00000190: 38cd 99bd 5eb1 b1bb 9e42 e83d 0077 583e
000001a0: 6037 4abd add6 bebd c6a7 bc3d 0688 d0be
000001b0: bf47 a53e 591d 9fbc 786f 853e bf55 0dbb
000001c0: 9845 793d a0bd 0abe 2ef7 ce3e 2418 a83d
000001d0: f171 2e3e 1d59 363e 94bb 383e fd05 c03d
000001e0: f2de 72bd 2e85 84bb 984e a4bb a39e 49bd
000001f0: 8d6c 003e 79b6 76bb 47d5 893e 504c 89be
00000200: 2287 e23c 6dd2 f1bd 2fff 5dbe 2238 bfbd
00000210: 4918 afbe 0fbf aebd 2e46 fabd da83 a8be
00000220: 1cc6 873c 2cb6 8b3d 4f23 3dbd 0578 55bd
00000230: a946 36be 0939 1b3d 1641 c3bc 3e01 d63c
00000240: 86ab 12bd 8f49 1e3d 0512 8e3c 5ef2 0fbe
00000250: 3e8d 74be be95 6dbe b98c 2fbe df8d 683e
00000260: 007b b63b 23ef 56bd b72d 9ebd 61ec 08be
00000270: d652 a6bd 6eef 733c d45e 8abe 3203 113d
00000280: 096b 40be ddd9 86be 737c 973d 5f18 89bd
00000290: d987 81be fcb8 97be e523 16be cef6 14be
000002a0: 2f3d 9e3c 258f 83bd 4df9 54be 97d3 42be
000002b0: d1ec ff3d 9ac1 0dbe e941 903c 163a 6c3e
000002c0: fd28 9e3d 31cc 94be 1ba6 8c3b 558a 01be
000002d0: bef7 eb3d 2ceb 5a3d 53f6 23be 1428 4fbd
000002e0: ec53 d4bd 6110 89bd d307 ecbe e9e4 6dbe
000002f0: 007e a83d f2f7 1dbe e891 29be e643 8abe
00000300: 82af 383d ba61 8dbc 1551 12be 51ed 0abe
00000310: a01c f33c 4c1b edbe 1e54 4abc 7a2e 96be
00000320: af50 09be fb73 353e f755 07be 3b03 00bd
00000330: 0542 143e c0bb 313e 787f 8e3e 201c aabe
00000340: 2cdf 09bd 15ba 9bbd 27e2 9cbd 7639 bbbc
00000350: 114c 8f3e b392 853e 2c84 b93c 6582 26be
00000360: 3414 8c3e 0bd7 d2bd 40a9 613d 3c55 4b3d
00000370: 50c4 4f3c e9fa 8dbe a9da 5f3e c267 98be
00000380: 59bf a73d 0b1c f2bd 35eb b03d a444 bdba
00000390: d209 a9bc c2ef 593c 9480 92bd 4073 01be
000003a0: 88f8 c33d f615 8d3e e1b8 babd 5915 6a3e
000003b0: 3cb9 a7be 7d84 92bd d849 42be ab5e 073e
000003c0: 378a 68bd 01da 6c3c 1baf fe3d 2b07 043f
000003d0: e7f1 d2be effc 843c 211a 1bbe 54ad 62be
000003e0: ba3b c93d 6de7 39bd d68e 1f3e 365e 7fbd
000003f0: 76de 64bd 7b61 67bc 8afa 703a 0efd 713c

conv5.bias f4 [128]
0.23444012 0.15840529 0.11261562 0.07588218 -0.08768288 0.12788124 0.09583144 0.14236596
0.13213234 -0.15786816 -0.074760966 0.017974664 -0.057594094 -0.087053284 -0.025104098 0.13119741
-0.09287648 0.16811563 0.15705244 -0.10792633 0.11693041 0.12459239 -0.026049748 0.045849435
0.2674669 0.1277208 0.11490039 -0.22609429 -0.08458886 -0.12786785 0.18009193 0.10512666
0.05279046 -0.0848383 0.07916215 0.23127063 0.060317732 0.11734021 0.02122629 -0.03219473
0.02294459 -0.01420876 -0.01219848 0.08139786 0.012060495 0.13459891 -0.025480935 0.098065384
0.15872782 0.066099554 -0.12660256 -0.10424989 -0.21480897 -0.068887435 0.1652336 0.22139467
0.0745983 0.16547553 -0.13900077 0.13025434 -0.034548234 0.15045562 0.22948238 0.11884074
-0.05784407 0.12132078 0.10000255 0.32563806 -0.025761878 0.1345032 0.110904306 0.06434362
0.108879834 -0.004891428 0.0009075941 -0.06325769 0.04519664 -0.2107821 -0.12434657 0.13514566
0.0754457 0.033101626 -0.079739414 -0.048608746 0.106864184 0.03475193 -0.08026636 0.1650879
-0.005109061 0.20211942 0.21314716 0.12536411 -0.11860479 0.039179813 0.08781296 0.095220275
0.2022 0.07187984 -0.09153265 0.32359102 -0.10012669 -0.060071576 0.017629087 -0.0068807066
-0.12885769 -0.030388746 0.15774086 -0.030630602 0.002405496 0.25604734 0.2287341 -0.064073555
0.22498433 0.11063612 0.08383279 -0.0130898785 -0.0801151 0.14811623 -0.21033259 0.15583439
0.08754839 0.0043205475 0.06871355 0.077960916 0.09450689 -0.021243058 -0.1396842 -0.09637249
00000000: 1211 703e ff34 223e 05a3 e63d 1e68 9b3d
00000010: 1593 b3bd 4df3 023e 4643 c43d 62c8 113e
00000020: b34d 073e 31a8 21be 471c 99bd 9a3f 933c
00000030: c9e7 6bbd fe48 b2bd 1ca7 cdbc 9d58 063e
00000040: 0636 bebd 8126 2c3e 5bd2 203e 7b08 ddbd
00000050: 3679 ef3d 4c2a ff3d 4866 d5bc 9ecc 3b3d
00000060: 6cf1 883e 3ec9 023e e550 eb3d 4385 67be
00000070: ed3c adbd caef 02be 056a 383e a54c d73d
00000080: cf3a 583d b4bf adbd c41f a23d 35d2 6c3e
00000090: ba0f 773d 1050 f03d c2e2 ad3c 9fde 03bd
000000a0: 4bf6 bb3c dccb 68bc 22dc 47bc ecb3 a63d
000000b0: 6299 453c 4cd4 093e 65bd d0bc 81d6 c83d
000000c0: 8c89 223e 345f 873d 1aa4 01be f780 d5bd
000000d0: e2f6 5bbe db14 8dbd ff32 293e 49b5 623e
000000e0: fec6 983d 6b72 293e 3856 0ebe 6561 053e
000000f0: 7382 0dbd 0a11 1a3e 6efd 6a3e c662 f33d
00000100: e7ed 6cbd 0777 f83d 23ce cc3d 08ba a63e
00000110: 930a d3bc 35bb 093e cc21 e33d 96c6 833d
00000120: 64fc de3d 4648 a0bb 9ceb 6d3a 3f8d 81bd
00000130: 1d20 393d 43d7 57be 6aa9 febd a063 0a3e
00000140: 4683 9a3d 9295 073d 6b4e a3bd f719 47bd
00000150: 9cdb da3d 0a58 0e3d b062 a4bd cd0c 293e
00000160: e969 a7bb 65f8 4e3e 4043 5a3e 735f 003e
00000170: 11e7 f2bd 037b 203d 48d7 b33d d902 c33d
00000180: 840d 4f3e bd35 933d 7875 bbbd b9ad a53e
00000190: 390f cdbd 9d0d 76bd e06a 903c 8d77 e1bb
000001a0: 45f3 03be d2f1 f8bc d286 213e 07ed fabc
000001b0: 87a5 1d3b a318 833e 4639 6a3e ff38 83bd
000001c0: 4b62 663e 3195 e23d 87b0 ab3d ee76 56bc
000001d0: 6313 a4bd c8ab 173e 6d61 57be 0d93 1f3e
000001e0: 924c b33d 6193 8d3b b1b9 8c3d f9a9 9f3d
000001f0: d48c c13d ec05 aebc 6009 0fbe f15e c5bd

conv6.weight f4 [64, 128, 2, 2]
-0.09205531 -0.21214499 -0.33713812 -0.41985974 -0.07472897 -0.135495 -0.39600718 -0.26306483
-0.08759923 -0.45612726 -0.117760174 -0.007680236 0.10043781 0.021437058 0.15929966 0.02292755
-0.09402284 0.08163991 -0.04076372 0.08933295 -0.014030485 0.049942195 0.34468374 0.23185937
0.008167912 0.06881048 -0.00088345434 -0.28261292 0.18317726 0.09405974 -0.057891626 -0.03141378
-0.16736142 -0.054326333 0.02225014 -0.09629966 -0.405868 -0.1958095 -0.23842062 -0.09280263
0.048630793 0.06622579 0.10172853 0.029281897 0.032906257 -0.090921104 -0.22240019 -0.25219643
-0.039234817 0.013677491 0.032501295 -0.0045695184 -0.07147965 0.12475289 -0.09028895 0.056006666
-0.082046114 -0.13027044 0.2511171 0.13108099 0.0048467186 0.09014941 -0.044284422 -0.008013415
-0.042750318 0.01080125 0.025887644 -0.013294263 0.13173603 0.17109482 0.25972685 0.21730947
0.09960464 0.18164822 0.19941892 0.18235375 -0.02050702 0.017779244 -0.02513591 0.02547871
0.21147853 0.1315674 0.1711284 -0.18639019 -0.10412969 0.012405168 0.20818034 0.10221175
0.17008103 -0.15513124 -0.27733663 -0.5352107 -0.1303276 -0.23435138 -0.4110598 -0.29424158
0.00083999784 -0.045155898 -0.5761114 -0.081932224 -0.108035445 -0.32107538 -0.2895188 -0.7050545
0.010420827 -0.25035965 0.33975172 0.049557187 0.10114311 -0.19292611 0.04153392 0.30568266
-0.08852682 -0.08458677 0.2658958 0.06270343 -0.02345432 -0.022922322 -0.06308745 -0.029640587
-0.18957384 -0.03590872 0.35676438 -0.08967956 -0.2973576 0.03919026 -0.16087408 -0.08718297
0.015617394 -0.02706899 -0.03861084 0.27175263 0.009348851 0.005907918 -0.07170393 -0.0541364
0.0350578 0.03577905 -0.10233547 0.13791957 -0.03066924 -0.13441621 0.15362711 0.009284084
0.08880496 0.10356173 0.23691241 0.10692587 0.042214792 0.22877072 0.27850017 0.09141452
-0.20030873 -0.2809685 0.2134157 -0.1975125 -0.016630828 -0.14421168 0.1386708 0.18081337
0.11207243 -0.247838 -0.011112568 -0.02478244 0.10754385 -0.0425404 0.18376034 0.13972133
0.056484457 0.009452617 -0.15447658 -0.24755843 0.055000003 -0.093974665 0.1827008 0.19235565
0.025274392 -0.049630992 0.15661448 0.15752685 -0.09888326 -0.096805945 0.021482898 0.12277047
0.030414052 -0.16229497 0.23318496 0.113401905 -0.06787784 -0.059735868 -0.17294997 0.00750528
-0.26497617 -0.16101074 -0.12928234 -0.39149582 -0.048787627 -0.008173964 0.25173557 0.05774394
-0.1601716 -0.17066005 -0.10316316 -0.070538096 0.10185301 -0.09477971 0.16037703 0.16130172
0.15789516 -0.013048214 0.035682198 -0.098834254 0.035696723 0.026228817 -0.022679703 -6.8661204e-05
-0.07207971 0.086309195 0.16791949 0.030957188 -0.036691446 0.03163595 -0.020215856 -0.039343134
-0.029916905 -0.10695999 0.23615065 0.11532544 -0.15146916 0.15967253 0.20598479 -0.14474066
0.002674735 -0.017149465 -0.021013504 0.03214601 -0.0016090397 -0.079149716 -0.11403284 -0.096469685
0.1963273 0.1991029 -0.08771391 0.122001655 0.0788861 0.14219643 0.017117523 -0.16846412
-0.04018035 0.06950474 -0.018432738 -0.18270548 0.27271044 0.18737662 -0.20206079 0.0828764
00000000: 7f87 bcbd 893c 59be 5e9d acbe dbf7 d6be
00000010: 810b 99bd 34bf 0abe 74c1 cabe 6fb0 86be
00000020: 3a67 b3bd 8389 e9be 3f2c f1bd 7daa fbbb
00000030: 57b2 cd3d c59c af3c 731f 233e 8fd2 bb3c
00000040: 0c8f c0bd d332 a73d dcf7 26bd 32f4 b63d
00000050: 1fe0 65bc 3090 4c3d 637a b03e 8b6c 6d3e
00000060: b5d2 053c 82ec 8c3d 9e97 67ba a4b2 90be
00000070: d292 3b3e 65a2 c03d c51f 6dbd bcab 00bd
00000080: cb60 2bbe 4a85 5ebd ed45 b63c c238 c5bd
00000090: eecd cfbe 4982 48be 8924 74be 4e0f bebd
000000a0: 1531 473d 63a1 873d 0c57 d03d 97e0 ef3c
000000b0: b6c8 063d d834 babd e0bc 63be e41f 81be
000000c0: b0b4 20bd 8e17 603c 1420 053d e6bb 95bb
000000d0: ec63 92bd 717e ff3d 6ae9 b8bd 3f67 653d
000000e0: cb07 a8bd 9d65 05be 6c92 803e 183a 063e
000000f0: 39d1 9e3b 41a0 b83d 9563 35bd b34a 03bc
00000100: f51a 2fbd baf7 303c 5312 d43c 2ed0 59bc
00000110: cfe5 063e 7b33 2f3e ebfa 843e 6086 5e3e
00000120: 84fd cb3d fe01 3a3e 7934 4c3e f1ba 3a3e
00000130: 57fe a7bc c7a5 913c d3e9 cdbc bab8 d03c
00000140: d48d 583e 9bb9 063e 493c 2f3e 12dd 3ebe
00000150: f241 d5bd 0c3f 4b3c 3a2d 553e 6554 d13d
00000160: b929 2e3e b9da 1ebe 11ff 8dbe 9203 09bf
00000170: 9974 05be cff9 6fbe 6e76 d2be d5a6 96be
00000180: 4d33 5c3a 64f5 38bd 097c 13bf 15cc a7bd
00000190: b041 ddbd fe63 a4be cf3b 94be 747e 34bf
000001a0: 1ebc 2a3c 242f 80be f0f3 ad3e 7afc 4a3d
000001b0: 1e24 cf3d 6c8e 45be 791f 2a3d 7082 9c3e
000001c0: 8d4d b5bd d43b adbd 7f23 883e a86a 803d
000001d0: 4623 c0bc 98c7 bbbc fe33 81bd d1d0 f2bc
000001e0: a51f 42be 0615 13bd d2a9 b63e eba9 b7bd
000001f0: 413f 98be f785 203d 2dbc 24be fc8c b2bd
00000200: 19e0 7f3c c9bf ddbc 6626 1ebd 2923 8b3e
00000210: ec2b 193c 3597 c13b 83d9 92bd 21be 5dbd
00000220: c598 0f3d 0e8d 123d 4295 d1bd ca3a 0d3e
00000230: 0f3e fbbc 67a4 09be 6d50 1d3e 451c 183c
00000240: 60df b53d 2c18 d43d 2b99 723e f3fb da3d
00000250: 6be9 2c3d df42 6a3e 9397 8e3e 8937 bb3d
00000260: bb1d 4dbe 1adb 8fbe a589 5a3e b840 4abe
00000270: 603d 88bc 3aac 13be b8ff 0d3e 2427 393e
00000280: 3b86 e53d 3fc9 7dbe 7d11 36bc 8b04 cbbc
00000290: f33f dc3d d83e 2ebd ac2b 3c3e 1c13 0f3e
000002a0: 3f5c 673d 26df 1a3c 1c2f 1ebe f57f 7dbe
000002b0: af47 613d ca75 c0bd eb15 3b3e e1f8 443e
000002c0: 3e0c cf3c de49 4bbd 8c5f 203e b84e 213e
000002d0: 4e83 cabd 3242 c6bd e7fc af3c 166f fb3d
000002e0: e426 f93c a730 26be 0ac8 6e3e 423f e83d
000002f0: 8903 8bbd 99ad 74bd cc19 31be daee f53b
00000300: f5aa 87be 00e0 24be 9762 04be 2472 c8be
00000310: 89d5 47bd 17ec 05bc 7ce3 803e e984 6c3d
00000320: 0604 24be 82c1 2ebe 3547 d3bd 4776 90bd
00000330: 5098 d03d dd1b c2bd e039 243e 472c 253e
00000340: 45af 213e 2dc8 55bc 7f27 123d 9d69 cabd
00000350: ba36 123d d1dd d63c c9ca b9bc 34fe 8fb8
00000360: 879e 93bd e0c2 b03d 16f3 2b3e ee99 fd3c
00000370: c549 16bd b394 013d b99b a5bc 4426 21bd
00000380: 4c14 f5bc d70d dbbd 7ad1 713e bf2f ec3d
00000390: bb1a 1bbe 3281 233e aded 523e e536 14be
000003a0: 9b4a 2f3b 097d 8cbc 8324 acbc 89ab 033d
000003b0: 6ae6 d2ba 3f19 a2bd 0d8a e9bd e691 c5bd
000003c0: 060a 493e a1e1 4b3e 5aa3 b3bd 01dc f93d
000003d0: 098f a13d f19b 113e 0c3a 8c3c dc81 2cbe
000003e0: 2794 24bd 8058 8e3d 4100 97bc 2517 3bbe
000003f0: b4a0 8b3e a8df 3f3e 06e9 4ebe 1abb a93d

conv6.bias f4 [64]
0.24719393 -0.032881733 -0.0045729503 0.16899118 0.0015146331 0.24595957 0.092746824 0.0876182
0.14618763 0.1688196 -0.031962253 0.20904712 0.11573449 -0.03928792 -0.022936031 -0.056909386
0.26279268 -0.07442649 -0.10303989 -0.054826725 -0.11200618 0.07171497 -0.02246618 -0.056266654
-0.06875514 0.10421284 -0.03204426 -0.032122545 -0.021666525 -0.06314603 -0.07774845 0.13955328
-0.05181539 -0.07998252 -0.040665235 -0.031178916 -0.06867789 -0.022063527 -0.1650372 0.049649145
-0.04488268 0.023542792 -0.03376022 -0.012429417 -0.10210883 0.098479316 0.08877572 0.15823114
-0.020480901 0.045009594 0.1051219 0.09392206 -0.05530008 -0.064494446 -0.001517139 0.061251044
0.008111043 0.08016267 0.2656028 0.04305318 -0.12930375 0.024226269 0.18462485 -0.062236607
00000000: 6820 7d3e ffae 06bd b0d8 95bb 060c 2d3e
00000010: a786 c63a d3dc 7b3e 0cf2 bd3d 2c71 b33d
00000020: 36b2 153e 0cdf 2c3e daea 02bd 7310 563e
00000030: 3406 ed3d 5fec 20bd 58e4 bbbc d119 69bd
00000040: c38c 863e ea6c 98bd 9406 d3bd fd91 60bd
00000050: 7f63 e5bd 4cdf 923d ff0a b8bc dd77 66bd
00000060: 7fcf 8cbd 8b6d d53d d840 03bd ee92 03bd
00000070: ff7d b1bc b552 81bd 943a 9fbd 0ee7 0e3e
00000080: 603c 54bd e0cd a3bd 9790 26bd ed6a ffbc
00000090: fea6 8cbd 92be b4bc 83ff 28be e75c 4b3d
000000a0: e7d6 37bd d0dc c03c 2848 0abd c1a4 4bbc
000000b0: 6f1e d1bd 86af c93d 0bd0 b53d 5807 223e
000000c0: 90c7 a7bc fb5b 383d 274a d73d 365a c03d
000000d0: 5682 62bd aa15 84bd bdda c6ba 60e2 7a3d
000000e0: 2ee4 043c 532c a43d 17fd 873e 8858 303d
000000f0: 3468 04be 2b76 c63c 4c0e 3d3e d0eb 7ebd
