model/model_16.pth (torch_old, 571877 bytes, 24 tensors)

conv1.weight f4 [32, 3, 2, 2]
000000 59 f2 e1 bd dd 12 e8 bd 98 b8 1c be b3 5c c8 3e
       -0.11032552 -0.11331723 -0.15304792 0.39133224
000010 0b 10 18 bf 82 47 1b 3e b9 47 0c be f0 26 dd 3e
       -0.5939948 0.15163997 -0.13699235 0.4319377
000020 fa ba 97 be 10 58 98 bd b8 ad 76 3b 55 17 8d 3e
       -0.2963484 -0.074386716 0.0037640166 0.27556863
000030 fd ff 50 3e 5a 8e 02 be 09 f7 fd 3d 9c 88 89 3c
       0.20410152 -0.12749615 0.12400634 0.016788773
000040 f4 39 92 3d 6c 3b 7e bd 4f 76 a7 3e b8 41 2a 3d
       0.0713996 -0.062068388 0.3270745 0.04156658
000050 1a 6c 0a be 98 81 79 be 7e c0 20 bd 10 ed 70 be
       -0.135178 -0.24365842 -0.039246075 -0.23527932
000060 aa 11 f4 bd 16 4a 33 3d df db 00 3e 80 8b 6b 3e
       -0.11917432 0.043771826 0.12583874 0.23002434
000070 08 58 ab be da 2e 4f 3e 14 27 33 bd 8d d2 9e 3e
       -0.334656 0.20232716 -0.04373844 0.31020012
000080 bb d9 0c 3e e5 38 4a be ba 52 eb be cd 3d ee bd
       0.13754933 -0.19748266 -0.45961553 -0.11632881
000090 9f 25 c6 3e dd 76 43 bd b7 f8 8a 3d 58 26 8d be
       0.38700578 -0.04772078 0.0678572 -0.27568316
0000a0 10 79 c6 3e 92 37 6c be 09 6b 2a 3e 2a 8e 46 be
       0.38764238 -0.23068073 0.16642393 -0.19390169
0000b0 db 35 73 bd 08 99 89 3c 81 7e 5b be 0d 8e 16 be
       -0.059377532 0.016796604 -0.21434976 -0.14702626
0000c0 e6 9e 20 be b9 63 d5 bd c5 6f be be 9f 71 61 be
       -0.15685615 -0.10419411 -0.37194648 -0.22016
0000d0 85 3a 49 3e 07 c6 aa bd 67 d8 9a 3e 86 eb 62 3e
       0.1965123 -0.08338552 0.30243227 0.22160158
0000e0 5d f0 3c bd 03 28 91 be c3 78 1d 3e d5 fc c0 3c
       -0.046127666 -0.2835084 0.15378098 0.02355806
0000f0 b8 37 43 be 45 81 ef 3d 4c e4 76 3e c7 31 83 3e
       -0.19064224 0.11694578 0.24110526 0.25623915
000100 b0 38 47 be 58 57 07 be e6 af 93 bb bd a9 b8 bc
       -0.19455218 -0.13216913 -0.0045070527 -0.022541875
000110 1f 0e a8 be 9a 00 b7 be cd 3b f9 3d 1e 3d 2e be
       -0.32823274 -0.35742646 0.12169609 -0.17015502
000120 cf 72 0c 3d 33 c9 9b bd 4c 90 63 bd f1 57 32 bd
       0.034289178 -0.07606735 -0.055557534 -0.0435409
000130 8f c6 2a 3e 17 a3 22 3e 7b 26 4d be 96 11 4c 3e
       0.16677307 0.15882526 -0.2003421 0.19928584
000140 9c 69 22 be 0a d3 57 be 4c bb a1 bb 68 8c d5 bd
       -0.158606 -0.21076599 -0.0049356576 -0.10427171
000150 ad 03 72 3e e8 8a 50 3d 44 71 12 bf 41 d7 73 3d
       0.23634215 0.05091372 -0.5720408 0.059531454
000160 9b 28 02 3e e4 b4 f9 3e e5 19 f2 bd 86 de 7a be
       0.12710802 0.4877082 -0.11821345 -0.24498948
000170 d8 b2 78 3e 60 41 a2 3e 00 ca b3 be 18 3d 53 be
       0.24286973 0.31690502 -0.3511505 -0.20628774
000180 a1 76 2f 3d 01 d8 93 be c6 a5 39 3e b8 3d c7 bd
       0.042837743 -0.28875735 0.18129644 -0.09728569
000190 05 31 0a 3e 27 35 ea be 45 4b d5 3e 8c 0d 14 3d
       0.13495262 -0.45743677 0.4165899 0.03614573
0001a0 ff 11 6c be 85 aa cd be 08 09 0e 3f 14 1b d7 3d
       -0.2305374 -0.4016916 0.5548253 0.105032116
0001b0 0c 5f 14 3e 59 fb 07 bd 4e 77 16 3d b4 46 21 3e
       0.14489383 -0.03319869 0.03673487 0.15749627
0001c0 7a b3 5f 3e b2 dc 8d be f3 7d 53 3c 75 89 65 3e
       0.21845809 -0.2770744 0.012908447 0.22415717
0001d0 2a 46 18 3e 34 3a 0e 3e b7 d4 49 be 74 05 18 be
       0.14870515 0.1388939 -0.1971005 -0.1484583
0001e0 24 63 f0 bd ec 20 25 3d 81 18 91 3e d4 8d 88 be
       -0.117376596 0.0403146 0.28339007 -0.26670706
0001f0 76 5b 2d 3e 43 eb 3f be d7 1f ad be 2e 93 00 be
       0.16929421 -0.18742089 -0.33813354 -0.12556145
000200 7b b8 56 3e ca ab 88 3e 6e e0 66 be 2f 06 03 3d
       0.20968811 0.26693565 -0.2254655 0.03198832
000210 9a f1 be 3e e5 7d 65 3e d8 cc 01 3e 86 2a c8 3d
       0.37293702 0.22411306 0.12675798 0.09773736
000220 50 00 12 3e 29 f8 7a bc 34 71 f3 be dd 2c 05 bf
       0.14257932 -0.015317955 -0.47547305 -0.5202158
000230 38 88 ef bb 8f aa 62 3d 86 73 8d be e7 81 3e 3d
       -0.0073099397 0.05533844 -0.276272 0.046510603
000240 37 56 47 3c fd bb ff 3b da 30 01 be ce d1 63 3d
       0.012166551 0.0078043924 -0.12616292 0.055620007
000250 8e 65 24 3e bd 13 a9 3e 4f 51 40 be 12 65 c4 3e
       0.16054365 0.33022872 -0.18781017 0.3835836
000260 e7 47 0b be 5a 49 c4 3c ff 03 d9 be fb 93 3b be
       -0.13601647 0.023960758 -0.4238586 -0.18318169
000270 8f 70 ba be b2 c8 19 be 63 7f 36 3e ca ed b2 3c
       -0.36414 -0.15017965 0.17822032 0.021841902
000280 c0 d0 86 be 82 dc 5c 3e f0 0e ba 3d 4d 99 b3 3e
       -0.2633114 0.21568492 0.0908488 0.35077897
000290 ac 2f a1 be bc 04 61 3d 60 b1 77 be 24 a0 f0 bc
       -0.31481683 0.054936156 -0.24188757 -0.029373236
0002a0 87 5c 08 bf 89 bf 9d be 05 9a 7d be 74 e0 09 3e
       -0.53266186 -0.30810192 -0.24765785 0.13464528
0002b0 da 3f 50 bd bd 15 a8 3d 8c 07 a4 3e 5d 46 f1 3e
       -0.050842144 0.08207271 0.32037008 0.47123995
0002c0 aa 90 89 3d db 99 81 bd 70 1d 59 be f6 fc b0 3e
       0.067170456 -0.06328174 -0.21202636 0.34567994
0002d0 8e b4 06 3e a9 43 d0 3d 5f 02 5d be 07 38 19 be
       0.13154814 0.10169155 -0.21582936 -0.14962779
0002e0 3a e4 2a 3c 04 f8 ae 3e c7 b8 2c be ac 5d 83 be
       0.01043039 0.34173596 -0.16867362 -0.25657403
0002f0 f4 cb f0 3d 7b 24 18 be 5a 68 20 3e 99 86 51 be
       0.11757651 -0.14857666 0.15664807 -0.20461501
000300 5d 05 a7 3c 30 af c5 bd 4b 50 ae 3e 4f 33 be be
       0.0203883 -0.09652555 0.34045634 -0.3714852
000310 14 70 65 3e b8 81 45 bd ef d1 bf 3e b0 ee f0 be
       0.22406036 -0.048219413 0.37464854 -0.47057104
000320 df 1e 44 3e 70 1f b8 be c6 fa a3 3e de e7 a7 be
       0.19152401 -0.35961485 0.32027262 -0.32794088
000330 d4 b9 bb bc d4 6a 16 3e 3f d5 63 be 71 5c 5d 3e
       -0.022915758 0.14689189 -0.22249316 0.21617295
000340 0e 60 5e be 52 5b 80 3e 75 65 4f be 6a fd 97 3e
       -0.2171633 0.25069672 -0.20253547 0.29685527
000350 9b e6 1a bf e0 af 39 3e f9 26 82 bd a3 a1 93 3e
       -0.60508126 0.18133497 -0.0635509 0.28834257
000360 df 38 ef 3d 39 7c 3e be 8f 15 36 be f5 7b 96 3e
       0.11680769 -0.18602075 -0.17781661 0.29391447
000370 bb 7c cc be 4c e3 a2 3e 7a 55 de be 94 a2 4a be
       -0.39938912 0.3181404 -0.43424588 -0.19788581
000380 df 74 7d 3e f1 22 40 3c 27 1a 31 3b 2e a5 ce 3e
       0.24751614 0.011727081 0.0027023645 0.40360397
000390 63 47 42 3e 1e aa e4 3e 1e 4d 86 be 72 c9 89 be
       0.18972544 0.4466104 -0.2623071 -0.26911503
0003a0 ce 37 a5 3e 74 4a 5f 3e ea 94 8f be 0b 98 a1 3d
       0.32269138 0.21805745 -0.280433 0.07890328
0003b0 da ab 9f be c6 89 a9 3e c9 80 3c be bf b8 c2 be
       -0.311858 0.33112925 -0.18408503 -0.38031575
0003c0 fd 64 86 be c4 c6 54 bd 43 ac 2e 3e f6 69 5b 3d
       -0.26248923 -0.05194737 0.170579 0.05356785
0003d0 4f 31 b5 be eb c5 1b be 0c 14 d8 be d8 5b 96 be
       -0.35389182 -0.15212218 -0.42202795 -0.29366946
0003e0 94 23 2e be c1 ba 94 3e a0 fc ba 3e 02 84 55 3d
       -0.1700576 0.29048732 0.36520863 0.052127846
0003f0 41 03 90 bc b1 58 49 3e 3f b2 ee bd 9b bb 5c be
       -0.017579677 0.1966274 -0.116550915 -0.21555941

conv1.bias f4 [32]
000000 ea e6 c1 be 56 52 bf bd aa 16 fc be 69 0a 2e be
       -0.37871486 -0.09341876 -0.4923604 -0.16996159
000010 ee ce c6 be bf 6f 01 bf fc 09 0f bf b5 22 06 3e
       -0.3882975 -0.50561136 -0.5587461 0.13099177
000020 5b 32 ad 3d a2 f0 b3 be 97 a8 cf be b3 7c c3 bc
       0.0845687 -0.35144526 -0.4055831 -0.023863172
000030 30 42 bf bd af f1 47 be 0e f2 9f 3d 54 c2 ca be
       -0.09338796 -0.19525789 0.0780984 -0.39601386
000040 49 8b a9 bd d9 92 f6 3d 5e 61 28 be c1 0a 07 bf
       -0.0827852 0.12039728 -0.16443393 -0.52750784
000050 ea 2d 02 bf a6 32 41 bf bc 95 09 3e 59 2f 1c bf
       -0.5085131 -0.7546791 0.13436025 -0.61009747
000060 b6 25 52 3d 62 59 d4 bd 00 c7 bc be dd 9d eb be
       0.051305495 -0.10368611 -0.36870575 -0.46018878
000070 be db e8 3d 9e 08 ef be a8 95 cb be 5b 77 8c 3d
       0.113700375 -0.46686262 -0.39762616 0.06858703

conv2.weight f4 [32, 32, 2, 2]
000000 83 05 4b be 5a 31 f6 3d 15 c1 c4 bd 0a 6a b4 bd
       -0.19826321 0.12021132 -0.0960714 -0.08809288
000010 6a 56 b0 3c b7 0a 33 3d 70 f0 8d bd ee 9e 4c 3c
       0.02152558 0.04371139 -0.069306254 0.012489064
000020 01 29 a2 bc 6a 1f 04 3d af 47 53 be f5 f4 35 be
       -0.019794943 0.03225652 -0.20632814 -0.17769225
000030 7a ab c7 bd ed 10 a2 bd 3d 88 07 bd e8 be c8 bd
       -0.097495034 -0.079133846 -0.03308891 -0.098020375
000040 ab 05 bf bd 80 3f df 3c 5d 8d e0 bd c8 d2 47 be
       -0.09327253 0.027251959 -0.10964463 -0.19514
000050 60 81 35 bd ec f7 07 3d 4f 0f 06 bd aa 22 9a 3d
       -0.044312835 0.03319542 -0.032729443 0.07526143
000060 be 99 16 3d cf 5a 14 3e 25 42 fd bd 79 d2 fd 3c
       0.036767714 0.14487766 -0.12366132 0.03098415
000070 f3 bc 9b be b4 c3 a3 be 80 c3 59 bd a3 d0 e3 be
       -0.30417594 -0.31985247 -0.05316496 -0.44495115
000080 1f b2 e4 3d 6e c5 e3 3d 9e 30 11 3e 0d 5d 89 3e
       0.111667864 0.11121641 0.14178702 0.26828805
000090 28 86 df 3d f7 ed ad bd 64 0b fc 3d 30 60 d2 3d
       0.1091426 -0.08492654 0.1230686 0.102722526
0000a0 bf 4c e5 bd 12 ea 93 3d 3b 39 88 3d 52 21 c1 bc
       -0.11196279 0.0722238 0.06651541 -0.023575459
0000b0 07 b4 f2 bc 45 73 86 be b9 bc 31 3e 4e 78 25 be
       -0.02962686 -0.2625982 0.17357148 -0.16159174
0000c0 63 fe 05 3e 48 0d 0d bd 13 a4 98 3d c3 ec 38 be
       0.13085322 -0.034436494 0.0745317 -0.18059067
0000d0 eb 4a 79 3d ac 06 9b 3d 2e b9 b4 3b 5a 60 e7 bd
       0.060862463 0.07569632 0.005515239 -0.112976745
0000e0 b0 83 e1 3d 74 f0 da 3b ab 5d 1c 3e 53 7f f3 3d
       0.110114455 0.0066814963 0.15270106 0.118895195
0000f0 e3 a2 85 37 61 2e a4 3e df 93 a2 bd b2 70 a3 bd
       1.5930686e-05 0.32066634 -0.079383604 -0.07980479
000100 66 77 1c 3e 18 62 c4 bc 55 92 48 be df 3e 21 bc
       0.15279922 -0.023972556 -0.19587071 -0.00984165
000110 4d 7f 28 3d 92 df 80 be e0 3c 56 3d 76 c2 12 3b
       0.04113703 -0.2517057 0.05230415 0.002239374
000120 3d bf 89 3d c1 d0 48 3d 8b 51 ac bd 57 f1 55 be
       0.06725929 0.04902721 -0.084139906 -0.20892845
000130 2f 1b fe bd 96 e7 84 be 68 ae 5b 3d 40 ae c0 3d
       -0.124075286 -0.25957936 0.053633124 0.094082355
000140 75 08 95 3e ff f8 b6 3e d9 00 dd be 1d ee 3c be
       0.29108015 0.35736844 -0.4316471 -0.18450208
000150 cb a4 8b be ff aa 09 be 41 6d 60 bd d3 f5 5b be
       -0.27274165 -0.13444136 -0.054791693 -0.21480493
000160 d8 69 04 be ad 17 cc ba ef 7a 0e bd 06 77 8a bc
       -0.12931001 -0.0015571021 -0.034785207 -0.016902458
000170 7a e3 fa 3e 19 9b 65 3e d0 51 76 be e8 60 94 be
       0.49001676 0.22422446 -0.24054646 -0.28980184
000180 4a 72 94 be 11 0d d0 3d e6 3e 04 3e 7e 4c 90 be
       -0.28993446 0.10158742 0.12914619 -0.2818336
000190 d6 b7 04 3e e2 df e3 3d 49 18 4d be 86 ec 66 be
       0.12960753 0.11126687 -0.20028795 -0.22551164
0001a0 fb a3 b0 bd 71 4d 71 3e 89 59 78 3d 47 83 79 bd
       -0.08625027 0.23564698 0.060632262 -0.06091621
0001b0 3c c6 3c bd 94 70 e0 3d d1 2c 43 b9 72 d3 2d 3d
       -0.04608749 0.109589726 -0.00018613345 0.042437978
0001c0 ec bb 19 3e 23 15 2e 3e 2f 34 35 3e ff 02 9c 3e
       0.15013093 0.1700025 0.17695688 0.30471036
0001d0 2a e8 12 3d a0 0c 86 3e 1b ac aa be 25 78 24 be
       0.03586594 0.26181507 -0.3333443 -0.16061457
0001e0 20 3e 85 be be 7f 49 3e 7a 64 fc bd cc 1e ae 3d
       -0.2602396 0.19677636 -0.12323852 0.08501968
0001f0 08 cf 1f 3e b0 4b 8e bd 15 f1 94 3d 58 da 99 3d
       0.1560632 -0.0694803 0.07272545 0.07512349
000200 e7 e5 68 be 4d 1a 00 be 61 35 2e be cb f7 8a be
       -0.22743951 -0.12510033 -0.1701255 -0.27142176
000210 2b 18 c9 be 7c 9c 71 be e9 60 9d be 5c 59 b1 be
       -0.3927625 -0.2359485 -0.30738 -0.34638488
000220 17 3c bc be 10 5c e7 be 6a 1f 0b bf 01 35 9a be
       -0.36764595 -0.45187426 -0.5434481 -0.30118564
000230 8f ce 56 be 94 13 d7 be a3 70 d7 be 91 4b dc be
       -0.20977233 -0.42007124 -0.42078122 -0.43026403
000240 21 6c 6c be 70 8b 86 be 38 2c 6e be c0 dd 9e be
       -0.23088123 -0.26278257 -0.23259056 -0.31028557
000250 5e 5c 3d 3e 6b a6 58 3e 83 96 36 3e 0e fc 72 3e
       0.18492267 0.21157233 0.17830853 0.23728964
000260 62 8b b3 be 25 ed 9e be 2c c1 92 be c0 f4 8b be
       -0.35067278 -0.31040302 -0.28663003 -0.27335167
000270 35 da b5 be c7 d1 ae be 7b 39 09 bf 5c a3 cc be
       -0.3551804 -0.34144422 -0.53603333 -0.39968383
000280 b5 a1 e8 be 59 66 f2 bd fb 8a e1 be 2c 57 b3 be
       -0.45435873 -0.118359275 -0.44051346 -0.35027444
000290 76 60 49 bc a1 5e a6 3c df 95 0c be c2 2e 56 3d
       -0.0122910645 0.020308794 -0.13729046 0.052290685
0002a0 00 51 f3 3c 31 8a 99 bd 32 c1 d6 3c 83 0d f2 3d
       0.02970171 -0.07497061 0.02621517 0.118189834
0002b0 02 a7 d7 3d 71 ac 02 3e aa 66 ea 3d dc 23 4d 3e
       0.10529901 0.12761094 0.11445363 0.2003321
0002c0 f9 f9 d9 be 2f ca 15 bf ac 6b 2a bf b5 29 02 bf
       -0.42573527 -0.5851163 -0.66570544 -0.5084489
0002d0 da 72 ce bd 38 1c 25 be 21 ea f4 bd 2e d0 0d be
       -0.100805 -0.16124046 -0.11958719 -0.13848945
0002e0 d1 3e 35 be 2a 07 a0 be 51 ec a3 bd 1e a2 3a be
       -0.17699744 -0.31255466 -0.08004058 -0.18225905
0002f0 05 b3 65 3e 0b 30 32 3e 28 fd 80 3e b8 c6 85 3e
       0.22431572 0.1740114 0.25193143 0.26128173
000300 36 9e 6e be a9 19 e1 bc 38 90 85 bd 44 12 85 bd
       -0.2330254 -0.027478056 -0.06521648 -0.064976245
000310 c5 79 47 be eb 33 83 be 1c 52 38 be 9b 67 7e be
       -0.19480045 -0.25625548 -0.18000072 -0.2484421
000320 ca 13 9a 3c 6e 8e a4 3c 54 63 c4 3d d2 3a 14 3d
       0.018808264 0.020087447 0.09589258 0.036188908
000330 86 f1 3b be 65 4e 80 be c5 1d 50 bc e1 fc 0c be
       -0.18353853 -0.2505981 -0.01270241 -0.1376834
000340 b4 93 ab 3e 92 c7 c8 3e d1 5e a8 3e 4f a9 e2 3e
       0.33511126 0.3921476 0.3288484 0.44269797
000350 15 cd 50 3e 29 3e e2 3b 34 47 91 3e ea ba e8 3c
       0.20390733 0.0069043827 0.28374636 0.02840944
000360 cb 33 be be 49 61 c1 be 93 7d 10 bf a7 3b 9f be
       -0.3714889 -0.37769535 -0.5644161 -0.311002
000370 5b 86 73 be 5e 0d 91 be 0f 66 90 be e2 c5 8a be
       -0.23781721 -0.2833051 -0.28202865 -0.27104098
000380 39 2e f6 be 68 5d da be 0e 53 1d bf 70 5b e5 be
       -0.4808214 -0.42649388 -0.61454856 -0.44796324
000390 29 ff c3 3d 7d 26 da bc 03 06 49 bd 5f 9c cd 3a
       0.09570152 -0.02662968 -0.049078 0.0015686861
0003a0 f9 c2 63 be c1 4a 34 be 8e b2 34 be 74 0c d5 bc
       -0.22242345 -0.17606641 -0.17646238 -0.026006915
0003b0 47 bd 45 bd dd e9 8e 3b 19 e7 d1 3b c0 a8 39 bc
       -0.048276212 0.004361375 0.006405723 -0.011331737
0003c0 f5 51 33 be 7f 17 75 3c c4 7d 97 bd d8 e0 62 bd
       -0.17511733 0.014959215 -0.07397035 -0.05539021
0003d0 9f c8 14 bd 15 0f 6c 3c d5 c7 3e be 98 11 d3 bc
       -0.03632414 0.014407893 -0.18630917 -0.025765225
0003e0 f1 90 95 bd 1c 69 19 bd c5 00 29 3d ae 4d fa 3c
       -0.07303036 -0.037453756 0.0412605 0.030554619
0003f0 68 29 f2 be ab 0c a1 be 54 bd b5 be 9d ff c9 be
       -0.47297215 -0.31454977 -0.35496008 -0.3945283

conv2.bias f4 [32]
000000 d3 9f 3d 3d 7c a0 9b bd fc 83 d9 bd 41 00 1b be
       0.046295 -0.07598969 -0.10620877 -0.15136816
000010 b6 fc f3 3d d5 1a b9 bd 6b d5 14 be 95 76 1a 3e
       0.11913435 -0.09038321 -0.14534537 0.15084298
000020 73 f7 7a bd 81 41 17 3e fe d3 4f be 2f 13 41 3e
       -0.061271142 0.14771082 -0.20295712 0.18854974
000030 95 f7 d1 3d c9 af f1 bd 0c 01 e8 be 9b 81 eb bd
       0.10252301 -0.118011065 -0.453133 -0.1149933
000040 e9 28 2c 3c e3 f7 5e 3b 49 bd 54 3d a1 69 f2 3d
       0.010507801 0.0034022264 0.05193833 0.11836553
000050 db 84 51 3d 17 77 57 be 82 1d 3d 3d ce 04 0a 3e
       0.05115209 -0.21041523 0.04617072 0.13478395
000060 0c d4 89 bd 6d 37 46 3e 0d 07 0b 3d c1 0a 00 be
       -0.06729898 0.19357081 0.03394227 -0.12504102
000070 43 ae f3 3b be cd 50 3e 0c ab 8c 3e 3c 73 1e be
       0.007436545 0.20390984 0.27474248 -0.15473646

conv3.weight f4 [64, 32, 2, 2]
000000 da c3 d2 bd 43 14 b9 3d 57 c2 15 3c 66 be 96 3e
       -0.10291262 0.09037068 0.0091405725 0.29442137
000010 58 71 22 3d e9 99 60 be 36 3e 70 3e 53 3a 52 be
       0.039658874 -0.21933712 0.23461232 -0.20530061
000020 cc 5b 74 3d 78 f5 95 3d bb 6d b9 3d 7e 3d f6 3c
       0.059657857 0.0732221 0.090541326 0.030058619
000030 46 3a 06 3d 1a 0c 71 bd 7a e1 6d 3c 6b 12 08 bd
       0.032770418 -0.05884943 0.01451909 -0.03322069
000040 0c 6b c4 be bb fa a3 be bd 9b 6d be 1f ce 8c be
       -0.3836292 -0.3202723 -0.2320394 -0.27501008
000050 db e2 92 bd b8 cf 45 3d 96 24 6f bd cd e0 28 3d
       -0.071721755 0.0482938 -0.0583845 0.04123001
000060 f9 c9 f4 3c d2 81 05 bd 97 37 3e bd 6d 4a 86 bd
       0.029881464 -0.03259451 -0.046439733 -0.06557164
000070 71 6b 17 be 6a 9e 57 be c0 36 a0 be 41 47 d8 be
       -0.1478708 -0.21056524 -0.3129177 -0.42241862
000080 ca 2a ed bc 0b 1d bd bd 26 04 d6 3c 76 55 ce bc
       -0.028951067 -0.09234055 0.026125025 -0.025187235
000090 bd 7f 82 3e a0 d0 90 bd b2 af 79 3e 0d bf c8 be
       0.25488082 -0.07071042 0.24383429 -0.3920826
0000a0 65 97 3a 3e 01 5c 9e 3e ac 62 66 3e b1 1e 9a 3e
       0.18221815 0.30929568 0.22498578 0.3010154
0000b0 e9 5a 4e 3d 0a 0f bd 3d 6b 52 cf 3c 61 70 35 3d
       0.050379667 0.09231384 0.025307855 0.044296626
0000c0 ac 8e 89 bc 22 ef ba be 46 b9 c6 3e 1d 4a 2e bd
       -0.016791664 -0.3651057 0.38813227 -0.04255115
0000d0 4c 41 45 3e bc 35 54 3e 51 e8 69 bd 30 43 f3 be
       0.1926319 0.20723623 -0.05710632 -0.47512197
0000e0 84 45 0d be 15 66 6b bd 83 30 0a bd 3e 01 73 be
       -0.1379605 -0.0574704 -0.03373767 -0.23730943
0000f0 f3 15 ea 3d 22 e3 9b 3d 2e 2c 70 3d 49 c8 49 3d
       0.11429968 0.076116815 0.058635883 0.049263272
000100 7c 37 8b 3d 1d 71 76 3d a7 0e b5 3d 3f 93 28 bc
       0.06797692 0.060166467 0.08840685 -0.010289012
000110 53 ce 3b 3d 94 a0 8b 3d 45 5c df bd 2a 0f ca bd
       0.045851063 0.06817737 -0.10906271 -0.098661736
000120 bb e8 21 3e 5d ca 39 bc 4b 94 02 be 5d 43 0d bd
       0.15811436 -0.011339751 -0.12751882 -0.03448807
000130 ca 3c 89 3e ac 21 33 bd e8 9e fc 3d 21 01 a2 3c
       0.2680419 -0.043733284 0.123349965 0.019775929
000140 7b 9d 85 be 4a 5b 44 3d 4f eb 50 3d 48 44 22 3e
       -0.2609671 0.047938623 0.051005658 0.1584636
000150 b0 89 48 3e 9c b4 1e 3e 13 9a 25 bd 99 de ca 3d
       0.19583774 0.15498585 -0.04043014 0.099057384
000160 fe 7e b1 bd 2a c0 b8 bc 92 24 86 bd 7d 0d 04 bd
       -0.086668 -0.022552568 -0.06549944 -0.032239426
000170 c6 75 c7 be d0 65 0a be c6 35 b7 3e 06 fc 52 3e
       -0.38957042 -0.13515401 0.35783213 0.20603952
000180 49 d6 17 3e 29 48 6e be 35 f5 87 3e c8 99 5b be
       0.14827837 -0.23269714 0.26554266 -0.21445382
000190 c1 6a ca 3e 01 07 46 be ef 78 b6 3c 25 9b a3 be
       0.39534572 -0.1933861 0.022274463 -0.31954303
0001a0 d5 27 8f 3d b9 42 1f be f1 26 49 be 40 78 f2 bd
       0.06990019 -0.15552796 -0.19643761 -0.11839342
0001b0 f4 8e 89 3d 7e d2 50 3c 09 99 a2 bd 3b 25 30 bc
       0.06716719 0.012745498 -0.079393454 -0.010751064
0001c0 2b 58 04 3d e1 62 23 3d a5 24 d4 3d e4 d2 3c 3d
       0.032310646 0.03988922 0.10358552 0.04609956
0001d0 cd 02 7e 3e a5 59 ba bd 34 04 20 3e 06 4f 7d 3b
       0.24805756 -0.090991296 0.15626603 0.0038651838
0001e0 08 c1 77 3d 7e 2b 89 3e 26 95 f1 3d 30 41 68 3e
       0.060486823 0.26790994 0.11796026 0.22681117
0001f0 88 9d 25 3c 35 02 85 3c 22 88 d8 3d a5 06 35 bd
       0.010108359 0.016236404 0.1057284 -0.04419579
000200 d5 d4 54 be 75 32 0d bf 95 ea 80 3d c0 8e 8a bc
       -0.20784314 -0.55155116 0.06294743 -0.016913772
000210 05 8f 76 3e 85 73 bb bd 37 4f 81 3e ee 4b 55 3e
       0.24077995 -0.09152893 0.2525575 0.20829746
000220 72 73 1b 3d 16 db 32 3b 5f 7e d6 bd e5 ef a5 bd
       0.037951894 0.002729123 -0.10473322 -0.08102397
000230 be fa 80 bd fb 16 d0 bd cb 13 15 3d ed 11 75 3d
       -0.06297825 -0.10160633 0.03639583 0.05983155
000240 54 1f a8 bd 98 33 1c be a3 12 3c be 2a 27 be bd
       -0.082091 -0.15254056 -0.18366484 -0.09284814
000250 74 d6 f1 bb 78 f6 d1 bc f0 33 d1 bc 0b ce 75 3d
       -0.007380301 -0.02563022 -0.025537461 0.06001095
000260 ce b4 71 bc 3f e1 d1 3c b4 80 6d 3d c5 ad 16 3d
       -0.01475258 0.025620101 0.05798407 0.036786813
000270 e2 cf fa bc c6 50 93 be 27 da ea 3c 11 8a 33 be
       -0.030616704 -0.28772563 0.028668476 -0.17533137
000280 67 b3 0c bc f4 63 63 3c 4d c7 6e bc 9e 0e 9b bc
       -0.008587695 0.013878811 -0.014573884 -0.018927868
000290 38 65 d1 3d fe 87 20 3e 16 2b cb bd 6a 98 5f be
       0.10224384 0.15676877 -0.09920327 -0.21835485
0002a0 a0 38 6d bd 93 5b 52 3d 94 0e 83 be 73 22 f9 bd
       -0.05791533 0.051356863 -0.2559706 -0.12164774
0002b0 fa 67 3c 3d 84 21 ae be 23 0b 76 3e cc cb a0 bd
       0.045997597 -0.34009945 0.24027686 -0.07851371
0002c0 f6 c8 56 3e 72 0c 86 3e 3f 40 a6 bd 61 50 40 be
       0.20975098 0.2618137 -0.08117723 -0.18780662
0002d0 a5 3f cf 3d 60 d7 a4 3d 05 92 e1 3d 03 64 82 3e
       0.10119561 0.08048892 0.11014179 0.25466928
0002e0 96 82 a2 be 18 27 12 bd 1b 1b 8c be 39 ec 4f 3d
       -0.31740254 -0.035681814 -0.2736443 0.05076239
0002f0 d8 31 fc bc a2 0e 9e 3d 8f a0 1c bd 33 45 ac 3c
       -0.030785486 0.07717635 -0.038239058 0.02102909
000300 25 30 24 3e c9 10 79 3c 46 71 21 bc 67 12 54 3d
       0.1603399 0.015201756 -0.009853667 0.051775362
000310 74 1c 83 bc 99 70 8c bd 4e ea 9c bd e4 8c a4 3d
       -0.016004778 -0.06857414 -0.076618776 0.08034685
000320 f3 7a 39 3d 76 d8 01 bd 72 45 b6 be cf 78 30 be
       0.04528327 -0.031700574 -0.35599858 -0.17233585
000330 ad d8 07 be 99 a5 de 3c 26 41 06 bf a4 a4 c2 bd
       -0.13266249 0.027178572 -0.5244316 -0.09504059
000340 10 8a 08 be 4f c6 be bc 35 c3 a5 be 8e 9a b8 be
       -0.13333917 -0.02328792 -0.32375494 -0.36055416
000350 4e f8 62 bd 89 ed bb bc 78 b2 c1 3c 67 15 04 3e
       -0.055412583 -0.022940414 0.02364467 0.1289879
000360 42 40 1b 3d 9c 47 81 3d 7a 59 95 3d a1 55 31 3e
       0.037903078 0.063124865 0.07292457 0.17317821
000370 71 46 71 be e7 d4 8c be 76 36 04 3e a4 52 fd bc
       -0.23562028 -0.27506182 0.129114 -0.030923195
000380 b0 56 6c 3e b8 06 89 3e e2 db f8 bd 33 d4 95 bc
       0.23079944 0.26762938 -0.12151314 -0.018289661
000390 47 a3 62 3e 7b 5d f1 3d 53 55 0e be fc dc 44 be
       0.22132598 0.11785408 -0.13899736 -0.19224924
0003a0 f3 4c 95 be fa ab 40 bf 62 56 74 be 45 d3 f4 be
       -0.2916027 -0.75262415 -0.23861077 -0.47817436
0003b0 46 72 8e 3c 5e 56 9a bd 10 37 1a 3d 2f fe a7 3d
       0.017388474 -0.075360045 0.037650168 0.082027785
0003c0 49 91 6d 3e db 62 bb 3d 60 0b 98 be 03 7d b4 bd
       0.23199953 0.091497146 -0.29696178 -0.088129066
0003d0 9f 84 91 3d 92 2d 52 3e 32 6b 4a be ad c4 70 3d
       0.071053736 0.20525196 -0.19767454 0.058781315
0003e0 ba f4 09 3e 40 62 a8 3d f6 e0 a8 3d 57 1b 25 bf
       0.13472262 0.08221865 0.08246033 -0.6449484
0003f0 02 2c 5e bd e3 77 01 3d 3a 3d 70 bd c1 77 c7 3b
       -0.054241188 0.031608474 -0.05865214 0.006087274

conv3.bias f4 [64]
000000 36 cc c4 3a 76 03 b1 3e c4 02 15 3e b4 c6 cc be
       0.0015014473 0.34572953 0.14551836 -0.39995348
000010 a4 22 27 3d 7f 6d be bc e0 a8 ed 3d 53 02 b6 bd
       0.04080452 -0.023245571 0.11604476 -0.08887162
000020 23 fd 07 3e 1e 2e 0a 3e a5 30 bd be 4a 71 b8 bd
       0.13280158 0.13494155 -0.36951175 -0.09005983
000030 6c ab 24 3d f9 05 db bd dd 1c d4 3d 0e 61 1a 3e
       0.040202543 -0.106944986 0.10357068 0.15076086
000040 fa 84 3a bd e2 4b 03 3d 84 98 30 3d 38 70 80 3d
       -0.045536973 0.03205479 0.0431142 0.06271404
000050 e2 0c 00 3e 80 36 2f ba 32 7e ef be ff 79 0f be
       0.12504914 -0.00066838413 -0.46775967 -0.14011382
000060 fc b7 89 3a f9 56 27 be fa 7f b2 3e d7 9d ae 3d
       0.0010507102 -0.16341771 0.34863263 0.08526199
000070 fb 6b 79 3e f3 86 12 3e 0e 77 04 3e 74 e6 53 3e
       0.24357598 0.14309292 0.12936041 0.2069338
000080 45 04 aa bd 37 bd 66 3e ae 04 87 bd 8c 89 5f be
       -0.083015956 0.22533117 -0.065926895 -0.21829814
000090 50 b0 f9 3c ad 39 80 3e 62 dd 64 be dd 61 0f 3d
       0.03047958 0.25044003 -0.22350076 0.03500544
0000a0 11 9d b9 3d 35 eb 3b 3e 33 76 ff 3c ae 69 2a be
       0.09063161 0.18351443 0.031184291 -0.16641876
0000b0 6b 1a 4b 3d 85 a7 16 bd 66 5e 6e 3d f7 09 e3 3d
       0.04958574 -0.036780853 0.058195494 0.11085885
0000c0 b6 99 2f bd 75 43 83 bd d6 66 a6 3d 49 f7 c2 bd
       -0.0428712 -0.06409351 0.08125083 -0.09519822
0000d0 a7 c0 6a 3d e9 29 2f be 54 ac 05 3e 99 85 12 bc
       0.057312634 -0.17105831 0.13054019 -0.008942985
0000e0 06 81 04 be 0c c1 e1 3c cc ad e3 bd aa 37 4d be
       -0.12939844 0.027557872 -0.111171335 -0.20040765
0000f0 93 92 a2 3d d1 cd fc 3b bc d3 11 be ad 44 32 bd
       0.07938113 0.007714965 -0.14240927 -0.043522526

conv4.weight f4 [64, 64, 2, 2]
000000 a0 20 32 3d f2 07 4a be 94 f3 b1 bd 95 d5 10 bf
       0.043488145 -0.19729593 -0.08689037 -0.565759
000010 60 82 67 be 37 ba 6e 3e c8 9f 55 be 66 46 79 3d
       -0.22608328 0.23313223 -0.20861733 0.060858153
000020 30 77 c6 be 9e 7e ee 3d 28 55 8f be 8e e8 32 bd
       -0.38762808 0.11645244 -0.27994657 -0.043678813
000030 ea 18 da bd af c3 45 be 40 47 28 be c8 ed 3a be
       -0.10649283 -0.19312929 -0.1643343 -0.18254769
000040 28 9c 0b 3e 94 53 c8 3d e6 e2 ab 3d e0 0a aa be
       0.13633788 0.09781566 0.08392887 -0.33211422
000050 b8 10 7b be 9b b8 ab be 5d e1 03 be f3 ac 48 be
       -0.24518096 -0.3353928 -0.12878938 -0.19597225
000060 9b b5 1a 3d 9b 61 11 bf 84 ff 07 3e 70 47 30 be
       0.03777085 -0.5678956 0.13281065 -0.17214751
000070 bc b1 5b bd 17 af f3 3c 85 70 38 3e a5 fa de 3c
       -0.053636298 0.029746575 0.18011673 0.027219126
000080 4e be 2c 3e 06 00 48 be fa 3f 99 3e a8 44 05 3d
       0.1686947 -0.19531259 0.29931623 0.03253618
000090 1b b0 44 be 55 5c 91 be 8e 90 f1 bd f6 23 05 be
       -0.19207804 -0.28390756 -0.1179515 -0.13002
0000a0 1d c7 05 be 1e 92 cb 3c 47 03 87 be c3 a0 d5 be
       -0.13064237 0.024849948 -0.26369688 -0.41724214
0000b0 5c bb f5 be b5 fc cb 3d b7 9a f4 be 59 3a e5 be
       -0.47994506 0.099603094 -0.47774288 -0.44771078
0000c0 c4 ba b8 be ce e6 21 3d 82 34 c4 bd 1b 4d 85 be
       -0.3607999 0.039526753 -0.095803276 -0.2603539
0000d0 89 06 ac bc 66 53 8f bd 86 68 40 3d 89 62 a4 bd
       -0.02099921 -0.06998329 0.04697468 -0.080266066
0000e0 0e a8 86 3e bf ee ab bc 51 e2 e5 3e 8e 87 88 3e
       0.2630009 -0.020987866 0.44899228 0.2666592
0000f0 e6 dc 0c be 47 e7 4b be 57 16 87 3e 2c 49 59 bc
       -0.13756141 -0.19912444 0.2638423 -0.013262074
000100 f2 44 ba bd df 38 63 3d ec 59 ad be 1f 3b 8e bc
       -0.090951815 0.05547416 -0.33857667 -0.017362176
000110 a1 da 51 be 5e 97 3f bd 71 26 c2 bd f6 cf b9 be
       -0.20493557 -0.046775214 -0.09479988 -0.36291474
000120 2b 31 17 3e 12 2e 40 be 33 89 65 3d e1 6b a6 3d
       0.1476485 -0.18767574 0.056039046 0.08126045
000130 89 98 c3 be 76 c6 ef bd 83 cf 83 be 54 83 9b bd
       -0.38202313 -0.11707775 -0.25744256 -0.07593408
000140 2d 1a 19 be 4c 0c bc 3e 81 4f 4a bc 65 52 ec 3d
       -0.14951392 0.36728132 -0.012348057 0.11539153
000150 5e 28 c3 be d2 e0 f7 3e 85 d1 dd 3c 7d f7 41 bd
       -0.38116735 0.48413712 0.027077446 -0.047355164
000160 b9 7d 33 3d c7 58 1d 3d 54 6e a5 be 49 17 a9 3d
       0.04382107 0.038414743 -0.32310736 0.082563944
000170 60 02 e5 bc 2a ed 2f 3d fb 53 0b 3d 65 49 ad 3d
       -0.027955234 0.042950787 0.034015637 0.084612645
000180 b0 ff fa be ad c9 0b be 4c ba 48 be dd da 84 3e
       -0.490232 -0.13651152 -0.19602317 0.2594823
000190 a7 0c 02 3d 59 c5 90 3e 28 06 0c be b0 c3 21 3e
       0.031750347 0.28275564 -0.13674223 0.15797305
0001a0 ee 82 e5 3d 4c 9a 3f be 27 bd 55 3e 59 94 b6 bd
       0.112066135 -0.18711203 0.20872937 -0.08915014
0001b0 85 94 64 be 68 22 04 bf e1 e3 1f be 00 16 b6 be
       -0.2232228 -0.51615 -0.15614273 -0.3556366
0001c0 8b a5 23 be fd cd ec be 43 bb 23 3d 7b 13 70 be
       -0.15981118 -0.46250907 0.03997351 -0.23444931
0001d0 ef 1b 1d be a1 91 81 be e8 8c 07 bf ce 37 bb be
       -0.15342687 -0.2530642 -0.5294938 -0.36566013
0001e0 3c b3 81 3d 44 99 90 3e 59 a3 dc 3c e4 b3 85 be
       0.06333014 0.28241932 0.026933359 -0.26113808
0001f0 f9 ae 19 be d3 e5 55 3e 91 3b 6e be 5b e6 bd 3d
       -0.15008153 0.20888452 -0.2326491 0.092724524
000200 81 59 33 be a7 24 e2 bd 2b 13 5d be 27 77 33 be
       -0.17514612 -0.11042147 -0.21589343 -0.17525922
000210 4d 80 91 3d e6 07 b5 be 63 d3 c8 3c 8f 84 2c 3e
       0.071045496 -0.3535759 0.02451486 0.16847442
000220 de e5 a1 3d 16 95 11 be aa 3f 64 be be e1 49 3e
       0.07905172 -0.14217028 -0.22289911 0.1971502
000230 e5 d4 10 be f8 a0 35 3d ee d0 dd bd b2 6a 78 3c
       -0.14143713 0.044342965 -0.10830866 0.015162157
000240 91 25 24 bd 38 04 6d bd 85 22 35 3e b6 87 0e 3e
       -0.04007489 -0.05786535 0.1768895 0.13918957
000250 77 2c bd 3d 98 ac 32 3d 3a 3b 19 3e cd 04 1f 3d
       0.092369966 0.04362163 0.14964 0.038822938
000260 7c 69 2b be 07 60 fa 3c 9c a9 00 bf 92 65 04 bf
       -0.16739458 0.030563368 -0.50258803 -0.51717484
000270 db 59 a5 be 6d 96 07 3e 40 0f 98 be 62 08 e5 bd
       -0.32295117 0.13240977 -0.29699135 -0.111832395
000280 37 20 22 be 35 70 4e 3e 75 24 4a be 44 99 9f 3e
       -0.15832601 0.20159991 -0.1974047 0.3117162
000290 78 87 5c be c3 55 8d bc 4f 23 2d bd 41 f1 c3 bd
       -0.21536052 -0.017252808 -0.04227 -0.095675
0002a0 0c 1c 15 3e d0 e5 11 be df e6 fb bd 8e 58 8a be
       0.1456148 -0.14247823 -0.122998945 -0.27020687
0002b0 a2 0b 7e bd e5 93 4c bd 2a d0 08 bd e8 27 ff 3a
       -0.062022813 -0.04994573 -0.033401646 0.0019466849
0002c0 1c 13 c7 3d 57 23 ba 3d fa 2d 2f bc 87 0e b2 3e
       0.09720442 0.09088772 -0.010692114 0.34776708
0002d0 39 2a 08 be 43 da ba 3c 8f a0 c0 be 48 2d 09 be
       -0.13297357 0.022809153 -0.37622496 -0.1339618
0002e0 d4 58 79 bc 3f ec cd be b8 34 7a 3e 16 4c c6 be
       -0.015218932 -0.40219304 0.24434173 -0.38729924
0002f0 2a 05 d2 3d b8 3e 11 bf 34 d6 3a 3e 06 b0 b7 bd
       0.10254891 -0.56736326 0.18245775 -0.08969121
000300 a3 ab 95 be 62 4a 76 3e d1 47 35 be f9 43 b7 3d
       -0.2923251 0.24051812 -0.17703177 0.08948512
000310 f5 06 6c bd 5f 9e 6d be 1a 78 b7 3e 4d 90 0c be
       -0.057623822 -0.23204945 0.35833818 -0.13726921
000320 c2 6a 2a 3e 41 91 23 be 47 b3 c0 3e ca 37 f7 3d
       0.16642287 -0.15973379 0.37636778 0.12071188
000330 94 39 ad bd a3 25 1a 3d 73 b1 0e 3d ec 31 8e 3d
       -0.08458248 0.03763355 0.034837198 0.069431156
000340 f6 02 fd 3d 20 41 c7 3c fb 04 82 3e 45 31 7b 3e
       0.123540804 0.024323046 0.25394425 0.24530514
000350 90 fe 3d 3e 4e 96 d0 be d3 43 80 bd a1 cd f5 bd
       0.18554139 -0.40739673 -0.062629364 -0.12002111
000360 4e 88 a2 3e 71 25 6f be a9 08 ab 3e 64 2e aa 3e
       0.31744617 -0.23354127 0.33405045 0.33238518
000370 3c 47 96 be d6 3c 6b be bc 8c dd bd c1 30 b9 3c
       -0.29351223 -0.22972426 -0.108178586 0.022606255
000380 a2 b5 17 3e c8 ea 49 3e c3 c6 f6 bd 8e e7 b1 3e
       0.14815381 0.19718468 -0.120496295 0.34746975
000390 82 24 87 be 1e da 31 3e b0 a7 d9 be 68 39 d1 bd
       -0.2639504 0.17368361 -0.42510748 -0.102160275
0003a0 1f 1d 07 be 4b ec 19 3e 69 bb d0 3d 63 e8 ad be
       -0.13194703 0.15031545 0.10191996 -0.3396636
0003b0 5f 1c c2 bd b8 a9 c6 bd 1d 4e 37 3c 72 ce 0f 3c
       -0.094780676 -0.0970034 0.011188057 0.008777248
0003c0 c2 60 3f 3d 8d 5b 85 be 01 ed ad 3e 71 a6 c0 be
       0.046723135 -0.2604641 0.33969882 -0.37626985
0003d0 07 c6 0b 3d 30 3d bf be 06 63 4d 3e 14 d9 0a 3b
       0.0341244 -0.3735137 0.20057306 0.0021186518
0003e0 1a 25 7e be a1 f5 02 3e 9b ba b9 bd ce 96 37 be
       -0.2481884 0.12789012 -0.09068795 -0.17928621
0003f0 7b 6c 3f be b7 d0 0c 3e 4f 81 58 be 0e 6e e3 3d
       -0.18693726 0.13751493 -0.21143077 0.11104976

conv4.bias f4 [64]
000000 fe 0b 9d bd c7 63 a4 bd b9 9e b8 bb 1f 08 d1 bd
       -0.07668303 -0.080268435 -0.0056341556 -0.10206627
000010 9f 89 aa 3d 42 60 0d 3e 6e 07 91 3b 96 8c 65 bd
       0.083270304 0.1380625 0.0044259345 -0.056042276
000020 04 10 0e be c6 08 5e 3e 9c c1 c6 bd 80 92 e9 bc
       -0.13873297 0.21683034 -0.09704897 -0.02851224
000030 8f f9 fc 3d 08 ee 96 3e a9 9c f2 3d ca 62 2e 3e
       0.12352287 0.29478478 0.11846287 0.17029873
000040 ba b1 2b 3c a2 34 0e be 49 b5 26 3e b3 92 2a 3d
       0.010479385 -0.13887265 0.16280092 0.04164381
000050 f7 02 be 3e 18 7e b3 3d a5 dc a1 be 03 ef 40 bd
       0.37111637 0.08764285 -0.3161365 -0.04710294
000060 be 44 bb bd 64 47 3d 3e ef 76 40 bd f2 20 a2 3e
       -0.09143971 0.18484265 -0.046988424 0.3166576
000070 48 4e ba 3d f6 29 00 3e b5 e1 19 be 08 64 ae 3d
       0.09096962 0.12516007 -0.15027507 0.08515173
000080 74 73 82 3e e7 66 0f 3e ba b2 e7 bd c1 c4 0c be
       0.2547871 0.14004098 -0.11313386 -0.1374693
000090 8d 64 93 bd 8e cb 66 be ba f0 98 be 21 75 77 be
       -0.07196913 -0.22538587 -0.2987116 -0.24165775
0000a0 25 5f 61 3d 0d 3c 99 be 14 38 52 3c ac 89 9a 3d
       0.055022378 -0.29928628 0.012830753 0.0754579
0000b0 3e 8d d5 3d c3 9f 8e bd 48 40 d5 3d 31 e3 14 be
       0.104273304 -0.06964066 0.10412651 -0.14539792
0000c0 c2 34 24 3e 4b 76 3a be 6a 98 c2 bd a1 be b4 39
       0.1603575 -0.18209188 -0.09501727 0.00034474305
0000d0 64 f3 2f 3e 2a f6 89 3e 0c eb 89 3e 08 23 d4 bd
       0.1718269 0.2694562 0.2693714 -0.10358244
0000e0 0a 9d cc bc 62 e5 88 3c be 05 83 bd 58 8e ca bd
       -0.024977226 0.01671094 -0.063975796 -0.09890431
0000f0 57 9a 09 3e c5 4f 3a 3e e2 5c d8 bd c9 5d 93 bd
       0.13437782 0.18194492 -0.10564591 -0.071956225

conv5.weight f4 [128, 64, 2, 2]
000000 77 50 16 bd 87 7f 3c be ec cc 03 be 55 8e 5d be
       -0.03669783 -0.18408023 -0.1287114 -0.21636327
000010 ea c8 aa 3c e0 d8 51 bd 28 88 d9 3c 83 30 ad bd
       0.020847756 -0.05123222 0.026554182 -0.084565185
000020 d0 58 2d 3e a9 a2 99 3c 96 e2 43 3e d8 a9 5e be
       0.1692841 0.01875432 0.19129404 -0.21744478
000030 0f 29 54 be 3c de de 3c 43 f1 62 be ec d9 12 be
       -0.20718788 0.027205579 -0.22162347 -0.14340943
000040 36 5f de be e1 60 0b bf 0e 8b 15 be 85 ef 99 be
       -0.43432015 -0.544447 -0.14603826 -0.3006555
000050 2b d3 ad be b7 06 0f 3d fc 04 00 be 04 ea 2e be
       -0.3395017 0.034918513 -0.12501901 -0.17081457
000060 04 5d 21 be d7 2e c4 3c 65 c5 8c 3d 04 91 2e 3d
       -0.15758139 0.023948116 0.068735875 0.042618766
000070 66 4f 81 be 0b e9 77 be 95 c0 4e be 28 77 14 bd
       -0.2525589 -0.24209993 -0.20190652 -0.03624645
000080 4e ac 71 bd 43 a9 de be 8f 1c 1d bd 4c 6b bc bd
       -0.059002213 -0.4348851 -0.038357314 -0.09200153
000090 6d 0e 19 3e e7 56 15 bd a8 f9 8b 3e b0 0d 5b bd
       0.14946909 -0.03645983 0.2733891 -0.05347985
0000a0 77 8f 2c be 7b 6e a1 be ba bd 0f 3d 04 f3 04 3e
       -0.16851602 -0.31529602 0.035093047 0.12983328
0000b0 04 b2 d3 be f4 3d 82 bd 02 1e 09 3d 05 6d 96 3e
       -0.41346753 -0.06359473 0.033475883 0.2938005
0000c0 b3 09 60 be 19 84 4b bf ef d1 49 bd ad c0 0c be
       -0.218787 -0.7949844 -0.049272474 -0.13745375
0000d0 78 a6 87 be 13 02 3a bc 20 fe 53 be e4 61 6f 3d
       -0.26494193 -0.011353034 -0.2070241 0.058442965
0000e0 93 e4 eb bc 95 21 37 be f3 e3 c7 be 1b 9a 5f 3e
       -0.028795516 -0.17883904 -0.390411 0.2183613
0000f0 0c 3e 99 be 88 e6 d1 3d f0 4e 9c 3d ac 71 9f bc
       -0.2993015 0.102490485 0.07632244 -0.019463383
000100 59 70 86 3e 19 a4 63 3e 27 de eb be 6f 3f a0 be
       0.2625759 0.22230567 -0.46067926 -0.31298396
000110 e4 8e 49 bb 16 18 58 3c 8d 10 6f 3c e6 6f 6b 3d
       -0.0030755335 0.013189336 0.014591348 0.05747976
000120 2d 54 2d 3d 67 cc 87 3e 0d 4f a1 be 1a ab 33 be
       0.042316604 0.26523134 -0.31505623 -0.17545739
000130 ef 5a eb 3d ed 5d 20 be a3 d8 39 3d 5e f9 4d 3e
       0.114919536 -0.1566083 0.045372616 0.20114657
000140 42 7d ec 3d d8 04 55 bb 8b 1e f4 3d 86 a5 22 3d
       0.115473285 -0.0032504108 0.11919888 0.039708637
000150 e4 45 14 bd 9c 14 cb bd 8b 8e bb bc d8 8d fb 3d
       -0.036199465 -0.0991604 -0.022895118 0.12282914
000160 c5 80 ab be 2b 07 36 3d 39 af 13 bc 8d 1c a9 3e
       -0.3349668 0.04444043 -0.009013944 0.33029595
000170 73 55 c9 be 80 11 90 be d6 0c a9 3d 97 8d f9 bb
       -0.39323005 -0.2813835 0.082544014 -0.007615756
000180 59 7e 95 bd 21 01 03 bd 6d 9f 9b bd 4f e7 a9 bd
       -0.072994895 -0.0319835 -0.075987674 -0.08296072
000190 d5 b3 1d be 7f c2 59 be 5d 60 ac 3e 68 99 20 3e
       -0.15400632 -0.212656 0.3366727 0.1568352
0001a0 1e 3f f0 bb 97 9e 7d bd 40 72 66 3e 7d 95 03 bf
       -0.007331743 -0.06191882 0.2250452 -0.51399976
0001b0 07 ca f5 3e 31 4c 2b bd 26 9f 83 3e 5c e0 27 3e
       0.48005697 -0.04182071 0.25707358 0.1639418
0001c0 c4 36 20 3e a2 00 cd 3c cb a3 26 3f a6 9b 55 bd
       0.15645891 0.025024716 0.6509368 -0.05215039
0001d0 5c 8b 48 3e 89 d2 86 3e 42 c8 bb 3e 67 9b 9f 3e
       0.19584411 0.263325 0.36676222 0.3117325
0001e0 ce b8 30 bd 72 eb 0a 3d a5 0e 08 bd a5 e7 45 be
       -0.043144993 0.033915944 -0.03321709 -0.19326647
0001f0 b1 96 62 3e 99 3e 3b be f9 b4 5e 3e ee 6b b7 be
       0.22127797 -0.18285598 0.21748723 -0.3582453
000200 0d a5 db bd 1b 92 7d bd 31 0a ab bd 5d 38 a3 bd
       -0.1072484 -0.061906915 -0.08351553 -0.07969735
000210 03 f0 87 be 54 c6 c7 bb 72 6a 86 bd 6f a3 12 bd
       -0.26550302 -0.0060966406 -0.065632716 -0.035800394
000220 7e c5 d3 3e cf 65 17 3f ff cc 4b 3e ee 0f ed 3e
       0.41361612 0.5913972 0.19902419 0.46301216
000230 ec d7 40 be 74 10 8c 3e d6 47 a0 be 26 c4 8a bc
       -0.18832368 0.27356303 -0.31304806 -0.016939234
000240 aa 20 23 3d 79 fe 8a 3d cb db df 3c eb 0b 8d be
       0.039826073 0.06786818 0.027326485 -0.27548155
000250 5c 7a b7 be b5 29 90 be 53 16 27 be 8e 33 98 3e
       -0.3583554 -0.2815682 -0.1631711 0.29726833
000260 e2 9f f0 bc af 22 c3 3e f1 2b e4 bd ed a9 75 be
       -0.029373113 0.381124 -0.11141194 -0.23990603
000270 80 3f 40 be fa 02 34 be 81 74 fc be e9 97 83 be
       -0.18774223 -0.1757926 -0.49307635 -0.25701836
000280 8e 51 b3 bd a3 59 94 be f0 16 7c 3e 3d b1 5e bd
       -0.0875579 -0.28974637 0.24618125 -0.054368246
000290 86 d2 bc be 1f 0f 7a be 69 ab 55 be 26 e4 97 be
       -0.36879367 -0.2441983 -0.20866169 -0.2966625
0002a0 9c a4 40 bd a0 e5 b7 3d 83 93 45 be 78 3a d0 be
       -0.047031984 0.08979344 -0.19294553 -0.40669608
0002b0 2a 10 a5 3d 91 e9 0f 3e 34 f5 f6 3d ac 3b c3 3e
       0.08059724 0.14053942 0.120584875 0.38131464
0002c0 1c ab 8d bd bb 11 69 be 08 eb 83 ba 31 96 5f be
       -0.06917402 -0.2276067 -0.0010064552 -0.21834637
0002d0 1e 07 2e 3d 47 d3 00 3e cf 1c 65 be 85 96 cc bd
       0.042487256 0.12580596 -0.22374271 -0.09989647
0002e0 04 89 e0 be 00 45 c2 bc 3b ae e8 be f6 d8 a4 be
       -0.43854535 -0.023714542 -0.45445427 -0.32196778
0002f0 c3 b5 2e 3e c2 4d c1 bd 9a f2 93 be d8 e8 b4 be
       0.17061524 -0.09438659 -0.28896028 -0.35333896
000300 85 98 08 be f5 c9 c8 bc 1d c1 19 be bb cf 4a bd
       -0.13339432 -0.024510363 -0.15015073 -0.049514513
000310 5c 99 1d 3e 37 c0 3b bf 7e cb 91 be 06 65 1e bf
       0.15390533 -0.7334017 -0.28475565 -0.618729
000320 e1 3b 4d be d0 3b 9c 3d d4 37 9b bd 52 3f 84 be
       -0.20042373 0.07628596 -0.07579008 -0.2582956
000330 d8 05 37 3e c0 e8 98 3d 90 a0 5c 3e 1f b3 89 be
       0.17873323 0.074662685 0.21545625 -0.2689447
000340 da 37 8c 3d 8d bd 73 be 93 5c 56 be dd 63 93 be
       0.0684659 -0.23802777 -0.20933752 -0.28787127
000350 93 1e 91 3e e5 8a d9 3e 7f d3 53 3d e8 45 5a be
       0.2834364 0.4248878 0.05171537 -0.2131573
000360 d6 74 58 3e 36 7e 8e be 40 4b 2e be a4 e0 ac be
       0.2113832 -0.27830666 -0.17020893 -0.33765137
000370 de f1 a7 be a9 39 e8 be fb 16 3f 3e cb 02 6f be
       -0.32801718 -0.4535649 0.1866111 -0.23340909
000380 5a f0 82 3d ae a0 06 be a0 24 13 3e f9 e0 67 3d
       0.063935 -0.13147232 0.1436944 0.056611035
000390 ba 21 85 3d f4 d7 11 3e 3b 4c ce be 9f 19 2f be
       0.065005735 0.14242536 -0.40292534 -0.17099617
0003a0 22 e9 c9 3c 99 ba 98 3e 58 2a 69 be 9a aa 99 3e
       0.0246473 0.29829863 -0.22770059 0.3001297
0003b0 df ee 6a be cc e6 00 be cf 27 c3 bd 74 41 96 3d
       -0.22942685 -0.12588042 -0.09529077 0.07336703
0003c0 9f 37 bb bd fd 84 d0 3d 4e 3b d9 3d 79 39 6a 3f
       -0.09141468 0.101816155 0.106070146 0.91493946
0003d0 3e a9 b0 be 38 7a 4d be 93 30 72 bd d7 15 d5 be
       -0.34504122 -0.20066154 -0.059128355 -0.41618225
0003e0 51 d3 0a 3e 93 df c6 3d 12 aa d2 bc 27 f4 13 be
       0.13557173 0.09710612 -0.025715861 -0.14448605
0003f0 39 db 64 bd 7b 61 67 bc 8a fa 70 3a 0e fd 71 3c
       -0.05587313 -0.014122362 0.00091926067 0.014769806

conv5.bias f4 [128]
000000 45 8b 68 3e 91 fa 03 3d 3d 8a 60 3e f3 ad 3c 3e
       0.22709377 0.03222138 0.21927734 0.18425731
000010 81 21 c3 bd b4 b9 e8 3d 09 80 4d 3e 71 f8 af 3d
       -0.09527875 0.11363545 0.20068373 0.08592308
000020 62 d6 4b 3e a0 40 9e be 51 b6 09 3e b0 80 38 3d
       0.19906 -0.3090868 0.13448454 0.0450446
000030 62 67 83 be 83 2c 49 be fc 21 f3 bd 78 20 72 3d
       -0.25664812 -0.19645886 -0.118717164 0.059112996
000040 31 e8 85 be d9 13 21 3e a4 3e ef 3d 7b 08 dd bd
       -0.2615371 0.15730228 0.116818696 -0.10792633
000050 a4 8b fa 3d 74 2c c8 3c 60 73 a2 bc e1 d0 ba 3c
       0.122336656 0.02443526 -0.019830406 0.02280468
000060 f0 49 cd 3e 19 65 2e 3e 87 27 f6 3d ac e5 e8 be
       0.40095472 0.17030753 0.12019258 -0.45487726
000070 3d 99 f4 bd 82 18 26 be 07 cb 6d bc d3 6a 44 bc
       -0.119432904 -0.16220286 -0.0145137375 -0.0119883595
000080 52 88 c9 3b f4 33 6d be 20 2c 21 3e b8 5d 4c 3e
       0.006150284 -0.2316435 0.15739489 0.19957626
000090 f1 a3 32 3d f9 8c ca 3d dd 4e f3 bc 15 a7 c5 bc
       0.043613378 0.0989017 -0.02970069 -0.024127522
0000a0 33 d7 76 3d ee d4 46 3d 41 36 b4 3d b8 3c a2 3d
       0.060263824 0.04854291 0.087994106 0.079217374
0000b0 dd 59 61 3c f4 5e 2c 3e 08 6e 3d bd 78 34 61 3e
       0.013754335 0.16833097 -0.046247512 0.21992671
0000c0 2d f0 01 3e 3a 45 02 3e 0c 1a 0a be 37 54 88 be
       0.12689276 0.1272172 -0.13486499 -0.2662675
0000d0 b5 a2 cd be 8a 9f 85 be a0 b1 8b 3d d7 55 43 3e
       -0.40163198 -0.2609828 0.06820989 0.19075714
0000e0 2f f2 30 3d 39 6a 3b 3e c9 e9 27 be db 0a 4d 3d
       0.043199714 0.1830224 -0.16397776 0.05005918
0000f0 05 c1 43 bd 32 dc 65 3e c2 8d 35 3e 64 88 4c 3e
       -0.0477915 0.22447279 0.17729858 0.19973904
000100 8e 17 1e be 51 7d 81 3e 7f 03 c5 bd b4 04 6c 3e
       -0.15438673 0.2529092 -0.096198075 0.23048669
000110 54 31 80 bd 2d 8c 86 3c da a7 21 bc 79 18 b5 bc
       -0.062594086 0.016424263 -0.009866679 -0.022106396
000120 8b 12 8a 3d ef 21 2c be 06 c7 cd bd 5b 80 57 be
       0.06741818 -0.1680982 -0.10047726 -0.21045057
000130 2d c5 72 3c 80 11 8e be 69 07 42 be 71 58 12 3d
       0.014817518 -0.27747726 -0.18948139 0.035728876
000140 cc 1a 06 3e 1e 5c 3e bd 46 07 03 3c 34 ba a3 bd
       0.1309616 -0.04647457 0.00799734 -0.079945
000150 aa e7 9b ba 85 0f 10 bc 40 ca ac bd 10 f3 d0 3d
       -0.0011894603 -0.008792763 -0.084370136 0.102026105
000160 ca 73 b0 be ae be 8f 3e 2e a9 0a 3e 9c a5 1e bc
       -0.3446334 0.28075165 0.135411 -0.009683039
000170 f4 41 0b be 7a e0 7d bd ab be 02 be 1b b7 b3 3c
       -0.13599378 -0.061981656 -0.12768047 0.021937897
000180 12 16 85 3e f2 92 82 3d 7f f1 0d be 5c 4d 9b 3e
       0.259934 0.06375684 -0.13861655 0.30332458
000190 45 f2 06 be b6 36 0b be fd 6f 0b 3e d1 ce 08 bd
       -0.13178356 -0.1359509 0.13616939 -0.03340036
0001a0 13 d0 03 be 99 04 9d bd 52 38 46 3e a1 aa 2e be
       -0.12872343 -0.076668926 0.19357422 -0.17057277
0001b0 7e 8b 14 3e c5 4e 30 3e a7 4e 85 3e 81 d2 c1 bd
       0.14506337 0.17217548 0.2603657 -0.094639786
0001c0 bc d9 5f 3e 0e d6 1f 3d 50 7c 83 3d 51 55 ca bc
       0.21860403 0.039022498 0.06420195 -0.024698885
0001d0 37 2a 3c be 4b 16 69 3d b5 3c e6 be 9f a3 38 3e
       -0.18375479 0.056906026 -0.4496819 0.18031166
0001e0 49 bb 70 3e ea b3 cd 3c b1 c0 94 3c 49 fc aa 3c
       0.23508944 0.025110204 0.018158289 0.020872252
0001f0 d0 86 fb 3d 31 50 a4 bd 74 7e 2f be b3 23 38 be
       0.12281573 -0.08023108 -0.17138082 -0.17982368
