model/model_26.pth (torch_old, 571877 bytes, 24 tensors)

conv1.weight f4 [32, 3, 2, 2]
0	0xbde0181e	-0.109421
1	0xbde693cf	-0.11258661
2	0xbe1c6ae7	-0.15275155
3	0x3ec85c41	0.39132884
4	0xbf180f78	-0.59398603
5	0x3e1b315d	0.1515555
6	0xbe0c7c01	-0.13719179
7	0x3edcead2	0.43147904
8	0xbe97dbb9	-0.29659823
9	0xbd990c28	-0.07473022
10	0x3b61a538	0.0034430753
11	0x3e8cbbee	0.2748713
12	0x3e4ec654	0.20192844
13	0xbe04d26e	-0.12970898
14	0x3df9e32a	0.12201531
15	0x3c744bc7	0.014910645
16	0x3d8f1314	0.06986061
17	0xbd82764d	-0.0637022
18	0x3ea69091	0.3253217
19	0x3d235763	0.03987826
20	0xbe0bf4a1	-0.13667537
21	0xbe7b57dc	-0.24545234
22	0xbd284d9e	-0.041089647
23	0xbe72f6b1	-0.23726918
24	0xbdf53c37	-0.11974376
25	0x3d313344	0.04326178
26	0x3e00732c	0.12543935
27	0x3e6b4eb5	0.22979243
28	0xbeab6e2d	-0.33482495
29	0x3e4e8518	0.20167959
30	0xbd31e62f	-0.04343241
31	0x3e9ec597	0.31010124
32	0x3e0b850b	0.1362497
33	0xbe4bf307	-0.19916926
34	0xbeebaf3d	-0.46032134
35	0xbdf07558	-0.117411315
36	0x3ec60a06	0.38679522
37	0xbd466aa7	-0.048441555
38	0x3d8a67cf	0.06758081
39	0xbe8d7034	-0.27624667
40	0x3ec68a10	0.38777208
41	0xbe6c6257	-0.23084389
42	0x3e2a3f41	0.16625692
43	0xbe46cd54	-0.19414264
44	0xbd7264c4	-0.05917813
45	0x3c8af280	0.016961336
46	0xbe5b9d78	-0.21446788
47	0xbe166ec6	-0.14690694
48	0xbe20e57f	-0.15712546
49	0xbdd6458c	-0.10462484
50	0xbebe8f95	-0.3721892
51	0xbe61daf6	-0.22056183
52	0x3e4911e1	0.19635727
53	0xbdab593b	-0.08366629
54	0x3e9ac484	0.30228055
55	0x3e629d89	0.22130407
56	0xbd3dab14	-0.04630573
57	0xbe915698	-0.28386378
58	0x3e1d4009	0.15356459
59	0x3cbddd16	0.023176711
60	0xbe43608a	-0.19079795
61	0x3deef951	0.11668647
62	0x3e76a841	0.24087621
63	0x3e830980	0.25593185
64	0xbe47c553	-0.19508867
65	0xbe080f97	-0.13287197
66	0xbba7bf88	-0.005119268
67	0xbcbf43ae	-0.023347702
68	0xbea86c57	-0.32895157
69	0xbeb77353	-0.35830173
70	0x3df73ae9	0.12071783
71	0xbe2f59e7	-0.17124139
72	0x3d0d3489	0.03447393
73	0xbd9b5f7b	-0.07586571
74	0xbd635e4f	-0.05550986
75	0xbd31e372	-0.0434298
76	0x3e2a79d1	0.16648032
77	0x3e2248c8	0.15848076
78	0xbe4d7753	-0.2006505
79	0x3e4bb304	0.19892508
80	0xbe2267a0	-0.15859842
81	0xbe57148c	-0.21003932
82	0xbb973446	-0.004614386
83	0xbdd45d9e	-0.103694186
84	0x3e72475f	0.23660038
85	0x3d51bfff	0.051208492
86	0xbf126058	-0.5717826
87	0x3d74a336	0.059725963
88	0x3e026ac1	0.12736036
89	0x3ef9e1b2	0.48805004
90	0xbdf15bf4	-0.11785117
91	0xbe7a87be	-0.24465844
92	0x3e78d8ab	0.24301402
93	0x3ea26412	0.31716973
94	0xbeb3a46c	-0.3508638
95	0xbe52fde8	-0.2060467
96	0x3d2e51b6	0.042558394
97	0xbe93e96f	-0.28889033
98	0x3e3941cf	0.1809151
99	0xbdc7bf03	-0.097532295
100	0x3e09cef0	0.13457847
101	0xbeea5707	-0.45769522
102	0x3ed5067c	0.4160651
103	0x3d121cd6	0.03567203
104	0xbe6c7f20	-0.2309537
105	0xbecdd243	-0.4019948
106	0x3f0de95b	0.554342
107	0x3dd61429	0.10453064
108	0x3e145c8b	0.14488427
109	0xbd073d1f	-0.033017274
110	0x3d15bd44	0.03655745
111	0x3e215bbe	0.15757653
112	0x3e6012a1	0.21882106
113	0xbe8d9aa4	-0.27657044
114	0x3c559fc7	0.013038582
115	0x3e65e078	0.2244891
116	0x3e18c8fe	0.14920422
117	0x3e0efbe5	0.13963278
118	0xbe499742	-0.19686607
119	0xbe1779ba	-0.14792529
120	0xbdefbdfd	-0.11706159
121	0x3d25eb3b	0.040507536
122	0x3e910da2	0.28330714
123	0xbe8882d9	-0.2666233
124	0x3e2e4f34	0.17022401
125	0xbe3f215b	-0.18665068
126	0xbead123b	-0.3380297
127	0xbe003714	-0.1252101
128	0x3e570fd5	0.21002133
129	0x3e88c348	0.26711488
130	0xbe670e08	-0.22563946
131	0x3d023c77	0.031795945
132	0x3ebe6c5b	0.37192044
133	0x3e646f58	0.223081
134	0x3e00e34c	0.12586707
135	0x3dc5fba6	0.09667139
136	0x3e10ea90	0.14151978
137	0xbc867200	-0.016411781
138	0xbef3dff7	-0.4763181
139	0xbf056ffe	-0.5212401
140	0xbc02c3ab	-0.007981221
141	0x3d5f9c91	0.054592673
142	0xbe8db946	-0.27680415
143	0x3d3bd1c5	0.04585435
144	0x3c548a61	0.012972445
145	0x3c10e059	0.008842551
146	0xbe00816e	-0.12549374
147	0x3d6757d6	0.05648025
148	0x3e24df50	0.16100812
149	0x3ea96346	0.33083552
150	0xbe3fda47	-0.1873561
151	0x3ec4ac5e	0.38412756
152	0xbe0af757	-0.13570915
153	0x3ccae1c2	0.024765853
154	0xbed8e0de	-0.4235906
155	0xbe3af395	-0.18256982
156	0xbeba2929	-0.36359528
157	0xbe19514b	-0.14972417
158	0x3e36b470	0.17842269
159	0x3cb511a1	0.022103133
160	0xbe867596	-0.26261586
161	0x3e5d7818	0.21627843
162	0x3dba7ed9	0.091062255
163	0x3eb3c716	0.35112828
164	0xbea0aa17	-0.31379768
165	0x3d642914	0.055703238
166	0xbe7745b6	-0.24147686
167	0xbcec2fa6	-0.028831314
168	0xbf08636a	-0.53276694
169	0xbe9dca50	-0.30818415
170	0xbe7da93e	-0.24771592
171	0x3e09c9bd	0.13455863
172	0xbd50de88	-0.050993472
173	0x3da7caa6	0.08192949
174	0x3ea3f4fb	0.32022843
175	0x3ef13393	0.4710966
176	0x3d893b1e	0.06700729
177	0xbd821bd6	-0.063529655
178	0xbe594edc	-0.21221489
179	0x3eb0df34	0.3454529
180	0x3e05f8ce	0.13083193
181	0x3dce9a97	0.100880794
182	0xbe5dd6bb	-0.21663944
183	0xbe1a774f	-0.15084575
184	0x3c2059b5	0.009787013
185	0x3eaeac7c	0.3411597
186	0xbe2da3b6	-0.16956982
187	0xbe83e702	-0.25762182
188	0x3df03697	0.11729162
189	0xbe185dc6	-0.14879522
190	0x3e1fd99d	0.15610357
191	0xbe51f455	-0.20503362
192	0x3cb2033e	0.021730062
193	0xbdc2e90f	-0.09517109
194	0x3eaee7af	0.34161136
195	0xbebd8a4b	-0.37019572
196	0x3e66746f	0.22505353
197	0xbd4109e5	-0.047128577
198	0x3ec04161	0.3754988
199	0xbef06a04	-0.46955884
200	0x3e4532a3	0.19257598
201	0xbeb7889a	-0.35846406
202	0x3ea46c03	0.32113656
203	0xbea767a9	-0.32696274
204	0xbcbc32b7	-0.022973401
205	0x3e1642c0	0.146739
206	0xbe63efa6	-0.22259387
207	0x3e5d1f57	0.21593986
208	0xbe5e896f	-0.21732114
209	0x3e8037c8	0.25042558
210	0xbe4fb93f	-0.2028551
211	0x3e97cbb2	0.29647595
212	0xbf1afa77	-0.6053843
213	0x3e395ed6	0.18102583
214	0xbd8346f3	-0.06410017
215	0x3e935ab7	0.28780147
216	0x3df099f4	0.11748114
217	0xbe3e04c4	-0.18556505
218	0xbe35a8da	-0.17740193
219	0x3e969cf0	0.2941661
220	0xbecc1a42	-0.39863783
221	0x3ea339db	0.31880078
222	0xbede18cd	-0.43378296
223	0xbe4a150b	-0.1973459
224	0x3e7e3228	0.2482382
225	0x3c4dc272	0.012558566
226	0x3b53e5f4	0.0032333108
227	0x3ecf03f2	0.40432698
228	0x3e425fdd	0.18981881
229	0x3ee4769a	0.44621736
230	0xbe85d05d	-0.2613553
231	0xbe898b2c	-0.26863992
232	0x3ea51c5a	0.32248193
233	0x3e5ec13f	0.21753405
234	0xbe8f6c6c	-0.28012407
235	0x3da137f8	0.07872003
236	0xbe9ffd51	-0.31247953
237	0x3ea90e6b	0.33018813
238	0xbe3cb6e1	-0.18429138
239	0xbec32056	-0.38110608
240	0xbe862db5	-0.26206747
241	0xbd52da99	-0.051478002
242	0x3e2f3f6d	0.17114039
243	0x3d5de724	0.05417551
244	0xbeb50c76	-0.3536107
245	0xbe1b6ad9	-0.15177478
246	0xbed7db20	-0.42159367
247	0xbe9614c3	-0.29312715
248	0xbe2ddca7	-0.16978703
249	0x3e94d21e	0.29066557
250	0x3ebb25ad	0.36552182
251	0x3d5769f1	0.052591268
252	0xbc91e5c5	-0.017809758
253	0x3e499b81	0.19688226
254	0xbdf10b1a	-0.117696956
255	0xbe5d1785	-0.21591003

conv1.bias f4 [32]
0	0xbec2209e	-0.3791551
1	0xbdbeb5c4	-0.09312013
2	0xbefc4703	-0.49272928
3	0xbe2d20e8	-0.16907084
4	0xbec698d6	-0.3878848
5	0xbf01381f	-0.5047626
6	0xbf0f2b71	-0.5592566
7	0x3e0598f8	0.13046634
8	0x3dae2c00	0.08504486
9	0xbeb41fa7	-0.351804
10	0xbecf9fde	-0.40551656
11	0xbcc0cf8a	-0.023536462
12	0xbdbef65b	-0.09324332
13	0xbe497903	-0.19675069
14	0x3d9df41c	0.07712576
15	0xbecae396	-0.3962676
16	0xbdaa4ce0	-0.08315444
17	0x3df5d004	0.120025665
18	0xbe279102	-0.1636391
19	0xbf074f8d	-0.5285576
20	0xbf0242ea	-0.5088335
21	0xbf411fd3	-0.75439185
22	0x3e0a06fa	0.13479224
23	0xbf1c5061	-0.6106015
24	0x3d523a20	0.051324964
25	0xbdd413c9	-0.10355336
26	0xbebd3439	-0.36953905
27	0xbeeb1131	-0.45911554
28	0x3dea6d2c	0.11446604
29	0xbeefd482	-0.46841818
30	0xbecba837	-0.39776775
31	0x3d90573f	0.07047891

conv2.weight f4 [32, 32, 2, 2]
0	0xbe4a344d	-0.19746514
1	0x3df69a22	0.12041117
2	0xbdc36ad8	-0.09541863
3	0xbdb36779	-0.0875997
4	0x3ca71296	0.020394605
5	0x3d33582b	0.043785255
6	0xbd8f4a3b	-0.0699658
7	0x3c4c4198	0.012466811
8	0xbca424fc	-0.020037167
9	0x3d03dbe8	0.03219214
10	0xbe53e8ff	-0.2069435
11	0xbe3689c7	-0.17825995
12	0xbdc7b6ec	-0.097516865
13	0xbda20be4	-0.07912424
14	0xbd090648	-0.033453256
15	0xbdc89899	-0.09794731
16	0xbdc0b166	-0.09408836
17	0x3cd9ffd8	0.026611254
18	0xbde13b52	-0.109976426
19	0xbe48b621	-0.19600727
20	0xbd362445	-0.044468183
21	0x3d06d6e9	0.032919798
22	0xbd02fd18	-0.03197965
23	0x3d9c674c	0.0763689
24	0x3d1540b6	0.036438666
25	0x3e14107e	0.14459416
26	0xbdff860c	-0.12476739
27	0x3cf3d2d5	0.029763618
28	0xbe9b89c3	-0.3037854
29	0xbea3ce25	-0.31993213
30	0xbd59fe5c	-0.05322109
31	0xbee3a6d7	-0.44463226
32	0x3de15502	0.11002542
33	0x3de210bf	0.1103835
34	0x3e10f89c	0.14157337
35	0x3e892ab8	0.26790404
36	0x3de0b37b	0.10971733
37	0xbdac7d6a	-0.08422358
38	0x3dfc71f7	0.123264246
39	0x3dd32be5	0.103111066
40	0xbde672d1	-0.11252368
41	0x3d9428e8	0.07234365
42	0x3d88ceed	0.06680093
43	0xbcc175e5	-0.023615787
44	0xbcf01670	-0.029307574
45	0xbe864456	-0.2622401
46	0x3e3146f1	0.17312218
47	0xbe2552aa	-0.16144815
48	0x3e05a5b9	0.130515
49	0xbd0ddd76	-0.03463503
50	0x3d96ade5	0.073573865
51	0xbe397bb2	-0.18113592
52	0x3d7c0b2f	0.061534103
53	0x3d9b35bd	0.07578609
54	0x3bce9082	0.006303848
55	0xbde64a11	-0.11244596
56	0x3de1659d	0.11005709
57	0x3bd715ba	0.0065638693
58	0x3e1ccdf9	0.15312947
59	0x3df2fc25	0.11864499
60	0xb9a1df18	-0.0003087453
61	0x3ea3b70c	0.3197559
62	0xbda189c0	-0.07887602
63	0xbda3526a	-0.079747036
64	0x3e1bf330	0.15229487
65	0xbcc6bfb0	-0.024261326
66	0xbe48c217	-0.1960529
67	0xbc1a4cc2	-0.009417715
68	0x3d2d81a7	0.042359974
69	0xbe808d80	-0.25107956
70	0x3d5a4bd4	0.05329497
71	0x3b35153d	0.0027631067
72	0x3d8a792b	0.06761392
73	0x3d4b40b9	0.04962227
74	0xbdac84dd	-0.08423779
75	0xbe556dda	-0.20842686
76	0xbdff262b	-0.12458452
77	0xbe851dc7	-0.2599928
78	0x3d59ddb2	0.05318994
79	0x3dbec139	0.09314198
80	0x3e951a18	0.2912147
81	0x3eb6dc57	0.3571498
82	0xbedce02d	-0.43139783
83	0xbe3ccb20	-0.18436861
84	0xbe8c199d	-0.2736329
85	0xbe09ff30	-0.13476253
86	0xbd606803	-0.054786693
87	0xbe5c2c36	-0.2150124
88	0xbe04afc2	-0.12957671
89	0xbad4fe09	-0.0016250025
90	0xbd1025cf	-0.035192307
91	0xbc8938a0	-0.016750634
92	0x3efb62dd	0.49098864
93	0x3e6605ec	0.22463197
94	0xbe75b88c	-0.2399618
95	0xbe943b81	-0.28951648
96	0xbe94a677	-0.29033253
97	0x3dcfc915	0.10145775
98	0x3e036f71	0.1283548
99	0xbe90400f	-0.28173873
100	0x3e0571ce	0.13031694
101	0x3de5354d	0.11191807
102	0xbe4d3e52	-0.20043305
103	0xbe66b8da	-0.22531453
104	0xbdb429eb	-0.08797058
105	0x3e70d5b4	0.23519021
106	0x3d6f7ae7	0.05846682
107	0xbd7dad37	-0.06193277
108	0xbd39f96e	-0.04540389
109	0x3de23670	0.110455394
110	0xbabbf287	-0.0014339247
111	0x3d3016a5	0.042990346
112	0x3e18eb01	0.14933397
113	0x3e2d3390	0.16914201
114	0x3e35ca19	0.17752875
115	0x3e9bae5f	0.30406472
116	0x3d0cf238	0.034410685
117	0x3e85621f	0.26051423
118	0xbeaa3a95	-0.3324782
119	0xbe24fe5e	-0.16112658
120	0xbe84d517	-0.25943825
121	0x3e49df7f	0.19714163
122	0xbdfe24f6	-0.124093935
123	0x3dae42e1	0.0850885
124	0x3e1e407d	0.15454288
125	0xbd8fac85	-0.07015327
126	0x3d93ab05	0.07210354
127	0x3d992b47	0.074789576
128	0xbe6908be	-0.22757241
129	0xbdfeabfd	-0.12435148
130	0xbe2d9c2f	-0.1695411
131	0xbe8ae0ce	-0.27124637
132	0xbec8f4e1	-0.39249328
133	0xbe7132e1	-0.23554565
134	0xbe9d4b10	-0.3072133
135	0xbeb0ff80	-0.3456993
136	0xbebc2c78	-0.36752677
137	0xbee7a6f9	-0.45244578
138	0xbf0af36c	-0.5427768
139	0xbe9a60ae	-0.30151886
140	0xbe57180f	-0.21005271
141	0xbed762b5	-0.42067495
142	0xbed76145	-0.42066398
143	0xbedc59c3	-0.43037233
144	0xbe6be414	-0.23036224
145	0xbe862fe6	-0.2620842
146	0xbe6d76b2	-0.2318981
147	0xbe9e7ed1	-0.30956128
148	0x3e3ecc53	0.18632631
149	0x3e5a2b19	0.21305503
150	0x3e38163c	0.17977232
151	0x3e748efd	0.2388267
152	0xbeb38b62	-0.35067278
153	0xbe9eed25	-0.31040302
154	0xbe92c12c	-0.28663003
155	0xbe8bf4c0	-0.27335167
156	0xbeb57d94	-0.3544737
157	0xbeae8570	-0.3408618
158	0xbf08ebe4	-0.5348494
159	0xbecc6919	-0.39923933
160	0xbee815ca	-0.45329124
161	0xbdef99c7	-0.116992526
162	0xbee08426	-0.4385082
163	0xbeb26d73	-0.34849128
164	0xbc44eb83	-0.012019041
165	0x3ca5b4c8	0.020227805
166	0xbe0bd25f	-0.13654469
167	0x3d55d076	0.052200757
168	0x3cecfe9b	0.02893
169	0xbd9b0888	-0.075699866
170	0x3cd10c02	0.025518421
171	0x3df090bf	0.11746358
172	0x3dd862ce	0.105657205
173	0x3e030920	0.1279645
174	0x3deb3930	0.11485517
175	0x3e4db1d6	0.2008737
176	0xbed9ebfd	-0.42562857
177	0xbf15c7a8	-0.58507776
178	0xbf2a6ab3	-0.6656906
179	0xbf0253e3	-0.5090925
180	0xbdcc28a5	-0.0996869
181	0xbe23ae4d	-0.15984459
182	0xbdf21fb1	-0.11822451
183	0xbe0c48f0	-0.13699698
184	0xbe3511de	-0.17682597
185	0xbe9fece5	-0.31235424
186	0xbda22229	-0.07916672
187	0xbe39e98d	-0.18155499
188	0x3e65b318	0.224316
189	0x3e31a87e	0.17349431
190	0x3e80fd20	0.2519312
191	0x3e859a5a	0.26094323
192	0xbe6d57ad	-0.23177977
193	0xbcd1f6e9	-0.025630431
194	0xbd82b0f2	-0.06381406
195	0xbd81ec24	-0.063438684
196	0xbe46c077	-0.19409357
197	0xbe82d884	-0.25555813
198	0xbe37d06c	-0.179506
199	0xbe7e3939	-0.24826516
200	0x3c9804ab	0.018556913
201	0x3ca1df16	0.019759696
202	0x3dc3ba10	0.09556973
203	0x3d13542a	0.035968937
204	0xbe3bf82d	-0.1835639
205	0xbe80a8e2	-0.25128847
206	0xbc4a161c	-0.012334373
207	0xbe0ca605	-0.13735206
208	0x3eabd95f	0.33564278
209	0x3ec90dcb	0.39268336
210	0x3ea89403	0.32925424
211	0x3ee2e77d	0.44317237
212	0x3e50cd15	0.20390733
213	0x3be23e29	0.0069043827
214	0x3e914734	0.28374636
215	0x3ce8baea	0.02840944
216	0xbebde64e	-0.3708977
217	0xbec128d8	-0.37726474
218	0xbf10589a	-0.56385195
219	0xbe9eea57	-0.31038162
220	0xbe734323	-0.2375608
221	0xbe90b03b	-0.28259453
222	0xbe90339f	-0.28164384
223	0xbe8a63aa	-0.27029163
224	0xbef5c3a7	-0.48000833
225	0xbed9dbda	-0.42550546
226	0xbf1ce2e7	-0.61283726
227	0xbee4826b	-0.4463075
228	0x3dc4b8b0	0.09605539
229	0xbcd95fbb	-0.026534906
230	0xbd480d07	-0.04884055
231	0x3ac8bec6	0.0015315644
232	0xbe63c2f9	-0.22242345
233	0xbe344ac1	-0.17606641
234	0xbe34b28e	-0.17646238
235	0xbcd50c74	-0.026006915
236	0xbd45bd47	-0.048276212
237	0x3b8e23ee	0.0043377792
238	0x3bd2086b	0.006409695
239	0xbc39ac43	-0.011332574
240	0xbe3323e1	-0.17494155
241	0x3c78bee8	0.015182234
242	0xbd96e98e	-0.07368766
243	0xbd625cf3	-0.055264425
244	0xbd106240	-0.03524995
245	0x3c818b01	0.015813353
246	0xbe3de0e0	-0.18542814
247	0xbcc74f35	-0.024329761
248	0xbd966bba	-0.07344766
249	0xbd1b5aff	-0.037928578
250	0x3d27e034	0.0409853
251	0x3cf98e37	0.030463321
252	0xbef1908a	-0.47180587
253	0xbea0484a	-0.31305152
254	0xbeb4eac2	-0.35335356
255	0xbec915e5	-0.39274517

conv2.bias f4 [32]
0	0x3d3e64b8	0.04648277
1	0xbd99f1ca	-0.07516821
2	0xbdd983fc	-0.10620877
3	0xbe1b0041	-0.15136816
4	0x3df39d71	0.11895264
5	0xbdb91ad5	-0.09038321
6	0xbe14d56b	-0.14534537
7	0x3e1a3f78	0.15063274
8	0xbd7af773	-0.061271142
9	0x3e17dea8	0.1483103
10	0xbe4fd3fe	-0.20295712
11	0x3e41dbab	0.18931453
12	0x3dd294f6	0.10282318
13	0xbdf1649f	-0.1178677
14	0xbee84891	-0.45367864
15	0xbdeb819b	-0.1149933
16	0x3c2c28e9	0.010507801
17	0x3b5ef7e3	0.0034022264
18	0x3d53cfb6	0.05171176
19	0x3df19562	0.11796071
20	0x3d4d686b	0.05014841
21	0xbe577717	-0.21041523
22	0x3d3e144b	0.04640607
23	0x3e08f9a3	0.13376479
24	0xbd88024f	-0.06641065
25	0x3e4561b2	0.19275549
26	0x3d0b7f64	0.034057036
27	0xbe000ac1	-0.12504102
28	0x3bcb7cf8	0.006209966
29	0x3e512883	0.2042561
30	0x3e8c6367	0.27419588
31	0xbe1e733c	-0.15473646

conv3.weight f4 [64, 32, 2, 2]
0	0xbdd21c62	-0.1025932
1	0x3db9c348	0.0907045
2	0x3c2a3e45	0.010390823
3	0x3e96fb8e	0.29488796
4	0x3d226af7	0.03965279
5	0xbe613829	-0.2199408
6	0x3e7131d5	0.23554166
7	0xbe51bb48	-0.20481598
8	0x3d745bcc	0.059657857
9	0x3d95f578	0.0732221
10	0x3db96dbb	0.090541326
11	0x3cf63d7e	0.030058619
12	0x3d063a46	0.032770418
13	0xbd710c1a	-0.05884943
14	0x3c6de17a	0.01451909
15	0xbd08126b	-0.03322069
16	0xbec4694a	-0.3836158
17	0xbea40c29	-0.32040527
18	0xbe6dcf5a	-0.2322363
19	0xbe8c640d	-0.27420083
20	0xbd92e2db	-0.071721755
21	0x3d45cfb8	0.0482938
22	0xbd6f2496	-0.0583845
23	0x3d28e0cd	0.04123001
24	0x3cf4c9f9	0.029881464
25	0xbd0581d2	-0.03259451
26	0xbd3e3797	-0.046439733
27	0xbd864a6d	-0.06557164
28	0xbe16b576	-0.1471766
29	0xbe57bec8	-0.21068871
30	0xbe9fcee0	-0.3121252
31	0xbed86d5e	-0.4227094
32	0xbced2aca	-0.028951067
33	0xbdbd1d0b	-0.09234055
34	0x3cd60426	0.026125025
35	0xbcce5576	-0.025187235
36	0x3e81e849	0.25372532
37	0xbd9205c0	-0.07130003
38	0x3e78f693	0.2431281
39	0xbec887f7	-0.39166233
40	0x3e3a9765	0.18221815
41	0x3e9e5c01	0.30929568
42	0x3e6662ac	0.22498578
43	0x3e9a1eb1	0.3010154
44	0x3d5023f0	0.050815523
45	0x3dbd21d0	0.09234965
46	0x3cda627e	0.026658293
47	0x3d39dffb	0.04537962
48	0xbc944df4	-0.018103577
49	0xbebbb809	-0.36663845
50	0x3ec65bcc	0.3874191
51	0xbd30fbc9	-0.04320887
52	0x3e46610a	0.19372955
53	0x3e54b002	0.20770267
54	0xbd69b76b	-0.057059687
55	0xbef2edc5	-0.4744703
56	0xbe0c3324	-0.13691384
57	0xbd6831d6	-0.056688152
58	0xbd0a291e	-0.03373062
59	0xbe738ea9	-0.2378489
60	0x3dea15f3	0.11429968
61	0x3d9be322	0.076116815
62	0x3d702c2e	0.058635883
63	0x3d49c849	0.049263272
64	0x3d8b377c	0.06797692
65	0x3d76711d	0.060166467
66	0x3db50ea7	0.08840685
67	0xbc28933f	-0.010289012
68	0x3d3bce53	0.045851063
69	0x3d8ba094	0.06817737
70	0xbddf5c45	-0.10906271
71	0xbdca0f2a	-0.098661736
72	0x3e2204f6	0.15822205
73	0xbc334aa4	-0.010943089
74	0xbe03309b	-0.1281151
75	0xbd0fae12	-0.035078116
76	0x3e89824a	0.26857215
77	0xbd2ec264	-0.042665854
78	0x3dfb5793	0.12272563
79	0x3ca328df	0.01991695
80	0xbe85dad1	-0.26143506
81	0x3d48b939	0.049004767
82	0x3d51a1f5	0.051179845
83	0x3e234b79	0.1594676
84	0x3e4889b0	0.19583774
85	0x3e1eb49c	0.15498585
86	0xbd259a13	-0.04043014
87	0x3dcade99	0.099057384
88	0xbdaee1b0	-0.0853914
89	0xbcacccca	-0.021093745
90	0xbd83063b	-0.06397673
91	0xbcfc5be0	-0.030805528
92	0xbec7b3ee	-0.39004463
93	0xbe0a0d97	-0.13481747
94	0x3eb77cab	0.35837302
95	0x3e538d1f	0.20659302
96	0x3e17f8dd	0.14841028
97	0xbe6d7e4f	-0.23192714
98	0x3e880e6a	0.26573497
99	0xbe5aee0e	-0.21379873
100	0x3eca922a	0.3956464
101	0xbe4551c8	-0.19269478
102	0x3cb6f54b	0.022333762
103	0xbea39b41	-0.31954387
104	0x3d8f4304	0.06995204
105	0xbe1f80b9	-0.15576448
106	0xbe48ede5	-0.19622
107	0xbdf348b2	-0.118791
108	0x3d898ef4	0.06716719
109	0x3c50d27e	0.012745498
110	0xbda29909	-0.079393454
111	0xbc30253b	-0.010751064
112	0x3d0552ca	0.032549657
113	0x3d268128	0.040650517
114	0x3dd26303	0.10272791
115	0x3d39f916	0.045403562
116	0x3e7eef0f	0.24895881
117	0xbdb8294c	-0.08992252
118	0x3e20e006	0.15710458
119	0x3bb1b7bf	0.0054235156
120	0x3d77c320	0.06048882
121	0x3e89a994	0.2688719
122	0x3df06634	0.11738244
123	0x3e68717e	0.22699544
124	0x3c259d88	0.010108359
125	0x3c850235	0.016236404
126	0x3dd88822	0.1057284
127	0xbd3506a5	-0.04419579
128	0xbe55d2b4	-0.20881158
129	0xbf0cb83f	-0.5496864
130	0x3d7ef826	0.06224837
131	0xbc85ff09	-0.016356962
132	0x3e757d13	0.23973493
133	0xbdbd63d9	-0.0924756
134	0x3e8087f0	0.25103712
135	0x3e53c57e	0.20680806
136	0x3d1b7372	0.037951894
137	0x3b32db16	0.002729123
138	0xbdd67e5f	-0.10473322
139	0xbda5efe5	-0.08102397
140	0xbd80fabe	-0.06297825
141	0xbdd016fb	-0.10160633
142	0x3d1513cb	0.03639583
143	0x3d7511ed	0.05983155
144	0xbdaa3361	-0.08310581
145	0xbe1d6444	-0.1537028
146	0xbe3d3642	-0.18477729
147	0xbdc1026d	-0.09424291
148	0xbbf1d674	-0.007380301
149	0xbcd1f678	-0.02563022
150	0xbcd133f0	-0.025537461
151	0x3d75ce0b	0.06001095
152	0xbc71b4ce	-0.01475258
153	0x3cd1e13f	0.025620101
154	0x3d6d80b4	0.05798407
155	0x3d16adc5	0.036786813
156	0xbcff73f2	-0.031183217
157	0xbe9376ca	-0.28801566
158	0x3ce25c58	0.027631924
159	0xbe33e42a	-0.17567506
160	0xbc0cb367	-0.008587695
161	0x3c6363f4	0.013878811
162	0xbc6ec74d	-0.014573884
163	0xbc9b0e9e	-0.018927868
164	0x3dcfdb3e	0.10149239
165	0x3e1f9424	0.15583855
166	0xbdcbe48f	-0.099557035
167	0xbe603b0e	-0.21897528
168	0xbd6d38a0	-0.05791533
169	0x3d525b93	0.051356863
170	0xbe830e94	-0.2559706
171	0xbdf92273	-0.12164774
172	0x3d3970e7	0.045273688
173	0xbeadf2dc	-0.3397435
174	0x3e758ddb	0.23979895
175	0xbda11d3d	-0.07866905
176	0x3e5651b5	0.20929606
177	0x3e85cb36	0.261316
178	0xbda75f05	-0.081724204
179	0xbe40c222	-0.18824056
180	0x3dcedb4a	0.1010042
181	0x3da425aa	0.08014996
182	0x3de1baa3	0.11021926
183	0x3e82592e	0.25458664
184	0xbea2dc51	-0.31808713
185	0xbd101c45	-0.03518321
186	0xbe8c5473	-0.2740818
187	0x3d527c65	0.051388163
188	0xbcfc31d8	-0.030785486
189	0x3d9e0ea2	0.07717635
190	0xbd1ca08f	-0.038239058
191	0x3cac4533	0.02102909
192	0x3e243025	0.1603399
193	0x3c7910c9	0.015201756
194	0xbc217146	-0.009853667
195	0x3d541267	0.051775362
196	0xbc831c74	-0.016004778
197	0xbd8c7099	-0.06857414
198	0xbd9cea4e	-0.076618776
199	0x3da48ce4	0.08034685
200	0x3d3825c0	0.044957876
201	0xbd07c08f	-0.033142623
202	0xbeb60384	-0.35549557
203	0xbe31303e	-0.17303559
204	0xbe086686	-0.1332036
205	0x3cd8ba64	0.026456065
206	0xbf05eec1	-0.52317435
207	0xbdc3b75e	-0.09556459
208	0xbe094623	-0.13405661
209	0xbcc22fec	-0.023704492
210	0xbea56c47	-0.32309172
211	0xbeb86674	-0.36015666
212	0xbd62f84e	-0.055412583
213	0xbcbbed89	-0.022940414
214	0x3cc1b278	0.02364467
215	0x3e041567	0.1289879
216	0x3d1e0853	0.038582157
217	0x3d821fe2	0.063537374
218	0x3d97f984	0.07420638
219	0x3e321fe1	0.17394973
220	0xbe70c04f	-0.2351086
221	0xbe8ce127	-0.27515528
222	0x3e042c0a	0.12907425
223	0xbcf60992	-0.03003386
224	0x3e6c303b	0.23065273
225	0x3e88f74a	0.26751167
226	0xbdfa0772	-0.12208451
227	0xbca1120b	-0.019661924
228	0x3e624f1a	0.22100487
229	0x3df00afc	0.11720845
230	0xbe0e4c9d	-0.13896413
231	0xbe441f54	-0.19152576
232	0xbe95e59c	-0.2927674
233	0xbf40d737	-0.7532839
234	0xbe7424bd	-0.2384214
235	0xbef4fe1b	-0.47850117
236	0x3c8e7246	0.017388474
237	0xbd9a565e	-0.075360045
238	0x3d1a3710	0.037650168
239	0x3da7fe2f	0.082027785
240	0x3e6ee09c	0.23327869
241	0x3dbb9b74	0.0916051
242	0xbe97c3d3	-0.2964159
243	0xbdb2744b	-0.087135874
244	0x3d905fd3	0.07049527
245	0x3e51fb88	0.20506108
246	0xbe4a5a70	-0.19761062
247	0x3d7032c8	0.05864218
248	0x3e09c220	0.13452959
249	0x3da6a380	0.08136654
250	0x3dab4f97	0.0836479
251	0xbf24d88e	-0.64392936
252	0xbd5e2c02	-0.054241188
253	0x3d0177e3	0.031608474
254	0xbd703d3a	-0.05865214
255	0x3bc777c1	0.006087274

conv3.bias f4 [64]
0	0x3b135d67	0.0022486092
1	0x3eb125c5	0.34599128
2	0x3e167d5a	0.14696255
3	0xbecd516e	-0.40101188
4	0x3d2a0bd4	0.041515186
5	0xbcc4429c	-0.023957543
6	0x3dedeb2b	0.1161712
7	0xbdb32360	-0.087469816
8	0x3e090c26	0.1338354
9	0x3e098147	0.13428222
10	0xbebd3703	-0.36956033
11	0xbdb7ae31	-0.08968771
12	0x3d252325	0.04031672
13	0xbddb027d	-0.10693834
14	0x3dd33622	0.103130594
15	0x3e1aecf3	0.15129451
16	0xbd3c82e2	-0.046023257
17	0x3d025aa0	0.031824708
18	0x3d314445	0.043277998
19	0x3d81bd70	0.063349605
20	0x3e018976	0.12650093
21	0xbacf1d29	-0.0015801537
22	0xbeeed012	-0.4664312
23	0xbe0f79ff	-0.14011382
24	0x3a948424	0.0011330885
25	0xbe2756f9	-0.16341771
26	0x3eb29339	0.34877947
27	0x3daf0366	0.0854557
28	0x3e7a00ac	0.24414319
29	0x3e13b7a5	0.14425524
30	0x3e046383	0.12928586
31	0x3e54f847	0.20797835
32	0xbdaa053a	-0.08301778
33	0x3e65d630	0.22444987
34	0xbd880b34	-0.06642762
35	0xbe5f898c	-0.21829814
36	0x3cf28773	0.029605603
37	0x3e801e46	0.25023097
38	0xbe642456	-0.22279486
39	0x3d0bb09f	0.034103986
40	0x3db9f369	0.0907963
41	0x3e3b0fd4	0.18267757
42	0x3cfda658	0.030963108
43	0xbe2a69ae	-0.16641876
44	0x3d4b98ae	0.049706154
45	0xbd10db88	-0.03536561
46	0x3d7069f3	0.05869479
47	0x3de2e1e6	0.11078243
48	0xbd2f483f	-0.04279351
49	0xbd840ad8	-0.06447381
50	0x3da5a309	0.08087737
51	0xbdc2f749	-0.09519822
52	0x3d696ad1	0.056986634
53	0xbe2d1072	-0.16900805
54	0x3e05e93f	0.13077258
55	0xbc1a04b4	-0.009400535
56	0xbe03c2aa	-0.12867227
57	0x3cee30dc	0.029076032
58	0xbde254cf	-0.11051332
59	0xbe4d37aa	-0.20040765
60	0x3da1ee47	0.07906776
61	0x3bf547b3	0.007485354
62	0xbe11eeaa	-0.142512
63	0xbd32a35a	-0.043612815

conv4.weight f4 [64, 64, 2, 2]
0	0x3d322586	0.043492816
1	0xbe49e442	-0.1971598
2	0xbdaf43a3	-0.085578226
3	0xbf10e194	-0.56594205
4	0xbe681a6d	-0.2266633
5	0x3e6ff7d8	0.23434389
6	0xbe5575d7	-0.20845734
7	0x3d79c788	0.060981303
8	0xbec6e76d	-0.3884844
9	0x3dece035	0.115662016
10	0xbe8fa30e	-0.28054088
11	0xbd31c406	-0.043399833
12	0xbddadd6d	-0.10686765
13	0xbe447c72	-0.19188097
14	0xbe28176c	-0.16415185
15	0xbe3c0a9b	-0.1836342
16	0x3e0c221e	0.1368489
17	0x3dc86330	0.097845435
18	0x3daa0b49	0.08302934
19	0xbea9eaed	-0.33187047
20	0xbe7a7ae6	-0.24460945
21	0xbeac25a5	-0.3362247
22	0xbe04391d	-0.12912412
23	0xbe488ed5	-0.19585736
24	0x3d198982	0.037484653
25	0xbf11bdcf	-0.5693025
26	0x3e07dae3	0.13267092
27	0xbe3062c1	-0.17225172
28	0xbd5b21f2	-0.05349917
29	0x3cec2ae8	0.028829053
30	0x3e375996	0.17905268
31	0x3cd9ade1	0.02657217
32	0x3e2dcfda	0.1697382
33	0xbe46df87	-0.19421206
34	0x3e997c9a	0.29977876
35	0x3d0cc7a9	0.0343701
36	0xbe467781	-0.19381525
37	0xbe90c6d1	-0.28276685
38	0xbdf22a30	-0.11824453
39	0xbe04b81c	-0.12960857
40	0xbe0564f7	-0.13026796
41	0x3ccb78cb	0.024837872
42	0xbe866701	-0.2625046
43	0xbed5f63e	-0.4178943
44	0xbef60ba8	-0.48055768
45	0x3dcbc75d	0.09950135
46	0xbef500e8	-0.47852254
47	0xbee52ff3	-0.44763145
48	0xbeb8fbb0	-0.36129522
49	0x3d21e470	0.039524496
50	0xbdc77f1e	-0.097410426
51	0xbe85a5da	-0.26103097
52	0xbca491df	-0.020089088
53	0xbd937279	-0.07199568
54	0x3d431b52	0.047633477
55	0xbda4a6b9	-0.08039612
56	0x3e86aa43	0.26301774
57	0xbcb56ea8	-0.022147492
58	0x3ee54dd4	0.4478594
59	0x3e883648	0.26603913
60	0xbe0de415	-0.13856538
61	0xbe4be032	-0.19909742
62	0x3e86a06a	0.2629426
63	0xbc562341	-0.013069929
64	0xbdb95294	-0.09048954
65	0x3d68352a	0.056691326
66	0xbead6e37	-0.3387315
67	0xbc8e3762	-0.017360393
68	0xbe51f6e4	-0.20504338
69	0xbd3c2b40	-0.045939684
70	0xbdc17a9c	-0.09447214
71	0xbeba354e	-0.36368793
72	0x3e159050	0.14605832
73	0xbe40e01f	-0.18835495
74	0x3d6640a9	0.05621401
75	0x3da72fbb	0.08163401
76	0xbec33143	-0.3812352
77	0xbdef59d5	-0.11687056
78	0xbe83b90c	-0.25727117
79	0xbd9adee4	-0.07562044
80	0xbe196369	-0.14979328
81	0x3ebc0aba	0.36726934
82	0xbc54d871	-0.012991057
83	0x3debecb1	0.11519755
84	0xbec2b246	-0.38026637
85	0x3ef7cb34	0.4839722
86	0x3cdbeac7	0.026845349
87	0xbd43e671	-0.047827188
88	0x3d339693	0.04384477
89	0x3d1f8afc	0.038950905
90	0xbea586e1	-0.32329467
91	0x3daa4079	0.083130784
92	0xbce50260	-0.027955234
93	0x3d2fed2a	0.042950787
94	0x3d0b53fb	0.034015637
95	0x3dad4965	0.084612645
96	0xbefb0811	-0.49029592
97	0xbe0c8278	-0.13721645
98	0xbe4b1fcf	-0.19836353
99	0x3e846220	0.25856113
100	0x3d020ca7	0.031750347
101	0x3e90c559	0.28275564
102	0xbe0c0628	-0.13674223
103	0x3e21c3b0	0.15797305
104	0x3de5ee07	0.11227041
105	0xbe3f7ddf	-0.1870036
106	0x3e55723e	0.20844361
107	0xbdb4c968	-0.08827478
108	0xbe643558	-0.22285974
109	0xbf043d27	-0.5165581
110	0xbe1fec53	-0.15617494
111	0xbeb583e5	-0.3545219
112	0xbe241efb	-0.16027443
113	0xbeed355b	-0.4632977
114	0x3d2365ff	0.039892193
115	0xbe6f4a7e	-0.2336826
116	0xbe1c53f8	-0.15266407
117	0xbe81d591	-0.2535825
118	0xbf07c1ec	-0.53030276
119	0xbebb4e7b	-0.36583313
120	0x3d81ba62	0.06334378
121	0x3e90c6ce	0.28276676
122	0x3ce94641	0.028475882
123	0xbe85da1d	-0.2614297
124	0xbe1aab9b	-0.15104525
125	0x3e561e34	0.20909959
126	0xbe6f0086	-0.23340043
127	0x3dbcd12a	0.092195824
128	0xbe338626	-0.17531642
129	0xbde18eaf	-0.11013543
130	0xbe5db99c	-0.21652836
131	0xbe32a91b	-0.17447321
132	0x3d9184a0	0.07105374
133	0xbeb5436a	-0.35402995
134	0x3cca3ea6	0.024688076
135	0x3e2c69b4	0.16837198
136	0x3da2c732	0.0794815
137	0xbe10a431	-0.14125134
138	0xbe633ba2	-0.22190717
139	0x3e4ae407	0.19813548
140	0xbe10d4e5	-0.14143713
141	0x3d35a0f8	0.044342965
142	0xbdddd0ee	-0.10830866
143	0x3c786ab2	0.015162157
144	0xbd238155	-0.039918263
145	0xbd705091	-0.058670584
146	0x3e346ea4	0.17620331
147	0x3e0e1582	0.13875392
148	0x3dbeda15	0.093189396
149	0x3d324265	0.04352035
150	0x3e19c724	0.15017372
151	0x3d20797d	0.03917836
152	0xbe2b3494	-0.16719276
153	0x3cf8c26d	0.030366147
154	0xbf00a106	-0.502457
155	0xbf0435e7	-0.5164475
156	0xbea56066	-0.3230011
157	0x3e07fed8	0.13280809
158	0xbe98021e	-0.29689115
159	0xbde3b83e	-0.11119126
160	0xbe230f72	-0.1592386
161	0x3e4f0695	0.20217355
162	0xbe4ac219	-0.19800605
163	0x3e9fbcdb	0.31198773
164	0xbe5dba74	-0.21653157
165	0xbc8fa084	-0.017532595
166	0xbd2b7379	-0.04185817
167	0xbdc55f77	-0.09637349
168	0x3e143656	0.14473853
169	0xbe133262	-0.14374688
170	0xbdfb8084	-0.12280372
171	0xbe8a11c3	-0.26966676
172	0xbd7e0ba2	-0.062022813
173	0xbd4c93e5	-0.04994573
174	0xbd08d02a	-0.033401646
175	0x3aff27e8	0.0019466849
176	0x3dc745bf	0.097301
177	0x3db56243	0.088566326
178	0xbc40c2ca	-0.011765191
179	0x3eb1c12c	0.3471769
180	0xbe0880cd	-0.13330384
181	0x3cb64d64	0.0222537
182	0xbec11657	-0.37712356
183	0xbe082df8	-0.13298786
184	0xbc712542	-0.014718356
185	0xbecd4cc1	-0.4009762
186	0x3e7aad60	0.244802
187	0xbec62cd2	-0.3870607
188	0x3dd425b2	0.10358752
189	0xbf10f0cf	-0.56617445
190	0x3e3b4253	0.1828702
191	0xbdb5f9c4	-0.0888553
192	0xbe957703	-0.2919236
193	0x3e76c8ad	0.24099989
194	0xbe34e1e1	-0.17664291
195	0x3db9a328	0.09064323
196	0xbd6c9395	-0.057757933
197	0xbe6e533d	-0.2327394
198	0x3eb7975f	0.35857674
199	0xbe0d73b3	-0.13813667
200	0x3e29988a	0.16562095
201	0xbe23958f	-0.15975021
202	0x3ec0a482	0.3762551
203	0x3df7c745	0.120985545
204	0xbdad3994	-0.08458248
205	0x3d1a25a3	0.03763355
206	0x3d0eb173	0.034837198
207	0x3d8e31ec	0.069431156
208	0x3dfcfefa	0.123533204
209	0x3ccb268a	0.02479865
210	0x3e81fc83	0.25387964
211	0x3e7ad5b1	0.2449558
212	0x3e3d89d1	0.18509604
213	0xbed0867a	-0.40727597
214	0xbd798d9e	-0.060926072
215	0xbdf82800	-0.121170044
216	0x3ea382ca	0.31935722
217	0xbe6f96ec	-0.23397416
218	0x3eab0dc0	0.33408928
219	0x3eab73a3	0.3348666
220	0xbe96e9c1	-0.29475215
221	0xbe6b5560	-0.22981787
222	0xbddeecd0	-0.10885012
223	0x3caa3521	0.020777287
224	0x3e17c395	0.14820702
225	0x3e498d8e	0.19682905
226	0xbdf7a7e4	-0.120925695
227	0x3eb1cd73	0.34727058
228	0xbe8825ad	-0.26591244
229	0x3e30b7d9	0.17257632
230	0xbed990ee	-0.42493385
231	0xbdd098d6	-0.10185401
232	0xbe085724	-0.13314492
233	0x3e1a443c	0.15065092
234	0x3dcef956	0.10106151
235	0xbeadd1f6	-0.3394925
236	0xbdc21c5f	-0.094780676
237	0xbdc6a9b8	-0.0970034
238	0x3c374e1d	0.011188057
239	0x3c0fce72	0.008777248
240	0x3d3e0aca	0.046397008
241	0xbe85a034	-0.26098788
242	0x3ead8ec6	0.3389799
243	0xbec09a26	-0.37617606
244	0x3d097ca3	0.03356613
245	0xbebff608	-0.37492394
246	0x3e4c450d	0.19948216
247	0x3b1a486a	0.0023541697
248	0xbe7f8636	-0.24953541
249	0x3e017c4d	0.12645073
250	0xbdbcc121	-0.09216524
251	0xbe397d8b	-0.18114297
252	0xbe3d922d	-0.18512793
253	0x3e0d1326	0.13776836
254	0xbe584318	-0.21119344
255	0x3de36ca9	0.1110471

conv4.bias f4 [64]
0	0xbd9decfa	-0.07711215
1	0xbda463c7	-0.080268435
2	0xbbaef303	-0.005339028
3	0xbdd1081f	-0.10206627
4	0x3da9954c	0.08280429
5	0x3e0c5bad	0.13706847
6	0x3b8b3b65	0.0042490237
7	0xbd67d4b4	-0.056599334
8	0xbe0e1004	-0.13873297
9	0x3e5e4bb2	0.21708563
10	0xbdc6c19c	-0.09704897
11	0xbce1ba7f	-0.027554749
12	0x3dfb0ee4	0.122586995
13	0x3e96d2d1	0.29457715
14	0x3df2740d	0.11838541
15	0x3e2d9e7b	0.16954987
16	0x3c227cb9	0.0099174315
17	0xbe0e34a2	-0.13887265
18	0x3e26ec75	0.16301139
19	0x3d2ca110	0.04214579
20	0x3ebd8451	0.37015012
21	0x3db3dbad	0.08782134
22	0xbea1dca5	-0.3161365
23	0xbd440fb9	-0.047866557
24	0xbdbb44be	-0.09143971
25	0x3e3ceae3	0.18448977
26	0xbd3ff54e	-0.0468648
27	0x3ea22494	0.31668532
28	0x3db90a6e	0.090351924
29	0x3dfda4cc	0.12384948
30	0xbe19e1b5	-0.15027507
31	0x3db00e2b	0.08596452
32	0x3e82a4b7	0.25516292
33	0x3e0f3f8c	0.13989085
34	0xbde55c89	-0.1119929
35	0xbe0cc4c1	-0.1374693
36	0xbd9153d3	-0.07096066
37	0xbe6675bb	-0.22505848
38	0xbe98afe4	-0.29821694
39	0xbe777521	-0.24165775
40	0x3d68d769	0.056846056
41	0xbe99f361	-0.30068496
42	0x3c5b4640	0.013383448
43	0x3d9ac022	0.07556178
44	0x3dd389eb	0.1032904
45	0xbd8fbceb	-0.07018455
46	0x3dd77480	0.105202675
47	0xbe14e331	-0.14539792
48	0x3e239aac	0.15976971
49	0xbe3a764b	-0.18209188
50	0xbdc2986a	-0.09501727
51	0x3a17cf8e	0.0005791121
52	0x3e2fcb95	0.17167504
53	0x3e89d0e8	0.26917195
54	0x3e8a704b	0.27038798
55	0xbdd42308	-0.10358244
56	0xbcd06ea2	-0.025443379
57	0x3c845a14	0.016156234
58	0xbd8305be	-0.063975796
59	0xbdcab493	-0.09897723
60	0x3e093c8a	0.13402
61	0x3e3ad0b9	0.18243684
62	0xbdd85ce2	-0.10564591
63	0xbd935dc9	-0.071956225

conv5.weight f4 [128, 64, 2, 2]
0	0xbd1a0399	-0.037601087
1	0xbe3c070e	-0.18362066
2	0xbe024e41	-0.12725164
3	0xbe5da264	-0.21643978
4	0x3caac8ea	0.020847756
5	0xbd51d8e0	-0.05123222
6	0x3cd98828	0.026554182
7	0xbdad3083	-0.084565185
8	0x3e2d8439	0.1694497
9	0x3c9f3419	0.019434022
10	0x3e42922e	0.19001076
11	0xbe5e7d5d	-0.2172751
12	0xbe54d714	-0.20785171
13	0x3cd44010	0.025909454
14	0xbe62ecc5	-0.22160633
15	0xbe1298f8	-0.14316165
16	0xbede3343	-0.43398485
17	0xbf0ba759	-0.5455223
18	0xbe14759e	-0.14497992
19	0xbe9a2337	-0.30104992
20	0xbeadb489	-0.339268
21	0x3d1038c3	0.035210382
22	0xbdff95ae	-0.12479721
23	0xbe2df4b2	-0.16987875
24	0xbe203bf1	-0.15647866
25	0x3cc70ffe	0.024299618
26	0x3d8e2a91	0.06941713
27	0x3d2f11c0	0.042741537
28	0xbe810246	-0.25197047
29	0xbe777523	-0.24165778
30	0xbe4f5af7	-0.20249544
31	0xbd13e930	-0.036111057
32	0xbd6fdd95	-0.058560926
33	0xbede212b	-0.4338468
34	0xbd1a528f	-0.03767639
35	0xbdbbc083	-0.09167578
36	0x3e18f52e	0.14937279
37	0xbd17a70e	-0.03702455
38	0x3e8b493a	0.27204305
39	0xbd5bfe36	-0.05370923
40	0xbe2cb105	-0.16864403
41	0xbea15ca4	-0.31515992
42	0x3d145d08	0.036221534
43	0x3e050c25	0.12992914
44	0xbed2edf0	-0.41197157
45	0xbd809792	-0.0627891
46	0x3d0da378	0.034579724
47	0x3e96c40f	0.29446456
48	0xbe6151f9	-0.22003926
49	0xbf4b728b	-0.79471654
50	0xbd4b7139	-0.049668524
51	0xbe0eb89a	-0.13937607
52	0xbe886e4d	-0.26646653
53	0xbc2d2856	-0.010568699
54	0xbe53e487	-0.20692645
55	0x3d724148	0.05914429
56	0xbcec7d82	-0.02886844
57	0xbe35891b	-0.17728083
58	0xbec7635d	-0.38942996
59	0x3e601428	0.21882689
60	0xbe996c4d	-0.2996544
61	0x3dd2d809	0.10295112
62	0x3d9d3f31	0.076780684
63	0xbca048b4	-0.019565918
64	0x3e86cb12	0.26326805
65	0x3e65812b	0.22412555
66	0xbeeb9636	-0.4601304
67	0xbe9ef9eb	-0.31050047
68	0xbb498ee4	-0.0030755335
69	0x3c581816	0.013189336
70	0x3c6f108d	0.014591348
71	0x3d6b6fe6	0.05747976
72	0x3d31a4db	0.04337011
73	0x3e87fc4d	0.26559678
74	0xbea04168	-0.312999
75	0xbe32fea3	-0.17479949
76	0x3ded4cc2	0.11586906
77	0xbe205baa	-0.15659967
78	0x3d3ca112	0.046052046
79	0x3e4e6e23	0.20159201
80	0x3dec8ec1	0.11550666
81	0xbb41c129	-0.0029564595
82	0x3df45c85	0.11931709
83	0x3d253632	0.040334888
84	0xbd122f24	-0.035689488
85	0xbdcc1c13	-0.09966292
86	0xbcabb3d5	-0.020959774
87	0x3dfc3d4e	0.123163804
88	0xbeab80c5	-0.3349668
89	0x3d36072b	0.04444043
90	0xbc13af39	-0.009013944
91	0x3ea91c8d	0.33029595
92	0xbec918d5	-0.39276758
93	0xbe90068f	-0.28130004
94	0x3da8cb5f	0.08241915
95	0xbc077d59	-0.008269631
96	0xbd957e59	-0.072994895
97	0xbd030121	-0.0319835
98	0xbd9b9f6d	-0.075987674
99	0xbda9e74f	-0.08296072
100	0xbe1f1f36	-0.1553925
101	0xbe5a3e24	-0.21312767
102	0x3eac651e	0.33670896
103	0x3e20c994	0.15701896
104	0xbbfebeaf	-0.007774196
105	0xbd7eb88f	-0.062187728
106	0x3e65e593	0.22450857
107	0xbf03a2ed	-0.5142048
108	0x3ef56c58	0.47934222
109	0xbd2b9d6b	-0.041898172
110	0x3e83cd45	0.25742546
111	0x3e27e36d	0.1639535
112	0x3e1f72ce	0.15571138
113	0x3cca5b6d	0.024701798
114	0x3f26b684	0.65122247
115	0xbd570e33	-0.052503776
116	0x3e484035	0.19555743
117	0x3e871163	0.26380453
118	0x3ebc928b	0.36830553
119	0x3e9fa9ba	0.3118418
120	0xbd342c0b	-0.043987315
121	0x3d0fc8f4	0.035103753
122	0xbd04fb1c	-0.03246604
123	0xbe463968	-0.19357836
124	0x3e61aaef	0.22037862
125	0xbe3c2d84	-0.18376738
126	0x3e5e21fb	0.2169265
127	0xbeb7de27	-0.35911676
128	0xbddb672c	-0.10713038
129	0xbd7f7011	-0.062362734
130	0xbdaa9ea8	-0.083310425
131	0xbda5b0e3	-0.08090379
132	0xbe885e2c	-0.26634347
133	0xbbe9d1d6	-0.00713561
134	0xbd8754d7	-0.06607979
135	0xbd15a4d8	-0.03653416
136	0x3ed3d61d	0.41374293
137	0x3f17e6cd	0.5933655
138	0x3e4cadad	0.19988127
139	0x3eee9806	0.4660036
140	0xbe40888a	-0.18802086
141	0x3e8ca121	0.27466682
142	0xbea06562	-0.3132735
143	0xbc81fc5c	-0.015867405
144	0x3d256ff2	0.040389962
145	0x3d8a9187	0.067660384
146	0x3cdc3fca	0.026885886
147	0xbe8d9c70	-0.27658415
148	0xbeb6e606	-0.3572237
149	0xbe8f5d9b	-0.28001103
150	0xbe25093e	-0.16116807
151	0x3e98908c	0.2979778
152	0xbcec5307	-0.028848184
153	0x3ec43192	0.3831907
154	0xbde25466	-0.11051254
155	0xbe755170	-0.23956847
156	0xbe400590	-0.18752122
157	0xbe32b5e7	-0.17452203
158	0xbefbde54	-0.4919306
159	0xbe82af81	-0.25524524
160	0xbdb18ec2	-0.08669807
161	0xbe9405ff	-0.28910825
162	0x3e7a4e5a	0.24443951
163	0xbd5e6cee	-0.054303102
164	0xbebcc7a1	-0.36871055
165	0xbe79be5a	-0.2438902
166	0xbe552a03	-0.20816807
167	0xbe97dc40	-0.29660225
168	0xbd3f6d92	-0.046735354
169	0x3db90b60	0.09035373
170	0xbe455051	-0.1926892
171	0xbecff71e	-0.40618223
172	0x3da53eef	0.08068644
173	0x3e106d0c	0.14104098
174	0x3df695f2	0.120403185
175	0x3ec2e204	0.3806306
176	0xbd8dc7fb	-0.06922909
177	0xbe6a8498	-0.22902143
178	0xba4d1d3d	-0.0007824486
179	0xbe608f24	-0.21929604
180	0x3d2f6f65	0.042830843
181	0x3e00a334	0.12562257
182	0xbe646319	-0.22303428
183	0xbdc8ff07	-0.098142676
184	0xbee0b06b	-0.43884596
185	0xbcb939e1	-0.022610607
186	0xbee8d3e2	-0.45474154
187	0xbea51b71	-0.322475
188	0x3e2f329f	0.17109154
189	0xbdbfa580	-0.093577385
190	0xbe938801	-0.288147
191	0xbeb4c721	-0.35308173
192	0xbe0779b6	-0.13230023
193	0xbccc4b39	-0.024938213
194	0xbe1a2096	-0.15051493
195	0xbd4da3ab	-0.050204914
196	0x3e1d795c	0.15378326
197	0xbf3bf928	-0.7342706
198	0xbe919503	-0.28434
199	0xbf1e6442	-0.6187173
200	0xbe4cc66e	-0.1999757
201	0x3d9dbada	0.07701655
202	0xbd9d56ce	-0.07682572
203	0xbe8470e0	-0.25867367
204	0x3e369f03	0.17834096
205	0x3d99fbe8	0.075187504
206	0x3e5be400	0.21473694
207	0xbe8a198a	-0.2697261
208	0x3d8c9be3	0.068656705
209	0xbe7353a8	-0.23762381
210	0xbe561a69	-0.20908512
211	0xbe935d59	-0.28782156
212	0x3e90a10b	0.28247866
213	0x3ed9acf5	0.42514768
214	0x3d524e7d	0.051344384
215	0xbe5a34cf	-0.21309207
216	0x3e57c4f8	0.21071231
217	0xbe8e44b5	-0.27786794
218	0xbe2e1189	-0.16998877
219	0xbeacc068	-0.33740544
220	0xbea7ee78	-0.32799125
221	0xbee80f63	-0.4532424
222	0x3e3e7cea	0.18602338
223	0xbe6f39bb	-0.23361866
224	0x3d84bbb4	0.06481114
225	0xbe04ac7e	-0.12956426
226	0x3e1340d2	0.14380196
227	0x3d6d56bb	0.05794404
228	0x3d858dac	0.065211624
229	0x3e10f0c1	0.1415434
230	0xbece0c42	-0.40243727
231	0xbe2dd36e	-0.16975185
232	0x3ccaadd8	0.024741098
233	0x3e993b4b	0.2992805
234	0xbe68906c	-0.22711343
235	0x3e9ab27a	0.30214292
236	0xbe6af9f3	-0.2294691
237	0xbdfff8fa	-0.124986604
238	0xbdc37b39	-0.09544987
239	0x3d96dea4	0.07366684
240	0xbdb9268d	-0.09040556
241	0x3dcebc66	0.10094528
242	0x3dd95ec5	0.10613779
243	0x3f6a267b	0.91464967
244	0xbeafa230	-0.34303427
245	0xbe4c17f5	-0.19931014
246	0xbd6c4da5	-0.057691235
247	0xbed53c39	-0.4164751
248	0x3e0bd0bb	0.13653843
249	0x3dc7f772	0.09763993
250	0xbcd021a9	-0.025406675
251	0xbe14c8d1	-0.1452973
252	0xbd64db39	-0.05587313
253	0xbc67617b	-0.014122362
254	0x3a70fa8a	0.00091926067
255	0x3c71fd0e	0.014769806

conv5.bias f4 [128]
0	0x3e686ea3	0.22698455
1	0x3d059c3b	0.032619696
2	0x3e5fe499	0.21864547
3	0x3e3d369e	0.18477866
4	0xbdc36f4c	-0.095427126
5	0x3ded7f7e	0.11596583
6	0x3e4e489e	0.20144889
7	0x3db1f111	0.08688558
8	0x3e4c4ed3	0.19951944
9	0xbe9e2539	-0.30887774
10	0x3e08c4d5	0.13356335
11	0x3d3626dd	0.044470657
12	0xbe83576b	-0.25652632
13	0xbe4960b8	-0.19665802
14	0xbdf2ec9a	-0.118615344
15	0x3d709022	0.058731206
16	0xbe85e831	-0.2615371
17	0x3e20e6ef	0.15713094
18	0x3df21ba7	0.118216805
19	0xbddd087b	-0.10792633
20	0x3df9cf11	0.12197698
21	0x3ccbcd7d	0.024878258
22	0xbca6eeca	-0.020377535
23	0x3cc2ee1c	0.02379518
24	0x3eccd281	0.40004352
25	0x3e2f5970	0.17123961
26	0x3df696bd	0.1204047
27	0xbee8300b	-0.45349154
28	0xbdf4407f	-0.11926364
29	0xbe261882	-0.16220286
30	0xbc6bb33b	-0.014385994
31	0xbc446da0	-0.011989027
32	0x3bef9091	0.007310935
33	0xbe6d33f4	-0.2316435
34	0x3e216177	0.15759836
35	0x3e4c47cc	0.19949263
36	0x3d325964	0.04354228
37	0x3dcc7464	0.09983137
38	0xbcf66f8d	-0.030082488
39	0xbcc2b700	-0.023768902
40	0x3d72c110	0.05926615
41	0x3d4767ae	0.04868286
42	0x3db5bcc4	0.08873895
43	0x3da13e54	0.07873216
44	0x3c52a67b	0.012857075
45	0x3e2c6637	0.16835867
46	0xbd386973	-0.04502244
47	0x3e60ea42	0.21964362
48	0x3e02c4df	0.12770413
49	0x3e038bf6	0.1284636
50	0xbe0a1b22	-0.13486913
51	0xbe882f07	-0.2659838
52	0xbecd331a	-0.4007805
53	0xbe859707	-0.26091787
54	0x3d8c4329	0.06848747
55	0x3e4372ed	0.1908681
56	0x3d2e742d	0.042591263
57	0x3e3a1e40	0.18175602
58	0xbe27e9c9	-0.16397776
59	0x3d489b1e	0.048976056
60	0xbd497cf3	-0.049191426
61	0x3e666824	0.22500664
62	0x3e375666	0.17904052
63	0x3e4c102f	0.19928049
64	0xbe1e246d	-0.15443583
65	0x3e817eb5	0.25291982
66	0xbdc62391	-0.096747525
67	0x3e6bec2e	0.23039314
68	0xbd80e426	-0.06293516
69	0x3c82cb28	0.015966013
70	0xbc244829	-0.01002697
71	0xbcb4ccd0	-0.022070318
72	0x3d8ac819	0.06776447
73	0xbe2c031c	-0.16798061
74	0xbdd0e6c7	-0.10200267
75	0xbe572f49	-0.21014132
76	0x3c7d9aeb	0.01547883
77	0xbe8e23c4	-0.27761662
78	0xbe420769	-0.18948139
79	0x3d0b9e22	0.034086354
80	0x3e057d09	0.13035978
81	0xbd3d1190	-0.046159327
82	0x3c1e471c	0.0096605085
83	0xbda3ba34	-0.079945
84	0xbad8e497	-0.0016547617
85	0xbc0879f6	-0.008329859
86	0xbdae7b91	-0.08519662
87	0x3dd0bda3	0.1019242
88	0xbeb0d9cf	-0.34541175
89	0x3e8f50e3	0.279914
90	0x3e0abbee	0.13548252
91	0xbc341a07	-0.0109925335
92	0xbe0b41f4	-0.13599378
93	0xbd818d65	-0.06325797
94	0xbe02e10b	-0.1278116
95	0x3cb6fb8a	0.02233674
96	0x3e861927	0.26191065
97	0x3d80bd2d	0.062860824
98	0xbe0e0f80	-0.138731
99	0x3e9c2b42	0.30501753
100	0xbe06f245	-0.13178356
101	0xbe0c10b5	-0.13678248
102	0x3e0b18cd	0.1358368
103	0xbd073285	-0.033007164
104	0xbe0294f8	-0.1275214
105	0xbd9f84ff	-0.07789039
106	0x3e451c45	0.19249065
107	0xbe2dfa59	-0.16990031
108	0x3e13feaf	0.14452623
109	0x3e2fc327	0.17164288
110	0x3e84d26b	0.25941786
111	0xbdc3069b	-0.09522744
112	0x3e5f1578	0.21785533
113	0x3d1c3376	0.038135014
114	0x3d833c84	0.06408027
115	0xbcc2457c	-0.023714773
116	0xbe3b790d	-0.18307896
117	0x3d68a548	0.05679825
118	0xbee70820	-0.45123386
119	0x3e3837ed	0.17990084
120	0x3e70d23d	0.235177
121	0x3ccaa83a	0.02473842
122	0x3c904dc2	0.017615203
123	0x3ca280d9	0.01983683
124	0x3dfa3e5d	0.12218926
125	0xbda41b86	-0.08013062
126	0xbe2f7e74	-0.17138082
127	0xbe37dfd4	-0.17956477

conv6.weight f4 [64, 128, 2, 2]
0	0xbd07a14b	-0.033112805
1	0xbca173f7	-0.019708617
2	0xbf197f3e	-0.5995978
3	0xbef33bb7	-0.47506496
4	0xbe5bd396	-0.21467432
5	0xbe96eb7f	-0.29476544
6	0xbeb3e06a	-0.35132152
7	0xbe990a7f	-0.2989082
8	0xbe03bf26	-0.12865886
9	0xbed087de	-0.40728658
10	0xbe77b9c2	-0.24191955
11	0x3e49a332	0.1969116
12	0x3e52ad0a	0.20573822
13	0xbd07e183	-0.03317405
14	0xbc8c8686	-0.01715399
15	0xbdcac6f9	-0.09901232
16	0xbde56ae2	-0.11202027
17	0x3d96b296	0.07358281
18	0x3e0ae0e0	0.13562346
19	0x3e766435	0.24061663
20	0x3d9bc7b0	0.07606447
21	0x3e17bcf0	0.14818168
22	0x3ec0860a	0.37602264
23	0x3e9e4288	0.30910134
24	0xbd40da21	-0.047083024
25	0x3e261fbe	0.16223046
26	0x3d774e6f	0.060377534
27	0xbed273cc	-0.4110397
28	0x3e65f4b0	0.22456622
29	0xbce0518c	-0.027382635
30	0xbe2a7c95	-0.16649087
31	0x3d95c10e	0.07312213
32	0xbe5230b8	-0.20526397
33	0xbe0ba6c6	-0.13637838
34	0xbd994e0c	-0.074855894
35	0xbd92eb75	-0.07173816
36	0xbeb4e908	-0.3533404
37	0xbe729262	-0.23688653
38	0x3b0e090b	0.002167287
39	0xbe26230a	-0.16224304
40	0x3d87e530	0.06635511
41	0xbca2d702	-0.019877914
42	0x3e1445a5	0.14479692
43	0x3d727f3f	0.059203383
44	0x39ade322	0.00033166358
45	0xbe31199f	-0.1729493
46	0xbe928047	-0.28613493
47	0xbeba6ce8	-0.36411214
48	0xbe684119	-0.22681083
49	0xbeeb37ba	-0.45940953
50	0x3e286a30	0.16446757
51	0xbc5e756c	-0.0135778
52	0xbe8a628d	-0.27028313
53	0x3d92ff02	0.07177545
54	0x3d8f0e07	0.069850974
55	0xbe273215	-0.16327699
56	0xbe80d083	-0.25159082
57	0xbeb7b172	-0.35877568
58	0x3e3cafbe	0.18426415
59	0xbdbf3cd1	-0.09337772
60	0xbc062a03	-0.008188727
61	0x3daeda79	0.08537764
62	0xbca7566a	-0.020426948
63	0xbdbea89b	-0.09309503
64	0xbcac64e1	-0.021044197
65	0x3d86027a	0.06543441
66	0x3c1295df	0.008946865
67	0x3ddb5a5e	0.107105955
68	0x3d4ca937	0.049966063
69	0x3d475c3b	0.048671942
70	0x3ee7536b	0.4518083
71	0x3ee0806f	0.43847987
72	0x3cc5cc6a	0.024145324
73	0x3d94b6b4	0.0726141
74	0x3e441aa2	0.19150785
75	0x3e60dc3e	0.21959016
76	0xbca7fe57	-0.02050702
77	0x3c91a5c7	0.017779244
78	0xbccde9d3	-0.02513591
79	0x3cd0b8ba	0.02547871
80	0x3df2ddca	0.11858709
81	0x3d1b4cc3	0.037915003
82	0x3d57e8bb	0.052712183
83	0xbeb28c06	-0.34872454
84	0xbdd7831b	-0.10523053
85	0x3e4dc858	0.20095956
86	0x3e61bc42	0.22044471
87	0x3e832227	0.25611994
88	0x3dd28d02	0.10280801
89	0xbed2f95a	-0.41205865
90	0xbe5aae5f	-0.2135558
91	0xbf1fcd1e	-0.6242236
92	0xbe7b4b7f	-0.24540518
93	0xbe49ff34	-0.19726259
94	0xbf270799	-0.6524597
95	0xbf4b54b8	-0.79426146
96	0xbd562e62	-0.052290328
97	0xbedf73a1	-0.43642905
98	0xbf21fddb	-0.6327798
99	0xbec71543	-0.3888341
100	0xb9f1a459	-0.0004608955
101	0xbee040a1	-0.43799308
102	0xbeab552f	-0.33463427
103	0xbf5b83f5	-0.85748225
104	0xbe5b3a71	-0.21409012
105	0xbeaef2f0	-0.34169722
106	0x3d9bbf28	0.076048195
107	0xbdc4f751	-0.09617484
108	0x3cff0964	0.031132407
109	0xbe02ffe6	-0.1279293
110	0x3d640df5	0.055677373
111	0x3e72b211	0.2370074
112	0xbe034b80	-0.1282177
113	0xbd688c21	-0.056774262
114	0x3d8467aa	0.06465085
115	0xbd7bdcd4	-0.061489895
116	0xbcc02346	-0.02345432
117	0xbcbbc798	-0.022922322
118	0xbd8133fe	-0.06308745
119	0xbcf2d0d1	-0.029640587
120	0xbdf3e891	-0.11909593
121	0x3e817f74	0.25292552
122	0x3d37cfef	0.044876035
123	0xbe81b027	-0.25329706
124	0xbe2f3dba	-0.1711339
125	0xbd1e592f	-0.03865927
126	0xbc04cc9b	-0.008105422
127	0xbcbb3819	-0.022853898
128	0x3e790b0b	0.24320619
129	0x3e04a48b	0.12953393
130	0xbdca8e08	-0.098903716
131	0x3e6ba871	0.23013474
132	0x3cc9cd1b	0.024633935
133	0xbd4c3fcf	-0.04986554
134	0xbda06d19	-0.07833309
135	0xbd8a6b99	-0.06758804
136	0x3e8f9ae6	0.28047866
137	0x3d0c778e	0.034293704
138	0xbe605b58	-0.21909845
139	0xbc4625e2	-0.012093993
140	0xbdf3bea6	-0.11901598
141	0xbe06d34c	-0.13166541
142	0x3d0bfd5e	0.034177177
143	0x3d353297	0.0442377
144	0x3e859697	0.26091453
145	0x3ea5bc35	0.32370153
146	0x3d888ed8	0.0666787
147	0x3ec7837a	0.38967496
148	0x3de76629	0.112987824
149	0x3ea20e73	0.3165165
150	0x3e4eb757	0.20187126
151	0x3dbd0bfc	0.092308015
152	0x3d2dd5d9	0.04244027
153	0xbeab2e7a	-0.33433896
154	0x3dc8552a	0.09781869
155	0xbf03a1a6	-0.5141853
156	0xbe36b236	-0.1784142
157	0xbe1eb535	-0.15498812
158	0xbcf37278	-0.029717669
159	0x3e884372	0.26613957
160	0x3e04e574	0.12978154
161	0xbec5fc84	-0.38669217
162	0x3d469c6c	0.04848902
163	0x3c43bdb2	0.011947082
164	0x3e0a7996	0.13522944
165	0xbdc9c598	-0.09852141
166	0x3d488721	0.048956994
167	0x3db7e2d1	0.08978809
168	0x3e3d47dc	0.18484443
169	0xbe495212	-0.19660214
170	0xbe57ef95	-0.21087487
171	0xbf02fade	-0.5116404
172	0xbe9896b4	-0.29802477
173	0x3d853bfe	0.06505583
174	0x3ea9149b	0.33023533
175	0x3e48ee97	0.19622265
176	0x3e152a92	0.1456702
177	0x3d0b63c8	0.034030706
178	0x3e788d8e	0.24272749
179	0x3e679a35	0.22617419
180	0xbead96c6	-0.33904094
181	0xbebb79dd	-0.36616412
182	0xbe8a476f	-0.27007625
183	0x3e44a499	0.19203414
184	0x3e5d662c	0.21621007
185	0xbd8bc491	-0.068246014
186	0x3e938cd7	0.2881839
187	0x3e140b05	0.14457329
188	0xbe47f040	-0.19525242
189	0xbc24051d	-0.010010985
190	0xbe269c94	-0.16270667
191	0xbe09e81c	-0.13467449
192	0xbe2a0ee5	-0.16607244
193	0xbf1a8d15	-0.60371524
194	0xbdc38e34	-0.095486075
195	0xbe905a3f	-0.28193852
196	0xbe2d5274	-0.16925985
197	0x3e56e7ee	0.20986912
198	0x3e969392	0.29409462
199	0xbeaf2796	-0.3420989
200	0xbe74e97a	-0.23917189
201	0xbdc2095e	-0.09474443
202	0x3d5f419a	0.054505922
203	0xbe19c41b	-0.15016215
204	0x3e817699	0.25285795
205	0xbc9bc716	-0.01901583
206	0x3e00e71b	0.1258816
207	0x3e82757a	0.25480253
208	0x3ea78872	0.32721287
209	0x3d590d67	0.052991297
210	0x3defc3fd	0.11707304
211	0xbdb917dd	-0.09037755
212	0x3e779661	0.24178459
213	0x3e7c4a31	0.24637677
214	0x3d42b4a0	0.04753554
215	0x3db4078b	0.08790501
216	0xbd115f06	-0.035491012
217	0x3e495430	0.19661021
218	0x3ec63bc8	0.38717484
219	0x3e3011b0	0.17194247
220	0xbe2da5ee	-0.16957828
221	0xbe719928	-0.2359358
222	0xbd8c35c7	-0.06846195
223	0xbdad5bc4	-0.084647685
224	0xbd6ef6fd	-0.058341015
225	0xbd779d90	-0.060452998
226	0x3eab128a	0.33412582
227	0x3dc65acd	0.096852876
228	0x3c9eccf2	0.019384835
229	0x3ccc0c93	0.02490834
230	0x3e8a4faa	0.27013904
231	0x3cabda17	0.020978017
232	0x3b2f4a9b	0.002674735
233	0xbc8c7d09	-0.017149465
234	0xbcac2483	-0.021013504
235	0x3d03ab89	0.03214601
236	0x3e2ab2c4	0.16669756
237	0x3e2788f2	0.16360834
238	0xbe6b3668	-0.22969973
239	0xbe6a6c39	-0.22892846
240	0x3dba6209	0.0910073
241	0x3c0fbcaa	0.008773008
242	0xbe40a7c9	-0.18814005
243	0x3e817d79	0.2529104
244	0x3e9e63cb	0.3093551
245	0x3e248d34	0.1606949
246	0xbdf539fd	-0.11973951
247	0x3d0459fc	0.03231238
248	0xbb945dbe	-0.0045277765
249	0x3e1c99d7	0.1529306
250	0xbe258960	-0.16165686
251	0x3de6b93c	0.112657994
252	0x3e6c0ee7	0.2305256
253	0x3dcf51a1	0.10122991
254	0xbe7147c3	-0.23562531
255	0xbdd37541	-0.10325099
