model/model_13.pth (torch_old, 571877 bytes, 24 tensors)

conv1.weight f4 [32, 3, 2, 2]
-0.11004824 -0.11420971 -0.15239069 0.39028558 -0.59519017 0.15074536 -0.13784106 0.43089822
-0.29802522 -0.075553216 0.0026312724 0.2744071 0.20739865 -0.124183044 0.12745892 0.020001434
0.07435496 -0.058885794 0.3305798 0.04514431 -0.13224989 -0.24033993 -0.035285898 -0.23125592
-0.118731625 0.043676976 0.12636375 0.23014773 -0.33310193 0.2035017 -0.04196309 0.31161442
0.13806409 -0.19739158 -0.4589887 -0.115809694 0.3882141 -0.04737978 0.06890253 -0.27517617
0.3896501 -0.2291136 0.16807088 -0.19222805 -0.058264777 0.017853761 -0.21345972 -0.14578651
-0.15545827 -0.10295619 -0.37066856 -0.21896063 0.19831695 -0.08148932 0.30419588 0.22356041
-0.044338685 -0.28153256 0.15566602 0.025635993 -0.19136596 0.11613091 0.24032782 0.25536686
-0.1963985 -0.13399725 -0.0062396238 -0.024360113 -0.3298386 -0.35895264 0.12009914 -0.17179854
0.033320494 -0.077296525 -0.0568249 -0.044938687 0.16585699 0.15787132 -0.2014174 0.19821559
-0.1584714 -0.21082483 -0.0046590567 -0.10397101 0.23753567 0.051848847 -0.5710609 0.06011009
0.12847331 0.48886266 -0.11727578 -0.2443016 0.24471815 0.31861624 -0.34996465 -0.20503204
0.04280267 -0.28867874 0.18139838 -0.096930996 0.13432564 -0.45785865 0.41640234 0.036284167
-0.231502 -0.4026674 0.55442935 0.10478509 0.14175881 -0.03620928 0.033376742 0.15437348
0.21568789 -0.27967602 0.009975645 0.22149815 0.14614527 0.13647085 -0.1995807 -0.15071188
-0.11777875 0.039488588 0.2853007 -0.26510915 0.16873793 -0.18935171 -0.33543855 -0.123454146
0.20753865 0.26345813 -0.22375458 0.033060815 0.37399223 0.225069 0.12736788 0.09843623
0.14250904 -0.015282229 -0.47618935 -0.520752 -0.0075672152 0.055288646 -0.2772717 0.04579734
0.0119999945 0.007109538 -0.12675586 0.054731205 0.16113397 0.33016214 -0.18773156 0.38319296
-0.13472527 0.024395403 -0.42303586 -0.18282588 -0.36519453 -0.15071157 0.1770182 0.021103147
-0.26471278 0.21490787 0.08986014 0.35018572 -0.31620014 0.054486193 -0.24275352 -0.029631827
-0.5327443 -0.30803126 -0.24785669 0.13480458 -0.05036931 0.08234888 0.320697 0.47150797
0.067710035 -0.06297985 -0.21142764 0.34601212 0.13301833 0.103504516 -0.21254306 -0.14693047
0.010140963 0.3416317 -0.16684927 -0.25543287 0.11593553 -0.15019456 0.15653215 -0.2057143
0.021138947 -0.09600923 0.34146437 -0.37076285 0.2245121 -0.048308223 0.3756129 -0.4703677
0.19185661 -0.35990193 0.32118803 -0.32786283 -0.024578296 0.14552276 -0.22433645 0.21455191
-0.21769406 0.25017822 -0.20330638 0.29606703 -0.6052089 0.1813684 -0.06396808 0.28794986
0.11679055 -0.18600132 -0.17669454 0.29461664 -0.39961958 0.31778154 -0.43335837 -0.19758247
0.2460283 0.010550644 0.0019257708 0.40257755 0.18855238 0.44564393 -0.26397407 -0.2708019
0.32209682 0.21736716 -0.2805284 0.07841689 -0.31245592 0.3303729 -0.18391734 -0.38082904
-0.25954098 -0.048870526 0.1731804 0.05644822 -0.35070524 -0.14848393 -0.41908768 -0.2904491
-0.16614282 0.2949882 0.36882102 0.056089815 -0.018697076 0.1945547 -0.11525627 -0.21516743
00000000: f960 e1bd c8e6 e9bd 4e0c 1cbe 83d3 c73e
00000010: 625e 18bf fe5c 1a3e 3526 0dbe b19e dc3e
00000020: c396 98be a5bb 9abd 6d71 2c3b 167f 8c3e
00000030: 5060 543e ae53 febd 9784 023e 0cda a33c
00000040: 6a47 983d 3b32 71bd c141 a93e 3de9 383d
00000050: 846c 07be ac1b 76be f287 10bd 5ace 6cbe
00000060: 9129 f3bd a1e6 323d 8065 013e d9ab 6b3e
00000070: 568c aabe c062 503e 7de1 2bbd ed8b 9f3e
00000080: ac60 0d3e 0521 4abe 9100 ebbe a22d edbd
00000090: 00c4 c63e 4d11 42bd c51c 8d3d e4e3 8cbe
000000a0: 3880 c73e c19c 6abe c61a 2c3e 6ed7 44be
000000b0: 0ca7 6ebd 0d42 923c 2f95 5abe 0f49 15be
000000c0: 7430 1fbe b2da d2bd 45c8 bdbe 3737 60be
000000d0: 9913 4b3e dfe3 a6bd 90bf 9b3e 05ed 643e
000000e0: 7b9c 35bd 0925 90be ea66 1f3e 9302 d23c
000000f0: 70f5 43be 0bd6 ed3d 7f18 763e 72bf 823e
00000100: b01c 49be 9336 09be c275 ccbb dc8e c7bc
00000110: 9be0 a8be a4c8 b7be 8af6 f53d f5eb 2fbe
00000120: 127b 083d a44d 9ebd 3ac1 68bd a111 38bd
00000130: 6ad6 293e 05a9 213e 5d40 4ebe 07f9 4a3e
00000140: 5446 22be 77e2 57be 00ab 98bb c1ee d4bd
00000150: 8d3c 733e 755f 543d 0c31 12bf ff35 763d
00000160: 828e 033e 354c fa3e 492e f0bd 332a 7abe
00000170: 6597 7a3e ab21 a33e 912e b3be ebf3 51be
00000180: da51 2f3d b3cd 93be 7fc0 393e c283 c6bd
00000190: a98c 093e 736c eabe b032 d53e b59e 143d
000001a0: dc0e 6dbe 6c2a cebe 15ef 0d3f 9199 d63d
000001b0: 3929 113e 2f50 14bd 0db6 083d 1514 1e3e
000001c0: 49dd 5c3e b231 8fbe e370 233c 69d0 623e
000001d0: 1ba7 153e 04bf 0b3e e25e 4cbe 3754 1abe
000001e0: fc35 f1bd c9be 213d ef12 923e 63bc 87be
000001f0: a3c9 2c3e 6ae5 41be 9abe abbe 87d5 fcbd
00000200: 0385 543e fce3 863e ec1f 65be c76a 073d
00000210: e97b bf3e 7d78 663e ba6c 023e ef98 c93d
00000220: e4ed 113e 5062 7abc 17cf f3be 0150 05bf
00000230: 67f6 f7bb 5976 623d 8ef6 8dbe fe95 3b3d
00000240: a09b 443c 21f7 e83b 4acc 01be d42d 603d
00000250: 4e00 253e 030b a93e b43c 40be de31 c43e
00000260: 6cf5 09be ded8 c73c 2898 d8be b536 3bbe
00000270: c7fa babe 2254 1abe 4244 353e 82e0 ac3c
00000280: 6f88 87be cf10 5c3e 9808 b83d 8b4b b33e
00000290: fce4 a1be ea2c 5f3d 6194 78be 72be f2bc
000002a0: ee61 08bf 46b6 9dbe 25ce 7dbe 360a 0a3e
000002b0: 0d50 4ebd 88a6 a83d 6632 a43e 7e69 f13e
000002c0: 8fab 8a3d 94fb 80bd 7d80 58be 8028 b13e
000002d0: f535 083e 2dfa d33d e3a4 59be f174 16be
000002e0: 4826 263c 5aea ae3e 89da 2abe 19c8 82be
000002f0: 9b6f ed3d 9acc 19be f749 203e c5a6 52be
00000300: 962b ad3c 7da0 c4bd 6bd4 ae3e a1d4 bdbe
00000310: 80e6 653e d8de 45bd 5650 c03e 09d4 f0be
00000320: 0f76 443e 1145 b8be c272 a43e a3dd a7be
00000330: 6c58 c9bc eb03 153e 74b8 65be 7fb3 5b3e
00000340: 31eb 5ebe 5c17 803e 8c2f 50be 1996 973e
00000350: f8ee 1abf a3b8 393e b201 83bd 2a6e 933e
00000360: e22f ef3d 2177 3ebe 6aef 34be fed7 963e
00000370: f09a ccbe 43b4 a23e 26e1 ddbe 0f53 4abe
00000380: d8ee 7b3e 9cdc 2c3c 256a fc3a a51e ce3e
00000390: e013 413e 712b e43e 9c27 87be 8ca6 8abe
000003a0: e0e9 a43e 7f95 5e3e 6ba1 8fbe 0999 a03d
000003b0: 39fa 9fbe a326 a93e d454 3cbe 06fc c2be
000003c0: 8ee2 84be 762c 48bd 3456 313e 4036 673d
000003d0: a38f b3be 2c0c 18be a992 d6be bfb5 94be
000003e0: 5821 2abe b108 973e 1cd6 bc3e 6fbe 653d
000003f0: 9c2a 99bc 5939 473e 7b0b ecbd da54 5cbe

conv1.bias f4 [32]
-0.3793119 -0.09247167 -0.49247262 -0.16966489 -0.38917062 -0.5034991 -0.5592719 0.13241951
0.084146276 -0.35482714 -0.4095401 -0.02302083 -0.09593044 -0.19346453 0.07755451 -0.39662975
-0.08187243 0.1190291 -0.16794848 -0.5278275 -0.51132286 -0.7573034 0.13586995 -0.6089299
0.05300808 -0.10585935 -0.36734307 -0.46178803 0.11388969 -0.4650801 -0.3992329 0.06908893
00000000: 2b35 c2be c961 bdbd 5f25 fcbe a2bc 2dbe
00000010: 5f41 c7be 51e5 00bf 712c 0fbf fb98 073e
00000020: e254 ac3d e7ab b5be 3daf d1be 2e96 bcbc
00000030: 2e77 c4bd 911b 46be e6d4 9e3d 0e13 cbbe
00000040: bcac a7bd 87c5 f33d b0fa 2bbe b41f 07bf
00000050: 0ee6 02bf a3de 41bf 7e21 0b3e d4e2 1bbf
00000060: 001f 593d c9cc d8bd 6414 bcbe 7b6f ecbe
00000070: ff3e e93d fb1e eebe 4168 ccbe 7f7e 8d3d

conv2.weight f4 [32, 32, 2, 2]
-0.20124105 0.12000688 -0.09806499 -0.08642983 0.020803198 0.042328455 -0.07138832 0.010951474
-0.02010688 0.032573197 -0.20578907 -0.17526752 -0.09980849 -0.08164055 -0.034025833 -0.099507645
-0.09043719 0.028164873 -0.10707773 -0.19462956 -0.04448311 0.03334228 -0.03375037 0.074045256
0.037449036 0.14427269 -0.12269751 0.030186396 -0.30606446 -0.32151192 -0.05432781 -0.44732946
0.11360912 0.1117401 0.14171045 0.26878566 0.107269555 -0.08711047 0.1211245 0.10098754
-0.11386037 0.07064463 0.06405047 -0.025688054 -0.030312829 -0.2624731 0.17331804 -0.1622319
0.12855056 -0.034747716 0.072005905 -0.18113996 0.06093298 0.076674476 0.00534272 -0.11149121
0.109043874 0.0054539326 0.15185657 0.118589684 0.0005386201 0.3217694 -0.079942845 -0.080733106
0.15366009 -0.024304627 -0.19533215 -0.009691016 0.03979124 -0.25310868 0.05074614 0.0015770033
0.06661651 0.04965912 -0.08240594 -0.20642768 -0.12527017 -0.26089105 0.051821984 0.09446045
0.29213074 0.3586711 -0.4308227 -0.18338595 -0.27434802 -0.13379851 -0.056210537 -0.21284118
-0.13063416 -0.0033659104 -0.035841912 -0.018345514 0.49134934 0.22641225 -0.23992957 -0.28833416
-0.29078624 0.1001499 0.12762472 -0.2844317 0.12846197 0.111219175 -0.20046942 -0.22496867
-0.08613455 0.2334985 0.06132745 -0.06158063 -0.047761075 0.107312664 -0.002024856 0.04041347
0.15093519 0.17051937 0.17643544 0.30548385 0.037657112 0.26187876 -0.3325669 -0.1591995
-0.261689 0.19582385 -0.12412478 0.08468968 0.15764637 -0.06810346 0.07198198 0.07549033
-0.22825745 -0.1269258 -0.17247623 -0.27295694 -0.39211753 -0.23589537 -0.3061711 -0.34596407
-0.36787003 -0.4522765 -0.544004 -0.30119917 -0.2103186 -0.4180439 -0.41984072 -0.42909315
-0.23112483 -0.26412782 -0.2333131 -0.31107348 0.18252505 0.2092773 0.17596388 0.23561624
-0.35067278 -0.31040302 -0.28663003 -0.27335167 -0.3580632 -0.34381175 -0.5392086 -0.40118483
-0.4558456 -0.12162534 -0.44275582 -0.3538706 -0.012309411 0.019992305 -0.13691491 0.05238281
0.028497353 -0.07591463 0.025886046 0.11761127 0.10269811 0.12492013 0.111998424 0.19791852
-0.4262179 -0.58538395 -0.66510636 -0.5084413 -0.10338947 -0.16358103 -0.12267723 -0.14088793
-0.18026365 -0.31522688 -0.08345314 -0.18484603 0.22441633 0.17384307 0.25193143 0.26171857
-0.2342866 -0.02993303 -0.066492125 -0.06643524 -0.19776337 -0.25860888 -0.18401106 -0.25134692
0.01709415 0.018398007 0.093842104 0.03415218 -0.18354042 -0.2508278 -0.012731752 -0.13765423
0.3324793 0.38938022 0.3263538 0.4403366 0.20390733 0.0069043827 0.28374636 0.02840944
-0.37337968 -0.3809157 -0.56603044 -0.31268203 -0.23829134 -0.2841928 -0.28322813 -0.27307066
-0.48184153 -0.42732248 -0.6156326 -0.44819826 0.09273514 -0.029156553 -0.051860485 -0.0009198538
-0.22242345 -0.17606641 -0.17646238 -0.026006915 -0.048276212 0.004355916 0.00657133 -0.011331712
-0.17763256 0.0123289535 -0.07722357 -0.058932766 -0.037919674 0.012701141 -0.18819255 -0.027172457
-0.0724385 -0.03818336 0.04129046 0.03040214 -0.47423908 -0.31658038 -0.35619792 -0.3953778
00000000: 2212 4ebe 2bc6 f53d 4cd6 c8bd 1f02 b1bd
00000010: 786b aa3c 9a60 2d3d 0a34 92bd d06d 333c
00000020: 2fb7 a4bc 796b 053d 5fba 52be 5479 33be
00000030: 6568 ccbd 2933 a7bd ac5e 0bbd aaca cbbd
00000040: 2237 b9bd 05ba e63c 924b dbbd f94c 47be
00000050: ec33 36bd ea91 083d d43d 0abd 0aa5 973d
00000060: 2964 193d 38bc 133e d548 fbbd 7649 f73c
00000070: 7bb4 9cbe 369d a4be d686 5ebd 5e08 e5be
00000080: e6ab e83d fed7 e43d 8b1c 113e 469e 893e
00000090: 24b0 db3d f966 b2bd 1f10 f83d 8ed2 ce3d
000000a0: a02f e9bd 22ae 903d e52c 833d c16f d2bc
000000b0: 9c52 f8bc e062 86be 497a 313e 1f20 26be
000000c0: c2a2 033e 9f53 0ebd d577 933d c17c 39be
000000d0: dc94 793d 8207 9d3d fc11 af3b 8155 e4bd
000000e0: 6552 df3d e7b6 b23b 4a80 1b3e 26df f23d
000000f0: 2f32 0d3a f5be a43e 13b9 a3bd 6657 a5bd
00000100: 1259 1d3e 7f1a c7bc 2705 48be 11c7 1ebc
00000110: 24fc 223d 7697 81be 2fdb 4f3d 73b3 ce3a
00000120: 3d6e 883d 5d67 4b3d 72c4 a8bd c761 53be
00000130: d346 00be 8393 85be 4a43 543d 7b74 c13d
00000140: 2992 953e bda3 b73e cb94 dcbe 87c9 3bbe
00000150: 5877 8cbe 7a02 09be 053d 66bd 0af3 59be
00000160: f6c4 05be 9b96 5cbb f8ce 12bd 5549 96bc
00000170: 2492 fb3e 9dd8 673e 19b0 75be 89a0 93be
00000180: efe1 94be 641b cd3d 0eb0 023e 08a1 91be
00000190: 898b 033e e1c6 e33d db47 4dbe 305e 66be
000001a0: 5067 b0bd 3b1a 6f3e 7e32 7b3d f83b 7cbd
000001b0: 1ea1 43bd bec6 db3d 72b3 04bb 9888 253d
000001c0: c18e 1a3e a19c 2e3e 7eab 343e 6168 9c3e
000001d0: 583e 1a3d f914 863e 3546 aabe 3205 23be
000001e0: 1afc 85be 0c86 483e 2235 febd c871 ad3d
000001f0: 0d6e 213e d479 8bbd 4a6b 933d ad9a 9a3d
00000200: 52bc 69be d6f8 01be 9c9d 30be 03c1 8bbe
00000210: a1c3 c8be 8e8e 71be 75c2 9cbe 3422 b1be
00000220: 7659 bcbe c990 e7be d943 0bbf c736 9abe
00000230: c25d 57be da09 d6be 5df5 d6be 19b2 dbbe
00000240: fdab 6cbe c33b 87be a1e9 6ebe 0645 9fbe
00000250: d9e7 3a3e ca4c 563e e02f 343e 6245 713e
00000260: 628b b3be 25ed 9ebe 2cc1 92be c0f4 8bbe
00000270: 0f54 b7be 1808 b0be 9309 0abf 1968 cdbe
00000280: 9864 e9be b516 f9bd e4b0 e2be 872e b5be
00000290: 69ad 49bc e7c6 a33c 6c33 0cbe 5b8f 563d
000002a0: 4873 e93c 2179 9bbd f90e d43c 2dde f03d
000002b0: 6353 d23d 20d6 ff3d 6e5f e53d 27ab 4a3e
000002c0: 3c39 dabe b9db 15bf 6944 2abf 3629 02bf
000002d0: dcbd d3bd c981 27be 333e fbbd ed44 10be
000002e0: 0997 38be 6b65 a1be 7be9 aabd 4748 3dbe
000002f0: 65cd 653e eb03 323e 28fd 803e faff 853e
00000300: d4e8 6fbe 1d36 f5bc 062d 88bd 330f 88bd
00000310: 7b82 4abe 6268 84be 656d 3cbe 8bb0 80be
00000320: 0809 8c3c 6bb7 963c 4a30 c03d 28e3 0b3d
00000330: 05f2 3bbe 806c 80be d798 50bc 3bf5 0cbe
00000340: ba3a aa3e d85c c73e d817 a73e cd73 e13e
00000350: 15cd 503e 293e e23b 3447 913e eaba e83c
00000360: 9f2b bfbe 6207 c3be 5fe7 10bf dc17 a0be
00000370: a502 74be b881 91be 4703 91be ebcf 8bbe
00000380: efb3 f6be 03ca dabe 199a 1dbf 3e7a e5be
00000390: eceb bd3d b9d9 eebc a96b 54bd 5822 71ba
000003a0: f9c2 63be c14a 34be 8eb2 34be 740c d5bc
000003b0: 47bd 45bd 12bc 8e3b 5054 d73b a5a8 39bc
000003c0: 4fe5 35be 61ff 493c 6427 9ebd 7c63 71bd
000003d0: a951 1bbd 7218 503c 8cb5 40be c698 debc
000003e0: a35a 94bd 2866 1cbd 2f20 293d e90d f93c
000003f0: 77cf f2be d316 a2be 935f b6be f66e cabe

conv2.bias f4 [32]
0.045792297 -0.079238996 -0.10620877 -0.15136816 0.12039434 -0.09038321 -0.14534537 0.15300053
-0.061271142 0.14940143 -0.20295712 0.18671125 0.10280068 -0.11910935 -0.45125479 -0.1149933
0.010507801 0.0034022264 0.05327189 0.11697975 0.05193992 -0.21041523 0.04807087 0.13498603
-0.06505002 0.19627124 0.03767824 -0.12504102 0.0062618423 0.20173404 0.27393687 -0.15473646
00000000: b490 3b3d 0e48 a2bd fc83 d9bd 4100 1bbe
00000010: 4f91 f63d d51a b9bd 6bd5 14be 2cac 1c3e
00000020: 73f7 7abd b0fc 183e fed3 4fbe 3c31 3f3e
00000030: 2a89 d23d 9aef f3bd de0a e7be 9b81 ebbd
00000040: e928 2c3c e3f7 5e3b a033 5a3d 1493 ef3d
00000050: f4be 543d 1777 57be f6e5 443d c739 0a3e
00000060: f238 85bd 54fb 483e 8054 1a3d c10a 00be
00000070: 2430 cd3b 5e93 4e3e 7441 8c3e 3c73 1ebe

conv3.weight f4 [64, 32, 2, 2]
-0.10555627 0.08730389 0.007719375 0.29250193 0.040036835 -0.21864028 0.2344483 -0.2054131
0.059657857 0.0732221 0.090541326 0.030058619 0.032770418 -0.05884943 0.01451909 -0.03322069
-0.38377833 -0.32029748 -0.231002 -0.2744861 -0.071721755 0.0482938 -0.0583845 0.04123001
0.029881464 -0.03259451 -0.046439733 -0.06557164 -0.14700215 -0.2123587 -0.31289026 -0.42545897
-0.028951067 -0.09234055 0.026125025 -0.025187235 0.25350788 -0.07254638 0.24051726 -0.3954118
0.18221815 0.30929568 0.22498578 0.3010154 0.0479148 0.090284854 0.02437388 0.043359824
-0.018800303 -0.36675107 0.3852251 -0.04506756 0.18794686 0.20365222 -0.06027598 -0.47762597
-0.13696863 -0.058534674 -0.033042107 -0.23648825 0.11429968 0.076116815 0.058635883 0.049263272
0.06797692 0.060166467 0.08840685 -0.010289012 0.045851063 0.06817737 -0.10906271 -0.098661736
0.1584604 -0.015678631 -0.12975693 -0.03840171 0.26588538 -0.047247294 0.12053681 0.016182665
-0.2646683 0.044556994 0.047743484 0.15532501 0.19583774 0.15498585 -0.04043014 0.099057384
-0.09107589 -0.026179476 -0.06852391 -0.034815807 -0.39146012 -0.13488029 0.3576907 0.20484588
0.14836209 -0.2314716 0.26379013 -0.21556577 0.39481214 -0.1946458 0.018610189 -0.32257137
0.07113355 -0.15682252 -0.19709925 -0.12015225 0.06716719 0.012745498 -0.079393454 -0.010751064
0.031621266 0.036507763 0.10327992 0.04314734 0.24468932 -0.09348871 0.15274803 0.00037706556
0.05834227 0.26506257 0.11510109 0.2228242 0.010108359 0.016236404 0.1057284 -0.04419579
-0.21083267 -0.55752593 0.061560843 -0.01964011 0.24087082 -0.090278484 0.2525007 0.20770104
0.037951894 0.002729123 -0.10473322 -0.08102397 -0.06297825 -0.10160633 0.03639583 0.05983155
-0.080917306 -0.15101594 -0.18247887 -0.0895429 -0.007380301 -0.02563022 -0.025537461 0.06001095
-0.01475258 0.025620101 0.05798407 0.036786813 -0.033386305 -0.29217497 0.0265367 -0.17824182
-0.008587695 0.013878811 -0.014573884 -0.018927868 0.10097217 0.15457056 -0.10070726 -0.22132564
-0.05791533 0.051356863 -0.2559706 -0.12164774 0.044207282 -0.344225 0.23945831 -0.080503955
0.20780861 0.2581756 -0.08220473 -0.1901899 0.0973627 0.07716694 0.1061789 0.25131553
-0.31972355 -0.035178754 -0.27114758 0.049596805 -0.030785486 0.07717635 -0.038239058 0.02102909
0.1603399 0.015201756 -0.009853667 0.051775362 -0.016004778 -0.06857414 -0.076618776 0.08034685
0.045089472 -0.030471355 -0.3582059 -0.17259781 -0.13242202 0.027626902 -0.5268198 -0.095460705
-0.13179612 -0.02302002 -0.32505593 -0.3617421 -0.055412583 -0.022940414 0.02364467 0.1289879
0.033963792 0.060838845 0.06808571 0.17015703 -0.2381111 -0.2771085 0.12971097 -0.031455494
0.23192692 0.26837736 -0.122069165 -0.018814307 0.21931273 0.117879376 -0.14222515 -0.19461638
-0.2911316 -0.7498398 -0.23906368 -0.4795328 0.017388474 -0.075360045 0.037650168 0.082027785
0.23070084 0.09174114 -0.29846847 -0.09038554 0.07012444 0.20412824 -0.199217 0.05742518
0.13383885 0.082817465 0.07988102 -0.6465972 -0.054241188 0.031608474 -0.05865214 0.006087274
00000000: e32d d8bd 62cc b23d d0f2 fc3b d0c2 953e
00000010: aafd 233d 3de3 5fbe 3713 703e d057 52be
00000020: cc5b 743d 78f5 953d bb6d b93d 7e3d f63c
00000030: 463a 063d 1a0c 71bd 7ae1 6d3c 6b12 08bd
00000040: 987e c4be 08fe a3be ca8b 6cbe 7189 8cbe
00000050: dbe2 92bd b8cf 453d 9624 6fbd cde0 283d
00000060: f9c9 f43c d281 05bd 9737 3ebd 6d4a 86bd
00000070: bb87 16be 8f74 59be 2733 a0be c2d5 d9be
00000080: ca2a edbc 0b1d bdbd 2604 d63c 7655 cebc
00000090: c9cb 813e 3293 94bd 284a 763e 6a73 cabe
000000a0: 6597 3a3e 015c 9e3e ac62 663e b11e 9a3e
000000b0: 4f42 443d 44e7 b83d bbab c73c 129a 313d
000000c0: 1803 9abc ccc6 bbbe 393c c53e c398 38bd
000000d0: 2475 403e 358a 503e f2e3 76bd 648b f4be
000000e0: 8141 0cbe 0ec2 6fbd 2957 07bd fa29 72be
000000f0: f315 ea3d 22e3 9b3d 2e2c 703d 49c8 493d
00000100: 7c37 8b3d 1d71 763d a70e b53d 3f93 28bc
00000110: 53ce 3b3d 94a0 8b3d 455c dfbd 2a0f cabd
00000120: 7143 223e 7970 80bc 00df 04be 1d4b 1dbd
00000130: 2122 883e 6186 41bd 01dc f63d 8291 843c
00000140: 9a82 87be 6581 363d ac8e 433d 850d 1f3e
00000150: b089 483e 9cb4 1e3e 139a 25bd 99de ca3d
00000160: ff85 babd 5776 d6bc 4456 8cbd 059b 0ebd
00000170: 766d c8be 0f1e 0abe 3c23 b73e 1ec3 513e
00000180: 3bec 173e e406 6dbe 800f 873e 46bd 5cbe
00000190: d124 ca3e 3b51 47be 6574 983c 1328 a5be
000001a0: 77ae 913d 1596 20be 63d4 49be 6212 f6bd
000001b0: f48e 893d 7ed2 503c 0999 a2bd 3b25 30bc
000001c0: 4d85 013d 2a89 153d 6c84 d33d 44bb 303d
000001d0: d68f 7a3e 0277 bfbd fb69 1c3e e2b0 c539
000001e0: 4ef8 6e3d 48b6 873e 1fba eb3d 072c 643e
000001f0: 889d 253c 3502 853c 2288 d83d a506 35bd
00000200: 85e4 57be 05ba 0ebf 3927 7c3d 4ce4 a0bc
00000210: d7a6 763e ede3 b8bd c647 813e 95af 543e
00000220: 7273 1b3d 16db 323b 5f7e d6bd e5ef a5bd
00000230: befa 80bd fb16 d0bd cb13 153d ed11 753d
00000240: f9b7 a5bd eca3 1abe bedb 3abe 4562 b7bd
00000250: 74d6 f1bb 78f6 d1bc f033 d1bc 0bce 753d
00000260: ceb4 71bc 3fe1 d13c b480 6d3d c5ad 163d
00000270: 14c0 08bd f597 95be 7e63 d93c 0685 36be
00000280: 67b3 0cbc f463 633c 4dc7 6ebc 9e0e 9bbc
00000290: 7fca ce3d bf47 1e3e 9c3f cebd 30a3 62be
000002a0: a038 6dbd 935b 523d 940e 83be 7322 f9bd
000002b0: b212 353d 423e b0be 8f34 753e 42df a4bd
000002c0: c8cb 543e 982f 843e f45a a8bd 24c1 42be
000002d0: 1866 c73d b309 9e3d 5374 d93d 6eac 803e
000002e0: ceb2 a3be 9917 10bd dbd3 8abe 0526 4b3d
000002f0: d831 fcbc a20e 9e3d 8fa0 1cbd 3345 ac3c
00000300: 2530 243e c910 793c 4671 21bc 6712 543d
00000310: 741c 83bc 9970 8cbd 4eea 9cbd e48c a43d
00000320: bdaf 383d 109f f9bc c466 b7be 7bbd 30be
00000330: a399 07be d051 e23c aadd 06bf e780 c3bd
00000340: 90f5 06be 7b94 bcbc bb6d a6be 4336 b9be
00000350: 4ef8 62bd 89ed bbbc 78b2 c13c 6715 043e
00000360: 9e1d 0b3d 2732 793d 8570 8b3d a53d 2e3e
00000370: 65d3 73be 2ae1 8dbe f4d2 043e 7ad7 00bd
00000380: 407e 6d3e c268 893e 66ff f9bd 7620 9abc
00000390: 8493 603e be6a f13d 78a3 11be 8449 47be
000003a0: 330f 95be 80f5 3fbf 1ccd 74be 5385 f5be
000003b0: 4672 8e3c 5e56 9abd 1037 1a3d 2ffe a73d
000003c0: d73c 6c3e c7e2 bb3d dcd0 98be 0e1c b9bd
000003d0: 679d 8f3d fe06 513e 8bff 4bbe aa36 6b3d
000003e0: 0d0d 093e 349c a93d a998 a33d 6587 25bf
000003f0: 022c 5ebd e377 013d 3a3d 70bd c177 c73b

conv3.bias f4 [64]
-0.0029384587 0.34202734 0.14281046 -0.39893055 0.040124863 -0.022099892 0.11747838 -0.088308714
0.13251173 0.13460702 -0.36728343 -0.09173962 0.039637722 -0.1056603 0.10542448 0.14922488
-0.04420295 0.03484262 0.04565416 0.060879488 0.12224589 0.0017008971 -0.46778366 -0.14011382
0.0022677341 -0.16341771 0.3527958 0.08507729 0.24318138 0.14054118 0.12992604 0.2038579
-0.08522196 0.22773537 -0.06581894 -0.21829814 0.028675655 0.24966486 -0.22455743 0.035206933
0.088425495 0.1810853 0.032772288 -0.16641876 0.05034869 -0.040848743 0.05707996 0.11262338
-0.043437857 -0.060969904 0.08254949 -0.09519822 0.057871684 -0.17156966 0.13149026 -0.008492171
-0.13185592 0.027539391 -0.111730635 -0.20040765 0.07786457 0.0091130575 -0.14033297 -0.043976665
00000000: 2893 40bb 351e af3e e83c 123e a040 ccbe
00000010: f859 243d d50a b5bc 8198 f03d 33db b4bd
00000020: 28b1 073e 6cd6 093e 930c bcbe fbe1 bbbd
00000030: 2a5b 223d 6d64 d8bd cae8 d73d 68ce 183e
00000040: 270e 35bd 23b7 0e3d dbff 3a3d c55c 793d
00000050: 0e5c fa3d a3f0 de3a 5781 efbe ff79 0fbe
00000060: 449e 143b f956 27be a7a1 b43e 013d ae3d
00000070: 8a04 793e 07ea 0f3e 550b 053e 20c0 503e
00000080: da88 aebd 7633 693e 15cc 86bd 8c89 5fbe
00000090: 35e9 ea3c 25a8 7f3e 62f2 65be 2535 103d
000000a0: 6d18 b53d 6d6e 393e 3c3c 063d ae69 2abe
000000b0: 6e3a 4e3d 0351 27bd adcc 693d 16a7 e63d
000000c0: e5eb 31bd 94bb 79bd b50f a93d 49f7 c2bd
000000d0: dc0a 6d3d f5af 2fbe 62a5 063e bf22 0bbc
000000e0: 3d05 07be 4a9a e13c 08d3 e4bd aa37 4dbe
000000f0: 7677 9f3d ef4e 153c 72b3 0fbe e020 34bd

conv4.weight f4 [64, 64, 2, 2]
0.045329835 -0.1966808 -0.08860331 -0.5668947 -0.22251864 0.23364735 -0.20689906 0.06244089
-0.3841812 0.12065651 -0.27734816 -0.037961908 -0.10574199 -0.19543803 -0.1601928 -0.18155116
0.13773845 0.09819139 0.08477821 -0.331892 -0.24431178 -0.33256537 -0.1288607 -0.19491214
0.04103882 -0.5657507 0.13591175 -0.16994752 -0.05063241 0.030856755 0.18389067 0.029796517
0.16961677 -0.19445689 0.30071387 0.03157955 -0.19053116 -0.28336543 -0.113808006 -0.1274874
-0.13237827 0.02554305 -0.26603067 -0.41656294 -0.47618058 0.10164906 -0.47444877 -0.44533464
-0.35927996 0.040382534 -0.096061036 -0.2564563 -0.022182465 -0.06910173 0.047332633 -0.08167894
0.26685643 -0.018946689 0.4524486 0.269325 -0.1353197 -0.19814366 0.26733845 -0.013827397
-0.09027017 0.056142543 -0.3352842 -0.015303955 -0.2041501 -0.04487207 -0.093399696 -0.36178592
0.1510878 -0.18293814 0.05641125 0.08429095 -0.3823181 -0.114824325 -0.25625747 -0.07330785
-0.14760609 0.36821193 -0.011476498 0.11615138 -0.3818375 0.4864173 0.028861668 -0.047322877
0.04449258 0.03916933 -0.3239556 0.08300748 -0.027955234 0.042950787 0.034015637 0.084612645
-0.48952222 -0.13526161 -0.19327435 0.264041 0.031750347 0.28275564 -0.13674223 0.15797305
0.11455332 -0.18978788 0.21373889 -0.08770678 -0.22411901 -0.5161442 -0.1534274 -0.35649318
-0.15767807 -0.46105164 0.041383952 -0.23430243 -0.15275696 -0.25145698 -0.5291266 -0.36694124
0.06231499 0.28581852 0.024732254 -0.25921163 -0.14834505 0.21128802 -0.23087424 0.096872956
-0.17438252 -0.110358484 -0.21603902 -0.17483655 0.07240359 -0.35415184 0.027571127 0.17042348
0.0814846 -0.14113727 -0.22270721 0.19696796 -0.14143713 0.044342965 -0.10830866 0.015162157
-0.039924704 -0.05541035 0.17624626 0.1427655 0.09360836 0.04413605 0.14735682 0.036245935
-0.16834603 0.031133143 -0.50390387 -0.517936 -0.32245624 0.13378768 -0.29391998 -0.11104755
-0.1593662 0.20173493 -0.19563636 0.31469363 -0.21221352 -0.015306526 -0.041971102 -0.09180412
0.14742543 -0.13961221 -0.120543495 -0.2692731 -0.062022813 -0.04994573 -0.033401646 0.0019466849
0.098537266 0.09367617 -0.0054634595 0.35242724 -0.1328376 0.027703466 -0.3750557 -0.13135177
-0.014124409 -0.40141988 0.24491794 -0.38450256 0.10362713 -0.567311 0.18404232 -0.08764931
-0.29041374 0.24070032 -0.17503175 0.09160651 -0.056009237 -0.22971074 0.3612336 -0.13304123
0.16916254 -0.15907434 0.37934804 0.121822305 -0.08458248 0.03763355 0.034837198 0.069431156
0.12628025 0.026528807 0.2571557 0.24742556 0.18742457 -0.40743947 -0.06088218 -0.11789933
0.3189132 -0.23357806 0.33627966 0.33283487 -0.29064044 -0.22559687 -0.10557289 0.02665331
0.15056054 0.19794823 -0.122119285 0.3479043 -0.26306653 0.17584908 -0.42548588 -0.09931434
-0.12925187 0.1518885 0.104592286 -0.33819702 -0.094780676 -0.0970034 0.011188057 0.008777248
0.047567602 -0.25612798 0.33958697 -0.37391588 0.033649415 -0.37249345 0.20104052 0.0023188572
-0.24497609 0.13077007 -0.089005865 -0.17629574 -0.18760234 0.14001608 -0.2093892 0.11238298
00000000: c7ab 393d b166 49be a775 b5bd 0320 11bf
00000010: eddb 63be 4041 6f3e 59dd 53be 05c2 7f3d
00000020: 66b3 c4be c31a f73d 9400 8ebe f27d 1bbd
00000030: 428f d8bd e820 48be 9509 24be 8ce8 39be
00000040: 4f0b 0d3e 9118 c93d 33a0 ad3d c0ed a9be
00000050: de2c 7abe 0246 aabe 0ff4 03be 0c97 47be
00000060: 5218 283d 0ad5 10bf 732c 0b3e b906 2ebe
00000070: ee63 4fbd 4ec7 fc3c d64d 3c3e d317 f43c
00000080: 05b0 2d3e b51f 47be 2bf7 993e 8f59 013d
00000090: 9a1a 43be 4615 91be 2c14 e9bd 0f8c 02be
000000a0: 2b8e 07be a93f d13c 2c35 88be bd47 d5be
000000b0: f1cd f3be 622d d03d f3ea f2be e702 e4be
000000c0: 8bf3 b7be 2868 253d a6bb c4bd 3d4e 83be
000000d0: 00b8 b5bc 3585 8dbd dddf 413d 4a47 a7bd
000000e0: 68a1 883e 1636 9bbc 58a7 e73e f7e4 893e
000000f0: 3f91 0abe 2ce6 4abe 96e0 883e 4e8c 62bc
00000100: 91df b8bd b9f5 653d 5faa abbe 71bd 7abc
00000110: b90c 51be c7cb 37bd 5748 bfbd 013c b9be
00000120: c3b6 1a3e 2354 3bbe 7c0f 673d bca0 ac3d
00000130: 33bf c3be 0429 ebbd 2e34 83be 6d22 96bd
00000140: 0d26 17be 4686 bc3e ec07 3cbc c6e0 ed3d
00000150: 3480 c3be b00b f93e 4e6f ec3c a2d5 41bd
00000160: da3d 363d 0570 203d 82dd a5be d3ff a93d
00000170: 6002 e5bc 2aed 2f3d fb53 0b3d 6549 ad3d
00000180: a8a2 fabe 0582 0abe b6e9 45be 6230 873e
00000190: a70c 023d 59c5 903e 2806 0cbe b0c3 213e
000001a0: ee9a ea3d c157 42be 5ede 5a3e 9d9f b3bd
000001b0: 747f 65be 0722 04bf 131c 1dbe 4686 b6be
000001c0: 5c76 21be f60e ecbe 3882 293d faec 6fbe
000001d0: 526c 1cbe f8be 80be d774 07bf b9df bbbe
000001e0: 013e 7f3d ce56 923e 4c9b ca3c 63b7 84be
000001f0: c4e7 17be e35b 583e 4c6a 6cbe 5465 c63d
00000200: 5591 32be a103 e2bd 5539 5dbe 5a08 33be
00000210: 5548 943d 6453 b5be d8dc e13c 7e83 2e3e
00000220: 66e1 a63d 4a86 10be 5c0d 64be f8b1 493e
00000230: e5d4 10be f8a0 353d eed0 ddbd b26a 783c
00000240: 1688 23bd f7f5 62bd e679 343e 1f31 123e
00000250: bdb5 bf3d 01c8 343d b5e4 163e 9e76 143d
00000260: e762 2cbe ef0a ff3c d8ff 00bf 7497 04bf
00000270: fc18 a5be a3ff 083e ae7c 96be e66c e3bd
00000280: e530 23be 9a93 4e3e e654 48be 861f a13e
00000290: 804e 59be 39c8 7abc e4e9 2bbd cc03 bcbd
000002a0: b1f6 163e 81f6 0ebe 82df f6bd 2ade 89be
000002b0: a20b 7ebd e593 4cbd 2ad0 08bd e827 ff3a
000002c0: e8cd c93d 4bd9 bf3d d206 b3bb 5871 b43e
000002d0: 9406 08be 61f2 e23c 4d07 c0be 1481 06be
000002e0: 116a 67bc e886 cdbe c5cb 7a3e 85dd c4be
000002f0: 763a d43d 4b3b 11bf 9775 3c3e 7b81 b3bd
00000300: 1cb1 94be 257a 763e 863b 33be 329c bb3d
00000310: f169 65bd 4b39 6bbe 9cf3 b83e f63b 08be
00000320: f238 2d3e 62e4 22be e839 c23e f97d f93d
00000330: 9439 adbd a325 1a3d 73b1 0e3d ec31 8e3d
00000340: 9c4f 013e f152 d93c e9a9 833e 205d 7d3e
00000350: 3aec 3f3e e89b d0be 985f 79bd 3475 f1bd
00000360: 9748 a33e 162f 6fbe d92c ac3e 5569 aa3e
00000370: d3ce 94be de02 67be 9936 d8bd 0b58 da3c
00000380: 8b2c 1a3e f1b2 4a3e ad19 fabd 8320 b23e
00000390: a8b0 86be c811 343e 49d9 d9be 5165 cbbd
000003a0: 9a5a 04be a988 1b3e 7b34 d63d 2928 adbe
000003b0: 5f1c c2bd b8a9 c6bd 1d4e 373c 72ce 0f3c
000003c0: 3fd6 423d 3523 83be 58de ad3e e771 bfbe
000003d0: f8d3 093d 76b7 bebe 91dd 4d3e f8f7 173b
000003e0: 03db 7abe 97e8 053e b548 b6bd df86 34be
000003f0: d41a 40be 6060 0f3e 1f6a 56be 0c29 e63d

conv4.bias f4 [64]
-0.073121615 -0.080268435 -0.00811986 -0.10206627 0.083921984 0.13678598 0.0041374704 -0.05704849
-0.13873297 0.2141083 -0.09704897 -0.030536309 0.124860466 0.29285675 0.118518755 0.17162538
0.011057041 -0.13887265 0.1642638 0.0433032 0.36820114 0.08780621 -0.3161365 -0.046036452
-0.09143971 0.18627334 -0.044570036 0.31677622 0.092637 0.12742923 -0.15027507 0.085327774
0.25239614 0.14022294 -0.11580207 -0.1374693 -0.07370003 -0.22570142 -0.29743606 -0.24165775
0.054995563 -0.29485962 0.012301985 0.07593509 0.10374844 -0.069322206 0.10296763 -0.14539792
0.15750673 -0.18209188 -0.09501727 0.00028522033 0.17065738 0.26897633 0.2699779 -0.10358244
-0.023791268 0.015356338 -0.063975796 -0.1008389 0.13374308 0.18107475 -0.10564591 -0.071956225
00000000: c9c0 95bd c763 a4bd 2909 05bc 1f08 d1bd
00000010: 4adf ab3d a011 0c3e 9e93 873b adab 69bd
00000020: 0410 0ebe 353f 5b3e 9cc1 c6bd 4827 fabc
00000030: d8b6 ff3d 52f1 953e f6b9 f23d 90be 2f3e
00000040: 9728 353c a234 0ebe c534 283e b25e 313d
00000050: dc84 bc3e bed3 b33d a5dc a1be b890 3cbd
00000060: be44 bbbd 70be 3e3e 128f 36bd 7e30 a23e
00000070: 78b8 bd3d cf7c 023e b5e1 19be 54c0 ae3d
00000080: 113a 813e 9a96 0f3e a329 edbd c1c4 0cbe
00000090: 0bf0 96bd 461e 67be 8a49 98be 2175 77be
000000a0: 0743 613d d7f7 96be 448e 493c db83 9b3d
000000b0: 107a d43d cdf8 8dbd b1e0 d23d 31e3 14be
000000c0: 7249 213e 4b76 3abe 6a98 c2bd a089 9539
000000d0: cfc0 2e3e 44b7 893e 8b3a 8a3e 0823 d4bd
000000e0: e8e5 c2bc 2699 7b3c be05 83bd a084 cebd
000000f0: f2f3 083e a96b 393e e25c d8bd c95d 93bd

conv5.weight f4 [128, 64, 2, 2]
-0.037636023 -0.18523209 -0.12987621 -0.21743399 0.020847756 -0.05123222 0.026554182 -0.084565185
0.16822945 0.018799981 0.19179334 -0.2174571 -0.20851062 0.026526544 -0.22138987 -0.14425763
-0.4358709 -0.54687375 -0.14667676 -0.30132967 -0.3438504 0.034244247 -0.12804037 -0.17163041
-0.1591117 0.023476627 0.06702838 0.041815195 -0.2533556 -0.2416033 -0.20294623 -0.039692417
-0.05736364 -0.4341142 -0.037590258 -0.08955661 0.15078123 -0.036926195 0.27305296 -0.054590967
-0.16821381 -0.31585196 0.03286508 0.12981306 -0.41334358 -0.06456289 0.03314962 0.29276478
-0.21842171 -0.7947833 -0.05179048 -0.1379275 -0.2627576 -0.010565419 -0.20768957 0.058418076
-0.030652668 -0.17962712 -0.39237317 0.2179581 -0.29833356 0.10261739 0.07640017 -0.02105264
0.261993 0.21812405 -0.46279573 -0.31517422 -0.0030755335 0.013189336 0.014591348 0.05747976
0.042961273 0.26370358 -0.31607145 -0.17880967 0.113037445 -0.15747954 0.04441227 0.19970624
0.11501069 -0.003489612 0.118240826 0.040470596 -0.03579094 -0.10015972 -0.026720075 0.121336006
-0.3349668 0.04444043 -0.009013944 0.33029595 -0.395495 -0.28369066 0.08263884 -0.00845525
-0.072994895 -0.0319835 -0.075987674 -0.08296072 -0.15476166 -0.21272938 0.33471432 0.1565101
-0.0091959555 -0.0629834 0.22444029 -0.5139784 0.4791824 -0.040905915 0.2546354 0.16343889
0.15614441 0.024735816 0.65062773 -0.051656663 0.19261727 0.26211986 0.36392146 0.310062
-0.044135205 0.033149578 -0.03254175 -0.19336729 0.21918467 -0.18407628 0.21711294 -0.35942745
-0.11041379 -0.065745726 -0.086161226 -0.08109596 -0.26330724 -0.0080166375 -0.06469699 -0.036658734
0.41153866 0.5904847 0.19802724 0.46175864 -0.19123551 0.2738414 -0.3127791 -0.017941333
0.037507195 0.06538071 0.02575868 -0.27717796 -0.36120754 -0.2841812 -0.16548628 0.2956481
-0.02833307 0.3814311 -0.11255045 -0.239548 -0.18669984 -0.17815547 -0.49285 -0.2570898
-0.087311484 -0.29081407 0.24398792 -0.054999612 -0.3725054 -0.24392115 -0.20878285 -0.29757747
-0.046979517 0.089708015 -0.19208385 -0.409066 0.07938453 0.14006712 0.11997297 0.38161492
-0.06961886 -0.22844282 -0.0015164803 -0.21739128 0.041649222 0.124894254 -0.22373915 -0.10188423
-0.43889147 -0.021917319 -0.45187882 -0.32151312 0.1677726 -0.095328756 -0.29175004 -0.35662973
-0.13483514 -0.02232384 -0.1512742 -0.048611045 0.15666547 -0.7314863 -0.2834448 -0.61623925
-0.20373957 0.072405525 -0.07427758 -0.2590775 0.178672 0.07429398 0.21454464 -0.2689536
0.06696815 -0.23846647 -0.2120789 -0.28942966 0.2827595 0.42254156 0.051172473 -0.2145533
0.21141192 -0.27779356 -0.1687451 -0.33666816 -0.32845807 -0.45392346 0.1868302 -0.23414537
0.0629694 -0.13235424 0.14329278 0.054757435 0.06188638 0.13999927 -0.40377155 -0.17231192
0.02465935 0.29837552 -0.22654901 0.29955226 -0.23034394 -0.12656811 -0.09616467 0.07182988
-0.09357233 0.10235904 0.103884496 0.9148359 -0.34653556 -0.20150076 -0.06277402 -0.41605684
0.13702907 0.097411506 -0.024620123 -0.14265689 -0.05587313 -0.014122362 0.00091926067 0.014769806
00000000: 3b28 1abd 7bad 3dbe 45fe 04be 04a7 5ebe
00000010: eac8 aa3c e0d8 51bd 2888 d93c 8330 adbd
00000020: 5744 2c3e 6b02 9a3c 7965 443e 13ad 5ebe
00000030: cf83 55be 324e d93c 07b4 62be 46b8 13be
00000040: 782a dfbe ebff 0bbf 6f32 16be e247 9abe
00000050: 290d b0be b243 0c3d 041d 03be e2bf 2fbe
00000060: 2dee 22be 0e52 c03c 2d46 893d 6946 2b3d
00000070: d3b7 81be db66 77be 23d1 4fbe 8494 22bd
00000080: 23f6 6abd 3744 debe 3ef8 19bd 7569 b7bd
00000090: 6566 1a3e ec3f 17bd 99cd 8b3e c79a 5fbd
000000a0: 3e40 2cbe 59b7 a1be 899d 063d b7ed 043e
000000b0: c5a1 d3be 8c39 84bd e5c7 073d 44e5 953e
000000c0: f1a9 5fbe eb76 4bbf 4122 54bd de3c 0dbe
000000d0: 2a88 86be 941a 2dbc 93ac 54be cb47 6f3d
000000e0: 4e1b fbbc 2cf0 37be 23e5 c8be 6830 5f3e
000000f0: 2dbf 98be 1129 d23d b177 9c3d 9676 acbc
00000100: f223 863e e95b 5f3e 90f3 ecbe 845e a1be
00000110: e48e 49bb 1618 583c 8d10 6f3c e66f 6b3d
00000120: 29f8 2f3d 2804 873e 1ed4 a1be e219 37be
00000130: 2d80 e73d 5142 21be a4e9 353d cb7f 4c3e
00000140: ba8a eb3d f9b1 64bb 3f28 f23d 7fc4 253d
00000150: 8599 12bd 8a20 cdbd 0fe4 dabc 037f f83d
00000160: c580 abbe 2b07 363d 39af 13bc 8d1c a93e
00000170: 527e cabe e73f 91be 8d3e a93d e487 0abc
00000180: 597e 95bd 2101 03bd 6d9f 9bbd 4fe7 a9bd
00000190: d779 1ebe bbd5 59be ad5f ab3e 2f44 203e
000001a0: a2aa 16bc 71fd 80bd add3 653e 1794 03bf
000001b0: 6557 f53e f68c 27bd 925f 823e 865c 273e
000001c0: 52e4 1f3e c4a2 ca3c 8a8f 263f f095 53bd
000001d0: 763d 453e 9334 863e ea53 ba3e 72c0 9e3e
000001e0: 1ec7 34bd dac7 073d 804a 05bd 1302 46be
000001f0: f271 603e 7e7e 3cbe db52 5e3e e006 b8be
00000200: a020 e2bd b2a5 86bd 4c75 b0bd a415 a6bd
00000210: 35d0 86be 3758 03bc db7f 84bd 7827 16bd
00000220: 32b5 d23e 012a 173f a7c7 4a3e a16b ec3e
00000230: 3ed3 43be f134 8c3e 9524 a0be b4f9 92bc
00000240: 25a1 193d 52e6 853d de03 d33c 45ea 8dbe
00000250: 32f0 b8be 3380 91be 3c75 29be 305f 973e
00000260: c11a e8bc f04a c33e da80 e6bd 124c 75be
00000270: 3e2e 3fbe 636e 36be d656 fcbe 46a1 83be
00000280: 5dd0 b2bd 95e5 94be f8d7 793e 4647 61bd
00000290: 07b9 bebe 77c6 79be 2ccb 55be 135c 98be
000002a0: 986d 40bd d6b8 b73d a1b1 44be 1971 d1be
000002b0: 5b94 a23d c16d 0f3e 63b4 f53d 0863 c33e
000002c0: 5594 8ebd eaec 69be a3c4 c6ba d29b 5ebe
000002d0: 6098 2a3d 8fc8 ff3d e01b 65be aea8 d0bd
000002e0: 62b6 e0be f38b b3bc a95c e7be 5e9d a4be
000002f0: 95cc 2b3e b93b c3bd 4360 95be 2c98 b6be
00000300: 3912 0abe 7ce0 b6bc a0e7 1abe 601c 47bd
00000310: ea6c 203e b042 3bbf ad1f 91be dbc1 1dbf
00000320: 1ba1 50be 5949 943d d81e 98bd cea5 84be
00000330: cbf5 363e 7127 983d 97b1 5b3e 49b4 89be
00000340: 9926 893d 8e30 74be 362b 59be 2030 94be
00000350: dac5 903e 5e57 d83e 3a9a 513d dcb3 5bbe
00000360: 5e7c 583e f53a 8ebe 84cb 2cbe c55f acbe
00000370: a82b a8be a868 e8be 6a50 3f3e cec3 6fbe
00000380: 1af6 803d df87 07be 58bb 123e 5549 603d
00000390: 937c 7d3d f85b 0f3e 25bb cebe 8972 30be
000003a0: 6802 ca3c adc4 983e 77fc 67be ea5e 993e
000003b0: 48df 6bbe 129b 01be fcf1 c4bd 8b1b 933d
000003c0: daa2 bfbd 9ea1 d13d 65c1 d43d af32 6a3f
000003d0: 1c6d b1be 3756 4ebe aa8f 80bd 6705 d5be
000003e0: 5951 0c3e af7f c73d 24b0 c9bc a614 12be
000003f0: 39db 64bd 7b61 67bc 8afa 703a 0efd 713c

conv5.bias f4 [128]
0.22691949 0.030981258 0.21931264 0.18726426 -0.09771581 0.1125543 0.20133825 0.08410536
0.19602072 -0.3087171 0.130402 0.048478387 -0.25562754 -0.19618885 -0.11695759 0.05807591
-0.2615371 0.15694487 0.11648304 -0.10792633 0.124057524 0.025084693 -0.021491634 0.023458993
0.40121883 0.17022796 0.1173136 -0.45631093 -0.11932473 -0.16220286 -0.013724431 -0.01722829
0.006406334 -0.2316435 0.1524402 0.2033167 0.04171677 0.0964613 -0.028777469 -0.024597418
0.05874366 0.046418034 0.08804126 0.08260094 0.013645017 0.1703255 -0.048534766 0.21745183
0.12666902 0.12255159 -0.13454878 -0.269078 -0.40072423 -0.26142964 0.066014126 0.19126835
0.043833293 0.1862638 -0.16397776 0.048797276 -0.048303723 0.22348896 0.17486538 0.19881043
-0.1514486 0.25177085 -0.09923491 0.23199481 -0.062276434 0.019299056 -0.00856697 -0.020817896
0.067297265 -0.16724949 -0.09836889 -0.21171096 0.013288931 -0.27895206 -0.18948139 0.03684778
0.13058117 -0.04567488 0.0065708053 -0.079945 -0.0033573166 -0.0114993695 -0.08522807 0.1016094
-0.34163326 0.2797098 0.13569961 -0.010214001 -0.13599378 -0.058718923 -0.12385951 0.021225609
0.26033515 0.06632278 -0.13836394 0.302829 -0.13178356 -0.13645516 0.1356519 -0.036188383
-0.12887865 -0.078445405 0.19578013 -0.1698235 0.14569642 0.17330198 0.25952345 -0.09204648
0.21889047 0.04057985 0.06407774 -0.027260838 -0.18475896 0.056351792 -0.45003402 0.17864561
0.23557492 0.026427364 0.017338142 0.019027011 0.11886575 -0.080884814 -0.17138082 -0.1789772
00000000: 955d 683e 68cc fd3c 7e93 603e 34c2 3f3e
00000010: 3a1f c8bd de82 e63d 9d2b 4e3e 6e3f ac3d
00000020: a8b9 483e 2b10 9ebe 1a88 053e 4691 463d
00000030: 9de1 82be bbe5 48be 7687 efbd 01e1 6d3d
00000040: 31e8 85be 28b6 203e a98e ee3d 7b08 ddbd
00000050: df11 fe3d 6a7e cd3c 390f b0bc 132d c03c
00000060: 8e6c cd3e 3d50 2e3e 1d42 f03d 96a1 e9be
00000070: 8660 f4bd 8218 26be 70dc 60bc 5822 8dbc
00000080: 3aec d13b f433 6dbe 4919 1c3e 4132 503e
00000090: 34df 2a3d 818d c53d babe ebbc 8680 c9bc
000000a0: 319d 703d d620 3e3d fa4e b43d ae2a a93d
000000b0: 598f 5f3c cf69 2e3e 64cc 46bd b1ab 5e3e
000000c0: 86b5 013e 54fc fa3d 28c7 09be 97c4 89be
000000d0: ba2b cdbe 1bda 85be 6a32 873d dadb 433e
000000e0: 8a8a 333d f0bb 3e3e c9e9 27be a7df 473d
000000f0: 20da 45bd 4ada 643e e90f 333e f694 4b3e
00000100: 5815 1bbe 1ce8 803e ac3b cbbd 0c90 6d3e
00000110: 9315 7fbd 0e19 9e3c 7a5c 0cbc 4b8a aabc
00000120: 26d3 893d 7343 2bbe a175 c9bd c2ca 58be
00000130: d1b9 593c ced2 8ebe 6907 42be b3ed 163d
00000140: 12b7 053e 9515 3bbd e94f d73b 34ba a3bd
00000150: 6d06 5cbb da67 3cbc 0e8c aebd 9718 d03d
00000160: 8eea aebe 1f36 8f3e d7f4 0a3e a058 27bc
00000170: f441 0bbe 4183 70bd 0eaa fdbd 54e1 ad3c
00000180: a64a 853e 3dd4 873d 47af 0dbe 670c 9b3e
00000190: 45f2 06be e7ba 0bbe 55e8 0a3e 453a 14bd
000001a0: c4f8 03be fca7 a0bd 967a 483e 36e6 2dbe
000001b0: 7131 153e 1376 313e 42e0 843e dd82 bcbd
000001c0: d324 603e 0f37 263d 313b 833d 1f52 dfbc
000001d0: 7431 3dbe 23d1 663d dc6a e6be e0ee 363e
000001e0: 8d3a 713e 337e d83c b808 8e3c 89de 9b3c
000001f0: e36f f33d f0a6 a5bd 747e 2fbe cd45 37be

conv6.weight f4 [64, 128, 2, 2]
-0.029831193 -0.01827089 -0.597058 -0.4768605 -0.21375364 -0.2913216 -0.35007644 -0.2992849
-0.13557354 -0.4104248 -0.24347001 0.19824643 0.20605174 -0.03536503 -0.019369263 -0.10205633
-0.11361498 0.07458633 0.13741463 0.24165869 0.073017746 0.14801829 0.3745945 0.30471596
-0.047781363 0.16071469 0.063726135 -0.4112057 0.22233589 -0.027839687 -0.16641742 0.07398331
-0.20465396 -0.13271825 -0.07793976 -0.07105026 -0.35161656 -0.23593007 -0.00024725706 -0.1628841
0.06479503 -0.020056322 0.14215425 0.05894355 0.002467946 -0.17441748 -0.28396526 -0.3636617
-0.22459762 -0.4602493 0.16562274 -0.014777408 -0.26937383 0.074347384 0.06922437 -0.16080578
-0.25178215 -0.3600298 0.18481244 -0.094224885 -0.010598629 0.08007671 -0.022465339 -0.09635156
-0.021044197 0.06543441 0.008946865 0.107105955 0.04991116 0.04731227 0.4533442 0.4370768
0.022883398 0.069826916 0.19083516 0.21693307 -0.02050702 0.017779244 -0.02513591 0.02547871
0.11937178 0.03777478 0.05396682 -0.35134894 -0.105966166 0.2017515 0.21889628 0.25561532
0.09972142 -0.41180104 -0.21623737 -0.62696975 -0.2453819 -0.19822447 -0.65437526 -0.79154027
-0.049495798 -0.4355338 -0.63114685 -0.3878548 -0.0019631225 -0.43804988 -0.3347365 -0.8545601
-0.21276885 -0.3405372 0.07543446 -0.09626684 0.029909175 -0.13009693 0.053805277 0.23485655
-0.12437928 -0.057567623 0.062491644 -0.064561546 -0.02345432 -0.022922322 -0.06308745 -0.029640587
-0.119953364 0.25173947 0.04589567 -0.25379896 -0.17388834 -0.037396416 -0.00993739 -0.024075534
0.24620505 0.12724966 -0.09891931 0.23160283 0.024633935 -0.04986554 -0.07833309 -0.06758804
0.27914086 0.035413753 -0.22215348 -0.009618787 -0.119522765 -0.13232188 0.034288708 0.043569915
0.26017582 0.32125327 0.06707112 0.39145 0.11439029 0.31634516 0.19929397 0.09043485
0.041351743 -0.33263767 0.09652296 -0.5163282 -0.17448173 -0.15609874 -0.029918242 0.2640924
0.12992465 -0.38822642 0.046628773 0.012698583 0.13321109 -0.09792834 0.04958245 0.0883128
0.18676673 -0.19477339 -0.20949318 -0.5131037 -0.29764566 0.0654767 0.3286726 0.19540165
0.14616826 0.03399564 0.24158935 0.225138 -0.34163845 -0.36765802 -0.27061883 0.19163975
0.21131086 -0.0657722 0.2864561 0.14750007 -0.19531262 -0.010284054 -0.16234155 -0.13514796
-0.16755888 -0.6048308 -0.096504025 -0.28276005 -0.16961642 0.20759097 0.29107678 -0.34447926
-0.24064691 -0.09255891 0.05838323 -0.1495644 0.2525041 -0.02027968 0.12555756 0.25660905
0.32675803 0.05257462 0.11630517 -0.09194087 0.24260646 0.24429248 0.046892323 0.083447434
-0.036334988 0.1972403 0.38597614 0.17324048 -0.16857 -0.23817839 -0.06756847 -0.08565738
-0.055924434 -0.06002583 0.33258665 0.09512555 0.021369394 0.025998536 0.2704343 0.022432273
0.002674735 -0.017149465 -0.021013504 0.03214601 0.16608137 0.16410412 -0.23225865 -0.23082979
0.09031354 0.0063504777 -0.18974207 0.25087816 0.3040907 0.15879065 -0.1223065 0.030467367
-0.00083514047 0.15672189 -0.15682235 0.11123378 0.22968774 0.10090194 -0.23707585 -0.10394251
00000000: 8c60 f4bc d5ac 95bc cbd8 18bf 0f27 f4be
00000010: 3ce2 5abe 1b28 95be 383d b3be df3b 99be
00000020: cad3 0abe 3323 d2be 3450 79be 1d01 4b3e
00000030: 3aff 523e ecda 10bd 4aac 9ebc e902 d1bd
00000040: f8ae e8bd b8c0 983d 6cb6 0c3e 6075 773e
00000050: 548a 953d 1b92 173e daca bf3e bb03 9c3e
00000060: 64b6 43bd 6492 243e d982 823d 8e89 d2be
00000070: 05ac 633e 0e10 e4bc 5469 2abe 9084 973d
00000080: cf90 51be 4be7 07be e29e 9fbd cc82 91bd
00000090: 1607 b4be a797 71be 48a2 81b9 17cb 26be
000000a0: 42b3 843d 284d a4bc e290 113e cb6e 713d
000000b0: 43bd 213b 7f9a 32be e563 91be de31 babe
000000c0: ebfc 65be cca5 ebbe 0299 293e f11c 72bc
000000d0: 5eeb 89be 7143 983d 82c5 8d3d 45aa 24be
000000e0: 97e9 80be d355 b8be 793f 3d3e faf8 c0bd
000000f0: dfa5 2dbc 42ff a33d 3b09 b8bc f753 c5bd
00000100: e164 acbc 7a02 863d df95 123c 5e5a db3d
00000110: a56f 4c3d 83ca 413d bb1c e83e 88c8 df3e
00000120: f775 bb3c 6a01 8f3d 4b6a 433e b423 5e3e
00000130: 57fe a7bc c7a5 913c d3e9 cdbc bab8 d03c
00000140: 3179 f43d bab9 1a3d 500c 5d3d 02e4 b3be
00000150: ca04 d9bd f297 4e3e 5926 603e 03e0 823e
00000160: be3a cc3d 96d7 d2be 546d 5dbe 1781 20bf
00000170: 6545 7bbe 5bfb 4abe 2385 27bf 62a2 4abf
00000180: 1bbc 4abd 49fe debe d792 21bf e894 c6be
00000190: bba7 00bb 1348 e0be 9562 abbe 73c4 5abf
000001a0: 14e0 59be e45a aebe 627d 9a3d 8d27 c5bd
000001b0: 1604 f53c 2138 05be ec62 5c3d 3c7e 703e
000001c0: 90ba febd 07cc 6bbd 3df7 7f3d d838 84bd
000001d0: 4623 c0bc 98c7 bbbc fe33 81bd d1d0 f2bc
000001e0: 1caa f5bd ffe3 803e 19fd 3b3d f0f1 81be
000001f0: c90f 32be fc2c 19bd 6fd0 22bc 0e3a c5bc
00000200: 2d1d 7c3e bc4d 023e 3596 cabd 4b29 6d3e
00000210: 1bcd c93c cf3f 4cbd 196d a0bd 996b 8abd
00000220: 8deb 8e3e 030e 113d 347c 63be 1e98 1dbc
00000230: 5ac8 f4bd 637f 07be 5172 0c3d 5e76 323d
00000240: c435 853e 4f7b a43e 955c 893d 226c c83e
00000250: 7545 ea3d fef7 a13e b813 4c3e e835 b93d
00000260: 7260 293d 7c4f aabe d4ad c53d 162e 04bf
00000270: 57ab 32be 59d8 1fbe 1a17 f5bc 1e37 873e
00000280: f80a 053e 9dc5 c6be d0fd 3e3d b80d 503c
00000290: 7d68 083e a78e c8bd f816 4b3d 57dd b43d
000002a0: c73f 3f3e ad72 47be 6185 56be c45a 03bf
000002b0: 0365 98be a618 863d c647 a83e 5f17 483e
000002c0: 22ad 153e 033f 0b3d 3363 773e 938a 663e
000002d0: 3ceb aebe ac3d bcbe 8d8e 8abe 363d 443e
000002e0: e061 583e 93b3 86bd 60aa 923e 420a 173e
000002f0: 0800 48be 737e 28bc dd3c 26be 3a64 0abe
00000300: 8e94 2bbe 31d6 1abf e7a3 c5bd edc5 90be
00000310: edaf 2dbe ba92 543e 0408 953e 965f b0be
00000320: 256c 76be 878f bdbd 4123 6f3d 6927 19be
00000330: 3848 813e 9221 a6bc 2992 003e 4362 833e
00000340: d44c a73e 7c58 573d 6831 ee3d 7f4b bcbd
00000350: d46d 783e cf27 7a3e 2a12 403d 7de6 aa3d
00000360: ffd3 14bd 5cf9 493e aa9e c53e f465 313e
00000370: 9d9d 2cbe 09e5 73be 5761 8abd 236d afbd
00000380: 0511 65bd a5dd 75bd cc48 aa3e 2fd1 c23d
00000390: de0e af3c e2fa d43c 5d76 8a3e e3c3 b73c
000003a0: 9b4a 2f3b 097d 8cbc 8324 acbc 89ab 033d
000003b0: 3c11 2a3e e90a 283e 36d5 6dbe a55e 6cbe
000003c0: 4ef6 b83d ab17 d03b bf4b 42be 1a73 803e
000003d0: c7b1 9b3e 049a 223e d57b fabd b396 f93c
000003e0: 54ed 5aba b47b 203e 0a96 20be 89ce e33d
000003f0: 4333 6b3e ada5 ce3d 03c4 72be d0df d4bd

conv6.bias f4 [64]
0.13336287 -0.06575603 -0.10588941 0.20186128 -0.12396667 0.2950917 0.11822616 0.0653051
0.1355517 0.06510897 0.13607435 0.2874957 0.11989692 -0.2939702 0.08332721 -0.27351564
0.39687136 -0.10604722 -0.19186155 0.061378576 -0.14330254 0.031386662 -0.06631779 -0.11232531
-0.1302985 0.08265957 -0.31284577 0.07846607 -0.19664015 -0.094861075 -0.31945994 0.07009238
-0.15316978 -0.47529882 -0.3392457 0.11766121 -0.13989559 -0.15064222 -0.110520445 -0.04115121
-0.11235996 -0.05404781 -0.24279168 -0.16320129 -0.1364493 0.13893914 0.03391303 0.24059364
-0.17378105 0.008878442 0.18303213 0.117130354 -0.24972464 -0.37302545 -0.26738876 0.17539458
0.08259794 0.21320237 0.33437842 -0.0777285 -0.41711053 -0.1646266 0.32796642 -0.090306394
00000000: 4790 083e 19ab 86bd 8cdc d8bd b9b4 4e3e
00000010: 3de2 fdbd 4216 973e 8f20 f23d aebe 853d
00000020: 11ce 0a3e da57 853d 1357 0b3e a332 933e
00000030: 848c f53d 4383 96be 75a7 aa3d 3e0a 8cbe
00000040: b932 cb3e 492f d9bd 5b77 44be 1a68 7b3d
00000050: e7bd 12be 4d8f 003d 9fd1 87bd d00a e6bd
00000060: f86c 05be 6c49 a93d 522d a0be d2b2 a03d
00000070: 095c 49be 8646 c2bd 4190 a3be 988c 8f3d
00000080: 8ad8 1cbe 5e5a f3be 9db1 adbe 5cf8 f03d
00000090: ca40 0fbe f441 1abe 8b58 e2bd 2c8e 28bd
000000a0: fb1c e6bd 3d61 5dbd 629e 78be 3d1e 27be
000000b0: 5eb9 0bbe 1046 0e3e 64e8 0a3d 2e5e 763e
000000c0: a9f3 31be e376 113c c66c 3b3e 0ae2 ef3d
000000d0: d1b7 7fbe 31fd bebe 2ee7 88be a39a 333e
000000e0: 1c29 a93d b951 5a3e a633 ab3e 1f30 9fbd
000000f0: 838f d5be e093 28be 37eb a73e 8ff2 b8bd
