model/model_1.pth (torch_old, 571877 bytes, 24 tensors)

conv1.weight f4 [32, 3, 2, 2]
00000000: ec7e 5b3d 713d aebd f043 9ebd d63a 823e
00000010: 4027 c7be 34ce 643e b6b0 5abd d5d0 9b3e
00000020: 5d2a 21be 3eda b9bd d74a e83c f54c b53d
00000030: 2660 143e 0b40 20be aebb bc3d 0bd6 7e3b
00000040: 0e2b 813d 4e93 7cbd f4ad a93e ba49 a63d
00000050: 81c7 c7bd d9ad 6ebe c40c 163c 45a3 11be
00000060: d640 11be 645c cb3c f093 fb3d e51a 323e
00000070: 383f 9fbe 3613 5c3e ef7c 073d 7d48 9b3e
00000080: 95d1 183e 06c9 70be 27f5 a5be 770b d0bd
00000090: 9e06 9c3e fd7c 99bd 188a 193d 5b4c 86be
000000a0: ff65 b53e 5a94 17be c163 463e fddc b6bd
000000b0: da5d c0bd 35fe cd3d 3e7b 51be 1add 81bd
000000c0: 8ea2 0cbe 1cdb 97bd d9ff afbe bffe 24be
000000d0: b19b 1f3e 3c42 a3bd 25d8 893e 39c4 753e
000000e0: 8204 133c 740c 45be 8dac 323e 8301 d73d
000000f0: 500a 42be 155b 223e 0e04 523e 6555 853e
00000100: b1c5 45be 5b7e d0bd 945c af3b 31ed cd3c
00000110: af7b 99be 8915 9bbe db4b 003e 741b f4bd
00000120: 3f90 253e 090b 6c3d f8db d23d e979 c03d
00000130: 687e 9f3d 043a 173e 5ea3 97be c082 1c3e
00000140: 68d1 8ebe 9f15 81be 5d83 47bd 7b42 96bd
00000150: 3c6c 613e 119c 0dbd 191d c9be 3545 183e
00000160: d02d 553d 8c6f af3e 9897 f23b 48ca 56be
00000170: db96 1a3e 85f9 553e 73fd 8bbe a59b 25be
00000180: 7a47 573d e804 f6bd e421 b53b 7016 a5bd
00000190: 59c5 273e 3377 90be bea3 803e 9867 9a3d
000001a0: 3cbb 52be 6adf b1be c9a3 d43e 94d2 6e3d
000001b0: 7b62 f53d adc7 dbbc 9e1b d63b caae 1a3e
000001c0: e3ac 893e f26d 3fbe cbce 0b3c 24c6 643e
000001d0: 225a 463e f6e4 423e 6c61 76be 1fb0 4cbe
000001e0: 21bb 0cbe 0556 af3d e8f9 5d3e fec7 75be
000001f0: 4439 6f3e 020a 93bd 9f43 9abe ad63 82bd
00000200: 41d7 753e ed70 a63e 6d76 44be d496 413d
00000210: e9fe 6e3e 15b9 473e 76d7 c33d 7a44 113e
00000220: 1f32 b93d 6ab4 143d ca2c cabe 5211 c1be
00000230: 5a24 dfbd 2e90 493d 72fa 79be 1d1f f03d
00000240: 2c18 633d 2e2b c9bc a51d efbc ee5b 4a3d
00000250: af17 383e 561f 8e3e e895 41be 9a2f 933e
00000260: 8e0c 1ebd ffca 513d ec95 bcbe fc3b 51be
00000270: 63fa 70be 19a1 f2bd efce 833e b809 6b3c
00000280: a0eb 87be 9cc8 1c3e 1c2d c33d 1ca9 8b3e
00000290: f010 57be 2390 e13d 55bb d1bd b7bc 493d
000002a0: 6e98 babe 21e0 6fbe 503e 16be 1f94 f33d
000002b0: fb5d 5dbc 750d e53c d9c3 8f3e 42c1 a13e
000002c0: 4538 fe3d c69e f5bc ffdd 62be f1f3 873e
000002d0: f836 3c3d 9b82 653d a858 3bbe 92ff 97bd
000002e0: e34f cdbd 7e70 993e e831 5abe 6a6c 84be
000002f0: 02b5 a63d 58b6 10be 3ada 423e 6f97 febd
00000300: 7538 e8bc 157a 50bc 35f8 963e 3c02 8ebe
00000310: 0bb8 1e3e 015f 7a3d 9bac 993e c8af b6be
00000320: 35ad 083e 8477 94be b1ee 8f3e 5e98 80be
00000330: 55f5 fc3c c4d0 c83c 5c03 10be 3d8e 603d
00000340: d72f e7bd d620 133e 0cc4 b5bd 2408 0a3e
00000350: c680 f2be 9df3 2a3e 30bf 973d d8b4 6b3e
00000360: b80b 433e d1ac 1abe 96ff d4bd d357 a23e
00000370: d9ba 9fbe 0039 953e 35cd 9cbe 176f 31be
00000380: d032 ff3d 688e eebd 10ea 75bd efdc 9e3e
00000390: 2188 523e 3c27 a83e 29fd 04be 0687 64be
000003a0: 6710 803e 47ec 9b3c e7d6 5fbe 1fe9 7f3d
000003b0: a41a a1be 02ef 443e 95bf c83c 7112 9cbe
000003c0: 6cc3 83be 1d1c 14bd ffa3 123e 7e76 083d
000003d0: b9a8 42be 2f70 e9bc 953a 86be c62b 37be
000003e0: 887f 1dbe 52b2 8d3e 87a0 aa3e f9ed 18bb
000003f0: 5950 19bd 7e67 dc3d ed14 afbd f311 82be
0.05358784 -0.08507813 -0.07727802 0.25435513 -0.38897133 0.22344285 -0.05339118 0.30432764
-0.15738817 -0.090748295 0.028355999 0.08852569 0.14489803 -0.1564943 0.092154846 0.0038884904
0.0630704 -0.06166392 0.33140528 0.08119531 -0.09754849 -0.23308505 0.009158317 -0.14222439
-0.14184889 0.024824329 0.12284076 0.17393072 -0.3110292 0.21491703 0.03307813 0.30328742
0.14923699 -0.23514184 -0.324136 -0.10158437 0.304738 -0.07494543 0.037485212 -0.2623013
0.3542938 -0.14802685 0.1937399 -0.08928869 -0.09392901 0.10058252 -0.2045717 -0.06341
-0.13733885 -0.07414839 -0.34374884 -0.16112803 0.15586735 -0.079716176 0.26922718 0.24000634
0.008973243 -0.19243032 0.17448635 0.10498335 -0.18949246 0.15855058 0.20509359 0.26041713
-0.19313695 -0.101803504 0.0053516123 0.025137516 -0.29977176 -0.30289868 0.12528937 -0.11919299
0.16168307 0.05762771 0.10295862 0.093982525 0.07787782 0.14768225 -0.29616827 0.15284252
-0.2789414 -0.25211808 -0.048709262 -0.07336899 0.22013944 -0.034572665 -0.39280012 0.1487015
0.052045643 0.3426479 0.0074033253 -0.20975602 0.1509661 0.20895965 -0.27341804 -0.16172655
0.0525584 -0.120126545 0.0055277217 -0.0806092 0.16383876 -0.28215942 0.25124925 0.0753929
-0.20579237 -0.34740764 0.41531208 0.05830629 0.11981674 -0.026828611 0.006534054 0.15105739
0.26889715 -0.18694285 0.00853319 0.2234121 0.1937032 0.19032654 -0.24060601 -0.1998906
-0.13743259 0.08561329 0.21677363 -0.24002072 0.23361689 -0.07179643 -0.30129716 -0.06366668
0.24007894 0.3250803 -0.19185801 0.04726298 0.23339428 0.19504197 0.0956258 0.14186278
0.09042763 0.03630487 -0.39487296 -0.37708527 -0.108956054 0.049209766 -0.24411944 0.117246844
0.055442974 -0.024556722 -0.02918894 0.049404077 0.17977785 0.27758282 -0.18904841 0.28747255
-0.03858619 0.051218983 -0.3683313 -0.20433038 -0.23533015 -0.11847133 0.25743815 0.014345579
-0.26546955 0.15310901 0.09530088 0.27277458 -0.21002555 0.1101382 -0.10240809 0.049252238
-0.3644442 -0.23425342 -0.14672208 0.11893486 -0.013511176 0.027960518 0.28079107 0.31592757
0.12413076 -0.029982936 -0.22154997 0.265533 0.04595086 0.05603276 -0.18295538 -0.07421793
-0.10025003 0.29968637 -0.213081 -0.25863963 0.08139993 -0.14132059 0.1902856 -0.124312274
-0.028347233 -0.012724419 0.29486242 -0.2773608 0.15499894 0.06112576 0.300145 -0.35680985
0.13347323 -0.28997433 0.28111795 -0.25116247 0.030878702 0.02451361 -0.14063781 0.05482315
-0.112884216 0.14367995 -0.088752836 0.13479668 -0.4736387 0.16694494 0.07409513 0.23018205
0.19047439 -0.15104987 -0.10400312 0.3170763 -0.3119724 0.2914505 -0.3062531 -0.17327534
0.124608636 -0.116482556 -0.060037673 0.31027934 0.20559742 0.32842433 -0.12987198 -0.22317132
0.25012514 0.019033564 -0.21859322 0.06247818 -0.31465638 0.19231799 0.024505416 -0.3048282
-0.25735033 -0.036159623 0.14320372 0.033316128 -0.19009675 -0.028495876 -0.2621657 -0.17887792
-0.1538068 0.2767511 0.33325598 -0.0023335202 -0.03743014 0.10761927 -0.08548913 -0.2540432

conv1.bias f4 [32]
00000000: 0c3c 95bd 3abd 123e 8bda 9e3d 6bf1 d93d
00000010: 72ac 1dbc 5926 0ebe 5db4 cdbc 59b6 113e
00000020: 5e1d e53d e208 5cbe 5b7e 573e 6d6e 16bb
00000030: 01d0 773e f2f0 c63d 7208 673e 60f3 0bbd
00000040: ef2c a7bc a7fb e83d bcd8 223d 0da3 65be
00000050: dc50 32be 2217 cabe ac79 ad3d 1fe6 75be
00000060: a04d 013e cbbd 8bbb 4309 05be ac0f a03d
00000070: 5a86 cf3d f629 69be 11da acba df3b e93d
-0.07286844 0.14329997 0.077565275 0.1064175 -0.009623634 -0.13881816 -0.025110418 0.14229716
0.11187242 -0.21487764 0.21044295 -0.0022954002 0.24200441 0.097139254 0.22561815 -0.034167647
-0.020407168 0.11376124 0.039757475 -0.2242548 -0.17413658 -0.39470774 0.08470473 -0.24013565
0.12627268 -0.0042645684 -0.12991814 0.07815489 0.101330474 -0.22769913 -0.0013187547 0.11388373

conv2.weight f4 [32, 32, 2, 2]
00000000: b3a9 39be 042a 40bc 6705 143c 638f ba3c
00000010: a72c 0f3c 31c5 da3d 88e0 e53d c8bb 023e
00000020: 0bd1 5b3d e851 393d 3c59 243d 8f3d 29bd
00000030: d2d3 6fbc cd94 d1bd f046 c13c 876c 86bd
00000040: d725 bc3b 1171 a63d 75f9 83bc e592 b9bd
00000050: 9462 0bbb 46fa a93b de1d c0bd 0741 51bc
00000060: 2657 edbd 3e8e 433d 9426 1bbe 2c70 e9bc
00000070: 657b c1be 2a6b a1be c1de 35be a2b8 81be
00000080: f39b 273d 0c8b a13c d4d4 353e 1a28 563e
00000090: 801b 953d 3e50 92bd 66ba d43d c3e0 273d
000000a0: 9f40 b4bd f477 8cbd 9b58 4f3d a8d0 9cbc
000000b0: a08c 8cbd fc02 15be 2259 ca3d 0b7e b63c
000000c0: 9ad3 abbd ad65 06be a1d6 c1bc f89b 05be
000000d0: 78b9 6f3e 6774 b83d 302b 983d 95c3 613d
000000e0: 1001 323e 5e61 003e f5f1 1a3e cdaf 093e
000000f0: 31cf ecbd b67d db3d 18c3 6ebd e660 d6bd
00000100: b074 343d 598c 4dbe d640 97bd 5ad6 52bc
00000110: 1dc6 703d e3f9 06be f767 ea3b 40de bb3d
00000120: a0ba 3abd d90e 233d 11ed 89bc 700f 2abd
00000130: eb1c b2bd 153a 5cbe 6a65 57bc 8956 50bd
00000140: d66b 033e efaa 2a3e 5165 61be 89eb 0f3c
00000150: 26a3 efbd a7b4 0dbe 2c61 f6bc 80c7 7cbc
00000160: b3e5 94bd 5d28 9bbd 99eb dfbd b3e7 0abd
00000170: 24f5 583e ed9c b73d a5ba 4bbe 3090 e1bd
00000180: 74d2 95be e84c a8bd 9bfd e7bd dffe adbe
00000190: 0865 50bd 947d 493d 9170 1ebe 240e 15bc
000001a0: 7fc7 713c a2ee 9d3d 3903 02bd 3b7b 1dbd
000001b0: 1a99 413d 0c5e d83c fea5 3b3e 4143 373e
000001c0: 5e63 493e f225 433e df11 8d3e 9daa a03e
000001d0: e704 023e 943d 1a3e 972b 86bd 6297 3abd
000001e0: ac8e 573c a48d c63d cf58 97bd dd4c db3d
000001f0: 6e24 333e 7183 b23c 2c95 053e 6df6 043e
00000200: 1b01 3abe f846 a0bd e2c1 34be 7129 5dbd
00000210: 86eb 2cbe e202 8dbd e8a2 f6bd b351 13be
00000220: a4ae b8bc 94f8 d9bd 3a09 cebd 2af6 34bc
00000230: 46b9 3bbd 0311 03be 07b7 23be e4b0 16be
00000240: 1669 c5bd 8fa3 00be 1beb b5bd f20c 14be
00000250: 771f c93d 6689 ed3d 484e 503d 6017 ee3d
00000260: a611 b6bd d7f6 69bd 0351 8ebc 7812 47bd
00000270: fb8e 29be 4a81 f0bd 18f1 e9bd 0246 c1bd
00000280: 6f16 bdbd da88 e2bd 355e b7bd 6db2 d7bd
00000290: 09e0 84bd dcfe debd 3e60 19be 5e85 64bd
000002a0: b36c d9bc e08d f5bd 591f dbbd 9076 69bc
000002b0: 2dcf 103e 7f2b 313e 70fe c53d b7bc 2b3e
000002c0: 966a 5dbe 31af 4abe e08c 8fbe 9432 1cbe
000002d0: 08d6 2fbe 2fef 38be 338e 29be 5193 84bd
000002e0: d46c d3bd c24d 42be 07a6 a4bd 0c7b 14be
000002f0: 6fa5 fa3c af7b a83c b299 ec3d 73d0 223e
00000300: 1ce4 50be 93bb 75bd f86e ebbd 7b32 89bd
00000310: 075f ddbd 3c21 8fbd fbde 9dbd a10c 48bd
00000320: 41ec 743d accb 653d 6e62 c43d a2c3 2d3d
00000330: 2f1f c1bc 3afe 8ebd 053b 283d 53af 0d3c
00000340: dc2e 1a3e 8297 3f3e e9fc 6d3d bd25 1b3e
00000350: 54a0 9cbd 7441 123d a895 a03c 4f5d adbd
00000360: a046 79be 517f 74be a806 98be 7489 5dbe
00000370: 5364 7fbd 0c80 cfbd 624f ebbd fccf cabd
00000380: 1ffd febd e299 d5bd 419d 36bd 6082 9fbc
00000390: 5d52 623d 0440 2d3c 3782 90bd 2193 2c3d
000003a0: c80a f2bc 125d f63b 8543 edbc f1e7 5b3d
000003b0: ff6e a2bc 732c 1abd ba48 1ebd 7805 00bd
000003c0: 0197 28bd 9b73 9d3d 9808 bfbc d8ba c23c
000003d0: 94a6 3cbe 73f7 02bd 5773 18be 6aac 5fbe
000003e0: e84d f03c d746 dcbc d27a 553d e42e a5bd
000003f0: 62b4 74be 8e75 5dbe 761d e0bd 5276 0ebe
-0.18131141 -0.011728767 0.009034491 0.02277345 0.008738673 0.106821425 0.112244666 0.12766945
0.053666156 0.045244128 0.040124163 -0.041318472 -0.014637904 -0.102334596 0.023593396 -0.06563669
0.0057418155 0.081270345 -0.016110161 -0.09061221 -0.0021268474 0.0051873056 -0.09380697 -0.012771851
-0.11588888 0.047743075 -0.15151435 -0.02849587 -0.37789455 -0.31527072 -0.17760755 -0.25336176
0.04092021 0.019719623 0.17756969 0.20913735 0.07280636 -0.07144211 0.10387115 0.040985834
-0.08801388 -0.06858817 0.05062161 -0.019142464 -0.068627596 -0.1455192 0.09880282 0.022276899
-0.08389969 -0.13124724 -0.023661913 -0.13047779 0.23410594 0.09006577 0.07430112 0.055118162
0.17383218 0.12537143 0.15131362 0.13445969 -0.11562956 0.10717337 -0.058291525 -0.10467701
0.044056594 -0.2007307 -0.07385413 -0.012868488 0.058782686 -0.13181262 0.007153507 0.0917325
-0.045588136 0.03980908 -0.016836675 -0.04151863 -0.08696922 -0.21506532 -0.013146738 -0.050863776
0.12834105 0.16666768 -0.22011305 0.008784183 -0.1170104 -0.13838445 -0.030075632 -0.015428424
-0.07270374 -0.07576058 -0.109336086 -0.03391237 0.21187264 0.08965478 -0.19895418 -0.1101383
-0.29262125 -0.08217794 -0.11327668 -0.33983514 -0.0508776 0.049192026 -0.15472628 -0.00909761
0.014757036 0.07711531 -0.031741355 -0.0384476 0.04726515 0.026412033 0.1832504 0.17896749
0.19666812 0.19057444 0.27552697 0.31380168 0.12697183 0.15062553 -0.06551283 -0.045554526
0.013156574 0.096949846 -0.07389986 0.1070802 0.17494366 0.021791192 0.13045186 0.12984629
-0.18164484 -0.07826036 -0.17652085 -0.0539946 -0.1688672 -0.068853155 -0.12042791 -0.14386635
-0.022544213 -0.10643116 -0.100603536 -0.011045018 -0.045830987 -0.12799458 -0.15987788 -0.14715916
-0.09639184 -0.12562393 -0.088827334 -0.14458063 0.098204546 0.11598472 0.050855905 0.11625552
-0.08890085 -0.05712017 -0.017372614 -0.048601598 -0.16558449 -0.1174341 -0.11422938 -0.09437181
-0.092327945 -0.110612586 -0.089535154 -0.10532079 -0.06488044 -0.10888454 -0.1497812 -0.05579125
-0.02654109 -0.11989951 -0.106993385 -0.014249459 0.14141531 0.17301749 0.09667671 0.16771208
-0.2162269 -0.19793393 -0.28037167 -0.15253669 -0.1717149 -0.18059991 -0.16558151 -0.06473411
-0.10323492 -0.18974975 -0.0803948 -0.14500064 0.030596463 0.02056679 0.115527526 0.1589983
-0.20399517 -0.059993338 -0.11495775 -0.066990815 -0.10809141 -0.06988761 -0.07708546 -0.04884017
0.05979562 0.05610244 0.095890865 0.042422898 -0.02357444 -0.069820836 0.04107191 0.008647758
0.15056938 0.1871014 0.058102522 0.15151115 -0.07647768 0.035706952 0.019602612 -0.08465063
-0.24343348 -0.23876692 -0.29692578 -0.21634465 -0.062351536 -0.10131845 -0.114897504 -0.09902951
-0.12450623 -0.104297414 -0.044583563 -0.019471347 0.05525433 0.010574345 -0.070560865 0.0421325
-0.029546157 0.007518419 -0.02896286 0.053687993 -0.019828318 -0.037640046 -0.038643576 -0.031255215
-0.041159634 0.076880656 -0.023319528 0.023770735 -0.1842292 -0.031974267 -0.14887749 -0.21843114
0.029334024 -0.026889248 0.052119084 -0.08065584 -0.23896936 -0.21626875 -0.10943119 -0.13912323

conv2.bias f4 [32]
00000000: 6338 ca3d 8be9 6ebd 82c2 a5bd 0e62 b4bd
00000010: a026 003d d51a b9bd 3a6a f3bd d4f3 863d
00000020: ee14 41bd c6d5 e5bc 5f01 eebd 2543 863d
00000030: 252c 44bd 21d4 20bd b6e2 2ebe 8e1f bcbd
00000040: 4f48 0f3d b197 823d 2a3d 6a3d 0a5b 8a3d
00000050: dd00 c83c 5908 c5bd fe05 733a 3ce1 b43d
00000060: 0463 6abd 32c8 f83d 4300 86bd df7f d3bd
00000070: 548b b33d aae2 ea3d 0dfa 393e ac7e 9ebd
0.09874036 -0.058328193 -0.0809374 -0.08807765 0.031286836 -0.09038321 -0.118854955 0.06589475
-0.0471391 -0.028056037 -0.11621355 0.065557756 -0.047893662 -0.039264802 -0.17078671 -0.09185706
0.03498107 0.06376589 0.057187237 0.067556456 0.024414474 -0.09620733 0.0009270607 0.088320225
-0.057223335 0.12147559 -0.06543019 -0.10327124 0.08766809 0.11469014 0.18161793 -0.077390045

conv3.weight f4 [64, 32, 2, 2]
00000000: 496b 4cbe b7be 5c3d f595 423a 6795 403e
00000010: df5f 083e e647 85bc f3ba 0d3e 78ed d8bd
00000020: 785b 743d 78f5 953d 2685 b93d 0cf3 d73c
00000030: 20f0 613d 220c 71bd 07c7 693c dee9 be3c
00000040: b107 0e3c c3ac 3bbd eddb 123d a154 613d
00000050: dbe2 92bd b8cf 453d 9624 6fbd cde0 283d
00000060: aab4 613d 6a3a 7cbd 97e9 39bd cee9 86bd
00000070: de9f e1bd 5a65 1ebe 37ef 93be 375a 25be
00000080: dde0 f1b9 351d 64bd e18a d2bc 6fbf 69bd
00000090: d6f5 3f3d e237 76bd 0ad4 203d 4771 74be
000000a0: 88e0 063c 0fce f63d e76a 9abd bcc4 12be
000000b0: 06bb 793d 14d0 933d 4ce8 3a3e 9272 633d
000000c0: 9fb9 623c 6975 d7bd 23a9 013e e9b1 8d3c
000000d0: a7ea acbd 9c04 babb 27e7 2d3c c48c 14be
000000e0: a741 38be 6171 a3bd 86be e6bc 330a ecbd
000000f0: 2b60 d03d 24fe 703d 9c2c c53c 3ae3 1c3d
00000100: 034a 313d 347d 033d 67f3 963d d534 c53b
00000110: 0cf4 4f3d ee79 133d 33cb aabd bd32 90bd
00000120: f2ae 033e 7340 863d 2821 d2bd dc16 a53d
00000130: 61af 603e 012c cebd 51eb 14bc 8b96 cb3d
00000140: 1960 97bd 8e9b 4dbb db51 183d e660 603d
00000150: f2ff 8d3d 29d4 8e3d fa3c bbbd 79d5 913c
00000160: aec0 a0bc 1ec5 07bd 3658 e6bd 5ae1 023c
00000170: 4eac 82be 0eab dfbc f16d 313e 2d8f 213e
00000180: 5587 af3d 55f0 99bd a49e 153e fcf0 7bbd
00000190: 7970 993d 04e1 0bbe c38c 8cbc 6925 3cbd
000001a0: 58e0 9dbd b765 78be 8c0c d0bd b063 3abd
000001b0: c00a 8a3d 878f b63b e26c a1bd 5292 8cbc
000001c0: ace4 143e e8ec 8dbc d85f 613d dd55 203d
000001d0: 3dd3 123e f925 193d 142e 9cbc 3b24 cebd
000001e0: 0118 e13d 459c 8d3d 5c29 2b3d 328a 703d
000001f0: a64a e0bc 3be7 bd3c f6c6 833d b2a2 c43b
00000200: 5f18 6abd 9707 16be 6ec4 3d3d 83a1 b73d
00000210: 0739 e43d a1e0 a53b 087e a63d 7548 0dbd
00000220: 7273 1b3d 01db 323b 5f7e d6bd e5ef a5bd
00000230: 1d78 79bd d292 cabd cb13 153d ed11 753d
00000240: b01a 9abd a7de 28bd 446e f6bd 0410 89bd
00000250: 74d6 f1bb 78f6 d1bc f033 d1bc 0bce 753d
00000260: ceb4 71bc 3fe1 d13c b480 6d3d c5ad 163d
00000270: 81c8 043c 1bac 05be a7f7 cebc 7d77 2cbe
00000280: 67b3 0cbc 7167 6f3c 4dc7 6ebc 9e0e 9bbc
00000290: ee28 ab3b a621 3f3d 2f88 55be a438 1abe
000002a0: 74ce 1ebb 2634 183e 987b e5bc e4f2 553c
000002b0: f7b2 ed3c 8910 1abe 5f7d 163e 0f14 49bd
000002c0: d5c2 ad3d 84fc 9e3d 42f7 df3c 6fd8 65bd
000002d0: 78e1 083e 088e 6b3d e899 2b3e 89ec 933d
000002e0: 8c92 c9bd e2c8 6ebd ee0d 9cbe 44eb e5bd
000002f0: f1c3 763c e597 053e 3f80 b33b eae2 a83d
00000300: 3ed9 5d3d c7cc aabd d540 a9bd 41f3 863b
00000310: 741c 83bc 3338 8ebd 4eea 9cbd e48c a43d
00000320: f1d9 4cbd d47a 5a3d e91d 6bbe 4c3c 6fbd
00000330: dd42 bdbc 86d8 6a3d 65fb 76bc d3ae eaba
00000340: eebe 7abe 4374 55be 0a16 87be 72b7 89be
00000350: 002d 883c dfa1 4a3d 28c1 52bd 8eaf 473d
00000360: 2a01 0e3d 9a6f 223d 6fdf 653d 2b75 a73d
00000370: 1606 a8bd e3d8 35bd 5577 2a3e 85dd 2a3e
00000380: f493 c83d 8105 023e de87 6e3a 7724 4d3d
00000390: 3247 043e 9ad5 f23d e04f 7f3a 1c80 6fbc
000003a0: 4f47 82be a667 a4be 4e44 18be e082 86be
000003b0: f567 16bc 9375 93bd 15a5 3f3c ced2 a03d
000003c0: 2a9e e73c 4804 3c3d b514 e7bd 771f 19be
000003d0: 06ac dc3d 4bc8 0c3e f639 0fbe 1449 903c
000003e0: fb64 353d 1145 713c 521b dd3c f476 3fbe
000003f0: 022c 5ebd 1c70 013d 3a3d 70bd f289 c73b
-0.19962801 0.053892817 0.0007422858 0.18806992 0.13317822 -0.016269635 0.13840847 -0.105921686
0.059657544 0.0732221 0.09058599 0.026361011 0.05516064 -0.05884946 0.014268643 0.023304876
0.008668826 -0.045819055 0.03585427 0.05501235 -0.071721755 0.0482938 -0.0583845 0.04123001
0.055103935 -0.061579145 -0.045388784 -0.065875635 -0.1101682 -0.1546835 -0.28893444 -0.16147695
-0.00046134638 -0.055691916 -0.025700988 -0.05706733 0.046865307 -0.060111888 0.039264716 -0.23871337
0.008232243 0.12051021 -0.07539921 -0.1433286 0.060969375 0.07217422 0.18252677 0.055529185
0.013838201 -0.10520441 0.12662177 0.017296748 -0.08443194 -0.005676819 0.010614193 -0.14506823
-0.17993794 -0.0798061 -0.02816702 -0.11525383 0.101745926 0.058836117 0.024069123 0.038302638
0.043283474 0.032101825 0.07370644 0.006018261 0.05076985 0.036004953 -0.083395384 -0.070409276
0.12859705 0.065552615 -0.1026023 0.08061001 0.21941902 -0.10066987 -0.009089307 0.09940823
-0.07391376 -0.0031373235 0.03718744 0.05477991 0.06933583 0.0697406 -0.0914249 0.017801987
-0.019623127 -0.03314697 -0.11247294 0.007988298 -0.25522083 -0.027303245 0.17327096 0.15777273
0.085707344 -0.07516543 0.14611298 -0.061509117 0.074921556 -0.13660055 -0.017156964 -0.045934115
-0.07708806 -0.24257551 -0.10158643 -0.045505226 0.06740332 0.005571309 -0.07882096 -0.017159615
0.14540356 -0.01732488 0.055023044 0.039144386 0.14338394 0.03738973 -0.01906494 -0.10065504
0.109909065 0.06914572 0.04178749 0.058725543 -0.027379345 0.023181548 0.06434433 0.00600084
-0.05715215 -0.14651333 0.046329908 0.08966353 0.111436896 0.0050621782 0.08129507 -0.03449293
0.037951894 0.002729118 -0.10473322 -0.08102397 -0.060905565 -0.09891285 0.03639583 0.05983155
-0.075246215 -0.041227963 -0.1203275 -0.06692508 -0.007380301 -0.02563022 -0.025537461 0.06001095
-0.01475258 0.025620101 0.05798407 0.036786813 0.0081044445 -0.13053934 -0.025264574 -0.16842456
-0.008587695 0.014612065 -0.014573884 -0.018927868 0.005223385 0.04666295 -0.20852731 -0.15060669
-0.0024231942 0.14863643 -0.028013036 0.013058398 0.029016001 -0.1504537 0.14696263 -0.049091395
0.08484427 0.07763007 0.027339581 -0.05611461 0.1336726 0.0575085 0.1675793 0.0722285
-0.09842405 -0.058297046 -0.30479378 -0.11226514 0.0150613645 0.13046224 0.0054779346 0.082464054
0.054162256 -0.083398394 -0.08264319 0.0041183536 -0.016004778 -0.06944313 -0.076618776 0.08034685
-0.050012533 0.053339794 -0.22960629 -0.058407113 -0.023103172 0.0573354 -0.015074586 -0.0017904885
-0.24486896 -0.20845132 -0.26384002 -0.2689777 0.01662302 0.04947078 -0.05145374 0.048751406
0.03466908 0.039657213 0.056121286 0.08176645 -0.08204286 -0.044396292 0.16647084 0.16686065
0.09793845 0.12697412 0.0009099225 0.050083604 0.12917784 0.118571475 0.00097393803 -0.014617946
-0.2544503 -0.32110327 -0.14869806 -0.26271725 -0.009180059 -0.0720016 0.0116970735 0.07852708
0.02827366 0.04590252 -0.112832464 -0.14953409 0.10774998 0.1374828 -0.13986954 0.017612971
0.044285756 0.014725939 0.026990566 -0.18697721 -0.054241188 0.031601056 -0.05865214 0.0060894424

conv3.bias f4 [64]
00000000: 8fdf e83c 823b 113e 0698 2b3d 4af0 6bbe
00000010: 71b2 de3d 6fd6 c9bd 8240 663d 6f06 34be
00000020: f523 5d3d 6689 353d be87 25be 4708 81bd
00000030: 85a1 053d 04e0 fb3b d074 8e3d f237 453e
00000040: fbd8 5abd 5ed7 533c 890a ab3d 6424 023d
00000050: d53e fb3d 29ca 713d 6c71 73be 6d23 e1bd
00000060: 3c9b 463c 57d4 00bd 2fe9 1a3e eb73 563d
00000070: 8439 1c3e c870 853d acac 863d c01d cf3d
00000080: 001b cb3c 2d75 373e 8dcc b43c 08c0 80bd
00000090: 3c4f eb3b bb94 073e 3d4d 1fbd 45ea 18bd
000000a0: dedf f53d 627b 9e3a 0c49 7abc d875 e8bd
000000b0: 9035 e0bc 4b58 a13c e47f 2fbd 478c 153d
000000c0: 2962 19bd 423b 88bc 6704 9d3d 272d 40bd
000000d0: 45d7 883c 5136 63be b4e2 7cbd 250f 49bd
000000e0: 8f0f f03c 107e 2e3d 3ba2 00bd 3059 e6bd
000000f0: 12bc c7bb c7ea d63d a95a 883c 0e80 8dbc
0.028426914 0.14182857 0.041893028 -0.23040882 0.10873879 -0.09855353 0.056213863 -0.17580579
0.05398937 0.044320486 -0.16165063 -0.06300407 0.03262474 0.007686617 0.06955874 0.19259623
-0.053429585 0.0129297655 0.08351619 0.031772986 0.12267844 0.059030686 -0.23773736 -0.10993085
0.012121972 -0.031452503 0.15128015 0.05235664 0.15256315 0.06515652 0.06575903 0.10113096
0.024793148 0.17915793 0.022070194 -0.06286627 0.0071810763 0.1324033 -0.03889202 -0.03733279
0.1200559 0.0012091214 -0.015276205 -0.11350602 -0.02736929 0.019695422 -0.042846575 0.036510732
-0.03744713 -0.016629819 0.07666855 -0.04691806 0.016704211 -0.22188689 -0.06173964 -0.04908671
0.029304294 0.04260069 -0.031404715 -0.1124748 -0.006095418 0.10493999 0.016644793 -0.017272975

conv4.weight f4 [64, 64, 2, 2]
00000000: fdd1 9b3c 3460 9ebd f0a4 953c b1d8 98bd
00000010: 2428 e0bd 6352 43bd ffee 59be a1f8 81bd
00000020: c093 2ebe 5410 223e 242a babc 91a2 0a3e
00000030: 8ed0 1abe 65fe 473b b9b0 babd af8f 73bc
00000040: 47a6 32bd 95d6 ecbd d0ae 0f3d 76ae 2cbd
00000050: a83a 2e3e 8b6a c7bc 491c 71bb afa7 dd3d
00000060: f2b8 e13c c0ee 84be dbe8 a13d 579f fabd
00000070: 20b0 95bd 0931 01be dcfb 653b d4d0 0ebd
00000080: f980 de3d 5337 0bbe b5df a83d 8dbb 17be
00000090: c17f 01be 1585 b2bc 4637 943d 347a 45be
000000a0: f8d6 553d 2d72 53bd 27bb 40be 5224 82bd
000000b0: 4472 92be 29f8 ebbd 28f7 db3b 9d60 c7bd
000000c0: e05e 1dbe 3fa6 6dbd 018f 20be 9b1c 4cbe
000000d0: a090 013d ecbc a4bd addf 893d b6c5 1abe
000000e0: 117d af3d f30b 2cbd a69f 303e bef3 1b3e
000000f0: 1f86 7c3d dd0a 4cbe 6d21 bb3d cd55 b4bc
00000100: 2728 f93b 7f77 12be 772b c43d 2afc b7bd
00000110: 2c81 d8bd aa22 303e f2c3 5bbd c228 0c3e
00000120: 6686 b0bc 2e45 293c 7c59 b13d 8e28 203e
00000130: 87e6 37bd e6bf ea3d 8c51 17be 4b6a 643d
00000140: f7cc 91bd 6073 09bd 1f34 b3bd 8ede 383c
00000150: 0fff 343c feaf 273e 388d 0bbe fc10 aebc
00000160: 16fb 553c 55c4 7abd 1543 243d c907 1cbd
00000170: 6002 e5bc 2aed 2f3d fb53 0b3d 6549 ad3d
00000180: 910f 32bd d1a9 a93d ca7d d2bd dff8 cf3d
00000190: b2d3 d53c d7c5 c93d f404 89bd 1072 b03d
000001a0: 876c 1b3d d143 fabd 0a41 b63d f797 62be
000001b0: 0586 17be 9360 03be 8874 4bbd e984 2ebe
000001c0: e621 14bc 4844 a1be 5103 2ebd df5e f9bd
000001d0: e0b1 78be d485 67be 8ff7 cfbd 68c0 35be
000001e0: 2db2 993c c0a4 bc3d 4732 1c3d 7870 ca3d
000001f0: a0d9 d0bd 795f 1e3e df5e 13be a8ad 613d
00000200: d2a4 d13d b97c b4bc 5557 b4bd e872 c33c
00000210: dc3d 7d3c 1e2c 21be 211c 3cbb 9aa2 d73d
00000220: df90 573d 279a cdbc 2353 84bc 055c be3d
00000230: 5d26 1dba 7c05 233d 3b97 063d 25ae 36bc
00000240: ea30 363c fd83 163e 852d 53bd 023b d8bc
00000250: 7b57 9c3d 2ced 13bd 9d74 963d 097f c23c
00000260: 0956 4fbe bb45 143d 3e46 4abd 0059 8bbd
00000270: fbe1 1cbd f64b d63d 7e1b 6fbd b5af 503d
00000280: 9055 a7bc 3952 333e 2c30 34be e9c3 243c
00000290: 6ee6 07be ef1a 953d 96c7 6fbd d972 d73c
000002a0: 7b8e 55be 1c2a 6ebe abef adbd 13a7 eebd
000002b0: a20b 7ebd e593 4cbd 2ad0 08bd e827 ff3a
000002c0: 0107 4d3d 0089 143d 5ae0 953d 3dae 6d3e
000002d0: b6cd 91bd 726e 763d 77c9 afbd 0820 113c
000002e0: ebb4 c33b 42b8 7dbe 128a 323e 3d2d 12be
000002f0: a96a 083e 642f 54be 139e d43d 3375 233b
00000300: f3be 26be a2c4 77bd bd2a d5bd 4ca1 913d
00000310: 6da0 bebb c7e8 e1bd 0a36 893e 7d5a c2bd
00000320: 99c6 b5ba 00bc 4abe 1b64 3d3e 1e36 06be
00000330: e7b5 7ebd f4a8 783d 3d7f 2f3d fb78 91bb
00000340: 95e7 8a3d fc16 1ebc 8264 0d3e f169 e43d
00000350: 1e03 a3bb 2759 9ebd 52f3 1d3d e5d2 27be
00000360: 6ee0 113d eb14 9bbd b0cb 573d 6250 b93d
00000370: 5cd0 afbd f1b0 c8bc 553a 3c3d be9d f33c
00000380: 1eaf 0c3e 7bca 7e3d 0646 dabc 9b9a 723e
00000390: 8cf5 8abd 8076 143e 2fff 50bd 4a29 9ebc
000003a0: 57b2 35be e2b9 86bd ef02 14be 4905 0cbe
000003b0: fc31 1cbd 94d7 d1bc e08b 88bd 1945 fd3b
000003c0: 93bd 52bd 4dd5 47be 718c d93d 3deb 80bd
000003d0: 7885 80bd 9a50 1bbe 77a5 463e 4095 1c3d
000003e0: 0315 00be 72a3 043e f1be 0bbd 92a1 bc3d
000003f0: 3201 ce3c 1894 ed3d d403 fe3c 6f9a 3d3e
0.019021029 -0.07733193 0.018267125 -0.074632056 -0.10945156 -0.047685992 -0.21282576 -0.0634625
-0.1704855 0.15826541 -0.022725172 0.13538577 -0.1511862 0.0030516621 -0.091157384 -0.0148658
-0.043615606 -0.11564366 0.035078824 -0.042158566 0.17014563 -0.024342796 -0.003679054 0.10822999
0.02755401 -0.25963402 0.07905742 -0.12237423 -0.07308984 -0.12616362 0.0035092747 -0.034867123
0.10864443 -0.13595323 0.08245794 -0.14817639 -0.1264639 -0.021791974 0.07237105 -0.19284898
0.052206963 -0.05162256 -0.18821393 -0.06354584 -0.28602803 -0.11521942 0.006712813 -0.097352244
-0.15368223 -0.058019873 -0.15679552 -0.19932787 0.031632066 -0.080438465 0.06732116 -0.15114483
0.085687764 -0.042003583 0.17248401 0.15229699 0.061651345 -0.19926019 0.09137235 -0.02201357
0.0076036635 -0.14303397 0.09578603 -0.08983643 -0.105715126 0.17200723 -0.053653665 0.13687423
-0.021548461 0.010331435 0.08659646 0.1564047 -0.044897582 0.11462383 -0.14777201 0.05576543
-0.07119172 -0.033557296 -0.08750176 0.01128353 0.011047139 0.1637573 -0.1362809 -0.021248333
0.013060352 -0.061222393 0.040103037 -0.038093362 -0.027955234 0.042950787 0.034015637 0.084612645
-0.043471877 0.08284343 -0.102778986 0.1015489 0.02610192 0.09852188 -0.06690398 0.08615506
0.037945297 -0.12219966 0.08899124 -0.22128282 -0.14797218 -0.12829809 -0.04967168 -0.17042889
-0.009041285 -0.31497407 -0.04248363 -0.12176298 -0.24286604 -0.22609645 -0.1015464 -0.17749178
0.018761719 0.09211111 0.038133886 0.09884733 -0.10197759 0.15466107 -0.14391659 0.055097252
0.10236515 -0.022032129 -0.0880572 0.023858503 0.015456643 -0.15739486 -0.002870329 0.10529061
0.052628394 -0.02509792 -0.016152924 0.09294895 -0.0005994791 0.039800152 0.03285907 -0.011149918
0.01112006 0.14698787 -0.051557083 -0.026395325 0.07633873 -0.036114857 0.07346461 0.023742216
-0.20247664 0.036199313 -0.049383394 -0.06804085 -0.03830145 0.10463707 -0.058375828 0.050948817
-0.020426542 0.17511834 -0.17596501 0.010056474 -0.13271496 0.07280528 -0.05853995 0.02629988
-0.20855133 -0.23258251 -0.08492979 -0.11652961 -0.062022813 -0.04994573 -0.033401646 0.0019466849
0.050055508 0.036263466 0.07318182 0.23210998 -0.071193144 0.060163923 -0.08583348 0.0088577345
0.005972495 -0.2477732 0.17435482 -0.1427507 0.13321938 -0.20721203 0.10381713 0.0024941682
-0.16283779 -0.060490258 -0.10408542 0.07110843 -0.005817464 -0.11030727 0.2679904 -0.094899155
-0.0013868391 -0.19798279 0.18495218 -0.13106582 -0.062185194 0.060708 0.042845953 -0.004439471
0.06782452 -0.009649035 0.13807872 0.11153019 -0.004974737 -0.07731848 0.038562126 -0.16389044
0.035614423 -0.07572349 0.052684486 0.09048535 -0.08584663 -0.024498435 0.045954067 0.029738303
0.13738677 0.06220482 -0.026644718 0.2369179 -0.067851156 0.14498329 -0.051024612 -0.019306798
-0.17743813 -0.06578423 -0.14454244 -0.13673891 -0.038133606 -0.025615491 -0.06667304 0.0077291843
-0.051450323 -0.19514962 0.1062249 -0.06294868 -0.06275457 -0.15167466 0.19399057 0.038228273
-0.12508015 0.12952974 -0.034117643 0.092105046 0.025147054 0.11600512 0.031007685 0.18515943

conv4.bias f4 [64]
00000000: 57d4 fc3b 4378 44bd d272 433d 0996 43bd
00000010: b93d 9239 97f9 a33c d009 cd3c 9b3c 5e3c
00000020: 9460 c1bd 410d a83d 5cc4 85bd 408d 483b
00000030: a61a ed3c e835 0b3e 1da6 603d dca5 d23d
00000040: 1ba8 9bbb 62ac 9ebd e96b 803d f3e6 be3d
00000050: 7ad4 e03d 737d 603d 7ce0 f9bd 5d8f f2bc
00000060: 9718 be3c b8e1 e93d ebed 5dbb a7ee ee3d
00000070: 2804 6ebd 14a2 2b3d b7a3 babd 8fd7 953d
00000080: 48bf 1e3d 7f9b a63d 3497 b0bc 743c b3bd
00000090: 4438 33bd 148d 093c d298 f9bd e8d9 a6bd
000000a0: 5587 ee3c 94ec a0bd 0efd a23c 3360 a53c
000000b0: 846c 49b9 a06f 6cbd e8da 24b9 890c e9bd
000000c0: cd4e ac3d ec11 f3bd 4325 62bd 3984 df3c
000000d0: a99f 8d3d 8b0c 033e bcd4 633d af96 27bd
000000e0: 23a0 00bd 2d3a b8bc 5cb1 01bc 3219 94bc
000000f0: a9ef 053d 872e 113d 18fa 59bd 81bf 2ebd
0.0077157426 -0.047966253 0.047716923 -0.047750507 0.00027893277 0.020016475 0.025029093 0.013564254
-0.09442249 0.08205653 -0.06531593 0.003060177 0.028943371 0.13594782 0.054845918 0.102855414
-0.0047502643 -0.07747723 0.06270582 0.09321394 0.10978027 0.054807138 -0.1220102 -0.029609377
0.023205085 0.114200056 -0.0033863734 0.11666613 -0.058109432 0.041902617 -0.091132574 0.07316505
0.03875664 0.08135127 -0.021556474 -0.08751765 -0.04375483 0.008395452 -0.12187351 -0.08147031
0.029117266 -0.07857624 0.019896057 0.020187473 -0.00019209279 -0.05772364 -0.00015721808 -0.11379344
0.084134676 -0.11868653 -0.055211317 0.027284728 0.069152184 0.12797754 0.0556228 -0.040915187
-0.03140272 -0.022488678 -0.007915821 -0.01807842 0.03269926 0.035444763 -0.053217024 -0.0426631

conv5.weight f4 [128, 64, 2, 2]
00000000: 2216 28be cb17 86bd af7b 96be 01f8 30be
00000010: eac8 aa3c e0d8 51bd 1c3c c13c 8330 adbd
00000020: 5cc6 003e b72f ec3d 8621 a53e 4576 f1bc
00000030: ad67 98bc db29 003e 2427 77be 7038 12be
00000040: 0a22 b9bd 4767 27be b7ed ccbd 0d71 14be
00000050: 02b0 b4bd b7f4 e53c 2733 58bc b8d9 cebd
00000060: ecc5 95bb cf1f 4ebc 6b4b b4bd f2ab 863e
00000070: 28fb 34be f99f 05be 635d ed3d bf0a 8e3d
00000080: 6fc4 05be 25cc 40be 30b2 1fbd 8594 debd
00000090: d91b 6b3d 1e8c 7ebe 7136 ea3c fb96 57be
000000a0: c279 33bd 7eb3 afbd 9734 803d fd3d 1e3d
000000b0: 149c 0abe 90bd 0e3e 2d64 87bd 9cec d33d
000000c0: 2d6e 073d 5be3 9bbe 85ee 29be 9a04 a5be
000000d0: e8d0 afbe 0d0f 88bd bd26 6dbe 360b d33c
000000e0: e137 0dbe 81ea 11be 7552 a1bd 818f 173e
000000f0: 62b8 7a3d febb e93d d39a ee3d 92eb 803d
00000100: d835 a43d af45 d93d 59d7 43be 8fe0 fa3c
00000110: e48e 49bb 1618 583c 8d10 6f3c 08e8 0e3d
00000120: 589c 92bd 7337 73bd 2983 e4bc 0bbb b1bd
00000130: da45 e33c 094d 53bb 44be d73d a728 083e
00000140: fdc9 803d a502 b53d 6c51 a93d 57f5 5bbc
00000150: fc3a fa3d a510 68bd 0b8b 983d 72c5 4b3e
00000160: f522 f0bd 1cfe d4bc 4a19 e1bc 6728 483d
00000170: f74e dcbd 9cf2 273c 2db5 9d3d 7f81 97bd
00000180: bcac 3cbd f4ff 73bd 089a 49bd 0ed2 99bd
00000190: 3090 b9bd d22d d1bc e22b 80bd 3d22 0b3e
000001a0: 36a2 d3bc 1683 e4bd 1436 bf3d 7491 66be
000001b0: e5a7 593e 9460 173e 701c 7e3e be21 5e3c
000001c0: a93c 2f3d b423 efbd db39 3a3d 3ef6 42ba
000001d0: 9a71 1d3e 02a7 4f3e d051 cc3d 8ec7 e63d
000001e0: e8de 72bd 2e85 84bb 1e4f a4bb a39e 49bd
000001f0: a349 cebb c864 af3c d9e6 283e 0529 0abe
00000200: 6be7 b43d 3659 fa3c 335a edbd ea69 6ebd
00000210: a080 96be fe22 50be 5564 4ebe 4ff2 9bbe
00000220: 92d4 31bd 2db4 433d c1d9 623c 02cb a7bb
00000230: 0a7e 723d 94a2 0b3d 4b93 81bd e643 263d
00000240: 0a01 f8bc 1502 5dbc ca9c 8c3d 8b90 bebd
00000250: 56e1 59be ed48 04be b8a7 23be 192f 583e
00000260: b7bd e13c bb18 263c d8e6 1cbd 417d 473d
00000270: 3757 c23d 18a0 193e 0f36 89bd 11b0 603d
00000280: 5e6c 1ebe e7db c2bd 3d3b 7dbc e2f8 8dbd
00000290: 68e5 00be 1124 38be 182b e0bd 9347 8ebd
000002a0: ec48 4d3d 8910 a63d f4a3 52be f6cf 17be
000002b0: ca0c 6cbd 0e0f 1fbe ae33 82bd 26fc 513e
000002c0: 8bc8 ac3d e9c1 23be ffd0 eabc 5fb4 d7bc
000002d0: bc30 e73d 96cf de3c f569 c0bd d680 9bbd
000002e0: 0fa1 d4bd 5937 92bd 1f45 c8be 37a9 44be
000002f0: 1cef 203c 39f7 2fbe cfb2 74bd 2cb2 5ebe
00000300: 6709 4ebc 92f2 923c 6359 a0bd aafb c1bc
00000310: 13f7 54bd 6f78 12be f226 4c3d e975 b2bd
00000320: 6910 d6bd 029d eb3c a408 b3bd da33 713c
00000330: e58a 2e3e b651 db3d 245f 503e 82cb c9be
00000340: aa92 f7bd 8b91 b7bd 7d37 f9bc 5793 043d
00000350: e6cf 633e 6a52 233e 3813 d63c 2976 9bbd
00000360: c2ca 123e 77ab 0bbd 8c0c e93d b17a 853e
00000370: 36c6 f03a 2e78 0abe eb98 4b3e 8417 4d3d
00000380: f97f 383d c1e8 bfbd 3489 8d3d 2da6 8bbd
00000390: c7ee 46bd b8a9 7bbd aead 81bd 80f3 0fbd
000003a0: 0c2a 493e 28dc 053e 5265 1f3d dcb3 f13d
000003b0: e3ac c6bd 4581 f4bd 9699 7dbe 9cf9 893c
000003c0: 7606 a9bd 7178 17bd 1c05 1c3e 04f8 8f3e
000003d0: 1b02 08be c54d 783c 2a2b 70be 2a2f e1bd
000003e0: 8579 ac3d 9bbd 82bd 2e7d 073e 106a 5d3b
000003f0: 76de 64bd 7b61 67bc 8afa 703a 0efd 713c
-0.16414693 -0.06547507 -0.29391238 -0.17282106 0.020847756 -0.05123222 0.023588233 -0.084565185
0.12575668 0.115325384 0.3225214 -0.02947534 -0.018604124 0.12515967 -0.24136025 -0.14279342
-0.090396956 -0.16347991 -0.10006278 -0.1449625 -0.08822633 0.02807079 -0.013195789 -0.1010012
-0.0045707133 -0.012580826 -0.08803447 0.2630306 -0.17673934 -0.13049306 0.11590078 0.069356434
-0.13063215 -0.18827875 -0.038988292 -0.108681716 0.057399604 -0.24858138 0.028590413 -0.21053688
-0.04381729 -0.08579157 0.06260031 0.038633335 -0.13536102 0.139395 -0.06610904 0.10347864
0.033064056 -0.30446896 -0.16594894 -0.32230073 -0.3433907 -0.06643496 -0.23159309 0.025762182
-0.13790847 -0.14249612 -0.078770556 0.14800836 0.061210997 0.1141281 0.11650624 0.062949315
0.080180824 0.10608994 -0.19125117 0.030624656 -0.0030755335 0.013189336 0.014591348 0.03488925
-0.071587265 -0.059379052 -0.027894573 -0.08678254 0.027743269 -0.0032241961 0.10534337 0.13296758
0.06288526 0.08838395 0.08267483 -0.013425193 0.122182816 -0.0566565 0.07448395 0.19899538
-0.117254175 -0.026000075 -0.02747788 0.048866656 -0.10757249 0.010250714 0.07700572 -0.07397746
-0.04606317 -0.059570268 -0.04921916 -0.07510768 -0.09060705 -0.025534544 -0.0625837 0.1358728
-0.025834184 -0.11157815 0.093364865 -0.22516423 0.21255453 0.14782935 0.24815536 0.013557849
0.04278246 -0.11676732 0.04546533 -0.00074372056 0.15375367 0.20278552 0.09976542 0.11268531
-0.05929461 -0.0040441966 -0.0050143143 -0.049223553 -0.0062953993 0.021410361 0.16494311 -0.1349221
0.08833202 0.030560117 -0.1158947 -0.058206476 -0.29395008 -0.20325848 -0.20155461 -0.30458304
-0.043415613 0.04777925 0.013845862 -0.005120636 0.05920223 0.034090593 -0.06326922 0.040592097
-0.030273933 -0.013489266 0.06865843 -0.09304913 -0.21277365 -0.12918444 -0.15981948 0.21111716
0.027556283 0.010137732 -0.038306087 0.048703436 0.09489291 0.15002477 -0.06699764 0.05485541
-0.15471026 -0.09514599 -0.015456018 -0.06932236 -0.12587512 -0.17982508 -0.109457195 -0.069472454
0.05011837 0.081086226 -0.20570356 -0.14825425 -0.057629384 -0.15533087 -0.06357513 0.20506343
0.08436688 -0.1599194 -0.02866411 -0.026331125 0.11288592 0.027198594 -0.0939521 -0.07592933
-0.10382282 -0.07139463 -0.39115235 -0.19205175 0.009822633 -0.17184152 -0.059740838 -0.21747655
-0.012575484 0.017937932 -0.07829549 -0.023679573 -0.05199344 -0.14303754 0.04984183 -0.08713896
-0.10452349 0.02876139 -0.087418824 0.014721835 0.17045172 0.107089445 0.20348793 -0.39413077
-0.12088521 -0.08963307 -0.030421967 0.032367077 0.22247276 0.15949407 0.026132211 -0.07590897
0.14335158 -0.03409907 0.11379346 0.2607017 0.0018369618 -0.13522407 0.19882552 0.050071254
0.04504392 -0.09370566 0.06910935 -0.06818805 -0.04856756 -0.061441153 -0.06331955 -0.03514433
0.19644946 0.13072264 0.038914986 0.118018836 -0.09700944 -0.11938719 -0.2476562 0.016842656
-0.082531855 -0.036980096 0.15236324 0.28118908 -0.13282053 0.01515526 -0.23453966 -0.10995324
0.084216155 -0.063838206 0.13231346 0.0033785142 -0.055876218 -0.014122362 0.00091926067 0.014769806

conv5.bias f4 [128]
00000000: 904f 373e bc02 ca3d 2627 973d 2367 9e3d
00000010: fc44 95bd 02ef 543d 89c2 b63d 659a cd3d
00000020: 03e0 9d3c d4e0 60bd 2b73 08be 4f01 a63b
00000030: 0aa4 87bd ecb6 8ebd d5e0 3a3d de11 a33d
00000040: cb47 a8bd 3421 ca3d 7f61 083e 3aa8 39bd
00000050: 3b51 5f3d 9804 f13d e994 59bd d81c 0d3d
00000060: 3534 0d3e 87a5 d03d 4655 bd3d 2248 ebbd
00000070: 2955 1abd c87a c0bd 0d7e 493e 2ae2 003e
00000080: aa9f 093d 5737 90bd 5d33 013c 85d5 593e
00000090: 9e47 d3bc 0f66 173e 1b76 b03c ec26 02bd
000000a0: d9a6 27bd a14d 2b3d a678 27bc e837 933d
000000b0: 7159 e23c 1309 c43d 0fea 7b3d 493d fb3d
000000c0: 2b1d 273e 60d5 d83b 7aa2 cabd a05f c1bd
000000d0: 1275 fabd 7b16 3cbd 5238 0a3e 3fca 603e
000000e0: aad0 8a3d a9c8 ea3d b183 95bd 14e1 0d3e
000000f0: 2ed0 79bc a706 223e 13c2 1b3e 0960 193e
00000100: 6bc2 05bd 7ebf 873c 61cb d63d 4d60 863e
00000110: e62d 59bd 262e 253e 9943 0c3e ad35 b53d
00000120: ba7f fb3d 8dfd 8c3d 4ae3 623d 1423 46bd
00000130: f90b c3ba 3a91 03be 3b14 96bd 6491 f63d
00000140: 5da9 bb3d e306 d83c fec7 d1bd 895b 94bc
00000150: 143a a33d fabf 893d 35eb 8fbd 9511 453e
00000160: efd7 5b3c b402 4c3e 84dd 223e 4358 e13d
00000170: 31d1 8abd 82fa af3d 1530 033e a195 b73d
00000180: e727 413e 93ba 70bb c4a1 a9bd c193 863e
00000190: 287c 5cbd a3b3 34bc d98b ef3c 2c10 123c
000001a0: 7b08 cebd bc4c bf3b cc67 b63d cdb6 31bd
000001b0: b109 00bd 1479 603e 0ba2 273e dc9c 04bb
000001c0: e680 c13d 30c2 243e ad09 b33d 5b31 d9bd
000001d0: 310d 8cbd 4029 b93d 021c efbd 6cc3 fc3d
000001e0: e960 c73d 2cd4 80bb 23da c13d fe01 bd3d
000001f0: 9f3f b6bc 6219 8a3c 3a2d ddbd 6729 56bd
0.17901444 0.09863803 0.07380514 0.077345155 -0.07288548 0.051985748 0.089238234 0.10039214
0.019271856 -0.054901913 -0.13325183 0.005066074 -0.06623085 -0.06968483 0.045624573 0.07962392
-0.082168184 0.09869614 0.13318442 -0.04532645 0.054520827 0.11768454 -0.053120527 0.034451336
0.13789447 0.10187822 0.0924478 -0.114883676 -0.03767887 -0.09398419 0.19676991 0.12586275
0.033599533 -0.07041805 0.007885781 0.21272857 -0.025790986 0.14785026 0.021540692 -0.0317754
-0.040930603 0.04182208 -0.010221636 0.07188398 0.02763054 0.09572043 0.061502513 0.122675486
0.1631972 0.006617233 -0.09894271 -0.09442067 -0.12229361 -0.045919877 0.13498047 0.21952151
0.06778081 0.11464054 -0.07300509 0.13855392 -0.015247388 0.1582285 0.15210752 0.14978041
-0.032656115 0.016570803 0.1048801 0.26245347 -0.053022288 0.16130885 0.13697661 0.088481285
0.12280221 0.068842985 0.05539254 -0.048373297 -0.0014880887 -0.12848368 -0.073280774 0.1203945
0.09163163 0.026370471 -0.102432236 -0.018110054 0.07970062 0.0672607 -0.07027284 0.19244988
0.013418182 0.19922906 0.15904814 0.11003163 -0.06778181 0.085927024 0.1281131 0.08964086
0.18862878 -0.00367323 -0.082828075 0.26284602 -0.053829342 -0.011029157 0.02924149 0.0089149885
-0.10060211 0.005838005 0.089065164 -0.043387223 -0.031259242 0.21921188 0.16370408 -0.0020235097
0.094484136 0.16089702 0.0874208 -0.10605117 -0.068384536 0.09041071 -0.11675264 0.12341961
0.09735281 -0.003931543 0.094654344 0.092288956 -0.022247134 0.016857807 -0.10799642 -0.052285578

conv6.weight f4 [64, 128, 2, 2]
00000000: 6d40 fa3c 66ec 44be b2a0 1bbe 0a0a 5cbe
00000010: 758b 9dbd 120d 19be 9066 b5be a548 14be
00000020: 16c9 bcbd cd85 80be d1c5 dcbd af47 743c
00000030: c821 cb3d a087 b33c cf24 0e3e 75de 843d
00000040: 0a3d 8abd c028 5ebb a469 0bbe af21 be3d
00000050: 6b1d 91bd 7855 8a3c 7041 413e 4335 3a3e
00000060: f4e9 a7bd 0c08 49bd 9d3c 853d cbb6 12be
00000070: 1f5e 713d 166e 583d c999 66be 72a9 d1bd
00000080: d1dd afbd a343 85bd e45d ac3d 94ca 95bd
00000090: 10e1 bdbe f394 91be 55f2 83be 4853 8ebe
000000a0: 57c0 a3ba b356 69bd 246c c83d ca45 85bd
000000b0: bf99 54bd 7d4b 07be d402 e1bd b7ed 1abe
000000c0: 9f7d 07bc 3818 3a3d f8cb 793d bd6c 81ba
000000d0: 9379 35bd e634 593d ffff 97bd e759 033e
000000e0: 50a4 06bc b118 b9bd 1c33 923e b29d 0a3e
000000f0: 5d49 babd 4c28 59bc 5daf d33c 421c 483e
00000100: f51a 2fbd baf7 303c dae4 de3c fd80 163c
00000110: aef8 9e3d e924 f63a 6428 713e 344b 663d
00000120: 4fff 5a3e b759 333e 0fd9 133e 97e6 9e3d
00000130: 57fe a7bc c7a5 913c d3e9 cdbc bab8 d03c
00000140: ca8c b33d 3b93 ca3d bfe9 8c3d 186d babd
00000150: 3779 adbb 0ee0 833d 5653 843e 17c2 ef3c
00000160: 3e4b aa3d 1365 1fbd e3c3 b0bc 18de 40be
00000170: 2c2e 79bd bab9 babd 1eea 6dbe 6166 62bd
00000180: 90c9 033e f24d a6bc 40bc e9be 287e 97bd
00000190: 63d7 7dbe b22f 18be ddec bfbe c856 d1be
000001a0: b2ef 37be 7d05 8fbe 5278 8a3e c0af b83d
000001b0: b17a 2f3d b772 f9bd f1ee 053e 9ea8 203e
000001c0: 976b 01be e2fc 89bd 6b0c 963e 51c2 943d
000001d0: 4623 c0bc 98c7 bbbc d076 dcbc 31d0 f2bc
000001e0: 1715 3bbe 04bc f1bd 9aca 7e3e 5082 94bd
000001f0: 11ae 5dbe 17ef fa3d bfe1 05be 7054 b1bd
00000200: ea3d 3abd b10b 12bd 894b bfbd 0b9b 453e
00000210: ec2b 193c baaa bf3b 83d9 92bd 32a5 5dbd
00000220: 3bfb 82bd 0c45 f6bd f80b e1bd 77d4 4a3d
00000230: d02a 133d 1d6f 9abd 29cc 323e 1772 c9bd
00000240: 73c8 dd3c 39a6 75bd 7262 113e c46f b13c
00000250: d63c 71bb 6d34 d53d b960 9c3e d392 de3d
00000260: 344f 57be c93e 47be 25c8 163e 4871 7ebe
00000270: 4f43 a1bd 4a17 83be aecf 043e c87d a03d
00000280: 6b6c 463c cc2a 85be ba01 323d ad65 ddbc
00000290: 0e54 e8ba 9ff7 c9bc 79a1 343e d43e 0e3e
000002a0: 4696 253d d6b9 e0bd 1871 1abe 91f0 93be
000002b0: 2304 6bbd f808 743d d878 9f3c 24db 353e
000002c0: 7e89 62bd f8c0 94bd fbe9 ef3d f089 a83d
000002d0: 17d3 d83a e2e8 813d 01f0 333d 10da 333e
000002e0: 7a15 32be 7aa4 f4bd 4249 653e 26d0 fb3d
000002f0: 3332 983c 6523 efbc dd9d ddbd 653d 6e3c
00000300: 87fb 23be c864 193c 4f05 87bd 8e68 8bbe
00000310: 7400 e2bc 0566 5bbd 18cc 183e 1513 1cbd
00000320: eb73 42be edd8 1ebe cc8b 8e3d d3c5 91bd
00000330: bb65 f43c f97f 41bd 6e6c ecbc 70de c13d
00000340: 0ec4 f93d 31aa 7abd 6217 873d 6553 6abd
00000350: ba36 123d d1dd d63c c9ca b9bc 34fe 8fb8
00000360: e2aa 59ba 6f48 8b3d 87f3 e03d 97ea 973d
00000370: 40db ac3c e2bc 013c 104b ae3d 3bee dbbd
00000380: 67c1 ddbc 7904 2bbc 8149 9b3e af0b 143e
00000390: 10db 18be 0a2d a13d cea0 8b3e 4d37 1e3d
000003a0: dba1 713c 097d 8cbc 8324 acbc bb15 ae3b
000003b0: c9e9 1a3d e1fb 38bd 3a37 02bd f8de 5dbc
000003c0: 8a89 bbbd e4a0 c6bb 5653 043d 6135 df3d
000003d0: 1e71 1abd 4fa2 163b 2cd3 3cbd 6d18 07be
000003e0: 93dc 62bd b383 723d 98a4 4fbd f887 60be
000003f0: d39c 1b3e 5777 183e ece6 0abe f243 143e
0.030548299 -0.19230804 -0.15198019 -0.21488205 -0.07692615 -0.14946392 -0.3542981 -0.14480837
-0.092180416 -0.25102082 -0.10779918 0.014909669 0.09918553 0.021915257 0.13881229 0.06487743
-0.067499235 -0.00338988 -0.13614517 0.092837684 -0.07085689 0.016886458 0.18872619 0.1818438
-0.0819892 -0.04907994 0.06505702 -0.14327542 0.05892765 0.05283936 -0.22519602 -0.10237397
-0.0858723 -0.06507041 0.08416346 -0.07314029 -0.37085772 -0.28433952 -0.25770822 -0.27797914
-0.0012493235 -0.05696745 0.09786251 -0.06507452 -0.051904436 -0.1321239 -0.109868675 -0.15129744
-0.0082696965 0.045433253 0.060985535 -0.0009874325 -0.044305395 0.053028964 -0.07421874 0.12827264
-0.008217886 -0.09037913 0.28554618 0.13536718 -0.09096024 -0.013254236 0.025840456 0.1954203
-0.042750318 0.01080125 0.027208734 0.009186027 0.07762276 0.0018779311 0.23550564 0.056224063
0.21386455 0.17514692 0.1443827 0.07758825 -0.02050702 0.017779244 -0.02513591 0.02547871
0.08767088 0.09891363 0.06880521 -0.09102839 -0.005293991 0.064392194 0.2584483 0.029267354
0.083151326 -0.03891475 -0.021577781 -0.18834722 -0.06083505 -0.09117456 -0.2323384 -0.055273417
0.12869859 -0.02030084 -0.45651436 -0.07397109 -0.24789195 -0.14861944 -0.374854 -0.4088652
-0.1796253 -0.27933875 0.27044922 0.09017897 0.042841617 -0.12180083 0.1307943 0.15689322
-0.12638699 -0.06737687 0.2930635 0.072636254 -0.02345432 -0.022922322 -0.026912123 -0.029640289
-0.18269764 -0.11803439 0.24881974 -0.07251418 -0.21648432 0.12252634 -0.13074397 -0.08658683
-0.045469202 -0.03565568 -0.09340579 0.19297425 0.009348851 0.0058492096 -0.07170393 -0.05411262
-0.06395575 -0.120248884 -0.10988611 0.04951903 0.0359295 -0.075407244 0.17460693 -0.09836214
0.02707312 -0.059972975 0.1419771 0.02165974 -0.0036809943 0.1041039 0.30542544 0.10867848
-0.21026307 -0.19457544 0.14724787 -0.24847901 -0.07874166 -0.25603706 0.12969849 0.07836491
0.01211081 -0.26009214 0.043458678 -0.027026022 -0.0017725246 -0.024654208 0.17639722 0.13891155
0.040426515 -0.109729454 -0.15082204 -0.28894475 -0.057376992 0.059578866 0.019466802 0.17759377
-0.055306904 -0.07263368 0.1171455 0.082294345 0.0016542402 0.06343247 0.043930057 0.17563653
-0.17391005 -0.11945434 0.22391227 0.122955605 0.018578624 -0.029191682 -0.10821126 0.014541005
-0.16013919 0.009362407 -0.065928094 -0.27228206 -0.027588107 -0.05356409 0.14921606 -0.038104136
-0.18989532 -0.15512438 0.06960258 -0.0711781 0.029833665 -0.047241185 -0.028860297 0.09466255
0.121955976 -0.061197463 0.06596257 -0.057208437 0.035696723 0.026228817 -0.022679703 -6.8661204e-05
-0.00083033566 0.06800925 0.10983949 0.07417791 0.02110064 0.007918568 0.08510411 -0.10738798
-0.02706976 -0.010438078 0.30329517 0.14457582 -0.14927316 0.07869919 0.27271122 0.038626958
0.014748062 -0.017149465 -0.021013504 0.005312649 0.03782061 -0.045162085 -0.03179095 -0.013541929
-0.09157093 -0.00606166 0.032306038 0.10898853 -0.037705533 0.0022984927 -0.046099827 -0.13192911
-0.055386137 0.05920763 -0.05069408 -0.21926868 0.15196542 0.14889275 -0.13564652 0.14479044

conv6.bias f4 [64]
00000000: 403f 783e 9e19 30bb 43ea b03d 999c 2a3e
00000010: 43f1 a43c b5c3 e53d 4011 c53d fde2 923d
00000020: cfee 3f3e 6ee7 083e fc57 65bd 50a9 393e
00000030: 20d6 ba3d d1d1 14bd bf1b 73bd 2187 02bd
00000040: 03fc 583e ea6c 98bd aa64 11bd ad93 57bd
00000050: 947b 54bd 299b a43c 1d7c b3bc 11c5 c8bc
00000060: 2fbb 17bd c0e2 853d 489d 5bbd 2085 89bd
00000070: e915 64bc b552 81bd 1fb4 45bd f535 f03d
00000080: 87ec eebc 3425 2a3c df03 aa3c e177 bdbc
00000090: 0fac bebc 6e57 a5bc 647c 8bbd 51dd c43d
000000a0: f28d acbd e1a4 05bd 7452 6a3d 0ac4 9a3c
000000b0: 9e0e 88bd f283 013c 02f6 003e c12c 003e
000000c0: 793b 263c aca5 413d 0610 03bb c38c 5a3d
000000d0: ddee 14bd 2762 44bd fa9e d03c 8075 933d
000000e0: 774b 9c3b d6d9 a63c 1fde f63d b5e6 6e3c
000000f0: b60e aebd 3757 013e 8acd 313e d0eb 7ebd
0.24242878 -0.0026870738 0.08638432 0.166613 0.020134574 0.11218969 0.09622431 0.07172201
0.18743442 0.13369533 -0.05599211 0.18130994 0.09122872 -0.03633291 -0.059352633 -0.03186715
0.21189885 -0.07442649 -0.03549639 -0.05263107 -0.051875666 0.020093517 -0.021909768 -0.024508031
-0.037043747 0.0653739 -0.053616792 -0.06714845 -0.013921239 -0.06314603 -0.04826748 0.117290415
-0.02916552 0.0103848465 0.020753799 -0.023128452 -0.023275403 -0.020183291 -0.06810835 0.09612525
-0.084255114 -0.032627944 0.05720754 0.018892307 -0.06643413 0.007904993 0.12593845 0.12517072
0.010146015 0.047277138 -0.0019998564 0.053356897 -0.03636061 -0.047945168 0.025466431 0.07200146
0.0047697383 0.020367544 0.12054085 0.014581372 -0.084989 0.12630926 0.17363563 -0.062236607
