model/model_30.pth (torch_old, 571877 bytes, 24 tensors)

conv1.weight f4 [32, 3, 2, 2]
-0.10942347 -0.11258825 -0.15275362 0.39132866 -0.59398603 0.15155485 -0.13719384 0.43147877
-0.29659805 -0.07472998 0.0034413324 0.2748711 0.20193012 -0.12970719 0.12201739 0.014912242
0.069862306 -0.0637008 0.32532173 0.039880645 -0.136675 -0.2454516 -0.04108914 -0.23726803
-0.119743355 0.043263007 0.12543929 0.22979268 -0.33482534 0.20167892 -0.043432504 0.31010053
0.13624811 -0.19917081 -0.46032214 -0.117413715 0.38679504 -0.048441943 0.0675816 -0.27624637
0.38777184 -0.23084329 0.16625743 -0.1941418 -0.05917865 0.016961418 -0.2144675 -0.14690645
-0.1571259 -0.10462452 -0.3721895 -0.2205622 0.19635612 -0.083667 0.3022801 0.22130308
-0.046306405 -0.28386402 0.15356395 0.023175586 -0.19079725 0.11668931 0.24087694 0.25593194
-0.19508786 -0.13287131 -0.005117239 -0.02334489 -0.3289516 -0.35830167 0.12071972 -0.17124063
0.03447378 -0.07586537 -0.0555094 -0.043429036 0.16648087 0.1584814 -0.2006501 0.19892551
-0.15859856 -0.21003886 -0.004614294 -0.10369398 0.23660141 0.05120847 -0.5717826 0.0597258
0.12736084 0.48805028 -0.11785082 -0.2446582 0.24301437 0.31716987 -0.3508637 -0.20604658
0.042559873 -0.28889015 0.18091564 -0.09753121 0.13457873 -0.45769498 0.41606525 0.03567382
-0.23095343 -0.40199462 0.554342 0.10453134 0.1448842 -0.03301778 0.03655801 0.15757611
0.21882086 -0.27657053 0.013040263 0.22448902 0.14920424 0.13963239 -0.19686629 -0.14792548
-0.117060244 0.040510383 0.2833078 -0.26662302 0.17022528 -0.1866494 -0.33802974 -0.12520944
0.21002133 0.26711464 -0.22564022 0.03179513 0.37192088 0.22308242 0.1258688 0.096673466
0.14152075 -0.016410204 -0.47631752 -0.5212401 -0.007978618 0.054593965 -0.27680343 0.045856427
0.012974392 0.008844114 -0.12549269 0.056481168 0.16100866 0.3308354 -0.18735556 0.38412747
-0.13570867 0.024767589 -0.42359078 -0.18256944 -0.3635952 -0.14972396 0.17842314 0.022103088
-0.26261577 0.21627864 0.091062434 0.3511284 -0.31379756 0.05570371 -0.24147649 -0.028831998
-0.53276694 -0.30818444 -0.24771778 0.1345567 -0.050995104 0.08192793 0.32022825 0.4710964
0.06700546 -0.06353124 -0.21221676 0.34545264 0.13083136 0.100880034 -0.21663849 -0.15084466
0.009786607 0.34115893 -0.16956894 -0.257622 0.11729066 -0.14879557 0.15610427 -0.20503247
0.021730402 -0.0951706 0.3416115 -0.37019548 0.22505352 -0.047128044 0.37549895 -0.46955866
0.1925763 -0.3584638 0.32113662 -0.3269624 -0.022973616 0.1467383 -0.22259384 0.21593967
-0.21732119 0.25042543 -0.2028548 0.29647586 -0.6053843 0.18102546 -0.0640993 0.28780136
0.11748223 -0.18556419 -0.17740151 0.29416612 -0.3986374 0.318801 -0.43378264 -0.19734445
0.24823986 0.01256148 0.0032366542 0.4043274 0.18981789 0.4462167 -0.26135582 -0.26864046
0.3224815 0.21753375 -0.28012413 0.07872045 -0.3124798 0.3301879 -0.1842899 -0.38110605
-0.26206747 -0.051479246 0.17114046 0.05417464 -0.35361058 -0.1517747 -0.42159364 -0.29312694
-0.16978665 0.2906656 0.3655218 0.05259214 -0.017805688 0.1968839 -0.117696874 -0.21590836
00000000: 6a19 e0bd ab94 e6bd 726b 1cbe 3b5c c83e
00000010: 780f 18bf 3231 1b3e 8b7c 0cbe c9ea dc3e
00000020: b3db 97be 080c 99bd fa87 613b e8bb 8c3e
00000030: c5c6 4e3e f6d1 04be 41e4 f93d 7a52 743c
00000040: f813 8f3d 9175 82bd 9290 a63e e359 233d
00000050: 88f4 0bbe aa57 7bbe 164d 28bd 64f6 72be
00000060: 013c f5bd 8d34 313d 2873 003e c64e 6b3e
00000070: 3a6e abbe eb84 4e3e 48e6 31bd 7fc5 9e3e
00000080: a084 0b3e 6ff3 4bbe 58af ebbe 9a76 f0bd
00000090: 000a c63e 0f6b 46bd 3968 8a3d 2a70 8dbe
000000a0: 088a c63e 2f62 6cbe 633f 2a3e 1ccd 46be
000000b0: 5065 72bd acf2 8a3c 5e9d 5bbe a56e 16be
000000c0: 9de5 20be 6145 d6bd 9f8f bebe 0fdb 61be
000000d0: 9411 493e 9b59 abbd 75c4 9a3e 469d 623e
000000e0: c9ab 3dbd a056 91be de3f 1d3e bada bd3c
000000f0: 5b60 43be cefa ee3d 72a8 763e 8309 833e
00000100: 1dc5 47be 6b0f 08be 83ae a7bb c83d bfbc
00000110: 586c a8be 5173 b7be e73b f73d b459 2fbe
00000120: 6134 0d3d 4e5f 9bbd d35d 63bd a5e2 31bd
00000130: f679 2a3e f348 223e 3877 4dbe 21b3 4b3e
00000140: a967 22be 6d14 57be 8133 97bb 825d d4bd
00000150: a447 723e f9bf 513d 5860 12bf 0aa3 743d
00000160: e16a 023e bae1 f93e c55b f1bd ae87 7abe
00000170: c2d8 783e 1764 a23e 68a4 b3be e0fd 52be
00000180: 4353 2e3d 69e9 93be f341 393e 71be c7bd
00000190: 02cf 093e ff56 eabe 8106 d53e b61e 123d
000001a0: 0e7f 6cbe 3dd2 cdbe 5be9 0d3f 8714 d63d
000001b0: 865c 143e a73d 07bd dabd 153d a25b 213e
000001c0: 9312 603e a79a 8dbe d4a6 553c 73e0 653e
000001d0: ffc8 183e cbfb 0e3e 5197 49be c779 17be
000001e0: 48bd efbd 37ee 253d b80d 913e d082 88be
000001f0: 894f 2e3e 0521 3fbe 3c12 adbe e736 00be
00000200: d50f 573e 40c3 883e 3b0e 67be 9c3b 023d
00000210: 6a6c be3e b86f 643e c0e3 003e bdfc c53d
00000220: d1ea 103e b16e 86bc e4df f3be fe6f 05bf
00000230: c0b8 02bc ec9d 5f3d 2eb9 8dbe f3d3 3b3d
00000240: 8b92 543c e7e6 103c 2881 00be cc58 673d
00000250: 74df 243e 4263 a93e 23da 3fbe 5bac c43e
00000260: 37f7 0abe 66e5 ca3c e4e0 d8be 7cf3 3abe
00000270: 2629 babe 3d51 19be 8eb4 363e 8911 b53c
00000280: 9375 86be 2678 5d3e f17e ba3d 1ac7 b33e
00000290: 13aa a0be 9329 643d 9d45 77be 1531 ecbc
000002a0: 6a63 08bf 5aca 9dbe bba9 7dbe 3bc9 093e
000002b0: 3ee0 50bd d5c9 a73d f5f4 a33e 8c33 f13e
000002c0: 293a 893d ab1c 82bd 5a4f 59be 2bdf b03e
000002d0: a8f8 053e 319a ce3d 7bd6 5dbe 0677 1abe
000002e0: 0158 203c 62ac ae3e 7ba3 2dbe 08e7 83be
000002f0: 1636 f03d de5d 18be ccd9 1f3e 08f4 51be
00000300: f503 b23c cee8 c2bd b4e7 ae3e 438a bdbe
00000310: 6e74 663e 5609 41bd 6641 c03e fe69 f0be
00000320: b932 453e 9188 b7be 056c a43e 9e67 a7be
00000330: 2a33 bcbc 9142 163e a4ef 63be 4a1f 5d3e
00000340: 7289 5ebe c337 803e 2bb9 4fbe afcb 973e
00000350: 77fa 1abf bd5e 393e 7e46 83bd b35a 933e
00000360: 869a f03d 8a04 3ebe bea8 35be f19c 963e
00000370: 341a ccbe e239 a33e c218 debe aa14 4abe
00000380: 9732 7e3e aace 4d3c 0c1e 543b 0004 cf3e
00000390: 9f5f 423e 8476 e43e 6ed0 85be 3e8b 89be
000003a0: 4c1c a53e 2bc1 5e3e 6e6c 8fbe 3038 a13d
000003b0: 5afd 9fbe 630e a93e 7eb6 3cbe 5520 c3be
000003c0: b52d 86be e7db 52bd 723f 2f3e 3ae6 5d3d
000003d0: 720c b5be d46a 1bbe 1fdb d7be bc14 96be
000003e0: 8ddc 2dbe 1fd2 943e ac25 bb3e db6a 573d
000003f0: 3cdd 91bc ef9b 493e 0f0b f1bd 1517 5dbe

conv1.bias f4 [32]
-0.37915516 -0.09311772 -0.49272883 -0.16907181 -0.38788453 -0.5047626 -0.55925655 0.13046564
0.085043944 -0.35180438 -0.40551677 -0.023538185 -0.0932439 -0.19675146 0.077126406 -0.39626786
-0.0831565 0.120024286 -0.1636378 -0.5285576 -0.5088335 -0.7543919 0.13479246 -0.6106015
0.051325426 -0.10355282 -0.36953864 -0.45911545 0.11446608 -0.4684189 -0.39776736 0.07047944
00000000: a020 c2be 81b4 bebd f446 fcbe 2921 2dbe
00000010: cd98 c6be 1f38 01bf 702b 0fbf c998 053e
00000020: 852b ae3d b41f b4be e59f cfbe 27d3 c0bc
00000030: a8f6 bebd 3779 49be 73f4 9d3d 9fe3 cabe
00000040: f44d aabd 4bcf f53d ab90 27be 8d4f 07bf
00000050: ea42 02bf d41f 41bf 0907 0a3e 6150 1cbf
00000060: 9c3a 523d 8013 d4bd 2b34 bdbe 2e11 ebbe
00000070: 316d ea3d 9ad4 efbe 2aa8 cbbe 8657 903d

conv2.weight f4 [32, 32, 2, 2]
-0.1974656 0.12041427 -0.095416225 -0.08759813 0.020394558 0.04378772 -0.069964506 0.012468563
-0.020038337 0.03219309 -0.20694456 -0.1782595 -0.09751704 -0.079123735 -0.033453137 -0.097946115
-0.09408723 0.02661162 -0.10997625 -0.1960075 -0.044466298 0.032922465 -0.031977687 0.07636978
0.03643751 0.1445946 -0.12476824 0.029762791 -0.30378574 -0.31993222 -0.053219672 -0.4446326
0.110022984 0.110382766 0.14157352 0.26790392 0.109717146 -0.08422319 0.123263836 0.103110954
-0.11252335 0.07234283 0.06680143 -0.023616027 -0.029306604 -0.26224008 0.17312166 -0.16144753
0.13051668 -0.03463256 0.07357432 -0.18113445 0.061534397 0.075785786 0.0063056555 -0.112445846
0.1100562 0.0065635014 0.1531309 0.11864445 -0.00030751407 0.31975615 -0.078876376 -0.079744644
0.15229379 -0.024262682 -0.19605279 -0.0094189495 0.0423613 -0.25107923 0.053296864 0.0027645074
0.06761369 0.049622092 -0.0842388 -0.20842683 -0.12458696 -0.25999323 0.053187195 0.09314248
0.291214 0.35714906 -0.43139845 -0.18436924 -0.27363354 -0.13476221 -0.054785904 -0.2150134
-0.12957795 -0.0016260147 -0.03519403 -0.016751986 0.49098822 0.2246318 -0.23996235 -0.28951696
-0.2903318 0.1014594 0.12835544 -0.28173783 0.13031659 0.111915134 -0.20043351 -0.22531599
-0.08797102 0.23519011 0.058468144 -0.061931767 -0.04540412 0.11045614 -0.0014348347 0.042989284
0.1493332 0.16914265 0.1775296 0.30406463 0.034407586 0.26051456 -0.33247828 -0.16112716
-0.2594376 0.1971416 -0.12409412 0.08508848 0.1545432 -0.070151925 0.07210526 0.07479101
-0.22757266 -0.124351345 -0.16953988 -0.27124768 -0.39249265 -0.23554541 -0.30721337 -0.34569916
-0.36752662 -0.45244634 -0.5427767 -0.3015199 -0.21005219 -0.4206751 -0.42066395 -0.43037245
-0.2303613 -0.26208416 -0.23189744 -0.30956036 0.18632671 0.21305552 0.17977282 0.23882735
-0.35067278 -0.31040302 -0.28663003 -0.27335167 -0.35447344 -0.34086195 -0.5348494 -0.3992401
-0.45329094 -0.11699218 -0.43850753 -0.3484906 -0.012019138 0.020227833 -0.13654482 0.052200485
0.028927756 -0.07570107 0.025516374 0.11746205 0.10565784 0.12796517 0.114856094 0.20087433
-0.42562807 -0.58507764 -0.66569066 -0.5090925 -0.09968542 -0.15984309 -0.11822313 -0.13699552
-0.17682484 -0.31235296 -0.079164624 -0.18155248 0.22431576 0.17349364 0.25193104 0.26094306
-0.23177944 -0.025628483 -0.063811995 -0.06343771 -0.19409312 -0.25555766 -0.17950521 -0.24826437
0.018556222 0.019758794 0.09556934 0.035968382 -0.18356363 -0.25128797 -0.012334572 -0.13735178
0.33564264 0.39268312 0.32925418 0.4431723 0.20390733 0.0069046803 0.28374636 0.02840944
-0.3708986 -0.37726495 -0.5638521 -0.31038243 -0.23756006 -0.2825943 -0.2816431 -0.27029106
-0.4800081 -0.42550516 -0.6128371 -0.44630748 0.096055575 -0.026534554 -0.048840724 0.001531379
-0.22242345 -0.17606641 -0.17646238 -0.026006915 -0.048276212 0.0043377792 0.006409331 -0.011332574
-0.17494151 0.015182399 -0.073686644 -0.055263296 -0.03524833 0.015814645 -0.18542752 -0.02432851
-0.07344853 -0.037928805 0.04098378 0.03046261 -0.4718044 -0.31305006 -0.35335317 -0.39274415
00000000: 6c34 4abe c29b f63d 9569 c3bd a666 b3bd
00000010: 7d12 a73c c15a 333d 8d49 8fbd f248 4c3c
00000020: 7027 a4bc e7dc 033d 46e9 53be a989 36be
00000030: 04b7 c7bd a00b a2bd 2806 09bd f997 c8bd
00000040: ceb0 c0bd 9d00 da3c 3a3b e1bd 31b6 48be
00000050: 4b22 36bd b5d9 063d 09fb 02bd c267 9c3d
00000060: 803f 153d 9b10 143e 7e86 ffbd 19d1 f33c
00000070: ce89 9bbe 28ce a3be dffc 59bd e2a6 e3be
00000080: bb53 e13d 5c10 e23d a6f8 103e b42a 893e
00000090: 62b3 e03d 357d acbd c071 fc3d d62b d33d
000000a0: a472 e6bd 7a28 943d 30cf 883d 6676 c1bc
000000b0: 6714 f0bc 5544 86be ce46 313e 8052 25be
000000c0: 2aa6 053e dfda 0dbd 22ae 963d 4f7b 39be
000000d0: 7e0b 7c3d 9435 9b3d ac9f ce3b 024a e6bd
000000e0: 2565 e13d a412 d73b 59ce 1c3e ddfb f23d
000000f0: d739 a1b9 14b7 a33e f089 a1bd 2951 a3bd
00000100: e7f2 1b3e 88c2 c6bc 10c2 48be f051 1abc
00000110: 0b83 2d3d 758d 80be d04d 5a3d bd2c 353b
00000120: 0c79 8a3d 8940 4b3d 6485 acbd d86d 55be
00000130: 7327 ffbd d51d 85be d1da 593d 7cc1 be3d
00000140: 001a 953e 3edc b63e 42e0 dcbe 4acb 3cbe
00000150: b219 8cbe 1bff 09be 2f67 60bd 792c 5cbe
00000160: 15b0 04be 0020 d5ba 9d27 10bd 763b 89bc
00000170: cf62 fb3e e105 663e b1b8 75be 913b 94be
00000180: 5fa6 94be f2c9 cf3d 9c6f 033e f13f 90be
00000190: b671 053e c333 e53d 713e 4dbe 3cb9 66be
000001a0: 262a b4bd add5 703e 4b7c 6f3d 2aac 7dbd
000001b0: acf9 39bd d436 e23d 1011 bcba 8815 303d
000001c0: cdea 183e bb33 2d3e 52ca 353e 5cae 9b3e
000001d0: f8ee 0c3d 2a62 853e 983a aabe 85fe 24be
000001e0: 01d5 84be 7ddf 493e 0f25 febd de42 ae3d
000001f0: 9340 1e3e d0ab 8fbd ecab 933d 072c 993d
00000200: cf08 69be ebab febd dd9b 2dbe fae0 8abe
00000210: ccf4 c8be d132 71be 124b 9dbe 7bff b0be
00000220: 732c bcbe 0ca7 e7be 6af3 0abf d160 9abe
00000230: ec17 57be ba62 d7be 4461 d7be c759 dcbe
00000240: d5e3 6bbe e52f 86be 8676 6dbe b27e 9ebe
00000250: 6ecc 3e3e 3a2b 5a3e 5e16 383e 288f 743e
00000260: 628b b3be 25ed 9ebe 2cc1 92be c0f4 8bbe
00000270: 8b7d b5be 7585 aebe e4eb 08bf 3369 ccbe
00000280: c015 e8be 9999 efbd 0f84 e0be 5c6d b2be
00000290: ebeb 44bc d7b4 a53c 68d2 0bbe 2dd0 553d
000002a0: e7f9 ec3c 2a09 9bbd b707 d13c f18f f03d
000002b0: 2363 d83d 4d09 033e ac39 eb3d 00b2 4d3e
000002c0: eceb d9be a6c7 15bf b46a 2abf e353 02bf
000002d0: df27 ccbd e8ad 23be f81e f2bd 8e48 0cbe
000002e0: 9211 35be baec 9fbe 1021 a2bd e5e8 39be
000002f0: 08b3 653e 51a8 313e 1bfd 803e 549a 853e
00000300: 9757 6dbe d3f2 d1bc ddaf 82bd a1eb 81bd
00000310: 59c0 46be 74d8 82be 37d0 37be 0439 7ebe
00000320: 3803 983c 32dd a13c dcb9 c33d 9553 133d
00000330: 1bf8 3bbe d1a8 80be f216 4abc f2a5 0cbe
00000340: 5ad9 ab3e c30d c93e 0194 a83e 7be7 e23e
00000350: 15cd 503e a840 e23b 3447 913e eaba e83c
00000360: 6ce6 bdbe df28 c1be 9c58 10bf 72ea 9ebe
00000370: f242 73be 33b0 90be 8633 90be 9763 8abe
00000380: 9fc3 f5be d0db d9be e4e2 1cbf 6a82 e4be
00000390: c9b8 c43d fe5e d9bc 360d 48bd 8db8 c83a
000003a0: f9c2 63be c14a 34be 8eb2 34be 740c d5bc
000003b0: 47bd 45bd ee23 8e3b 5e05 d23b 43ac 39bc
000003c0: de23 33be 99bf 783c 06e9 96bd c45b 62bd
000003d0: 8e60 10bd b78d 813c b6e0 3dbe 954c c7bc
000003e0: 2f6c 96bd 3c5b 1bbd 9cde 273d b98c f93c
000003f0: 5990 f1be 1948 a0be b5ea b4be c315 c9be

conv2.bias f4 [32]
0.046483375 -0.07516718 -0.10620877 -0.15136816 0.1189529 -0.09038321 -0.14534537 0.15063311
-0.061271142 0.14831214 -0.20295712 0.18931435 0.1028246 -0.11786617 -0.45367935 -0.1149933
0.010507801 0.0034022264 0.0517116 0.11795938 0.05014717 -0.21041523 0.046406955 0.13376525
-0.066410355 0.19275536 0.03405744 -0.12504102 0.0062071574 0.20425613 0.27419576 -0.15473646
00000000: 5a65 3e3d 40f1 99bd fc83 d9bd 4100 1bbe
00000010: 949d f33d d51a b9bd 6bd5 14be 913f 1a3e
00000020: 73f7 7abd 23df 173e fed3 4fbe 9fdb 413e
00000030: b495 d23d d263 f1bd a948 e8be 9b81 ebbd
00000040: e928 2c3c e3f7 5e3b 8bcf 533d b094 f13d
00000050: 1e67 4d3d 1777 57be 3815 3e3d c2f9 083e
00000060: 2702 88bd a961 453e d07f 0b3d c10a 00be
00000070: 6965 cb3b 8528 513e 6363 8c3e 3c73 1ebe

conv3.weight f4 [64, 32, 2, 2]
-0.10259313 0.090703465 0.010391047 0.294888 0.039652854 -0.2199423 0.23554157 -0.20481654
0.059657857 0.0732221 0.090541326 0.030058619 0.032770418 -0.05884943 0.01451909 -0.03322069
-0.38361618 -0.3204054 -0.23223649 -0.2742009 -0.071721755 0.0482938 -0.0583845 0.04123001
0.029881464 -0.03259451 -0.046439733 -0.06557164 -0.1471767 -0.21068865 -0.31212533 -0.42270955
-0.028951067 -0.09234055 0.026125025 -0.025187235 0.25372472 -0.07130217 0.24312717 -0.39166296
0.18221815 0.30929568 0.22498578 0.3010154 0.05081561 0.09234792 0.026657438 0.04537722
-0.018105354 -0.3666391 0.3874186 -0.043211125 0.19372955 0.20770247 -0.05706028 -0.47447014
-0.13691396 -0.05668774 -0.033732183 -0.23785 0.11429968 0.076116815 0.058635883 0.049263272
0.06797692 0.060166467 0.08840685 -0.010289012 0.045851063 0.06817737 -0.10906271 -0.098661736
0.15822308 -0.010939908 -0.12811606 -0.03507735 0.26857224 -0.042664457 0.12272487 0.01991799
-0.2614347 0.049003024 0.051178016 0.15946695 0.19583774 0.15498585 -0.04043014 0.099057384
-0.08539044 -0.021094412 -0.06397604 -0.030805634 -0.39004472 -0.13481727 0.3583732 0.20659332
0.14841114 -0.23192741 0.2657353 -0.21379778 0.39564642 -0.19269434 0.02233249 -0.31954354
0.06995078 -0.15576485 -0.19622132 -0.11878971 0.06716719 0.012745498 -0.079393454 -0.010751064
0.03255163 0.04065374 0.102725826 0.045403782 0.24896035 -0.08992243 0.15710492 0.0054259677
0.060488034 0.2688718 0.11738042 0.22699489 0.010108359 0.016236404 0.1057284 -0.04419579
-0.20881099 -0.5496864 0.06224821 -0.016355434 0.23973426 -0.09247685 0.2510368 0.20680669
0.037951894 0.002729123 -0.10473322 -0.08102397 -0.06297825 -0.10160633 0.03639583 0.05983155
-0.08310939 -0.15370508 -0.18477885 -0.094246164 -0.007380301 -0.02563022 -0.025537461 0.06001095
-0.01475258 0.025620101 0.05798407 0.036786813 -0.03118327 -0.28801605 0.027630959 -0.17567597
-0.008587695 0.013878811 -0.014573884 -0.018927868 0.1014944 0.15583852 -0.09955618 -0.218975
-0.05791533 0.051356863 -0.2559706 -0.12164774 0.045276783 -0.33974358 0.23979965 -0.07866833
0.20929497 0.26131442 -0.081725225 -0.18824226 0.1010018 0.08014795 0.11021686 0.25458613
-0.3180867 -0.035183597 -0.2740808 0.051388808 -0.030785486 0.07717635 -0.038239058 0.02102909
0.1603399 0.015201756 -0.009853667 0.051775362 -0.016004778 -0.06857414 -0.076618776 0.08034685
0.044959426 -0.033143386 -0.35549614 -0.17303713 -0.13320453 0.026454207 -0.52317435 -0.09556553
-0.13405581 -0.023707436 -0.3230922 -0.36015674 -0.055412583 -0.022940414 0.02364467 0.1289879
0.038583536 0.06353742 0.07420752 0.1739493 -0.23510814 -0.27515572 0.12907432 -0.030033352
0.23065454 0.26751143 -0.12208374 -0.019660097 0.22100382 0.11720752 -0.13896498 -0.1915264
-0.29276764 -0.7532839 -0.2384222 -0.47850084 0.017388474 -0.075360045 0.037650168 0.082027785
0.23327899 0.0916062 -0.29641545 -0.08713494 0.07049671 0.2050613 -0.1976109 0.05864335
0.1345286 0.08136471 0.083648324 -0.64392936 -0.054241188 0.031608474 -0.05865214 0.006087274
00000000: 591c d2bd bdc2 b93d 363f 2a3c 8ffb 963e
00000010: 086b 223d 8e38 61be cf31 713e 6dbb 51be
00000020: cc5b 743d 78f5 953d bb6d b93d 7e3d f63c
00000030: 463a 063d 1a0c 71bd 7ae1 6d3c 6b12 08bd
00000040: 5769 c4be 2d0c a4be 67cf 6dbe 0f64 8cbe
00000050: dbe2 92bd b8cf 453d 9624 6fbd cde0 283d
00000060: f9c9 f43c d281 05bd 9737 3ebd 6d4a 86bd
00000070: 7db5 16be c4be 57be e4ce 9fbe 636d d8be
00000080: ca2a edbc 0b1d bdbd 2604 d63c 7655 cebc
00000090: 35e8 813e df06 92bd 54f6 783e 0c88 c8be
000000a0: 6597 3a3e 015c 9e3e ac62 663e b11e 9a3e
000000b0: 0724 503d e820 bd3d b360 da3c 77dd 393d
000000c0: ae51 94bc 1fb8 bbbe bb5b c63e 26fe 30bd
000000d0: 0a61 463e f5af 543e 0ab8 69bd c0ed f2be
000000e0: 2c33 0cbe 6731 68bd c22a 0abd f38e 73be
000000f0: f315 ea3d 22e3 9b3d 2e2c 703d 49c8 493d
00000100: 7c37 8b3d 1d71 763d a70e b53d 3f93 28bc
00000110: 53ce 3b3d 94a0 8b3d 455c dfbd 2a0f cabd
00000120: 3b05 223e 4d3d 33bc db30 03be 44ad 0fbd
00000130: 4d82 893e edc0 2ebd 2d57 fb3d 0d2b a33c
00000140: c5da 85be 65b7 483d 0aa0 513d 4e4b 233e
00000150: b089 483e 9cb4 1e3e 139a 25bd 99de ca3d
00000160: 2fe1 aebd 30ce acbc df05 83bd 195c fcbc
00000170: f1b3 c7be 8a0d 0abe b17c b73e 338d 533e
00000180: 17f9 173e 617e 6dbe 750e 883e ceed 5abe
00000190: 2b92 ca3e aa51 45be a0f2 b63c 369b a3be
000001a0: 5b42 8f3d d280 1fbe 3eee 48be 0548 f3bd
000001b0: f48e 893d 7ed2 503c 0999 a2bd 3b25 30bc
000001c0: dc54 053d 8984 263d eb61 d23d 51f9 393d
000001d0: 76ef 7e3e 4029 b8bd 1de0 203e 51cc b13b
000001e0: 4dc2 773d 91a9 893e 2565 f03d 5971 683e
000001f0: 889d 253c 3502 853c 2288 d83d a506 35bd
00000200: 8cd2 55be 3fb8 0cbf fbf7 7e3d d5fb 85bc
00000210: e67c 753e 8164 bdbd e587 803e 22c5 533e
00000220: 7273 1b3d 16db 323b 5f7e d6bd e5ef a5bd
00000230: befa 80bd fb16 d0bd cb13 153d ed11 753d
00000240: 4235 aabd dd64 1dbe ab36 3dbe 2204 c1bd
00000250: 74d6 f1bb 78f6 d1bc f033 d1bc 0bce 753d
00000260: ceb4 71bc 3fe1 d13c b480 6d3d c5ad 163d
00000270: 0f74 ffbc d776 93be 525a e23c 67e4 33be
00000280: 67b3 0cbc f463 633c 4dc7 6ebc 9e0e 9bbc
00000290: 4cdc cf3d 2294 1f3e 1ce4 cbbd fb3a 60be
000002a0: a038 6dbd 935b 523d 940e 83be 7322 f9bd
000002b0: 2674 393d dff2 adbe 0a8e 753e dd1c a1bd
000002c0: 6c51 563e 01cb 853e 8e5f a7bd 94c2 40be
000002d0: 08da ce3d 9c24 a43d 61b9 e13d 1d59 823e
000002e0: 43dc a2be ad1c 10bd 5254 8cbe 127d 523d
000002f0: d831 fcbc a20e 9e3d 8fa0 1cbd 3345 ac3c
00000300: 2530 243e c910 793c 4671 21bc 6712 543d
00000310: 741c 83bc 9970 8cbd 4eea 9cbd e48c a43d
00000320: 6027 383d 5cc1 07bd 9703 b6be a530 31be
00000330: c566 08be 7eb6 d83c c1ee 05bf dcb7 c3bd
00000340: ed45 09be 1936 c2bc 576c a5be 7766 b8be
00000350: 4ef8 62bd 89ed bbbc 78b2 c13c 6715 043e
00000360: c509 1e3d e81f 823d 1dfa 973d c41f 323e
00000370: 30c0 70be 36e1 8cbe 0f2c 043e 8108 f6bc
00000380: b430 6c3e 42f7 883e 0a07 fabd 360e a1bc
00000390: d34e 623e 7f0a f03d d64c 0ebe 7f1f 44be
000003a0: a4e5 95be 37d7 40bf f324 74be 10fe f4be
000003b0: 4672 8e3c 5e56 9abd 1037 1a3d 2ffe a73d
000003c0: b0e0 6e3e 089c bb3d c4c3 97be ce73 b2bd
000003d0: 9460 903d 97fb 513e 835a 4abe 0234 703d
000003e0: dec1 093e 8ba2 a63d d04f ab3d 8ed8 24bf
000003f0: 022c 5ebd e377 013d 3a3d 70bd c177 c73b

conv3.bias f4 [64]
0.0022484292 0.34599113 0.14696288 -0.40101212 0.041513477 -0.023955693 0.11617125 -0.08747033
0.13383508 0.13428241 -0.36956048 -0.08968585 0.04031728 -0.10693751 0.10312874 0.15129437
-0.04602276 0.031826798 0.04327734 0.06334925 0.12650067 -0.0015807109 -0.46643153 -0.14011382
0.0011335926 -0.16341771 0.3487793 0.085456945 0.24414387 0.14425538 0.12928525 0.20797852
-0.083017066 0.22444998 -0.06642691 -0.21829814 0.029606037 0.25023153 -0.22279558 0.0341067
0.0907973 0.18267816 0.030964987 -0.16641876 0.049705483 -0.03536107 0.05869498 0.1107809
-0.042790167 -0.06447333 0.08087627 -0.09519822 0.05698387 -0.1690079 0.13077451 -0.009399933
-0.1286718 0.029081438 -0.11051198 -0.20040765 0.079066224 0.007484385 -0.1425128 -0.043612827
00000000: 625a 133b c025 b13e 707d 163e 7651 cdbe
00000010: 090a 2a3d bb3e c4bc 31eb ed3d a523 b3bd
00000020: 100c 093e 5481 093e 0837 bdbe 37ad b7bd
00000030: bb23 253d 0e02 dbbd 2935 d33d e9ec 1a3e
00000040: 5d82 3cbd d15c 023d 9443 313d 40bd 813d
00000050: 6489 013e db2f cfba 1dd0 eebe ff79 0fbe
00000060: 0e95 943a f956 27be 3393 b23e 0d04 af3d
00000070: da00 7a3e afb7 133e 5a63 043e 52f8 543e
00000080: da04 aabd 37d6 653e d50a 88bd 8c89 5fbe
00000090: 5c88 f23c 591e 803e 8624 64be 78b3 0b3d
000000a0: eff3 b93d fc0f 3b3e 49aa fd3c ae69 2abe
000000b0: fa97 4b3d c5d6 10bd 266a 703d 19e1 e23d
000000c0: be44 2fbd 980a 84bd 75a2 a53d 49f7 c2bd
000000d0: eb67 693d 6810 2dbe c1e9 053e 2d02 1abc
000000e0: 8ac2 03be 323c ee3c 1b54 e2bd aa37 4dbe
000000f0: 79ed a13d 923f f53b e0ee 11be 5da3 32bd

conv4.weight f4 [64, 64, 2, 2]
0.043492384 -0.19716017 -0.085574925 -0.5659421 -0.22666417 0.2343444 -0.2084586 0.06097997
-0.38848493 0.11565897 -0.28054085 -0.04340445 -0.106867395 -0.19187953 -0.16415125 -0.18363568
0.13684933 0.09784611 0.083030194 -0.33186993 -0.2446086 -0.33622462 -0.12912424 -0.1958571
0.03748382 -0.5693025 0.13267075 -0.17225103 -0.053499866 0.028828831 0.17905268 0.02657313
0.1697389 -0.19421098 0.29978007 0.034373548 -0.19381607 -0.2827662 -0.118245 -0.12960854
-0.13026862 0.0248405 -0.26250514 -0.4178938 -0.4805576 0.09950267 -0.47852266 -0.44763103
-0.36129513 0.039524052 -0.09740913 -0.2610314 -0.020088853 -0.07199726 0.047633313 -0.080394655
0.26301768 -0.02214746 0.44785914 0.2660393 -0.13856381 -0.19909884 0.2629436 -0.013068886
-0.09048952 0.05669319 -0.3387314 -0.017361114 -0.20504384 -0.045940835 -0.094471045 -0.36368757
0.14605808 -0.18835494 0.056214847 0.08163342 -0.3812349 -0.11687068 -0.25727051 -0.075619616
-0.14979307 0.36727065 -0.012988791 0.11519958 -0.380266 0.48397228 0.02684501 -0.04782759
0.04384397 0.038952366 -0.3232938 0.08313068 -0.027955234 0.042950787 0.034015637 0.084612645
-0.49029627 -0.13721521 -0.19836447 0.25856173 0.031750347 0.28275564 -0.13674223 0.15797305
0.1122711 -0.18700229 0.20844337 -0.08827506 -0.22286044 -0.5165582 -0.15617426 -0.3545216
-0.16027293 -0.46329758 0.039891396 -0.23368232 -0.15266293 -0.25358245 -0.53030276 -0.365832
0.063346766 0.28276658 0.028479937 -0.26143017 -0.15104711 0.2091 -0.23340099 0.09219377
-0.17531538 -0.110134475 -0.2165275 -0.17447324 0.07105449 -0.3540297 0.024688903 0.16837317
0.07948021 -0.14125021 -0.22190714 0.198136 -0.14143713 0.044342965 -0.10830866 0.015162157
-0.039914053 -0.058671653 0.17620236 0.13875389 0.09318993 0.043519445 0.15017569 0.039179046
-0.16719286 0.03036367 -0.502457 -0.5164474 -0.3230012 0.1328077 -0.29689157 -0.11119122
-0.15923855 0.20217326 -0.19800684 0.31198722 -0.21653193 -0.017530613 -0.041857254 -0.09637332
0.14473876 -0.14374712 -0.122803226 -0.2696673 -0.062022813 -0.04994573 -0.033401646 0.0019466849
0.097302854 0.08856487 -0.011764758 0.34717724 -0.1333039 0.022250379 -0.37712428 -0.13298857
-0.01471607 -0.40097597 0.24480385 -0.38705984 0.10358775 -0.56617445 0.1828711 -0.08885225
-0.29192215 0.2410007 -0.17664254 0.09064368 -0.05775533 -0.2327391 0.35857666 -0.13813756
0.16562136 -0.15975112 0.37625456 0.12098348 -0.08458248 0.03763355 0.034837198 0.069431156
0.12353163 0.024798453 0.25387937 0.24495526 0.1850977 -0.40727597 -0.060925048 -0.12117335
0.31935865 -0.23397286 0.33409 0.33486766 -0.29475182 -0.22981715 -0.108850665 0.020776145
0.14820601 0.19683036 -0.120926976 0.34727007 -0.2659124 0.17257805 -0.42493373 -0.10185563
-0.13314573 0.15065226 0.101064324 -0.3394915 -0.094780676 -0.0970034 0.011188057 0.008777248
0.046401106 -0.26098776 0.33898044 -0.37617564 0.033565354 -0.37492505 0.19948202 0.0023532987
-0.24953568 0.12645043 -0.09216556 -0.18114175 -0.18512756 0.13776863 -0.21119446 0.11104693
00000000: 1225 323d 5be4 49be e841 afbd 95e1 10bf
00000010: a71a 68be faf7 6f3e 2c76 55be 22c6 793d
00000020: 7fe7 c6be 9cde ec3d 0da3 8fbe ddc8 31bd
00000030: 4bdd dabd 117c 44be 4417 28be fe0a 3cbe
00000040: 3b22 0c3e 8b63 c83d bc0b aa3d dbea a9be
00000050: ad7a 7abe a225 acbe 2539 04be c38e 48be
00000060: a288 193d cfbd 11bf d7da 073e 9362 30be
00000070: ad22 5bbd 712a ec3c 9659 373e e5af d93c
00000080: 09d0 2d3e 3edf 46be c67c 993e 47cb 0c3d
00000090: b877 46be bbc6 90be 6f2a f2bd 1ab8 04be
000000a0: 2365 05be 4e7e cb3c 1367 86be 2df6 d5be
000000b0: a50b f6be 0ec8 cb3d ec00 f5be e52f e5be
000000c0: adfb b8be f9e3 213d 707e c7bd e8a5 85be
000000d0: 6191 a4bc 4d73 93bd 261b 433d f4a5 a4bd
000000e0: 41aa 863e 976e b5bc cb4d e53e 4e36 883e
000000f0: ace3 0dbe 91e0 4bbe 8ba0 863e e11e 56bc
00000100: 9252 b9bd 1e37 683d 346e adbe e538 8ebc
00000110: 03f7 51be 752c 3cbd 097a c1bd 4235 babe
00000120: 4090 153e 1ee0 40be 8a41 663d 6c2f a73d
00000130: 3931 c3be e559 efbd f6b8 83be 75de 9abd
00000140: 5b63 19be e60a bc3e f0ce 54bc c2ed eb3d
00000150: 3ab2 c2be 37cb f73e 11ea db3c dde6 43bd
00000160: bc95 333d 848c 1f3d c486 a5be 6b40 aa3d
00000170: 6002 e5bc 2aed 2f3d fb53 0b3d 6549 ad3d
00000180: 1d08 fbbe 2582 0cbe 0e20 4bbe 3462 843e
00000190: a70c 023d 59c5 903e 2806 0cbe b0c3 213e
000001a0: 64ee e53d 877d 3fbe 2e72 553e 8ec9 b4bd
000001b0: 8735 64be 283d 04bf 25ec 1fbe db83 b5be
000001c0: 961e 24be 5735 edbe 2965 233d 6b4a 6fbe
000001d0: ac53 1cbe 8fd5 81be ecc1 07bf 554e bbbe
000001e0: f3bb 813d c8c6 903e c24e e93c 2dda 85be
000001f0: 18ac 1abe 4f1e 563e ab00 6fbe 16d0 bc3d
00000200: e085 33be 2f8e e1bd 63b9 5dbe 1da9 32be
00000210: 0485 913d 6143 b5be 6240 ca3c 046a 2c3e
00000220: 85c6 a23d e5a3 10be a03b 63be 2ae4 4a3e
00000230: e5d4 10be f8a0 353d eed0 ddbd b26a 783c
00000240: eb7c 23bd b051 70bd 646e 343e 8015 0e3e
00000250: 5dda be3d 7241 323d a8c7 193e 357a 203d
00000260: 9b34 2bbe 3bbd f83c 06a1 00bf e635 04bf
00000270: 6a60 a5be befe 073e 2c02 98be 39b8 e3bd
00000280: 6e0f 23be 8206 4f3e 4ec2 4abe cabc 9f3e
00000290: 8cba 5dbe 5c9c 8fbc 8372 2bbd 605f c5bd
000002a0: 6636 143e 7232 13be 4280 fbbd d511 8abe
000002b0: a20b 7ebd e593 4cbd 2ad0 08bd e827 ff3a
000002c0: b846 c73d 8061 b53d f9c0 40bc 37c1 b13e
000002d0: d180 08be 6d46 b63c 6f16 c1be 282e 08be
000002e0: ac1b 71bc b94c cdbe dcad 7a3e b52c c6be
000002f0: d025 d43d cff0 10bf 9042 3b3e 2bf8 b5bd
00000300: d276 95be e3c8 763e c8e1 34be 65a3 b93d
00000310: da90 6cbd 2953 6ebe 5c97 b73e ef73 0dbe
00000320: a598 293e cc95 23be 70a4 c03e 30c6 f73d
00000330: 9439 adbd a325 1a3d 73b1 0e3d ec31 8e3d
00000340: 27fe fc3d 2026 cb3c 7afc 813e 8dd5 7a3e
00000350: 408a 3d3e 7a86 d0be 8b8c 79bd bc29 f8bd
00000360: fa82 a33e 9596 6fbe d80d ab3e c673 ab3e
00000370: b6e9 96be 3055 6bbe 19ed debd bc32 aa3c
00000380: 51c3 173e e68d 493e 90a8 f7bd 62cd b13e
00000390: ac25 88be 4db8 303e ea90 d9be af99 d0bd
000003a0: 5b57 08be 9644 1a3e d0fa ce3d d4d1 adbe
000003b0: 5f1c c2bd b8a9 c6bd 1d4e 373c 72ce 0f3c
000003c0: 160f 3e3d 30a0 85be d88e ad3e 189a c0be
000003d0: d37b 093d 2df6 bfbe 0445 4c3e cd39 1a3b
000003e0: 4886 7fbe 397c 013e 4cc1 bcbd 397d 39be
000003f0: 1492 3dbe 3813 0d3e 5c43 58be 936c e33d

conv4.bias f4 [64]
-0.07711282 -0.080268435 -0.005338966 -0.10206627 0.08280426 0.13706926 0.004248168 -0.056598186
-0.13873297 0.21708506 -0.09704897 -0.027554573 0.12258328 0.29457724 0.11838703 0.16954876
0.009920605 -0.13887265 0.16301055 0.042143974 0.37014976 0.08782086 -0.31613663 -0.04786823
-0.09143971 0.18448873 -0.046863806 0.31668466 0.09035008 0.123848215 -0.15027507 0.08596622
0.25516278 0.13988948 -0.11199369 -0.1374693 -0.07096115 -0.22505742 -0.2982172 -0.24165775
0.056848813 -0.30068493 0.01338177 0.075563334 0.10328869 -0.07018141 0.10520433 -0.14539792
0.15976934 -0.18209188 -0.09501727 0.00057741726 0.17167418 0.26917207 0.27038786 -0.10358244
-0.02544389 0.016157117 -0.063975796 -0.09897857 0.1340209 0.18243764 -0.10564591 -0.071956225
00000000: 54ed 9dbd c763 a4bd 7ef2 aebb 1f08 d1bd
00000010: 4895 a93d e25b 0c3e 3734 8b3b 80d3 67bd
00000020: 0410 0ebe 8c4b 5e3e 9cc1 c6bd 21ba e1bc
00000030: f10c fb3d d4d2 963e e674 f23d 319e 2d3e
00000040: 098a 223c a234 0ebe 3dec 263e 299f 2c3d
00000050: 4584 bd3e 6cdb b33d a9dc a1be 7a11 44bd
00000060: be44 bbbd 9dea 3c3e 43f4 3fbd 7e24 a23e
00000070: 7609 b93d 22a4 fd3d b5e1 19be 0f0f b03d
00000080: b2a4 823e 303f 0f3e f35c e5bd c1c4 0cbe
00000090: 1454 91bd 7475 66be edaf 98be 2175 77be
000000a0: 4dda 683d 60f3 99be 363f 5b3c f3c0 9a3d
000000b0: 0589 d33d 45bb 8fbd 5e75 d73d 31e3 14be
000000c0: 939a 233e 4b76 3abe 6a98 c2bd d15d 173a
000000d0: 5bcb 2f3e ecd0 893e 4770 8a3e 0823 d4bd
000000e0: b46f d0bc ee5b 843c be05 83bd 47b5 cabd
000000f0: c63c 093e efd0 3a3e e25c d8bd c95d 93bd

conv5.weight f4 [128, 64, 2, 2]
-0.037600946 -0.18362223 -0.12725075 -0.21643974 0.020847756 -0.05123222 0.026554182 -0.084565185
0.16944782 0.0194299 0.19000807 -0.21727794 -0.20785028 0.025909463 -0.22160727 -0.14316039
-0.43398452 -0.5455223 -0.14497834 -0.30104882 -0.3392683 0.035211902 -0.12479746 -0.16988032
-0.1564799 0.024299717 0.06941591 0.04274005 -0.25197098 -0.2416571 -0.2024963 -0.036112916
-0.05856117 -0.4338475 -0.03767702 -0.09167658 0.149373 -0.03702436 0.2720441 -0.05370837
-0.16864298 -0.31516013 0.03622415 0.12992772 -0.41197127 -0.062788956 0.03458076 0.29446453
-0.22003886 -0.7947166 -0.049669605 -0.13937761 -0.2664665 -0.010567733 -0.20692457 0.05914596
-0.028868988 -0.17728096 -0.38943055 0.21882755 -0.29965463 0.10295135 0.07678044 -0.019565314
0.2632683 0.22412583 -0.46013 -0.31049937 -0.0030755335 0.013189336 0.014591348 0.05747976
0.04337077 0.2655965 -0.31299925 -0.17479861 0.11586937 -0.1565994 0.046052925 0.20159069
0.11550697 -0.0029519885 0.11931875 0.04033801 -0.035692476 -0.09966459 -0.02095818 0.12316412
-0.3349668 0.04444043 -0.009013944 0.33029595 -0.39276737 -0.28130016 0.08241775 -0.0082708765
-0.072994895 -0.0319835 -0.075987674 -0.08296072 -0.15539078 -0.21312797 0.33670938 0.15702003
-0.0077750995 -0.06219157 0.22450733 -0.51420486 0.47934172 -0.041898325 0.25742534 0.16395439
0.15571143 0.024702445 0.65122247 -0.052505113 0.19555636 0.26380333 0.36830458 0.31184238
-0.043987896 0.035103615 -0.03246812 -0.19357929 0.22037809 -0.18376881 0.21692644 -0.35911667
-0.10712991 -0.062360663 -0.08331264 -0.080905706 -0.26634383 -0.0071367812 -0.06607984 -0.03653461
0.41374126 0.5933655 0.1998824 0.466004 -0.1880207 0.27466586 -0.3132731 -0.015867878
0.040392183 0.06766028 0.026886765 -0.276585 -0.35722387 -0.28001076 -0.16116695 0.29797757
-0.028847713 0.38319114 -0.11051272 -0.239569 -0.18752208 -0.1745234 -0.49193144 -0.25524548
-0.086698286 -0.28910807 0.24443822 -0.054303627 -0.36871094 -0.24389039 -0.20816842 -0.29660335
-0.046735622 0.090355255 -0.19269018 -0.4061819 0.080686174 0.14103965 0.12040132 0.38063043
-0.06922881 -0.22902222 -0.0007819357 -0.21929742 0.042830918 0.12561855 -0.22303478 -0.098144956
-0.43884557 -0.022607276 -0.45474195 -0.3224757 0.17109197 -0.09357844 -0.28814718 -0.35308152
-0.13230123 -0.024939008 -0.15051381 -0.0502023 0.15378343 -0.7342706 -0.2843393 -0.6187173
-0.19997491 0.077015586 -0.07682755 -0.25867468 0.17833963 0.07518795 0.21473555 -0.2697264
0.0686552 -0.2376247 -0.2090855 -0.28782123 0.2824787 0.42514697 0.051345915 -0.21308984
0.21071269 -0.27786818 -0.16998842 -0.33740652 -0.32799134 -0.45324323 0.18602492 -0.23361796
0.06481134 -0.12956345 0.14380074 0.057943977 0.06521531 0.14154632 -0.40243715 -0.16974898
0.024739612 0.29927984 -0.22711448 0.30214256 -0.22946817 -0.12498843 -0.09544836 0.07366548
-0.090405814 0.1009469 0.10613741 0.91464967 -0.34303457 -0.19930933 -0.057691153 -0.41647574
0.13653894 0.09763893 -0.025408655 -0.14529924 -0.05587313 -0.014122362 0.00091926067 0.014769806
00000000: 7303 1abd 7707 3cbe 054e 02be 61a2 5dbe
00000010: eac8 aa3c e0d8 51bd 2888 d93c 8330 adbd
00000020: bb83 2d3e 742b 9f3c 7a91 423e 1c7e 5ebe
00000030: b4d6 54be 1540 d43c 04ed 62be a398 12be
00000040: 3833 debe 59a7 0bbf 3475 14be 1223 9abe
00000050: 93b4 adbe 5b3a 103d d095 ffbd 1bf5 2dbe
00000060: 443c 20be 3310 c73c ee29 8e3d 3110 2f3d
00000070: 5702 81be f574 77be 315b 4fbe 23eb 13bd
00000080: d6dd 6fbd 4221 debe 3853 1abd eec0 bbbd
00000090: 3cf5 183e dba6 17bd 5d49 8b3e 4ffd 5bbd
000000a0: bfb0 2cbe ab5c a1be c65f 143d c60b 053e
000000b0: e6ed d2be 7f97 80bd 8ea4 0d3d 0ec4 963e
000000c0: de51 61be 8c72 4bbf 5b72 4bbd 01b9 0ebe
000000d0: 4c6e 88be 4924 2dbc 09e4 53be 0943 723d
000000e0: a87e ecbc 2489 35be 7163 c7be 5414 603e
000000f0: 556c 99be 28d8 d23d 103f 9d3d 7047 a0bc
00000100: 1acb 863e 3e81 653e 2996 ebbe c6f9 9ebe
00000110: e48e 49bb 1618 583c 8d10 6f3c e66f 6b3d
00000120: 8ca5 313d 44fc 873e 7041 a0be 68fe 32be
00000130: ec4c ed3d 985b 20be fea1 3c3d ca6d 4e3e
00000140: eb8e ec3d 2676 41bb 645d f43d 7839 253d
00000150: 4632 12bd f31c ccbd 7db0 abbc 783d fc3d
00000160: c580 abbe 2b07 363d 39af 13bc 8d1c a93e
00000170: ce18 c9be 9306 90be a3ca a83d 9282 07bc
00000180: 597e 95bd 2101 03bd 6d9f 9bbd 4fe7 a9bd
00000190: c31e 1fbe 383e 5abe 2c65 ac3e dcc9 203e
000001a0: 43c6 febb 96bc 7ebd 40e5 653e eea2 03bf
000001b0: 476c f53e 949d 2bbd 41cd 833e a9e3 273e
000001c0: d172 1f3e c85c ca3c 84b6 263f 9a0f 57bd
000001d0: ed3f 483e 3b11 873e 6b92 bc3e cea9 9f3e
000001e0: a72c 34bd cfc8 0f3d 4bfd 04bd a639 46be
000001f0: cbaa 613e e42d 3cbe f721 5e3e 24de b7be
00000200: ed66 dbbd e56d 7fbd d19f aabd e4b1 a5bd
00000210: 385e 88be a9db e9bb de54 87bd 51a5 15bd
00000220: e5d5 d33e cde6 173f f9ad 4c3e 1498 ee3e
00000230: 8088 40be 01a1 8c3e 5565 a0be 5afd 81bc
00000240: 4672 253d 7991 8a3d a241 dc3c 8d9c 8dbe
00000250: 0ce6 b6be 925d 8fbe f308 25be 8490 983e
00000260: 0a52 ecbc a131 c43e 7e54 e2bd 9351 75be
00000270: ca05 40be 43b6 32be 70de fbbe 89af 82be
00000280: df8e b1bd f905 94be 034e 7a3e 7b6d 5ebd
00000290: aec7 bcbe 67be 79be 1a2a 55be 65dc 97be
000002a0: da6d 3fbd 2d0c b93d 9350 45be 13f7 cfbe
000002b0: cb3e a53d b36c 103e f894 f63d fee1 c23e
000002c0: d6c7 8dbd cd84 6abe d1fa 4cba 818f 60be
000002d0: 796f 2f3d 26a2 003e 3b63 64be 3900 c9bd
000002e0: 5eb0 e0be e532 b9bc f0d3 e8be 891b a5be
000002f0: bc32 2f3e 0ea6 bfbd 0788 93be 1ac7 b4be
00000300: f979 07be e44c ccbc 4b20 1abe eda0 4dbd
00000310: 6779 1d3e 28f9 3bbf ec94 91be 4264 1ebf
00000320: 39c6 4cbe 59ba 9d3d c357 9dbd 0271 84be
00000330: aa9e 363e 24fc 993d a3e3 5b3e 9419 8abe
00000340: 199b 8c3d e453 73be 821a 56be 4e5d 93be
00000350: 0ca1 903e ddac d93e 1850 523d 3934 5abe
00000360: 11c5 573e bd44 8ebe 7211 2ebe 8cc0 acbe
00000370: 7bee a7be 7f0f e8be 517d 3e3e 8c39 6fbe
00000380: cfbb 843d 48ac 04be 8040 133e aa56 6d3d
00000390: 9b8f 853d 85f1 103e 3e0c cebe add2 2dbe
000003a0: baaa ca3c 353b 993e b390 68be 6eb2 9a3e
000003b0: b4f9 6abe eff9 ffbd 6e7a c3bd eddd 963d
000003c0: af26 b9bd 40bd ce3d 925e d93d 7b26 6a3f
000003d0: 3aa2 afbe bf17 4cbe 8f4d 6cbd 4f3c d5be
000003e0: ddd0 0b3e ebf6 c73d d025 d0bc 53c9 14be
000003f0: 39db 64bd 7b61 67bc 8afa 703a 0efd 713c

conv5.bias f4 [128]
0.22698453 0.03261986 0.21864359 0.18477741 -0.09542568 0.11596709 0.20144768 0.08688311
0.19952092 -0.3088778 0.13356315 0.04447037 -0.2565264 -0.1966574 -0.11861746 0.058730207
-0.2615371 0.1571303 0.118218616 -0.10792633 0.12197645 0.024880674 -0.02037702 0.023794826
0.40004337 0.17123961 0.120405056 -0.45349166 -0.11926375 -0.16220286 -0.0143846115 -0.011988581
0.0073132464 -0.2316435 0.15759961 0.19949153 0.04354513 0.0998324 -0.030086465 -0.023771366
0.059264578 0.048685487 0.08873954 0.078731455 0.012857201 0.1683578 -0.045018807 0.2196448
0.1277031 0.12846492 -0.13486832 -0.26598325 -0.40078047 -0.26091906 0.068488605 0.19086826
0.04259428 0.18175565 -0.16397776 0.048973113 -0.049193565 0.22500631 0.17904095 0.19928159
-0.15443608 0.2529201 -0.09674875 0.23039193 -0.062934406 0.015962355 -0.010028552 -0.022075092
0.06776511 -0.16798073 -0.1020042 -0.21014145 0.015477584 -0.27761656 -0.18948139 0.034087468
0.13035907 -0.04616009 0.009660774 -0.079945 -0.0016522125 -0.008330714 -0.08519814 0.101922214
-0.3454117 0.27991396 0.135481 -0.010994153 -0.13599378 -0.06325701 -0.1278115 0.022337828
0.26191008 0.06286048 -0.1387312 0.3050172 -0.13178356 -0.13678242 0.13583624 -0.033006012
-0.12752122 -0.07789252 0.1924896 -0.16990048 0.14452586 0.17164189 0.2594174 -0.09522788
0.21785474 0.038134523 0.06407885 -0.023712583 -0.18307966 0.056800157 -0.45123306 0.17990121
0.2351768 0.024735935 0.017613418 0.019836454 0.12218952 -0.080131255 -0.17138082 -0.17956667
00000000: a26e 683e 679c 053d 1be4 5f3e 4a36 3d3e
00000010: 8a6e c3bd 2780 ed3d 4d48 4e3e c6ef b13d
00000020: 364f 4c3e 3b25 9ebe c7c4 083e 9026 363d
00000030: 6e57 83be 8f60 49be b6ed f2bd 168f 703d
00000040: 31e8 85be c4e6 203e 9a1c f23d 7b08 ddbd
00000050: cace f93d 8ed2 cb3c b5ed a6bc 5eed c23c
00000060: 7cd2 cc3e 7059 2f3e ed96 f63d 0f30 e8be
00000070: 8e40 f4bd 8218 26be 6fad 6bbc c16b 44bc
00000080: f5a3 ef3b f433 6dbe cb61 213e 8247 4c3e
00000090: 615c 323d ee74 cc3d e477 f6bc 2bbc c2bc
000000a0: 6abf 723d 6f6a 473d 13bd b53d f53d a13d
000000b0: 02a7 523c fd65 2c3e a465 38bd 91ea 603e
000000c0: 9ac4 023e 4f8c 033e ec1a 0abe f52e 88be
000000d0: 1933 cdbe 2f97 85be c143 8c3d f872 433e
000000e0: 5777 2e3d 271e 3a3e c9e9 27be 0898 483d
000000f0: 317f 49bd 0e68 663e 8356 373e 7910 4c3e
00000100: 7e24 1ebe be7e 813e 3524 c6bd ddeb 6b3e
00000110: c1e3 80bd 7cc3 823c cc4e 24bc d3d6 b4bc
00000120: 6fc8 8a3d 2403 2cbe 94e7 d0bd 522f 57be
00000130: b195 7d3c c223 8ebe 6907 42be 4d9f 0b3d
00000140: d97c 053e 5d12 3dbd 3948 1e3c 34ba a3bd
00000150: 0d8f d8ba 8c7d 08bc 5d7c aebd 98bc d03d
00000160: cdd9 b0be e250 8f3e 88bb 0a3e d220 34bc
00000170: f441 0bbe e48c 81bd 05e1 02be d2fd b63c
00000180: 1419 863e ffbc 803d 8d0f 0ebe 372b 9c3e
00000190: 45f2 06be b110 0cbe a818 0b3e 5031 07bd
000001a0: ec94 02be 1d86 9fbd fe1b 453e 64fa 2dbe
000001b0: 96fe 133e e4c2 2f3e 5cd2 843e d606 c3bd
000001c0: 5015 5f3e f232 1c3d c63b 833d e440 c2bc
000001d0: 3c79 3bbe 48a7 683d 0508 e7be 0638 383e
000001e0: 30d2 703e 04a3 ca3c 044a 903c 0f80 a23c
000001f0: 803e fa3d db1b a4bd 747e 2fbe 53e0 37be

conv6.weight f4 [64, 128, 2, 2]
-0.0331135 -0.019709472 -0.5995979 -0.47506315 -0.21467361 -0.29476503 -0.35132042 -0.29890734
-0.12865506 -0.40728578 -0.24191785 0.19691229 0.2057391 -0.033172037 -0.01715229 -0.09900872
-0.11201915 0.07358497 0.13562566 0.24061753 0.0760664 0.14818226 0.37602347 0.30910188
-0.047081694 0.16223174 0.060378406 -0.41103953 0.22456603 -0.027378641 -0.16648987 0.07312177
-0.2052637 -0.1363788 -0.07485592 -0.0717396 -0.35334027 -0.23688678 0.0021669276 -0.16224264
0.066358685 -0.019875355 0.14479938 0.059205115 0.0003321019 -0.17294838 -0.28613383 -0.36411127
-0.2268106 -0.45941013 0.16446613 -0.013576327 -0.27028266 0.07177472 0.069851965 -0.16327539
-0.25158906 -0.3587739 0.18426642 -0.093374565 -0.0081853615 0.08538041 -0.020424956 -0.0930925
-0.021044197 0.06543441 0.008946865 0.107105955 0.049966156 0.048674088 0.45180938 0.4384804
0.024150029 0.07261783 0.19151133 0.21959287 -0.02050702 0.017779244 -0.02513591 0.02547871
0.118589096 0.037913024 0.052711546 -0.34872457 -0.105229825 0.20096016 0.2204456 0.25611943
0.102806196 -0.4120598 -0.21355517 -0.6242236 -0.24540481 -0.1972623 -0.6524597 -0.79426146
-0.052293207 -0.43642873 -0.6327797 -0.38883418 -0.0004617451 -0.43799278 -0.33463323 -0.8574822
-0.2140936 -0.3416979 0.07604674 -0.096175425 0.031131772 -0.12792924 0.05567701 0.23700655
-0.12821665 -0.056775928 0.06465403 -0.061485574 -0.02345432 -0.022922322 -0.06308745 -0.029640587
-0.11909627 0.25292495 0.04487728 -0.25329703 -0.17113191 -0.038657796 -0.008100635 -0.022853125
0.24320526 0.129534 -0.098904565 0.23013401 0.024633935 -0.04986554 -0.07833309 -0.06758804
0.28047857 0.034295555 -0.2190979 -0.012091296 -0.1190171 -0.131665 0.034177452 0.04423734
0.26091516 0.32370102 0.06667619 0.38967493 0.112986885 0.3165168 0.20187272 0.09230915
0.042442597 -0.3343391 0.09781969 -0.51418525 -0.17841278 -0.15498537 -0.029715851 0.26614094
0.1297808 -0.38669366 0.04849038 0.011946464 0.1352297 -0.09851813 0.048959002 0.089790456
0.18484555 -0.19660303 -0.21087421 -0.51164037 -0.298024 0.06505626 0.33023584 0.19622296
0.14567143 0.034033366 0.24272865 0.22617607 -0.3390412 -0.36616382 -0.2700766 0.19203432
0.21621092 -0.068245664 0.28818414 0.1445741 -0.19525152 -0.010012665 -0.16270626 -0.13467424
-0.16607115 -0.6037151 -0.09548404 -0.28193802 -0.16925892 0.20987016 0.29409438 -0.3420992
-0.23917091 -0.09474438 0.05450522 -0.15016137 0.25285757 -0.019015834 0.1258801 0.25480253
0.32721266 0.0529915 0.11707417 -0.09037729 0.24178503 0.24637748 0.04753368 0.08790629
-0.035491537 0.19661038 0.38717562 0.17194235 -0.16957767 -0.23593466 -0.06845945 -0.08464481
-0.058338024 -0.060451146 0.3341267 0.09685334 0.019385645 0.024909921 0.27013952 0.020980582
0.002674735 -0.017149465 -0.021013504 0.03214601 0.16669658 0.16360731 -0.22969837 -0.22892919
0.09100755 0.008773845 -0.1881392 0.2529111 0.30935478 0.16069368 -0.119739614 0.032312334
-0.004526876 0.15292747 -0.16165596 0.112659775 0.23052527 0.10122893 -0.23562554 -0.10325139
00000000: 05a2 07bd c275 a1bc 3f7f 19bf 7a3b f3be
00000010: 66d3 5bbe 71eb 96be 45e0 b3be 620a 99be
00000020: 27be 03be c387 d0be 50b9 77be 60a3 493e
00000030: 45ad 523e 67df 07bd f682 8cbc 15c5 cabd
00000040: 4c6a e5bd b7b3 963d 74e1 0a3e 7164 763e
00000050: b3c8 9b3d 17bd 173e 2686 c03e 9a42 9e3e
00000060: bcd8 40bd 1420 263e 594f 773d c673 d2be
00000070: a3f4 653e 2c49 e0bc 527c 2abe dec0 953d
00000080: a630 52be e2a6 0bbe 104e 99bd 36ec 92bd
00000090: 04e9 b4be 7392 72be 0303 0e3b ef22 26be
000000a0: 10e7 873d a4d1 a2bc 4a46 143e 1081 723d
000000b0: f61d ae39 6119 31be 2280 92be cb6c babe
000000c0: 0a41 68be ce37 ebbe cf69 283e 3e6f 5ebc
000000d0: 7d62 8abe a0fe 923d 8c0e 8f3d aa31 27be
000000e0: 48d0 80be 36b1 b7be 56b0 3c3e 2a3b bfbd
000000f0: e51b 06bc eddb ae3d 3d52 a7bc 48a7 bebd
00000100: e164 acbc 7a02 863d df95 123c 5e5a db3d
00000110: 50a9 4c3d 7b5e 473d 8f53 e73e 8180 e03e
00000120: 48d6 c53c a8b8 943d 8c1b 443e f4dc 603e
00000130: 57fe a7bc c7a5 913c d3e9 cdbc bab8 d03c
00000140: d7de f23d b04a 1b3d 10e8 573d 078c b2be
00000150: bc82 d7bd 80c8 4d3e 7ebc 613e 1622 833e
00000160: 0e8c d23d 81f9 d2be 35ae 5abe 1ecd 1fbf
00000170: 664b 7bbe 21ff 49be 9907 27bf b854 4bbf
00000180: 6731 56bd 9673 dfbe dafd 21bf 4615 c7be
00000190: 6116 f2b9 9740 e0be 0c55 abbe f483 5bbf
000001a0: 5a3b 5bbe 07f3 aebe 65be 9b3d 9ff7 c4bd
000001b0: 0f08 ff3c e2ff 02be 940d 643d d8b1 723e
000001c0: 3a4b 03be e08d 68bd 5569 843d 4cd8 7bbd
000001d0: 4623 c0bc 98c7 bbbc fe33 81bd d1d0 f2bc
000001e0: bfe8 f3bd 617f 813e 3dd1 373d 26b0 81be
000001f0: 343d 2fbe a357 1ebd 87b8 04bc 7a36 bbbc
00000200: cd0a 793e 90a4 043e 7a8e cabd 40a8 6b3e
00000210: 1bcd c93c cf3f 4cbd 196d a0bd 996b 8abd
00000220: e39a 8f3e 7f79 0c3d 335b 60be 921a 46bc
00000230: 3dbf f3bd 31d3 06be a8fd 0b3d 3732 353d
00000240: ac96 853e 24bc a53e 878d 883d 7983 c73e
00000250: ab65 e73d 7d0e a23e b9b7 4e3e 940c bd3d
00000260: 4ad8 2d3d 7f2e abbe b155 c83d a5a1 03bf
00000270: d7b1 36be 7cb4 1ebe a86e f3bc a043 883e
00000280: 42e5 043e b6fc c5be d99d 463d 1abb 433c
00000290: a879 0a3e e0c3 c9bd 3c89 483d 0fe4 b73d
000002a0: 2748 3d3e 4e52 49be 69ef 57be ddfa 02bf
000002b0: 9a96 98be 373c 853d ac14 a93e acee 483e
000002c0: e42a 153e 9266 0b3d dc8d 783e b39a 673e
000002d0: cf96 adbe d379 bbbe 7b47 8abe a5a4 443e
000002e0: 6566 5d3e 62c4 8bbd df8c 933e 3c0b 143e
000002f0: 04f0 47be 290c 24bc 789c 26be 0be8 09be
00000300: 8e0e 2abe 138d 1abf 238d c3bd 2e5a 90be
00000310: 3652 2dbe 34e8 563e 8a93 963e a027 afbe
00000320: 38e9 74be 5709 c2bd de40 5f3d e7c3 19be
00000330: 8c76 813e 18c7 9bbc b7e6 003e 7a75 823e
00000340: 6b88 a73e 9d0d 593d 95c4 ef3d bb17 b9bd
00000350: 7f96 773e 614a 7c3e adb2 423d 3708 b43d
00000360: 935f 11bd 3b54 493e e23b c63e a811 303e
00000370: c5a5 2dbe db98 71be 7834 8cbd 425a adbd
00000380: daf3 6ebd 9f9b 77bd a812 ab3e 0b5b c63d
00000390: a5ce 9e3c e40f cc3c ba4f 8a3e 78df ab3c
000003a0: 9b4a 2f3b 097d 8cbc 8324 acbc 89ab 033d
000003b0: 82b2 2a3e ad88 273e 0d36 6bbe 6a6c 6abe
000003c0: 2b62 ba3d 2cc0 0f3c 90a7 40be 907d 813e
000003d0: c063 9e3e e28c 243e 0b3a f5bd f059 043d
000003e0: 3056 94bb 0599 1c3e 2489 25be 2bba e63d
000003f0: d10e 6c3e 1d51 cf3d d247 71be 7775 d3bd

conv6.bias f4 [64]
0.13543832 -0.06575603 -0.111089915 0.19949324 -0.12325773 0.29485247 0.11787973 0.06815981
0.13809255 0.064604245 0.14215948 0.28899854 0.1171981 -0.2970468 0.078316845 -0.2743648
0.39971584 -0.10604722 -0.19050267 0.061689932 -0.14330254 0.033768054 -0.06631779 -0.11232531
-0.1302985 0.08277684 -0.31614128 0.07938992 -0.19552703 -0.094861075 -0.31846556 0.07018003
-0.15125258 -0.47649002 -0.33762196 0.11897543 -0.13989559 -0.15107535 -0.10896741 -0.041857976
-0.112699255 -0.053242262 -0.24152136 -0.16397062 -0.13644595 0.14008054 0.03359881 0.24609897
-0.17631972 0.0074300594 0.18153386 0.11871947 -0.24946134 -0.3758307 -0.26538694 0.17583232
0.08249712 0.21544728 0.33492064 -0.07685339 -0.41607168 -0.16717152 0.32788053 -0.090306394
00000000: 58b0 0a3e 19ab 86bd 1c83 e3bd f547 4c3e
00000010: 8c6e fcbd e7f6 963e ee6a f13d 5f97 8b3d
00000020: 2268 0d3e 3b4f 843d 4192 113e 9ef7 933e
00000030: 8f05 f03d 8516 98be 9564 a03d 8b79 8cbe
00000040: 8ea7 cc3e 492f d9bd 2213 43be 95ae 7c3d
00000050: e7bd 12be 5f50 0a3d 9fd1 87bd d00a e6bd
00000060: f86c 05be e786 a93d 45dd a1be 2f97 a23d
00000070: 3d38 48be 8646 c2bd eb0d a3be 8cba 8f3d
00000080: f5e1 1abe 80f6 f3be c9dc acbe 64a9 f33d
00000090: ca40 0fbe 7fb3 1abe 4e2a dfbd 4573 2bbd
000000a0: dece e6bd 8f14 5abd 6051 77be eae7 27be
000000b0: 7db8 0bbe 4671 0f3e e89e 093d 5e01 7c3e
000000c0: 288d 34be db77 f33b 03e4 393e 3223 f33d
000000d0: cb72 7fbe e26c c0be cce0 87be 630d 343e
000000e0: 40f4 a83d 369e 5c3e b87a ab3e 4f65 9dbd
000000f0: 5907 d5be 032f 2bbe f5df a73e 8ff2 b8bd
