model/model_18.pth (torch_old, 571877 bytes, 24 tensors)

conv1.weight f4 [32, 3, 2, 2]
00000000: b92e e0bd 97df e6bd 865a 1cbe 0559 c83e
00000010: 1e14 18bf 8d06 1b3e 2866 0cbe 8ce9 dc3e
00000020: 91d7 97be e92b 99bd 3aaa 693b 15c6 8c3e
00000030: b208 4f3e 8784 04be 9b65 fa3d 4a56 783c
00000040: 2c51 8f3d 081d 82bd 0da2 a63e cdf9 233d
00000050: 60c8 0bbe b417 7bbe a3a2 27bd 73b8 72be
00000060: 044c f5bd 1e70 303d f262 003e af1b 6b3e
00000070: 3183 abbe 113b 4e3e 2c80 32bd 6ea3 9e3e
00000080: 1563 0b3e 4b42 4cbe a7bf ebbe 5b12 f1bd
00000090: 3616 c63e 6465 45bd 76a2 8a3d 0956 8dbe
000000a0: a392 c63e 7625 6cbe 5950 2a3e 67a4 46be
000000b0: 572f 72bd 12be 8c3c 1b8c 5bbe 5348 16be
000000c0: e2ac 20be 17c4 d5bd 3576 bebe e4a1 61be
000000d0: d457 493e 92bd aabd 30e4 9a3e 31e5 623e
000000e0: 62f1 3cbd 2b3a 91be 3e67 1d3e d574 bf3c
000000f0: 0e4b 43be 4b20 ef3d 66c7 763e e115 833e
00000100: e4ae 47be 98f7 07be d8cc a3bb 047c bebc
00000110: f35e a8be e361 b7be e185 f73d 7338 2fbe
00000120: 1140 0d3d ac43 9bbd 6549 63bd a985 31bd
00000130: c997 2a3e 076a 223e f756 4dbe b4d5 4b3e
00000140: be95 22be c325 57be 9355 9bbb 6f7c d4bd
00000150: 9260 723e 231b 523d 8258 12bf 202b 753d
00000160: 8b81 023e a7ec f93e b42f f1bd 3e72 7abe
00000170: dbea 783e 436c a23e aa9b b3be 8cea 52be
00000180: a8fc 2c3d 5515 94be d7ec 383e 8977 c8bd
00000190: 1881 093e f181 eabe b0e1 d43e cac7 103d
000001a0: 63c4 6cbe dafb cdbe a6d9 0d3f a674 d53d
000001b0: e04b 143e 0776 07bd 7e63 153d 3d44 213e
000001c0: 02f7 5f3e 07a3 8dbe 0742 533c a8bd 653e
000001d0: 2bb5 183e abf3 0e3e 43b5 49be 1191 17be
000001e0: ae4f efbd f86e 263d 3a1f 913e 6e73 88be
000001f0: 7585 2e3e 5006 3fbe 86ff acbe 7418 00be
00000200: 353b 573e b4ce 883e 8ae2 66be a5ed 023d
00000210: 4a6f be3e 686a 643e 3aee 003e 0c0a c63d
00000220: f6f7 103e 5541 86bc f7d6 f3be e16b 05bf
00000230: 0475 02bc 2ea7 5f3d 11b4 8dbe 7c09 3c3d
00000240: 87c4 523c fa0f 0f3c 2d99 00be 7e06 673d
00000250: 63ca 243e 155b a93e caf0 3fbe e8a1 c43e
00000260: d00f 0bbe 5021 ca3c 45e7 d8be 1c04 3bbe
00000270: 4038 babe 666b 19be 3894 363e 0516 b43c
00000280: ff83 86be 9062 5d3e 3153 ba3d ecbd b33e
00000290: b7bc a0be 8fe4 633d fb61 77be f2c1 ecbc
000002a0: 126a 08bf ead3 9dbe 5dca 7dbe 8db7 093e
000002b0: 6a35 51bd b7aa a73d 0de8 a33e ae2b f13e
000002c0: 9203 893d 0a49 82bd e26b 59be d9d3 b03e
000002d0: c913 063e cd03 cf3d 2eb4 5dbe 4149 1abe
000002e0: 4a7e 203c 83b7 ae3e 799f 2dbe 82dd 83be
000002f0: 5c12 f03d 6b5a 18be 95b9 1f3e 1a02 52be
00000300: 0a6d af3c 3e79 c3bd 24c4 ae3e aaaa bdbe
00000310: d429 663e 691e 42bd ee23 c03e 9d87 f0be
00000320: 83e1 443e aeaf b7be 1f4a a43e 078a a7be
00000330: 1294 bdbc c41c 163e f21a 64be 8d02 5d3e
00000340: cdab 5ebe a32a 803e ecd2 4fbe 20c5 973e
00000350: 2f02 1bbf 2749 393e 186d 83bd dc57 933e
00000360: c01b f03d f23b 3ebe d8cf 35be 4f8d 963e
00000370: b348 ccbe 8c0e a33e ad3a debe 3f50 4abe
00000380: 83d0 7d3e 4354 483c f569 3f3b f1e0 ce3e
00000390: 3d1a 423e 0d63 e43e fcfe 85be b1a9 89be
000003a0: ebfd a43e 7793 5e3e 2b8b 8fbe 50ed a03d
000003b0: 1016 a0be 9bff a83e d0ee 3cbe d52a c3be
000003c0: a122 86be 3e77 52bd ac52 2f3e 1202 5e3d
000003d0: bbff b4be 6f49 1bbe 64d2 d7be 2611 96be
000003e0: 53ca 2dbe 24e1 943e 692a bb3e 1b68 573d
000003f0: 55da 93bc 1157 493e 4e23 f1bd 6d65 5dbe
-0.10946412 -0.11273115 -0.15268907 0.39130417 -0.59405696 0.15139218 -0.13710845 0.43146932
-0.29656652 -0.07479078 0.0035654441 0.27494875 0.20218161 -0.1294118 0.12226411 0.015157292
0.06997904 -0.063531935 0.3254551 0.04003315 -0.13650656 -0.24520761 -0.040926587 -0.23703174
-0.119773895 0.043075673 0.12537745 0.22959779 -0.3349853 0.2013972 -0.043579265 0.30984062
0.13612016 -0.19947164 -0.46044657 -0.11771079 0.3868882 -0.048192397 0.06769268 -0.27604702
0.3878375 -0.23061165 0.16632213 -0.19398652 -0.059127178 0.017180476 -0.21440165 -0.14676027
-0.1569095 -0.10437792 -0.3719956 -0.22034413 0.1966241 -0.08336939 0.30252218 0.22157742
-0.046128638 -0.2836469 0.15371415 0.02337114 -0.190716 0.11676081 0.24099502 0.2560263
-0.19500309 -0.13278043 -0.0049987845 -0.023252495 -0.3288494 -0.3581687 0.12086082 -0.17111377
0.034484927 -0.07581267 -0.055489916 -0.04334036 0.16659464 0.15860759 -0.20052706 0.1990574
-0.15877435 -0.21010499 -0.004740426 -0.10375296 0.23669651 0.05129541 -0.571663 0.05985558
0.12744729 0.48813364 -0.11776677 -0.24457642 0.2430834 0.31723222 -0.350797 -0.20597285
0.04223314 -0.28922525 0.18059097 -0.097884245 0.13428152 -0.45802262 0.41578436 0.035346784
-0.2312179 -0.4023121 0.5541023 0.104226395 0.14482069 -0.033071544 0.036471836 0.15748687
0.2187157 -0.27663442 0.01289416 0.2243563 0.1491286 0.1396014 -0.19698052 -0.14801432
-0.116851196 0.04063317 0.28344136 -0.26650566 0.17043097 -0.18654752 -0.337887 -0.12509328
0.2101868 0.26720202 -0.22547355 0.031964917 0.37194282 0.22306216 0.12590876 0.09669885
0.1415709 -0.016388575 -0.47624943 -0.52117735 -0.007962469 0.054602794 -0.27676442 0.045907483
0.012864239 0.008731836 -0.12558432 0.056402676 0.1609283 0.33077303 -0.18744197 0.38404775
-0.1358025 0.024674088 -0.42363945 -0.18263286 -0.3637104 -0.14982376 0.17829978 0.021983156
-0.2627258 0.2161963 0.09097899 0.35105836 -0.31393978 0.055637892 -0.2415847 -0.028901074
-0.5328685 -0.3082574 -0.24784227 0.13448925 -0.05107633 0.08186858 0.32012978 0.47103637
0.06690134 -0.06361587 -0.2123256 0.34536627 0.13093485 0.10108147 -0.21650764 -0.15067007
0.009795735 0.34124383 -0.16955365 -0.25754935 0.11722252 -0.14878242 0.15598138 -0.20508614
0.021414299 -0.095446095 0.34134018 -0.3704427 0.22476894 -0.047392283 0.37527412 -0.46978465
0.19226651 -0.3587622 0.320878 -0.32722494 -0.023141894 0.1465941 -0.22275904 0.21583004
-0.21745224 0.2503253 -0.20295304 0.29642582 -0.60550207 0.18094312 -0.06417292 0.2877797
0.11724043 -0.18577555 -0.17755067 0.29404685 -0.39899215 0.31847036 -0.4340414 -0.19757174
0.24786572 0.012227121 0.0029207442 0.40405992 0.18955322 0.4460682 -0.261711 -0.26887277
0.32224974 0.21735941 -0.28035864 0.07857764 -0.31266832 0.33007511 -0.18450475 -0.38118616
-0.26198295 -0.05138325 0.1712138 0.054201193 -0.35351357 -0.15164731 -0.42152703 -0.29309958
-0.16971712 0.2907802 0.36555794 0.052589517 -0.018048445 0.1966212 -0.11774312 -0.21620722

conv1.bias f4 [32]
00000000: 281d c2be c231 bfbd f251 fcbe 555e 2dbe
00000010: abb2 c6be f53f 01bf ff22 0fbf 2f8b 053e
00000020: 58c4 ae3d 721f b4be 4fa4 cfbe ef98 c1bc
00000030: b9f5 bebd 0c41 49be d58e 9e3d 17ea cabe
00000040: a81b aabd 4f4f f63d 47b0 27be 4851 07bf
00000050: 1f44 02bf 382d 41bf dd4a 0a3e 7a5c 1cbf
00000060: 6c9e 513d 887a d4bd 923e bdbe 4931 ebbe
00000070: 28ef ea3d 07ad efbe 34c5 cbbe c288 903d
-0.3791287 -0.093356624 -0.4928127 -0.16930516 -0.38808188 -0.50488216 -0.55912775 0.13041376
0.08533543 -0.3518024 -0.40555045 -0.023632495 -0.093242116 -0.1965372 0.07742087 -0.3963172
-0.08306056 0.12026846 -0.16375838 -0.528584 -0.50885195 -0.75459623 0.1350512 -0.6107861
0.051176473 -0.103749335 -0.369618 -0.4593604 0.11471397 -0.46811697 -0.39798892 0.070573345

conv2.weight f4 [32, 32, 2, 2]
00000000: e45c 4abe 1d2f f63d bc6c c3bd a863 b3bd
00000010: 2438 a73c dbd5 323d 5713 8fbd 8029 4f3c
00000020: 859f a4bc ec93 033d ebea 53be f87c 36be
00000030: b579 c7bd 9317 a2bd 406c 08bd 5c5e c8bd
00000040: 1136 c0bd d936 db3c 14d7 e0bd ec84 48be
00000050: 9cb5 35bd d069 073d 7cde 02bd 6196 9c3d
00000060: 516e 143d 9f00 143e 5186 ffbd 18c4 f33c
00000070: 4a83 9bbe c0b0 a3be ad41 5abd 06c1 e3be
00000080: 967b e13d a3bf e13d eb0e 113e 4f3a 893e
00000090: d81e e03d e918 adbd 63d2 fb3d a07e d23d
000000a0: e192 e6bd d445 943d 00bd 883d e2d7 c0bc
000000b0: d65a efbc 002f 86be 6d52 313e 8061 25be
000000c0: b2a5 053e 4b54 0dbd ea89 963d fc82 39be
000000d0: 06d8 7b3d 547f 9b3d fc7c ce3b 9616 e6bd
000000e0: a7fa e03d b1ac cf3b b5ad 1c3e 48cd f23d
000000f0: 36ed c1b9 a1c8 a33e 6e9e a1bd 7826 a3bd
00000100: f538 1c3e 4135 c6bc 45a0 48be 8ec8 16bc
00000110: 7577 2c3d e6a5 80be df59 593d 04ae 293b
00000120: 82a3 8a3d f1ab 4b3d d412 acbd 6339 55be
00000130: fe27 ffbd bc0d 85be 8e6f 5a3d 2ed3 be3d
00000140: ee35 953e 7eff b63e 0bc9 dcbe 3b92 3cbe
00000150: 9c16 8cbe 34f0 09be f9f5 5fbd ad21 5cbe
00000160: 079f 04be 01ba dcba 08e5 0fbd 868c 89bc
00000170: 365f fb3e 2c23 663e 2da3 75be bf29 94be
00000180: 3b93 94be e132 d03d 1e58 033e bf4f 90be
00000190: 6c72 053e 6790 e53d 3711 4dbe 6194 66be
000001a0: 0c9b b3bd 10e8 703e 6d0e 703d 165f 7dbd
000001b0: 6e8b 3abd e0d7 e13d bf91 c0ba c97f 303d
000001c0: cdaa 183e b9dc 2c3e 06af 353e 79ac 9b3e
000001d0: 6a62 0e3d cb6c 853e f131 aabe c3a6 24be
000001e0: 5efc 84be 4af6 493e 3944 febd d65a ae3d
000001f0: 9e37 1e3e bbee 8fbd 06aa 933d 5a42 993d
00000200: 9af4 68be d1ab febd 139c 2dbe 55e1 8abe
00000210: 57e8 c8be 0516 71be c33d 9dbe 3df9 b0be
00000220: 2e3f bcbe 93a9 e7be 41f6 0abf 9854 9abe
00000230: 1237 57be 2659 d7be ed66 d7be 325b dcbe
00000240: 730c 6cbe 5044 86be 4ea6 6dbe 9393 9ebe
00000250: fc6e 3e3e 5ece 593e 37bc 373e d734 743e
00000260: 628b b3be 25ed 9ebe 2cc1 92be c0f4 8bbe
00000270: ee92 b5be 5891 aebe 19fa 08bf 6884 ccbe
00000280: fc3a e8be c386 f0bd 45a8 e0be 89a8 b2be
00000290: 316a 46bc 54ab a53c 9ef0 0bbe 0792 553d
000002a0: 7172 ee3c cba8 9abd c059 d23c 58f5 f03d
000002b0: 885b d83d 1d08 033e 1431 eb3d 06ad 4d3e
000002c0: c4fb d9be 6dca 15bf b56b 2abf 4c4f 02bf
000002d0: 2325 cdbd 673a 24be 3b29 f3bd 1cd2 0cbe
000002e0: 7b5a 35be 911a a0be a0bc a2bd 5b31 3abe
000002f0: 05b3 653e a68c 313e 28fd 803e da9a 853e
00000300: 78c7 6dbe 4bf7 d4bc 458f 83bd e497 82bd
00000310: 69d5 46be 55e4 82be 3ef9 37be b94d 7ebe
00000320: 3104 993c 1ef1 a23c 1bfe c33d b2d7 133d
00000330: d5f9 3bbe 4ab2 80be 0609 4abc 27c1 0cbe
00000340: b3bd ab3e c8ef c83e 0278 a83e 43cd e23e
00000350: 15cd 503e 293e e23b 3447 913e eaba e83c
00000360: 94fa bdbe ce36 c1be 745e 10bf ed04 9fbe
00000370: bf62 73be 80cb 90be d444 90be dd7f 8abe
00000380: 84ee f5be f404 dabe 0aeb 1cbf aea3 e4be
00000390: ec55 c43d 8516 dbbc fe06 49bd 78b7 ac3a
000003a0: f9c2 63be c14a 34be 8eb2 34be 740c d5bc
000003b0: 47bd 45bd dde9 8e3b 7dbe d13b 71ac 39bc
000003c0: f82e 33be cc07 773c f905 97bd 827b 62bd
000003d0: ab72 11bd 2c73 7e3c dc21 3ebe 34ab c9bc
000003e0: 044e 96bd 0cc3 1abd d2e1 273d b469 f93c
000003f0: 1bb9 f1be 8a73 a0be 0213 b5be fe40 c9be
-0.19761997 0.12020705 -0.09542224 -0.08759242 0.020412512 0.04366098 -0.06986111 0.012644172
-0.020095596 0.03212349 -0.20695083 -0.1782111 -0.09740011 -0.07914653 -0.03330636 -0.097836226
-0.09385312 0.026759552 -0.10978523 -0.19581956 -0.04436265 0.033059895 -0.03195046 0.0764587
0.03623802 0.14453362 -0.12476791 0.02975659 -0.30373603 -0.31970787 -0.05328529 -0.44483203
0.110099 0.1102288 0.14165847 0.26802298 0.10943383 -0.08452017 0.122959875 0.10278058
-0.11258484 0.07239881 0.06676674 -0.023540441 -0.029218119 -0.26207733 0.17316599 -0.16150475
0.13051489 -0.034504216 0.07350524 -0.18116373 0.061485313 0.07592645 0.0063015204 -0.11234777
0.10985308 0.006337725 0.15300639 0.118555605 -0.00036988565 0.31989005 -0.07891546 -0.07966322
0.15256102 -0.024195315 -0.19592388 -0.009203089 0.04210611 -0.2512657 0.053064223 0.0025891075
0.06769468 0.049724523 -0.08402029 -0.20822673 -0.124588 -0.2598704 0.053329043 0.09317623
0.29142708 0.357418 -0.43122134 -0.18415157 -0.27361 -0.13470536 -0.054677937 -0.21497221
-0.12951289 -0.0016840101 -0.03513053 -0.01679064 0.49096078 0.22474355 -0.23988028 -0.289381
-0.29018578 0.101659544 0.12826583 -0.2818584 0.1303193 0.11209183 -0.20026098 -0.2251754
-0.08769807 0.23526025 0.058607507 -0.06185826 -0.045543127 0.11027503 -0.0014691873 0.043090615
0.14908905 0.16881074 0.17742547 0.30405024 0.034761824 0.26059565 -0.33241227 -0.1607924
-0.2597379 0.19722858 -0.12415356 0.08513419 0.15450904 -0.07027956 0.07210164 0.07483359
-0.22749558 -0.12435115 -0.16954069 -0.2712504 -0.3923976 -0.23543556 -0.30711183 -0.34565154
-0.36766952 -0.45246562 -0.54282004 -0.30142665 -0.21017101 -0.42060202 -0.42070714 -0.43038327
-0.23051624 -0.26223993 -0.23207971 -0.30971965 0.18597025 0.21270129 0.17942892 0.23848282
-0.35067278 -0.31040302 -0.28663003 -0.27335167 -0.3546366 -0.34095263 -0.5350662 -0.39944768
-0.45357502 -0.11744454 -0.4387838 -0.34894207 -0.012110279 0.020223297 -0.13666007 0.052141216
0.029107304 -0.07551726 0.025677562 0.117655456 0.10564333 0.12796064 0.1148397 0.20085534
-0.42574894 -0.58512 -0.665706 -0.5090225 -0.10016849 -0.16037904 -0.118730985 -0.13752025
-0.17710297 -0.3127027 -0.079461336 -0.1818289 0.22431572 0.1733881 0.25193143 0.26094705
-0.23220623 -0.025996825 -0.06423811 -0.06376627 -0.19417347 -0.2556483 -0.17966172 -0.24834336
0.018678756 0.019890364 0.09569951 0.036094375 -0.18357022 -0.25136024 -0.012331253 -0.13745557
0.33543167 0.3924544 0.3290406 0.44297227 0.20390733 0.0069043827 0.28374636 0.02840944
-0.37105238 -0.37737125 -0.56394124 -0.31058446 -0.23768137 -0.28280258 -0.28177512 -0.27050677
-0.48033535 -0.42581904 -0.6129614 -0.44656128 0.09586701 -0.026744137 -0.049078934 0.0013177237
-0.22242345 -0.17606641 -0.17646238 -0.026006915 -0.048276212 0.004361375 0.006400882 -0.011332617
-0.17498386 0.0150775425 -0.07374186 -0.055293567 -0.035509747 0.015530389 -0.18567604 -0.024617769
-0.07339099 -0.037783667 0.040986843 0.030445911 -0.47211537 -0.3133815 -0.35366064 -0.39307398

conv2.bias f4 [32]
00000000: 0f34 3e3d d14b 9abd fc83 d9bd 4100 1bbe
00000010: d9e4 f33d d51a b9bd 6bd5 14be 9774 1a3e
00000020: 73f7 7abd cfb1 173e fed3 4fbe 39c2 413e
00000030: 8036 d23d ea7a f1bd d865 e8be 9b81 ebbd
00000040: e928 2c3c e3f7 5e3b c78c 533d 2efe f03d
00000050: 5e87 4e3d 1777 57be 9a69 3e3d 34ef 083e
00000060: 5360 88bd 9347 453e 3503 0c3d c10a 00be
00000070: 7f08 cf3b 88ee 503e da28 8c3e 3c73 1ebe
0.046436366 -0.07533992 -0.10620877 -0.15136816 0.119088836 -0.09038321 -0.14534537 0.15083538
-0.061271142 0.14813922 -0.20295712 0.18921746 0.10264301 -0.11791022 -0.453902 -0.1149933
0.010507801 0.0034022264 0.051647928 0.11767231 0.050422065 -0.21041523 0.04648743 0.13372499
-0.066589974 0.19265585 0.034182746 -0.12504102 0.0063181515 0.20403492 0.27374917 -0.15473646

conv3.weight f4 [64, 32, 2, 2]
00000000: 317b d2bd 5c69 b93d 12ad 253c 05e4 963e
00000010: 1624 223d 743f 61be 69fa 703e 46e5 51be
00000020: cc5b 743d 78f5 953d bb6d b93d 7e3d f63c
00000030: 463a 063d 1a0c 71bd 7ae1 6d3c 6b12 08bd
00000040: 2259 c4be c6f7 a3be a66d 6dbe 1b32 8cbe
00000050: dbe2 92bd b8cf 453d 9624 6fbd cde0 283d
00000060: f9c9 f43c d281 05bd 9737 3ebd 6d4a 86bd
00000070: 4398 16be 8be3 57be bbc6 9fbe 7e8a d8be
00000080: ca2a edbc 0b1d bdbd 2604 d63c 7655 cebc
00000090: a7d3 813e 493d 92bd 97cc 783e a1b5 c8be
000000a0: 6597 3a3e 015c 9e3e ac62 663e b11e 9a3e
000000b0: 84b1 4f3d 43fa bc3d 7ab0 d93c b063 393d
000000c0: e018 95bc 889a bbbe 3c52 c63e 7d04 31bd
000000d0: 8f2f 463e 72b7 543e 9d39 6abd 88f9 f2be
000000e0: 6e4b 0cbe dcc3 68bd 8aeb 09bd 03a3 73be
000000f0: f315 ea3d 22e3 9b3d 2e2c 703d 49c8 493d
00000100: 7c37 8b3d 1d71 763d a70e b53d 3f93 28bc
00000110: 53ce 3b3d 94a0 8b3d 455c dfbd 2a0f cabd
00000120: 771f 223e 500f 39bc a535 03be cd4d 10bd
00000130: ad5b 893e 7509 30bd 10de fa3d 5eab a13c
00000140: 44fe 85be 5109 483d 96b7 503d 2133 233e
00000150: b089 483e 9cb4 1e3e 139a 25bd 99de ca3d
00000160: 178a afbd ccbf afbc f9cf 83bd 3388 febc
00000170: c3e0 c7be 581b 0abe 1679 b73e a78b 533e
00000180: 73bb 173e 3aa0 6dbe 6afd 873e 7b0c 5bbe
00000190: baa6 ca3e dc66 45be 05ba b73c 9cb0 a3be
000001a0: 1d8c 8f3d ea7b 1fbe 4901 49be b588 f3bd
000001b0: f48e 893d 7ed2 503c 0999 a2bd 3b25 30bc
000001c0: 3ab6 043d 6677 253d d347 d23d afe1 393d
000001d0: 67a8 7e3e ce58 b8bd 82b9 203e e1c3 ad3b
000001e0: 6e32 773d 5685 893e 0428 f03d a727 683e
000001f0: 889d 253c 3502 853c 2288 d83d a506 35bd
00000200: 4426 56be 66de 0cbf 3494 7e3d 0007 88bc
00000210: df91 753e 4914 bdbd 93a5 803e 7b0c 543e
00000220: 7273 1b3d 16db 323b 5f7e d6bd e5ef a5bd
00000230: befa 80bd fb16 d0bd cb13 153d ed11 753d
00000240: b09b a9bd aa13 1dbe d8ce 3cbe 3023 c0bd
00000250: 74d6 f1bb 78f6 d1bc f033 d1bc 0bce 753d
00000260: ceb4 71bc 3fe1 d13c b480 6d3d c5ad 163d
00000270: 54b2 febc f889 93be bd57 e33c 202a 34be
00000280: 67b3 0cbc f463 633c 4dc7 6ebc 9e0e 9bbc
00000290: 7401 d03d d4a3 1f3e 2fce cbbd 832c 60be
000002a0: a038 6dbd 935b 523d 940e 83be 7322 f9bd
000002b0: 3690 383d fd24 aebe 6394 753e 426a a1bd
000002c0: 0035 563e d5bb 853e 6b55 a7bd 84d5 40be
000002d0: e808 cf3d 4d68 a43d adbb e13d fd68 823e
000002e0: f8db a2be dc15 10bd 825a 8cbe 8218 523d
000002f0: d831 fcbc a20e 9e3d 8fa0 1cbd 3345 ac3c
00000300: 2530 243e c910 793c 4671 21bc 6712 543d
00000310: 741c 83bc 9970 8cbd 4eea 9cbd e48c a43d
00000320: 27fe 383d b05a 06bd 8a16 b6be 6901 31be
00000330: aa34 08be 1775 db3c 9cf5 05bf edfc c2bd
00000340: ef57 09be ff55 c0bc 6390 a5be 675f b8be
00000350: 4ef8 62bd 89ed bbbc 78b2 c13c 6715 043e
00000360: e7e7 1c3d 6de3 813d 4f16 973d beef 313e
00000370: b413 71be 68f1 8cbe 3f18 043e 55e6 f6bc
00000380: 5537 6c3e 03fb 883e 89e4 f9bd 7f7a a0bc
00000390: 5779 623e 2791 f03d 7258 0ebe 1241 44be
000003a0: 14cd 95be 31c4 40bf 0a2a 74be 6aee f4be
000003b0: 4672 8e3c 5e56 9abd 1037 1a3d 2ffe a73d
000003c0: 07b0 6e3e aada bb3d ebe3 97be 28a8 b2bd
000003d0: 0453 903d fcf8 513e e35b 4abe 44c9 703d
000003e0: abd7 093e 9a6d a73d 5dfb aa3d 97c9 24bf
000003f0: 022c 5ebd e377 013d 3a3d 70bd c177 c73b
-0.10277403 0.09053299 0.010112064 0.2947084 0.039585195 -0.21996862 0.23533024 -0.20497617
0.059657857 0.0732221 0.090541326 0.030058619 0.032770418 -0.05884943 0.01451909 -0.03322069
-0.38349253 -0.32024974 -0.23186359 -0.27381977 -0.071721755 0.0482938 -0.0583845 0.04123001
0.029881464 -0.03259451 -0.046439733 -0.06557164 -0.1470652 -0.21082895 -0.31206307 -0.4229316
-0.028951067 -0.09234055 0.026125025 -0.025187235 0.2535679 -0.071405955 0.24296795 -0.39201072
0.18221815 0.30929568 0.22498578 0.3010154 0.0507064 0.09227421 0.026573408 0.045261085
-0.018200338 -0.36641335 0.38734615 -0.04321717 0.1935408 0.20773104 -0.05718385 -0.47456002
-0.13700649 -0.05682741 -0.033671893 -0.23792653 0.11429968 0.076116815 0.058635883 0.049263272
0.06797692 0.060166467 0.08840685 -0.010289012 0.045851063 0.06817737 -0.10906271 -0.098661736
0.15832315 -0.011295155 -0.12813433 -0.035230447 0.26827756 -0.04297777 0.12249386 0.019735035
-0.26170552 0.04883701 0.05095633 0.15937473 0.19583774 0.15498585 -0.04043014 0.099057384
-0.085712604 -0.02145376 -0.06436152 -0.031070804 -0.39038667 -0.13486993 0.3583457 0.20658742
0.148176 -0.23205653 0.26560527 -0.2139148 0.39580327 -0.19277519 0.022427568 -0.3197068
0.07009146 -0.15574613 -0.19629396 -0.11891309 0.06716719 0.012745498 -0.079393454 -0.010751064
0.032400347 0.04039707 0.10267606 0.045381244 0.24868928 -0.09001313 0.15695766 0.0053028916
0.060350828 0.2685954 0.117263824 0.22671376 0.010108359 0.016236404 0.1057284 -0.04419579
-0.20913035 -0.55026853 0.062153056 -0.0166049 0.23981427 -0.09232385 0.25126323 0.20707886
0.037951894 0.002729123 -0.10473322 -0.08102397 -0.06297825 -0.10160633 0.03639583 0.05983155
-0.08281648 -0.15339532 -0.1843828 -0.093817115 -0.007380301 -0.02563022 -0.025537461 0.06001095
-0.01475258 0.025620101 0.05798407 0.036786813 -0.031090893 -0.288162 0.027751798 -0.17594194
-0.008587695 0.013878811 -0.014573884 -0.018927868 0.10156527 0.15589839 -0.09951436 -0.2189198
-0.05791533 0.051356863 -0.2559706 -0.12164774 0.045059405 -0.34012595 0.23982386 -0.07881595
0.20918655 0.26119867 -0.08170589 -0.1883145 0.101091206 0.08027706 0.110221244 0.25470725
-0.31808448 -0.035177097 -0.27412802 0.051292904 -0.030785486 0.07717635 -0.038239058 0.02102909
0.1603399 0.015201756 -0.009853667 0.051775362 -0.016004778 -0.06857414 -0.076618776 0.08034685
0.045164254 -0.03280133 -0.3556407 -0.17285694 -0.1330134 0.026789231 -0.52327895 -0.09520898
-0.1341245 -0.023478506 -0.3233672 -0.36010286 -0.055412583 -0.022940414 0.02364467 0.1289879
0.038307097 0.06342206 0.07377302 0.1737661 -0.23542672 -0.27527928 0.12899874 -0.030139128
0.23067982 0.26754007 -0.12201793 -0.01958966 0.221166 0.117464356 -0.13900927 -0.19165447
-0.29258025 -0.75299364 -0.23844162 -0.47838145 0.017388474 -0.075360045 0.037650168 0.082027785
0.23309337 0.09172566 -0.29666075 -0.087234795 0.07047084 0.20505136 -0.19761615 0.05878569
0.13461177 0.08175202 0.08348725 -0.643701 -0.054241188 0.031608474 -0.05865214 0.006087274

conv3.bias f4 [64]
00000000: 49f8 f53a c010 b13e 0e47 163e 774f cdbe
00000010: 30d6 293d 0794 c3bc 7ea7 ed3d 10c7 b3bd
00000020: fb12 093e 8471 093e 5f36 bdbe 5148 b8bd
00000030: 804c 243d 28f6 dabd dac7 d33d 1b22 1b3e
00000040: 1e6a 3cbd 7838 033d 62e6 313d 6e96 813d
00000050: d494 013e 68d5 e4ba f5d8 eebe ff79 0fbe
00000060: 07be a43a f956 27be 54e0 b23e e8d5 ae3d
00000070: 97c9 793e 8db5 133e 4c5b 043e 95cc 543e
00000080: ad17 abbd 3cf6 653e 8018 88bd 8c89 5fbe
00000090: b838 f23c adf7 7f3e 16e9 63be ae48 0c3d
000000a0: 51ee b93d 120a 3b3e 966a fd3c ae69 2abe
000000b0: fc64 4b3d 04c6 11bd 678f 6e3d ede7 e23d
000000c0: 5c09 2fbd 3759 84bd 57c4 a53d 49f7 c2bd
000000d0: efbb 693d 960f 2dbe 4fa4 053e f649 19bc
000000e0: cd0e 04be 5c79 eb3c e3a1 e2bd aa37 4dbe
000000f0: 94f9 a13d dbd4 fb3b 4224 12be 4f61 32bd
0.0018766011 0.34583092 0.14675543 -0.4009969 0.04146403 -0.023874296 0.11604212 -0.087782025
0.13386147 0.13422209 -0.36955544 -0.08998168 0.04011202 -0.10691482 0.10340853 0.15149729
-0.04599964 0.032036275 0.0434326 0.0632752 0.1265443 -0.001745862 -0.466499 -0.14011382
0.001256884 -0.16341771 0.34936774 0.08536893 0.24393307 0.14424725 0.12925452 0.20781167
-0.08354125 0.22457212 -0.06645298 -0.21829814 0.029568061 0.24996825 -0.22256884 0.034249
0.09078658 0.1826556 0.030934613 -0.16641876 0.049656853 -0.035589233 0.058242228 0.110793926
-0.042733535 -0.06462329 0.080940895 -0.09519822 0.057063993 -0.16900477 0.1305096 -0.009356013
-0.12896271 0.028744392 -0.11066034 -0.20040765 0.079089314 0.0076852865 -0.14271644 -0.043549832

conv4.weight f4 [64, 64, 2, 2]
00000000: 0320 323d d9fb 49be 14c3 afbd 22db 10bf
00000010: 0bc2 67be 0af6 6f3e b715 55be fb96 7a3d
00000020: a5ca c6be 8e77 ed3d d2a9 8fbe 2c15 31bd
00000030: f6b9 dabd 7393 44be a2e2 27be 730f 3cbe
00000040: a941 0c3e 7691 c83d 6801 aa3d 10ef a9be
00000050: 0f97 7abe 520d acbe 9825 04be 1d9d 48be
00000060: 2db0 1a3d a0aa 11bf 88f7 073e 815b 30be
00000070: a0ac 5bbd 94cb ed3c 427d 373e ba97 d83c
00000080: f3a8 2d3e 3bff 46be d06d 993e 370e 0c3d
00000090: 583d 46be 69bd 90be e6f3 f1bd 01b1 04be
000000a0: 2e99 05be d20b cc3c 378a 86be 81e0 d5be
000000b0: befb f5be 3cf1 cb3d fde0 f4be e81a e5be
000000c0: 9800 b9be b8a8 213d 215f c7bd eb9f 85be
000000d0: 4b7f a4bc 0191 92bd f2e4 433d 4796 a4bd
000000e0: 2ac2 863e 0665 b2bc e360 e53e 8c3c 883e
000000f0: b9c3 0dbe 9ad1 4bbe 15c1 863e 0285 58bc
00000100: 5624 b9bd 3104 693d a86c adbe 9b89 8bbc
00000110: 10e2 51be f3af 3bbd 810f c2bd 3b16 babe
00000120: bbca 153e 1eb1 40be 808c 653d 896d a73d
00000130: db32 c3be 4745 efbd 97b9 83be 1201 9bbd
00000140: 1893 19be 5a01 bc3e c587 55bc 43ce eb3d
00000150: c5ba c2be 6cdc f73e 8026 dc3c 8cb2 43bd
00000160: 3021 333d 5348 203d b587 a5be 21fc a93d
00000170: 6002 e5bc 2aed 2f3d fb53 0b3d 6549 ad3d
00000180: fb0e fbbe 3755 0cbe 3bb1 4abe e785 843e
00000190: a70c 023d 59c5 903e 2806 0cbe b0c3 213e
000001a0: fa35 e63d 468a 3fbe a6b9 553e bcd2 b4bd
000001b0: d547 64be 1c3c 04bf 94ae 1fbe dd85 b5be
000001c0: fce7 23be 482e edbe 7377 243d e36d 6fbe
000001d0: 827d 1cbe 10c8 81be 68c2 07bf 8834 bbbe
000001e0: 7672 813d 82c1 903e 53c8 e53c 03e8 85be
000001f0: f24c 1abe 1529 563e 75c1 6ebe 0652 bd3d
00000200: 1cbe 33be 26c2 e1bd e5e0 5dbe 8a8e 32be
00000210: bc64 913d eb45 b5be 3284 cb3c 65c5 2c3e
00000220: c8c1 a23d 1cae 10be 1f6f 63be 18b8 4a3e
00000230: e5d4 10be f8a0 353d eed0 ddbd b26a 783c
00000240: bcdf 24bd b8e5 70bd 1d30 343e f2cc 0d3e
00000250: 27f0 be3d 8070 323d eec7 193e 0348 203d
00000260: 5753 2bbe 6983 f93c c9a1 00bf 133c 04bf
00000270: 535e a5be 07dd 073e acf2 97be 9dd8 e3bd
00000280: 1ef5 22be 50ee 4e3e c3b0 4abe 9dd6 9f3e
00000290: 5973 5dbe a244 8ebc 4821 2bbd a39e c4bd
000002a0: d854 143e a241 13be dc19 fbbd 2a28 8abe
000002b0: a20b 7ebd e593 4cbd 2ad0 08bd e827 ff3a
000002c0: c16c c73d ff36 b63d fa60 3cbc 8be1 b13e
000002d0: 4c71 08be 3530 b73c 22ed c0be 9c3c 08be
000002e0: b9ef 70bc ac51 cdbe 71b1 7a3e 5f08 c6be
000002f0: a40c d43d 0fed 10bf bc72 3b3e e7e0 b5bd
00000300: 906d 95be 5fc8 763e 58df 34be 19d8 b93d
00000310: 7777 6dbd 4460 6ebe c19c b73e ce32 0dbe
00000320: cac6 293e c87a 23be 2ac5 c03e 0a29 f83d
00000330: 9439 adbd a325 1a3d 73b1 0e3d ec31 8e3d
00000340: f80f fd3d c1e8 cb3c 0d00 823e 48ff 7a3e
00000350: a574 3d3e b970 d0be eece 79bd babc f7bd
00000360: 1569 a33e d295 6fbe 6b2e ab3e d774 ab3e
00000370: 22e2 96be 1262 6bbe bb88 debd e5bb aa3c
00000380: 25da 173e 71a7 493e 5de0 f7bd 9fcf b13e
00000390: 77fc 87be 83b1 303e 779f d9be dcf4 d0bd
000003a0: 455f 08be 6e2b 1a3e a1cc ce3d c4d2 adbe
000003b0: 5f1c c2bd b8a9 c6bd 1d4e 373c 72ce 0f3c
000003c0: 9103 3d3d 38a9 85be 0182 ad3e 8985 c0be
000003d0: 090b 0a3d 18e3 bfbe c46c 4c3e 6a31 183b
000003e0: 6f8d 7fbe 0b9a 013e 9108 bdbd 3489 39be
000003f0: f1b3 3dbe db2d 0d3e b02f 58be fcd5 e33d
0.04348756 -0.19724979 -0.0858213 -0.5658437 -0.22632615 0.234337 -0.20809065 0.061179142
-0.3882648 0.11595069 -0.2805925 -0.04323308 -0.106800005 -0.19196872 -0.16395047 -0.18365268
0.13696922 0.097933695 0.083010495 -0.33190203 -0.24471687 -0.33603913 -0.12904966 -0.19591184
0.03776567 -0.5690098 0.1327802 -0.17222406 -0.053631425 0.029027738 0.17918876 0.026439536
0.1695898 -0.194333 0.29966593 0.034193244 -0.19359338 -0.28269508 -0.11814098 -0.12958147
-0.13046715 0.02490798 -0.26277325 -0.41772845 -0.48043627 0.09958121 -0.47827902 -0.4474709
-0.36133265 0.039467543 -0.09734941 -0.2609857 -0.02008023 -0.071565636 0.04782576 -0.08036476
0.2632001 -0.021776687 0.4480048 0.26608694 -0.13844194 -0.19904175 0.26319185 -0.013215305
-0.09040134 0.056888763 -0.3387196 -0.017033389 -0.20496392 -0.045822095 -0.094756134 -0.36345086
0.14628117 -0.18817565 0.056042194 0.08175189 -0.38124737 -0.116831355 -0.2572753 -0.075685635
-0.14997518 0.3671978 -0.013032858 0.11513951 -0.3803312 0.48410356 0.026873827 -0.047777697
0.043732822 0.039131474 -0.323301 0.08300043 -0.027955234 0.042950787 0.034015637 0.084612645
-0.49034867 -0.13704382 -0.1979417 0.2588341 0.031750347 0.28275564 -0.13674223 0.15797305
0.11240764 -0.18705091 0.208716 -0.08829257 -0.22293027 -0.5165422 -0.1559394 -0.35453692
-0.16006464 -0.46324372 0.04015298 -0.23381762 -0.15282252 -0.25347948 -0.53031015 -0.36563516
0.0632066 0.28272635 0.028049624 -0.26153573 -0.15068415 0.20914109 -0.23315986 0.0924416
-0.1755299 -0.11023359 -0.21667822 -0.17437187 0.07099292 -0.35404906 0.02484331 0.16872175
0.07947117 -0.14128917 -0.22210358 0.19796789 -0.14143713 0.044342965 -0.10830866 0.015162157
-0.040252432 -0.058812827 0.17596479 0.13847712 0.09323149 0.04356432 0.15017673 0.039131176
-0.1673101 0.030458169 -0.50246865 -0.51654166 -0.32298526 0.13267909 -0.2967733 -0.111253
-0.15913817 0.20208097 -0.19793992 0.31218424 -0.21626033 -0.017366711 -0.041779786 -0.0960057
0.1448549 -0.14380506 -0.12260792 -0.26983768 -0.062022813 -0.04994573 -0.033401646 0.0019466849
0.0973754 0.088972084 -0.01149773 0.34742388 -0.1332447 0.022361854 -0.37680918 -0.1330437
-0.014705592 -0.40101373 0.24481751 -0.38678262 0.103539735 -0.5661172 0.18305486 -0.08880787
-0.29185152 0.24099873 -0.17663324 0.090744205 -0.05797526 -0.2327891 0.3586178 -0.13788912
0.16579738 -0.15964806 0.37650424 0.121172026 -0.08458248 0.03763355 0.034837198 0.069431156
0.123565614 0.02489126 0.25390664 0.24511445 0.18501528 -0.40711 -0.06098836 -0.120965436
0.3191611 -0.23396996 0.33433852 0.3348758 -0.294694 -0.2298663 -0.10865923 0.020841548
0.1482931 0.1969278 -0.12103341 0.34728715 -0.26559803 0.17255215 -0.42504475 -0.10202953
-0.13317592 0.1505563 0.100976236 -0.33949864 -0.094780676 -0.0970034 0.011188057 0.008777248
0.04614598 -0.26105666 0.33888248 -0.3760188 0.03370193 -0.37477946 0.19963366 0.0023222812
-0.24956296 0.12656419 -0.092301495 -0.18118745 -0.18525673 0.13787024 -0.21111941 0.11124799

conv4.bias f4 [64]
00000000: 428f 9dbd c763 a4bd f243 b3bb 1f08 d1bd
00000010: 7880 a93d 868c 0c3e bba5 873b 277c 68bd
00000020: 0410 0ebe e54b 5e3e 9cc1 c6bd 13b2 e3bc
00000030: e086 fb3d e8e3 963e 5c9f f23d d5b8 2d3e
00000040: 639d 213c a234 0ebe 262d 273e 0573 2e3d
00000050: c281 bd3e 5ef2 b33d a5dc a1be b830 45bd
00000060: be44 bbbd 4115 3d3e b5e5 3fbd e41d a23e
00000070: 4e59 b93d a5cc fd3d b5e1 19be 590c b03d
00000080: 78cf 823e b79a 0f3e 1afe e5bd c1c4 0cbe
00000090: 771b 92bd b874 66be 8dba 98be 2175 77be
000000a0: 1eb5 693d 23ed 99be 91fd 5b3c dac0 9a3d
000000b0: 3277 d33d e421 90bd 7326 d73d 31e3 14be
000000c0: a272 233e 4b76 3abe 6a98 c2bd 6d3f 243a
000000d0: 3fd4 2f3e 6ea0 893e dc88 8a3e 0823 d4bd
000000e0: 3c9a cfbc 6fff 823c be05 83bd 4e69 cbbd
000000f0: c910 093e 84b6 3a3e e25c d8bd c95d 93bd
-0.0769334 -0.080268435 -0.005470746 -0.10206627 0.082764566 0.1372548 0.0041396297 -0.056759026
-0.13873297 0.21708639 -0.09704897 -0.027794873 0.12281585 0.29470754 0.11846802 0.16965039
0.009864184 -0.13887265 0.16325817 0.04259016 0.3701306 0.08786462 -0.3161365 -0.048142165
-0.09143971 0.18465139 -0.046849925 0.3166343 0.09050237 0.123925485 -0.15027507 0.08596105
0.2554891 0.14023863 -0.11230107 -0.1374693 -0.07134145 -0.22505462 -0.29829827 -0.24165775
0.057057492 -0.30063733 0.013427154 0.07556315 0.10325469 -0.07037714 0.105053805 -0.14539792
0.15961698 -0.18209188 -0.09501727 0.00062655547 0.17170809 0.2688021 0.2705754 -0.10358244
-0.0253421 0.01599094 -0.063975796 -0.09932195 0.1338531 0.18233687 -0.10564591 -0.071956225

conv5.weight f4 [128, 64, 2, 2]
00000000: 0137 18bd e712 3cbe 7878 02be 3bbb 5dbe
00000010: eac8 aa3c e0d8 51bd 2888 d93c 8330 adbd
00000020: ab8d 2d3e 9927 a13c a8bd 423e c63a 5ebe
00000030: 56f5 54be 963a d33c 60e6 62be db8a 12be
00000040: 5251 debe d0b0 0bbf 5eb6 14be 451c 9abe
00000050: 62cb adbe bf51 103d 80b5 ffbd 7ef4 2dbe
00000060: 3a45 20be a2b2 c73c 575a 8e3d 269d 2f3d
00000070: 9609 81be f46f 77be f541 4fbe 9419 13bd
00000080: 7f79 6fbd 4516 debe 5346 1abd e6c5 bbbd
00000090: 65ed 183e a930 18bd 195c 8b3e 4e85 5cbd
000000a0: c9a7 2cbe ea71 a1be a0b2 133d 1c2d 053e
000000b0: 8bfd d2be 47b8 80bd 81dd 0d3d bec7 963e
000000c0: 8d2c 61be 3a75 4bbf 964a 4cbd dab2 0ebe
000000d0: 253f 88be d86b 2bbc 9311 54be 0868 713d
000000e0: 8ac4 ebbc 738b 35be f96b c7be 9201 603e
000000f0: 9654 99be 4def d23d d4f5 9c3d a438 a1bc
00000100: bcbf 863e 8f1c 653e f7c9 ebbe ae21 9fbe
00000110: e48e 49bb 1618 583c 8d10 6f3c e66f 6b3d
00000120: 3c57 323d f3d1 873e 5938 a0be 8655 33be
00000130: 1641 ed3d 5e50 20be 3bec 3b3d 045c 4e3e
00000140: 117a ec3d 41ca 3bbb 2328 f43d a8b2 243d
00000150: 64d1 11bd e0b6 cbbd 4286 adbc 2c1b fc3d
00000160: c580 abbe 2b07 363d 39af 13bc 8d1c a93e
00000170: 4718 c9be de0e 90be fdc2 a83d 6a3b 06bc
00000180: 597e 95bd 2101 03bd 6d9f 9bbd 4fe7 a9bd
00000190: 931a 1fbe 983f 5abe 5849 ac3e 427b 203e
000001a0: 80f8 02bc 1d4d 7ebd c0b8 653e d2ac 03bf
000001b0: a879 f53e 6f07 2bbd 27cb 833e fec9 273e
000001c0: 1d5d 1f3e e64e ca3c d2b0 263f e9c0 56bd
000001d0: 7a0b 483e 2f14 873e db8c bc3e 629e 9f3e
000001e0: 9c77 34bd 7b22 0f3d 97d4 04bd df14 46be
000001f0: 88aa 613e 3fe8 3bbe 0e3e 5e3e cec5 b7be
00000200: 6283 dbbd bd98 7fbd 39b5 aabd a2a2 a5bd
00000210: 1b44 88be 6b09 e8bb be4f 87bd b5d3 15bd
00000220: f8da d33e 1de0 173f aca2 4c3e 1970 ee3e
00000230: d0b7 40be b196 8c3e d45e a0be 6390 80bc
00000240: 3c80 243d d695 8a3d a8a9 dc3c d595 8dbe
00000250: 68fa b6be 4676 8fbe 512c 25be 7ea4 983e
00000260: af92 ebbc 301e c43e c95b e2bd 5d45 75be
00000270: 2611 40be 0acb 32be 72f0 fbbe 58c3 82be
00000280: 44e9 b1bd 7721 94be a777 7a3e ae96 5ebd
00000290: a5d3 bcbe f5f7 79be 045f 55be 92de 97be
000002a0: d080 3fbd df19 b93d 6f3f 45be 6ff1 cfbe
000002b0: 2926 a53d 4d73 103e c2c8 f63d f5ed c23e
000002c0: b8ab 8dbd 9496 6abe dd18 45ba 2668 60be
000002d0: ef86 2f3d dae1 003e 7f4b 64be 6eff c8bd
000002e0: e3a7 e0be 6847 b8bc 62d8 e8be bc17 a5be
000002f0: 6b16 2f3e efce bfbd 4397 93be 8fc6 b4be
00000300: 3e9e 07be 471a ccbc da18 1abe 1fea 4dbd
00000310: 85a1 1d3e 31e7 3bbf 6da6 91be ca4a 1ebf
00000320: 42e0 4cbe a29b 9d3d 3b28 9dbd 7968 84be
00000330: b9ce 363e 22a7 993d ee27 5c3e 1c02 8abe
00000340: 3a89 8c3d c483 73be 803d 56be bc70 93be
00000350: b19c 903e 8895 d93e eb04 533d 5a39 5abe
00000360: c6c5 573e ff35 8ebe 0f1c 2ebe bbcf acbe
00000370: d6e6 a7be bf1c e8be d87d 3e3e 1b59 6fbe
00000380: 969b 843d c1d9 04be e327 133e 1dc9 6c3d
00000390: 4cfa 843d 71d5 103e 7913 cebe 840c 2ebe
000003a0: 1deb cb3c e057 993e b17b 68be 6fb0 9a3e
000003b0: 2815 6bbe 2505 00be 988b c3bd 822c 973d
000003c0: 42b1 b9bd 6d8e ce3d 734b d93d 6728 6a3f
000003d0: 3ea6 afbe a129 4cbe 3782 6cbd 5129 d5be
000003e0: d5eb 0b3e 4327 c83d 2007 cebc dc80 14be
000003f0: 39db 64bd 7b61 67bc 8afa 703a 0efd 713c
-0.03716183 -0.18366586 -0.12741268 -0.21653454 0.020847756 -0.05123222 0.026554182 -0.084565185
0.16948573 0.019672202 0.1901766 -0.21702108 -0.20796713 0.025784772 -0.22158194 -0.14310782
-0.43421417 -0.5456667 -0.14522693 -0.30099693 -0.3394423 0.03523421 -0.1248579 -0.16987798
-0.15651408 0.024377171 0.06950825 0.042874478 -0.25202626 -0.241638 -0.20240004 -0.035913065
-0.058465477 -0.43376365 -0.037664723 -0.091686055 0.14934309 -0.03715578 0.27218702 -0.053838067
-0.1686088 -0.31532222 0.036059022 0.13005489 -0.41209063 -0.06285148 0.03463507 0.29449266
-0.21989651 -0.7947575 -0.04987582 -0.13935414 -0.26610675 -0.010462724 -0.20709829 0.058937103
-0.02878024 -0.17728977 -0.38949564 0.21875599 -0.29947346 0.10299549 0.076640755 -0.019680329
0.26318157 0.22374175 -0.46052524 -0.31080383 -0.0030755335 0.013189336 0.014591348 0.05747976
0.043540224 0.26527366 -0.3129299 -0.17513093 0.1158468 -0.15655658 0.045879584 0.20152289
0.1154672 -0.0028654488 0.11921718 0.040209442 -0.03560008 -0.0994699 -0.021182183 0.1230987
-0.3349668 0.04444043 -0.009013944 0.33029595 -0.39276335 -0.28136343 0.08240316 -0.008192876
-0.072994895 -0.0319835 -0.075987674 -0.08296072 -0.15537481 -0.21313322 0.33649707 0.15672019
-0.007993817 -0.06208526 0.22433758 -0.5143558 0.4794438 -0.041755136 0.2574093 0.16385648
0.15562864 0.024695825 0.65113556 -0.052430067 0.19535628 0.26382586 0.36826214 0.31175524
-0.04405938 0.034944993 -0.032429304 -0.19343899 0.22037709 -0.18350314 0.2170336 -0.358931
-0.10718419 -0.062401522 -0.08335347 -0.0808766 -0.2661446 -0.007081201 -0.066070065 -0.036578853
0.41377997 0.59326345 0.1998393 0.465699 -0.18820119 0.27458718 -0.31322348 -0.015693849
0.040161356 0.0676686 0.026936367 -0.27653375 -0.3573792 -0.28019923 -0.16130187 0.29812998
-0.028756468 0.3830428 -0.11052663 -0.23952241 -0.18756542 -0.17460266 -0.49206883 -0.2553966
-0.0868707 -0.28931782 0.24459706 -0.054342918 -0.36880222 -0.24410994 -0.20837027 -0.29661995
-0.046753705 0.09038138 -0.19262479 -0.40613887 0.08063919 0.14106484 0.1205001 0.38072172
-0.069175184 -0.22909003 -0.00075186585 -0.2191473 0.042853292 0.12586156 -0.22294424 -0.09814344
-0.43878087 -0.022494987 -0.45477587 -0.3224467 0.17098396 -0.09365641 -0.2882634 -0.35307738
-0.13243958 -0.024914874 -0.15048543 -0.050272103 0.15393646 -0.73399645 -0.28447285 -0.6183287
-0.20007423 0.076957 -0.07673689 -0.25860956 0.17852296 0.07502581 0.21499607 -0.26954734
0.068621114 -0.23780733 -0.20921898 -0.28796947 0.28244546 0.42496896 0.051518362 -0.2131094
0.21071538 -0.2777557 -0.17002891 -0.33752236 -0.327933 -0.45334432 0.18602693 -0.23373835
0.06474988 -0.12973692 0.14370684 0.057808984 0.06493053 0.14143921 -0.4024923 -0.16996962
0.024892384 0.29949856 -0.22703435 0.30212733 -0.22957289 -0.12501962 -0.0954811 0.07381536
-0.09067012 0.10085759 0.10610094 0.914679 -0.3430652 -0.19937755 -0.05774137 -0.41633084
0.13664182 0.097731136 -0.025149882 -0.14502281 -0.05587313 -0.014122362 0.00091926067 0.014769806

conv5.bias f4 [128]
00000000: 4877 683e 4cc6 053d 9b21 603e 8c58 3d3e
00000010: 9571 c4bd d1bf ec3d cf81 4e3e e0c8 b13d
00000020: fdfb 4b3e ec1b 9ebe 2f6d 083e ea98 363d
00000030: 6e39 83be f087 49be 7db5 f2bd 96e7 6f3d
00000040: 31e8 85be 67e1 203e 8b99 f13d 7b08 ddbd
00000050: 90b8 f93d 412a cd3c 94f6 a4bc b8bf c33c
00000060: 5bda cc3e 3325 2f3e 48d7 f53d 283b e8be
00000070: f489 f4bd 8218 26be d2a4 6abc 7f1e 47bc
00000080: c24f e53b f433 6dbe 9bfe 203e 5b97 4c3e
00000090: 8345 323d c5bb cc3d 1008 f7bc 7928 c3bc
000000a0: e837 723d 8121 473d 7e46 b53d fe28 a13d
000000b0: 64d0 523c 761e 2c3e 6d90 38bd 17e9 603e
000000c0: 21e1 023e dd44 033e c812 0abe 1160 88be
000000d0: 1e67 cdbe 5ea2 85be f365 8c3d ceb0 433e
000000e0: 0688 2d3d 4e40 3a3e c9e9 27be 8516 493d
000000f0: f2c7 48bd 4504 663e 0f2a 373e 400b 4c3e
00000100: e3ef 1dbe 249e 813e 82f3 c5bd 37c4 6b3e
00000110: d7fe 80bd 720f 853c df7e 23bc 9b2d b1bc
00000120: 07d0 8a3d 4f2a 2cbe 743f d0bd ae40 57be
00000130: 370b 7f3c c14e 8ebe 6907 42be fab7 0b3d
00000140: b25d 053e 08ef 3bbd 4946 1e3c 34ba a3bd
00000150: 4a67 bcba 9cdf 08bc 1e85 aebd f3e0 d03d
00000160: 32cb b0be a455 8f3e d5d5 0a3e 1a08 32bc
00000170: f441 0bbe 5f6c 81bd 3082 02be 268b b63c
00000180: c32d 863e 185a 803d ba1c 0ebe 8bfd 9b3e
00000190: 45f2 06be 504a 0cbe 7b47 0b3e 9e45 07bd
000001a0: 38d0 02be 371a 9fbd 8509 453e 5a06 2ebe
000001b0: b1fa 133e 3f9d 2f3e 46da 843e aa8d c2bd
000001c0: 8f41 5f3e 5371 1d3d 093f 833d 70ac c5bc
000001d0: 63ab 3bbe 6a77 693d ba38 e7be ac4f 383e
000001e0: 8fd8 703e 55c1 cd3c 3e22 8f3c 849d 9f3c
000001f0: cab0 f93d 3e9a a4bd 747e 2fbe ffe7 37be
0.22701752 0.032659814 0.2188782 0.18490809 -0.095919766 0.115600236 0.20166706 0.08680892
0.19920345 -0.30880678 0.133229 0.044579424 -0.25629753 -0.19680762 -0.118510224 0.058570467
-0.2615371 0.15710984 0.11796864 -0.10792633 0.12193406 0.025044562 -0.020137109 0.02389513
0.40010342 0.17104034 0.12003952 -0.45357633 -0.11940375 -0.16220286 -0.014321523 -0.012153267
0.0069980333 -0.2316435 0.15722124 0.19979613 0.043523323 0.09996752 -0.030155212 -0.02382301
0.059135348 0.048615936 0.08851336 0.07869147 0.012867067 0.16808495 -0.04505961 0.21963917
0.12781192 0.12819238 -0.13483727 -0.26635793 -0.40117735 -0.2610044 0.06855383 0.19110414
0.04236605 0.18188593 -0.16397776 0.049093742 -0.049018808 0.22462566 0.17887138 0.19926167
-0.15423541 0.25315964 -0.09665586 0.23024069 -0.06298607 0.016242716 -0.009978979 -0.021628192
0.06777959 -0.16813014 -0.10168353 -0.21020767 0.015566639 -0.2779446 -0.18948139 0.034111
0.13024023 -0.045882255 0.009660312 -0.079945 -0.0014374044 -0.008354094 -0.08521484 0.10199156
-0.34530026 0.27995026 0.13558133 -0.010866189 -0.13599378 -0.06319498 -0.12744975 0.022283148
0.26206788 0.06267184 -0.13878146 0.30466875 -0.13178356 -0.13700223 0.13601486 -0.033025376
-0.12774742 -0.07768672 0.19241913 -0.1699461 0.144511 0.17149828 0.2594778 -0.094996765
0.21802352 0.038438153 0.064085074 -0.024130076 -0.18327098 0.056998648 -0.45160466 0.17999142
0.2352011 0.025116602 0.017472383 0.019484289 0.12191923 -0.08037232 -0.17138082 -0.17959593

conv6.weight f4 [64, 128, 2, 2]
00000000: 09ce 06bd c139 a0bc be6b 19bf 9e4b f3be
00000010: c9e3 5bbe e5d5 96be 7ee6 b3be dd0b 99be
00000020: a934 04be dcb1 d0be f5e8 77be cd78 493e
00000030: bdb5 523e 6700 08bd ed8b 8dbc 9617 cbbd
00000040: f0b3 e5bd d1b3 963d 48f2 0a3e 8375 763e
00000050: 3d6d 9b3d 1a73 173e 885d c03e a117 9e3e
00000060: 7480 40bd 2e15 263e 26d6 773d 8c71 d2be
00000070: 93b8 653e 39a4 dfbc 3ba6 2abe 48de 953d
00000080: 9f52 52be bd96 0bbe 1fc9 98bd 2766 92bd
00000090: 87f3 b4be 1a89 72be 043a 073b 4b58 26be
000000a0: e241 873d 7d85 a2bc b508 143e 4d3d 723d
000000b0: 28c9 af39 5440 31be 4697 92be 2f5e babe
000000c0: 6a43 68be ad3e ebbe 3db3 283e 88d6 5ebc
000000d0: aa61 8abe 4b6a 933d 022f 8f3d ba14 27be
000000e0: 97f5 80be 68ce b7be 648d 3c3e b7d1 bfbd
000000f0: 96d7 0bbc 1832 ae3d 32b6 a8bc c93c bfbd
00000100: e164 acbc 7a02 863d df95 123c 5e5a db3d
00000110: f612 4c3d e9bc 473d 1c42 e73e 0778 e03e
00000120: c81f c53c 8c90 943d de0b 443e 16a2 603e
00000130: 57fe a7bc c7a5 913c d3e9 cdbc bab8 d03c
00000140: cbf9 f23d 9f6f 1b3d 9763 573d 58b4 b2be
00000150: f095 d7bd a5ef 4d3e 0893 613e 221d 833e
00000160: 8f4a d23d 19fc d2be b9c7 5abe e4cb 1fbf
00000170: 6166 7bbe bcdd 49be 640f 27bf 374f 4bbf
00000180: 0f64 55bd 0472 dfbe c407 22bf 8715 c7be
00000190: 4811 1bba f44e e0be 1d50 abbe f676 5bbf
000001a0: d630 5bbe d2e2 aebe a3b0 9b3d b602 c5bd
000001b0: 633d fe3c 8a12 03be 68aa 633d 47b0 723e
000001c0: 073a 03be 1b66 68bd 67ee 833d dd07 7dbd
000001d0: 4623 c0bc 98c7 bbbc fe33 81bd d1d0 f2bc
000001e0: b00d f4bd 6676 813e e363 373d f4a9 81be
000001f0: 1a7c 2fbe bebe 1ebd 58b0 08bc 38a2 bbbc
00000200: d543 793e afd7 043e f256 cabd 2edd 6b3e
00000210: 1bcd c93c cf3f 4cbd 196d a0bd 996b 8abd
00000220: a5c2 8f3e 611e 0c3d 2949 60be 1dad 45bc
00000230: 150d f4bd 8dd2 06be 094e 0b3d b0d4 343d
00000240: ab86 853e 3ab1 a53e e97d 883d 3a7e c73e
00000250: cb21 e73d 8c06 a23e c292 4e3e 14a8 bc3d
00000260: a476 2d3d 383b abbe 409a c73d e0b7 03bf
00000270: 218e 36be 5af9 1ebe 8cb9 f5bc 3524 883e
00000280: acdf 043e 900c c6be d370 463d 3533 413c
00000290: af6d 0a3e 4de1 c9bd deb3 483d 448c b73d
000002a0: cb43 3d3e da1d 49be 3beb 57be 7d01 03bf
000002b0: 2fd5 98be f028 853d c7fa a83e baf9 483e
000002c0: f12d 153e 3db4 0a3d 8e7c 783e f3a0 673e
000002d0: 429c adbe f26e bbbe 024f 8abe 86a2 443e
000002e0: 0412 5d3e 52ff 8bbd f27d 933e fdf7 133e
000002f0: b82e 48be a76b 23bc a3cf 26be de22 0abe
00000300: 5a4c 2abe 9593 1abf 31fa c3bd d146 90be
00000310: af51 2dbe 52da 563e ef7f 963e 6b32 afbe
00000320: d9f5 74be 730e c2bd ddbb 5f3d 1eff 19be
00000330: 398a 813e 34a7 9bbc 34dd 003e 8073 823e
00000340: ed82 a73e e297 583d f9a6 ef3d 4b44 b9bd
00000350: ee98 773e b62e 7c3e 4d97 423d 0973 b33d
00000360: 4e9e 10bd 374a 493e 543e c63e 4ddd 2f3e
00000370: 5b8a 2dbe fad2 71be f1f9 8bbd 224f adbd
00000380: d776 6fbd 3bad 77bd 6007 ab3e dc6e c63d
00000390: bb32 a03c 8c32 cd3c 334f 8a3e ab63 ab3c
000003a0: 9b4a 2f3b 097d 8cbc 8324 acbc 89ab 033d
000003b0: b3ba 2a3e 9876 273e 737a 6bbe 0792 6abe
000003c0: 6723 ba3d d0b4 0e3c 76bd 40be 005f 813e
000003d0: 9c2b 9e3e 8d65 243e 41ad f5bd 1b93 033d
000003e0: 2cda 8bbb 0205 1d3e b956 25be 2fcf e63d
000003f0: f3de 6b3e 36fd ce3d a342 71be c21e d4bd
-0.032911334 -0.01955879 -0.59930027 -0.4751863 -0.21473612 -0.29460064 -0.3513679 -0.29891863
-0.12910713 -0.40760696 -0.2420996 0.19674988 0.2057714 -0.03320351 -0.017278636 -0.09916608
-0.11215961 0.07358516 0.13568985 0.24068265 0.07589195 0.14790002 0.3757136 0.30877402
-0.046997502 0.16219017 0.060506962 -0.41102254 0.2243369 -0.027299987 -0.16664974 0.073177874
-0.2053933 -0.13631721 -0.07460236 -0.0714839 -0.35342047 -0.23685113 0.0020633945 -0.16244619
0.06604363 -0.019839043 0.14456446 0.059140492 0.00033528474 -0.17309695 -0.28631037 -0.3639998
-0.22681966 -0.45946255 0.16474624 -0.013600953 -0.27027637 0.07198008 0.06991388 -0.163165
-0.2518737 -0.35899663 0.18413311 -0.09366172 -0.008535286 0.085056484 -0.02059469 -0.09337766
-0.021044197 0.06543441 0.008946865 0.107105955 0.04982277 0.048764143 0.45167625 0.43841574
0.024063006 0.07254133 0.19145152 0.21936831 -0.02050702 0.017779244 -0.02513591 0.02547871
0.118640505 0.037948247 0.05258521 -0.34903216 -0.10526645 0.20110948 0.22028744 0.25608164
0.10268127 -0.4120796 -0.2136525 -0.6242049 -0.24550773 -0.19713491 -0.6525786 -0.7941775
-0.052097376 -0.43641675 -0.632931 -0.38883612 -0.0005915356 -0.43810236 -0.3345956 -0.85728395
-0.21405348 -0.34157425 0.0760205 -0.09619658 0.03103513 -0.12800041 0.055582434 0.23700057
-0.12815104 -0.056738 0.06441956 -0.061775077 -0.02345432 -0.022922322 -0.06308745 -0.029640587
-0.11916673 0.25285643 0.044772994 -0.25324976 -0.17137185 -0.038756125 -0.008342825 -0.0229045
0.24342282 0.12972902 -0.09879865 0.23033592 0.024633935 -0.04986554 -0.07833309 -0.06758804
0.2807819 0.03420866 -0.21902908 -0.012065199 -0.11916558 -0.13166256 0.034009967 0.044148147
0.26079306 0.32361776 0.066646405 0.3896349 0.11285742 0.3164562 0.20173171 0.09211746
0.042349473 -0.33443618 0.09746218 -0.51452446 -0.17827655 -0.15524808 -0.029995702 0.26590124
0.12975949 -0.3868146 0.04844744 0.011791994 0.13518403 -0.09857426 0.04899966 0.089623004
0.18482892 -0.19640294 -0.21085827 -0.51174146 -0.29850146 0.06501949 0.33003828 0.19626513
0.14568307 0.033863295 0.24266264 0.22619991 -0.33908278 -0.36608082 -0.27013403 0.19202623
0.21588904 -0.06835808 0.28807026 0.14450069 -0.19549072 -0.009974397 -0.16290145 -0.13489863
-0.16630688 -0.6038144 -0.095692046 -0.2817903 -0.16925691 0.2098172 0.2939448 -0.34218153
-0.23921908 -0.09475412 0.05462252 -0.15038726 0.25300768 -0.019000627 0.12584382 0.25478745
0.32717076 0.05287922 0.117017694 -0.09046229 0.24179432 0.24627194 0.047507573 0.087621756
-0.03530722 0.19657217 0.38719428 0.17174263 -0.1694731 -0.23615637 -0.06834782 -0.08462359
-0.058462944 -0.06046794 0.33404064 0.096891135 0.01955544 0.025048517 0.2701355 0.020921549
0.002674735 -0.017149465 -0.021013504 0.03214601 0.16672783 0.16353834 -0.2299593 -0.22907268
0.09088784 0.008710101 -0.18822274 0.25267792 0.30892646 0.16054364 -0.11995936 0.032122713
-0.0042679515 0.15333942 -0.16146363 0.11269986 0.23034267 0.1010689 -0.23560576 -0.10357429

conv6.bias f4 [64]
00000000: 8668 0a3e 19ab 86bd 7546 e3bd 7375 4c3e
00000010: 7724 fcbd 440a 973e 6f39 f13d 8367 8b3d
00000020: 149f 0d3e 1673 843d 394e 113e 27ea 933e
00000030: c3d2 f03d 0d2e 98be 9773 a03d 1b5b 8cbe
00000040: 58ba cc3e 492f d9bd 9497 43be c694 7c3d
00000050: e7bd 12be 20d3 093d 9fd1 87bd d00a e6bd
00000060: f86c 05be c5f3 a93d a2e0 a1be 6610 a23d
00000070: 3667 48be 8646 c2bd 5e06 a3be e2b8 8f3d
00000080: 613e 1bbe 4f04 f4be 1bdb acbe c1d8 f33d
00000090: ca40 0fbe 83f9 1abe 9ece dfbd 3582 2abd
000000a0: 5cf1 e6bd 26f4 5abd 851a 77be 2711 28be
000000b0: 5eb9 0bbe 6002 0f3e 2f9c 093d b8bd 7b3e
000000c0: 476c 34be 0ca4 f33b b0d5 393e 6165 f33d
000000d0: 95b2 7fbe e260 c0be 3cd7 87be 1722 343e
000000e0: be55 a93d f34f 5c3e 0d6a ab3e 4ad4 9dbd
000000f0: 76fc d4be 38e7 2abe 6f05 a83e 8ff2 b8bd
0.13516435 -0.06575603 -0.11097423 0.19966678 -0.123116426 0.2950002 0.11778533 0.06806853
0.13830215 0.064672634 0.14189996 0.28889582 0.117589496 -0.29722634 0.07834547 -0.27413258
0.3998592 -0.10604722 -0.19100791 0.06166532 -0.14330254 0.03364861 -0.06631779 -0.11232531
-0.1302985 0.082984485 -0.31616694 0.07913284 -0.19570622 -0.094861075 -0.31840795 0.070176855
-0.15160514 -0.47659537 -0.33760914 0.11906577 -0.13989559 -0.15134244 -0.10928081 -0.04162808
-0.112765044 -0.053455494 -0.2413121 -0.16412793 -0.1364493 0.1396575 0.033596214 0.2458409
-0.1761943 0.0074353274 0.18147922 0.11884571 -0.24970467 -0.37573916 -0.26531398 0.17591129
0.08268307 0.21514873 0.33479348 -0.077065066 -0.41598862 -0.16689765 0.32816646 -0.090306394
