model/model_22.pth (torch_old, 571877 bytes, 24 tensors)

conv1.weight f4 [32, 3, 2, 2]
-0.10943055 -0.112608925 -0.1527583 0.39130828 -0.5939927 0.15153971 -0.1371914 0.43146315
-0.296596 -0.074738674 0.0034442542 0.27486503 0.2019457 -0.12969024 0.12203395 0.014927436
0.069866806 -0.06369653 0.32532614 0.03988445 -0.13666461 -0.24544019 -0.04107224 -0.23725313
-0.119757034 0.04324046 0.12542935 0.22977291 -0.3348276 0.20167238 -0.043429688 0.31009817
0.136254 -0.19917068 -0.46029964 -0.1174081 0.3868326 -0.04840857 0.06762461 -0.2762096
0.3877991 -0.23082118 0.16629158 -0.19411518 -0.059145033 0.016987192 -0.2144337 -0.14687821
-0.15709291 -0.10459012 -0.3721629 -0.2205327 0.19639277 -0.0836277 0.30230936 0.22133693
-0.04626878 -0.28383094 0.15359671 0.02321051 -0.19080715 0.116675556 0.24087264 0.2559223
-0.19510555 -0.13289066 -0.0051283706 -0.023364574 -0.3289697 -0.35832074 0.1207058 -0.17125952
0.034475382 -0.07586799 -0.05550714 -0.04343009 0.1664599 0.15845871 -0.20066875 0.19890514
-0.15858479 -0.21003301 -0.0046015927 -0.10368186 0.236626 0.051233005 -0.57176876 0.059750963
0.1273902 0.4880754 -0.117821164 -0.24463277 0.24303833 0.31719154 -0.3508445 -0.20602652
0.04254075 -0.2888979 0.18089698 -0.09754647 0.13456184 -0.45770773 0.41605532 0.035658788
-0.2309681 -0.402008 0.55433196 0.10452064 0.14486319 -0.033039387 0.036530167 0.1575531
0.21879639 -0.2765881 0.013006317 0.22446096 0.14918044 0.13960807 -0.19689544 -0.14795342
-0.11706826 0.040496603 0.28332147 -0.26661238 0.17021416 -0.1866681 -0.33800882 -0.12519784
0.21001278 0.26710135 -0.22561994 0.03180671 0.37191632 0.22307427 0.12586358 0.09666876
0.14150557 -0.016425077 -0.47633365 -0.52125216 -0.008001878 0.05457436 -0.27682167 0.045839168
0.012980684 0.008853913 -0.1254864 0.056491558 0.16102462 0.3308539 -0.18734328 0.38414294
-0.13568446 0.024783768 -0.4235684 -0.18255156 -0.36362058 -0.14974539 0.17840137 0.022082364
-0.26264194 0.21625492 0.091040246 0.35111398 -0.3138208 0.055683758 -0.24149515 -0.028847253
-0.53274924 -0.30816716 -0.24770279 0.13457447 -0.05097997 0.0819448 0.32024562 0.4711157
0.067018636 -0.063515924 -0.2122033 0.34546804 0.13080817 0.10085861 -0.21665137 -0.15085667
0.009760852 0.34113583 -0.16958326 -0.25763357 0.11726427 -0.14882052 0.15609318 -0.20504485
0.02173198 -0.095167615 0.34161615 -0.37019047 0.2250567 -0.047127098 0.37550104 -0.46955642
0.19257723 -0.3584626 0.32114068 -0.3269587 -0.022956183 0.14675726 -0.22257867 0.21595901
-0.21730524 0.2504465 -0.2028388 0.29649732 -0.60536635 0.18104142 -0.06408758 0.28781763
0.117460355 -0.18558472 -0.17742558 0.29414427 -0.39866266 0.3187751 -0.43380725 -0.19737117
0.24821194 0.01253346 0.0032113085 0.40430602 0.18982439 0.44622436 -0.2613628 -0.26864392
0.32248223 0.21753953 -0.28013387 0.07872094 -0.31247133 0.3301992 -0.1842814 -0.3810911
-0.26206264 -0.05147106 0.17114334 0.054175466 -0.3536069 -0.15176539 -0.4215941 -0.29312977
-0.16978158 0.29067522 0.36552477 0.052591193 -0.017815098 0.19686288 -0.11767302 -0.215904
00000000: 201d e0bd 829f e6bd ac6c 1cbe 8f59 c83e
00000010: e80f 18bf 3a2d 1b3e e77b 0cbe bde8 dc3e
00000020: 6edb 97be 9710 99bd ffb8 613b 1cbb 8c3e
00000030: dbca 4e3e 85cd 04be f0ec f93d 3492 743c
00000040: 5416 8f3d 5473 82bd 2691 a63e e15d 233d
00000050: cff1 0bbe ac54 7bbe 5d3b 28bd 7cf2 72be
00000060: 2d43 f5bd e91c 313d 8d70 003e 9749 6b3e
00000070: 866e abbe 3483 4e3e 54e3 31bd 30c5 9e3e
00000080: 2b86 0b3e 66f3 4bbe 65ac ebbe a873 f0bd
00000090: ec0e c63e 1148 46bd c67e 8a3d 586b 8dbe
000000a0: 9b8d c63e 635c 6cbe 5748 2a3e 21c6 46be
000000b0: 1042 72bd b928 8b3c 8294 5bbe 3e67 16be
000000c0: f7dc 20be 5833 d6bd 238c bebe 53d3 61be
000000d0: 301b 493e 0045 abbd 4bc8 9a3e 26a6 623e
000000e0: 5584 3dbd 4a52 91be 7548 1d3e f823 be3c
000000f0: f362 43be 98f3 ee3d 51a7 763e 3f08 833e
00000100: c0c9 47be 7d14 08be e40b a8bb 1067 bfbc
00000110: b76e a8be d175 b7be 9a34 f73d a85e 2fbe
00000120: 0f36 0d3d ad60 9bbd 745b 63bd c0e3 31bd
00000130: 7774 2a3e 0043 223e 1c7c 4dbe caad 4b3e
00000140: 0d64 22be e512 57be f5c8 96bb 2857 d4bd
00000150: 164e 723e b3d9 513d 705f 12bf 6dbd 743d
00000160: 9472 023e 05e5 f93e 394c f1bd 0381 7abe
00000170: 0adf 783e ee66 a23e e4a1 b3be 9ef8 52be
00000180: 363f 2e3d 6dea 93be 0f3d 393e 72c6 c7bd
00000190: 94ca 093e ab58 eabe 3405 d53e f30e 123d
000001a0: e782 6cbe fed3 cdbe b3e8 0d3f eb0e d63d
000001b0: 0457 143e 4f54 07bd a8a0 153d 9a55 213e
000001c0: 290c 603e f59c 8dbe 7318 553c 18d9 653e
000001d0: c2c2 183e 6bf5 0e3e f59e 49be 1a81 17be
000001e0: 7cc1 efbd c4df 253d 830f 913e 6b81 88be
000001f0: 9f4c 2e3e ec25 3fbe 7e0f adbe dd33 00be
00000200: 970d 573e 82c1 883e ea08 67be c147 023d
00000210: d16b be3e 956d 643e 62e2 003e 45fa c53d
00000220: d6e6 103e e28d 86bc 01e2 f3be c870 05bf
00000230: 4f1a 03bc 5d89 5f3d 92bb 8dbe dac1 3b3d
00000240: efac 543c 0110 113c 827f 00be b163 673d
00000250: a3e3 243e af65 a93e ebd6 3fbe 62ae c43e
00000260: def0 0abe 5407 cb3c f5dd d8be ccee 3abe
00000270: 7a2c babe db56 19be d9ae 363e 13e6 b43c
00000280: 0179 86be ee71 5d3e 4f73 ba3d 36c5 b33e
00000290: 1fad a0be a714 643d 814a 77be 1351 ecbc
000002a0: 4162 08bf 16c8 9dbe cda5 7dbe e4cd 093e
000002b0: 5fd0 50bd add2 a73d 3cf7 a33e 1436 f13e
000002c0: 1141 893d a314 82bd d24b 59be 30e1 b03e
000002d0: 94f2 053e f58e ce3d dbd9 5dbe 2c7a 1abe
000002e0: fbeb 1f3c 5ba9 ae3e 3ca7 2dbe 8ce8 83be
000002f0: 4028 f03d 6864 18be e4d6 1f3e 47f7 51be
00000300: 4407 b23c 3de7 c2bd 50e8 ae3e 9b89 bdbe
00000310: 4375 663e 5808 41bd ac41 c03e b369 f0be
00000320: f732 453e 6988 b7be 8d6c a43e 2167 a7be
00000330: 9b0e bcbc 8947 163e aaeb 63be 5c24 5d3e
00000340: 4485 5ebe 863a 803e f9b4 4fbe 7fce 973e
00000350: 4af9 1abf ec62 393e 5940 83bd d55c 933e
00000360: 0e8f f03d ec09 3ebe 0daf 35be 149a 963e
00000370: 831d ccbe 7d36 a33e fc1b debe ab1b 4abe
00000380: 452b 7e3e 2459 4d3c d174 523b 3301 cf3e
00000390: 5361 423e 8577 e43e 58d1 85be b28b 89be
000003a0: 641c a53e afc2 5e3e b56d 8fbe 7238 a13d
000003b0: 3efc 9fbe df0f a93e 43b4 3cbe 5f1e c3be
000003c0: 132d 86be 51d3 52bd 3340 2f3e 18e7 5d3d
000003d0: f70b b5be 6368 1bbe 2fdb d7be 1b15 96be
000003e0: 39db 2dbe 62d3 943e 1026 bb3e dd69 573d
000003f0: f8f0 91bc 6c96 493e 8dfe f0bd f015 5dbe

conv1.bias f4 [32]
-0.37917596 -0.0931309 -0.49274567 -0.16907458 -0.38791132 -0.50474507 -0.559277 0.1304754
0.0850331 -0.35181874 -0.40553883 -0.023517845 -0.093267284 -0.1967214 0.077124074 -0.39626908
-0.083172366 0.12002273 -0.16365986 -0.5285525 -0.5088389 -0.754426 0.13478464 -0.6105831
0.051306814 -0.10356337 -0.36953974 -0.45915177 0.11448576 -0.4683962 -0.39778382 0.07047569
00000000: 5a23 c2be 6abb bebd 2949 fcbe e321 2dbe
00000010: 509c c6be f936 01bf c72c 0fbf 589b 053e
00000020: d525 ae3d 9621 b4be c9a2 cfbe 7fa8 c0bc
00000030: eb02 bfbd 5671 49be 3af3 9d3d c8e3 cabe
00000040: 4656 aabd 7ace f53d 7396 27be 374f 07bf
00000050: 4443 02bf 1022 41bf fc04 0a3e 2d4f 1cbf
00000060: 1827 523d 0819 d4bd 5034 bdbe f115 ebbe
00000070: 8377 ea3d a0d1 efbe 52aa cbbe 8f55 903d

conv2.weight f4 [32, 32, 2, 2]
-0.19747722 0.12039753 -0.095415846 -0.08759267 0.020395309 0.043775387 -0.06995256 0.012462315
-0.020037584 0.032187246 -0.20693418 -0.17825878 -0.09750916 -0.07913319 -0.033442464 -0.09796083
-0.09407083 0.026629755 -0.10996218 -0.19599164 -0.04446089 0.032922816 -0.031981878 0.07636804
0.036446165 0.14460635 -0.12476364 0.029768363 -0.30381623 -0.3199628 -0.053253293 -0.44467333
0.11002081 0.1103749 0.14157677 0.2679092 0.1096675 -0.084264584 0.12321553 0.103063434
-0.11253996 0.07233228 0.06678882 -0.02361833 -0.02930296 -0.26222748 0.1731209 -0.16144277
0.13050555 -0.034646817 0.07356394 -0.18114091 0.061548308 0.075808495 0.0063079586 -0.11242754
0.110042095 0.0065447013 0.15312253 0.118636936 -0.00031362227 0.31977046 -0.07887479 -0.07974263
0.15231404 -0.024255887 -0.19603391 -0.009418169 0.042337947 -0.25109845 0.053276625 0.0027501243
0.06761664 0.04962869 -0.08421879 -0.208403 -0.12458268 -0.26000133 0.05319836 0.0931412
0.2912306 0.35717416 -0.43139052 -0.1843507 -0.27364692 -0.13476807 -0.05478948 -0.21501085
-0.12959994 -0.0016550467 -0.035217103 -0.016785117 0.4909886 0.22463684 -0.23996755 -0.2895101
-0.2903286 0.10144817 0.1283398 -0.2817608 0.13032164 0.111921884 -0.20041773 -0.22530793
-0.08795524 0.23517989 0.058469903 -0.061929375 -0.045415744 0.11045172 -0.001435472 0.04299507
0.14931783 0.16912317 0.17752092 0.30406654 0.03443784 0.26052618 -0.3324671 -0.16110069
-0.25943384 0.19714852 -0.12408889 0.08509016 0.1545406 -0.07015717 0.072106205 0.074793935
-0.22757179 -0.12437632 -0.16954528 -0.27126664 -0.39249822 -0.23553996 -0.30722204 -0.34570226
-0.36753058 -0.45245495 -0.5427858 -0.30152893 -0.21005365 -0.42067054 -0.42066446 -0.43038028
-0.23037192 -0.2620907 -0.23190938 -0.30957228 0.18631662 0.21304685 0.17975926 0.2388132
-0.35067278 -0.31040302 -0.28663003 -0.27335167 -0.35450017 -0.34088272 -0.5348655 -0.3992658
-0.45330545 -0.11701169 -0.4385226 -0.34850794 -0.012027593 0.020221768 -0.13655342 0.052189004
0.028924987 -0.075705856 0.025516387 0.11746702 0.10564159 0.12795168 0.11483812 0.20085934
-0.42563602 -0.5850931 -0.66568625 -0.509086 -0.099706635 -0.15986305 -0.118249476 -0.13701794
-0.17684552 -0.3123767 -0.07918824 -0.18158242 0.22431616 0.17349885 0.25193143 0.26094705
-0.23179992 -0.02565048 -0.06382855 -0.063462734 -0.1941106 -0.2555797 -0.17952318 -0.24828497
0.018552357 0.019749701 0.095564455 0.035960257 -0.1835608 -0.25129116 -0.01233833 -0.13735664
0.33561662 0.39265895 0.329228 0.44314778 0.20390733 0.0069043827 0.28374636 0.02840944
-0.37091488 -0.3772838 -0.56386304 -0.31039736 -0.23757094 -0.2826044 -0.2816506 -0.27030572
-0.48002386 -0.42552346 -0.61282575 -0.44630483 0.09602735 -0.026564041 -0.04886747 0.00150358
-0.22242345 -0.17606641 -0.17646238 -0.026006915 -0.048276212 0.0043377792 0.006407747 -0.011332579
-0.17494667 0.015172462 -0.07370127 -0.05528086 -0.0352701 0.015795702 -0.18544349 -0.02434569
-0.073446535 -0.037925165 0.040971987 0.030461462 -0.4718185 -0.31307045 -0.35336515 -0.3927692
00000000: 7837 4abe fb92 f63d 6269 c3bd c963 b3bd
00000010: 1014 a73c d24d 333d 4a43 8fbd bd2e 4c3c
00000020: dc25 a4bc c6d6 033d 8ee6 53be 7889 36be
00000030: e2b2 c7bd 9510 a2bd f7fa 08bd b09f c8bd
00000040: 35a8 c0bd a526 da3c da33 e1bd 08b2 48be
00000050: 9f1c 36bd 13da 063d 6eff 02bd d966 9c3d
00000060: 9348 153d b013 143e 1484 ffbd c8dc f33c
00000070: cd8d 9bbe 2ad2 a3be 2020 5abd 39ac e3be
00000080: 9752 e13d 3c0c e23d 80f9 103e 652b 893e
00000090: 5b99 e03d e992 acbd 6c58 fc3d ec12 d33d
000000a0: 5a7b e6bd f222 943d 94c8 883d 3a7b c1bc
000000b0: c30c f0bc ae42 86be 9b46 313e 4151 25be
000000c0: 3fa3 053e d2e9 0dbd b1a8 963d 017d 39be
000000d0: 141a 7c3d 7c41 9b3d feb2 ce3b 6940 e6bd
000000e0: c05d e13d ef74 d63b 27cc 1c3e ecf7 f23d
000000f0: ab6d a4b9 f4b8 a33e 1b89 a1bd 1b50 a3bd
00000100: 36f8 1b3e 48b4 c6bc 1dbd 48be aa4e 1abc
00000110: 8e6a 2d3d fa8f 80be 9738 5a3d 6e3b 343b
00000120: 987a 8a3d 7447 4b3d e77a acbd 9967 55be
00000130: 3425 ffbd e51e 85be 86e6 593d d0c0 be3d
00000140: 2d1c 953e 88df b63e 38df dcbe 6ec6 3cbe
00000150: 731b 8cbe a400 0abe ef6a 60bd ce2b 5cbe
00000160: d9b5 04be 27ee d8ba cf3f 10bd f180 89bc
00000170: dc62 fb3e 3307 663e 0eba 75be ab3a 94be
00000180: f3a5 94be 0fc4 cf3d 826b 033e f442 90be
00000190: 0973 053e 4d37 e53d 4e3a 4dbe 1fb7 66be
000001a0: e021 b4bd ffd2 703e 237e 6f3d a8a9 7dbd
000001b0: dc05 3abd 8334 e23d 7326 bcba 991b 303d
000001c0: c6e6 183e a02e 2d3e 0bc8 353e 9cae 9b3e
000001d0: b10e 0d3d b063 853e 2139 aabe 94f7 24be
000001e0: 83d4 84be 4de1 493e 5122 febd c043 ae3d
000001f0: e43f 1e3e 90ae 8fbd 6bac 933d 902d 993d
00000200: 9408 69be 03b9 febd 479d 2dbe 76e3 8abe
00000210: 87f5 c8be 6331 71be 354c 9dbe e3ff b0be
00000220: f82c bcbe 2da8 e7be 03f4 0abf 0062 9abe
00000230: 4e18 57be 2162 d7be 5561 d7be ce5a dcbe
00000240: 9ee6 6bbe c130 86be a779 6dbe 4280 9ebe
00000250: c9c9 3e3e f428 5a3e d012 383e 738b 743e
00000260: 628b b3be 25ed 9ebe 2cc1 92be c0f4 8bbe
00000270: 0c81 b5be 2e88 aebe f2ec 08bf 916c ccbe
00000280: a717 e8be d3a3 efbd 0986 e0be a26f b2be
00000290: 620f 45bc 1fa8 a53c a9d4 0bbe 23c4 553d
000002a0: 18f4 ec3c ac0b 9bbd be07 d13c 8d92 f03d
000002b0: 9e5a d83d c405 033e 4030 eb3d 12ae 4d3e
000002c0: f7ec d9be a9c8 15bf 6a6a 2abf 7653 02bf
000002d0: fe32 ccbd 24b3 23be c82c f2bd 6e4e 0cbe
000002e0: fe16 35be d7ef 9fbe 722d a2bd bef0 39be
000002f0: 23b3 653e afa9 313e 28fd 803e da9a 853e
00000300: f55c 6dbe f520 d2bc 8bb8 82bd c0f8 81bd
00000310: eec4 46be 58db 82be edd4 37be 6a3e 7ebe
00000320: 1dfb 973c 20ca a13c 4cb7 c33d 104b 133d
00000330: 5df7 3bbe 3ca9 80be b526 4abc 38a7 0cbe
00000340: f1d5 ab3e 980a c93e 9390 a83e 44e4 e23e
00000350: 15cd 503e 293e e23b 3447 913e eaba e83c
00000360: 8ee8 bdbe 582b c1be 5459 10bf 67ec 9ebe
00000370: cc45 73be 86b1 90be 8234 90be 8365 8abe
00000380: b0c5 f5be 36de d9be 26e2 1cbf 1182 e4be
00000390: fda9 c43d d59c d9bc 4229 48bd c613 c53a
000003a0: f9c2 63be c14a 34be 8eb2 34be 740c d5bc
000003b0: 47bd 45bd ee23 8e3b 14f8 d13b 48ac 39bc
000003c0: 3825 33be eb95 783c b1f0 96bd 2f6e 62bd
000003d0: 6177 10bd fd65 813c e6e4 3dbe 9d70 c7bc
000003e0: 236b 96bd 6b57 1bbd 3ed2 273d 518a f93c
000003f0: 3292 f1be c54a a0be 47ec b4be 0b19 c9be

conv2.bias f4 [32]
0.046475276 -0.07519183 -0.10620877 -0.15136816 0.11896156 -0.09038321 -0.14534537 0.15062556
-0.061271142 0.1483358 -0.20295712 0.18932876 0.10283194 -0.117865115 -0.4536687 -0.1149933
0.010507801 0.0034022264 0.05172108 0.117959216 0.050165568 -0.21041523 0.04641979 0.13377625
-0.06641181 0.19276145 0.03404426 -0.12504102 0.0062162066 0.20425278 0.2741868 -0.15473646
00000000: dc5c 3e3d 2dfe 99bd fc83 d9bd 4100 1bbe
00000010: 1ea2 f33d d51a b9bd 6bd5 14be 963d 1a3e
00000020: 73f7 7abd 57e5 173e fed3 4fbe 66df 413e
00000030: 8d99 d23d 4463 f1bd 4447 e8be 9b81 ebbd
00000040: e928 2c3c e3f7 5e3b 7cd9 533d 9a94 f13d
00000050: 697a 4d3d 1777 57be ad22 3e3d a4fc 083e
00000060: ea02 88bd 4263 453e fe71 0b3d c10a 00be
00000070: 52b1 cb3b a427 513e 3662 8c3e 3c73 1ebe

conv3.weight f4 [64, 32, 2, 2]
-0.10258217 0.090715915 0.010404647 0.2949041 0.03966572 -0.21992357 0.23552147 -0.20482491
0.059657857 0.0732221 0.090541326 0.030058619 0.032770418 -0.05884943 0.01451909 -0.03322069
-0.3835944 -0.3203828 -0.23222174 -0.27417395 -0.071721755 0.0482938 -0.0583845 0.04123001
0.029881464 -0.03259451 -0.046439733 -0.06557164 -0.1471322 -0.21068375 -0.31209943 -0.42271242
-0.028951067 -0.09234055 0.026125025 -0.025187235 0.2537321 -0.07128379 0.24312146 -0.39165297
0.18221815 0.30929568 0.22498578 0.3010154 0.05082379 0.0923638 0.02667485 0.04539842
-0.018088011 -0.36661035 0.38743773 -0.0431849 0.19372179 0.20770091 -0.05705352 -0.47446737
-0.13690662 -0.056694232 -0.033734027 -0.23785317 0.11429968 0.076116815 0.058635883 0.049263272
0.06797692 0.060166467 0.08840685 -0.010289012 0.045851063 0.06817737 -0.10906271 -0.098661736
0.15825489 -0.010947375 -0.12809329 -0.03507393 0.26857716 -0.04266883 0.12272993 0.019918136
-0.2614386 0.049020056 0.05118502 0.15948567 0.19583774 0.15498585 -0.04043014 0.099057384
-0.08539545 -0.021094134 -0.063966796 -0.030803744 -0.3900499 -0.13482131 0.35839185 0.20659693
0.14839934 -0.23194703 0.26574033 -0.21378559 0.39568686 -0.19267927 0.022346461 -0.3195442
0.070002586 -0.15575705 -0.19619894 -0.11878621 0.06716719 0.012745498 -0.079393454 -0.010751064
0.03255197 0.040642347 0.10273959 0.04541284 0.24894562 -0.08991535 0.15710989 0.0054300777
0.06050094 0.26887354 0.1173873 0.2269866 0.010108359 0.016236404 0.1057284 -0.04419579
-0.20881991 -0.5497041 0.0622518 -0.016378336 0.23974828 -0.0924584 0.25104752 0.20682159
0.037951894 0.002729123 -0.10473322 -0.08102397 -0.06297825 -0.10160633 0.03639583 0.05983155
-0.08308018 -0.15366638 -0.1847552 -0.094209395 -0.007380301 -0.02563022 -0.025537461 0.06001095
-0.01475258 0.025620101 0.05798407 0.036786813 -0.031201368 -0.28803188 0.027627252 -0.17569663
-0.008587695 0.013878811 -0.014573884 -0.018927868 0.10150339 0.15584496 -0.09955054 -0.21896486
-0.05791533 0.051356863 -0.2559706 -0.12164774 0.04525485 -0.3397693 0.23979296 -0.07868693
0.20930503 0.26132384 -0.08171846 -0.18823539 0.10102251 0.080170974 0.110231765 0.254605
-0.31808963 -0.035180043 -0.27407113 0.051369257 -0.030785486 0.07717635 -0.038239058 0.02102909
0.1603399 0.015201756 -0.009853667 0.051775362 -0.016004778 -0.06857414 -0.076618776 0.08034685
0.04495856 -0.033136036 -0.35552457 -0.17304392 -0.1331965 0.02646485 -0.52318925 -0.09556348
-0.13405286 -0.023695892 -0.3230977 -0.36016843 -0.055412583 -0.022940414 0.02364467 0.1289879
0.038564477 0.063520394 0.0741704 0.17391525 -0.23513733 -0.27516162 0.12908784 -0.030036243
0.23065694 0.26751262 -0.122085616 -0.019664291 0.22100051 0.11721184 -0.13897745 -0.1915394
-0.29275072 -0.7532697 -0.23841535 -0.47848532 0.017388474 -0.075360045 0.037650168 0.082027785
0.23327091 0.09159352 -0.29642683 -0.08715364 0.07048701 0.20504941 -0.19762745 0.058633916
0.134525 0.08137287 0.08362031 -0.6439395 -0.054241188 0.031608474 -0.05865214 0.006087274
00000000: 9a16 d2bd 44c9 b93d 4178 2a3c acfd 963e
00000010: 8678 223d a533 61be 8a2c 713e 9fbd 51be
00000020: cc5b 743d 78f5 953d bb6d b93d 7e3d f63c
00000030: 463a 063d 1a0c 71bd 7ae1 6d3c 6b12 08bd
00000040: 7c66 c4be 3709 a4be 89cb 6dbe 8760 8cbe
00000050: dbe2 92bd b8cf 453d 9624 6fbd cde0 283d
00000060: f9c9 f43c d281 05bd 9737 3ebd 6d4a 86bd
00000070: d3a9 16be 7bbd 57be 7fcb 9fbe c36d d8be
00000080: ca2a edbc 0b1d bdbd 2604 d63c 7655 cebc
00000090: 2ce9 813e 3cfd 91bd d5f4 783e bd86 c8be
000000a0: 6597 3a3e 015c 9e3e ac62 663e b11e 9a3e
000000b0: 9b2c 503d 3b29 bd3d 3785 da3c b2f3 393d
000000c0: 4f2d 94bc 5ab4 bbbe 3d5e c63e a6e2 30bd
000000d0: 015f 463e 8caf 543e f4b0 69bd 63ed f2be
000000e0: 4031 0cbe 3638 68bd b12c 0abd c88f 73be
000000f0: f315 ea3d 22e3 9b3d 2e2c 703d 49c8 493d
00000100: 7c37 8b3d 1d71 763d a70e b53d 3f93 28bc
00000110: 53ce 3b3d 94a0 8b3d 455c dfbd 2a0f cabd
00000120: 920d 223e 9e5c 33bc e32a 03be aea9 0fbd
00000130: f282 893e 83c5 2ebd d459 fb3d 5c2b a33c
00000140: 48db 85be 41c9 483d 62a7 513d 3650 233e
00000150: b089 483e 9cb4 1e3e 139a 25bd 99de ca3d
00000160: cfe3 aebd 9bcd acbc 0601 83bd 2258 fcbc
00000170: 9fb4 c7be 990e 0abe 237f b73e 258e 533e
00000180: fff5 173e 8683 6dbe 1e0f 883e 9cea 5abe
00000190: 7897 ca3e b74d 45be ed0f b73c 4c9b a3be
000001a0: 845d 8f3d c77e 1fbe 60e8 48be 2f46 f3bd
000001b0: f48e 893d 7ed2 503c 0999 a2bd 3b25 30bc
000001c0: 3755 053d 9778 263d 2269 d23d d002 3a3d
000001d0: 9aeb 7e3e 8a25 b8bd 6ae1 203e cbee b13b
000001e0: d5cf 773d cba9 893e c168 f03d 2d6f 683e
000001f0: 889d 253c 3502 853c 2288 d83d a506 35bd
00000200: e3d4 55be 68b9 0cbf befb 7e3d dc2b 86bc
00000210: 9380 753e d45a bdbd 4d89 803e 0ac9 533e
00000220: 7273 1b3d 16db 323b 5f7e d6bd e5ef a5bd
00000230: befa 80bd fb16 d0bd cb13 153d ed11 753d
00000240: f125 aabd b85a 1dbe 7830 3dbe dbf0 c0bd
00000250: 74d6 f1bb 78f6 d1bc f033 d1bc 0bce 753d
00000260: ceb4 71bc 3fe1 d13c b480 6d3d c5ad 163d
00000270: 039a ffbc ea78 93be 8c52 e23c d1e9 33be
00000280: 67b3 0cbc f463 633c 4dc7 6ebc 9e0e 9bbc
00000290: 02e1 cf3d d295 1f3e 27e1 cbbd 5338 60be
000002a0: a038 6dbd 935b 523d 940e 83be 7322 f9bd
000002b0: 265d 393d 3ef6 adbe 498c 753e 9d26 a1bd
000002c0: 0f54 563e 3dcc 853e 025c a7bd c7c0 40be
000002d0: e4e4 ce3d ae30 a43d 31c1 e13d 965b 823e
000002e0: a5dc a2be f318 10bd 0d53 8cbe 9268 523d
000002f0: d831 fcbc a20e 9e3d 8fa0 1cbd 3345 ac3c
00000300: 2530 243e c910 793c 4671 21bc 6712 543d
00000310: 741c 83bc 9970 8cbd 4eea 9cbd e48c a43d
00000320: 7826 383d a7b9 07bd 5107 b6be 6d32 31be
00000330: aa64 08be d0cc d83c bbef 05bf c9b6 c3bd
00000340: 2745 09be e31d c2bc 106d a5be ff67 b8be
00000350: 4ef8 62bd 89ed bbbc 78b2 c13c 6715 043e
00000360: c9f5 1d3d fb16 823d a7e6 973d d716 323e
00000370: d7c7 70be fce1 8cbe 9a2f 043e 910e f6bc
00000380: 5531 6c3e 6af7 883e 0608 fabd 0217 a1bc
00000390: f54d 623e c30c f03d 1b50 0ebe e822 44be
000003a0: 6ce3 95be 48d6 40bf 2723 74be 07fc f4be
000003b0: 4672 8e3c 5e56 9abd 1037 1a3d 2ffe a73d
000003c0: 92de 6e3e 6295 bb3d 42c5 97be 9c7d b2bd
000003d0: 7e5b 903d 79f8 513e da5e 4abe 1e2a 703d
000003e0: ecc0 093e d2a6 a63d 2041 ab3d 38d9 24bf
000003f0: 022c 5ebd e377 013d 3a3d 70bd c177 c73b

conv3.bias f4 [64]
0.002251086 0.34597346 0.14694595 -0.40099794 0.04151874 -0.023970747 0.116196975 -0.08748097
0.13382635 0.13427363 -0.36956963 -0.08969445 0.040310945 -0.10693109 0.1031671 0.15130474
-0.045994386 0.031828262 0.043276604 0.0633498 0.12647836 -0.0015526852 -0.46643135 -0.14011382
0.0011222757 -0.16341771 0.34880772 0.08546501 0.24416102 0.14425693 0.12927814 0.20795615
-0.08305495 0.2244627 -0.06644271 -0.21829814 0.029590491 0.25021437 -0.22281106 0.034100674
0.090777695 0.18266489 0.030946627 -0.16641876 0.049707424 -0.035391286 0.058690973 0.11077692
-0.042790703 -0.06446431 0.080850214 -0.09519822 0.057013243 -0.16899468 0.13076429 -0.009386417
-0.12868612 0.029065436 -0.11051436 -0.20040765 0.07907197 0.0074867965 -0.1425025 -0.043642968
00000000: f586 133b 6f23 b13e 0079 163e 9a4f cdbe
00000010: 8e0f 2a3d 4d5e c4bc aef8 ed3d 3929 b3bd
00000020: c609 093e 077f 093e 3b38 bdbe b9b1 b7bd
00000030: 171d 253d b0fe dabd 4649 d33d a1ef 1a3e
00000040: 9c64 3cbd 5a5e 023d cf42 313d 8abd 813d
00000050: 8b83 013e 7883 cbba 17d0 eebe ff79 0fbe
00000060: 5319 933a f956 27be ed96 b23e 4708 af3d
00000070: 5905 7a3e 17b8 133e 7d61 043e 75f2 543e
00000080: b718 aabd 8dd9 653e 1e13 88bd 8c89 5fbe
00000090: c267 f23c 191c 803e 9528 64be 26ad 0b3d
000000a0: a8e9 b93d 810c 3b3e c883 fd3c ae69 2abe
000000b0: 039a 4b3d 74f6 10bd f265 703d 03df e23d
000000c0: 4e45 2fbd dd05 84bd cc94 a53d 49f7 c2bd
000000d0: b886 693d f10c 2dbe 13e7 053e 7dc9 19bc
000000e0: 4bc6 03be a31a ee3c 5a55 e2bd aa37 4dbe
000000f0: 7cf0 a13d cd53 f53b 2dec 11be f8c2 32bd

conv4.weight f4 [64, 64, 2, 2]
0.043513652 -0.19716547 -0.085599355 -0.5659606 -0.22663623 0.23434334 -0.20844425 0.06099397
-0.38845426 0.11569138 -0.28053552 -0.04336768 -0.106890894 -0.19188546 -0.16414365 -0.18362488
0.13686337 0.09785214 0.08301565 -0.33187062 -0.24461868 -0.33622408 -0.12912808 -0.1958723
0.03749866 -0.56931037 0.13267115 -0.1722579 -0.053501412 0.028835429 0.1790533 0.026569733
0.16973734 -0.19424193 0.29976964 0.03434095 -0.19378307 -0.28276452 -0.11822956 -0.12961544
-0.13028584 0.024809306 -0.26250383 -0.41788635 -0.4805548 0.099486135 -0.4785292 -0.4476325
-0.3612899 0.03949991 -0.09741518 -0.26104808 -0.020099148 -0.07198206 0.047628827 -0.08039244
0.26301217 -0.0221325 0.44786838 0.2660486 -0.13857214 -0.19910045 0.26295602 -0.013075271
-0.09046528 0.056700125 -0.33872437 -0.017356515 -0.20502721 -0.045912884 -0.094493784 -0.36368176
0.14604934 -0.18834764 0.05618683 0.081640236 -0.38124755 -0.116880834 -0.2572718 -0.07563703
-0.14979546 0.3672761 -0.0129922265 0.11519792 -0.38025817 0.4840017 0.02685499 -0.047808837
0.043841876 0.03894472 -0.32330298 0.083107136 -0.027955234 0.042950787 0.034015637 0.084612645
-0.49030125 -0.13718991 -0.1983621 0.2585832 0.031750347 0.28275564 -0.13674223 0.15797305
0.11227782 -0.18702203 0.2084696 -0.088273965 -0.22284949 -0.51655555 -0.15617108 -0.35452294
-0.16027467 -0.46330243 0.03990524 -0.2337066 -0.15269381 -0.25356272 -0.5303112 -0.3658225
0.063336916 0.28274307 0.028435212 -0.26144746 -0.15103072 0.20909822 -0.2333931 0.092206165
-0.17533116 -0.110160984 -0.21652713 -0.1744754 0.07103931 -0.3540232 0.024686968 0.16836253
0.07946459 -0.14129584 -0.22192006 0.19810721 -0.14143713 0.044342965 -0.10830866 0.015162157
-0.039976656 -0.058677897 0.17618698 0.13873549 0.09317793 0.04353352 0.15015355 0.039177883
-0.16721167 0.030356871 -0.5024502 -0.51646024 -0.323021 0.13278319 -0.29688257 -0.1112119
-0.15924738 0.20215538 -0.19800024 0.31200048 -0.21650337 -0.017531509 -0.0418554 -0.09633192
0.14475203 -0.1437608 -0.12279365 -0.26969117 -0.062022813 -0.04994573 -0.033401646 0.0019466849
0.09730497 0.08859734 -0.011757838 0.34717256 -0.13330339 0.022278361 -0.37713075 -0.13300206
-0.014712462 -0.40097305 0.24477303 -0.38706353 0.103578776 -0.56617534 0.18285985 -0.08885968
-0.29188251 0.2410295 -0.17663984 0.09065403 -0.057761297 -0.23274136 0.35855782 -0.13813268
0.165594 -0.15976062 0.37624794 0.12098688 -0.08458248 0.03763355 0.034837198 0.069431156
0.12354398 0.024802858 0.2538768 0.24495362 0.18511072 -0.40727675 -0.06090518 -0.12115241
0.3193549 -0.23397559 0.33409548 0.33486652 -0.294761 -0.22981152 -0.10883541 0.02078548
0.14821203 0.19681677 -0.120931916 0.3472597 -0.2659226 0.17254879 -0.42494488 -0.10189037
-0.13312407 0.15063632 0.1010424 -0.33950785 -0.094780676 -0.0970034 0.011188057 0.008777248
0.04638404 -0.2609828 0.33895883 -0.37619072 0.033562426 -0.37491676 0.19948699 0.002338459
-0.24952836 0.12646788 -0.0921625 -0.1811359 -0.18515338 0.13779227 -0.21118404 0.111036964
00000000: 5f3b 323d bfe5 49be b74e afbd cbe2 10bf
00000010: 5413 68be b3f7 6f3e 6972 55be d0d4 793d
00000020: 7ae3 c6be 9aef ec3d 5aa2 8fbe 4fa2 31bd
00000030: 9de9 dabd 9f7d 44be 4615 28be 2908 3cbe
00000040: e925 0c3e b466 c83d 1c04 aa3d f2ea a9be
00000050: 527d 7abe 9025 acbe 273a 04be c092 48be
00000060: 3298 193d 53be 11bf f2da 073e 6064 30be
00000070: 4c24 5bbd 4738 ec3c c059 373e c5a8 d93c
00000080: a0cf 2d3e 5be7 46be 687b 993e 19a9 0c3d
00000090: 126f 46be 83c6 90be 5722 f2bd e9b9 04be
000000a0: a769 05be e33c cb3c e766 86be 33f5 d5be
000000b0: 470b f6be 63bf cb3d c801 f5be 1630 e5be
000000c0: fdfa b8be a8ca 213d 9c81 c7bd 18a8 85be
000000d0: f8a6 a4bc 556b 93bd 7216 433d cba4 a4bd
000000e0: 88a9 863e 374f b5bc 014f e53e 8637 883e
000000f0: dbe5 0dbe fde0 4bbe 2ca2 863e a939 56bc
00000100: dc45 b9bd 643e 683d 486d adbe 402f 8ebc
00000110: a7f2 51be 260f 3cbd f585 c1bd 7f34 babe
00000120: f58d 153e 34de 40be 2924 663d ff32 a73d
00000130: e132 c3be 385f efbd 21b9 83be 96e7 9abd
00000140: fb63 19be 9d0b bc3e 59dd 54bc e3ec eb3d
00000150: 33b1 c2be 12cf f73e fffe db3c 33d3 43bd
00000160: 8a93 333d 8084 1f3d f887 a5be 1334 aa3d
00000170: 6002 e5bc 2aed 2f3d fb53 0b3d 6549 ad3d
00000180: c408 fbbe 837b 0cbe 6f1f 4bbe 0465 843e
00000190: a70c 023d 59c5 903e 2806 0cbe b0c3 213e
000001a0: eaf1 e53d b482 3fbe 0e79 553e fbc8 b4bd
000001b0: a832 64be fc3c 04bf 50eb 1fbe 0884 b5be
000001c0: 0b1f 24be fa35 edbe ad73 233d c850 6fbe
000001d0: c45b 1cbe f9d2 81be 7ac2 07bf 164d bbbe
000001e0: c9b6 813d b3c3 903e f6f0 e83c 71dc 85be
000001f0: cca7 1abe d81d 563e 9afe 6ebe 96d6 bc3d
00000200: 038a 33be 159c e1bd 4ab9 5dbe aea9 32be
00000210: 0f7d 913d 8742 b5be 533c ca3c 3a67 2c3e
00000220: 55be a23d dbaf 10be 033f 63be 9edc 4a3e
00000230: e5d4 10be f8a0 353d eed0 ddbd b26a 783c
00000240: 90be 23bd 3c58 70bd 5c6a 343e ad10 0e3e
00000250: 12d4 be3d 3450 323d dac1 193e fd78 203d
00000260: 8939 2bbe f9ae f83c 94a0 00bf bd36 04bf
00000270: 0263 a5be 51f8 073e fe00 98be 11c3 e3bd
00000280: bf11 23be d201 4f3e 93c0 4abe 87be 9f3e
00000290: 0fb3 5dbe 3d9e 8fbc 9170 2bbd ab49 c5bd
000002a0: e039 143e 0836 13be 3d7b fbbd f614 8abe
000002b0: a20b 7ebd e593 4cbd 2ad0 08bd e827 ff3a
000002c0: d447 c73d 8672 b53d f2a3 40bc 9ac0 b13e
000002d0: af80 08be 1c81 b63c 4817 c1be b131 08be
000002e0: 8a0c 71bc 574c cdbe c8a5 7a3e 312d c6be
000002f0: 1c21 d43d def0 10bf 9d3f 3b3e 10fc b5bd
00000300: a071 95be 70d0 763e 13e1 34be d2a8 b93d
00000310: 1c97 6cbd c053 6ebe e494 b73e a772 0dbe
00000320: 7991 293e 4a98 23be 92a3 c03e f8c7 f73d
00000330: 9439 adbd a325 1a3d 73b1 0e3d ec31 8e3d
00000340: a004 fd3d 5d2f cb3c 24fc 813e 1fd5 7a3e
00000350: aa8d 3d3e 9486 d0be b677 79bd c11e f8bd
00000360: 7c82 a33e 4c97 6fbe 900e ab3e a073 ab3e
00000370: eaea 96be b653 6bbe 19e5 debd 5046 aa3c
00000380: e5c4 173e 568a 493e 27ab f7bd 06cc b13e
00000390: 0227 88be a1b0 303e 6092 d9be e6ab d0bd
000003a0: ad51 08be 6840 1a3e 51ef ce3d f9d3 adbe
000003b0: 5f1c c2bd b8a9 c6bd 1d4e 373c 72ce 0f3c
000003c0: 31fd 3d3d 8a9f 85be 038c ad3e 129c c0be
000003d0: c178 093d 17f5 bfbe 5146 4c3e d540 193b
000003e0: 5d84 7fbe cc80 013e b1bf bcbd b07b 39be
000003f0: d998 3dbe 6b19 0d3e a140 58be 5967 e33d

conv4.bias f4 [64]
-0.077114455 -0.080268435 -0.0053669414 -0.10206627 0.082835965 0.13706137 0.0042653154 -0.05660549
-0.13873297 0.21710764 -0.09704897 -0.027558288 0.122603476 0.29456624 0.11836338 0.1695293
0.009898558 -0.13887265 0.16301726 0.042163923 0.37013182 0.087833904 -0.3161365 -0.047864936
-0.09143971 0.18448831 -0.04687061 0.3166689 0.09033108 0.12384336 -0.15027507 0.08596056
0.2551735 0.1399143 -0.11198 -0.1374693 -0.07095865 -0.22503936 -0.29822403 -0.24165775
0.056823026 -0.300677 0.01339646 0.075567484 0.10329352 -0.07018245 0.105211765 -0.14539792
0.15972903 -0.18209188 -0.09501727 0.0005787715 0.17166302 0.26916286 0.27038845 -0.10358244
-0.025443124 0.016160497 -0.063975796 -0.09897249 0.13402008 0.18242918 -0.10564591 -0.071956225
00000000: 2fee 9dbd c763 a4bd 2bdd afbb 1f08 d1bd
00000010: e7a5 a93d d159 0c3e 0fc4 8b3b 29db 67bd
00000020: 0410 0ebe 7751 5e3e 9cc1 c6bd ebc1 e1bc
00000030: 8817 fb3d 63d1 963e 8068 f23d 1799 2d3e
00000040: 902d 223c a234 0ebe ffed 263e 14b4 2c3d
00000050: eb81 bd3e 43e2 b33d a5dc a1be 060e 44bd
00000060: be44 bbbd 81ea 3c3e 66fb 3fbd 6d22 a23e
00000070: 80ff b83d 96a1 fd3d b5e1 19be 170c b03d
00000080: 1aa6 823e b245 0f3e c555 e5bd c1c4 0cbe
00000090: c552 91bd b870 66be d2b0 98be 2175 77be
000000a0: 43bf 683d 56f2 99be d37c 5b3c 20c3 9a3d
000000b0: 8e8b d33d d1bb 8fbd 4479 d73d 31e3 14be
000000c0: 0290 233e 4b76 3abe 6a98 c2bd b3b8 173a
000000d0: 6ec8 2f3e b7cf 893e 5b70 8a3e 0823 d4bd
000000e0: 196e d0bc 0563 843c be05 83bd 17b2 cabd
000000f0: 8f3c 093e b7ce 3a3e e25c d8bd c95d 93bd

conv5.weight f4 [128, 64, 2, 2]
-0.037583232 -0.18361925 -0.12727034 -0.21644378 0.020847756 -0.05123222 0.026554182 -0.084565185
0.16947113 0.019462762 0.19003479 -0.21725611 -0.2078663 0.025902342 -0.22161737 -0.14316395
-0.43400386 -0.54555583 -0.14501032 -0.30107412 -0.339278 0.035219442 -0.12481234 -0.16988324
-0.15648614 0.024295837 0.069442086 0.04275086 -0.25196767 -0.24166474 -0.202501 -0.036123402
-0.058564715 -0.43384457 -0.037666705 -0.09168796 0.14936888 -0.037043054 0.272039 -0.05372177
-0.16863517 -0.31516746 0.036221374 0.12993985 -0.4119626 -0.06277767 0.03458838 0.29446313
-0.22003469 -0.7947233 -0.049684733 -0.13939482 -0.26645982 -0.010581441 -0.20694233 0.059143264
-0.028861955 -0.17726591 -0.3894357 0.21884336 -0.2996515 0.10294972 0.07674966 -0.019583067
0.26324776 0.22407588 -0.46015653 -0.31051776 -0.0030755335 0.013189336 0.014591348 0.05747976
0.04338409 0.26558748 -0.31298378 -0.17481191 0.11587725 -0.15658642 0.04607474 0.20161608
0.115501195 -0.0029335783 0.11928808 0.040325455 -0.03568694 -0.09965143 -0.020975066 0.12314719
-0.3349668 0.04444043 -0.009013944 0.33029595 -0.39276195 -0.28129327 0.082419775 -0.008267869
-0.072994895 -0.0319835 -0.075987674 -0.08296072 -0.1553995 -0.21313162 0.3366756 0.15700133
-0.0077845175 -0.062162004 0.22451195 -0.5141899 0.47934583 -0.041889373 0.2574245 0.16395107
0.15569551 0.02470446 0.65122 -0.05249193 0.1955372 0.26382303 0.36831442 0.3118573
-0.044008758 0.0350979 -0.032461073 -0.19359691 0.22036932 -0.18375221 0.21691307 -0.3591279
-0.107138045 -0.062351555 -0.08330857 -0.08090321 -0.26632398 -0.007126847 -0.0660897 -0.036542375
0.41373527 0.59336156 0.19987616 0.46598586 -0.18803811 0.27465537 -0.31328726 -0.015880115
0.04038671 0.06766689 0.02687665 -0.2765744 -0.35722366 -0.2799968 -0.16119453 0.29799318
-0.028850785 0.3831737 -0.110511385 -0.23956639 -0.18752748 -0.17452596 -0.49194604 -0.25525388
-0.08670476 -0.28910977 0.24441704 -0.054289006 -0.36871696 -0.24390064 -0.20816307 -0.29659206
-0.04673479 0.09034088 -0.1926851 -0.40619645 0.08068638 0.14103721 0.12041818 0.38064757
-0.069221355 -0.22902645 -0.0007756426 -0.21928956 0.0428254 0.12564544 -0.22303782 -0.098150924
-0.43886352 -0.022609722 -0.45474297 -0.3224828 0.17106047 -0.09357983 -0.28817272 -0.3531013
-0.13230486 -0.024915231 -0.1504986 -0.050186843 0.15379906 -0.7342494 -0.2843355 -0.61871713
-0.19998325 0.0770192 -0.07680602 -0.25866774 0.17835262 0.07518021 0.2147498 -0.26970974
0.068661794 -0.23761998 -0.20909707 -0.2878342 0.28248003 0.42514184 0.051343 -0.21309277
0.21070884 -0.277867 -0.16998696 -0.3374042 -0.32799298 -0.45325482 0.18602367 -0.23362839
0.06481331 -0.12957467 0.14379415 0.05793145 0.06519027 0.14151934 -0.40244508 -0.1697827
0.024754336 0.2993097 -0.22710322 0.30213273 -0.22948477 -0.12499701 -0.09546196 0.07366417
-0.09041158 0.10095445 0.10613721 0.9146639 -0.3430493 -0.19931538 -0.057679597 -0.41645563
0.1365383 0.09764933 -0.025402924 -0.14529733 -0.05587313 -0.014122362 0.00091926067 0.014769806
00000000: e0f0 19bd af06 3cbe 2853 02be 70a3 5dbe
00000010: eac8 aa3c e0d8 51bd 2888 d93c 8330 adbd
00000020: d789 2d3e 5f70 9f3c 7b98 423e 6378 5ebe
00000030: e7da 54be 2631 d43c aaef 62be 9299 12be
00000040: c135 debe 8ca9 0bbf 967d 14be 6326 9abe
00000050: d9b5 adbe 4342 103d 9d9d ffbd dff5 2dbe
00000060: e73d 20be 1008 c73c a737 8e3d 871b 2f3d
00000070: e801 81be f676 77be 6c5c 4fbe 22f6 13bd
00000080: 8ee1 6fbd e020 debe 6748 1abd e6c6 bbbd
00000090: 28f4 183e 75ba 17bd b248 8b3e 5c0b 5cbd
000000a0: b3ae 2cbe a15d a1be dd5c 143d f40e 053e
000000b0: c3ec d2be 9491 80bd 8cac 0d3d dfc3 963e
000000c0: c650 61be fc72 4bbf 3882 4bbd 84bd 0ebe
000000d0: 6c6d 88be c85d 2dbc b1e8 53be 3540 723d
000000e0: e86f ecbc 3285 35be 1e64 c7be 7918 603e
000000f0: ec6b 99be 4ed7 d23d ed2e 9d3d ab6c a0bc
00000100: 69c8 863e 2674 653e a399 ebbe 2ffc 9ebe
00000110: e48e 49bb 1618 583c 8d10 6f3c e66f 6b3d
00000120: 84b3 313d 15fb 873e 693f a0be e501 33be
00000130: 0d51 ed3d 3158 20be deb8 3c3d 7274 4e3e
00000140: e48b ec3d 4741 40bb 4f4d f43d 4e2c 253d
00000150: 782c 12bd 0d16 ccbd e7d3 abbc 9834 fc3d
00000160: c580 abbe 2b07 363d 39af 13bc 8d1c a93e
00000170: 1818 c9be ac05 90be b3cb a83d f575 07bc
00000180: 597e 95bd 2101 03bd 6d9f 9bbd 4fe7 a9bd
00000190: 0c21 1fbe 2d3f 5abe bf60 ac3e f5c4 203e
000001a0: 4415 ffbb 969d 7ebd 76e6 653e f3a1 03bf
000001b0: d16c f53e 3194 2bbd 25cd 833e cae2 273e
000001c0: a56e 1f3e 0261 ca3c 5bb6 263f c701 57bd
000001d0: e73a 483e d013 873e b593 bc3e c3ab 9f3e
000001e0: 8742 34bd d1c2 0f3d e7f5 04bd 453e 46be
000001f0: 7fa8 613e 8a29 3cbe 761e 5e3e 9ddf b7be
00000200: 316b dbbd 5864 7fbd af9d aabd 95b0 a5bd
00000210: 9e5b 88be 5388 e9bb 095a 87bd 75ad 15bd
00000220: 1cd5 d33e 8be6 173f 56ac 4c3e b395 ee3e
00000230: 108d 40be a19f 8c3e 3067 a0be 0417 82bc
00000240: 896c 253d f094 8a3d 6c2c dc3c 299b 8dbe
00000250: 05e6 b6be be5b 8fbe 2e10 25be 9092 983e
00000260: 7b58 ecbc 582f c43e cb53 e2bd e450 75be
00000270: 3407 40be efb6 32be 5ae0 fbbe a3b0 82be
00000280: 4492 b1bd 3206 94be 7648 7a3e 265e 5ebd
00000290: 78c8 bcbe 17c1 79be b328 55be eada 97be
000002a0: fb6c 3fbd a404 b93d 3e4f 45be fbf8 cfbe
000002b0: e73e a53d 0f6c 103e cf9d f63d 3de4 c23e
000002c0: edc3 8dbd e985 6abe 7e54 4bba 718d 60be
000002d0: b069 2f3d 33a9 003e 0764 64be 5a03 c9bd
000002e0: b8b2 e0be 0638 b9bc 12d4 e8be 771c a5be
000002f0: 7a2a 2f3e c8a6 bfbd 608b 93be b2c9 b4be
00000300: ed7a 07be 071b ccbc 4e1c 1abe b890 4dbd
00000310: 807d 1d3e c5f7 3bbf 6c94 91be 3f64 1ebf
00000320: 69c8 4cbe 3ebc 9d3d 7a4c 9dbd 1970 84be
00000330: 12a2 363e 15f8 993d 5fe7 5b3e 6517 8abe
00000340: 8e9e 8c3d a752 73be 8b1d 56be 015f 93be
00000350: 39a1 903e 31ac d93e 0a4d 523d fe34 5abe
00000360: 0fc4 573e 9544 8ebe 1011 2ebe 3ec0 acbe
00000370: b2ee a7be 0411 e8be fd7c 3e3e 483c 6fbe
00000380: d7bc 843d 39af 04be c63e 133e 8749 6d3d
00000390: 7a82 853d 72ea 103e 480d cebe 84db 2dbe
000003a0: 9bc9 ca3c 1f3f 993e bf8d 68be 24b1 9a3e
000003b0: 0efe 6abe 6ffe ffbd 8f81 c3bd 3edd 963d
000003c0: b529 b9bd 35c1 ce3d 775e d93d 6a27 6a3f
000003d0: 28a4 afbe 5519 4cbe 7141 6cbd ac39 d5be
000003e0: b2d0 0b3e 5ffc c73d cb19 d0bc d3c8 14be
000003f0: 39db 64bd 7b61 67bc 8afa 703a 0efd 713c

conv5.bias f4 [128]
0.2269889 0.03262492 0.21865064 0.18477519 -0.09544875 0.11595527 0.2014657 0.08687894
0.19952168 -0.30887783 0.13357328 0.044491403 -0.25650752 -0.19666755 -0.118601814 0.0587334
-0.2615371 0.15715699 0.11820757 -0.10792633 0.121968396 0.024869781 -0.020368677 0.023794897
0.400057 0.17120616 0.120392546 -0.453468 -0.11926287 -0.16220286 -0.014411152 -0.012003536
0.0072763185 -0.2316435 0.15759093 0.19949532 0.043551542 0.0998316 -0.03006788 -0.023780579
0.059245683 0.04868929 0.08872392 0.078738004 0.0128548825 0.1683383 -0.04502287 0.21963154
0.12773252 0.12844007 -0.13486525 -0.26599982 -0.40079188 -0.26091173 0.068498336 0.19088277
0.04257998 0.18178408 -0.16397776 0.048999906 -0.04919398 0.22500347 0.17902817 0.19928108
-0.15440223 0.25293994 -0.09675486 0.23040852 -0.062911674 0.015986212 -0.010022472 -0.022035254
0.0677371 -0.16798827 -0.102010176 -0.21014842 0.015481014 -0.2776599 -0.18948139 0.034107547
0.13036916 -0.046143282 0.009655485 -0.079945 -0.0016571286 -0.008329181 -0.08518126 0.10192543
-0.34540433 0.27992642 0.13547693 -0.01098481 -0.13599378 -0.06326749 -0.12780607 0.022316488
0.26189986 0.06283433 -0.1387223 0.30502445 -0.13178356 -0.13677584 0.1358306 -0.033019792
-0.12752455 -0.077920824 0.19249442 -0.16989565 0.14452201 0.17166021 0.25943938 -0.095230445
0.21786517 0.038110193 0.06404247 -0.023723848 -0.18308802 0.056809664 -0.4512217 0.17988472
0.23516482 0.024753433 0.017643722 0.01979538 0.12216865 -0.08014463 -0.17138082 -0.17955638
00000000: c76f 683e b5a1 053d f4e5 5f3e b535 3d3e
00000010: a27a c3bd f579 ed3d 064d 4e3e 96ed b13d
00000020: 694f 4c3e 3c25 9ebe 6fc7 083e 9e3c 363d
00000030: f454 83be 3863 49be 82e5 f2bd 6f92 703d
00000040: 31e8 85be c3ed 203e cf16 f23d 7b08 ddbd
00000050: 91ca f93d b6bb cb3c 36dc a6bc 84ed c23c
00000060: 45d4 cc3e ab50 2f3e 5e90 f63d f52c e8be
00000070: 1740 f4bd 8218 26be c11c 6cbc 7baa 44bc
00000080: 2f6e ee3b f433 6dbe 845f 213e 8048 4c3e
00000090: 1a63 323d 8374 cc3d ea50 f6bc 7dcf c2bc
000000a0: 9aab 723d 6c6e 473d e3b4 b53d 6441 a13d
000000b0: 499d 523c e060 2c3e e769 38bd 17e7 603e
000000c0: 50cc 023e cb85 033e 1e1a 0abe 2131 88be
000000d0: 9834 cdbe 3996 85be db48 8c3d c676 433e
000000e0: 5868 2e3d 9b25 3a3e c9e9 27be 20b4 483d
000000f0: a07f 49bd 4f67 663e 2953 373e 5710 4c3e
00000100: 9e1b 1ebe 5881 813e 6927 c6bd 36f0 6b3e
00000110: d6d7 80bd 84f5 823c 4b35 24bc 4783 b4bc
00000120: c0b9 8a3d 1e05 2cbe b6ea d0bd 2631 57be
00000130: 14a4 7d3c 7029 8ebe 6907 42be 5bb4 0b3d
00000140: 7e7f 053e bd00 3dbd 0a32 1e3c 34ba a3bd
00000150: 0234 d9ba 1e77 08bc 8373 aebd 48be d03d
00000160: d6d8 b0be 8452 8f3e 77ba 0a3e a2f9 33bc
00000170: f441 0bbe 6392 81bd 98df 02be 11d1 b63c
00000180: bd17 863e 49af 803d 380d 0ebe 2a2c 9c3e
00000190: 45f2 06be f70e 0cbe 2d17 0b3e c33f 07bd
000001a0: cc95 02be f494 9fbd 421d 453e 20f9 2dbe
000001b0: 94fd 133e b2c7 2f3e 3dd5 843e 2e08 c3bd
000001c0: 0c18 5f3e 6f19 1c3d b328 833d 8458 c2bc
000001d0: 6d7b 3bbe 40b1 683d 8806 e7be b333 383e
000001e0: 0ccf 703e b6c7 ca3c 9189 903c ec29 a23c
000001f0: 8f33 fa3d de22 a4bd 747e 2fbe a1dd 37be

conv6.weight f4 [64, 128, 2, 2]
-0.033101507 -0.019687867 -0.5996237 -0.47508258 -0.21469036 -0.29476443 -0.35132048 -0.29891548
-0.12868772 -0.40730658 -0.2419254 0.1969047 0.20574996 -0.03319408 -0.017174803 -0.099044375
-0.11204812 0.07356123 0.13560364 0.24059655 0.076065674 0.14816593 0.37601602 0.3090657
-0.04707474 0.16220996 0.060401153 -0.41105017 0.2245614 -0.027372058 -0.1665061 0.07312991
-0.20527875 -0.13639478 -0.074831426 -0.07171613 -0.35335997 -0.2368865 0.0021454664 -0.1622606
0.06635574 -0.019858897 0.1448011 0.059235822 0.00032786324 -0.1729732 -0.28613496 -0.36410776
-0.22681977 -0.45943242 0.16448916 -0.0135568725 -0.27030286 0.07175822 0.06985664 -0.16327493
-0.25160986 -0.35879913 0.18427633 -0.09338561 -0.008206581 0.085334755 -0.02043115 -0.09312038
-0.021044197 0.06543441 0.008946865 0.107105955 0.049960874 0.048659228 0.4518084 0.43848872
0.024133725 0.0726076 0.19150029 0.21957046 -0.02050702 0.017779244 -0.02513591 0.02547871
0.1185851 0.037928123 0.052736603 -0.34870052 -0.10522631 0.20096022 0.22042598 0.25610888
0.10280642 -0.41205397 -0.21353854 -0.6242354 -0.24539396 -0.19725168 -0.6524731 -0.7942597
-0.05226714 -0.43643278 -0.63278073 -0.38885447 -0.00048181615 -0.4379855 -0.33463454 -0.85747844
-0.21406999 -0.3416767 0.0760772 -0.09616502 0.031134315 -0.1279441 0.055689152 0.23702243
-0.12822515 -0.056779027 0.06461893 -0.06150031 -0.02345432 -0.022922322 -0.06308745 -0.029640587
-0.119088314 0.25292107 0.04487788 -0.25329605 -0.17115135 -0.038674187 -0.008111187 -0.0228658
0.2432283 0.12954237 -0.09888575 0.23015837 0.024633935 -0.04986554 -0.07833309 -0.06758804
0.28049773 0.034274686 -0.21909417 -0.012091651 -0.118982926 -0.13166906 0.03419624 0.04423518
0.26089704 0.32368892 0.06669389 0.38969353 0.11300199 0.3165098 0.20188802 0.09230925
0.04243296 -0.33434469 0.09780363 -0.51418513 -0.17841214 -0.15501569 -0.029722534 0.26611444
0.12979704 -0.38668808 0.048469417 0.011930281 0.1352009 -0.09852511 0.048988953 0.08980783
0.18486227 -0.1965713 -0.21087928 -0.5116376 -0.29805255 0.065057956 0.33022633 0.19622661
0.14568219 0.03402619 0.24272676 0.2261757 -0.3390399 -0.36617097 -0.27005887 0.19204466
0.21620195 -0.06824319 0.28816965 0.14458106 -0.19524337 -0.009986219 -0.16271718 -0.13467935
-0.16608629 -0.603735 -0.09549489 -0.28192636 -0.1692916 0.20986196 0.29410228 -0.3420831
-0.23917188 -0.09474561 0.054523572 -0.15015768 0.25287858 -0.019020682 0.12590595 0.254815
0.3272191 0.05299124 0.11708705 -0.090397336 0.24178636 0.24638064 0.047563434 0.08790915
-0.035494477 0.196618 0.38716012 0.17193723 -0.16957471 -0.2359399 -0.06844455 -0.08463222
-0.058329564 -0.060464278 0.3341087 0.09686928 0.019379629 0.024907462 0.2701255 0.02098107
0.002674735 -0.017149465 -0.021013504 0.03214601 0.16669834 0.1636221 -0.22971411 -0.22893648
0.09099794 0.008765919 -0.18813719 0.25288346 0.30935484 0.16069807 -0.11974748 0.032317013
-0.0045206933 0.15295085 -0.16165398 0.11266057 0.23051035 0.101220496 -0.23561412 -0.103250794
00000000: 7295 07bd 7348 a1bc f080 19bf 063e f3be
00000010: cad7 5bbe 5deb 96be 47e0 b3be 730b 99be
00000020: b7c6 03be 7d8a d0be 4bbb 77be 63a1 493e
00000030: 1eb0 523e 84f6 07bd 2cb2 8cbc c7d7 cabd
00000040: 7c79 e5bd 45a7 963d aedb 0a3e f15e 763e
00000050: 52c8 9b3d cfb8 173e 2c85 c03e dc3d 9e3e
00000060: 71d1 40bd 5e1a 263e 3367 773d 2b75 d2be
00000070: 6cf3 653e 5e3b e0bc 9380 2abe 22c5 953d
00000080: 9834 52be 13ab 0bbe 3841 99bd e8df 92bd
00000090: 99eb b4be 6092 72be f49a 0c3b a527 26be
000000a0: 85e5 873d 20af a2bc bd46 143e 43a1 723d
000000b0: 0fe5 ab39 e31f 31be 4880 92be 556c babe
000000c0: 7143 68be ba3a ebbe d96f 283e a51d 5ebc
000000d0: 2365 8abe f9f5 923d 0011 8f3d 8b31 27be
000000e0: 02d3 80be 85b4 b7be efb2 3c3e f440 bfbd
000000f0: e574 06bc fdc3 ae3d 3a5f a7bc e6b5 bebd
00000100: e164 acbc 7a02 863d df95 123c 5e5a db3d
00000110: c6a3 4c3d e64e 473d 6e53 e73e 9881 e03e
00000120: 17b4 c53c 4bb3 943d a718 443e 14d7 603e
00000130: 57fe a7bc c7a5 913c d3e9 cdbc bab8 d03c
00000140: bfdc f23d 855a 1b3d 5602 583d e088 b2be
00000150: e480 d7bd 84c8 4d3e 59b7 613e b420 833e
00000160: 2c8c d23d bdf8 d2be d9a9 5abe e4cd 1fbf
00000170: 8e48 7bbe 58fc 49be 7a08 27bf 9b54 4bbf
00000180: 1216 56bd 1e74 dfbe ebfd 21bf ef17 c7be
00000190: 459c fcb9 a33f e0be 3855 abbe b583 5bbf
000001a0: 2a35 5bbe 40f0 aebe 5dce 9b3d 2af2 c4bd
000001b0: 640d ff3c c703 03be 4f1a 643d 02b6 723e
000001c0: 744d 03be 2091 68bd ee56 843d c0e7 7bbd
000001d0: 4623 c0bc 98c7 bbbc fe33 81bd d1d0 f2bc
000001e0: 93e4 f3bd df7e 813e ded1 373d 05b0 81be
000001f0: 4d42 2fbe d368 1ebd c9e4 04bc 0f51 bbbc
00000200: d710 793e c1a6 043e 9d84 cabd a3ae 6b3e
00000210: 1bcd c93c cf3f 4cbd 196d a0bd 996b 8abd
00000220: 669d 8f3e 9d63 0c3d 395a 60be 0f1c 46bc
00000230: 52ad f3bd 41d4 06be 5b11 0c3d f32f 353d
00000240: 4c94 853e 8eba a53e ce96 883d e985 c73e
00000250: 966d e73d 930d a23e bcbb 4e3e a20c bd3d
00000260: 2fce 2d3d 3a2f abbe 454d c83d a3a1 03bf
00000270: acb1 36be 6fbc 1ebe ac7c f3bc 2740 883e
00000280: 84e9 043e fbfb c5be de87 463d 3a77 433c
00000290: 1b72 0a3e 88c7 c9bd a4a8 483d 2bed b73d
000002a0: 894c 3d3e fd49 49be bdf0 57be affa 02bf
000002b0: 589a 98be 1b3d 853d 6d13 a93e a1ef 483e
000002c0: b62d 153e 0c5f 0b3d 5d8d 783e 9a9a 673e
000002d0: a396 adbe c37a bbbe 2845 8abe 5ba7 443e
000002e0: 0b64 5d3e 16c3 8bbd f98a 933e 0f0d 143e
000002f0: e1ed 47be 3d9d 23bc 559f 26be 62e9 09be
00000300: 8612 2abe 618e 1abf d392 c3bd a758 90be
00000310: c75a 2dbe 0ee6 563e 9394 963e 8425 afbe
00000320: 79e9 74be fd09 c2bd 1c54 5f3d efc2 19be
00000330: 4d79 813e 43d1 9bbc 7ded 003e 1d77 823e
00000340: 4389 a73e 580d 593d 56cb ef3d 3d22 b9bd
00000350: d896 773e 354b 7c3e e0d1 423d b609 b43d
00000360: a862 11bd 3b56 493e da39 c63e 5010 303e
00000370: fea4 2dbe 3b9a 71be a82c 8cbd a853 adbd
00000380: fbea 6ebd 64a9 77bd 4c10 ab3e 6763 c63d
00000390: 07c2 9e3c bc0a cc3c e44d 8a3e 7ee0 ab3c
000003a0: 9b4a 2f3b 097d 8cbc 8324 acbc 89ab 033d
000003b0: f8b2 2a3e 8d8c 273e 2d3a 6bbe 536e 6abe
000003c0: 215d ba3d ee9e 0f3c 09a7 40be f179 813e
000003d0: c263 9e3e 098e 243e 2b3e f5bd d85e 043d
000003e0: 5322 94bb 269f 1c3e 9f88 25be 96ba e63d
000003f0: e80a 6c3e b14c cf3d d444 71be 2775 d3bd

conv6.bias f4 [64]
0.13542888 -0.06575603 -0.11106819 0.1994876 -0.12326421 0.29487917 0.117860995 0.06814076
0.13808306 0.06459402 0.14213017 0.28901005 0.117205866 -0.2970271 0.07831662 -0.27436152
0.3997163 -0.10604722 -0.19052051 0.061680537 -0.14330254 0.033770707 -0.06631779 -0.11232531
-0.1302985 0.08275894 -0.31612277 0.07939248 -0.19554728 -0.094861075 -0.31847364 0.07017313
-0.15123458 -0.47644678 -0.33760568 0.1189704 -0.13989559 -0.15107766 -0.10895016 -0.04188005
-0.11270166 -0.053250223 -0.24150021 -0.16396466 -0.1364493 0.14005888 0.033600472 0.24609944
-0.17629297 0.0074283965 0.18152697 0.11873669 -0.2494711 -0.37581736 -0.26537636 0.1758451
0.082500435 0.21543178 0.33490142 -0.07684378 -0.41606823 -0.1671357 0.3278761 -0.090306394
00000000: dead 0a3e 19ab 86bd b877 e3bd 7a46 4c3e
00000010: f271 fcbd 67fa 963e 1b61 f13d 628d 8b3d
00000020: a565 0d3e df49 843d 928a 113e 20f9 933e
00000030: a109 f03d f013 98be 7764 a03d 1d79 8cbe
00000040: 9da7 cc3e 492f d9bd cf17 43be bba4 7c3d
00000050: e7bd 12be 2753 0a3d 9fd1 87bd d00a e6bd
00000060: f86c 05be 857d a93d d8da a1be 8698 a23d
00000070: 8c3d 48be 8646 c2bd fa0e a3be eeb6 8f3d
00000080: 3ddd 1abe d5f0 f3be a7da acbe c1a6 f33d
00000090: ca40 0fbe 1ab4 1abe 4321 dfbd 6a8a 2bbd
000000a0: 21d0 e6bd e81c 5abd d54b 77be 5ae6 27be
000000b0: 5eb9 0bbe 986b 0f3e a6a0 093d 7e01 7c3e
000000c0: 2586 34be e869 f33b 35e2 393e 392c f33d
000000d0: 5a75 7fbe 226b c0be 69df 87be bd10 343e
000000e0: fdf5 a83d 269a 5c3e 3378 ab3e 4660 9dbd
000000f0: e506 d5be 9f25 2bbe 60df a73e 8ff2 b8bd
