model/model_10.pth (torch_old, 571877 bytes, 24 tensors)

conv1.weight f4 [32, 3, 2, 2]
-0.09857461 -0.112829365 -0.13202679 0.40219715 -0.5817869 0.15214269 -0.11035094 0.44904694
-0.27929816 -0.06919262 0.032413643 0.29534817 0.20242985 -0.13243686 0.120162494 0.008412991
0.06626991 -0.069634385 0.31873724 0.030356906 -0.14494143 -0.25741062 -0.051989645 -0.25036263
-0.10947298 0.055250734 0.13801475 0.24298972 -0.34020796 0.20072088 -0.044258706 0.3117824
0.12663497 -0.20452602 -0.46885586 -0.12031168 0.40797925 -0.024479141 0.08300816 -0.25382066
0.3939949 -0.21891975 0.16536964 -0.18626115 -0.057481065 0.021967882 -0.22092853 -0.1439243
-0.15671411 -0.10521952 -0.37327603 -0.2232031 0.20437232 -0.07794004 0.30936256 0.22694813
-0.038544107 -0.2768208 0.16176388 0.030356046 -0.20318483 0.1060649 0.23154184 0.2475852
-0.20305865 -0.138287 -0.010368244 -0.027741393 -0.33347186 -0.36001095 0.11965304 -0.1719433
0.035276525 -0.071947105 -0.059838362 -0.04212684 0.14611447 0.13874315 -0.22188872 0.17826179
-0.1477719 -0.19543397 0.0012483767 -0.092295215 0.23645166 0.052425582 -0.57159853 0.061089434
0.13042575 0.49136564 -0.11732576 -0.24273157 0.24748631 0.3231127 -0.34867877 -0.20090126
0.04801025 -0.2862335 0.18473357 -0.09719827 0.13613576 -0.45833403 0.41721162 0.034069534
-0.23051187 -0.40448955 0.55543625 0.102501884 0.14675744 -0.030131366 0.03284825 0.15741469
0.22165936 -0.2730107 0.010060545 0.22301374 0.15099819 0.14343774 -0.19916257 -0.14829698
-0.11765251 0.030475404 0.29048958 -0.26956388 0.1737575 -0.19489637 -0.32130075 -0.12074023
0.1928797 0.2409438 -0.2306974 0.017881107 0.37221164 0.2208624 0.123948924 0.09633762
0.1462459 -0.014746939 -0.47357613 -0.5171689 -0.008046588 0.05099464 -0.27806157 0.045161404
0.0064646252 0.007144746 -0.13348724 0.05314876 0.15499167 0.33085272 -0.19653346 0.38092133
-0.14217976 0.024288181 -0.4307062 -0.18394458 -0.36760142 -0.15311116 0.17563708 0.021236876
-0.27034837 0.21117952 0.08856729 0.35130474 -0.32028538 0.052032378 -0.24039045 -0.024719097
-0.53364223 -0.30705747 -0.24526359 0.13856995 -0.05451567 0.08000001 0.3208519 0.47202343
0.064363055 -0.06334017 -0.21064967 0.34725642 0.15143473 0.13247342 -0.20592953 -0.13295498
0.024119725 0.36501375 -0.16542579 -0.2433488 0.12038996 -0.13640188 0.15102015 -0.20273386
0.0288634 -0.09034615 0.34744507 -0.36617112 0.23057646 -0.045154434 0.3797421 -0.46769452
0.19717477 -0.3589891 0.32372972 -0.32763448 -0.025933724 0.14451474 -0.22521508 0.21385986
-0.21931154 0.24767824 -0.20457381 0.29366028 -0.60970056 0.17649132 -0.068138294 0.28255475
0.10939562 -0.19732517 -0.17945798 0.28743395 -0.3981512 0.31442872 -0.42357054 -0.1930082
0.2502193 0.012836865 0.012380694 0.41132045 0.18124075 0.44147965 -0.26750767 -0.27778924
0.31066385 0.21021983 -0.2855353 0.06710948 -0.3225133 0.32294062 -0.19161919 -0.39536172
-0.2691722 -0.06007629 0.16338038 0.04562131 -0.35599366 -0.15468372 -0.42365938 -0.29638237
-0.16756573 0.29070312 0.36930045 0.05338333 -0.050047047 0.1608301 -0.12528357 -0.2485223
00000000: 7ce1 c9bd 1513 e7bd 0832 07be c9ec cd3e
00000010: fcef 14bf 4bcb 1b3e acff e1bd 7be9 e53e
00000020: 2b00 8fbe dcb4 8dbd 2bc4 043d e037 973e
00000030: c549 4f3e 879d 07be c117 f63d a4d6 093c
00000040: 85b8 873d 799c 8ebd 8731 a33e 0caf f83c
00000050: 876b 14be 53cb 83be 18f3 54bd 882f 80be
00000060: 5f33 e0bd 984e 623d bd53 0d3e 4cd2 783e
00000070: bd2f aebe c689 4d3e 9e48 35bd f1a1 9f3e
00000080: 99ac 013e 456f 51be e00d f0be f865 f6bd
00000090: a8e2 d03e 7b88 c8bc 2f00 aa3d c8f4 81be
000000a0: b3b9 c93e 802c 60be a956 293e 3ebb 3ebe
000000b0: 4471 6bbd fdf5 b33c 173b 62be e460 13be
000000c0: aa79 20be 557d d7bd 091e bfbe 5a8f 64be
000000d0: fa46 513e 079f 9fbd c564 9e3e 1765 683e
000000e0: 6de0 1dbd 75bb 8dbe 6ea5 253e 3ead f83c
000000f0: af0f 50be 8e38 d93d 4e19 6d3e fa86 7d3e
00000100: 9bee 4fbe 1b9b 0dbe 91df 29bc eb41 e3bc
00000110: d3bc aabe 5b53 b8be a70c f53d e811 30be
00000120: 1e7e 103d 0159 93bd 1219 75bd 328d 2cbd
00000130: 089f 153e af12 0e3e cc36 63be 428a 363e
00000140: 8451 17be d81f 48be 92a0 a33a 4605 bdbd
00000150: 6220 723e 35bc 563d 4854 12bf ea38 7a3d
00000160: 548e 053e 4794 fb3e 7d48 f0bd a08e 78be
00000170: 0d6d 7d3e 076f a53e 0686 b2be 0fb9 4dbe
00000180: 65a6 443d 338d 92be cc2a 3d3e e30f c7bd
00000190: 2c67 0b3e c2aa eabe c39c d53e 7f8c 0b3d
000001a0: 4e0b 6cbe 4119 cfbe 1231 0e3f 82ec d13d
000001b0: 9547 163e 0ed6 f6bc e38b 063d 5131 213e
000001c0: acfa 623e 0fc8 8bbe fcd4 243c b75d 643e
000001d0: 459f 1a3e 58e1 123e 46f1 4bbe 2adb 17be
000001e0: cdf3 f0bd 8ea7 f93c 0dbb 943e 4704 8abe
000001f0: 7ced 313e ea92 47be 8881 a4be a746 f7bd
00000200: 4282 453e f9b9 763e f03b 6cbe 667b 923c
00000210: 8692 be3e c129 623e efd8 fd3d a84c c53d
00000220: 7cc1 153e 259d 71bc 9278 f2be 2e65 04bf
00000230: d6d5 03bc c1df 503d 165e 8ebe 2afb 383d
00000240: 35d5 d33b 791e ea3b e1b0 08be 84b2 593d
00000250: 23b6 1e3e 8765 a93e 1140 49be 1f08 c33e
00000260: 9297 11be 02f8 c63c 8685 dcbe f85b 3cbe
00000270: 4136 bcbe 2cc9 1cbe 35da 333e f5f8 ad3c
00000280: 1a6b 8abe 723f 583e c462 b53d 37de b33e
00000290: 72fc a3be e71f 553d ea28 76be b47f cabc
000002a0: c79c 08bf a336 9dbe 6126 7bbe 48e5 0d3e
000002b0: d34b 5fbd 0cd7 a33d b346 a43e 0ead f13e
000002c0: c7d0 833d 7eb8 81bd 8cb4 57be 98cb b13e
000002d0: b511 1b3e 1da7 073e 31df 52be 5a25 08be
000002e0: bb96 c53c 15e3 ba3e 6165 29be 6e30 79be
000002f0: 038f f63d efac 0bbe 07a5 1a3e 7799 4fbe
00000300: f072 ec3c 6707 b9bd 52e4 b13e c87a bbbe
00000310: 3c1c 6c3e dbf3 38bd 8e6d c23e a875 efbe
00000320: 2fe8 493e 6bcd b7be e7bf a53e b5bf a7be
00000330: f672 d4bc acfb 133e c89e 66be 14fe 5a3e
00000340: 3493 60be 5d9f 7d3e cc7b 51be a45a 963e
00000350: 5615 1cbf 24ba 343e 178c 8bbd 04ab 903e
00000360: d00a e03d 9c0f 4abe d5c3 37be 8b2a 933e
00000370: 79da cbbe cdfc a03e 3dde d8be f1a3 45be
00000380: be1c 803e b751 523c 65d8 4a3c 9898 d23e
00000390: 2d97 393e 9f09 e23e c4f6 88be 643a 8ebe
000003a0: 550f 9f3e de43 573e af31 92be b270 893d
000003b0: 7720 a5be 7958 a53e d237 44be da6c cabe
000003c0: f0d0 89be 8e12 76bd 304d 273e 69dd 3a3d
000003d0: cd44 b6be 6965 1ebe e2e9 d8be 6ebf 97be
000003e0: 5a96 2bbe 0ad7 943e f314 bd3e 7ba8 5a3d
000003f0: 22fe 4cbd a5b0 243e 564a 00be a17c 7ebe

conv1.bias f4 [32]
-0.38176757 -0.075271964 -0.47140154 -0.15431896 -0.3800933 -0.49967661 -0.57282877 0.14430258
0.093091555 -0.35166624 -0.41766393 -0.026313769 -0.093483515 -0.19105214 0.08119766 -0.38193655
-0.08242192 0.116305314 -0.17587176 -0.5278864 -0.49815074 -0.7739799 0.14323105 -0.60176516
0.053431444 -0.10234438 -0.36389285 -0.5002261 0.1176686 -0.47571045 -0.39066932 0.080509126
00000000: 0a77 c3be 3028 9abd 8b5b f1be ca05 1ebe
00000010: 979b c2be 9dd5 ffbe e8a4 12bf 0ec4 133e
00000020: c9a6 be3d 990d b4be 0cd8 d5be f98f d7bc
00000030: 4974 bfbd 2ca3 43be f54a a63d 308d c3be
00000040: d3cc a8bd 7b31 ee3d ba17 34be 9023 07bf
00000050: 9d0d ffbe 8c23 46bf 29ab 123e 480d 1abf
00000060: eeda 5a3d ee99 d1bd 2a50 babe d10e 00bf
00000070: 3cfc f03d 5290 f3be cf05 c8be f8e1 a43d

conv2.weight f4 [32, 32, 2, 2]
-0.2141395 0.122400485 -0.107760824 -0.09518648 0.023077024 0.04147394 -0.0710163 0.011972496
-0.020894388 0.0247172 -0.1987618 -0.16741125 -0.11348887 -0.079691 -0.05340344 -0.10398582
-0.091385566 0.033371642 -0.10538973 -0.2046311 -0.040397212 0.050289955 -0.042489197 0.07623277
0.02850297 0.13523963 -0.12422679 0.013394367 -0.31282568 -0.3238998 -0.069547184 -0.46538112
0.11949138 0.108840965 0.15095286 0.279395 0.09634089 -0.098900944 0.11308233 0.09115685
-0.111154385 0.061074827 0.05318442 -0.04544813 -0.04071763 -0.2598066 0.14999169 -0.18011302
0.13854595 -0.030539505 0.066372454 -0.1922603 0.051528644 0.07519144 0.0049538016 -0.113653675
0.10704933 0.0059178243 0.15358494 0.12409739 -0.0007104857 0.33205643 -0.082218416 -0.08939468
0.15440781 -0.017267574 -0.20753093 -0.013445916 0.04867789 -0.22359271 0.06143102 0.0152183855
0.06567852 0.06369757 -0.07830044 -0.20209895 -0.14106606 -0.24760161 0.06594928 0.104474716
0.28078258 0.35318533 -0.44054493 -0.19045305 -0.26679772 -0.12548734 -0.04260978 -0.20374502
-0.1383656 -0.0068188817 -0.04594546 -0.019855138 0.4899994 0.22557653 -0.23649603 -0.29212204
-0.279145 0.10652301 0.11311157 -0.30230993 0.124312066 0.110528775 -0.19755608 -0.22805353
-0.074346535 0.2401477 0.055334117 -0.05382743 -0.07955193 0.10144136 -0.015744304 0.033811864
0.15594564 0.1696966 0.19187541 0.32229888 0.043427926 0.25569797 -0.34012824 -0.1583307
-0.29238066 0.18620217 -0.1552307 0.072672844 0.17380463 -0.060400624 0.08770734 0.09409171
-0.22539811 -0.1209025 -0.15817127 -0.26993006 -0.39571598 -0.2317303 -0.308568 -0.3415519
-0.36599046 -0.45801917 -0.54330915 -0.30719033 -0.2242981 -0.41882572 -0.42955384 -0.43442193
-0.23411341 -0.27420768 -0.23732173 -0.3153636 0.16566445 0.19155486 0.15515463 0.21616012
-0.35067278 -0.31040302 -0.28663003 -0.27335167 -0.36258405 -0.34190622 -0.54319704 -0.3976845
-0.46951875 -0.13360173 -0.46060348 -0.37218425 -0.018549822 0.01667332 -0.13974035 0.049014077
0.02739963 -0.07153574 0.01446744 0.11607596 0.087137684 0.111379914 0.0951468 0.18310422
-0.43262106 -0.58222324 -0.6712788 -0.5046401 -0.105374135 -0.16763784 -0.118833795 -0.13877034
-0.18925677 -0.33451137 -0.08501502 -0.19821157 0.2236907 0.18007319 0.25193143 0.26485696
-0.24997562 -0.04743169 -0.07895201 -0.08151848 -0.21375576 -0.27516025 -0.20044813 -0.27368543
0.016830403 0.01857422 0.08824412 0.03174181 -0.18355337 -0.26546782 -0.012731452 -0.13164216
0.31473494 0.37243554 0.30454436 0.42230684 0.20390733 0.0069043827 0.28374636 0.02840944
-0.3847864 -0.39285082 -0.5704184 -0.32563776 -0.2492567 -0.29494774 -0.2945056 -0.2843842
-0.48254928 -0.4414763 -0.62130505 -0.45425007 0.07963383 -0.04152155 -0.06484887 -0.014845483
-0.22242345 -0.17606641 -0.17646238 -0.026006915 -0.048276212 0.0025139728 0.007209042 -0.012542607
-0.18705691 -0.0007482523 -0.091754116 -0.073732935 -0.055815376 -0.0051009892 -0.19826967 -0.040217828
-0.07693167 -0.054049578 0.033770084 0.018638328 -0.4916768 -0.32964426 -0.3739912 -0.41145244
00000000: 6347 5bbe 1bad fa3d b5b1 dcbd 21f1 c2bd
00000010: 070c bd3c 94e0 293d fe70 91bd 4a28 443c
00000020: b52a abbc ba7b ca3c 3788 4bbe db6d 2bbe
00000030: da6c e8bd 0935 a3bd 91bd 5abd 85f6 d4bd
00000040: 5b28 bbbd b4b0 083d 92d6 d7bd d18a 51be
00000050: 8c77 25bd d7fc 4d3d 2709 2ebd ed1f 9c3d
00000060: 0f7f e93c 427c 0a3e 9e6a febd 0c74 5b3c
00000070: b02a a0be 32d6 a5be c16e 8ebd 6f46 eebe
00000080: e6b7 f43d 03e8 de3d 6393 1a3e dd0c 8f3e
00000090: 5f4e c53d 948c cabd b597 e73d 71b0 ba3d
000000a0: e9a4 e3bd 9929 7a3d e8d7 593d d227 3abd
000000b0: 88c7 26bd 5f05 85be 6c97 193e 8c6f 38be
000000c0: fdde 0d3e fc2d fabc 48ee 873d e2df 44be
000000d0: b30f 533d f8fd 993d 8053 a23b 42c3 e8bd
000000e0: ae3c db3d 4fea c13b 5f45 1d3e c626 fe3d
000000f0: e33f 3aba 4d03 aa3e 2162 a8bd 8f14 b7bd
00000100: 151d 1e3e ba74 8dbc fd82 54be 424c 5cbc
00000110: 7862 473d 7df5 64be 189f 7b3d 8956 793c
00000120: 7682 863d df73 823d fb5b a0bd 07f3 4ebe
00000130: 9f73 10be 478b 7dbe 6b10 873d d7f6 d53d
00000140: bcc2 8f3e b5d4 b43e 1b8f e1be 2006 43be
00000150: b699 88be c17f 00be 9887 2ebd 89a2 50be
00000160: b6af 0dbe ed70 dfbb 4f31 3cbd 3ea7 a2bc
00000170: 34e1 fa3e 89fd 663e 042c 72be 0591 95be
00000180: 18ec 8ebe bc28 da3d 0aa7 e73d 5ec8 9abe
00000190: 5397 fe3d e95c e23d 244c 4abe dd86 69be
000001a0: ff42 98bd 47e9 753e 07a6 623d 277a 5cbd
000001b0: 1fec a2bd 7dc0 cf3d 33fa 80bc 4f7e 0a3d
000001c0: 37b0 1f3e f2c4 2d3e fd7a 443e 5c04 a53e
000001d0: 7be1 313d d8ea 823e 4a25 aebe 7121 22be
000001e0: ebb2 95be c8ab 3e3e ccf4 1ebe 80d5 943d
000001f0: d7f9 313e a566 77bd e89f b33d 28b3 c03d
00000200: c3ce 66be bb9b f7bd a6f7 21be 4634 8abe
00000210: 499b cabe b54a 6dbe a0fc 9dbe e4df aebe
00000220: 1a63 bbbe 7d81 eabe 4f16 0bbf 0d48 9dbe
00000230: 67ae 65be 5370 d6be 7bee dbbe 8d6c debe
00000240: 6dbb 6fbe f364 8cbe 7804 73be 5677 a1be
00000250: f1a3 293e f526 443e dbe0 1e3e 1459 5d3e
00000260: 628b b3be 25ed 9ebe 2cc1 92be c0f4 8bbe
00000270: 9ea4 b9be 550e afbe f60e 0bbf 4e9d cbbe
00000280: c364 f0be e4ce 08be 38d4 ebbe ef8e bebe
00000290: ccf5 97bc 7d96 883c 1818 0fbe fcc2 483d
000002a0: 3075 e03c 5481 92bd d708 6d3c 3cb9 ed3d
000002b0: 3e75 b23d 271b e43d 53dc c23d ac7f 3b3e
000002c0: 8280 ddbe 950c 15bf edd8 2bbf 1830 01bf
000002d0: 65ce d7bd 41a9 2bbe 225f f3bd d019 0ebe
000002e0: 87cc 41be 1345 abbe 5b1c aebd f9f7 4abe
000002f0: 2d0f 653e 1b65 383e 28fd 803e 559b 873e
00000300: 9cf9 7fbe bb47 42bd 97b1 a1bd 29f3 a6bd
00000310: cae2 5abe cee1 8cbe 4642 4dbe 7f20 8cbe
00000320: eadf 893c f628 983c 55b9 b43d b303 023d
00000330: 6af5 3bbe 66eb 87be 9497 50bc 34cd 06be
00000340: f024 a13e dfaf be3e 3ded 9b3e 9a38 d83e
00000350: 15cd 503e 293e e23b 3447 913e eaba e83c
00000360: b902 c5be be23 c9be f106 12bf feb9 a6be
00000370: 263d 7fbe 6403 97be 70c9 96be ce9a 91be
00000380: b310 f7be 2e09 e2be d90d 1fbf 7793 e8be
00000390: 1017 a33d 8012 2abd 7ccf 84bd 783a 73bc
000003a0: f9c2 63be c14a 34be 8eb2 34be 740c d5bc
000003b0: 47bd 45bd 77c1 243b d439 ec3b 827f 4dbc
000003c0: d98b 3fbe 5d26 44ba 95e9 bbbd 4b01 97bd
000003d0: aa9e 64bd 3326 a7bb 3407 4bbe 73bb 24bd
000003e0: 5a8e 9dbd 1763 5dbd 8052 0a3d 68af 983c
000003f0: 10bd fbbe 22c7 a8be c67b bfbe e5a9 d2be

conv2.bias f4 [32]
0.052055173 -0.09926287 -0.10620877 -0.15136816 0.12876493 -0.09038321 -0.14534537 0.14055817
-0.061271142 0.14931034 -0.20295712 0.17860758 0.10802554 -0.12226903 -0.46287864 -0.1149933
0.010507801 0.0034022264 0.04613029 0.122849785 0.040775716 -0.21041523 0.051879425 0.13120626
-0.07895968 0.19746797 0.04077827 -0.12504102 0.0018448313 0.19016804 0.27576888 -0.15473646
00000000: ce37 553d 554a cbbd fc83 d9bd 4100 1bbe
00000010: f4da 033e d51a b9bd 6bd5 14be 7bee 0f3e
00000020: 73f7 7abd cfe4 183e fed3 4fbe e8e4 363e
00000030: 7f3c dd3d 2f68 fabd 6efe ecbe 9b81 ebbd
00000040: e928 2c3c e3f7 5e3b 1df3 3c3d ab98 fb3d
00000050: 7004 273d 1777 57be 857f 543d ef5a 063e
00000060: 9db5 a1bd 0b35 4a3e 1e07 273d c10a 00be
00000070: 44ce f13a 69bb 423e 9431 8d3e 3c73 1ebe

conv3.weight f4 [64, 32, 2, 2]
-0.09232776 0.095364965 0.008752822 0.29458514 0.028019637 -0.22795515 0.22776476 -0.21357024
0.059657857 0.0732221 0.090541326 0.030058619 0.032770418 -0.05884943 0.01451909 -0.03322069
-0.37144682 -0.33060458 -0.21715923 -0.2836321 -0.071721755 0.0482938 -0.0583845 0.04123001
0.029881464 -0.03259451 -0.046439733 -0.06557164 -0.13451608 -0.22342998 -0.30683067 -0.41981155
-0.028951067 -0.09234055 0.026125025 -0.025187235 0.26937068 -0.07278472 0.23904753 -0.39712408
0.18221815 0.30929568 0.22498578 0.3010154 0.06095534 0.099225685 0.02815273 0.043100923
-0.0064109643 -0.35943222 0.3871613 -0.055692647 0.1873674 0.19720054 -0.0509824 -0.4720783
-0.12701747 -0.051657807 -0.031494744 -0.24273312 0.11429968 0.076116815 0.058635883 0.049263272
0.06797692 0.060166467 0.08840685 -0.010289012 0.045851063 0.06817737 -0.10906271 -0.098661736
0.1466346 -0.012810125 -0.13867256 -0.034240216 0.26508963 -0.03785081 0.11447823 0.025269104
-0.24975772 0.077437244 0.054090705 0.16745514 0.19583774 0.15498585 -0.04043014 0.099057384
-0.1107381 -0.021454751 -0.07888868 -0.037804298 -0.38980034 -0.13062353 0.36967805 0.21237972
0.14130959 -0.22663645 0.28110522 -0.20923558 0.38428956 -0.21668515 0.008789582 -0.33619997
0.07446725 -0.1567717 -0.21094881 -0.12686312 0.06716719 0.012745498 -0.079393454 -0.010751064
0.015006885 0.030906778 0.09343717 0.046110142 0.24132676 -0.11155893 0.12699005 -0.023734419
0.04632041 0.2520352 0.09679337 0.20662257 0.010108359 0.016236404 0.1057284 -0.04419579
-0.19124424 -0.5439118 0.072901785 -0.0057856883 0.2311083 -0.09440457 0.2505554 0.19776364
0.037951894 0.002729123 -0.10473322 -0.08102397 -0.06297825 -0.10160633 0.03639583 0.05983155
-0.058902714 -0.13009325 -0.16791537 -0.06284249 -0.007380301 -0.02563022 -0.025537461 0.06001095
-0.01475258 0.025620101 0.05798407 0.036786813 -0.011503768 -0.27470037 0.039269477 -0.14950423
-0.008587695 0.013878811 -0.014573884 -0.018927868 0.111450285 0.15718037 -0.08152078 -0.21076977
-0.05791533 0.051356863 -0.2559706 -0.12164774 0.046080023 -0.35035878 0.24535196 -0.08131426
0.19525605 0.23630185 -0.09222674 -0.21031973 0.105712466 0.09250171 0.11926604 0.26424164
-0.32284606 -0.038183086 -0.25376475 0.04558529 -0.030785486 0.07717635 -0.038239058 0.02102909
0.1603399 0.015201756 -0.009853667 0.051775362 -0.016004778 -0.06857414 -0.076618776 0.08034685
0.028959015 -0.029345293 -0.37407568 -0.19307959 -0.1299888 0.03821404 -0.5468295 -0.09851964
-0.13574813 -0.021179073 -0.33561084 -0.36717936 -0.055412583 -0.022940414 0.02364467 0.1289879
0.025370223 0.060421832 0.060598344 0.16210504 -0.23415321 -0.28021458 0.15048623 -0.028256955
0.23746854 0.26985535 -0.10766626 0.0033112394 0.22544211 0.12537739 -0.12128146 -0.20243303
-0.28886238 -0.7363084 -0.23193067 -0.48042992 0.017388474 -0.075360045 0.037650168 0.082027785
0.20120077 0.07674283 -0.3329682 -0.127131 0.07394118 0.20386913 -0.20778362 0.05629471
0.14030592 0.09348405 0.10002611 -0.65383595 -0.054241188 0.031608474 -0.05865214 0.006087274
00000000: 5616 bdbd b54e c33d ff67 0f3c ddd3 963e
00000010: 7089 e53c 136d 69be 2a3b 693e 28b2 5abe
00000020: cc5b 743d 78f5 953d bb6d b93d 7e3d f63c
00000030: 463a 063d 1a0c 71bd 7ae1 6d3c 6b12 08bd
00000040: 472e bebe 0145 a9be fd5e 5ebe 3a38 91be
00000050: dbe2 92bd b8cf 453d 9624 6fbd cde0 283d
00000060: f9c9 f43c d281 05bd 9737 3ebd 6d4a 86bd
00000070: 95be 09be d4ca 64be e918 9dbe 8af1 d6be
00000080: ca2a edbc 0b1d bdbd 2604 d63c 7655 cebc
00000090: f4ea 893e 2810 95bd e0c8 743e d953 cbbe
000000a0: 6597 3a3e 015c 9e3e ac62 663e b11e 9a3e
000000b0: 4eac 793d d636 cb3d 8ea0 e63c 988a 303d
000000c0: 1113 d2bb 8007 b8be 023a c63e f91d 64bd
000000d0: 3ddd 3f3e f0ee 493e ecd2 50bd 3fb4 f1be
000000e0: de10 02be 2397 53bd a200 01bd 088f 78be
000000f0: f315 ea3d 22e3 9b3d 2e2c 703d 49c8 493d
00000100: 7c37 8b3d 1d71 763d a70e b53d 3f93 28bc
00000110: 53ce 3b3d 94a0 8b3d 455c dfbd 2a0f cabd
00000120: 6127 163e 8fe1 51bc 2e00 0ebe 783f 0cbd
00000130: d4b9 873e 7309 1bbd 9073 ea3d 2701 cf3c
00000140: 7dc0 7fbe 6b97 9e3d 378e 5d3d 5c79 2b3e
00000150: b089 483e 9cb4 1e3e 139a 25bd 99de ca3d
00000160: a8ca e2bd e0c1 afbc 6390 a1bd aed8 1abd
00000170: e993 c7be 2dc2 05be 7146 bd3e 127a 593e
00000180: 76b3 103e 6313 68be 06ed 8f3e da41 56be
00000190: 9ac1 c43e b6e2 5dbe 2e02 103c 6722 acbe
000001a0: 4982 983d c388 20be f702 58be 68e8 01be
000001b0: f48e 893d 7ed2 503c 0999 a2bd 3b25 30bc
000001c0: 70df 753c 3630 fd3c fd5b bf3d fddd 3c3d
000001d0: 5d1e 773e 0279 e4bd ae09 023e af6e c2bc
000001e0: 78ba 3d3d c20a 813e 9a3b c63d de94 533e
000001f0: 889d 253c 3502 853c 2288 d83d a506 35bd
00000200: 88d5 43be ce3d 0bbf 884d 953d df95 bdbb
00000210: a7a7 6c3e 2f57 c1bd cc48 803e 8d82 4a3e
00000220: 7273 1b3d 16db 323b 5f7e d6bd e5ef a5bd
00000230: befa 80bd fb16 d0bd cb13 153d ed11 753d
00000240: f943 71bd 2a37 05be 02f2 2bbe 90b3 80bd
00000250: 74d6 f1bb 78f6 d1bc f033 d1bc 0bce 753d
00000260: ceb4 71bc 3fe1 d13c b480 6d3d c5ad 163d
00000270: 4d7a 3cbc 87a5 8cbe 08d9 203d a317 19be
00000280: 67b3 0cbc f463 633c 4dc7 6ebc 9e0e 9bbc
00000290: 0c40 e43d e4f3 203e 5ef4 a6bd 08d4 57be
000002a0: a038 6dbd 935b 523d 940e 83be 7322 f9bd
000002b0: 68be 3c3d 3a62 b3be 8b3d 7b3e 1788 a6bd
000002c0: 34f1 473e 1df9 713e 60e1 bcbd 0e5e 57be
000002d0: c77f d83d 8971 bd3d c141 f43d ae4a 873e
000002e0: 144c a5be de65 1cbd 74ed 81be a4b7 3a3d
000002f0: d831 fcbc a20e 9e3d 8fa0 1cbd 3345 ac3c
00000300: 2530 243e c910 793c 4671 21bc 6712 543d
00000310: 741c 83bc 9970 8cbd 4eea 9cbd e48c a43d
00000320: 753b ed3c 8a65 f0bc d986 bfbe a8b6 45be
00000330: c91b 05be 5386 1c3d 05fd 0bbf aac4 c9bd
00000340: 8f01 0bbe bc7f adbc 2fd5 abbe effe bbbe
00000350: 4ef8 62bd 89ed bbbc 78b2 c13c 6715 043e
00000360: 37d5 cf3c e27c 773d f835 783d ddfe 253e
00000370: dcc5 6fbe 4978 8fbe 1019 1a3e 217b e7bc
00000380: f42a 733e 7b2a 8a3e 2180 dcbd 6101 593b
00000390: 4cda 663e ee62 003e 6a62 f8bd 9b4a 4fbe
000003a0: c5e5 93be b57e 3cbf 3c7f 6dbe e9fa f5be
000003b0: 4672 8e3c 5e56 9abd 1037 1a3d 2ffe a73d
000003c0: 9307 4e3e 582b 9d3d cf7a aabe a12e 02be
000003d0: 796e 973d 12c3 503e 3bc5 54be 4895 663d
000003e0: 5bac 0f3e 9174 bf3d 7dda cc3d cb61 27bf
000003f0: 022c 5ebd e377 013d 3a3d 70bd c177 c73b

conv3.bias f4 [64]
-0.010879525 0.35473752 0.14478058 -0.40364772 0.027042318 -0.012659689 0.13131694 -0.09633011
0.1362165 0.14107123 -0.3772272 -0.08975892 0.04453225 -0.11782555 0.096443795 0.14886373
-0.04488857 0.038118463 0.04550499 0.0628566 0.12779133 -0.0068522966 -0.4696077 -0.14011382
-0.00570356 -0.16341771 0.3643758 0.08228683 0.24571857 0.14646342 0.13655506 0.20932068
-0.091122225 0.22735931 -0.08952268 -0.21829814 0.03543845 0.2332166 -0.22217976 0.02469127
0.07963673 0.19274224 0.03386449 -0.16641876 0.045551773 -0.03803331 0.06423637 0.10526651
-0.057587303 -0.054620333 0.086637095 -0.09519822 0.061775815 -0.17898704 0.12788104 0.0064176777
-0.13296118 0.023714876 -0.10545015 -0.20040765 0.07852588 0.0062222444 -0.1517634 -0.0432356
00000000: 0940 32bc 28a0 b53e 5c41 143e eaaa cebe
00000010: da87 dd3c 966a 4fbc f377 063e b948 c5bd
00000020: 577c 0b3e fa74 103e ec23 c1be 86d3 b7bd
00000030: 7367 363d 864e f1bd 5384 c53d bc6f 183e
00000040: 14dd 37bd 1b22 1c3d 7163 3a3d f6ba 803d
00000050: bbdb 023e 3b89 e0bb 6c70 f0be ff79 0fbe
00000060: eee4 babb f956 27be 778f ba3e ff85 a83d
00000070: a69d 7b3e 82fa 153e 17d5 0b3e 2958 563e
00000080: 4a9e babd e1d0 683e ab57 b7bd 8c89 5fbe
00000090: e827 113d 55d0 6e3e 1783 63be 5945 ca3c
000000a0: 9518 a33d 395e 453e 7eb5 0a3d ae69 2abe
000000b0: 7f94 3a3d d1c8 1bbd 5c8e 833d f895 d73d
000000c0: aae0 6bbd 92b9 5fbd ca6e b13d 49f7 c2bd
000000d0: a308 7d3d 6148 37be 3ff3 023e 624b d23b
000000e0: fa26 08be b345 c23c 40f6 d7bd aa37 4dbe
000000f0: 2dd2 a03d f8e3 cb3b dd67 1bbe d017 31bd

conv4.weight f4 [64, 64, 2, 2]
0.03987078 -0.20099561 -0.10671725 -0.5621044 -0.21954063 0.2436769 -0.21402264 0.052993067
-0.40147555 0.094604425 -0.29792506 -0.057057675 -0.10135171 -0.20889351 -0.1610178 -0.1909922
0.12745109 0.11477031 0.06808908 -0.33572897 -0.25549665 -0.3427899 -0.116664216 -0.19801661
0.0108445445 -0.5772501 0.14748667 -0.15548702 -0.07379045 0.011175584 0.19829036 0.014369778
0.16698793 -0.18455814 0.3009113 0.03367872 -0.192716 -0.27612638 -0.1022956 -0.10992275
-0.13797313 0.038509082 -0.28314286 -0.39988062 -0.4598847 0.12561367 -0.49151728 -0.41757378
-0.3846395 0.02950317 -0.097207874 -0.26353392 -0.045418028 -0.06393949 0.06617649 -0.087214485
0.25056085 -0.03501442 0.45268416 0.2606493 -0.1533444 -0.22508648 0.2548068 -0.022164738
-0.085523486 0.077354714 -0.31264195 -0.0009859921 -0.18550617 -0.029161314 -0.09722908 -0.3600444
0.15181711 -0.16467646 0.042307407 0.08626187 -0.38506114 -0.13367677 -0.2605747 -0.106876
-0.14033417 0.35767615 -0.007851454 0.10394574 -0.38429978 0.4814087 0.046917994 -0.02948057
0.037632413 0.035146523 -0.3016989 0.08341628 -0.027955234 0.042950787 0.034015637 0.084612645
-0.4903904 -0.12241503 -0.18692562 0.2809159 0.031750347 0.28275564 -0.13674223 0.15797305
0.1079962 -0.20266923 0.2192859 -0.08592781 -0.23564 -0.5147935 -0.16670573 -0.356861
-0.17602962 -0.48539957 0.045339927 -0.22583453 -0.1665262 -0.22410208 -0.54137343 -0.36986303
0.037444953 0.26767933 0.022345366 -0.25117332 -0.14678146 0.19947883 -0.22311448 0.08004536
-0.21248914 -0.12996142 -0.20193428 -0.17520839 0.07972837 -0.34539726 0.026370889 0.16578344
0.091035865 -0.1265814 -0.2320525 0.19476253 -0.14143713 0.044342965 -0.10830866 0.015162157
-0.08015252 -0.07458173 0.1780147 0.14617907 0.07925237 0.041037455 0.16429016 0.033033933
-0.15738726 0.014872334 -0.49836668 -0.5359625 -0.3149327 0.14086041 -0.31256148 -0.1101382
-0.19416554 0.19614342 -0.21544892 0.2956496 -0.20404167 0.00719829 -0.042328935 -0.06679117
0.14368631 -0.13666688 -0.12413743 -0.27122727 -0.062022813 -0.04994573 -0.033401646 0.0019466849
0.078838706 0.07085216 -0.006257004 0.32879975 -0.11712798 0.0117765935 -0.39412504 -0.13164972
-0.00019208643 -0.39324218 0.24326006 -0.38092366 0.12140828 -0.5668654 0.19188613 -0.08856581
-0.302399 0.23663297 -0.16341342 0.090581894 -0.056089256 -0.24994472 0.3563568 -0.14669544
0.17780307 -0.14990857 0.37105116 0.13228536 -0.08458248 0.03763355 0.034837198 0.069431156
0.11732496 0.020548493 0.25465146 0.2478319 0.19314376 -0.40610495 -0.053420026 -0.114586055
0.30800498 -0.23005728 0.3682742 0.33982402 -0.27573103 -0.20742166 -0.11880068 0.021262797
0.15386151 0.19260694 -0.13358739 0.32650545 -0.28292552 0.16564205 -0.4200404 -0.08764099
-0.12696393 0.14775413 0.09133431 -0.35281965 -0.094780676 -0.0970034 0.011188057 0.008777248
0.028856859 -0.26803103 0.32144457 -0.37227204 0.024040233 -0.3813332 0.18670946 0.012643478
-0.26030388 0.085239515 -0.102536306 -0.22026956 -0.1673899 0.15051319 -0.19597979 0.13286981
00000000: 8b4f 233d cbd1 4dbe 938e dabd 13e6 0fbf
00000010: 42cf 60be 7086 793e c028 5bbe 420f 593d
00000020: 348e cdbe f7bf c13d a289 98be 4fb5 69bd
00000030: 7c91 cfbd 2ee8 55be dae1 24be 7693 43be
00000040: 8a82 023e b20c eb3d 4a72 8b3d abe4 abbe
00000050: 75d0 82be 2882 afbe a6ed eebd dec4 4abe
00000060: 51ad 313c aac6 13bf bf06 173e fd37 1fbe
00000070: 731f 97bd cc19 373c a10c 4b3e 386f 6b3c
00000080: e2fe 2a3e cffc 3cbe 0c11 9a3e b3f2 093d
00000090: 5857 45be 7060 8dbe 5b80 d1bd 2e1f e1bd
000000a0: d448 0dbe b3bb 1d3d 1af8 90be 27bd ccbe
000000b0: 0276 ebbe dfa0 003e 27a8 fbbe 3bcc d5be
000000c0: 78ef c4be a2b0 f13c ec14 c7bd ebed 86be
000000d0: 4108 3abd b5f2 82bd 8a87 873d 829d b2bd
000000e0: 8349 803e 486b 0fbd 38c6 e73e d373 853e
000000f0: 5006 1dbe 127d 66be 0976 823e d392 b5bc
00000100: f026 afbd 266c 9e3d 9b12 a0be 683c 81ba
00000110: 54f5 3dbe b5e3 eebc 0a20 c7bd bd57 b8be
00000120: f275 1b3e f2a0 28be 884a 2d3d 10aa b03d
00000130: bc26 c5be 90e2 08be 0c6a 85be cee1 dabd
00000140: c3b3 0fbe 5421 b73e 63a3 00bc 81e1 d43d
00000150: f1c2 c4be 337b f63e 152d 403d 3d81 f1bc
00000160: 7224 1a3d cdf5 0f3d 4778 9abe 28d6 aa3d
00000170: 6002 e5bc 2aed 2f3d fb53 0b3d 6549 ad3d
00000180: 7314 fbbe bbb4 fabd 6e69 3fbe 35d4 8f3e
00000190: a70c 023d 59c5 903e 2806 0cbe b0c3 213e
000001a0: 1d2d dd3d 8688 4fbe 7c8c 603e ebfa afbd
000001b0: 9d4b 71be 82c9 03bf e8b4 2abe 7cb6 b6be
000001c0: 1c41 34be 4b86 f8be 5cb6 393d 2b41 67be
000001d0: d885 2abe 047b 65be 7397 0abf b05e bdbe
000001e0: e15f 193d 440d 893e a10d b73c ca99 80be
000001f0: e14d 16be 2e44 4c3e 1f78 64be d2ee a33d
00000200: c196 59be 9b14 05be dcc7 4ebe d469 33be
00000210: a148 a33d e9d7 b0be c307 d83c 22c3 293e
00000220: 0371 ba3d 8e9e 01be 2c9f 6dbe d46f 473e
00000230: e5d4 10be f8a0 353d eed0 ddbd b26a 783c
00000240: 0127 a4bd 4ebe 98bd 7c49 363e f7af 153e
00000250: 114f a23d e416 283d ae3b 283e 974e 073d
00000260: 202a 21be 17ab 733c eb29 ffbe d734 09bf
00000270: dc3e a1be b63d 103e 0f08 a0be 2390 e1bd
00000280: 55d3 46be d2d9 483e a49e 5cbe 625f 973e
00000290: 4df0 50be a2df eb3b 1b61 2dbd cfc9 88bd
000002a0: 8122 133e 67f2 0bbe c43b febd 4dde 8abe
000002b0: a20b 7ebd e593 4cbd 2ad0 08bd e827 ff3a
000002c0: 3076 a13d f01a 913d 8e07 cdbb 7158 a83e
000002d0: cbe0 efbd 9df2 403c c2ca c9be 2fcf 06be
000002e0: cf6a 49b9 0a57 c9be 2a19 793e 6d08 c3be
000002f0: e8a4 f83d 171e 11bf cc7d 443e fe61 b5bd
00000300: 0bd4 9abe ea4f 723e d955 27be 0083 b93d
00000310: d9bd 65bd 82f1 7fbe 6674 b63e 5437 16be
00000320: 0212 363e a281 19be 6bfa bd3e d075 073e
00000330: 9439 adbd a325 1a3d 73b1 0e3d ec31 8e3d
00000340: 1248 f03d 5055 a83c ad61 823e a5c7 7d3e
00000350: 7ac7 453e fdec cfbe f5ce 5abd 18ac eabd
00000360: d4b2 9d3e 2394 6bbe 708e bc3e 6afd ad3e
00000370: 9e2c 8dbe 5866 54be c54d f3bd 512f ae3c
00000380: df8d 1d3e c13a 453e 22cb 08be b92b a73e
00000390: 9ddb 90be 129e 293e 890f d7be 1f7d b3bd
000003a0: d502 02be dc4c 173e 7c0d bb3d c7a4 b4be
000003b0: 5f1c c2bd b8a9 c6bd 1d4e 373c 72ce 0f3c
000003c0: 3865 ec3c 5d3b 89be 6294 a43e 719a bebe
000003d0: 06f0 c43c 1b3e c3be c430 3f3e 9726 4f3c
000003e0: 8d46 85be 0e92 ae3d 8efe d1bd 588e 61be
000003f0: 4268 2bbe 2120 1a3e edae 48be 060f 083e

conv4.bias f4 [64]
-0.08500461 -0.08026837 -0.009708265 -0.10206627 0.09264619 0.13837132 0.011137427 -0.054729603
-0.13873297 0.22491267 -0.09704897 -0.035213914 0.11088404 0.2956135 0.12365224 0.17042485
0.011028795 -0.13887265 0.1533842 0.029746545 0.36265332 0.07378123 -0.3161365 -0.04843433
-0.09143971 0.16871616 -0.07118938 0.31412083 0.08197554 0.13203491 -0.15027507 0.0835797
0.25695044 0.1404315 -0.12470047 -0.1374693 -0.065568656 -0.23764932 -0.29165936 -0.24165775
0.047104184 -0.30503863 0.007867583 0.07495054 0.10730065 -0.064082995 0.107701175 -0.14539792
0.14899217 -0.18209188 -0.09501727 -0.00045152757 0.15921536 0.26913926 0.26666364 -0.10358244
-0.033723444 0.02786632 -0.063975796 -0.09560129 0.13293493 0.17388926 -0.10564591 -0.071956225
00000000: e616 aebd be63 a4bd 6a0f 1fbc 1f08 d1bd
00000010: 49bd bd3d 36b1 0d3e c179 363c 262c 60bd
00000020: 0410 0ebe 824f 663e 9cc1 c6bd 773c 10bd
00000030: 2c17 e33d a75a 973e 633d fd3d da83 2e3e
00000040: 1eb2 343c a234 0ebe bf10 1d3e 07af f33c
00000050: b2ad b93e 9d1a 973d a5dc a1be 1363 46bd
00000060: be44 bbbd eec3 2c3e bdcb 91bd 72d4 a03e
00000070: cbe2 a73d 2934 073e b5e1 19be d52b ab3d
00000080: 028f 833e 46cd 0f3e f662 ffbd c1c4 0cbe
00000090: dc48 86bd 585a 73be 6054 95be 2175 77be
000000a0: 51f0 403d 062e 9cbe 09e7 003c ab7f 993d
000000b0: 71c0 db3d f23d 83bd 6f92 dc3d 31e3 14be
000000c0: 6791 183e 4b76 3abe 6a98 c2bd 01bb ecb9
000000d0: 5a09 233e 9fcc 893e 2388 883e 0823 d4bd
000000e0: 9821 0abd e947 e43c be05 83bd 9cca c3bd
000000f0: 1820 083e 0710 323e e25c d8bd c95d 93bd

conv5.weight f4 [128, 64, 2, 2]
-0.046239868 -0.19986807 -0.123500474 -0.22027436 0.020847756 -0.05123222 0.026554182 -0.084565185
0.1723184 0.01377093 0.20998044 -0.21864642 -0.19994253 0.03312316 -0.24044743 -0.12670676
-0.43031347 -0.54221874 -0.16266337 -0.33214825 -0.35216293 0.031585667 -0.14324625 -0.16658375
-0.16012512 0.020685866 0.065334074 0.050132405 -0.2623615 -0.24173449 -0.19317017 -0.020536115
-0.06275838 -0.42508823 -0.053015206 -0.06968165 0.16620857 -0.026585668 0.2920561 -0.06643875
-0.16972148 -0.3275468 0.038222257 0.12420449 -0.44535086 -0.046180595 0.01750375 0.26910278
-0.22862054 -0.7720354 -0.06984517 -0.13572338 -0.2591273 -0.05361026 -0.21551578 0.030009411
-0.029391559 -0.19970445 -0.38867593 0.21185642 -0.2898688 0.111107476 0.056473337 -0.01904546
0.26561618 0.19418417 -0.48176268 -0.33436874 -0.0030755335 0.013189336 0.014591348 0.05747976
0.03535562 0.26280466 -0.34156552 -0.18166173 0.12639832 -0.14438225 0.067817755 0.20659867
0.11606126 -0.008430069 0.11405979 0.03384223 -0.035392072 -0.0778963 -0.054298393 0.12310673
-0.3349668 0.04444043 -0.009013944 0.33029595 -0.39459336 -0.2951583 0.08889462 -0.0030558545
-0.072994895 -0.0319835 -0.075987674 -0.08296072 -0.15973005 -0.22993872 0.31607738 0.16001199
-0.009468556 -0.064166255 0.21423034 -0.4968469 0.47644162 -0.04210227 0.23782101 0.14402707
0.15819786 0.008285351 0.6335406 -0.060907774 0.18515083 0.27579162 0.33317748 0.3070027
-0.031413462 0.01921951 -0.008839155 -0.1990257 0.21407299 -0.17648631 0.20947553 -0.3481204
-0.10597246 -0.0809678 -0.097242326 -0.062047824 -0.2458391 -0.009179866 -0.05819927 -0.036428764
0.40238217 0.55705017 0.18654612 0.42816114 -0.20779878 0.28215855 -0.32435298 -0.005183962
0.045897197 0.059559796 0.024810452 -0.2805239 -0.3709136 -0.28221706 -0.173548 0.31480402
-0.040170986 0.3657187 -0.10940247 -0.22880648 -0.1868723 -0.19092539 -0.48823494 -0.26689434
-0.08436378 -0.31549615 0.24165718 -0.05152164 -0.36247012 -0.25365633 -0.19720043 -0.28713292
-0.06411669 0.09191105 -0.20697168 -0.41277015 0.07569455 0.11988457 0.11888987 0.3950319
-0.054097205 -0.23091994 -0.014609443 -0.20883957 0.054628395 0.13612387 -0.22396299 -0.11003315
-0.42826796 -0.022380278 -0.44695875 -0.33690697 0.1640148 -0.10087049 -0.31278315 -0.36577508
-0.13857429 -0.038276833 -0.14528382 -0.054239552 0.14423585 -0.7061528 -0.29182214 -0.58764315
-0.20746498 0.06430504 -0.06682199 -0.26064432 0.18304716 0.05606951 0.22171715 -0.28269124
0.06477159 -0.23375599 -0.21976231 -0.28534448 0.27919957 0.41928828 0.059429117 -0.22250058
0.21287432 -0.26820365 -0.16650489 -0.3251734 -0.3182507 -0.4691403 0.17826346 -0.24430278
0.06003228 -0.17115945 0.15024558 0.05560456 0.06691027 0.12576996 -0.42499283 -0.18880923
0.03549533 0.30181575 -0.23345253 0.28711313 -0.21803778 -0.09944324 -0.091425836 0.09406705
-0.10694188 0.10308992 0.11694237 0.9150794 -0.33351582 -0.19062258 -0.094291806 -0.42941248
0.12531438 0.079528295 -0.027990509 -0.14498654 -0.05587313 -0.014122362 0.00091926067 0.014769806
00000000: 0466 3dbd 37aa 4cbe d1ed fcbd 9a8f 61be
00000010: eac8 aa3c e0d8 51bd 2888 d93c 8330 adbd
00000020: 3c74 303e 779f 613c 1d05 573e d9e4 5fbe
00000030: bcbd 4cbe 27ac 073d da37 76be 6bbf 01be
00000040: 0c52 dcbe d9ce 0abf 3a91 26be 560f aabe
00000050: b34e b4be f95f 013d 25af 12be ee94 2abe
00000060: d7f7 23be 6875 a93c dfcd 853d a357 4d3d
00000070: 3f54 86be 3f89 77be 67ce 45be 5b3b a8bc
00000080: 7787 80bd 2aa5 d9be 7926 59bd 41b5 8ebd
00000090: 9432 2a3e 30ca d9bc 6188 953e 0a11 88bd
000000a0: 78cb 2dbe 37b4 a7be f18e 1c3d ec5e fe3d
000000b0: 0705 e4be dd27 3dbd 0664 8f3c d7c7 893e
000000c0: 811b 6abe 1da4 45bf fc0a 8fbd 12fb 0abe
000000d0: 55ac 84be 6f96 5bbd 2bb0 5cbe 4cd6 f53c
000000e0: 91c6 f0bc 537f 4cbe 8800 c7be e4f0 583e
000000f0: af69 94be 518c e33d 9650 673d 3905 9cbc
00000100: d8fe 873e 37d8 463e 99a9 f6be 6132 abbe
00000110: e48e 49bb 1618 583c 8d10 6f3c e66f 6b3d
00000120: 0ed1 103d 558e 863e ade1 aebe 8805 3abe
00000130: 906e 013e f1d8 13be 09e4 8a3d 9a8e 533e
00000140: 87b1 ed3d 461e 0abc 2e98 e93d 269e 0a3d
00000150: 47f7 10bd 1888 9fbd fe67 5ebd 621f fc3d
00000160: c580 abbe 2b07 363d 39af 13bc 8d1c a93e
00000170: 2408 cabe fd1e 97be 620e b63d bb44 48bb
00000180: 597e 95bd 2101 03bd 6d9f 9bbd 4fe7 a9bd
00000190: 4690 23be 0e75 6bbe e5d4 a13e 2fda 233e
000001a0: 0122 1bbc 9969 83bd 335f 5b3e b862 febe
000001b0: 28f0 f33e 6e73 2cbd 5a87 733e d57b 133e
000001c0: 9ffe 213e 48bf 073c b72f 223f 6e7a 79bd
000001d0: 2e98 3d3e 8f34 8d3e 3d96 aa3e 752f 9d3e
000001e0: 67ab 00bd 3c72 9d3c 1ad2 10bc 65cd 4bbe
000001f0: f335 5b3e d4b8 34be c180 563e d63c b2be
00000200: 1708 d9bd 72d2 a5bd fc26 c7bd dc25 7ebd
00000210: 3fbd 7bbe 2667 16bc 5c62 6ebd 5436 15bd
00000220: 0905 ce3e d79a 0e3f f205 3f3e f037 db3e
00000230: 34c9 54be 1677 903e 9811 a6be 3ade a9bb
00000240: b3fe 3b3d f9f4 733d 4a3f cb3c d4a0 8fbe
00000250: 63e8 bdbe c17e 90be 91b6 31be fe2d a13e
00000260: 558a 24bd 7b3f bb3e 670e e0bd 3f4c 6abe
00000270: 745b 3fbe f281 43be eef9 f9be 60a6 88be
00000280: ebc6 acbd b688 a1be fb74 773e 5b08 53bd
00000290: af95 b9be 3edf 81be e9ee 49be 1603 93be
000002a0: 9c4f 83bd dc3b bc3d 62f0 53be 9c56 d3be
000002b0: bf05 9b3d 0b86 f53d 887c f33d 9f41 ca3e
000002c0: 0895 5dbd 4776 6cbe 725c 6fbc 0ada 55be
000002d0: 06c2 5f3d 0e64 0b3e 8e56 65be 0f59 e1bd
000002e0: f045 dbbe d856 b7bc c7d7 e4be 127f acbe
000002f0: 7ff3 273e 3095 cebd 1d25 a0be df46 bbbe
00000300: 6be6 0dbe 2bc8 1cbd 48c5 14be 4b2a 5ebd
00000310: 90b2 133e 6ec6 34bf b669 95be c86f 16bf
00000320: b371 54be 5cb2 833d f8d9 88bd 2c73 85be
00000330: b770 3b3e 24a9 653d d209 633e e8bc 90be
00000340: f8a6 843d bb5d 6fbe 5f09 61be ac18 92be
00000350: 3ff3 8e3e f4ac d63e f26b 733d 31d7 63be
00000360: bafb 593e fd51 89be 4280 2abe 217d a6be
00000370: c1f1 a2be 2833 f0be b28a 363e 822a 7abe
00000380: 68e4 753d 6c44 2fbe fad9 193e 9bc1 633d
00000390: 4008 893d d7c9 003e a998 d9be 3557 41be
000003a0: 8d63 113d 9887 9a3e 2e0e 6fbe 7e00 933e
000003b0: 4c45 5fbe e6a8 cbbd 783d bbbd 3aa6 c03d
000003c0: 5804 dbbd cf20 d33d 7b7f ef3d a542 6a3f
000003d0: 96c2 aabe 9132 43be 101c c1bd f4db dbbe
000003e0: 6a52 003e bbdf a23d 5a4c e5bc 5a77 14be
000003f0: 39db 64bd 7b61 67bc 8afa 703a 0efd 713c

conv5.bias f4 [128]
0.23027277 0.026262779 0.20934486 0.18595058 -0.112127505 0.0961223 0.20611681 0.07978138
0.21177848 -0.3020022 0.1302011 0.038483165 -0.26308626 -0.2069341 -0.119714275 0.057275523
-0.2615371 0.17262635 0.11481535 -0.10792633 0.11388389 0.031333476 0.0003697012 0.024369324
0.4156812 0.19191666 0.105684556 -0.46457082 -0.13222589 -0.16220286 -0.010028862 -0.010070005
-0.006020605 -0.2316435 0.16358519 0.20350708 0.053053036 0.10233235 -0.044445444 -0.0200877
0.04396882 0.04025235 0.0613857 0.08588918 0.002694159 0.14918244 -0.045243625 0.21018489
0.133967 0.11637118 -0.12685935 -0.2734932 -0.40752947 -0.2572394 0.06379053 0.18976603
0.043490667 0.19699948 -0.16397776 0.06418556 -0.0425372 0.23054746 0.1747932 0.1990433
-0.14773695 0.250839 -0.08451623 0.23761916 -0.063424714 0.021807982 -0.010478396 -0.026452104
0.055624563 -0.1670426 -0.117843606 -0.1912124 0.022109529 -0.27975446 -0.18948098 0.048513424
0.13977133 -0.053920344 0.00771418 -0.079945 -0.011541898 -0.012497827 -0.07130296 0.103551246
-0.361391 0.26768225 0.1295961 -0.00046921868 -0.13599378 -0.067131154 -0.11711025 0.0016440983
0.26657352 0.06782787 -0.14169906 0.3088973 -0.13178356 -0.15527017 0.12710789 -0.03372684
-0.12001443 -0.0697734 0.19582635 -0.17004624 0.13976367 0.18469162 0.2502327 -0.08684837
0.19512929 0.02745551 0.05156324 -0.02177826 -0.19738808 0.058870986 -0.45720172 0.18437204
0.2368983 0.029700797 0.010838232 0.016849775 0.11868413 -0.083899185 -0.17138082 -0.20043461
00000000: a0cc 6b3e 0a25 d73c 805e 563e d469 3e3e
00000010: 1ba3 e5bd c5db c43d 4910 533e 6c64 a33d
00000020: 75dc 583e 08a0 9abe 7053 053e 86a0 1d3d
00000030: 3eb3 86be 88e6 53be c22c f5bd bd99 6a3d
00000040: 31e8 85be f6c4 303e 4f24 eb3d 7b08 ddbd
00000050: f53b e93d 8857 003d 75d4 c139 2da2 c73c
00000060: 2bd4 d43e cd85 443e 2571 d83d 3adc edbe
00000070: 3966 07be 8218 26be 1950 24bc aafc 24bc
00000080: 7f48 c5bb f433 6dbe e082 273e 2964 503e
00000090: 244e 593d a093 d13d 6d0c 36bd f68e a4bc
000000a0: a618 343d a6df 243d 926f 7b3d abe6 af3d
000000b0: 7d90 303b 48c3 183e 6151 39bd b53a 573e
000000c0: a52e 093e 0354 ee3d 6be7 01be 4d07 8cbe
000000d0: b4a7 d0be e2b4 83be 9ca4 823d 0752 423e
000000e0: 4523 323d 3bba 493e c9e9 27be b873 833d
000000f0: 7d3b 2ebd a214 6c3e fdfc 323e 02d2 4b3e
00000100: 5b48 17be f86d 803e d816 adbd 7052 733e
00000110: d1e4 81bd a7a6 b23c 94ad 2bbc 15b2 d8bc
00000120: 95d6 633d 370d 2bbe fd57 f1bd 2fcd 43be
00000130: 0b1f b53c fa3b 8fbe 4d07 42be 03b6 463d
00000140: 3720 0f3e 94db 5cbd 3bc7 fc3b 34ba a3bd
00000150: 3b1a 3dbc b0c3 4cbc 4907 92bd ad12 d43d
00000160: 3e08 b9be a60d 893e d7b4 043e 7701 f6b9
00000170: f441 0bbe 0f7c 89bd 80d7 efbd c97e d73a
00000180: 537c 883e 57e9 8a3d 8f19 11be c927 9e3e
00000190: 45f2 06be 25ff 1ebe 9228 023e 2825 0abd
000001a0: 20ca f5bd 5be5 8ebd b486 483e 9a20 2ebe
000001b0: 351e 0f3e cd1f 3d3e 801e 803e 8fdd b1bd
000001c0: f9cf 473e 61ea e03c fa33 533d 5268 b2bc
000001d0: 1a20 4abe b422 713d 5816 eabe 06cc 3c3e
000001e0: 7895 723e 164f f33c d792 313c 8a08 8a3c
000001f0: aa10 f33d 56d3 abbd 747e 2fbe bb3e 4dbe

conv6.weight f4 [64, 128, 2, 2]
-0.051519997 -0.052734874 -0.5962472 -0.4995256 -0.20575368 -0.26059103 -0.3595558 -0.2949618
-0.118398145 -0.40734714 -0.23081835 0.18288638 0.22985989 -0.030046377 -0.009407681 -0.11332513
-0.10609645 0.06525392 0.1409449 0.24139106 0.0692195 0.12990145 0.382081 0.31405148
-0.059146635 0.14757006 0.07899178 -0.40799668 0.23200299 -0.007024382 -0.1890847 0.07467204
-0.19336782 -0.11952389 -0.070176035 -0.06384309 -0.37364945 -0.24334292 -0.011223834 -0.15737648
0.07177623 -0.015027418 0.13111027 0.05705706 -0.0025767859 -0.19254859 -0.29335096 -0.36975577
-0.1931337 -0.45266113 0.16688867 -0.0013607764 -0.23760286 0.08813827 0.09868036 -0.16176195
-0.27075917 -0.37867188 0.19177489 -0.09250426 -0.025030248 0.06749539 -0.0030341465 -0.10383133
-0.021044197 0.06543441 0.008946865 0.107105955 0.03682747 0.0519883 0.4503734 0.42130864
0.05103198 0.0727177 0.19913423 0.21487634 -0.02050702 0.017779244 -0.02513591 0.02547871
0.0995016 0.014245398 0.04155563 -0.37111297 -0.08778363 0.22647636 0.21917991 0.26328614
0.08263114 -0.41917703 -0.2094522 -0.6097887 -0.2469944 -0.19330342 -0.6355409 -0.7667754
-0.07310955 -0.44201636 -0.63325804 -0.40261906 -0.0074550295 -0.43396303 -0.37187475 -0.8513769
-0.19965854 -0.36146885 0.05913727 -0.108994365 0.033463933 -0.14515164 0.06672016 0.27430916
-0.11675217 -0.06740241 0.08769594 -0.0652627 -0.02345432 -0.022922322 -0.06308745 -0.029640587
-0.12454142 0.24274133 0.047875702 -0.26425272 -0.19648647 -0.054209664 -0.022060536 -0.02605254
0.263409 0.13831948 -0.104738034 0.23292638 0.024633935 -0.04986554 -0.07833309 -0.06758804
0.2962396 0.056540307 -0.20698781 -0.013441936 -0.120287426 -0.11741958 0.020757085 0.0494679
0.24103463 0.3010433 0.06790609 0.40300715 0.13121365 0.3442525 0.21416916 0.087895885
0.041834183 -0.31054226 0.10142181 -0.52931947 -0.17614673 -0.18234108 -0.045350112 0.26231214
0.11466117 -0.37105834 0.026834594 0.01903863 0.12937835 -0.10216782 0.0498172 0.103817485
0.18984385 -0.20549667 -0.20991723 -0.5191962 -0.3118478 0.062267628 0.3384845 0.20680498
0.15335888 0.031703845 0.22338273 0.19866237 -0.33989283 -0.35504696 -0.25257954 0.21117514
0.20196341 -0.08461983 0.28332546 0.13748203 -0.19593157 -0.010916647 -0.14699996 -0.13991217
-0.18090382 -0.59553367 -0.075295 -0.27799204 -0.14323355 0.23083346 0.29632416 -0.346701
-0.23375462 -0.110057764 0.062175702 -0.15759414 0.26812038 0.0021750855 0.13239813 0.2541137
0.33041796 0.040551584 0.13489173 -0.07093288 0.24753281 0.22818269 0.041471314 0.08195105
-0.026090333 0.22912803 0.37797168 0.16927321 -0.16359563 -0.2339949 -0.058963954 -0.06665292
-0.060242202 -0.057383794 0.32526785 0.10418239 0.011383609 -0.0068933903 0.2539323 0.0012813308
0.002674735 -0.017149465 -0.021013504 0.03214601 0.15408917 0.17226447 -0.23552844 -0.23310713
0.08476161 0.0076845516 -0.18367964 0.26197708 0.3241229 0.17002523 -0.10631771 0.031213231
-0.012318424 0.16922918 -0.14932375 0.1117539 0.22018863 0.10464808 -0.250032 -0.10618521
00000000: a206 53bd 8600 58bd a8a3 18bf d2c1 ffbe
00000010: 18b1 52be 306c 85be b317 b8be 3c05 97be
00000020: ba7a f2bd ce8f d0be a55b 6cbe 9146 3b3e
00000030: 6460 6b3e d223 f6bc ad22 1abc 0117 e8bd
00000040: 1849 d9bd d9a3 853d dc53 103e 382f 773e
00000050: f4c2 8d3d e304 053e 1fa0 c33e 5bcb a03e
00000060: be43 72bd 9b1c 173e 71c6 a13d f1e4 d0be
00000070: 3192 6d3e c92c e6bb 6b9f 41be a8ed 983d
00000080: 3702 46be f1c8 f4bd 74b8 8fbd 2ac0 82bd
00000090: fb4e bfbe e32e 79be 2ce4 37bc 4d27 21be
000000a0: 6bff 923d 8f35 76bc c541 063e aab4 693d
000000b0: 4bdf 28bb 752b 45be 1932 96be a150 bdbe
000000c0: d7c4 45be 33c3 e7be dde4 2a3e 145c b2ba
000000d0: 2a4e 73be d681 b43d ee18 ca3d eda4 25be
000000e0: f2a0 8abe 48e1 c1be a360 443e e072 bdbd
000000f0: 3c0c cdbc 063b 8a3d 88d8 46bb 85a5 d4bd
00000100: e164 acbc 7a02 863d df95 123c 5e5a db3d
00000110: 67d8 163d aff1 543d 5897 e63e c4b5 d73e
00000120: e906 513d 04ed 943d d8e9 4b3e 8b08 5c3e
00000130: 57fe a7bc c7a5 913c d3e9 cdbc bab8 d03c
00000140: 7fc7 cb3d 8865 693c 3c36 2a3d 8502 bebe
00000150: e7c7 b3bd 6be9 673e b370 603e 71cd 863e
00000160: 843a a93d 5f9e d6be a37a 56be 1d1b 1cbf
00000170: 1aec 7cbe 55f1 45be cfb2 22bf 654b 44bf
00000180: 76ba 95bd f84f e2be 331d 22bf 1624 cebe
00000190: 5249 f4bb 6730 debe 5e66 bebe d6f3 59bf
000001a0: 4a73 4cbe 7212 b9be ec39 723d 7038 dfbd
000001b0: 7a11 093d a2a2 14be 94a4 883d 4072 8c3e
000001c0: c31b efbd 460a 8abd ee99 b33d 73a8 85bd
000001d0: 4623 c0bc 98c7 bbbc fe33 81bd d1d0 f2bc
000001e0: 920f ffbd 2f91 783e 5019 443d 224c 87be
000001f0: c033 49be f40a 5ebd 4cb8 b4bc 236c d5bc
00000200: 8bdd 863e 9fa3 0d3e e580 d6bd 4184 6e3e
00000210: 1bcd c93c cf3f 4cbd 196d a0bd 996b 8abd
00000220: b8ac 973e cf96 673d 9df4 53be 913b 5cbc
00000230: 4159 f6bd ad79 f0bd c30a aa3c da9e 4a3d
00000240: c8d1 763e 5922 9a3e 5912 8b3d f456 ce3e
00000250: df5c 063e dd41 b03e 294f 5b3e c202 b43d
00000260: 525a 2b3d 65ff 9ebe 3db6 cf3d 7b81 07bf
00000270: cf5f 34be 9fb7 3abe 0ac1 39bd c74d 863e
00000280: 7ad3 ea3d 5cfb bdbe 39d4 db3c e7f6 9b3c
00000290: c27b 043e 5d3d d1bd 1f0d 4c3d 439e d43d
000002a0: 6d66 423e b86d 52be 8bf4 56be 0bea 04bf
000002b0: 84aa 9fbe 570c 7f3d d74d ad3e afc4 533e
000002c0: 1c0a 1d3e e4db 013d 71be 643e 266e 4b3e
000002d0: 6f06 aebe b7c8 b5be 1b52 81be 4c3e 583e
000002e0: 7fcf 4e3e 294d adbd 0910 913e 17c8 0c3e
000002f0: 49a2 48be bcdb 32bc 2887 16be 2345 0fbe
00000300: da3e 39be e574 18bf 4434 9abd f954 8ebe
00000310: d1ab 12be 9b5f 6c3e cdb7 973e cb82 b1be
00000320: 5f5d 6fbe f765 e1bd f3ab 7e3d 5c60 21be
00000330: 1347 893e e18b 0e3b 6093 073e 311b 823e
00000340: 8b2c a93e 6b19 263d 0f21 0a3e 4245 91bd
00000350: 3e79 7d3e b9a8 693e d3dd 293d f4d5 a73d
00000360: 65bb d5bc 8aa0 6a3e 8185 c13e f555 2d3e
00000370: 9d85 27be 5c9c 6fbe 3084 71bd 5381 88bd
00000380: 87c0 76bd 450b 6bbd 8289 a63e 945d d53d
00000390: 5182 3a3c f3e1 e1bb 6a03 823e 54f2 a73a
000003a0: 9b4a 2f3b 097d 8cbc 8324 acbc 89ab 033d
000003b0: 8dc9 1d3e 1966 303e 5e2e 71be a3b3 6ebe
000003c0: 7f97 ad3d b1ce fb3b 8416 3cbe dc21 863e
000003d0: 70f3 a53e 181b 2e3e 19bd d9bd e4b2 ff3c
000003e0: 37d3 49bc 6a4a 2d3e 53e8 18be 3bdf e43d
000003f0: 2179 613e bc51 d63d 3204 80be a277 d9bd

conv6.bias f4 [64]
0.13386157 -0.0677573 -0.113539666 0.1998326 -0.112109154 0.29486156 0.11463322 0.07520588
0.12332115 0.0790393 0.1280856 0.29947358 0.12049253 -0.29175094 0.0837723 -0.28331614
0.39304593 -0.10464604 -0.19988889 0.052819554 -0.14330254 0.04237206 -0.06631779 -0.11232531
-0.1302985 0.08988361 -0.3113543 0.06971553 -0.18670328 -0.094861075 -0.29348126 0.060766343
-0.14927272 -0.46877378 -0.33251545 0.13637172 -0.13989559 -0.14922898 -0.11046679 -0.04554008
-0.11708413 -0.057408966 -0.23711242 -0.1443944 -0.1364493 0.13531199 0.006323412 0.24453571
-0.18441755 0.023446927 0.18536298 0.113996856 -0.22736101 -0.40200794 -0.2667105 0.17240828
0.08676178 0.20140071 0.31861073 -0.08708263 -0.3659287 -0.16205397 0.32643193 -0.09030434
00000000: 0213 093e 57c4 8abd 7c87 e8bd eba0 4c3e
00000010: 7c99 e5bd 18f8 963e d2c4 ea3d 8a05 9a3d
00000020: cd8f fc3d 5bdf a13d df28 033e 9a54 993e
00000030: cac4 f63d 6160 95be d090 ab3d d00e 91be
00000040: 513d c93e aa50 d6bd acaf 4cbe 5159 583d
00000050: e7bd 12be 538e 2d3d 9fd1 87bd d00a e6bd
00000060: f86c 05be e614 b83d d569 9fbe 04c7 8e3d
00000070: 252f 3fbe 8646 c2bd 2d43 96be 21e6 783d
00000080: f3da 18be 1e03 f0be 773f aabe 07a5 0b3e
00000090: ca40 0fbe 7bcf 18be 6a3c e2bd 3c88 3abd
000000a0: cec9 efbd aa25 6bbd 99cd 72be 20dc 13be
000000b0: 5eb9 0bbe 3a8f 0a3e a034 cf3b 9267 7a3e
000000c0: f4d7 3cbe c513 c03c cbcf 3d3e 2f77 e93d
000000d0: 53d1 68be fcd3 cdbe 478e 88be cc8b 303e
000000e0: 29b0 b13d fd3b 4e3e f220 a33e 6158 b2bd
000000f0: 025b bbbe 7af1 25be 1622 a73e 7bf1 b8bd
