model/model_94.pth (torch_old, 571877 bytes, 24 tensors)

conv1.weight f4 [32, 3, 2, 2]
-0.053314276 -0.15831302 -0.08726827 0.35324547 -0.63728696 0.11708372 -0.08368629 0.4573584
-0.3347556 -0.06299605 -0.0056838463 0.28183278 0.1188842 -0.15154871 0.044084176 0.00012679049
0.14750868 0.09695117 0.38589588 0.19929032 -0.25008592 -0.2473233 -0.15777831 -0.24589399
-0.16065435 -0.076387614 0.1584091 0.16344936 -0.30555388 0.20708035 0.117798746 0.40667737
0.16039306 -0.20908232 -0.3068852 -0.03466597 0.47240615 -1.9121697e-05 -0.062422168 -0.42690098
0.5490079 -0.1567972 0.17866874 -0.27850994 0.10503263 0.07384277 -0.23435986 -0.2985339
-0.16018298 -0.16022441 -0.33747905 -0.17635682 0.20004232 -0.1686712 0.34568578 0.24841751
-0.025135417 -0.3640292 0.24314003 0.11260585 -0.111220084 0.14057127 0.22527893 0.15806182
-0.20966195 -0.16641268 -0.018285677 -0.08396134 -0.30181766 -0.3242152 0.09658533 -0.2121969
0.12222715 -0.065384 -0.022530185 -0.09756491 0.115822695 0.050536834 -0.32951665 0.063161395
-0.14873926 -0.2561909 0.08587997 -0.04584123 0.29061437 0.09306608 -0.5697052 0.045000628
0.10028019 0.48742577 -0.16822144 -0.2731403 0.24678545 0.36001983 -0.37629306 -0.20258334
0.052614458 -0.22925682 0.19923152 -0.007599522 0.14879894 -0.43258604 0.46684587 0.11015395
-0.3153439 -0.47548437 0.47509053 0.018337898 0.24192429 0.092639655 -0.017976616 0.119893916
0.37311518 -0.14167175 -0.1657592 0.046161294 0.24505565 0.17451677 -0.5189082 -0.5124705
-0.10757077 0.052114107 0.22367916 -0.33350614 0.22909169 -0.110129505 -0.4232687 -0.22935103
0.33770674 0.3803331 -0.14819036 0.056136873 0.36787683 0.24656865 0.21443617 0.19623183
0.05681328 -0.07618868 -0.37253714 -0.4581899 -0.13370763 -0.05715911 -0.2998974 -0.0023610068
0.02374626 0.046063844 -0.08784278 0.1033303 0.1280795 0.37537524 -0.22876363 0.4158074
-0.1689688 0.052671686 -0.49815974 -0.18665665 -0.15879215 -0.09757521 0.34475014 0.034717772
-0.17500767 0.21279936 0.14883223 0.28037134 -0.2724799 0.053962987 -0.23016629 -0.10027517
-0.53353566 -0.33053818 -0.22689031 0.13743718 -0.08567761 0.048583347 0.29132095 0.46525392
0.06905917 -0.08317805 -0.16437498 0.38550907 0.06021307 0.015052124 -0.12721513 -0.054540157
-0.17804183 0.16459042 -0.1811678 -0.28803515 0.18952161 -0.13487305 0.3488929 -0.050187226
-0.06641213 -0.09489848 0.26950935 -0.35615355 0.20350443 0.013495808 0.36202946 -0.40735027
0.10973353 -0.3863603 0.26496074 -0.3220765 -0.04767209 0.13818103 -0.3333421 0.0741627
-0.18386352 0.28433353 -0.23719953 0.25890997 -0.5012397 0.2089211 0.008018141 0.3108676
0.26907745 -0.10135056 -0.096158944 0.321011 -0.43974966 0.20483035 -0.4912771 -0.30619037
0.21642333 -0.0047338787 -0.10596204 0.33757764 0.2209928 0.35975626 -0.17870726 -0.30820614
0.31829125 0.12585254 -0.2572243 -0.007039444 -0.3046409 0.16507548 0.13529839 -0.34935516
-0.23562573 0.00056389667 0.22431381 0.092795916 -0.35329413 -0.12849997 -0.40291822 -0.3043351
-0.16949245 0.2982729 0.36826622 0.04717342 -0.06695254 0.044344794 0.027611852 -0.1541212
00000000: 1260 5abd cf1c 22be b5b9 b2bd 97dc b43e
00000010: 3d25 23bf 97c9 ef3d b863 abbd e12a ea3e
00000020: 1665 abbe 1304 81bd 8f3f babb 634c 903e
00000030: 8f79 f33d 962f 1bbe 9c91 343d 10f3 0439
00000040: 840c 173e 568e c63d 2594 c53e c312 4c3e
00000050: 430b 80be 5242 7dbe a390 21be a2cb 7bbe
00000060: 9382 24be 1c71 9cbd ff35 223e 455f 273e
00000070: 8f71 9cbe df0c 543e 7840 f13d 0438 d03e
00000080: 143e 243e ad19 56be 0f20 9dbe e7fd 0dbd
00000090: 38df f13e 8867 a0b7 63ae 7fbd c492 dabe
000000a0: c88b 0c3f 728f 20be f0f4 363e db98 8ebe
000000b0: 591b d73d e13a 973d 08fc 6fbe 6fd9 98be
000000c0: 0207 24be de11 24be 0eca acbe e296 34be
000000d0: e5d7 4c3e 25b8 2cbe bafd b03e 2961 7e3e
000000e0: cae8 cdbc 0962 babe b3f9 783e e59d e63d
000000f0: 5bc7 e3bd eaf1 0f3e 85af 663e f5da 213e
00000100: 9fb1 56be 1668 2abe d8cb 95bc ecf3 abbd
00000110: d887 9abe 89ff a5be 88ce c53d 254a 59be
00000120: 3a52 fa3d 0ce8 85bd 3991 b8bc 1dd0 c7bd
00000130: 7334 ed3d b6ff 4e3d 68b6 a8be c35a 813d
00000140: 1b4f 18be 742b 83be d6e1 af3d 03c4 3bbd
00000150: 68cb 943e 6e99 be3d 33d8 11bf 9452 383d
00000160: b35f cd3d df8f f93e 3e42 2cbe 0cd9 8bbe
00000170: 53b5 7c3e 8554 b83e 7ca9 c0be 0272 4fbe
00000180: 4282 573d 4dc2 6abe 5903 4c3e 6905 f9bb
00000190: c05e 183e eb7b ddbe 6c06 ef3e 6598 e13d
000001a0: c174 a1be b072 f3be 113f f33e 5c39 963c
000001b0: 00bb 773e dcb9 bd3d b243 93bc f18a f53d
000001c0: f408 bf3e 6612 11be c8bc 29be a013 3d3d
000001d0: deef 7a3e 86b4 323e 2bd7 04bf 4431 03bf
000001e0: 104e dcbd 9a75 553d 260c 653e 51c1 aabe
000001f0: 0397 6a3e 948b e1bd adb6 d8be ffda 6abe
00000200: e6e7 ac3e 05bb c23e 37bf 17be c7ef 653d
00000210: 5a5a bc3e 7e7c 7c3e 2895 5b3e fff0 483e
00000220: 0bb5 683d d008 9cbd 30bd bebe de97 eabe
00000230: a7ea 08be ac1f 6abd 278c 99be 1fbb 1abb
00000240: 8487 c23c 71ad 3c3d eae6 b3bd d69e d33d
00000250: 4627 033e 2f31 c03e 0341 6abe b5e4 d43e
00000260: 2806 2dbe 44be 573d cb0e ffbe ec22 3fbe
00000270: 699a 22be 83d5 c7bd 1783 b03e 3934 0e3d
00000280: 3635 33be 13e8 593e 7a67 183e d58c 8f3e
00000290: 7c82 8bbe 4b08 5d3d b6b0 6bbe 115d cdbd
000002a0: cb95 08bf 4d3c a9be ef55 68be 55bc 0c3e
000002b0: be77 afbd 55ff 463d 0528 953e c335 ee3e
000002c0: e56e 8d3d 4159 aabd ea51 28be 7261 c53e
000002d0: fba1 763d 2f9d 763c af44 02be 8065 5fbd
000002e0: 9950 36be 648a 283e 0d84 39be 5879 93be
000002f0: f411 423e 291c 0abe 17a2 b23e 1f91 4dbd
00000300: 1503 88bd 225a c2bd 21fd 893e c259 b6be
00000310: 7763 503e 851d 5d3c ed5b b93e 3790 d0be
00000320: f9bb e03d 04d1 c5be efa8 873e 36e7 a4be
00000330: cf43 43bd 547f 0d3e d1ab aabe 9de2 973d
00000340: b846 3cbe 2a94 913e 6fe4 72be d98f 843e
00000350: 3f51 00bf 6aef 553e 855e 033c 0a2a 9f3e
00000360: 85c4 893e e290 cfbd fbee c4bd 8e5b a43e
00000370: de26 e1be 0cbf 513e ac88 fbbe fcc4 9cbe
00000380: 149e 5d3e a71e 9bbb a002 d9bd fad6 ac3e
00000390: f04b 623e f931 b83e 09ff 36be 32cd 9dbe
000003a0: 12f7 a23e 7ddf 003e e7b2 83be 23ab e6bb
000003b0: e4f9 9bbe 8c09 293e a98b 0a3e aede b2be
000003c0: df47 71be 77d2 133a 85b2 653e c90b be3d
000003d0: f8e2 b4be 7f95 03be 4c4b cebe cfd1 9bbe
000003e0: 6e8f 2dbe 3ab7 983e 648d bc3e eb38 413d
000003f0: 6a1e 89bd e3a2 353d 4032 e23c f3d1 1dbe

conv1.bias f4 [32]
-0.5315409 -0.28963858 -0.5835182 0.012610142 -0.5146097 -0.6919129 -0.50686574 0.1526174
0.1307301 -0.51450014 -0.28210378 -0.093637094 0.049270745 -0.5785577 0.017230507 -0.52319914
-0.35218528 0.033382583 -0.13216658 -0.48570785 -0.55644894 -0.8100198 0.08011474 -0.57295173
-0.037520595 -0.21346204 -0.3882804 -0.4827486 0.1230984 -0.3989461 -0.7272357 -0.32834235
00000000: 1013 08bf 824b 94be 7361 15bf c59a 4e3c
00000010: 76bd 03bf 3421 31bf f4c1 01bf bc47 1c3e
00000020: 1dde 053e 48b6 03bf e86f 90be cec4 bfbd
00000030: 1fd0 493d 5c1c 14bf fe26 8d3c 61f0 05bf
00000040: a151 b4be 2dbc 083d ad56 07be b3ae f8be
00000050: 7073 0ebf 755d 4fbf 3213 a43d f7ac 12bf
00000060: 32af 19bd cb95 5abe b0cc c6be d32a f7be
00000070: 041b fc3d aa42 ccbe 1e2c 3abf 7d1c a8be

conv2.weight f4 [32, 32, 2, 2]
-0.2764088 0.09664727 -0.084167145 0.07541096 -0.080516346 0.11514276 -0.05298293 0.092124596
0.13163432 0.11263351 0.015317505 -0.10474602 -0.101117186 0.03590516 -0.38500917 -0.196391
-0.111014225 0.07404281 0.00023066497 -0.023019837 0.15457359 0.23113164 -0.19794446 -0.007820274
-0.0132438885 0.22084208 -0.009759239 0.059067916 -0.1074533 -0.42695692 -0.31714585 -0.5809139
-0.055247355 -0.07618992 0.20005772 0.1803288 0.24435873 0.053516522 -0.06974109 -0.22549026
-0.06605265 -0.12435285 0.045532636 -0.17950687 -0.09535624 -0.18853326 0.047880076 -0.04814016
-0.015467461 0.07175205 -0.026552638 -0.12419483 0.10528551 0.088447385 -0.21365446 -0.097136244
-0.027678577 -0.00421184 0.10577647 0.07500898 -0.12044134 0.19491218 -0.06067624 -0.2101823
0.06792593 -0.0063085635 -0.06949543 0.0420674 -0.105329186 -0.13003843 0.015561206 0.22144283
-0.06291518 -0.10055711 0.03513546 -0.30615595 -0.15837517 -0.4225341 -0.3231869 0.041007813
0.19524047 0.20596498 -0.28822833 -0.13514982 -0.06380689 -0.011363848 -0.3057456 -0.14349347
-0.16028953 -0.10259309 -0.2862854 -0.13479356 0.24152526 0.19206865 -0.07742315 -0.18740818
-0.20142135 -0.1205098 0.024813993 -0.23095891 0.16822276 0.1298805 -0.04684655 -0.23715372
0.06467532 0.18825011 0.023236882 -0.16655475 -0.06026134 -0.09365899 -0.15799962 -0.10173904
0.07280863 0.1580459 0.17160884 0.22627638 0.24112463 0.110907085 -0.04778349 -0.07455825
0.043093625 0.036307715 -0.055403378 0.11850097 0.053549297 -0.13666423 0.025021473 -0.011971407
-0.07931843 -0.30009463 -0.30253008 -0.16992906 -0.73297393 -0.52748215 -0.5809753 -0.55425566
-0.115505464 -0.25512972 -0.31164485 -0.11739434 -0.32246333 -0.22784589 -0.3552879 -0.30747107
-0.071612924 -0.17230223 -0.10881756 -0.2111802 0.06131116 0.116969585 0.015251502 0.14175612
-0.25615034 -0.17905799 -0.21632585 -0.11883766 -0.35802475 -0.04101493 -0.25945437 -0.26266098
-0.6037925 -0.5003484 -0.49388427 -0.59339106 -0.25563154 -0.43339363 -0.6509477 -0.41807836
-0.0777313 -0.09298621 -0.18147083 -0.07485321 0.11911102 0.1658066 0.093927816 0.21300152
-0.6404023 -0.6728524 -0.75947845 -0.6510753 -0.064017035 -0.18456201 -0.10051149 -0.0638849
-0.16408424 -0.30481276 -0.15474801 -0.27359998 0.069610365 -0.023333337 0.20299381 0.11315083
-0.3948009 -0.11162226 -0.27741832 -0.11535649 -0.15940152 -0.12547773 -0.19866219 -0.21971363
0.14492805 0.116008855 0.12961952 0.1092797 -0.025261832 0.13187572 -0.2751018 -0.17200576
0.3084357 0.33159772 0.18166415 0.28987727 -0.2611761 -0.12116846 -0.1347367 -0.25147635
-0.17253077 -0.10317281 -0.15469569 -0.091500215 -0.046479408 -0.15191936 -0.14254259 -0.12984096
-0.42261812 -0.24734004 -0.29052076 -0.22818734 0.19361474 0.1793225 -0.00065390335 0.1182236
0.054936234 0.10607904 0.08129398 0.13016105 -0.20893086 -0.23587431 -0.11422824 -0.19740406
-0.11908942 -0.15640418 -0.12646946 -0.12471201 0.04048277 0.16041115 0.028324196 -0.053599175
0.0032853568 -0.10774602 -0.022783112 -0.12766287 -0.20874026 -0.18884084 -0.17287292 -0.13236505
00000000: 7485 8dbe 01ef c53d d35f acbd 1071 9a3d
00000010: c1e5 a4bd f8cf eb3d a104 59bd d2ab bc3d
00000020: 26cb 063e 66ac e63d 46f6 7a3c 1585 d6bd
00000030: 8716 cfbd 4a11 133d ec1f c5be b91a 49be
00000040: 6d5b e3bd c2a3 973d a8de 7139 1994 bcbc
00000050: 8a48 1e3e c6ad 6c3e f4b1 4abe 9b20 00bc
00000060: e5fc 58bc 6d24 623e 37e5 1fbc 33f1 713d
00000070: 7a10 dcbd 199a dabe f160 a2be c6b6 14bf
00000080: 0d4b 62bd 7609 9cbd eedb 4c3e 1da8 383e
00000090: 2d39 7a3e 2434 5b3d 6bd4 8ebd ebe6 66be
000000a0: 9d46 87bd b5ac febd 6e80 3a3d a6d0 37be
000000b0: 224a c3bd dd0e 41be e61d 443d 9e2e 45bd
000000c0: 3c6b 7dbc bdf2 923d eb84 d9bc dc59 febd
000000d0: ee9f d73d e723 b53d 3cc8 5abe 5eef c6bd
000000e0: 2fbe e2bc 7a03 8abb 55a1 d83d 4f9e 993d
000000f0: f3a9 f6bd 0f97 473e a687 78bd 073a 57be
00000100: c01c 8b3d 11b8 cebb 9f53 8ebd de4e 2c3d
00000110: d4b6 d7bd cb28 05be 6ef4 7e3c e9c1 623e
00000120: add9 80bd e3f0 cdbd 33ea 0f3d 79c0 9cbe
00000130: 1a2d 22be 6456 d8be c178 a5be cff7 273d
00000140: 1eed 473e 7ce8 523e aa92 93be b764 0abe
00000150: 30ad 82bd 6f2f 3abc b08a 9cbe f4ef 12be
00000160: f022 24be 531c d2bd 0094 92be 5307 0abe
00000170: 6652 773e a5ad 443e 0790 9ebd eee7 3fbe
00000180: 6641 4ebe d8cd f6bd b746 cb3c 7e80 6cbe
00000190: 9642 2c3e 65ff 043e 2be2 3fbd 6dd8 72be
000001a0: 7f74 843d a3c4 403e 465b be3c 548d 2abe
000001b0: 98d4 76bd 49d0 bfbd a7ca 21be 8f5c d0bd
000001c0: b11c 953d c9d6 213e 3aba 2f3e ffb4 673e
000001d0: 60e9 763e 4123 e33d 9fb8 43bd ffb1 98bd
000001e0: f182 303d 66b7 143d a7ee 62bd a3b0 f23d
000001f0: 8256 5b3d b5f1 0bbe d5f9 cc3c b823 44bc
00000200: b371 a2bd 01a6 99be 39e5 9abe e201 2ebe
00000210: 2ea4 3bbf 1209 07bf ccba 14bf b3e3 0dbf
00000220: 218e ecbd 5da0 82be ea8f 9fbe 726c f0bd
00000230: ea19 a5be 6f50 69be 4ce8 b5be d96c 9dbe
00000240: cca9 92bd ff6f 30be bedb debd 9f3f 58be
00000250: 6921 7b3d c08d ef3d 70e1 793c 8428 113e
00000260: 2326 83be fa5a 37be 8684 5dbe 2961 f3bd
00000270: 054f b7be 45ff 27bd 34d7 84be 807b 86be
00000280: 2592 1abf d516 00bf 66de fcbe 7ae8 17bf
00000290: 23e2 82be c5e5 ddbe 82a4 26bf 5e0e d6be
000002a0: 9631 9fbd 8e6f bebd 7dd3 39be a44c 99bd
000002b0: 7af0 f33d 35c9 293e 3a5d c03d 121d 5a3e
000002c0: 68f1 23bf 0e40 2cbf 2e6d 42bf dfac 26bf
000002d0: 5d1b 83bd d3fd 3cbe f8d8 cdbd 16d6 82bd
000002e0: b305 28be 6b10 9cbe 4376 1ebe 4c15 8cbe
000002f0: e18f 8e3d 8e25 bfbc 9cdd 4f3e 9fbb e73d
00000300: 5823 cabe 369a e4bd c609 8ebe 0640 ecbd
00000310: 273a 23be 3c7d 00be 1a6e 4bbe 9cfc 60be
00000320: 0568 143e 0d96 ed3d fbba 043e 09ce df3d
00000330: e7f1 cebc 6e0a 073e 25da 8cbe 4722 30be
00000340: 49eb 9d3e 2dc7 a93e 2b06 3a3e cb6a 943e
00000350: e0b8 85be 2b27 f8bd 6bf8 09be 82c1 80be
00000360: e8ab 30be 444c d3bd 8c68 1ebe 7764 bbbd
00000370: 3161 3ebd c090 1bbe aff6 11be 07f5 04be
00000380: 6761 d8be b546 7dbe 23bf 94be f1a9 69be
00000390: f142 463e 51a0 373e b66a 2bba 371f f23d
000003a0: d104 613d f83f d93d 757d a63d f048 053e
000003b0: f9f1 55be 0989 71be 7ff0 e9bd 4a24 4abe
000003c0: 27e5 f3bd 6b28 20be 3681 01be 0369 ffbd
000003d0: 43d1 253d d242 243e 2508 e83c cf8a 5bbd
000003e0: 244f 573b f2a9 dcbd a6a3 babc 0eba 02be
000003f0: 02c0 55be 7e5f 41be 9905 31be b48a 07be

conv2.bias f4 [32]
0.1530553 -0.01873203 -0.12998551 -0.12715271 0.17416471 0.05638978 -0.13270101 0.13831215
-0.0983213 0.012896225 -0.16592088 0.18225355 0.10788684 -0.0042783893 -0.35557574 -0.1300429
-0.012675225 0.105355315 0.10465275 0.16374138 -0.035364747 0.04489598 0.034902588 0.09648428
-0.19347954 0.04605376 -0.444935 -0.1605783 0.18662637 0.22945379 0.19811928 -0.09824111
00000000: 87ba 1c3e ea73 99bc ec1a 05be 5234 02be
00000010: 3c58 323e f8f8 663d c6e2 07be b3a1 0d3e
00000020: ae5c c9bd b04a 533c 2ae7 29be ada0 3a3e
00000030: c7f3 dc3d bb31 8cbb 060e b6be f729 05be
00000040: bfab 4fbc 87c4 d73d 2e54 d63d d2ab 273e
00000050: a0da 10bd d9e4 373d 04f6 0e3d 8d99 c53d
00000060: 801f 46be dea2 3c3d 85ce e3be a36e 24be
00000070: fc1a 3f3e eff5 6a3e c8df 4a3e a332 c9bd

conv3.weight f4 [64, 32, 2, 2]
-0.357113 -0.061357383 0.24742012 0.4824892 -0.022686167 0.042578205 -0.4015899 -0.1538833
-0.12278578 -0.047533568 0.23679939 0.16245125 0.05482273 -0.05880074 0.014253006 0.024235232
0.04920555 0.18680605 -0.05297371 0.02825955 -0.21368878 -0.1057988 -0.08341319 0.19097044
0.054031998 -0.061341234 -0.04601518 -0.066027984 0.071843214 -0.094076954 -0.3693726 -0.09253027
0.029135795 -0.092848174 0.015095293 -0.077693954 -0.22014317 -0.3855122 0.18700558 0.20685853
-0.067096874 -0.09326401 -0.10754467 -0.24286854 0.05876864 0.11680617 -0.061433215 0.18260029
-0.11741066 -0.17207336 0.022977743 0.20411955 -0.13651721 0.04801647 -0.33196178 -0.26809084
-0.36249292 -0.5511505 -0.21534021 -0.057209507 -0.052200504 -0.017740242 -0.021938799 0.06800396
0.08011465 0.06516927 0.02460824 -0.009656771 -0.70004046 -0.5495141 -0.16427495 -0.30400178
0.3033613 0.15581736 0.032438613 0.058271885 -0.047088716 0.02028898 0.02999732 -0.004533226
-0.7292854 -0.7475473 0.02437369 0.19207087 -0.027568405 0.21058112 -0.45167536 -0.4108462
-0.21389307 -0.084931925 -0.087066926 0.052249644 -0.3617705 0.16314171 0.24671689 0.22655138
-0.010403661 -2.8019867e-06 0.057319902 -0.04704345 -0.054569334 -0.28944713 0.36713532 0.2690311
-0.89520824 -0.25457492 -0.34973797 -0.082913615 0.10570926 0.12951657 -0.02151544 0.056232505
0.298599 0.17625879 0.13062988 -0.015669974 -0.113663554 0.09283522 0.098065324 0.2631193
0.017942203 0.17065486 0.17234193 0.07361955 -0.034404498 -0.0090062795 0.09389729 -0.023285918
0.3354302 -0.012893682 0.053083394 -0.08479026 -0.013393408 -0.06923291 0.06306364 0.24222316
0.07443256 -0.2478528 -0.10437868 -0.25036514 -0.071342744 -0.08674751 0.033079863 0.05454014
0.0517698 0.20320798 0.38710114 0.2245901 -0.09414757 -0.08547833 -0.38851172 -0.35487235
-0.030363707 0.04149258 0.022432989 0.038478922 0.03818602 -0.11043214 -0.21402067 0.15740561
-0.014808231 0.008181864 -0.00725449 -0.028790891 -0.13310042 -0.26218206 -0.38954273 -0.36137265
0.009571863 0.34025496 0.13607046 0.059745625 0.2734715 0.3032109 -0.22405498 -0.17568812
0.088235684 -0.20635773 0.14893924 0.095233425 -0.0065855114 -0.14148767 0.10454338 -0.31220883
-0.4236985 -0.031666268 -0.45076555 -0.7124439 0.05282635 0.17251441 -0.10017475 -0.024605524
-0.05102672 -0.100220025 -0.1426266 -0.07189349 -0.20057133 -0.9725462 -0.44763675 -0.34069613
0.23066078 0.036644824 -0.21474746 -0.19615717 -0.14078584 0.18058634 -0.1277971 -0.17827329
-0.17110595 0.24510616 -0.44928247 -0.14357497 -0.109147035 0.12070798 -0.025794797 0.27407026
0.17430535 -0.10464972 -0.18550888 -0.23074186 0.054804858 -0.055650827 0.19676483 0.07230994
0.059029445 0.04191888 -0.13122116 -0.07249314 0.03481899 0.027477086 0.0307168 -0.17354423
0.041276604 -0.3076883 -0.1416553 -0.10488648 0.004682802 -0.1567155 0.0364224 -0.016055427
-0.11244252 -0.08405079 -0.17824578 -0.002900379 -0.94105184 -0.8507609 -0.75108707 -0.80268747
-0.021151265 0.113072366 0.42166516 -0.41861263 -0.09696654 0.023092985 -0.058717757 0.0032217659
00000000: 84d7 b6be e151 7bbd b35b 7d3e d308 f73e
00000010: 57d8 b9bc 7c66 2e3d 319d cdbe 9593 1dbe
00000020: 1c77 fbbd 8fb2 42bd 8a7b 723e 9f59 263e
00000030: cd8d 603d 0bd9 70bd 7185 693c f788 c63c
00000040: c28b 493d 164a 3f3e f6fa 58bd 9280 e73c
00000050: 3bd1 5abe 0bad d8bd 89d4 aabd c18d 433e
00000060: a850 5d3d f240 7bbd 6a7a 3cbd ae39 87bd
00000070: 8922 933d 6bab c0bd 681e bdbe 8380 bdbd
00000080: 31ae ee3c 2f27 bebd 3f52 773c 021e 9fbd
00000090: 366d 61be db61 c5be 647e 3f3e b9d2 533e
000000a0: 166a 89bd 3401 bfbd 6140 dcbd 88b2 78be
000000b0: 63b7 703d 1338 ef3d 65a1 7bbd 92fb 3a3e
000000c0: 0075 f0bd 0034 30be d23b bc3c b704 513e
000000d0: 2bcb 0bbe ebac 443d e5f6 a9be 3443 89be
000000e0: ac98 b9be 3318 0dbf 2582 5cbe 8454 6abd
000000f0: 32d0 55bd fc53 91bc ffb8 b3bc a945 8b3d
00000100: 2613 a43d 7777 853d 3897 c93c 6f37 1ebc
00000110: da35 33bf f5ac 0cbf b137 28be 1fa6 9bbe
00000120: 2c52 9b3e 968e 1f3e 5ade 043d 80ae 6e3d
00000130: 19e0 40bd 1335 a63c f1bc f53c 758b 94bb
00000140: 73b2 3abf 435f 3fbf 55ab c73c 3aae 443e
00000150: 23d7 e1bc 94a2 573e fe41 e7be 6f5a d2be
00000160: c906 5bbe caf0 adbd 2550 b2bd b903 563d
00000170: fc39 b9be 9f0e 273e 5aa3 7c3e 16fd 673e
00000180: 1e74 2abc c409 3cb6 46c8 6a3d a2b0 40bd
00000190: 1884 5fbd 6a32 94be 29f9 bb3e 72be 893e
000001a0: 5e2c 65bf a557 82be db10 b3be 9dce a9bd
000001b0: 197e d83d fe9f 043e 2641 b0bc 0e54 663d
000001c0: f8e1 983e 2f7d 343e d7c3 053e 515e 80bc
000001d0: 70c8 e8bd 6420 be3d 79d6 c83d 93b7 863e
000001e0: 87fb 923c 26c0 2e3e 677a 303e d9c5 963d
000001f0: bbeb 0cbd 138f 13bc 394d c03d 1cc2 bebc
00000200: 82bd ab3e 0640 53bc f96d 593d 84a6 adbd
00000210: 0670 5bbc fcc9 8dbd 8227 813d 5909 783e
00000220: 1970 983d 20cd 7dbe 7dc4 d5bd dc2f 80be
00000230: 251c 92bd aea8 b1bd c07e 073d 7b65 5f3d
00000240: 920c 543d c115 503e 1f32 c63e f2fa 653e
00000250: 71d0 c0bd 430f afbd 02eb c6be d4b1 b5be
00000260: 4fbd f8bc 20f4 293d 63c5 b73c 139c 1d3d
00000270: f268 1c3d 3f2a e2bd 3c28 5bbe f02e 213e
00000280: 399e 72bc 3a0d 063c 13b7 edbb e0da ebbc
00000290: 7a4b 08be ba3c 86be 2572 c7be d605 b9be
000002a0: 4ed3 1c3c e635 ae3e 0e56 0b3e d4b7 743d
000002b0: 7504 8c3e 763e 9b3e ab6e 65be 96e7 33be
000002c0: e9b4 b43d 714f 53be 8783 183e be09 c33d
000002d0: 46cb d7bb 25e2 10be d71a d63d d6d9 9fbe
000002e0: 03ef d8be 7db4 01bd beca e6be b962 36bf
000002f0: 7160 583d 9ea7 303e 6b28 cdbd 8691 c9bc
00000300: 6501 51bd 2840 cdbd b50c 12be e53c 93bd
00000310: 9262 4dbe caf8 78bf a530 e5be b96f aebe
00000320: 5732 6c3e e218 163d c2e6 5bbe 6ddd 48be
00000330: 2a2a 10be a0eb 383e 3edd 02be 468d 36be
00000340: 6636 2fbe 1cfd 7a3e 5a08 e6be 5105 13be
00000350: 7b88 dfbd bf35 f73d 9c4f d3bc f052 8c3e
00000360: 1a7d 323e 9852 d6bd 0af6 3dbe 9847 6cbe
00000370: 0f7b 603d 1ff2 63bd b87c 493e 3c17 943d
00000380: dcc8 713d 22b3 2b3d d75e 06be 4977 94bd
00000390: 5b9e 0e3d a017 e13c cca1 fb3c 94b5 31be
000003a0: a811 293d 5289 9dbe 160e 11be b9ce d6bd
000003b0: 3172 993b 077a 20be a82f 153d ac86 83bc
000003c0: 4448 e6bd d222 acbd 1086 36be 4914 3ebb
000003d0: c6e8 70bf 77cb 59bf 3e47 40bf ed7c 4dbf
000003e0: 6b45 adbc 7c92 e73d 7fe4 d73e 6554 d6be
000003f0: 6596 c6bd 802d bd3c 0882 70bd 4324 533b

conv3.bias f4 [64]
-0.07771782 -0.061328646 0.20497784 -0.30054152 -0.005749135 0.024511121 0.027621722 -0.18939534
0.16303706 0.018849412 -0.15507339 -0.21229507 -0.019834792 0.0011570468 0.027589658 0.092796
-0.057795256 -0.12060757 0.0343034 -0.010749111 0.086824946 -0.101410404 0.08997709 -0.24853028
-0.06991792 0.049930148 0.10814001 0.11968955 0.20095664 0.35820553 -0.03984796 0.25162464
-0.0420551 0.265737 0.067045525 -0.10670679 -0.051788203 0.2522573 -0.025652478 -0.00020920477
0.011560263 0.09832795 -0.07921017 0.049933616 -0.1590006 -0.1455443 -0.069069274 0.009382271
0.081164554 0.099283434 0.03226454 -0.15284404 0.17754431 -0.215296 -0.122517 0.07106312
0.079111956 0.07972726 0.0076192706 0.03720347 0.14326029 0.19492084 0.06437486 0.026674112
00000000: 852a 9fbd bf33 7bbd b6e5 513e 94e0 99be
00000010: 3d63 bcbb 8ccb c83c f346 e23c daf0 41be
00000020: 30f3 263e 156a 9a3c 8fcb 1ebe e163 59be
00000030: 937c a2bc 0ca8 973a b503 e23c d40b be3d
00000040: b8ba 6cbd 1a01 f7bd b981 0c3d 0a1d 30bc
00000050: 47d1 b13d 42b0 cfbd e945 b83d b97e 7ebe
00000060: 2031 8fbd 8e83 4c3d 8278 dd3d cb1f f53d
00000070: 94c7 4d3e b766 b73e 9d37 23bd f2d4 803e
00000080: f841 2cbd ae0e 883e 2a4f 893d 1789 dabd
00000090: de1f 54bd de27 813e 2525 d2bc fa5d 5bb9
000000a0: 4267 3d3c 2a60 c93d f138 a2bd 3187 4c3d
000000b0: 0ed1 22be 9109 15be 3174 8dbd 19b8 193c
000000c0: 9a39 a63d 1d55 cb3d d327 043d 2683 1cbe
000000d0: 2dce 353e 8e76 5cbe 31ea fabd 8b89 913d
000000e0: 7305 a23d 0c48 a33d 13ab f93b aa62 183d
000000f0: d3b2 123e 5499 473e f7d6 833d ab83 da3c

conv4.weight f4 [64, 64, 2, 2]
-0.24292117 0.089596465 0.05908054 -0.010807225 0.040483177 0.05976307 0.10624424 0.21615146
-0.5949556 -0.6735793 0.15040323 0.053594083 -0.25387952 0.010889359 -0.15657221 -0.09769048
-0.3956991 -0.59069604 -0.083755545 0.24133971 -0.21888596 -0.2886153 -0.13553919 0.18459463
-0.25503185 -0.23808514 -0.013238971 0.1246799 0.03455255 0.04836064 -0.01002385 -0.024105804
0.020406263 0.3539373 0.13015436 0.31917533 0.20436731 0.23097195 0.21260022 0.012928574
0.028321631 -0.00037160647 -0.02297027 -0.031711657 -0.38790157 -0.53679705 0.22409484 -0.16028048
-0.35150817 -0.35947716 0.14634092 -0.32758743 -0.029939763 0.0015215555 0.074516684 -0.49713975
-0.10261406 0.10199905 -0.22173417 -0.06108235 0.1342032 -0.07327125 0.23412438 0.018698195
0.0013330625 -0.003274395 -0.46290937 -0.060670894 -0.059482064 0.012208182 -0.015971879 0.09412532
0.010839422 -0.41667348 -0.0481958 -0.0060021007 -0.11691513 -0.16408958 -0.66277957 -0.24529415
0.19476178 -0.0026350075 0.1374975 0.17442238 -0.010931776 -0.007891154 0.095028915 -0.040898222
-0.16439128 0.011171826 -0.090373784 -0.095862605 0.1933453 0.00063466694 0.0719912 -0.47452328
0.101270966 0.038762283 -0.14003317 -0.3430735 -0.21888267 0.102553874 -0.023562841 -0.21697113
0.0034807816 0.15823214 0.010416054 0.2655333 0.03333919 0.2329454 -0.24288954 -0.044515487
-0.2669059 -0.72960347 0.07868949 0.20133673 0.049449 0.4074234 -0.23035586 0.04596647
-0.06428489 -0.1815203 -0.01949696 -0.16242519 0.07093579 -0.056950342 -0.48361555 0.24131037
-0.24794294 0.16612507 -0.074681245 -0.257409 -0.28977144 -0.21605389 0.22105743 0.15282328
0.23686278 0.3141389 0.088631585 0.3340761 0.43017405 0.15907018 0.15231001 0.22779554
-0.0076738284 -0.5962066 -0.36652124 -0.018992795 -0.115938134 0.32538867 -0.7099177 -0.2657194
-0.047416307 -0.31285015 -0.14111544 -0.32467633 -0.17443486 0.07039031 -0.045017954 -0.1908179
0.2281841 0.19890524 -0.13950853 -0.119001865 -0.3351011 0.08994936 -0.44803527 -0.06838406
-0.11761364 -0.1076885 -0.12508644 0.025907092 0.003634522 -0.3271537 -0.26288655 -0.041533
0.02456971 -0.015986072 -0.14043066 -0.05910435 0.27463624 -0.01836652 -0.30437645 -0.49700347
0.36688197 -0.23822336 0.0873818 -0.27734873 0.18529047 -0.110847026 -0.011470039 -0.022084102
-0.22370017 0.016391976 -0.14721313 -0.34038413 -0.26729244 -0.27680504 -0.26000834 -0.067232095
0.00080191594 -0.26976204 -0.45430338 -0.5181619 -0.02796474 0.068082854 0.056711636 0.03724316
-0.057808906 -0.21859607 0.03332039 0.29063687 -0.026476577 -0.4133 -0.5702042 -0.20111111
-0.123928934 -0.28362283 -0.4642207 -0.3623211 0.0002101824 0.258943 -0.020203885 0.20211363
-0.094258346 -0.36736128 -0.26545903 -0.48277575 0.28025788 -0.21992297 0.30091447 -0.32256946
-0.052250613 0.06681909 -0.15956214 -0.492199 0.39152005 0.12196842 -0.18080509 -0.2086673
-0.4749654 0.049516324 -0.37171897 -0.28371653 -0.04737789 -0.01624326 0.18615013 0.290598
0.06917165 0.11010258 -0.15586756 -0.08248136 -0.024202691 0.01904263 0.059143256 0.055607185
00000000: 54c0 78be 5a7e b73d 70fe 713d c910 31bc
00000010: b0d1 253d 1fca 743d 9596 d93d cf56 5d3e
00000020: 034f 18bf b16f 2cbf 4e03 1a3e 7885 5b3d
00000030: 7ffc 81be 4869 323c 7754 20be f211 c8bd
00000040: 1399 cabe db37 17bf 0788 abbd c221 773e
00000050: a423 60be 62c5 93be c9ca 0abe 6006 3d3e
00000060: 8993 82be 97cc 73be 45e8 58bc 2d58 ff3d
00000070: fa86 0d3d ce15 463d 133b 24bc 8979 c5bc
00000080: 092b a73c 4537 b53e 2f47 053e f36a a33e
00000090: aa45 513e e983 6c3e dfb3 593e 5fd2 533c
000000a0: c402 e83c 2dd4 c2b9 262c bcbc 15e4 01bd
000000b0: 099b c6be 886b 09bf 1e79 653e 9120 24be
000000c0: e1f8 b3be 640d b8be 65da 153e 8ab9 a7be
000000d0: 3c44 f5bc ee6e c73a 349c 983d 1a89 febe
000000e0: 5227 d2bd e1e4 d03d 480e 63be 7c31 7abd
000000f0: 906c 093e 3d0f 96bd 4dbe 6f3e f52c 993c
00000100: 28ba ae3a 3b97 56bb 7502 edbe 0b82 78bd
00000110: 77a3 73bd d404 483c 75d7 82bc c7c4 c03d
00000120: d597 313c 3a56 d5be f668 45bd 45ad c4bb
00000130: 3371 efbd 1907 28be ecab 29bf 642e 7bbe
00000140: a26f 473e 17b0 2cbb 25cc 0c3e c89b 323e
00000150: 311b 33bc e649 01bc 859e c23d e584 27bd
00000160: 3056 28be 090a 373c e415 b9bd 9d53 c4bd
00000170: 4ffc 453e c75f 263a 1f70 933d b7f4 f2be
00000180: 2767 cf3d 33c5 1e3d db64 0fbe 54a7 afbe
00000190: c722 60be c407 d23d dc06 c1bc ae2d 5ebe
000001a0: d31d 643b 9b07 223e 19a8 2a3c fbf3 873e
000001b0: ad8e 083d 3d89 6e3e 09b8 78be df55 36bd
000001c0: e4a7 88be 4bc7 3abf f527 a13d 372b 4e3e
000001d0: 098b 4a3d cd99 d03e 68e2 6bbe 5647 3c3d
000001e0: cca7 83bd 75e0 39be 17b8 9fbc ca52 26be
000001f0: c946 913d c344 69bd 759c f7be 111a 773e
00000200: c1e4 7dbe b11c 2a3e 7bf2 98bd 1dcb 83be
00000210: ec5c 94be 3b3d 5dbe e15c 623e b57d 1c3e
00000220: 288c 723e d0d6 a03e 7a84 b53d 060c ab3e
00000230: c63f dc3e 4be3 223e 28f7 1b3e 3c43 693e
00000240: bd74 fbbb ffa0 18bf aca8 bbbe c796 9bbc
00000250: f970 edbd 5899 a63e 2bbd 35bf 600c 88be
00000260: 9a37 42bd e52d a0be 9180 10be fa3b a6be
00000270: 0d9f 32be cb28 903d bf64 38bd c465 43be
00000280: 18a9 693e d1ad 4b3e 53db 0ebe 40b7 f3bd
00000290: 5f92 abbe 5f37 b83d e164 e5be f10c 8cbd
000002a0: 6cdf f0bd ca8b dcbd a916 00be 1c3b d43c
000002b0: 2931 6e3b b180 a7be 1199 86be 821e 2abd
000002c0: 6b46 c93c 39f5 82bc 0ecd 0fbe 6717 72bd
000002d0: 1f9d 8c3e 6275 96bc 3bd7 9bbe 3d77 febe
000002e0: f4d7 bb3e d3f0 73be 3bf5 b23d a700 8ebe
000002f0: c9bc 3d3e c403 e3bd d5ec 3bbc b8e9 b4bc
00000300: a811 65be 7748 863c 0abf 16be d446 aebe
00000310: 8eda 88be 64b9 8dbe d01f 85be fbb0 89bd
00000320: ab37 523a 401e 8abe 749a e8be 42a6 04bf
00000330: 4f16 e5bc 066f 8b3d 764a 683d 498c 183d
00000340: 08c9 6cbd a6d7 5fbe f67a 083d 5bce 943e
00000350: 68e5 d8bc 0f9c d3be e7f8 11bf 12f0 4dbe
00000360: 74ce fdbd 0337 91be 56ae edbe 2782 b9be
00000370: 6964 5c39 2d94 843e 9e82 a5bc e0f6 4e3e
00000380: 850a c1bd c716 bcbe 3fea 87be 622e f7be
00000390: f67d 8f3e 7d33 61be 7611 9a3e d327 a5be
000003a0: bd04 56bd 72d8 883d 4264 23be 8201 fcbe
000003b0: 5175 c83e 94ca f93d f824 39be e1ac 55be
000003c0: aa2e f3be a1d1 4a3d f351 bebe 4b43 91be
000003d0: 520f 42bd 9610 85bc 249e 3e3e 43c9 943e
000003e0: dea9 8d3d 767d e13d bf9b 1fbe fdeb a8bd
000003f0: b944 c6bc 4aff 9b3c 3340 723d 5cc4 633d

conv4.bias f4 [64]
0.023612028 0.09383804 -0.17704147 -0.08274717 0.16382477 -0.22399218 0.15257664 0.0587917
-0.29211602 0.062476557 -0.14463906 -0.030568501 -0.036680132 -0.100028105 0.08561601 0.3266769
-0.023011586 -0.16616401 -0.020164205 -0.011916065 0.053746462 0.1300149 -0.12115913 -0.079194866
0.06332765 0.08181168 0.018958619 0.32411686 -0.05875348 0.09468506 0.2537742 0.0046611927
-0.01603032 0.040762085 -0.19014634 -0.20132472 -0.23374142 0.077202655 -0.10320108 -0.33561993
0.012617273 -0.11450777 -0.1225304 0.10614658 0.1902302 0.08712902 -0.11785251 -0.12175823
-0.0038783876 -0.17099571 -0.086334206 -0.14134726 0.11640254 0.2412402 -0.13793464 -0.0662133
-0.2879474 -0.05518997 -0.039698206 -0.31125 -0.017180337 0.26502305 0.0945558 0.20867512
00000000: 036e c13c 292e c03d 5c4a 35be 5977 a9bd
00000010: aec1 273e 355e 65be 0d3d 1c3e 91cf 703d
00000020: 3b90 95be 6be7 7f3d 431c 14be cb6a fabc
00000030: e83d 16bd 89db ccbd 7257 af3d 3242 a73e
00000040: cb82 bcbc e626 2abe 672f a5bc 993b 43bc
00000050: 4025 5c3d a022 053e 4722 f8bd eb30 a2bd
00000060: edb1 813d e28c a73d 1b4f 9b3c a5f2 a53e
00000070: 7da7 70bd 3eea c13d b1ee 813e ebbc 983b
00000080: 0552 83bc 25f6 263d b9b5 42be 1128 4ebe
00000090: e959 6fbe 6d1c 9e3d 165b d3bd 60d6 abbe
000000a0: aeb8 4e3c 0d83 eabd 38f1 fabd 6163 d93d
000000b0: b5cb 423e b370 b23d a85c f1bd 615c f9bd
000000c0: 8c2c 7ebb 8019 2fbe fdcf b0bd 56bd 10be
000000d0: 7464 ee3d ac07 773e bd3e 0dbe d79a 87bd
000000e0: d76d 93be e10e 62bd 969a 22bd 295c 9fbe
000000f0: c7bd 8cbc 1ab1 873e 79a6 c13d eeae 553e

conv5.weight f4 [128, 64, 2, 2]
0.12494631 0.25751978 -0.06538722 0.10178118 0.13597618 -0.15432595 0.07174905 0.38928136
-0.14942381 0.041877545 0.09780225 0.2255774 -0.21666186 -0.29608092 0.24726582 0.23310319
-0.17314583 -0.11899179 0.23994295 -0.026296966 -0.3215575 -0.036509525 -0.6100311 0.24262959
0.030273879 0.060710426 0.06366782 0.0600057 -0.44923756 0.03597964 0.12137495 -0.36953753
0.0072023766 0.006319504 0.10290125 0.01288586 0.23168114 0.31963107 -0.14858185 -0.1495297
-0.31267726 -0.20230561 -0.29181015 0.002358392 -0.6145499 -0.12990884 -0.4121604 0.07574401
0.18658867 0.26247275 0.071873754 0.19999787 0.03796506 0.04070192 -0.07941387 -0.04586293
0.27605745 -0.321008 0.10130659 0.0147881 -0.5430917 0.2763301 -0.5257716 -0.14450982
-0.30856693 0.044616822 0.11633904 0.3200251 -0.22784021 -0.057126798 0.098002635 0.17345184
-0.0420382 -0.13382775 -0.6763331 -0.0622473 -0.04450314 -0.2145176 -0.27395517 0.082874276
-0.40613672 0.058726076 -0.022410352 0.26799726 -0.22792771 0.21341527 -0.15484378 -0.34613922
-0.26484117 -0.2034428 -0.16558574 -0.02623291 -0.036228087 -0.007432068 -0.22608349 0.18211338
0.056294627 0.21837766 -0.10827576 -0.228016 -0.023678025 0.26349646 -0.3268252 -0.27667335
-0.13494103 0.081964135 -0.69806176 0.10505759 0.08250877 -0.22989422 -0.10913251 -0.5799366
-0.30481762 -0.2495638 0.06302491 -0.020127207 -0.15704654 -0.13693367 -0.18571946 -0.21374558
-0.2573652 0.029402032 0.11506128 0.15886362 -0.2489422 0.24065922 -0.38824642 -0.19628377
-0.25795603 -0.12572572 0.034655742 0.0040989015 -0.13868535 -0.2712553 0.1921595 -0.34552404
0.11204298 -0.12776446 0.16908687 -0.2628893 -0.020299532 0.014786991 -0.45025092 -0.0446372
-0.030705258 -0.09006494 -0.17270243 -0.26109782 0.038736336 -0.1584757 -0.36797842 0.06767918
0.06923668 -0.0072784047 0.028398678 0.026112238 -0.16437325 -0.20254068 -0.21962899 -0.5016019
-0.014591954 0.03896246 -0.12987727 0.22928151 -0.052415818 0.10979914 -0.36315763 0.09539347
-0.49189156 0.036111552 -0.645851 -0.537438 0.027313732 0.3289169 0.13477966 -0.44389588
0.056470554 -0.05557607 -0.0035071634 -0.34048826 0.08851267 -0.0045773033 -0.02942615 0.24981593
-0.2085243 -0.29079235 -0.01937973 -0.0932031 -0.55001515 0.25744072 -0.01904607 0.2896033
-0.23275304 -0.1220024 -0.17422259 -0.38029522 -0.29425758 -0.48102126 -0.44799855 0.19432135
-0.3078741 -0.11512043 -0.12063273 -0.30014947 -0.030215282 0.027968194 -0.0502245 -0.25979012
-0.05791782 -0.112442985 -0.20491026 -0.08122011 0.4426917 0.23099376 -0.037882708 -0.31944075
0.015980419 0.2113144 -0.1365924 -0.21538468 -0.11474186 -0.21178468 -0.6690413 0.10278003
0.00418068 0.20643269 -0.51650786 -0.24170439 -0.20645748 -0.058785327 -0.13977945 -0.116942294
0.1294344 0.12307797 0.33969945 -0.08469837 -0.34505126 0.11789758 -0.49926677 0.35394284
0.34584302 -0.14607844 0.23243316 0.023867093 0.017184928 0.057772495 -0.0018303496 -0.22792077
0.15042275 0.17113905 0.06490717 -0.06643235 -0.14422733 -0.12478458 0.16165562 0.34507415
00000000: dae3 ff3d a2d9 833e bce9 85bd a772 d03d
00000010: 573d 0b3e 9f07 1ebe 2af1 923d e34f c73e
00000020: 8e02 19be ca87 2b3d 8c4c c83d c3fd 663e
00000030: 9bdc 5dbe eb97 97be 4033 7d3e 9ab2 6e3e
00000040: 244d 31be f8b1 f3bd 9bb3 753e bc6c d7bc
00000050: 2fa3 a4be 038b 15bd 002b 1cbf e473 783e
00000060: ed00 f83c 7fab 783d 4664 823d 89c8 753d
00000070: 7702 e6be 635f 133d 6e93 f83d 0634 bdbe
00000080: ea01 ec3b d813 cf3b e4bd d23d 371f 533c
00000090: d23d 6d3e afa6 a33e d725 18be 501e 19be
000000a0: 3c17 a0be 3429 4fbe 2468 95be 418f 1a3b
000000b0: 2453 1dbf d306 05be b006 d3be ad1f 9b3d
000000c0: 1a11 3f3e d462 863e 8c32 933d 3ecc 4c3e
000000d0: 4081 1b3d 0eb7 263d bda3 a2bd c5da 3bbd
000000e0: 6757 8d3e 295b a4be d479 cf3d c949 723c
000000f0: 0f08 0bbf 247b 8d3e f898 06bf 62fa 13be
00000100: 7cfc 9dbe 21c0 363d 2a43 ee3d 54da a33e
00000110: f24e 69be cafd 69bd 9bb5 c83d 5c9d 313e
00000120: 3f30 2cbd 240a 09be 2b24 2dbf 06f7 7ebd
00000130: ed48 36bd 80aa 5bbe da43 8cbe fdb9 a93d
00000140: 27f1 cfbe c18a 703d ea95 b7bc f036 893e
00000150: e265 69be 8889 5a3e 5e8f 1ebe 2939 b1be
00000160: 4399 87be 4f53 50be 4f8f 29be 66e6 d6bc
00000170: e763 14bd b588 f3bb 6e82 67be ee7b 3a3e
00000180: 3295 663d 659e 5f3e afbf ddbd 077d 69be
00000190: 6bf8 c1bc 02e9 863e a255 a7be 21a8 8dbe
000001a0: fb2d 0abe d0dc a73d 2db4 32bf 6f28 d73d
000001b0: 5cfa a83d 6469 6bbe de80 dfbd ba76 14bf
000001c0: 0e11 9cbe a78d 7fbe 3413 813d d0e1 a4bc
000001d0: cfd0 20be 5738 0cbe 3e2d 3ebe 1fe0 5abe
000001e0: 5fc5 83be 88dc f03c 40a5 eb3d 25ad 223e
000001f0: b4ea 7ebe 5f6f 763e 3cc8 c6be 9dfe 48be
00000200: d012 84be 3ebe 00be 2ef3 0d3d 1450 863b
00000210: 8803 0ebe fae1 8abe 76c5 443e 87e8 b0be
00000220: ca76 e53d b0d4 02be 1c25 2d3e 6d99 86be
00000230: 344b a6bc 2345 723c 4a87 e6be 7fd5 36bd
00000240: 9889 fbbc f873 b8bd e8d8 30be 9dae 85be
00000250: fea9 1e3d 7447 22be ab67 bcbe 629b 8a3d
00000260: f6cb 8d3d af7f eebb 58a4 e83c 55e9 d53c
00000270: 7651 28be d366 4fbe 6ce6 60be fb68 00bf
00000280: 1713 6fbc 1a97 1f3d 8cfe 04be c6c8 6a3e
00000290: f8b1 56bd 5fde e03d ccef b9be a75d c33d
000002a0: 36d9 fbbe b5e9 133d 7e56 25bf 8995 09bf
000002b0: 0cc1 df3c cc67 a83e ae03 0a3e 5246 e3be
000002c0: ab4d 673d bca3 63bd 70d8 65bb 7a54 aebe
000002d0: 2146 b53d 34fd 95bb 1c0f f1bc bfcf 7f3e
000002e0: 6587 55be bce2 94be 3dc2 9ebc 44e1 bebd
000002f0: cbcd 0cbf 45cf 833e 8106 9cbc e246 943e
00000300: d056 6ebe 65dc f9bd 6867 32be 0eb6 c2be
00000310: eea8 96be 6b48 f6be 1160 e5be 2dfc 463e
00000320: ada1 9dbe 43c4 ebbd 4b0e f7bd 31ad 99be
00000330: 0a86 f7bc 8e1d e53c 35b8 4dbd 3603 85be
00000340: 3c3b 6dbd 8248 e6bd ffd3 51be bb56 a6bd
00000350: 7da8 e23e a189 6c3e e62a 1bbd bd8d a3be
00000360: 5ee9 823c cd62 583e e1de 0bbe cd8d 5cbe
00000370: c8fd eabd 15de 58be 4a46 2bbf 567e d23d
00000380: 16fe 883b 1763 533e dc39 04bf 5b81 77be
00000390: 9769 53be e2c8 70bd 5822 0fbe 717f efbd
000003a0: 748a 043e 4e10 fc3d 16ed ad3e 5776 adbd
000003b0: 8faa b0be 4974 f13d e59f ffbe ff37 b53e
000003c0: 5612 b13e 9695 15be f502 6e3e ec84 c33c
000003d0: 68c7 8c3c daa2 6c3d 57e8 efba 1064 69be
000003e0: 6c08 1a3e 133f 2f3e 0dee 843d af0d 88bd
000003f0: 54b0 13be 0f8f ffbd 0d89 253e 8fad b03e

conv5.bias f4 [128]
0.23596175 0.20925502 0.02330706 -0.2485267 0.03694126 0.2927912 0.14758943 0.37644523
-0.14024061 0.10694811 0.1386198 0.015772242 -0.63990474 0.03347131 -0.13903856 0.21760514
-0.16351756 -0.21019219 0.027228849 -0.15584174 0.2713222 0.11440197 0.16253051 0.22779846
-0.14891098 -0.19372614 0.2775944 -0.30302402 -0.06664422 -0.05799215 0.2646996 0.16555475
0.27705586 -0.12233446 0.070784345 0.2086685 -0.15066627 -0.037287164 -0.2793947 -0.22131437
-0.33428463 0.10766361 0.08729547 0.11240196 0.18369032 0.013358427 -0.2128207 0.10932208
-0.31056437 -0.055372253 -0.09578329 -0.35314977 -0.43221 -0.12141903 -0.5203113 0.14389305
-0.1619531 -0.11257752 -0.18940745 -0.44375956 0.062178675 0.21363513 -0.08474747 0.0927969
-0.13476925 -0.03311946 -0.20426467 0.10983163 -0.12223746 0.09243378 0.06314288 0.07620715
0.21946354 -0.014379773 0.0030847774 -0.13759793 0.069964096 -0.09049095 0.388173 -0.17401983
0.23128338 -0.07562743 0.025712727 0.09475161 0.07801046 -0.06626897 -0.20775294 0.24790746
0.14656772 0.20980982 0.2457438 0.041370347 -0.12940113 0.04675612 0.24172965 0.17277095
-0.066072665 -0.24552685 0.14141086 0.2104036 -0.3010437 -0.1477507 0.1119284 -0.15249485
0.1648324 -0.07398116 0.0349544 -0.17621228 0.11361266 0.2624582 0.04399946 -0.06690812
-0.048527673 0.26062253 -0.10608355 -0.28144923 0.020829728 -0.15034033 -0.09897829 0.20052639
0.13648948 0.09737778 0.17939292 0.18385549 -0.19607516 -0.22138028 -0.29947528 0.3191349
00000000: f59f 713e f346 563e 73ee be3c c97d 7ebe
00000010: b84f 173d bae8 953e af21 173e 6ebd c03e
00000020: 3c9b 0fbe 9c07 db3d 59f2 0d3e ca34 813c
00000030: ccd0 23bf 3619 093d 2060 0ebe e2d3 5e3e
00000040: 2671 27be 9f3c 57be 090f df3c fa94 1fbe
00000050: beea 8a3e 944b ea3d 666e 263e 0044 693e
00000060: 1f7c 18be 2560 46be da20 8e3e f725 9bbe
00000070: c47c 88bd 2d89 6dbd b586 873e 2f87 293e
00000080: 44da 8d3e 7d8a fabd 62f7 903d 32ad 553e
00000090: 4248 1abe 6dba 18bd d20c 8fbe 3ca0 62be
000000a0: 5b27 abbe bd7e dc3d f8c7 b23d 0033 e63d
000000b0: 5119 3c3e 4edd 5a3c abed 59be 41e4 df3d
000000c0: 4b02 9fbe 04ce 62bd 082a c4bd 0cd0 b4be
000000d0: a14a ddbe 8aaa f8bd 1f33 05bf b358 133e
000000e0: 09d7 25be 0b8f e6bd 07f4 41be 7434 e3be
000000f0: 11af 7e3d 2bc3 5a3e 1590 adbd 4d0c be3d
00000100: f300 0abe 45a8 07bd c22a 51be 68ef e03d
00000110: a257 fabd ec4d bd3d 0e51 813d 7f12 9c3d
00000120: 0dbb 603e 2499 6bbc fa29 4a3b 79e6 0cbe
00000130: 5649 8f3d 5253 b9bd 9dbe c63e 4132 32be
00000140: 8dd5 6c3e 8ee2 9abd 7fa3 d23c 220d c23d
00000150: f3c3 9f3d 07b8 87bd 30bd 54be 74db 7d3e
00000160: d915 163e 63d8 563e 43a4 7b3e f473 293d
00000170: bb81 04be 5883 3f3d fa87 773e deea 303e
00000180: 1b51 87bd 646b 7bbe 02ce 103e 0b74 573e
00000190: 6622 9abe f64b 17be b83a e53d 9c27 1cbe
000001a0: d3c9 283e 6f83 97bd 582c 0f3d fe70 34be
000001b0: c1ad e83d ec60 863e c738 343d 2007 89bd
000001c0: f4c4 46bd 5170 853e 5542 d9bd 1d1a 90be
000001d0: 1ba3 aa3c d1f2 19be 21b5 cabd ca56 4d3e
000001e0: e6c3 0b3e 006e c73d c7b2 373e 9d44 3c3e
000001f0: edc7 48be 83b1 62be d354 99be a665 a33e

conv6.weight f4 [64, 128, 2, 2]
0.14198911 -0.3657771 -0.2017693 -0.24747388 -0.058060337 -0.028198635 0.2301544 -0.21565826
-0.16869813 0.1051785 0.023255039 0.17889306 -0.053029418 -0.010216528 0.0035084297 -0.015872898
0.14621921 0.0104125105 0.021205964 -0.054860365 -0.026393054 -0.007553005 0.16384569 0.029132627
-0.0019751193 0.0072545027 -0.009741551 -0.008537647 -0.027536169 -0.20700058 -0.017679792 0.040833905
0.12335369 -0.19061778 0.3155406 -0.32167628 0.1157397 -0.26132447 -0.16772622 -0.14935218
0.04469442 -0.21664388 -0.04814368 0.01849913 -0.49390283 -0.123701215 -0.25446865 0.037128747
0.00078300573 0.3276984 0.013947461 0.2751646 0.038096506 0.16968098 0.043938123 -0.015864832
0.06389701 -0.12622823 -0.04975598 -0.24678461 0.0783604 -0.03140358 0.05265887 0.09565931
-0.042750318 0.040773038 -0.003033109 -0.020956244 0.16807996 0.015423132 -0.18311049 0.10008792
0.25120133 -0.16842653 -0.12559947 -0.08282299 -0.02050702 0.017779244 -0.02513591 0.02547871
0.19380888 -0.17069247 -0.0011697451 0.013442333 -0.018165622 -0.046107776 -0.07770359 -0.03718762
-0.22557722 0.037873678 -0.14440109 -0.16141355 -0.37078762 -0.12113123 -0.049145237 -0.18690118
-0.10173443 -0.031282995 -0.16053395 -0.12722376 0.29300016 0.27076355 -0.043120738 -0.06684869
0.048142895 -0.1332545 -0.018503886 -0.053804323 0.032490402 0.16225524 0.17314363 0.4161995
-0.19099896 -0.12524201 -0.14941369 -0.1637509 0.34595653 0.23865917 0.15624115 -0.006017919
0.12364359 0.14130966 -0.1632423 -0.23996636 -0.18003964 -0.024538295 -0.052721817 0.009284242
-0.019782709 0.03719535 0.105375186 0.06449127 -0.0035384651 -0.034129757 -0.0141045535 -0.085065335
-0.34690902 -0.26084965 -0.22127914 -0.19658315 0.039133515 -0.079294994 0.2301644 -0.09267986
-0.0960822 -0.017907599 0.08055524 -0.06717305 0.13022083 -0.17568049 -0.19824894 0.18072614
0.11419688 0.21458834 0.3929874 0.100358814 0.1095261 -0.011704067 0.10282242 -0.12810664
0.0022467643 0.24185963 -0.09204115 0.04070201 0.13372873 -0.13389625 -0.16567719 0.058957417
-0.16691402 0.022899196 -0.043227457 -0.11465767 0.1080556 -0.10453742 -0.26437652 0.07840959
-0.1506523 0.09697239 0.0076086363 0.08027226 0.06052182 0.01472179 -0.060989518 0.0874848
0.107970044 -0.08783454 0.2834018 -0.146355 -0.40153107 -0.10366266 -0.40052378 -0.23149772
-0.09199406 0.06360635 0.09241263 0.14290105 0.15018252 0.016603332 -0.013569433 -0.042623494
0.0080462955 -0.057275314 0.12378259 -0.030914143 0.13228562 0.054798502 -0.09739354 0.06372676
-0.06538026 -0.10946605 -0.2179402 -0.04419669 0.1603516 0.15603808 0.1008189 0.17998412
0.24902016 0.037773136 0.24970876 0.23000222 -0.14756203 -0.048744995 0.119604 0.037623186
-0.077752575 0.00073358027 -0.16880934 0.0048524225 0.24970019 0.120177895 0.20583875 0.1301485
-0.051796608 -0.008207234 0.10160782 0.23834468 -0.2880066 -0.062055267 -0.11878255 -0.11230583
-0.12089781 -0.20975663 0.09138013 -0.23637629 0.07527671 -0.15828444 0.0005721534 0.03378787
-0.051011667 0.037951194 0.0877912 -0.09574091 -0.0589729 -0.14033927 0.06579199 -0.15768921
00000000: 9865 113e 2347 bbbe 9d9c 4ebe cb69 7dbe
00000010: add0 6dbd d300 e7bc 98ad 6b3e 85d5 5cbe
00000020: 34bf 2cbe d367 d73d 5a81 be3c be2f 373e
00000030: 6035 59bd 3963 27bc afed 653b e107 82bc
00000040: 7dba 153e 3c99 2a3c 21b8 ad3c 43b5 60bd
00000050: 3f36 d8bc 337f f7bb 2ac7 273e 8ca7 ee3c
00000060: 0171 01bb 2eb7 ed3b 079b 1fbc 7de1 0bbc
00000070: 8893 e1bc f6f7 53be 36d5 90bc 7441 273d
00000080: dca0 fc3d 4f31 43be 8a8e a13e c1b2 a4be
00000090: f008 ed3d 52cc 85be 6cc0 2bbe c7ef 18be
000000a0: 7f11 373d e5d7 5dbe 4f32 45bd 7d8b 973c
000000b0: d5e0 fcbe 1057 fdbd b749 82be 5014 183d
000000c0: a042 4d3a 16c8 a73e e483 643c 60e2 8c3e
000000d0: 150b 1c3d dac0 2d3e 76f8 333d f7f6 81bc
000000e0: 70dc 823d f941 01be edcc 4bbd 1bb5 7cbe
000000f0: 6b7b a03d 0aa1 00bd d4b0 573d 07e9 c33d
00000100: f51a 2fbd a101 273d 20c7 46bb 6eac abbc
00000110: 271d 2c3e 4eb1 7c3c 5181 3bbe e5fa cc3d
00000120: 769d 803e 0178 2cbe 269d 00be 1a9f a9bd
00000130: 57fe a7bc c7a5 913c d3e9 cdbc bab8 d03c
00000140: d675 463e 02ca 2ebe 2252 99ba 3b3d 5c3c
00000150: 12d0 94bc 82db 3cbd 0f23 9fbd 0c52 18bd
00000160: b7fd 66be 6e21 1b3d e1dd 13be 9849 25be
00000170: e0d7 bdbe a613 f8bd 844c 49bd 0663 3fbe
00000180: 245a d0bd 9922 00bd 0363 24be f246 02be
00000190: 1e04 963e 85a1 8a3e 5f9f 30bd f7e7 88bd
000001a0: 7c31 453d de73 08be 7695 97bc ec61 5cbd
000001b0: a814 053d 3d26 263e 904c 313e 1a18 d53e
000001c0: 3b95 43be 713f 00be e7ff 18be 51ae 27be
000001d0: 3721 b13e 1263 743e aefd 1f3e f731 c5bb
000001e0: da38 fd3d 7bb3 103e fd28 27be beb9 75be
000001f0: 505c 38be 8904 c9bc d5f2 57bd ef1c 183c
00000200: 590f a2bc 275a 183d f2ce d73d 0014 843d
00000210: 98e5 67bb a5cb 0bbd c916 67bc bc36 aebd
00000220: 0f9e b1be 168e 85be 0097 62be 184d 49be
00000230: 774a 203d 6a65 a2bd 37b0 6b3e f0ce bdbd
00000240: bfc6 c4bd f5b2 92bc 25fa a43d 0692 89bd
00000250: 9c58 053e 96e5 33be c501 4bbe 4610 393e
00000260: 0ee0 e93d 0cbd 5b3e a535 c93e ec88 cd3d
00000270: 384f e03d 6ac2 3fbc 9094 d23d 632e 03be
00000280: 733e 133b 0daa 773e 1280 bcbd 27b7 263d
00000290: 2ff0 083e 191c 09be 48a7 29be 557d 713d
000002a0: 82eb 2abe 1897 bb3c 460f 31bd a4d1 eabd
000002b0: 414c dd3d b717 d6bd 5c5c 87be 3595 a03d
000002c0: 9944 1abe 7699 c63d de51 f93b c865 a43d
000002d0: bae5 773d aa33 713c 25d0 79bd 3b2b b33d
000002e0: 661f dd3d 98e2 b3bd 0a1a 913e 16de 15be
000002f0: 7b95 cdbe 174d d4bd 7411 cdbe bd0d 6dbe
00000300: 6267 bcbd 0c44 823d d542 bd3d a754 123e
00000310: 72c9 193e b603 883c 5452 5ebc f995 2ebd
00000320: 9cd4 033c 8599 6abd ba81 fd3d a83f fdbc
00000330: e275 073e 6574 603d 4476 c7bd 2d83 823d
00000340: 16e6 85bd bd2f e0bd b72b 5fbe 9707 35bd
00000350: 3633 243e 72c8 1f3e 247a ce3d c24d 383e
00000360: 24ff 7e3e 01b8 1a3d a7b3 7f3e b485 6b3e
00000370: 801a 17be d5a8 47bd f1f2 f43d c51a 1a3d
00000380: be3c 9fbd bd4d 403a 5bdc 2cbe 1201 9f3b
00000390: 68b1 7f3e d41f f63d 65c7 523e a645 053e
000003a0: ae28 54bd a277 06bc c317 d03d a110 743e
000003b0: 9a75 93be aa2d 7ebd 4444 f3bd 9900 e6bd
000003c0: 4599 f7bd 71ca 56be 8125 bb3d a00c 72be
000003d0: ad2a 9a3d 5115 22be 91fc 153a 2665 0a3d
000003e0: 9cf1 50bd b672 1b3d dfcb b33d cf13 c4bd
000003f0: 918d 71bd 19b5 0fbe f3bd 863d 4879 21be

conv6.bias f4 [64]
-0.5132134 -0.20466289 -0.0639126 0.08147413 0.035219062 0.088203974 -0.377919 -0.23127817
-0.031120595 0.26798102 0.032722034 0.13608594 0.15885964 -0.40679994 -0.027511263 -0.4572794
0.17610812 -0.036691703 0.3675045 -0.31181875 -0.020308275 -0.17531367 -0.44746655 -0.6848855
-0.47728112 0.6088458 -0.2963952 -0.5071465 -0.10081464 0.034249168 -0.78653395 -0.049956862
0.3301319 -0.10343208 0.2888428 -0.345392 -0.5127914 -0.017970324 -0.11894954 0.51035446
-0.13368998 -0.0098724775 0.15036534 0.01798163 -0.404231 -0.08070805 0.22951186 0.20849483
-0.07449979 0.21911097 0.1353447 0.11267965 0.018742723 -0.13599837 0.4974432 0.09254503
0.05676519 -0.4526495 0.33656615 0.017741593 -0.63979167 0.09089538 0.1846256 -0.5015487
00000000: f461 03bf 2693 51be 9ce4 82bd e9db a63d
00000010: dd41 103d 49a4 b43d 997e c1be 2fd4 6cbe
00000020: 9ef0 febc cf34 893e 8a07 063d 1d5a 0b3e
00000030: 1aac 223e 1548 d0be 4d5f e1bc 8720 eabe
00000040: b055 343e 0a4a 16bd 8d29 bc3e b5a6 9fbe
00000050: 8a5d a6bc 6d85 33be 561a e5be a854 2fbf
00000060: 315e f4be 51dd 1b3f 1dc1 97be 5ad4 01bf
00000070: e877 cebd db48 0c3d 4a5a 49bf 919f 4cbd
00000080: 0c07 a93e 33d4 d3bd 34e3 933e 38d7 b0be
00000090: 4c46 03bf 8036 93bc d19b f3bd 97a6 023f
000000a0: 07e6 08be 2cc0 21bc 5ff9 193e 364e 933c
000000b0: 5ef7 cebe 434a a5bd 2805 6b3e ab7f 553e
000000c0: 5993 98bd a05e 603e cd97 0a3e 97c4 e63d
000000d0: 578a 993c 2843 0bbe e0b0 fe3e 4088 bd3d
000000e0: 9e82 683d adc1 e7be 6652 ac3e d156 913c
000000f0: 63c9 23bf 5b27 ba3d 7e0e 3d3e 7f65 00bf
