model/model_8.pth (torch_old, 571877 bytes, 24 tensors)

conv1.weight f4 [32, 3, 2, 2]
000000 42 f3 9d bd 9f cc dc bd 06 36 01 be d0 64 bf 3e
       -0.07712413 -0.10781216 -0.12618265 0.373816
000010 dc 8b 15 bf 30 14 1a 3e 68 e5 f1 bd c1 58 d7 3e
       -0.58416533 0.15046763 -0.11811334 0.420599
000020 b3 83 90 be 37 91 91 bd 79 ca b6 3c 74 66 89 3e
       -0.2822548 -0.07107776 0.022313343 0.26835978
000030 cc 2e 4f 3e c0 7a 17 be b5 62 05 3e 8d 9b 12 bc
       0.20232695 -0.14792919 0.13025935 -0.008948219
000040 0d a7 ca 3d 1e 74 4d bd f5 d2 b7 3e 30 79 55 3d
       0.09895144 -0.050159566 0.35903135 0.052117527
000050 fe 64 e3 bd f4 56 75 be 4e ba 9f bc d8 db 6b be
       -0.11103247 -0.23958951 -0.019498017 -0.23033082
000060 eb 18 d3 bd 4c 1d 92 3d a4 8a 19 3e 3d 20 81 3e
       -0.10307487 0.07134494 0.14994293 0.25219908
000070 ab 49 a5 be 9d a3 69 3e 46 8a 77 bc 95 8a a7 3e
       -0.32282767 0.2281632 -0.015108651 0.32722917
000080 a9 8e 18 3e 7c ed 3a be b5 29 d4 be d7 c7 d0 bd
       0.1489817 -0.18254656 -0.4143807 -0.101943664
000090 f3 40 dd 3e 68 f6 d9 38 d8 66 cc 3d 9d 3d 80 be
       0.43213615 0.00010393263 0.099805534 -0.25047007
0000a0 c8 c1 ce 3e 5c 39 52 be 8a 23 45 3e 1d 25 29 be
       0.40382218 -0.20529693 0.19251838 -0.16518064
0000b0 b8 be 5d bd 4f 6e f8 3c b1 ea 51 be 62 11 07 be
       -0.05413696 0.030326037 -0.20499684 -0.13190225
0000c0 ea 84 27 be b6 d6 dc bd 62 29 bb be 46 bb 61 be
       -0.16359296 -0.1078314 -0.3655501 -0.22044095
0000d0 82 48 3f 3e 8e 28 bb bd d1 dd 9e 3e ab f6 64 3e
       0.18680003 -0.091385946 0.31028607 0.22359721
0000e0 b7 72 1f bd c1 5d 8e be c5 e7 39 3e 72 d0 2a 3d
       -0.03892776 -0.27805904 0.1815482 0.041702695
0000f0 13 79 4f be fb c6 d2 3d 58 19 7c 3e 08 fa 80 3e
       -0.2026103 0.10291859 0.24619043 0.2519076
000100 9a 51 4f be fd e4 0c be a6 b7 6f ba 6b d3 c9 bc
       -0.20245972 -0.13759227 -0.0009144492 -0.024636945
000110 9c 74 b4 be ec 66 c0 be 75 bc dc 3d 1c 7d 40 be
       -0.35245216 -0.37578523 0.10778133 -0.18797725
000120 8c e8 99 3d 0a 72 2a bd f6 21 b1 3b 27 12 69 3c
       0.07515058 -0.041612662 0.00540566 0.014225519
000130 81 be b3 3d 14 b4 bc 3d 5b b5 83 be 80 b1 1e 3e
       0.0877657 0.09214035 -0.257243 0.15497398
000140 db 34 56 be 6c 27 6f be 26 f5 9e 3c 3e 1d 5b bd
       -0.209186 -0.23354882 0.019404005 -0.053494684
000150 e4 39 76 3e fd 7b 45 3d 8a ef 0f bf bc 3d 75 3d
       0.24045521 0.048213948 -0.5622488 0.059873328
000160 ac dd 01 3e ce a9 f7 3e be 4f da bd 3e d4 72 be
       0.12682217 0.48371738 -0.10659741 -0.23713776
000170 7a 89 81 3e 10 a7 a4 3e f4 0c ab be 40 40 42 be
       0.253002 0.3215871 -0.3340832 -0.18969822
000180 37 f6 3f 3d d0 d0 89 be 24 ec 2d 3e 77 b6 a7 bd
       0.04686567 -0.26917124 0.16984612 -0.08189099
000190 e9 27 06 3e bd dc e5 be 24 2a ca 3e 4c 69 12 3d
       0.13101162 -0.44894972 0.39485276 0.03574495
0001a0 be 41 65 be 34 87 c8 be e7 b5 0a 3f 0f 74 de 3d
       -0.2238836 -0.39165652 0.5418381 0.1086198
0001b0 3a fa 14 3e 97 38 3c bd 73 75 eb 3c 0b 06 12 3e
       0.14548579 -0.045952406 0.028742528 0.14260118
0001c0 61 6b 7a 3e e6 cf 87 be 5a 8e 0d 3d 4f b5 6f 3e
       0.24455024 -0.265258 0.034559585 0.23409007
0001d0 95 78 2a 3e 0a 4c 0e 3e cc fc 3a be 3c 86 13 be
       0.16647561 0.13896194 -0.18260497 -0.14406675
0001e0 ef 8c e7 bd 26 95 7a 3d 8d 7f 84 3e ff 0b 88 be
       -0.11306178 0.061177395 0.25878564 -0.26571652
0001f0 50 c2 58 3e c7 9f fc bd f1 0c a9 be 04 4e d0 bd
       0.21167874 -0.123351626 -0.33017686 -0.1017113
000200 21 ee 74 3e ba 70 9a 3e 96 ed 4c be 43 88 6f 3d
       0.23918964 0.3016413 -0.20012507 0.05847956
000210 82 c5 b6 3e 35 6c 69 3e 6e a6 f9 3d 79 98 e5 3d
       0.35697562 0.22795184 0.12189947 0.112107225
000220 5e 2f fd 3d e2 d9 2d bc 6b 55 f3 be 8c 90 fb be
       0.1236255 -0.010611029 -0.47526106 -0.49133718
000230 70 e1 c2 bc 9c b8 67 3d 90 8e 8d be 3b 0c 96 3d
       -0.023789138 0.05657254 -0.2764783 0.073265515
000240 b0 eb c5 3c 72 f4 df 3c c3 8c 08 be 84 b3 6a 3d
       0.024160236 0.02733824 -0.13334946 0.057300106
000250 61 9d 2e 3e 5c 70 b4 3e 8e 93 57 be 5d 58 bf 3e
       0.17052223 0.35241973 -0.21052381 0.37372103
000260 b5 5c e2 bd 75 10 5e 3d 9c 37 e0 be 39 35 3f be
       -0.11052839 0.054214913 -0.43792427 -0.18672647
000270 1c 9f 9f be 14 78 e8 bd 8d db 58 3e 04 aa 85 3d
       -0.31176078 -0.11351028 0.21177502 0.065265685
000280 3a df 6e be b1 1a 6d 3e fe a5 d5 3d ca 4b bc 3e
       -0.23327342 0.23154713 0.10432051 0.36776572
000290 5d 9c 8c be d5 d6 b1 3d 3c 7b 52 be be b4 82 3c
       -0.27463046 0.08683554 -0.20554823 0.015955325
0002a0 47 16 02 bf d5 1c 9a be 58 80 65 be 23 1b 19 3e
       -0.5081524 -0.30100122 -0.2241224 0.14951758
0002b0 19 97 14 bd e1 99 9b 3d 45 b7 a8 3e 9f 6b ed 3e
       -0.03627691 0.075977094 0.32952324 0.4637117
0002c0 da 1a 99 3d 3e 18 84 bd 87 44 5b be 3b f7 ab 3e
       0.07475825 -0.06449936 -0.2141286 0.3358706
0002d0 cd 4b 12 3e 79 21 fe 3d 38 df 65 be 16 c1 1f be
       0.14286728 0.12408728 -0.22448432 -0.15601
0002e0 a7 60 02 3d c0 62 bd 3e 7c 86 2f be 59 c5 85 be
       0.031830456 0.36989403 -0.17141145 -0.26127127
0002f0 e2 f5 0a 3e 72 d9 06 be ec 26 24 3e 77 e8 5b be
       0.1357036 -0.13168886 0.16030473 -0.21475397
000300 54 bb b9 3c ea 39 bb bd 50 e7 ae 3e 89 97 bb be
       0.022672333 -0.091419056 0.34160852 -0.3663905
000310 e0 0c 62 3e 2c e5 1e bd 93 39 bc 3e f4 1d ee be
       0.22075224 -0.038792774 0.36762676 -0.46507227
000320 ae 4d 45 3e 37 27 b3 be 09 aa a0 3e 4c 26 a7 be
       0.19267914 -0.34990856 0.31379727 -0.32646406
000330 3f 6a aa bb 09 99 10 3e 65 61 62 be 93 df 4c 3e
       -0.005200654 0.14120878 -0.22107466 0.20007162
000340 10 b0 45 be 53 db 7d 3e d4 b3 41 be 6f c2 92 3e
       -0.19305444 0.24790697 -0.18916255 0.28663966
000350 d2 4c 12 bf c4 99 44 3e 0d a3 26 bd 15 c0 96 3e
       -0.5714847 0.19199282 -0.04068284 0.29443422
000360 96 4e 0f 3e e0 f7 36 be fa 55 30 be fa 27 94 3e
       0.13994822 -0.17867994 -0.17220297 0.2893675
000370 23 de c1 be 11 96 a3 3e 8a 3f d9 be 4e 62 48 be
       -0.3786479 0.3195043 -0.4243129 -0.1956875
000380 18 e7 6f 3e 0f f6 04 ba c8 60 4f bc c2 ea ca 3e
       0.23427999 -0.0005072066 -0.012657352 0.3963223
000390 4e 11 37 3e 11 38 df 3e d5 25 8a be 4b b6 8d be
       0.17877695 0.43597463 -0.2698199 -0.2767814
0003a0 02 c2 8c 3e 1e 71 3f 3e 71 34 af be c9 0f dd 3c
       0.27491766 0.18695495 -0.34219697 0.026985066
0003b0 40 27 a4 be a7 5a a2 3e eb 4e 1f be 6e 87 c6 be
       -0.32061195 0.31709787 -0.15557449 -0.387752
0003c0 2c 6c 82 be 68 ba 05 bd a5 fd 26 3e 6f f8 65 3d
       -0.25473154 -0.032648474 0.16307695 0.056145128
0003d0 1f 88 b1 be c3 7a 09 be be 60 da be 33 d2 95 be
       -0.34674165 -0.13425736 -0.42651933 -0.29261932
0003e0 27 2b 26 be 00 05 a3 3e 5c 80 ba 3e 52 ea 69 3d
       -0.16227399 0.31839752 0.36426055 0.05710823
0003f0 2a 2c 17 bd 26 85 33 3e e4 22 3d be 6e db 95 be
       -0.036907353 0.17531261 -0.18470341 -0.29268974

conv1.bias f4 [32]
000000 7c bb bd be 8e 4a 10 bd 69 99 d4 be 41 97 d0 bd
       -0.37057102 -0.03522735 -0.41523293 -0.101850994
000010 d1 82 b6 be b6 0f d9 be 0f 57 00 bf ca d5 07 3e
       -0.3564668 -0.423948 -0.5013284 0.13265148
000020 c8 5f ad 3d 2c ac b5 be e4 9b b4 be ad 3f af bc
       0.084655344 -0.3548292 -0.35275185 -0.021392668
000030 84 71 42 3c b6 64 68 be c5 58 b5 3d 69 bd 93 be
       0.011867885 -0.22694668 0.08854822 -0.28855446
000040 e7 ae a8 bd 6a ee da 3d 59 16 2d be 6f ea f0 be
       -0.08236485 0.10690005 -0.16903056 -0.4705386
000050 80 45 ff be 9c 95 2a bf 6b bc 05 3e 49 92 13 bf
       -0.49857712 -0.66634536 0.13060157 -0.5764509
000060 88 93 d3 3c 4a 8f ff bd 64 bb d4 be 60 04 ec be
       0.025827184 -0.12478502 -0.41549218 -0.46097088
000070 a5 1f 13 3e e5 a3 d6 be 7f 90 bd be 61 70 ba 3d
       0.1436754 -0.41921917 -0.37024304 0.09103466

conv2.weight f4 [32, 32, 2, 2]
000000 a9 63 83 be 28 55 55 3d 7e 3b e7 bd a6 0b d7 bd
       -0.25661972 0.052083164 -0.11290644 -0.10500269
000010 6d 78 5f 3d 12 47 66 3b 02 82 89 3b 60 34 2a 3d
       0.054558206 0.0035137576 0.0041964063 0.041553855
000020 7f ee 21 bd d5 dd cb bc 2a c1 f8 bd 9f 20 dc bd
       -0.03953409 -0.024886051 -0.12146218 -0.107484095
000030 ef 0b 27 bd 8c 0b ed bd 26 b2 01 3d 3c 9f ac bd
       -0.040782865 -0.11574468 0.031664036 -0.08428809
000040 3c b0 a5 bd d6 a2 90 3d 0e 76 01 be cc e7 4c be
       -0.08090255 0.070623085 -0.1264269 -0.20010298
000050 20 c0 0d bc 82 8b 25 3d 1c 5a b0 bc 97 ff e2 3d
       -0.008651763 0.04041625 -0.021527342 0.11083906
000060 62 bd 52 bc e2 6d 17 3d 03 d6 ab bd b8 b1 d3 bb
       -0.012862535 0.036970027 -0.08390429 -0.0064603947
000070 53 57 b2 be 11 9e af be 72 de 59 bd d4 66 f4 be
       -0.34832248 -0.34300283 -0.053190656 -0.47734702
000080 11 6b ae 3d ae cb 85 3d 0a b2 0b 3e 4c b6 89 3e
       0.08516515 0.065329894 0.13642135 0.26896894
000090 19 3a 94 3d c3 3f 16 be 13 23 a9 3d b7 af f8 3c
       0.07237644 -0.1467276 0.08258643 0.030357225
0000a0 d3 58 f9 bd 6a d1 55 3d e0 f2 3c 3d 20 a5 bd bc
       -0.12175145 0.052201666 0.04613006 -0.023150027
0000b0 51 dd fa bd 27 75 7c be c0 e5 06 3e 52 07 24 be
       -0.12249244 -0.24654065 0.1317358 -0.16018417
0000c0 f7 e4 95 3d e5 7a 99 bd 32 06 44 3d 4d c1 64 be
       0.07319062 -0.074941434 0.04785747 -0.22339363
0000d0 7c 83 d7 3c e9 84 09 3d 0a 89 0d bd 6d 72 f1 bd
       0.026307814 0.03357402 -0.03455452 -0.11789403
0000e0 8a 95 ab 3d 0c c3 b4 3c a4 14 13 3e 57 bc c5 3d
       0.08378132 0.022065662 0.14363343 0.096550636
0000f0 c1 28 4c bd 71 34 9a 3e b2 11 0c be 7b 33 ef bd
       -0.049843553 0.30118135 -0.13678625 -0.11679741
000100 b6 31 10 3e c0 67 5b bc a4 11 5a be be da 6c 3d
       0.14081463 -0.013391435 -0.21295792 0.057825796
000110 58 03 2f bd 93 f9 7d be d5 9f fe 3c 08 ee 80 bc
       -0.0427278 -0.24802236 0.031082073 -0.015738502
000120 06 86 ba 3c cb b4 a5 3d 6b b0 8b bd c6 15 52 be
       0.022768985 0.08091124 -0.068207584 -0.20516118
000130 46 fd 71 be 1e ef bc be 99 a8 b9 3d 04 a4 c7 38
       -0.23631772 -0.36901182 0.090653606 9.51961e-05
000140 17 d1 92 3e 55 e1 ac 3e a8 9c e8 be 10 bc 59 be
       0.28675148 0.33765665 -0.4543202 -0.21263146
000150 04 02 9b be 10 4d 45 be 31 d5 92 bd 0d 09 7b be
       -0.30274975 -0.19267678 -0.07169569 -0.24515171
000160 74 c8 aa bd 13 c9 26 bc ba 69 87 bd f2 c1 6a bc
       -0.08339015 -0.010179776 -0.066119626 -0.014328467
000170 f2 9a 03 3f 24 fa 6a 3e 56 0a 61 be 85 b8 91 be
       0.514083 0.22946984 -0.21976599 -0.2846109
000180 6b 30 9d be 41 61 e0 3d 8f 2b fb 3d 99 02 9a be
       -0.30701002 0.1095605 0.122641675 -0.30080107
000190 c2 c2 de 3d c0 56 fb 3d c4 6b 4c be 6a f1 78 be
       0.10876991 0.122724056 -0.19962984 -0.24310842
0001a0 4c f5 4e 3c fc 00 8a 3e d5 bb 79 3d 69 37 19 bd
       0.0126317255 0.26953876 0.060970146 -0.03740636
0001b0 2e 62 b8 bc af 8e 2d 3d 53 14 7c bb 12 9d 0b bd
       -0.022507753 0.0423724 -0.0038464263 -0.03408534
0001c0 e9 97 f5 3d a3 57 21 3e 9e b1 4c 3e 26 04 a4 3e
       0.11991865 0.15756087 0.1998963 0.32034415
0001d0 9d 88 1f bd fb bf 88 3e 94 76 ba be 89 4d 72 be
       -0.038948644 0.2670897 -0.36418593 -0.2366239
0001e0 aa 51 5e be e6 c4 24 3e 1f a6 39 be f6 d4 7d 3d
       -0.2171084 0.16090736 -0.18129776 0.061970674
0001f0 94 c4 0d 3e 49 52 ba bd cb 00 c3 3d 2a 9d c5 3d
       0.1384452 -0.09097726 0.095216356 0.09649117
000200 93 e9 9a be 5c 90 c1 bd 28 9d 80 be fe 82 92 be
       -0.30256328 -0.094513625 -0.251199 -0.28615564
000210 d2 90 be be e6 e4 6b be d5 21 9e be 37 e3 b4 be
       -0.37219864 -0.23036537 -0.30885187 -0.353296
000220 38 13 bf be 29 1b ed be af 79 03 bf 01 65 a7 be
       -0.3731935 -0.46309784 -0.5135755 -0.32694247
000230 99 19 2a be 44 62 99 be 55 44 b9 be a7 62 b4 be
       -0.16611327 -0.29957783 -0.36184946 -0.35231516
000240 65 64 83 be c6 dd 8f be 1b cd 80 be 2f 67 a9 be
       -0.25662532 -0.28098887 -0.25156483 -0.33086535
000250 ba 0b 3c 3e c7 af 46 3e 8b 2a 29 3e c6 0b 5f 3e
       0.18363848 0.19402991 0.16520135 0.21781835
000260 3b 9a a1 be db a5 96 be 81 1a 87 be 70 f0 93 be
       -0.3156298 -0.29423413 -0.26387408 -0.28894377
000270 a3 e4 a5 be 88 26 6c be 9e e4 07 bf 87 d4 b8 be
       -0.32400998 -0.23061574 -0.5308322 -0.36099645
000280 6f 56 ed be c5 4d 2b be e3 47 d1 be f6 11 b6 be
       -0.46355006 -0.16728885 -0.40875158 -0.35560578
000290 41 58 d0 bc 4f 1f 2b 3c ab 20 0b be 1c ac 3a 3d
       -0.025432708 0.010444476 -0.1358668 0.045574293
0002a0 2b 6f 80 3b 98 b3 b5 bd df 24 1a bc ab ee c5 3d
       0.0039195023 -0.088721454 -0.009408205 0.09664663
0002b0 cd 94 19 3e 86 12 36 3e 1d 0a 14 3e f4 54 75 3e
       0.14998169 0.17780504 0.14456983 0.23958188
0002c0 48 25 eb be 80 17 09 bf 28 1b 29 bf 6e 69 e5 be
       -0.4592688 -0.53551483 -0.6605706 -0.44807
0002d0 7d 8a 49 bd ad 65 04 be c2 d5 35 bd 5d f5 96 bd
       -0.04920434 -0.12929411 -0.04439331 -0.07371018
0002e0 0f 98 b7 bd f5 53 88 be 21 99 87 bb 2c e6 26 be
       -0.0896455 -0.26626554 -0.0041381274 -0.16298741
0002f0 5e ec 41 3e 0b e6 26 3e 73 fa 5b 3e 42 0e 6b 3e
       0.18937823 0.16298692 0.21482258 0.22954658
000300 97 a2 83 be 73 8c 75 bd cf 7b 9d bd 26 4d 70 bd
       -0.25709984 -0.059948396 -0.0768963 -0.058667324
000310 5a 91 70 be dc 52 5b be 20 df 7d be a6 38 88 be
       -0.23492947 -0.21418327 -0.24792147 -0.2660572
000320 13 39 b5 3c a9 9b f1 3c 1a 47 af 3d 21 d5 05 3d
       0.022121942 0.02949317 0.085584834 0.03267396
000330 d0 9f 25 be 31 0d 64 be 7b 31 51 bd b5 de 1c be
       -0.16174245 -0.22270657 -0.05107258 -0.15319331
000340 1a 9c ac 3e b6 35 c7 3e 49 e8 9f 3e 87 3d de 3e
       0.33712846 0.38908166 0.31231907 0.43406317
000350 dd 60 2a 3e b6 53 8d 3b 06 bd 76 3e 03 58 e2 bb
       0.16638513 0.0043129576 0.24095544 -0.0069074645
000360 8a 53 db be 41 38 ed be 6a 65 18 bf d1 10 b1 be
       -0.42837173 -0.4633198 -0.59529746 -0.34583142
000370 58 fc 5b be 20 d9 87 be d3 55 86 be ae 83 82 be
       -0.2148298 -0.2653284 -0.26237354 -0.2549109
000380 dc b6 ef be e9 f0 ba be 4e a3 14 bf bf a8 d5 be
       -0.46819198 -0.36511925 -0.58061683 -0.41730306
000390 d4 78 67 3d fc 96 18 bd 1b 5e a5 bd db c6 fb bc
       0.056511715 -0.037253365 -0.0807459 -0.03073447
0003a0 8b ba 23 be 84 3c 01 be da 0f 22 be fa 8b 5a bc
       -0.15989129 -0.12620741 -0.1582636 -0.013339037
0003b0 47 bd 45 bd 77 c1 24 3b d4 39 ec 3b 82 7f 4d bc
       -0.048276212 0.0025139728 0.007209042 -0.012542607
0003c0 0c b4 14 be 2a 28 46 3c 56 3e 2c bd a8 10 19 bd
       -0.14521807 0.012094537 -0.042051636 -0.0373694
0003d0 57 ee 93 bc 65 e9 49 3d ef 69 dd bd e1 da bd bc
       -0.018057985 0.049294848 -0.10811221 -0.023175659
0003e0 58 9b cb bc 96 8f 07 bd 70 d4 ad 3d 41 97 54 3d
       -0.024854347 -0.03309592 0.08487785 0.05190206
0003f0 0f f8 ca be 6f e2 92 be 6b 9f 83 be 3b aa a5 be
       -0.3964238 -0.2868838 -0.25707564 -0.32356438

conv2.bias f4 [32]
000000 23 79 3f 3d f6 89 7d bd fc 83 d9 bd 41 00 1b be
       0.046746384 -0.061899148 -0.10620877 -0.15136816
000010 b3 75 d0 3d d5 1a b9 bd 6b d5 14 be f8 f8 30 3e
       0.10178699 -0.09038321 -0.14534537 0.17282474
000020 73 f7 7a bd 4f 76 07 3e fb d1 2d be 15 bc 2a 3e
       -0.061271142 0.13228725 -0.16974632 0.1667331
000030 23 e7 b6 3d 79 40 e6 bd 6e 15 e4 be 9b 81 eb bd
       0.089308046 -0.11242766 -0.445476 -0.1149933
000040 e9 28 2c 3c e3 f7 5e 3b d1 41 59 3d 47 56 e5 3d
       0.010507801 0.0034022264 0.053041283 0.11198097
000050 f0 bc f0 3c 17 77 57 be 9f 88 46 3d 3f 55 2c 3e
       0.029386967 -0.21041523 0.048470136 0.16829394
000060 38 ea 7e bd fc b1 28 3e 76 4a 96 bb c1 0a 00 be
       -0.062235087 0.16474146 -0.004586513 -0.12504102
000070 72 f2 b4 3b 98 7e 80 3e 2b 1e 84 3e c0 32 fc bd
       0.005522066 0.25096583 0.25804266 -0.12314367

conv3.weight f4 [64, 32, 2, 2]
000000 a7 e8 ba bd 43 5e a6 3d dc cc f3 3c 3f ea 8d 3e
       -0.09126406 0.08123448 0.02976077 0.27717778
000010 25 44 d8 bc 25 0a 44 be 85 33 22 3e 20 a3 7b be
       -0.026399681 -0.19144495 0.15839966 -0.24573946
000020 cc 5b 74 3d 78 f5 95 3d bb 6d b9 3d 7e 3d f6 3c
       0.059657857 0.0732221 0.090541326 0.030058619
000030 46 3a 06 3d 1a 0c 71 bd 7a e1 6d 3c 6b 12 08 bd
       0.032770418 -0.05884943 0.01451909 -0.03322069
000040 2d 79 a0 be f3 57 99 be 77 ba f9 bd d9 f1 4f be
       -0.3134245 -0.29949912 -0.121937685 -0.20307101
000050 db e2 92 bd b8 cf 45 3d 96 24 6f bd cd e0 28 3d
       -0.071721755 0.0482938 -0.0583845 0.04123001
000060 f9 c9 f4 3c d2 81 05 bd 97 37 3e bd 6d 4a 86 bd
       0.029881464 -0.03259451 -0.046439733 -0.06557164
000070 4e ff 29 be 65 bb 5f be be cb 84 be 52 0a fd be
       -0.16601297 -0.21848829 -0.25936693 -0.49421936
000080 ca 2a ed bc 0b 1d bd bd 26 04 d6 3c 76 55 ce bc
       -0.028951067 -0.09234055 0.026125025 -0.025187235
000090 f8 63 5f 3e ce ed c5 bd 00 5b 1d 3e cd 82 c9 be
       0.21815479 -0.09664498 0.15366745 -0.39357606
0000a0 76 a4 2f 3e 5f 6a 9e 3e a8 54 68 3e f7 72 9a 3e
       0.1715258 0.3094053 0.22688544 0.30165836
0000b0 2e 2a da 3d f4 95 13 3e 24 74 d0 3d 83 9c 87 3d
       0.106525764 0.14412671 0.10178402 0.06621649
0000c0 0b 5c 00 bc c4 17 8d be 7e 46 c2 3e f8 b0 4b 3c
       -0.007834445 -0.27557194 0.37944406 0.012432329
0000d0 f0 93 f6 3d a5 76 2b 3e 3b 46 18 bc a9 f3 de be
       0.120399356 0.16744478 -0.009294088 -0.43545273
0000e0 7a 50 c1 bd 16 7e 31 bd c3 7b e1 3c fc fa 4b be
       -0.09439178 -0.043333136 0.027524834 -0.19919962
0000f0 f3 15 ea 3d 22 e3 9b 3d 2e 2c 70 3d 49 c8 49 3d
       0.11429968 0.076116815 0.058635883 0.049263272
000100 7c 37 8b 3d 1d 71 76 3d a7 0e b5 3d 3f 93 28 bc
       0.06797692 0.060166467 0.08840685 -0.010289012
000110 53 ce 3b 3d 94 a0 8b 3d 45 5c df bd 2a 0f ca bd
       0.045851063 0.06817737 -0.10906271 -0.098661736
000120 67 42 2c 3e ac 96 a8 bc bd 4d df bd 7b 14 8c bd
       0.16822205 -0.020579658 -0.10903499 -0.06839844
000130 0d 43 b1 3e 9d 21 c1 bc 83 6b c7 3d 36 4b 67 3d
       0.34621468 -0.023575598 0.09737303 0.05646821
000140 26 c8 86 be 09 5b 43 3d 0c 0b 10 bd bb ca 27 3e
       -0.26324576 0.04769424 -0.035166785 0.1638593
000150 b0 89 48 3e 9c b4 1e 3e 13 9a 25 bd 99 de ca 3d
       0.19583774 0.15498585 -0.04043014 0.099057384
000160 40 4e ca bd 9c 73 d7 bc a5 51 4b bd 6e 3b 8d 3c
       -0.09878206 -0.026300244 -0.04963841 0.017240252
000170 84 26 ca be 3f ff ff bd 84 6e bd 3e 24 0f 82 3e
       -0.3948251 -0.12499856 0.3699838 0.25402176
000180 f5 83 1b 3e ef 00 8f be 13 40 9b 3e 14 56 52 be
       0.15187056 -0.279304 0.30322322 -0.20540649
000190 14 4f b6 3e a3 85 34 be 98 94 76 3d d3 aa 9c be
       0.35607207 -0.17629103 0.060200304 -0.3059908
0001a0 a3 3f 92 3d 95 2f 52 be ae 7a 31 be 85 3c 1d be
       0.07141044 -0.20525964 -0.17331955 -0.15355118
0001b0 f4 8e 89 3d 7e d2 50 3c 09 99 a2 bd 3b 25 30 bc
       0.06716719 0.012745498 -0.079393454 -0.010751064
0001c0 5e c8 7a 3d c7 f2 7a 3d 4d da a1 3d 86 94 28 3c
       0.06122624 0.061266687 0.07902966 0.010289317
0001d0 97 2d 3d 3e 6b f5 fb bd 53 1b 4f 3d 85 29 f8 bc
       0.18474422 -0.12302669 0.050563168 -0.030293236
0001e0 32 78 98 3d f6 e8 6a 3e 2b 61 db 3d 13 f2 48 3e
       0.074448004 0.2294043 0.10711893 0.19623594
0001f0 88 9d 25 3c 35 02 85 3c 22 88 d8 3d a5 06 35 bd
       0.010108359 0.016236404 0.1057284 -0.04419579
000200 ec 50 0c be 6e 18 df be f8 7f 15 3e e3 35 41 3d
       -0.13702744 -0.43573326 0.14599597 0.04717053
000210 ec 39 2f 3e 6c e3 1d be 86 a6 48 3e 9a 51 d5 3d
       0.17111939 -0.15418786 0.19594774 0.10415955
000220 72 73 1b 3d 16 db 32 3b 5f 7e d6 bd e5 ef a5 bd
       0.037951894 0.002729123 -0.10473322 -0.08102397
000230 be fa 80 bd fb 16 d0 bd cb 13 15 3d ed 11 75 3d
       -0.06297825 -0.10160633 0.03639583 0.05983155
000240 1e b5 cd bd 9b ab ce bd cd 6c 41 be f1 bd f2 bb
       -0.10044311 -0.10091325 -0.1888916 -0.0074078967
000250 74 d6 f1 bb 78 f6 d1 bc f0 33 d1 bc 0b ce 75 3d
       -0.007380301 -0.02563022 -0.025537461 0.06001095
000260 ce b4 71 bc 3f e1 d1 3c b4 80 6d 3d c5 ad 16 3d
       -0.01475258 0.025620101 0.05798407 0.036786813
000270 6e 31 0b bd a4 c1 9b be cc 40 4c 3d 9c b2 67 be
       -0.033982687 -0.30421174 0.049866483 -0.22626728
000280 67 b3 0c bc f4 63 63 3c 4d c7 6e bc 9e 0e 9b bc
       -0.008587695 0.013878811 -0.014573884 -0.018927868
000290 9d 31 95 3d b9 6e 06 3e eb 45 1c be d7 95 5e be
       0.072848536 0.13128175 -0.15261047 -0.21736847
0002a0 e5 f2 27 bd 1f d4 88 3d 22 53 70 be 72 49 cb bd
       -0.041003127 0.06681084 -0.23469213 -0.09926118
0002b0 ab 75 9b 3d 8e 9b b0 be 2a f3 ab 3e e0 d3 90 bd
       0.07590803 -0.3449368 0.33583957 -0.07071662
0002c0 17 c9 69 3e f7 93 6f 3e d4 6f 83 bd 14 99 59 be
       0.22830616 0.23396288 -0.06417814 -0.21249801
0002d0 eb 5a 89 3d af fb d6 3b c5 e0 82 3d b4 2a 28 3e
       0.06706794 0.0065607647 0.06390528 0.1642254
0002e0 d6 59 7c be bf 45 07 bd 92 13 3c be 65 9e ee ba
       -0.24643645 -0.0330255 -0.1836684 -0.0018205164
0002f0 d8 31 fc bc a2 0e 9e 3d 8f a0 1c bd 33 45 ac 3c
       -0.030785486 0.07717635 -0.038239058 0.02102909
000300 25 30 24 3e c9 10 79 3c 46 71 21 bc 67 12 54 3d
       0.1603399 0.015201756 -0.009853667 0.051775362
000310 74 1c 83 bc 99 70 8c bd 4e ea 9c bd e4 8c a4 3d
       -0.016004778 -0.06857414 -0.076618776 0.08034685
000320 95 c4 84 3d b2 ff 76 bd b6 26 a8 be e8 28 2b be
       0.064828075 -0.060302444 -0.32842034 -0.16714823
000330 18 32 93 bd 14 81 37 3d f6 43 ff be d2 6a 08 bd
       -0.07187289 0.044800833 -0.49856538 -0.033304997
000340 3d 06 17 be 6a ad f4 b9 3b da af be f7 e5 9f be
       -0.14748473 -0.0004666851 -0.34346184 -0.31230137
000350 4e f8 62 bd 89 ed bb bc 78 b2 c1 3c 67 15 04 3e
       -0.055412583 -0.022940414 0.02364467 0.1289879
000360 95 87 db 3d 5f 6f d7 3d 91 9c d4 3d 6d 3a 3f 3e
       0.107192196 0.10519289 0.10381425 0.18674631
000370 06 05 2c be 3c 3a 47 be 44 59 6b 3e a5 ba 6a 3d
       -0.16798791 -0.19455808 0.22983271 0.057306904
000380 e7 cf 6a 3e 09 c5 7e 3e 6d 09 b6 bd 4a 8e 05 bd
       0.22930871 0.2487985 -0.088885166 -0.0326064
000390 9e ec 50 3e 10 dc 7e 3d ab 65 0b be 76 16 53 be
       0.20402762 0.062221587 -0.13613002 -0.20614037
0003a0 ad f0 47 be 86 99 37 bf a0 fb 12 be 93 2d c3 be
       -0.19525404 -0.71718633 -0.143538 -0.38120708
0003b0 46 72 8e 3c 5e 56 9a bd 10 37 1a 3d 2f fe a7 3d
       0.017388474 -0.075360045 0.037650168 0.082027785
0003c0 ae 8d c0 3d 02 00 b8 3d 7b 73 b0 be 4c 70 ae bd
       0.09402023 0.089843765 -0.34463105 -0.08517513
0003d0 71 40 9e 3d eb 63 50 3e 54 c9 29 be c7 cc 1e 3e
       0.07727135 0.20350616 -0.16580707 0.15507804
0003e0 07 46 3c 3e 7d a6 ae 3d 8f 89 f6 bb 05 ea 21 bf
       0.18386088 0.08527849 -0.0075237225 -0.6324771
0003f0 02 2c 5e bd e3 77 01 3d 3a 3d 70 bd c1 77 c7 3b
       -0.054241188 0.031608474 -0.05865214 0.006087274

conv3.bias f4 [64]
000000 f0 79 99 3a e4 9c b4 3e 99 fd 09 3e 8f de c6 be
       0.0011709314 0.35275948 0.13475646 -0.38841674
000010 c6 71 75 3d e4 8d de bc ab f2 d3 3d 95 f2 13 be
       0.059922956 -0.027167268 0.103490196 -0.14448006
000020 4f 0a da 3d 27 f7 1f 3e 08 fe aa be cd 63 ba bd
       0.106464975 0.15621625 -0.33396935 -0.09101067
000030 7a 61 5c 3d 64 a7 fd bd 76 73 01 3e 25 2e 20 3e
       0.0538039 -0.12385443 0.12641701 0.15642603
000040 1c 47 34 bd 69 af 4d 3c b5 b4 96 3d e6 2d b5 3d
       -0.044013128 0.012554028 0.07358686 0.08846645
000050 a2 ff a7 3d 25 35 cf 3c e9 28 f9 be ff 79 0f be
       0.08203055 0.025293896 -0.48664024 -0.14011382
000060 47 c1 4e bc a6 e4 08 be da 00 9e 3e c0 fa 80 3d
       -0.012619323 -0.13368472 0.30860025 0.06297827
000070 af f1 7a 3e 83 71 0e 3e 7f 90 d9 3d ec 40 5e 3e
       0.24506257 0.13910489 0.106232636 0.21704453
000080 b7 5b 55 bd 19 03 77 3e ef 2b 55 bd 8c 89 5f be
       -0.05208942 0.24122275 -0.05204385 -0.21829814
000090 75 ae 3a 3d b5 49 8f 3e da 6b 54 be 43 c1 82 bc
       0.04557653 0.27985922 -0.20744267 -0.015961295
0000a0 07 59 29 3d bb de e1 3d 3f 7d 30 3d ae 69 2a be
       0.04134467 0.110288106 0.043088194 -0.16641876
0000b0 ed df d4 3d d3 5e 0b bd 35 33 1d 3d 48 a9 a6 3d
       0.10394273 -0.03402598 0.038378913 0.081377566
0000c0 b4 97 da bd 42 b9 1d bd 5d b9 b7 3d 49 f7 c2 bd
       -0.10673466 -0.038506754 0.08970902 -0.09519822
0000d0 5d 6c bb 3d 59 5c 42 be 7b 4b 13 3e a7 92 48 3c
       0.09151528 -0.1898054 0.14384262 0.012241996
0000e0 fd ea d9 bd 0d ba 92 3d 70 24 06 be aa 37 4d be
       -0.106405236 0.071643926 -0.13099837 -0.20040765
0000f0 61 db c8 3d a5 73 32 3b 8d c7 0d be d2 3f 89 bd
       0.09807468 0.0027229574 -0.13845654 -0.06701626

conv4.weight f4 [64, 64, 2, 2]
000000 6f 01 35 3e 32 e1 31 be ce 21 95 bd 5a c3 09 bf
       0.17676328 -0.17371061 -0.07281838 -0.5381371
000010 58 4d 80 bd bb b5 7c 3e ac f7 4e be 3e bb b5 3d
       -0.06264752 0.246787 -0.20211667 0.08873604
000020 57 01 d2 be 98 90 82 3d ab 72 b1 be ac c2 88 bc
       -0.41016647 0.06375235 -0.34657797 -0.01669439
000030 5d a6 61 be ed 09 64 be d2 ca 09 be 80 ff 46 be
       -0.22036119 -0.22269411 -0.13456276 -0.19433403
000040 ec 7a 1c 3e 02 4a d7 3d 44 49 f4 3d 3f 2c c2 be
       0.15281266 0.10512163 0.11928037 -0.37924382
000050 d7 4e 78 bc 93 9e 8b be 42 e8 f2 bb 63 0c 79 bd
       -0.015155516 -0.2726942 -0.007412941 -0.06080283
000060 8c e8 12 bd 62 ba 16 bf 07 56 ec 3d 66 fa 25 be
       -0.035866305 -0.5887815 0.11539846 -0.162088
000070 72 c6 8d bd 45 84 b3 3d f6 3b 50 3e 24 1c f4 3b
       -0.06922616 0.08765463 0.20335373 0.0074496437
000080 59 da 74 3e 7f 74 0c be 8c 73 ac 3e fc 5a 70 bc
       0.23911418 -0.13716315 0.33681905 -0.01467013
000090 aa 3c 79 be 99 c9 9c be 6e df a6 bd 29 ce 06 be
       -0.24339548 -0.30622557 -0.081480846 -0.13164581
0000a0 09 37 59 be f6 31 2f bd 5c 5b 88 be d2 ca c2 be
       -0.212124 -0.042772256 -0.26632202 -0.38045365
0000b0 77 f0 ec be c0 45 8b 3d b1 b5 b9 be ff 1a de be
       -0.4627721 0.06800413 -0.36271432 -0.4337997
0000c0 dd 6b 7e be f7 b2 b1 bc 89 5b a5 bd 21 c9 96 be
       -0.24845834 -0.021691782 -0.080740996 -0.29450324
0000d0 c1 f6 27 bd f6 07 b0 bd 4e cf c0 3c 43 3f c2 bd
       -0.041006807 -0.085952684 0.02353635 -0.094847225
0000e0 98 5e 3c 3e 59 3b 51 3d 5d 49 e0 3e c6 ea 90 3e
       0.1839546 0.05108199 0.43805972 0.28304118
0000f0 17 6b bc bd 41 36 17 be e8 63 49 3e 1a 49 f6 3c
       -0.09200113 -0.1476679 0.19667017 0.030064154
000100 d5 15 df bc b2 5b c8 3d 59 3e 75 be 0b 4e 0e 3b
       -0.02723209 0.097831145 -0.23949565 0.0021713998
000110 8c 14 3b be 12 30 50 bd da 9e 1c be 8a 4b b4 be
       -0.18269557 -0.050827093 -0.15294972 -0.35213882
000120 9a 22 00 3e 52 af 3e be 74 7e a6 3d 0e 94 c5 3c
       0.125132 -0.18621567 0.08129588 0.02411845
000130 53 f1 c4 be a2 a5 b7 bd 39 9b 96 be 07 67 2d 3b
       -0.38465366 -0.08967139 -0.294153 0.0026459114
000140 b5 3b 62 bd 6a 8e a7 3e 3d 03 02 bc 78 62 a5 3d
       -0.055232722 0.3272584 -0.007935342 0.08075422
000150 28 bc 06 bf 61 4f 98 3e 39 cf 11 be 4a 26 01 be
       -0.52630854 0.2974806 -0.14239205 -0.12612262
000160 b3 7d aa 3d f8 ee 47 3d a4 e7 6f be 24 72 8a 3d
       0.083247565 0.048811883 -0.23428208 0.06760052
000170 60 02 e5 bc 2a ed 2f 3d fb 53 0b 3d 65 49 ad 3d
       -0.027955234 0.042950787 0.034015637 0.084612645
000180 9f 65 f5 be bc fd cb bd cf 50 80 be 25 a6 9c 3e
       -0.47929093 -0.09960505 -0.25061652 0.30595508
000190 a7 0c 02 3d 59 c5 90 3e 28 06 0c be b0 c3 21 3e
       0.031750347 0.28275564 -0.13674223 0.15797305
0001a0 52 0c cf 3c 44 a0 14 be fb 80 d3 3d ac a8 c7 bd
       0.02527443 -0.14514261 0.103273354 -0.097489685
0001b0 b5 f2 91 be 64 45 08 bf d5 50 1d be 84 eb b1 be
       -0.28505483 -0.5323088 -0.15362866 -0.34749997
0001c0 25 0f 10 be a9 5c b2 be 80 33 24 3d ac a7 39 be
       -0.14068277 -0.3483632 0.040088177 -0.18130368
0001d0 60 68 61 be ef e7 9c be a6 d2 00 bf a9 07 96 be
       -0.22012472 -0.306457 -0.50321424 -0.2930272
0001e0 90 cf f9 3d f6 48 38 3e b3 2a 03 3e 46 65 49 be
       0.121977925 0.17996582 0.12809257 -0.19667539
0001f0 f6 04 e3 bd 51 68 0e 3e 70 cf ad be e4 37 88 3c
       -0.110849306 0.13906981 -0.33947325 0.016628213
000200 8d 7f 2b be dd 99 c7 bd 9c 27 39 be c9 32 45 be
       -0.16747876 -0.09746144 -0.18081516 -0.19257654
000210 fc 34 c2 3d f2 82 68 be 4f ed 65 3c 79 c9 1f 3e
       0.09482762 -0.22706202 0.01403363 0.156042
000220 3f 6b e8 3b 3c af 2c bd 4d c8 81 be 38 b2 37 3e
       0.007092863 -0.042159304 -0.2534813 0.17939079
000230 e5 d4 10 be f8 a0 35 3d ee d0 dd bd b2 6a 78 3c
       -0.14143713 0.044342965 -0.10830866 0.015162157
000240 bf 2f bc bc 16 9c 03 bd 5d 35 12 3e cc eb 35 3e
       -0.022971986 -0.032131277 0.14278169 0.1776573
000250 05 35 0d 3e 10 05 ff 3d d7 21 4b 3e a1 32 fa 3d
       0.13789757 0.124521375 0.19837128 0.12216688
000260 d1 0f 8e be 70 d5 93 3b 45 0b 11 bf 4d 93 e8 be
       -0.27746442 0.0045115277 -0.5665782 -0.45424882
000270 74 01 4f be 92 65 8a 3d 76 09 69 be 2f 21 c6 bd
       -0.20215398 0.06757654 -0.22757515 -0.09674298
000280 ac 26 b9 bd 7a 0e 5a 3e f1 de c1 bd ec eb b4 3e
       -0.09040579 0.21294585 -0.09466351 0.35336244
000290 66 de 4c be 83 ee 1a bd 65 a4 1b be 3d 66 6d bd
       -0.20006713 -0.03782512 -0.1519943 -0.05795883
0002a0 83 6a ba 3d 08 2f f9 bd 3a 6d 6b bd 89 6d 72 be
       0.09102347 -0.121671736 -0.057477213 -0.23674597
0002b0 a2 0b 7e bd e5 93 4c bd 2a d0 08 bd e8 27 ff 3a
       -0.062022813 -0.04994573 -0.033401646 0.0019466849
0002c0 24 aa 00 3e c9 f5 f6 3d 87 b8 b8 3b a5 43 e3 3e
       0.12564903 0.120585985 0.0056372317 0.44387546
0002d0 42 03 dc bd f6 be 44 3c 9f 63 87 be cf c2 30 bd
       -0.10742809 0.012008419 -0.26443192 -0.043154534
0002e0 83 21 2e 3d b7 d5 93 be a6 04 4b 3e c2 55 e3 be
       0.042512428 -0.2887399 0.19825992 -0.44401366
0002f0 e4 bc a5 3d f5 bb fe be b8 11 15 3e 26 ef 1a be
       0.08092669 -0.49752775 0.1455754 -0.1513029
000300 90 15 aa be e5 e4 43 3e 3b ae 1d be 8b dc 98 3d
       -0.33219576 0.19130285 -0.15398495 0.0746394
000310 b3 84 47 3d 6f d5 8c be 2b 1a bb 3e ba e3 20 be
       0.048710536 -0.27506587 0.36543402 -0.15711871
000320 40 f9 af 3d 8d bb 30 be b1 b6 b1 3e f3 97 d3 3d
       0.085924625 -0.17259045 0.34709695 0.103317164
000330 94 39 ad bd a3 25 1a 3d 73 b1 0e 3d ec 31 8e 3d
       -0.08458248 0.03763355 0.034837198 0.069431156
000340 a1 f9 b0 3d 40 7c f8 bb 15 3a 8d 3e be 17 40 3e
       0.08641363 -0.007583171 0.27583376 0.18759057
000350 5e f4 23 3e d5 35 ae be b7 fa 59 bd bf 4f 8a be
       0.16011187 -0.34025446 -0.053217616 -0.27013966
000360 48 a3 89 3e 14 57 13 be ef 25 6e 3e 20 2a 56 3e
       0.26882386 -0.14388686 0.23256658 0.20914507
000370 99 36 88 be 06 62 17 be f2 fe fc bd ce 28 d7 3c
       -0.26604155 -0.14783487 -0.123533145 0.026264574
000380 35 52 17 3e 92 6d 69 3e bd 17 3a be 0b 70 b5 3e
       0.14777453 0.22795704 -0.18173118 0.35437045
000390 21 a3 9b be 7c fb 32 3e 2b 8b b6 be bf 24 d2 bd
       -0.30397895 0.17478746 -0.35653052 -0.10260915
0003a0 2d d9 b6 bd 08 fc d9 3d da 8f e7 3d d7 08 c6 be
       -0.08928142 0.10643774 0.113067344 -0.3867862
0003b0 5f 1c c2 bd b8 a9 c6 bd 1d 4e 37 3c 72 ce 0f 3c
       -0.094780676 -0.0970034 0.011188057 0.008777248
0003c0 be ef 10 3e 36 03 8c be 63 e3 af 3e c0 b3 cb be
       0.14153954 -0.273462 0.3435317 -0.39785576
0003d0 91 b0 1d bd d2 df bb be 84 26 7d 3e 5f af 3c 3d
       -0.038498465 -0.366942 0.24721724 0.046065684
0003e0 2c ce 96 be c8 5d 9d 3d 1b dd f4 bd f6 0f 42 be
       -0.29454172 0.07683903 -0.11956235 -0.18951401
0003f0 9b c2 14 be 29 bf e3 3c e0 eb a6 bd 3a 93 f4 3d
       -0.14527361 0.027801113 -0.08150458 0.11942144

conv4.bias f4 [64]
000000 7a 95 28 bd be 63 a4 bd 17 26 61 3d 1f 08 d1 bd
       -0.041158177 -0.08026837 0.054967966 -0.10206627
000010 e8 52 9a 3d ce ce b1 3d 4d 93 a7 bc 3b c7 31 bd
       0.07535344 0.08682023 -0.02045598 -0.04340289
000020 af 33 e9 bd c8 8a 55 3e 9c c1 c6 bd 00 20 ef 3b
       -0.11386811 0.20853722 -0.09704897 0.007297516
000030 9d b3 c8 3d 9b 35 8e 3e 1b 65 08 3e cc 10 09 3e
       0.097998835 0.27775273 0.13319819 0.13385314
000040 17 62 0a bd a2 34 0e be 17 2e 07 3e 72 47 33 3d
       -0.033784952 -0.13887265 0.13201176 0.043769307
000050 c9 c1 ab 3e 73 ab d3 3d a5 dc a1 be f0 ef 6b bd
       0.33546284 0.10335436 -0.3161365 -0.05760187
000060 be 44 bb bd c3 6c 35 3e 26 ff b1 bc 23 a9 8e 3e
       -0.09143971 0.1771727 -0.02172811 0.27863416
000070 75 8a 9c 3d 3f 7f e0 3d f4 a2 f3 bd 04 d3 13 3e
       0.07643596 0.1096177 -0.11896315 0.14435965
000080 3c e4 87 3e 3f ea cb 3d 95 7e 10 be c1 c4 0c be
       0.26541317 0.09956788 -0.14110787 -0.1374693
000090 aa 6f 60 bd a7 48 76 be 64 2f a1 be ef f1 56 be
       -0.05479399 -0.24051152 -0.3148147 -0.20990728
0000a0 5a 3e c7 3b 6d 7d 96 be bb 20 ca 3c cd 6b 73 3d
       0.006080431 -0.29392567 0.02467381 0.05942898
0000b0 c6 53 d1 3d 9f 93 f7 bd 3a 49 a6 3d a1 fc 14 be
       0.10221057 -0.12088703 0.081194356 -0.14549495
0000c0 5c 91 07 3e 4b 76 3a be 6a 98 c2 bd 55 74 8b bc
       0.13239044 -0.18209188 -0.09501727 -0.017023245
0000d0 42 47 23 3e 15 7f 6d 3e d6 88 90 3e 08 23 d4 bd
       0.15945151 0.23193009 0.28229398 -0.10358244
0000e0 3b 96 81 bd f5 58 65 3d e6 17 79 bd db 08 87 bd
       -0.06327482 0.05599304 -0.060813807 -0.06593486
0000f0 84 bd 23 3e 87 89 40 3e e2 5c d8 bd c9 5d 93 bd
       0.15990263 0.18802463 -0.10564591 -0.071956225

conv5.weight f4 [128, 64, 2, 2]
000000 fa f5 b3 bd e8 95 58 be 98 a3 f8 bd e3 27 44 be
       -0.08787151 -0.21150935 -0.12140578 -0.1915584
000010 ea c8 aa 3c e0 d8 51 bd 28 88 d9 3c 83 30 ad bd
       0.020847756 -0.05123222 0.026554182 -0.084565185
000020 d1 17 59 3e db cb ff 3c f6 91 8e 3e 46 c5 39 be
       0.21200491 0.031225136 0.27845734 -0.1814166
000030 7f e3 8d be 43 20 ea 3c 9a fb 4f be d0 e2 02 be
       -0.27712628 0.028579837 -0.20310822 -0.12781835
000040 15 d3 cd be e0 7e dc be cd aa 6e be 8f 0a d9 be
       -0.40200105 -0.43065548 -0.23307343 -0.42390868
000050 b5 33 a5 be be c6 a2 3d 0c 55 32 bd fa 58 1d be
       -0.32266012 0.07948063 -0.04353814 -0.15365973
000060 86 e3 ce bd 43 10 cc bc b5 e5 5d 3d 50 05 f5 3d
       -0.101019904 -0.024910098 0.054174144 0.11963904
000070 44 b7 6d be 5e a5 5e be 4c 37 f4 bd c2 db 8a 3c
       -0.23214442 -0.2174277 -0.119246095 0.016950492
000080 41 83 de bd 52 1a c5 be cb f7 c3 bd d5 5a 3f bd
       -0.108648784 -0.38496643 -0.09568747 -0.046717484
000090 a8 63 15 3e 91 72 c7 bb 02 ac 99 3e bb 59 8d bd
       0.14588797 -0.0060866554 0.30014044 -0.0690188
0000a0 83 97 ac be 92 b5 b0 be 16 0d 1e 3d b3 9c 24 3e
       -0.33709344 -0.34513527 0.0385867 0.16075401
0000b0 3e 83 d7 be 6a 7b 46 3d 7e 81 6b 3d 79 66 80 3e
       -0.42092317 0.04845754 0.05749654 0.2507818
0000c0 d2 59 b8 bd da e5 4b bf f5 12 8c bd f9 67 ca bc
       -0.09001507 -0.796476 -0.06839553 -0.024707781
0000d0 b1 fe 81 be 8f 80 ca bd 14 9a 74 be b7 8f 65 3d
       -0.25389627 -0.09887802 -0.23886901 0.05604526
0000e0 ad ec 5e 3c 32 b0 2e be 97 51 c7 be 0b 89 33 3e
       0.013606233 -0.170594 -0.38929436 0.17532746
0000f0 60 fc bf be 7e c6 aa 3d 2b e2 0d 3d 94 04 c4 3c
       -0.37497234 0.08338641 0.03463952 0.023927964
000100 f0 a3 80 3e cb df 18 3e 31 c3 ff be f0 c1 a6 be
       0.25125074 0.1492912 -0.49953607 -0.32569838
000110 e4 8e 49 bb 16 18 58 3c 8d 10 6f 3c e6 6f 6b 3d
       -0.0030755335 0.013189336 0.014591348 0.05747976
000120 b9 19 58 bc 4e bb e5 3d b0 b8 a0 be 3d 01 34 be
       -0.0131897265 0.11217366 -0.31390905 -0.17578597
000130 42 0d 01 3e 7d 7c a2 bd b7 ea a3 3d 6b e7 8a 3e
       0.12602714 -0.079339005 0.08003753 0.27129683
000140 ba d1 db 3d df 20 e2 bd 99 a2 cd 3d 02 80 c4 3c
       0.107333615 -0.11041426 0.10040779 0.02398682
000150 30 9b b9 bc 0d be 63 bd 03 ea 07 3c 48 f6 4f 3e
       -0.022657007 -0.05560117 0.008295539 0.20308793
000160 c5 80 ab be 2b 07 36 3d 39 af 13 bc 8d 1c a9 3e
       -0.3349668 0.04444043 -0.009013944 0.33029595
000170 13 f1 97 be 09 ff 55 be 06 75 de 3d 45 1c 8c 3b
       -0.29676113 -0.2089807 0.10862164 0.004275831
000180 59 7e 95 bd 21 01 03 bd 6d 9f 9b bd 4f e7 a9 bd
       -0.072994895 -0.0319835 -0.075987674 -0.08296072
000190 7d fa 05 be 0c f7 94 be 60 9e a7 3e 53 41 85 3d
       -0.13083835 -0.29094732 0.32738018 0.065066
0001a0 66 83 de bc 0a 43 34 3b ce 08 49 3e 10 ca fe be
       -0.027162265 0.0027505779 0.19632265 -0.49763536
0001b0 58 8b f0 3e 0a ab 33 bd 87 75 86 3e 8f ca 1c 3e
       0.4698131 -0.043864287 0.2626154 0.15311645
0001c0 f4 c3 bd 3d 6e 94 86 3c e6 21 16 3f f6 b3 ac bc
       0.09265891 0.016428199 0.58645475 -0.021081906
0001d0 3c 79 5d 3e 6e 03 18 3e a2 e9 dc 3e b7 a6 8b 3e
       0.21628278 0.14845058 0.43146998 0.2727563
0001e0 1f 4b b8 bd ac c6 f3 3b 01 8d 6f bc fd a1 b3 bd
       -0.08998703 0.007439455 -0.01462102 -0.08771131
0001f0 2a 5d 44 3e 71 e8 f2 bd bb c2 9f 3e cb c4 a5 be
       0.19176164 -0.11860741 0.31203255 -0.32376704
000200 35 83 61 bd 17 77 15 bd f8 09 c0 bd 07 1a 08 be
       -0.05505677 -0.036490526 -0.093769014 -0.13291179
000210 39 8f 9c be 95 4b 35 bc 45 f3 6b bd 88 91 83 bd
       -0.3057802 -0.011065383 -0.057605047 -0.06424242
000220 83 a3 b6 3e 82 f7 13 3f 13 ab 34 3e 6e 6c c7 3e
       0.35671625 0.5779954 0.17643385 0.38949913
000230 a0 bf b5 bd e1 19 61 3e 3a 8b 84 be 13 75 f1 3d
       -0.0887444 0.21982528 -0.2588747 0.11789908
000240 bc e5 34 3d b5 8c c7 3d 78 07 d2 3c 40 2e 84 be
       0.044164404 0.097436346 0.025638327 -0.25816536
000250 56 1c c4 be 34 89 85 be 3e 59 2d be 5b 3f 9a 3e
       -0.3830287 -0.2608124 -0.16928574 0.3012646
000260 84 fd 35 be bd a9 b5 3e 20 fd 33 be bf fb 21 be
       -0.1777249 0.35481063 -0.17577028 -0.1581869
000270 98 17 78 be c1 62 34 be de f2 b3 be 08 04 7d be
       -0.2422775 -0.17615797 -0.3514623 -0.24708569
000280 81 97 84 bd cf f6 a4 be 58 54 41 3e 4c c6 eb 3b
       -0.064742096 -0.3221955 0.18879831 0.0071952697
000290 81 c5 b4 be 91 b4 8f be b6 da 91 bd 9a 7e b5 be
       -0.35306934 -0.2806745 -0.07121794 -0.35448152
0002a0 17 56 68 3d 33 ca 03 3d 89 73 5b be 85 8e f4 be
       0.056722727 0.032175254 -0.21430792 -0.47764984
0002b0 d3 f6 85 3d 63 40 1b bd 4a 10 0a 3e 84 55 b8 3e
       0.065412186 -0.0379032 0.13482776 0.36002743
0002c0 4a 99 74 bd 28 39 ae be 92 6b b5 3b 32 66 37 be
       -0.0597165 -0.34027982 0.005536505 -0.17910078
0002d0 05 f0 d1 3d 51 52 0a 3e 45 8e 6f be f7 00 00 be
       0.10250858 0.13507964 -0.23394115 -0.12500368
0002e0 fd 9a b8 be 3e 06 a0 bc c8 54 e4 be ea f4 c3 be
       -0.36055747 -0.019534227 -0.44595933 -0.38272792
0002f0 48 6b f9 3d 06 4b 0a be 13 fb c1 be 54 22 a1 be
       0.121786654 -0.13505182 -0.37886867 -0.31471503
000300 59 10 4a bb 37 aa a7 bd 01 f7 02 be 4c 8b 5f bd
       -0.0030832498 -0.08186763 -0.12789537 -0.054576203
000310 cd 92 28 3e 46 20 1b bf b8 8b aa be 49 6e 0d bf
       0.1646225 -0.6059612 -0.33309722 -0.55246407
000320 37 8b 02 be da d6 ba 3d 5b 6b c5 bd 96 b3 3f be
       -0.12748419 0.09123011 -0.09639617 -0.1872085
000330 8d 59 04 3e fd ee 18 3e 10 22 3a 3e 2b 5a 85 be
       0.12924786 0.14934917 0.18177056 -0.26045355
000340 ce 9f b4 3d 1b 8d fc bd 1c e2 c2 bd 08 0c 41 be
       0.08819543 -0.12331601 -0.09515783 -0.18852246
000350 1c da 67 3e 0b 2e c7 3e ba e5 2f 3d 9b 59 11 be
       0.22641796 0.38902315 0.042943694 -0.14194338
000360 49 89 82 3e f5 42 a0 be 6e 95 9f bb 09 90 94 be
       0.25495365 -0.31301084 -0.0048701083 -0.2901614
000370 61 61 6d be c2 91 c2 be b3 ac 62 3e ba ef 7b be
       -0.23181678 -0.3800183 0.22136192 -0.24603167
000380 4e 26 81 3d b1 f8 05 bd d2 e0 33 3e e9 fc a4 3d
       0.06306134 -0.032707874 0.17566231 0.08056051
000390 08 87 38 3d 8d dd 44 3d 6c 1f e0 be af da 2e be
       0.04505065 0.04806285 -0.43773973 -0.17075609
0003a0 cf 41 c8 3d d5 15 a3 3e da 2d 3c be a5 60 5e 3e
       0.09778177 0.31852594 -0.18376866 0.21716554
0003b0 13 fb 2b be f5 f1 29 be 66 5b 9c bc 44 06 45 3e
       -0.16794996 -0.16596206 -0.01908655 0.19240671
0003c0 d7 38 8b bd 77 90 51 3d a8 95 bd 3d 33 9e 53 3f
       -0.06797951 0.051163163 0.0925706 0.8266327
0003d0 3f 2a b2 be a3 f2 f8 bd 2a 58 d1 3d 72 8d df be
       -0.34797856 -0.12155654 0.10221894 -0.43662602
0003e0 a3 eb 01 3e 74 e6 2f bd 90 11 2c bd 20 1a 19 be
       0.12687545 -0.042944387 -0.042008936 -0.14951372
0003f0 39 db 64 bd 7b 61 67 bc 8a fa 70 3a 0e fd 71 3c
       -0.05587313 -0.014122362 0.00091926067 0.014769806

conv5.bias f4 [128]
000000 03 3b 68 3e 84 46 18 3d b5 02 3b 3e 5a 7c 0f 3e
       0.22678761 0.037176624 0.18262751 0.1401228
000010 ef 04 59 bd 2a 57 c0 3d 5c fc 16 3e c2 c7 e3 3d
       -0.05298322 0.09391625 0.14744705 0.11122085
000020 bd d3 1f 3e 6b 10 95 be 0e 54 83 3d ed 66 8f 3d
       0.15608115 -0.29114088 0.064125165 0.070020534
000030 ad dd 46 be e2 2a 3a be 24 30 0f be 3d 4a 06 3e
       -0.194205 -0.18180421 -0.13983208 0.13114257
000040 31 e8 85 be a9 e8 1a 3e 56 c3 e1 3d 7b 08 dd bd
       -0.2615371 0.15127815 0.110235855 -0.10792633
000050 ab 8b c5 3d 82 32 3a 3d bd 45 ab 3b d6 b1 93 3c
       0.0964578 0.045458324 0.0052268193 0.018029135
000060 f0 25 e9 3e 89 8a 41 3e a7 d9 ef 3d 54 5c c2 be
       0.45536757 0.18900503 0.11711436 -0.37961066
000070 cf c5 d1 bd 82 18 26 be 7e d6 1b bc 42 40 9e bc
       -0.10242807 -0.16220286 -0.009511588 -0.01931775
000080 4d 63 11 bd f4 33 6d be 2d af 1b 3e 12 f1 59 3e
       -0.03549509 -0.2316435 0.15203543 0.21283367
000090 4b e3 ce 3c 72 37 b5 3d b6 e2 d9 bc a5 22 f5 bb
       0.025254866 0.08848466 -0.026597362 -0.0074809366
0000a0 cc f4 10 3d 3a bf cd 3c b2 92 a2 3d 26 0f 96 3c
       0.035389706 0.025115598 0.07938136 0.01831777
0000b0 29 cd fa 3c a8 e8 11 3e d5 d2 87 bc b8 32 5a 3e
       0.030615406 0.14248908 -0.016580025 0.2130841
0000c0 5e de f2 3d 27 bb 1b 3e 4b 57 fa bd 01 52 5d be
       0.118588194 0.15208112 -0.12223681 -0.21613313
0000d0 a8 d7 d2 be 0e 3a 6d be 2f 5a b7 3d c6 fb 22 3e
       -0.41180158 -0.23166677 0.08952748 0.15916356
0000e0 8a 71 50 3d f7 d6 46 3e c9 e9 27 be f1 f5 0c 3e
       0.05088953 0.1941794 -0.16397776 0.13765694
0000f0 13 4e 69 bd d6 b6 42 3e 44 35 3f 3e 4a 73 1b 3e
       -0.056959223 0.19015059 0.18672663 0.15180698
000100 b2 68 fa bd 36 53 74 3e 70 9a 48 bd 3c 90 83 3e
       -0.12227 0.23859867 -0.048975408 0.2569598
000110 6c 4b 9c bd e2 aa 87 3b 7e 97 a3 3b ba 38 8a 3a
       -0.07631573 0.004140244 0.0049924245 0.001054547
000120 52 66 00 3d 2e 79 e9 bd b3 3b f2 bd a5 8c 4b be
       0.03134758 -0.11400066 -0.11827793 -0.1987787
000130 d3 6a 4a 3d ef f2 8f be 4d 07 42 be cd 43 66 3d
       0.04941828 -0.2811503 -0.18948098 0.056217004
000140 90 68 d7 3d 33 b7 81 bd 51 0f 07 3d 34 ba a3 bd
       0.105179906 -0.063337706 0.03297359 -0.079945
000150 dd 52 94 3c 0f fc cf 3c 1e c7 77 bd 68 41 cb 3d
       0.018105919 0.025388746 -0.060492627 0.099245846
000160 1c c6 8f be ab 4c 89 3e 5b 01 42 3e 47 d9 18 3d
       -0.28080833 0.26816306 0.1894583 0.037316587
000170 11 e7 f2 bd d8 74 2f bd a0 0a 7c bd 04 7f 8f 3c
       -0.11860479 -0.04283604 -0.06153357 0.01751662
000180 f7 1c 75 3e 80 6c 07 3d ae b7 20 be ed 9f b1 3e
       0.2393683 0.033062458 -0.15695068 0.34692326
000190 45 f2 06 be 9e 70 0d be 04 51 0f 3e 2a 02 ab ba
       -0.13178356 -0.13812491 0.13995749 -0.001304691
0001a0 f8 13 d5 bd 5c 41 62 bd 5f 54 3f 3e 7b 5c 23 be
       -0.10404199 -0.055238113 0.18684529 -0.15953247
0001b0 54 db 1b 3e eb 58 61 3e 0a bd 4a 3e 6a 27 d0 bd
       0.15220386 0.22006576 0.19798675 -0.10163768
0001c0 30 07 0d 3e 7f 77 ba 3c 07 99 51 3d d1 2c ad bc
       0.13772273 0.022762058 0.05117133 -0.021139534
0001d0 b2 37 2d be 5e 8f db 3c 51 b6 b5 be 46 b4 22 3e
       -0.16915777 0.026801761 -0.3549066 0.15889081
0001e0 84 93 67 3e c4 82 08 bd a0 b8 52 3c 8f 38 90 3d
       0.22614866 -0.033327833 0.012861401 0.07042038
0001f0 71 01 2d 3e 77 5c 8c bd 74 7e 2f be aa b8 41 be
       0.16895081 -0.06853574 -0.17138082 -0.189181
