model/model_4.pth (torch_old, 571877 bytes, 24 tensors)

conv1.weight f4 [32, 3, 2, 2]
00000000: 72af 71bd f422 04be 3ed5 01be 7783 993e
00000010: ddc7 f2be c052 513e fc9b 7bbd 81e0 cb3e
00000020: ef6b 7cbe 0f0a d9bd 4260 1dbb f45f 2f3e
00000030: 093a 2e3e 3ff6 36be dfeb 043e d244 3bbc
00000040: 9188 b23d 19c3 a7bd 43e4 bc3e 5300 643d
00000050: dbd8 c8bd 1e8e 82be 4544 cd3c b8be 35be
00000060: 7c31 4ebe 9db3 5bbc 8a92 9b3d ede2 353e
00000070: fac3 8ebe 0d31 5b3e 612f 833d e600 ae3e
00000080: e999 2a3e e13d 6abe 7ae9 a9be 438a aebd
00000090: 17be be3e 2861 9fbd f1b3 393d 7956 a4be
000000a0: 08a1 cb3e c87d 50be aeec 493e 8163 2fbe
000000b0: f583 03bd 59de 8b3d 1d13 3abe 267a e5bd
000000c0: 2f54 29be edf4 c2bd f68b b7be 1c76 3dbe
000000d0: 5daf 4f3e b1fd 30bd eab8 a63e 5710 8e3e
000000e0: ae95 3bbb 09ab 6abe 6440 3b3e 1445 923d
000000f0: aa0d 4fbe 906f f43d bff7 763e 7356 893e
00000100: f40f 5bbe 4b07 05be edb4 d33b 811d 643c
00000110: 7e2f b4be 4051 b5be 3bcf d23d ede2 19be
00000120: 2a23 193e d9ae 283d b56f b83d 3f7d c13d
00000130: 06f9 ba3d 48db 063e ab43 81be c8b1 443e
00000140: 4ddb 9bbe a3cb 8ebe 44be 47bd 241e 92bd
00000150: 312c 693e 5049 b73c 07da fcbe 046b d33d
00000160: c0a8 9d3d 1166 d73e a8ab 8dbd 8b84 62be
00000170: 70fd 4b3e a949 8c3e 3128 a0be f08d 2cbe
00000180: b04d 693d 1dd9 44be 0093 be3d 089d 9ebd
00000190: 9a19 243e 1280 bcbe f408 ac3e 291b 6a3d
000001a0: 6be7 54be 1771 bbbe 7b02 f83e 9af5 ba3d
000001b0: e13c 0b3e 2952 52bd fa1e e33c a65b 0a3e
000001c0: f798 843e fcca 73be f8a9 973c ef23 513e
000001d0: 5238 363e 09a9 173e cbb7 53be 3b77 44be
000001e0: 6ded 02be df8a 9f3d 3cc6 5d3e e0b8 88be
000001f0: fb2c 683e 0508 b1bd 18eb adbe 5e28 d5bd
00000200: e5b2 753e e180 9b3e 9758 5ebe 88b7 0e3c
00000210: 891a a43e 1639 783e 40fd dd3d dafb 093e
00000220: cc9b ec3d 478a 003d f2e4 e8be 86bd dfbe
00000230: b3dd 80bd 84e0 653d 8246 94be 65e5 953d
00000240: 8014 fc3c 96fc a03b 3579 c9bd f8ba 553d
00000250: d5dd 243e 4652 a63e 153f 6abe d529 a93e
00000260: d4ec a7bd ab7b 633d 57c9 d3be e859 47be
00000270: edff 97be 3263 e6bd a8a1 8a3e 4542 ba3d
00000280: eccc 9fbe 9543 403e 2284 c13d 86cb b53e
00000290: 23f3 8ebe 6a22 f13d 1d61 fabd 28ee b83d
000002a0: ee6e e4be 9728 87be fa02 4fbe 80b0 0d3e
000002b0: 0c9a 24bd 0896 613d 0c32 8f3e b30d c93e
000002c0: 906b bf3d ea83 0fbd 8580 68be f610 a23e
000002d0: 8192 c63d 9270 9d3d e75d 5dbe eb24 17be
000002e0: b11e 01bd 298f a63e a752 47be bd6d 8abe
000002f0: 1914 fc3d 6788 1dbe 70cc 403e 09b3 34be
00000300: 686a 9fbc 0e0b 9bbd d336 953e 843e babe
00000310: 30d9 473e a4e7 6c3c eaf1 a63e 717c dabe
00000320: 4c94 4a3e 37bb 8dbe 26b4 993e 14a5 90be
00000330: 5281 a5bc e32e 7a3d 28ff 44be eb51 073e
00000340: 6a21 2cbe 7eb4 4c3e b87c 0ebe 704e 703e
00000350: 029e 09bf 1030 373e 99b7 be3c 75a6 8f3e
00000360: ab85 1d3e 2027 0dbe 5036 28be 058f a33e
00000370: ee6f b6be 15c0 a93e 66f4 c4be 0121 21be
00000380: 3a79 173e 90ee a1bd 105d aebd 22e5 a63e
00000390: 06a3 2c3e f1e6 c33e 0f00 68be f45f 8fbe
000003a0: 8e92 8c3e d5a7 103e 50bd 8dbe 426e 453d
000003b0: 6ae4 acbe 3eab 773e c177 a2bd 37b5 c7be
000003c0: 9e4f 8bbe 7b20 7abd cd52 223e b42d 1b3d
000003d0: 7e4c 86be fee4 a4bd 2c21 a1be cbfb 5bbe
000003e0: 8ff3 03be 8556 a13e 0082 cf3e d14c 973d
000003f0: cebe e4bc 2ee6 1a3e c1f6 3fbe 4498 a4be
-0.05900521 -0.12903959 -0.12679002 0.29983112 -0.4741811 0.20441723 -0.061428055 0.3981972
-0.24650548 -0.10597622 -0.0024013673 0.17126447 0.17014326 -0.17867373 0.12980603 -0.011429982
0.08717454 -0.08191509 0.368929 0.05566437 -0.09806987 -0.25499052 0.025056968 -0.17748535
-0.20136064 -0.013409522 0.075963095 0.17762347 -0.27883893 0.2140543 0.06405521 0.3398506
0.16660275 -0.22875167 -0.3318594 -0.08522465 0.37254402 -0.07782203 0.04533762 -0.32097223
0.39771295 -0.20360482 0.19719192 -0.17127801 -0.032108266 0.06829519 -0.18171354 -0.112049386
-0.1653602 -0.09519372 -0.3584897 -0.18502086 0.2028174 -0.04321069 0.32562953 0.2774684
-0.0028623152 -0.22916807 0.18286282 0.07142082 -0.20220056 0.11935341 0.24117945 0.26823768
-0.21392804 -0.12991063 0.006460777 0.01392305 -0.35192484 -0.3541355 0.10293432 -0.15027972
0.1495482 0.041182373 0.090056814 0.09447717 0.09129529 0.13169587 -0.2524694 0.19208443
-0.3044075 -0.27889737 -0.048765436 -0.07134655 0.22770764 0.022373825 -0.49385092 0.10323146
0.07698202 0.42070058 -0.069175065 -0.22120874 0.19920897 0.27399948 -0.31280664 -0.1685102
0.056958854 -0.19223447 0.09305382 -0.07744795 0.16025391 -0.3681646 0.3360058 0.05715481
-0.20791404 -0.36609718 0.48439392 0.09128876 0.13597442 -0.051347885 0.027724732 0.13511524
0.25897953 -0.23807901 0.018513665 0.20423864 0.17794922 0.14810576 -0.2067558 -0.19186108
-0.12785883 0.077901594 0.21657652 -0.26703548 0.22673409 -0.08644108 -0.33968425 -0.1040809
0.23994024 0.30371764 -0.21713482 0.008710749 0.32051495 0.24240527 0.10839319 0.1347498
0.115531534 0.03138187 -0.4548717 -0.43699282 -0.06292286 0.056122318 -0.28960043 0.07319144
0.030771494 0.004912923 -0.098375715 0.05218026 0.16100247 0.32484645 -0.22875626 0.33039728
-0.08199468 0.05553786 -0.41364548 -0.1946789 -0.29687443 -0.11249389 0.2707646 0.09094671
-0.3121103 0.1877578 0.094490305 0.3550684 -0.27919874 0.11774142 -0.12225554 0.090298
-0.44615883 -0.26398155 -0.20215979 0.1383686 -0.040185973 0.05507472 0.2796787 0.39268264
0.09346688 -0.035037912 -0.22705276 0.31653565 0.09695912 0.07687487 -0.21617852 -0.14760177
-0.03152341 0.32531098 -0.19465123 -0.2703685 0.12308521 -0.15384065 0.18827987 -0.17646421
-0.019459918 -0.07570468 0.2914339 -0.3637582 0.19516444 0.014459524 0.3260644 -0.42673066
0.19783133 -0.27681896 0.30020255 -0.28250945 -0.020203266 0.06107987 -0.1923796 0.13214843
-0.16809621 0.19990727 -0.13914764 0.23467422 -0.53756726 0.17889428 0.023280906 0.28056684
0.15383022 -0.13784456 -0.16426969 0.31945053 -0.3563227 0.3315436 -0.3846771 -0.15735246
0.14792338 -0.0790683 -0.08513844 0.3259669 0.16859064 0.38262132 -0.22656272 -0.28002894
0.27455562 0.14126523 -0.27683496 0.048200853 -0.33768016 0.24186417 -0.079329975 -0.39005443
-0.2720918 -0.061066132 0.15851898 0.037885383 -0.26230234 -0.08051489 -0.3147062 -0.2148277
-0.12885879 0.31511322 0.4052887 0.073876984 -0.027923014 0.15126869 -0.18746473 -0.3214742

conv1.bias f4 [32]
00000000: b672 45be d427 6a3d f5ce 72be 8ee2 aa3d
00000010: 4539 ebbd 4d9c 86be 4037 2ebe 3861 f63d
00000020: 3cfa b93d 5d32 92be 0d2a 92bc ab1f 3cbc
00000030: 963d 103e 2daf c53c 3300 f23d 272c 15be
00000040: 9458 5fbd a4f2 da3d f367 b1bc 3ecb c4be
00000050: 1192 b9be 457c 03bf 6937 e43d bf65 cdbe
00000060: 3f84 923d 7bf6 2fba 1098 8ebe 7b71 48bd
00000070: b4e1 0d3e e07e a8be 7e1a 19be b848 963d
-0.1928204 0.05716689 -0.2371176 0.08343993 -0.11485533 -0.26291123 -0.17013264 0.12030262
0.090809315 -0.2855405 -0.017842317 -0.01148216 0.14085993 0.024131382 0.11816444 -0.14567624
-0.054527834 0.10690811 -0.021656012 -0.3843631 -0.36244252 -0.51361495 0.11143381 -0.4011669
0.0715413 -0.00067124487 -0.2785039 -0.04893635 0.1385563 -0.32909298 -0.14951512 0.07338089

conv2.weight f4 [32, 32, 2, 2]
00000000: 2908 75be eec6 53bb 33aa 65bc e2fe 053d
00000010: 083c 3cbb 3dad 073d f0fd 8d3d b42b df3d
00000020: 506d fc3c 8fc8 3d3d ad54 e0bc 6fc9 83bd
00000030: 53ee c2bc ad42 01be fc7a 853d fa1b 32bd
00000040: 59c1 c9ba 1dd8 b83d 5eb2 19bd 2264 b5bd
00000050: ca5d 07bd 5da0 11bc 74cd f1bc fbaf b43d
00000060: 8836 88bc b692 ee3c 84be 80bd f5ef 473c
00000070: a080 c9be 64f8 b2be 5c6a e3bd 1518 d1be
00000080: 3b23 723d 73df 233d 645f 363e cd96 8a3e
00000090: f079 b83d 294e d5bd 5d47 b23d bb22 a73c
000000a0: 06df afbd 6a36 ed3b 7a3c f73c efa3 71bd
000000b0: cf1c 81bd bee1 5dbe defe 2e3e e6e2 48bd
000000c0: 4f15 433c ac3e 1ebe fe94 833d 1267 3cbe
000000d0: b12d 533e 9368 303d 38d1 933d 281b 8c3c
000000e0: 7f72 103e bea0 133d 18ec 0c3e b939 083e
000000f0: c117 86bd d08c 5c3e 84b6 b6bd 9b46 05be
00000100: e1fe 853d 0d80 b5bd 217e 21be 1d9b 8e3b
00000110: 2c2f 693d cec2 56be 2a52 943d 2c6d 873d
00000120: 1279 1fbd 40ee a33d 71b9 aebd f15b 31bd
00000130: 7bf2 d5bd 15f8 87be e513 fb3c d1b2 82bd
00000140: 5221 633e 579b 9c3e badd a2be ac9b 88bd
00000150: 07fd 40be a919 05be 0a32 a7bb 99c5 993c
00000160: a094 8abd 483d 8fbc 880f cdbd 91fc 48bc
00000170: 6f43 e13e fd44 0c3e 9e07 03be 0529 66be
00000180: ba1e a7be 2a82 003d 7e85 0dbd c00a cebe
00000190: 765e 663d 0635 dd3d 40df 35be 0d92 b0bd
000001a0: 660c b73c 1a50 203e be90 f33c 20ec 9bbd
000001b0: d7f3 3ebd a4f6 0bbb 657f b0bc 8b26 f73d
000001c0: 806b 573e e7cd 463e adc2 7e3e 4b46 b83e
000001d0: ebf8 6d3d 4605 863e 93f8 acbe 9218 2bbe
000001e0: 3d86 cabd ce8a 033e 6b0d eebd 2cfa b23d
000001f0: 9caa 2b3e 734c 52bc ba18 003e 266b f23d
00000200: 2ff2 a2be 82ae 46bd 9dd9 43be 421a f5bd
00000210: a174 8cbe 9d77 2bbe 4b3f 4cbe 2d73 6cbe
00000220: 9d5e bcbd ebef 2ebe 0e81 2fbe 29e7 a9bd
00000230: 6e4c dcbd a2fb 70be 8f3a a0be 720b 9fbe
00000240: 5914 80be b45a 86be e20c 90be b531 a5be
00000250: d523 ef3d f59a 0d3e f229 eb3d 61eb 373e
00000260: 988c b3bd bfb4 76bd e37f 36bd a1d1 9cbd
00000270: ec99 4fbe 553e f4bd cf9c cebe b002 6fbe
00000280: 587d c3be 9fc5 cdbe 19c2 a8be 3f8a e4be
00000290: 1f00 40bc 012d 273b 192d 98bd 1588 463c
000002a0: 0bab 6c3d d1db 53bd e922 30bd 0993 4f3d
000002b0: 681e 683e cfd2 7e3e 5644 3a3e 2360 893e
000002c0: 547c 99be 94ca 91be f089 e0be dbec 98be
000002d0: 8a14 9dbe da9a 99be 1b6b 30be d72c 98bd
000002e0: 3195 44be 4713 92be d2b6 2fbe dfc7 7abe
000002f0: 2c20 013e ef7a eb3d 0d54 493e d632 6e3e
00000300: 2d0d b6be 227e 68be 5e91 2cbe f5e0 41be
00000310: cc79 13be 0821 89bd fdf7 1ebe d3a6 69bd
00000320: 903d e83d 95e7 d83d e756 183e 29d7 d73d
00000330: 5026 8ebd 041d bebd cdaf 3dbc c540 0abe
00000340: 0672 813e b768 883e 6608 4a3e e52a 8f3e
00000350: 51f5 083e f4a4 bb3d aebb 323e c8d3 e3bb
00000360: 6ea4 87be ecae a5be 12ca bcbe 097e a9be
00000370: 2c5a a1be 6eaa b6be eeae a9be 8edd a0be
00000380: 87f7 7ebe 953e 2abe 2cd2 b3be 8fdd 54be
00000390: 7d66 8d3d 8a6e 0abb 1d80 a2bd 233e a43c
000003a0: eb7f 57be a683 fbbd e182 51be 1def 7bbd
000003b0: d05a 083c 8af9 aebc 5722 f23c 29ba d3bb
000003c0: ba73 09be dde8 bcbb 2d60 41bd 73b4 b5bc
000003d0: 6759 a5bd 9532 343c f7c4 acbd c174 2abe
000003e0: 1acd 183d a85e f6bc 5056 673d f04a 95bd
000003f0: b332 b0be 9074 9dbe 507d 08be 8674 47be
-0.23928894 -0.0032314616 -0.014017629 0.03271378 -0.0028722305 0.033124197 0.069332 0.108970076
0.030813843 0.046333846 -0.027384127 -0.06434905 -0.023795282 -0.12623091 0.06517598 -0.04348371
-0.0015392705 0.09025595 -0.03752362 -0.088569894 -0.03304843 -0.008888331 -0.029516913 0.08822628
-0.016627565 0.029122692 -0.06286338 0.012203206 -0.39355946 -0.34955132 -0.11104271 -0.40838686
0.05911563 0.04000802 0.17809826 0.27068177 0.09007633 -0.104152985 0.08705018 0.020402303
-0.0858746 0.0072391527 0.030180205 -0.05899423 -0.06304323 -0.21668145 0.17089412 -0.049044512
0.011906936 -0.15453595 0.064249024 -0.18398693 0.20622899 0.04306848 0.0721764 0.017102793
0.14106177 0.036041968 0.13761938 0.1330327 -0.065474994 0.2153809 -0.08921531 -0.13015215
0.06542755 -0.088623144 -0.1577077 0.004351987 0.056929752 -0.2097275 0.07242234 0.0661262
-0.03893382 0.08004427 -0.08531464 -0.043300573 -0.1044664 -0.2655646 0.030649135 -0.06381763
0.2218068 0.30587265 -0.3180979 -0.06670317 -0.18846522 -0.1299807 -0.0051024007 0.01877098
-0.06766629 -0.017485276 -0.10012728 -0.012267248 0.4399676 0.13698192 -0.12795874 -0.22476585
-0.3264063 0.031374134 -0.034551136 -0.40242577 0.05624243 0.10801129 -0.17760944 -0.08621607
0.02234478 0.15655556 0.029732104 -0.07613397 -0.046619263 -0.0021356726 -0.021545121 0.12067898
0.21037102 0.19414483 0.2487895 0.3599113 0.058098715 0.26175898 -0.33783397 -0.16708592
-0.09888885 0.12845919 -0.11623653 0.08739123 0.16764301 -0.01283561 0.12509432 0.11836843
-0.31825396 -0.048506267 -0.19125982 -0.11967899 -0.2743273 -0.16744848 -0.1994602 -0.23090811
-0.091977336 -0.17083709 -0.17139074 -0.082960434 -0.10756765 -0.2353349 -0.31294677 -0.3106342
-0.25015524 -0.26241076 -0.2813483 -0.32264486 0.11676756 0.13828643 0.1148261 0.17960884
-0.087670505 -0.060230967 -0.044555556 -0.07657171 -0.2027356 -0.119259514 -0.4035401 -0.23340869
-0.38181567 -0.40189835 -0.32960585 -0.44636723 -0.011718779 0.0025509002 -0.07430477 0.012117405
0.057780307 -0.051723305 -0.043002043 0.050677333 0.22667849 0.24885105 0.1819013 0.2683116
-0.29977667 -0.28474867 -0.43855238 -0.29868206 -0.30679733 -0.30000955 -0.17228357 -0.074304275
-0.19197537 -0.28530332 -0.17159584 -0.24490307 0.12609929 0.11498057 0.19660969 0.2326158
-0.35556927 -0.22704366 -0.16852328 -0.1893347 -0.1440193 -0.06695753 -0.15524288 -0.05704386
0.11339867 0.10591046 0.148769 0.105390854 -0.06940901 -0.09282878 -0.011577559 -0.1350127
0.25282305 0.2664239 0.19729766 0.27962413 0.13374831 0.09162322 0.17454407 -0.0069527365
-0.26492637 -0.32360017 -0.36872917 -0.3310397 -0.31514108 -0.35676903 -0.33141273 -0.31419033
-0.24899112 -0.16625436 -0.35121286 -0.20787643 0.06904314 -0.0021123015 -0.07934592 0.02004916
-0.2104489 -0.12280969 -0.20460083 -0.061507333 0.008322433 -0.021359224 0.02955739 -0.006461401
-0.13423052 -0.005765064 -0.04721086 -0.022180771 -0.08073693 0.010998388 -0.084360056 -0.166461
0.037304975 -0.030074432 0.0564788 -0.07289684 -0.3441368 -0.30752993 -0.13329053 -0.19478044

conv2.bias f4 [32]
00000000: 2162 ec3d c804 95bd fc83 d9bd 2a14 f5bd
00000010: 5b2f 1e3d d51a b9bd 6bd5 14be 38d9 1a3e
00000020: 73f7 7abd f426 b73d 5da5 09be 2a30 193e
00000030: d3b3 643c 9ee4 7bbd 5d36 b0be 9b81 ebbd
00000040: 436d 543c 4bef e73c 3a60 953d f483 0d3e
00000050: cef4 183d e3ef 37be beff 863d 1c69 2d3e
00000060: f0d1 2fbd 598f 4c3e cd98 86bd c10a 00be
00000070: e296 0d3d 14e4 333e 2899 8d3e 6da3 afbd
0.11542154 -0.072763026 -0.10620877 -0.119667366 0.03861938 -0.09038321 -0.14534537 0.15121925
-0.061271142 0.089429766 -0.13441987 0.1495978 0.013958889 -0.061497323 -0.34416476 -0.1149933
0.012965503 0.028312346 0.072937444 0.13819867 0.03734284 -0.17962603 0.06591748 0.16934627
-0.04292482 0.19976558 -0.06572113 -0.12504102 0.03456772 0.17567474 0.2765591 -0.08576093

conv3.weight f4 [64, 32, 2, 2]
00000000: 4d9a 06be 28a7 c03d 8ab3 ec3b 83c0 9a3e
00000010: 0e87 c3bc 793f ecbd c416 a03d 09a0 42be
00000020: cc5b 743d 78f5 953d bb6d b93d 7e3d f63c
00000030: 20f0 613d 220c 71bd 07c7 693c dee9 be3c
00000040: f74b 96be db94 55be ce99 66bd a833 f1bd
00000050: dbe2 92bd b8cf 453d 9624 6fbd cde0 283d
00000060: f9c9 f43c d281 05bd 9737 3ebd 6d4a 86bd
00000070: a578 1abe db94 23be c03c 8ebe 557c 8ebe
00000080: ca2a edbc 0b1d bdbd 2604 d63c 7655 cebc
00000090: 5dba d53d e31f 0fbe 09f7 363e 1a68 a9be
000000a0: 16ac bc3d 6178 683e f727 093d 80e8 283d
000000b0: eb21 fb3d 629c 0d3e 67b7 183e 8bc4 2a3d
000000c0: ccfb eb3c 660c 4fbe 5d4d 933e 3308 39bc
000000d0: 2694 9fbd 2250 82bd a62d 08bd 3d49 a9be
000000e0: 19b7 ecbd 72db bcbd 933d fd3d 0b33 1dbe
000000f0: f315 ea3d 22e3 9b3d 2e2c 703d 49c8 493d
00000100: 72d3 403d 98d5 b53b fe1f b33d c587 103a
00000110: 0cf4 4f3d 4a09 143d 80ea adbd 7398 8dbd
00000120: f6c0 933d 1473 8f3d 2d04 35be d04c 7d3d
00000130: 9420 783e 1647 093c f9b1 223d 73c0 8c3d
00000140: d4a7 57be 206a 98bc 60df 00bd 2dfb cb3d
00000150: b089 483e 9cb4 1e3e 139a 25bd bf08 be3d
00000160: 876d 4fbe 860b c7bd d237 43be 0ca9 86bc
00000170: d40f e0be 9741 20be 7df6 933e da94 6b3e
00000180: e391 013e b1c1 5bbe c703 693e 439b 81be
00000190: 9554 3e3e abd2 26be c5a5 59bd ece0 41be
000001a0: cf62 83bd 4160 92be f5e9 3cbe 099b 653c
000001b0: f48e 893d 7ed2 503c 0999 a2bd 3b25 30bc
000001c0: 891a 593e bced 7c3d 57ab f53d f19d 703c
000001d0: bee9 673e e407 adbd 618c e93d 1920 a6bd
000001e0: db14 d03d 564b ba3d 5a2b dd3d c1ec b03d
000001f0: a64a e0bc 3be7 bd3c 2e5c 8d3d b2a2 c43b
00000200: 87ff dbbd 6f49 8abe 2dc8 cc3d 5b16 6e3d
00000210: 246b 913e f00e dc3d 9ed5 343e a8b9 1b3e
00000220: 7273 1b3d 16db 323b 5f7e d6bd e5ef a5bd
00000230: 1d78 79bd d292 cabd cb13 153d ed11 753d
00000240: 6604 16be f3d4 2bbe 1d5d 5ebe ff20 c2bd
00000250: 74d6 f1bb 78f6 d1bc f033 d1bc 0bce 753d
00000260: ceb4 71bc 3fe1 d13c b480 6d3d c5ad 163d
00000270: 68f8 ebbc bc69 38be 33f9 29bc aa96 2bbe
00000280: 67b3 0cbc f463 633c 4dc7 6ebc 9e0e 9bbc
00000290: 1fe0 d23d ba06 0d3e 3eda 17be e932 05be
000002a0: 1786 b1bd 25a0 18bb ce3b 4dbe 68e6 12be
000002b0: e3b0 ea3c 740c 9abe a3c0 6f3e 89d5 e7bd
000002c0: cd82 6c3e 0651 503e 9c6a 14bd faa9 36be
000002d0: 003f 073e fdf6 2f3d 1948 f53d 9b45 ae3d
000002e0: b601 02be 481d 0c3e 8e30 cebe 69bd 45be
000002f0: d831 fcbc a20e 9e3d 8fa0 1cbd 3345 ac3c
00000300: 3ed9 5d3d c7cc aabd 563f a9bd 82bd 903b
00000310: 741c 83bc 3338 8ebd 4eea 9cbd e48c a43d
00000320: 963c 7bbd e794 40bc de1f 84be a548 d8bd
00000330: d438 0fbe 7281 0abd 8d5a 8bbe ba41 9ebd
00000340: 1f91 acbe a664 5cbd 2ccd 56be fe72 b9be
00000350: 4ef8 62bd 7bed bbbc 78b2 c13c 6715 043e
00000360: f948 d93c 2070 523d fdc7 a33d d41b d43d
00000370: 4118 18be 8dd8 04be 360e 473e ae73 c33d
00000380: d20c 633e b968 683e ccbd babd 0e2c 7dbd
00000390: e4d0 1c3e 39e7 9c3d 3127 92bd bc6a 34bd
000003a0: 5975 acbe ad18 06bf f8c9 f0bd 6177 d3be
000003b0: 4672 8e3c 5e56 9abd 1037 1a3d 2ffe a73d
000003c0: 815a 97bc 0808 babb 4895 49be ae52 60bd
000003d0: 797f 613d 0995 133e 16b0 0bbe 6ff1 483d
000003e0: bfbf 373d 9f38 173c b1d2 dabc e16b c2be
000003f0: 022c 5ebd 1c70 013d 3a3d 70bd f289 c73b
-0.13144799 0.094068825 0.007223551 0.30225 -0.02386811 -0.11535544 0.07816842 -0.19006361
0.059657857 0.0732221 0.090541326 0.030058619 0.05516064 -0.05884946 0.014268643 0.023304876
-0.29354832 -0.20857565 -0.056299023 -0.11777431 -0.071721755 0.0482938 -0.0583845 0.04123001
0.029881464 -0.03259451 -0.046439733 -0.06557164 -0.15085085 -0.15974753 -0.27780724 -0.27829233
-0.028951067 -0.09234055 0.026125025 -0.025187235 0.104359366 -0.13977008 0.17867674 -0.33087236
0.0921251 0.22702171 0.03348538 0.041237354 0.12262329 0.13829187 0.14913712 0.041691344
0.02880659 -0.20219573 0.2876996 -0.011293459 -0.07791929 -0.0636294 -0.03324666 -0.3306369
-0.115583606 -0.09221543 0.1236526 -0.15351503 0.11429968 0.076116815 0.058635883 0.049263272
0.04707665 0.005549144 0.087463364 0.00055133953 0.05076985 0.03614167 -0.08491993 -0.06913843
0.07214539 0.07004371 -0.17677374 0.061840832 0.24231178 0.008378765 0.03972051 0.06872644
-0.21060115 -0.018605292 -0.031463027 0.09960017 0.19583774 0.15498585 -0.04043014 0.09279012
-0.20256625 -0.09718995 -0.19064263 -0.01643803 -0.43762076 -0.1565002 0.28898993 0.23006001
0.12653308 -0.21460606 0.22755347 -0.25313768 0.18586953 -0.16291301 -0.053136606 -0.18933457
-0.064153306 -0.2858906 -0.18448623 0.014014014 0.06716719 0.012745498 -0.079393454 -0.010751064
0.21201529 0.06175016 0.11995571 0.014686094 0.2264776 -0.08448771 0.11403728 -0.08111591
0.10160228 0.090964004 0.10799284 0.08638907 -0.027379345 0.023181548 0.069023475 0.00600084
-0.10742097 -0.2700915 0.09999118 0.05812679 0.28402054 0.107450366 0.17659613 0.15207541
0.037951894 0.002729123 -0.10473322 -0.08102397 -0.060905565 -0.09891285 0.03639583 0.05983155
-0.14650115 -0.16780452 -0.21715207 -0.0947895 -0.007380301 -0.02563022 -0.025537461 0.06001095
-0.01475258 0.025620101 0.05798407 0.036786813 -0.028804973 -0.18009084 -0.010374355 -0.16756693
-0.008587695 0.013878811 -0.014573884 -0.018927868 0.10296654 0.13772097 -0.14829347 -0.13007702
-0.08668154 -0.0023288813 -0.20042345 -0.14345706 0.0286488 -0.30087626 0.23413329 -0.113200255
0.23096772 0.20343408 -0.036234483 -0.17838278 0.13207626 0.042960156 0.11976642 0.0850937
-0.12695965 0.13683045 -0.4027142 -0.19310535 -0.030785486 0.07717635 -0.038239058 0.02102909
0.054162256 -0.083398394 -0.082640335 0.0044171223 -0.016004778 -0.06944313 -0.076618776 0.08034685
-0.061337076 -0.011754251 -0.25805563 -0.10560731 -0.13986522 -0.033814855 -0.27217522 -0.0772738
-0.3370447 -0.053806923 -0.20976704 -0.36220545 -0.055412583 -0.022940388 0.02364467 0.1289879
0.026524054 0.051376462 0.07997129 0.1035687 -0.14853002 -0.12973233 0.19439015 0.095435485
0.2217286 0.22696199 -0.09118232 -0.061809592 0.1531406 0.0766129 -0.071363814 -0.044047102
-0.3368328 -0.523814 -0.117572725 -0.41302016 0.017388474 -0.075360045 0.037650168 0.082027785
-0.018475773 -0.005677227 -0.19685853 -0.05476635 0.055053208 0.14412321 -0.1364139 0.049058374
0.044860598 0.009229808 -0.026711794 -0.3797293 -0.054241188 0.031601056 -0.05865214 0.0060894424

conv3.bias f4 [64]
00000000: 6ce3 e33c 8a79 923e e357 a43d fcb4 8fbe
00000010: 0206 023e 97aa ccbd 6ffa be3d 3e0a 2dbe
00000020: f528 0f3e 28c1 113e e8ab 48be 1b14 fdbd
00000030: 0b36 5b3d fecb 59bd fc44 b73d 55e8 413e
00000040: 8dc8 ffbc 1212 c63a 4578 da3c 59a1 223d
00000050: c23c 113e d1fa 3aba ade3 bdbe ff79 0fbe
00000060: 6528 f13c 7dd6 8ebd 0363 803e 7066 783d
00000070: adb3 643e 28fa fc3d f616 dd3d 39ae 6f3e
00000080: 1b2d b23c 9866 663e a618 23bd d23a 1fbe
00000090: 49ab 7abc 4e9e 753e 6a36 abbd f950 9fbd
000000a0: 5176 1b3e 1e1d 5c3d a6cb 163c ae69 2abe
000000b0: 32da 6c3c ae1b c1bc 05e0 89ba c600 3d3d
000000c0: fd41 a3bd 8d23 02bd 43e3 8f3d cbea 81bd
000000d0: 9433 db3d 7e98 7cbe 8fce 5d3d 879d 083c
000000e0: 3a5f 65bd d206 0b3d c02c c9bd 8aa5 2ebe
000000f0: 8a9c b83c 1324 1b3d ac82 85bd ba61 fabc
0.027818404 0.28608352 0.080245756 -0.28067768 0.12697604 -0.09993475 0.0932511 -0.16898438
0.13980468 0.1423384 -0.19596827 -0.123573504 0.053518336 -0.053173058 0.089487046 0.18936284
-0.03122356 0.0015111587 0.026668677 0.039704654 0.14183334 -0.00071327115 -0.37087765 -0.14011382
0.029438207 -0.06974504 0.2507554 0.060644567 0.22334166 0.12352401 0.10795395 0.23406304
0.021750024 0.22500074 -0.03981843 -0.15549782 -0.015299627 0.2398617 -0.08359988 -0.07779116
0.15181853 0.053738706 0.009203827 -0.16641876 0.014456319 -0.023572769 -0.0010519034 0.046143316
-0.07971571 -0.031772185 0.070257686 -0.06343611 0.10703197 -0.24667546 0.054152068 0.008338339
-0.05599902 0.03394205 -0.098229885 -0.17055336 0.022535581 0.0378762 -0.06519064 -0.030564178

conv4.weight f4 [64, 64, 2, 2]
00000000: 3ab7 053c ef68 36be b385 83bc a7fe 58be
00000010: d575 04bd 9a09 2f3e 57c1 90be 1331 eb3d
00000020: 95bd bebe edb6 123e 84da 45be 3289 053e
00000030: 63d3 72be 8e13 eabd c5e9 edbd 6973 36be
00000040: 895a 173d d24c 943c bfa0 e03d 695d 8dbe
00000050: 49df 9e3d 2fd8 37be e0e1 5d3c 45fa 3c3d
00000060: 7aa4 89bd 7fff bebe 66d2 d33c 054c 08be
00000070: 3cb6 3bbd 16eb 8f3d 3bbf b23d cdbf df3c
00000080: 5c7e 893e da12 0dbe 683f 893e 36dc 10be
00000090: 8de6 5abe f03b e0bd 1ab7 f03d 987c 5ebe
000000a0: 1d6b cebd a11d f0bc 86a2 0fbd 7808 fdbd
000000b0: 34b2 86be 845a 42bd b4c8 f2b9 b61f 07be
000000c0: f248 61be 6a4e 92bd 196c f43c f97e 68be
000000d0: d329 763c b1a7 09be 21c8 053e 4eea 5cbe
000000e0: 068f 1f3e 50a8 343c 772b 993e f680 933e
000000f0: 0a15 3fbd 4a41 65be e3fc 343e 1748 dc3b
00000100: 565b 733d 4c51 69bd 9a8b 25be b824 a33d
00000110: 0dc5 75be 908c 1f3d ae1b 54be 9312 eabd
00000120: 1f08 9e3d 3434 eebd f271 193e 28de 493e
00000130: 72a8 cabd ac0c ad3d 3208 14be 67c2 3ebd
00000140: b42d 14be cb7a 1ebd 5404 1bbe 14d9 143d
00000150: e959 6bbe d4c2 953e 9afa a6be 0088 ebbc
00000160: 6ed4 693d 6357 b0bd 850d 54bd 2d07 eebc
00000170: 6002 e5bc 2aed 2f3d fb53 0b3d 6549 ad3d
00000180: e39d 6ebe 0812 be3c e459 3ebe 9770 a33e
00000190: e186 3b3d 5deb 6c3e e8c7 53bd 2ad5 493e
000001a0: eeb3 3fbd cb42 f2bd b198 2c3e e003 43be
000001b0: 10a5 97be 2a9b cbbe bb92 81bd cfdc a5be
000001c0: 62ec d1bd a154 9abe c9f8 3ebc 867b 1bbe
000001d0: b98a 8bbd a0d7 f7bd 7100 40be 4cd3 5ebe
000001e0: 06c2 4fbc 4fb6 4b3e 7424 81ba ef2b b1bd
000001f0: 042e c0bd 5204 1e3e d9ed 06be 60d4 a33d
00000200: 75fd 29bd 5fbe 0bbe 2bbb c83d 822c 5ebe
00000210: 7df9 1ebd ad71 92be 0ecc 943d 5989 c83d
00000220: c130 8b3d 5f5b ecbd 46a6 9cbd 609a 4a3d
00000230: f01e f2bd bf02 c53d eed0 ddbd b26a 783c
00000240: c994 5a38 6a74 293d 30b3 883c 610b 4c3e
00000250: b9d2 9a3d 03dd 0f3e 31c8 073e 14cb 303e
00000260: 1070 85be 463a f43c cf89 99be 7084 96be
00000270: ff5f 1cbe 7f35 053e d76d 8cbe b3f2 9abd
00000280: e8fd b2bd 054f 513e a3f0 47be 7aaf 363e
00000290: 789e c6bd 74af 2c3e 3f25 10be 9492 053e
000002a0: 1c8c 0dbe 762f 53be 51c7 42bd 584d 95bd
000002b0: a20b 7ebd e593 4cbd 2ad0 08bd e827 ff3a
000002c0: 99a4 ee3d 4fbb aa3d ef61 3f3c 2b36 c73e
000002d0: 2f3a 5dbe bd77 9bbd b51c 2fbe daf6 8a3d
000002e0: 7176 ffbb 7295 b0be 41d5 193e 113b 9abe
000002f0: 6ac3 3d3d 492b c7be a998 2a3e b8b7 23bd
00000300: 7076 25be 7cc7 8abb 6522 65be 537c 07bd
00000310: 7d85 cb3d 99d3 31be a4d9 713e 8c1b e9bd
00000320: c79a e43c 488c 2cbe 2085 a53e a06f 133d
00000330: 9439 adbd 310c 8e3d 73b1 0e3d ec31 8e3d
00000340: b254 c33d bfe4 a43c 42ec 3e3e 2ecb 1d3e
00000350: 3047 363d 6411 95be d35b de3d 4ffc 94be
00000360: fa96 703e 674b 72be f930 05bd d1db 263e
00000370: 66c7 bfbe 09e8 85bd 196a 98bc e78e 6a3c
00000380: 5a8e 3c3e c2d6 3b3e 28fd 9cbc 2ff8 c63e
00000390: b91c 28be 9723 903d 134a 8cbe b494 26be
000003a0: 0b66 a3bd b5ac 213e e64a 0d3e 4d0c 36be
000003b0: 5f1c c2bd b8a9 c6bd 1d4e 373c 72ce 0f3c
000003c0: b1f1 0d3b 22f2 b8be 6e7d 6e3e 5690 84be
000003d0: 372d 42bd 7c15 abbe 0bba 3e3e 1269 753d
000003e0: 4fbe 5ebe 9bca c33d 95fd 36bd 3999 ca3c
000003f0: a427 e3bb 9539 823c edc5 0bbe 277b 083e
0.00816136 -0.17813466 -0.016054964 -0.21190892 -0.032338936 0.17093506 -0.28272507 0.114839695
-0.37254015 0.14327593 -0.19321638 0.13040617 -0.2371345 -0.11429511 -0.116168536 -0.17817463
0.036951575 0.018103037 0.1096816 -0.2761033 0.07757432 -0.17953561 0.013542622 0.046137113
-0.067208245 -0.37304303 0.025857162 -0.13310249 -0.04582809 0.07027261 0.087278806 0.027313137
0.26854217 -0.13776723 0.26806188 -0.14146504 -0.2137701 -0.10948932 0.11753674 -0.21727216
-0.10079024 -0.029311003 -0.035067104 -0.12355131 -0.26307833 -0.047449604 -0.00046307372 -0.1319569
-0.22000483 -0.071438625 0.029836701 -0.22704686 0.01502462 -0.13442875 0.13064624 -0.21573755
0.15581903 0.011026457 0.29915974 0.28809327 -0.046650924 -0.22388187 0.17674594 0.006722461
0.059413277 -0.056962296 -0.16166535 0.07965988 -0.2400095 0.03895241 -0.20713684 -0.11429324
0.07716393 -0.11631051 0.14984873 0.19713652 -0.0989541 0.084496826 -0.14456251 -0.046572115
-0.1447056 -0.038691323 -0.1513837 0.036339834 -0.22983517 0.29250205 -0.3261307 -0.028751373
0.057087354 -0.08610418 -0.051770706 -0.029056156 -0.027955234 0.042950787 0.034015637 0.084612645
-0.23302417 0.023201957 -0.18588978 0.31921837 0.045782927 0.23136659 -0.051704317 0.19710222
-0.046802454 -0.11829146 0.16855122 -0.19044447 -0.2961812 -0.39766818 -0.06326815 -0.32395026
-0.102501646 -0.30142692 -0.011655995 -0.15183839 -0.068135686 -0.12101674 -0.18750168 -0.21760291
-0.012680536 0.19893764 -0.0009852783 -0.08650958 -0.09383777 0.15431336 -0.13176669 0.07999492
-0.04150148 -0.1364684 0.098013245 -0.21696666 -0.03881215 -0.28602353 0.07265483 0.09791822
0.067964084 -0.11540865 -0.07648902 0.04946363 -0.11822307 0.096196644 -0.10830866 0.015162157
5.2113817e-05 0.041370787 0.016687006 0.19926216 0.075597234 0.14049153 0.1325996 0.17264968
-0.2606206 0.029812943 -0.29987952 -0.29397917 -0.15270995 0.13008688 -0.2742755 -0.075658225
-0.08739835 0.204403 -0.1952539 0.17840376 -0.09698194 0.16863805 -0.14076708 0.13044196
-0.13822979 -0.20623574 -0.047553364 -0.07290143 -0.062022813 -0.04994573 -0.033401646 0.0019466849
0.11652488 0.083365075 0.011681064 0.38908514 -0.21604227 -0.07591198 -0.17100795 0.067853644
-0.0077961017 -0.34489018 0.15022756 -0.3012319 0.04632894 -0.3890021 0.16659798 -0.03997013
-0.16158462 -0.004235206 -0.22376402 -0.03307755 0.0993757 -0.17365874 0.2361818 -0.11382207
0.027905835 -0.16850388 0.3232813 0.035995126 -0.08458248 0.06935919 0.034837198 0.069431156
0.09537639 0.020128606 0.18644813 0.15409538 0.044501483 -0.2911483 0.10857358 -0.29098746
0.23495093 -0.23661576 -0.032517407 0.16294791 -0.37456816 -0.06538398 -0.018605279 0.014316297
0.18413678 0.18343642 -0.019163683 0.38861224 -0.16417207 0.07038038 -0.27400264 -0.16267663
-0.079784475 0.15788539 0.13798103 -0.1777813 -0.094780676 -0.0970034 0.011188057 0.008777248
0.0021658952 -0.36122233 0.23290035 -0.2589137 -0.0474064 -0.3341483 0.18625657 0.059914656
-0.21752284 0.09560128 -0.04467543 0.024731265 -0.0069322158 0.015896598 -0.13649721 0.13328229

conv4.bias f4 [64]
00000000: be3a 6ebd 8bc1 5abd 4640 5c3d 1f08 d1bd
00000010: 1f6f fb3c 4915 ab3d 29b6 0d3d e8cc 76bd
00000020: af33 e9bd 9cad 263e 5cc4 85bd ba61 a43c
00000030: 49b5 3c3d 1ada 653e 06f0 9e3d 7bd0 0e3e
00000040: 3c32 783c 1e66 dfbd 2de9 c73d ffd5 4e3d
00000050: 7327 803e cfc7 eb3d 3c9b 32be 8a21 e2bc
00000060: 01b0 e6bc e1e8 313e bded 45ba 18b8 553e
00000070: a3f5 9a3d a053 803d b7a3 babd c241 113e
00000080: c438 f13d 7d55 d73d 7a6a 3abd c1c4 0cbe
00000090: 6e1d a9bc 6894 cabd 8039 24be c40f 23be
000000a0: 3219 553d 26cc 36be 7f44 25b9 dc34 173d
000000b0: 2f9c c33c 2d26 9abd 6e96 6d3d a1fc 14be
000000c0: 1ffe 203e d3a8 19be ec8c 81bd c563 e73b
000000d0: 41a7 bd3d e654 503e 6289 2a3e 0823 d4bd
000000e0: 26a0 13bd d05f d23c 231a 3ebd e2ae f5bc
000000f0: cbed c53d b82c fb3d 34f9 97bd bf71 93bd
-0.05816149 -0.053407233 0.053772233 -0.10206627 0.030692635 0.08353669 0.03459755 -0.060254008
-0.11386811 0.16277164 -0.06531593 0.02006613 0.046071324 0.2244648 0.077606246 0.13946716
0.015148696 -0.10908149 0.097612716 0.05049705 0.25030097 0.1151272 -0.1744203 -0.027603883
-0.028160097 0.17373993 -0.00075503794 0.20871007 0.07566383 0.0626595 -0.091132574 0.14185241
0.11778405 0.105143525 -0.0455117 -0.1374693 -0.020643916 -0.098915875 -0.1603756 -0.15923983
0.05202598 -0.17851314 -0.00015761143 0.036915645 0.023878185 -0.07526813 0.05800479 -0.14549495
0.1572194 -0.15005808 -0.06325707 0.007061454 0.09260417 0.20344886 0.1665397 -0.10358244
-0.0360414 0.025680453 -0.046411645 -0.029990617 0.09664496 0.12264389 -0.074205786 -0.0719943

conv5.weight f4 [128, 64, 2, 2]
00000000: 39bf 36be b74a f5bd 96f0 b3be d367 7fbe
00000010: eac8 aa3c e0d8 51bd 2888 d93c 8330 adbd
00000020: 507a 173e bfdf 443c 21bd a73e 89fc 5ebb
00000030: 6612 87bd 2fd6 9f3d 991c adbe aa2b 4ebe
00000040: 80fd 43be da5e 8cbe a4e8 9dbe ca50 30be
00000050: ebd0 16be 7986 c43d da60 35bd 2ff8 9ebc
00000060: 8723 dcbd 6b70 93bc b91b 813d 3b9d 863e
00000070: f7bf 5dbe 0c55 5ebe dda3 723d 9134 0b3d
00000080: 84ee 383d 228b 5abe 8769 ee3d 486e d93c
00000090: c831 a33c f29c c8bd 6ce9 633e fd96 88be
000000a0: db4a 47be ff9a b9bd d50c de3d 53d4 193e
000000b0: bfc6 adbe d46c 503d cd57 c03c 2713 183e
000000c0: a459 63bd dc71 05bf e306 26bd 5812 3fbe
000000d0: 84a3 78be dcf5 7cbd 108b 78be b4a6 293b
000000e0: 1c75 14bc 64ce 4dbe 6f52 6bbe 2f97 283e
000000f0: 8ba6 85be d560 5b3d 63ba a63d aa7d a8bd
00000100: f74c 143e c6c0 123d 8a82 06bf 85f0 a83d
00000110: e48e 49bb 1618 583c 8d10 6f3c 08e8 0e3d
00000120: 5056 5dbd ecb2 8b3d 2b28 50be 11d8 03bd
00000130: f16a ca3d 4d87 9ebd 0f2a 8a3d 1874 813e
00000140: 2cff 223e a99a d1bc 6a22 e23d 7882 213d
00000150: e71d 433d 08c2 23be bc4e 57bc 8ec6 433e
00000160: ff3a bebe 26d2 f13c 036c 61bd b4f1 6e3e
00000170: c279 83be 6008 0abe 9a76 9f3d f36b 5ebd
00000180: 597e 95bd 2101 03bd 6d9f 9bbd 4fe7 a9bd
00000190: b1e8 b0bd 3557 ca3c 5db2 423e 56cd 363e
000001a0: 86b2 97bd 6730 14be 556a c23d 206a e7be
000001b0: f4e0 b73e e87e 77bd 59ac 873e 403f a73d
000001c0: e122 763c 908d 9bbd 3690 013f 5187 5b3d
000001d0: bd07 4e3e d791 0a3e ccc3 413e afb2 013e
000001e0: f2de 72bd 2e85 84bb 984e a4bb a39e 49bd
000001f0: c8d9 5c3d b395 afbd efda 873e 568f 87be
00000200: 03c4 3e3d e497 acbd ef5a 3cbe 6e9c e5bd
00000210: b9f7 9cbe e924 41bc d0ed 8ebd 7ba2 8cbe
00000220: e169 df3d bd07 153e 7d70 4f3d 2f59 a93b
00000230: e540 8cbe 19c6 123e 08b8 e2bd d28c bb3d
00000240: e529 a13b 724e b63d da31 983d 7c33 25be
00000250: e8a4 3dbe afe4 44be 4916 17be 6f85 883e
00000260: b1eb 4c3d 472e 053e f901 23be bfe5 b4bd
00000270: 7812 19be e180 80bc 5328 99be 0b0b 62bd
00000280: f915 23be 8e7f 9fbe 317e 293e 8c79 ddbc
00000290: 4bb9 83be 761a 85be 93cf babd d556 03be
000002a0: a6d3 333d b0ac 8abd 59dc a0be cc10 5bbe
000002b0: a2cd e83d a9e7 dbbd 65b8 213d 48d8 ab3e
000002c0: 5279 c23c 042a 9abe e29d 213d e56e f0bd
000002d0: 5987 f93d 0822 ff3d 1cfa 55be 5470 d8bd
000002e0: 3edc 1dbe 576b eabd 30c2 0dbf 57f7 b7be
000002f0: e24a 39bc 65fe 47be 4581 61be bb29 afbe
00000300: 81bd 3dbd 7818 09bd 01c8 fabd fe9f edbd
00000310: 449d 753d bf9a 09bf fe4a eabc 7053 abbe
00000320: dbd3 26be c984 083e 29d1 9ebd 18d0 85bd
00000330: 80d3 ae3d a7b9 753d 6300 9b3e 46f6 95be
00000340: c78c b4bc 935f 83bd abc8 a8bd 9659 f6bd
00000350: 260c 973e 0159 a73e 0ce9 db3c 5bc5 f7bd
00000360: e955 363e f2db 2fbe ce72 bdbc 3f60 953a
00000370: 78d1 79bd 3880 75be 87be a03e 098f bcbe
00000380: e8db 133e e03d 093c cbca a13d f018 bd3c
00000390: b39a 41bc 74c1 c03c 0086 e5bd 481e c3bd
000003a0: a5e0 593e 4947 953e 7768 01be b456 343e
000003b0: 38c4 b5be 9d41 97bd 5ff1 11be a82d b33d
000003c0: 02d4 03bd 2432 943d 9f39 cc3d b29d 0b3f
000003d0: 33c6 f1be 09af a13c 4052 0bbe d4bc 55be
000003e0: 7d45 c13d dbe5 3ebd aaa5 1b3e cd7d debd
000003f0: 76de 64bd 7b61 67bc 8afa 703a 0efd 713c
-0.17846383 -0.11977141 -0.3514449 -0.2494195 0.020847756 -0.05123222 0.026554182 -0.084565185
0.14792752 0.012016236 0.3276148 -0.0034025034 -0.06595306 0.07804524 -0.3381088 -0.20133844
-0.19139671 -0.27416116 -0.30841553 -0.17218319 -0.14728133 0.09595961 -0.044281818 -0.019405453
-0.10748964 -0.017997941 0.06304116 0.26291832 -0.2165526 -0.2171213 0.059238303 0.033985678
0.04514934 -0.21342137 0.116412215 0.026541844 0.019921198 -0.0979556 0.22257012 -0.26677695
-0.19462149 -0.09062766 0.10842291 0.15022402 -0.33940694 0.050885037 0.023479367 0.14851056
-0.05550541 -0.5212686 -0.04053391 -0.18659341 -0.24281126 -0.061757907 -0.24271798 0.0025886716
-0.009061124 -0.20098263 -0.22980665 0.16463922 -0.26103625 0.053559143 0.08141019 -0.082270935
0.14482485 0.035828374 -0.52542937 0.082490005 -0.0030755335 0.013189336 0.014591348 0.03488925
-0.054037392 0.06821236 -0.20327823 -0.03218848 0.09883679 -0.0774065 0.06746303 0.25283885
0.15917653 -0.025586443 0.1104172 0.039431065 0.04763594 -0.15991986 -0.01314133 0.19118711
-0.37154385 0.029519152 -0.05503465 0.2333439 -0.2567883 -0.13479757 0.07786293 -0.054302167
-0.072994895 -0.0319835 -0.075987674 -0.08296072 -0.08638132 0.024699787 0.19013353 0.17851767
-0.074070975 -0.14471589 0.094929375 -0.45198154 0.35913813 -0.06042376 0.26498678 0.08166361
0.015022964 -0.0759536 0.50610673 0.053595845 0.2012014 0.13532196 0.18922347 0.12665819
-0.05929465 -0.0040441966 -0.005014252 -0.049223553 0.05391863 -0.08573475 0.2653422 -0.26476544
0.04657365 -0.08427408 -0.18394063 -0.11211477 -0.30657747 -0.011788585 -0.06978953 -0.27467713
0.10908867 0.14553733 0.050644387 0.005168102 -0.2739326 0.14333381 -0.110702574 0.09157719
0.0049183243 0.08901681 0.074313834 -0.16132921 -0.18519938 -0.19227861 -0.14754595 0.26664302
0.05002946 0.13005935 -0.15918721 -0.08832883 -0.14948452 -0.015686454 -0.29913577 -0.055186313
-0.1592635 -0.31152004 0.16552044 -0.027035497 -0.25727305 -0.2599675 -0.09121623 -0.12826093
0.043903016 -0.06771219 -0.31418112 -0.21393126 0.11367346 -0.10737545 0.039482493 0.33563447
0.02373949 -0.3011018 0.03945721 -0.117399015 0.12184019 0.12457663 -0.2089619 -0.105683
-0.15416047 -0.11446255 -0.5537443 -0.35930893 -0.011309357 -0.19530638 -0.22021969 -0.34211525
-0.046323303 -0.0334706 -0.12245179 -0.11602782 0.059964433 -0.5375175 -0.028600212 -0.33462095
-0.16291754 0.13331904 -0.07754738 -0.06533831 0.08536434 0.059991505 0.30273733 -0.29289454
-0.022039784 -0.06414714 -0.082413994 -0.12028806 0.29501456 0.32685092 0.026844524 -0.120981894
0.1780621 -0.17173746 -0.023126032 0.0011396481 -0.06099078 -0.23974693 0.3139536 -0.36827877
0.14439356 0.008376569 0.07900008 0.02308318 -0.011816668 0.023529746 -0.11207199 -0.0952726
0.21277101 0.2915595 -0.12637506 0.176112 -0.35501266 -0.073855616 -0.14252232 0.087489426
-0.03218461 0.07236126 0.09971928 0.545375 -0.47221527 0.019736784 -0.13605595 -0.20872813
0.09437082 -0.046605926 0.15199915 -0.10863838 -0.055876218 -0.014122362 0.00091926067 0.014769806

conv5.bias f4 [128]
00000000: fa44 463e 963a 083e 11ad d33d 02d4 983d
00000010: 5795 86bd e595 303e 00cb f43d 1a61 0b3e
00000020: 3507 1a3e 72c1 3ebe 006d 38bd dc44 863d
00000030: fc33 963c 90f3 ebbd 812d 2fbd 4743 c23d
00000040: 6d30 bebd ef42 113e 268c 113e 7b08 ddbd
00000050: 6073 043e 4402 cf3d 34a9 36bd 3d9d 3f3d
00000060: 84ab a43e c86a 273e 58b6 bd3d b024 87be
00000070: 11a3 98bc caef 02be 692a 033e 1716 4c3d
00000080: 29ed 0a3d 2f77 09be c430 0c3e 89ee 893e
00000090: 578c 3b3d 3ccb 013e 6d66 ce3c 4ce4 6fbc
000000a0: 02f0 4b3c f011 ddbc 4b33 13bd 2c77 983d
000000b0: 7e85 4cbd e143 043e 4853 8bbd 3d6f 023e
000000c0: af24 123e 09e5 413d 5650 19be 3fc0 19be
000000d0: b47a 7bbe b127 8ebd ba5c 093e 7004 523e
000000e0: 36af 8c3d 90e3 333e 3856 0ebe 3b40 153e
000000f0: 5644 47bd d048 293e 3c06 683e 1fdb c53d
00000100: 063b 97bd be21 163e 9534 7f3d 992e 9c3e
00000110: 43b6 4abd 3338 0e3e cc04 ce3d 7e75 013d
00000120: 56f7 a53d ddd5 f9bb e716 91bd 4a0e acbd
00000130: 7e05 f43c 085d 42be 3132 21be f56f d83d
00000140: 1563 e23d b6fa 393d f882 7b3c 34ba a3bd
00000150: 9193 8d3d 0ff6 153b 1720 0bbd d110 2a3e
00000160: 35e3 e7bd c128 6d3e 3388 5c3e 938c 063e
00000170: 11e7 f2bd 92a2 223d cb4f 983d e96d 7d3d
00000180: 6401 663e f203 aa3d 2450 9cbd 6d84 af3e
00000190: 390f cdbd f28c 4abd 375f e63c 7884 4f3c
000001a0: 6499 c2bd 64e7 44bd a41e 1e3e 1e0c 54bc
000001b0: 66ab 1e3d bcb1 863e 5b20 643e 2fce 6dbd
000001c0: b77f 743e bc1e 093e 8da1 a23d b0b3 f4bc
000001d0: 0f66 f9bd d899 223e a4df 75be 0c21 183e
000001e0: 6fab f43d 332f 87bc 40e8 603d f814 823d
000001f0: 9732 973d 9184 b4bc 6009 0fbe 0101 15be
0.1936225 0.13303599 0.10335744 0.07462312 -0.06571453 0.1724468 0.11952782 0.1361126
0.15041812 -0.18628481 -0.045025826 0.06556103 0.018335335 -0.11521065 -0.042768005 0.094854884
-0.0928658 0.1418569 0.14213619 -0.10792633 0.12934637 0.10107854 -0.04459496 0.046780813
0.32162106 0.16349328 0.09263295 -0.26395178 -0.018632444 -0.12786785 0.12809147 0.049825754
0.03391758 -0.13424371 0.13690478 0.269398 0.045788135 0.12675184 0.025195325 -0.014641833
0.012447359 -0.026986092 -0.03593759 0.07444605 -0.049931996 0.12916519 -0.06802994 0.12737747
0.14271806 0.047337566 -0.14972052 -0.15014742 -0.24558526 -0.06941164 0.13414279 0.20509505
0.06869356 0.17567277 -0.13900077 0.14575283 -0.048649155 0.16531682 0.22658628 0.09660935
-0.07384305 0.14661309 0.062306006 0.305043 -0.049490225 0.13888626 0.10059509 0.03160619
0.08103816 -0.0076243714 -0.070844464 -0.08401163 0.029787775 -0.18980801 -0.15741803 0.10568229
0.11054055 0.045405112 0.01535105 -0.079945 0.06912912 0.0022882258 -0.03396615 0.16607977
-0.11322633 0.23160078 0.21536331 0.13139562 -0.11860479 0.03970582 0.07437094 0.061872397
0.22461468 0.08301534 -0.07632473 0.3428072 -0.10012669 -0.049450822 0.028121574 0.01266586
-0.09501913 -0.048072234 0.15441376 -0.012942342 0.038737677 0.26307476 0.22277968 -0.05805796
0.23876844 0.1339063 0.079409696 -0.029870838 -0.12177669 0.15878999 -0.24011093 0.14856356
0.11946761 -0.016501999 0.05490899 0.06351656 0.07382696 -0.022035869 -0.1396842 -0.14551164

conv6.weight f4 [64, 128, 2, 2]
00000000: ff28 b5bd 5ff9 d3bd 7a19 84be db8d c2be
00000010: 14b2 a1bd d89f 2abe cea8 b7be 1b9b 8abe
00000020: fdf4 ddbd 00bf c3be a3e1 2fbe 7d64 273d
00000030: 2192 fd3d 40de ef3c 0704 e83d 2994 013c
00000040: 4916 09be 6627 613d b9ae ea3c f179 533e
00000050: 5492 9abd 86c4 8a3d 03bc 993e 2c73 823e
00000060: 2c0f f6bd 66e1 133e 582f 4c3d e84e 90be
00000070: 7996 333e 4097 323e e7d6 e7bd c283 3dbd
00000080: a53e 4cbe b425 62be 8625 f9bc c66b 35be
00000090: 9dcf d4be e64f 0fbe c5d4 83be 97e5 e8bd
000000a0: 7c45 e83c 1b34 54bc 67e2 f73d 0ab4 0abd
000000b0: 5927 b03d ada3 50be 1f29 67be cef1 8dbe
000000c0: 47fe 01bd 21da 26be 16bc 313d 26a8 a73d
000000d0: d0a5 dabd e601 31bb 1ca1 a3bd bb7f 053c
000000e0: d7f0 1ebe 9371 0dbe 9998 233e a66a 963d
000000f0: 6d4a 8ebd b19e 2b3d 6a5e d3bd 721f 75bd
00000100: fb20 2fbd baf7 303c 5312 d43c 2ed0 59bc
00000110: 4ade e63d 7a3b 3f3e 43a4 953e cbe6 903e
00000120: f3bd e03d 5983 133e ace3 2f3e c7ac 1f3e
00000130: 57fe a7bc c7a5 913c d3e9 cdbc bab8 d03c
00000140: 01bd 933e 004c 003e 830b 3e3e 58ee 4abe
00000150: 1d35 2bbe 1c92 383d 6a4b 8e3e ba21 103e
00000160: cdec 243e 51db 45be bd4b 93be 13ef 09bf
00000170: 8398 f2bd cd24 8abe 2387 07bf 1507 cdbe
00000180: b278 8bbd e205 b0bd 3d54 21bf 8f82 18be
00000190: 80d8 c9bd fda2 b7be 2e19 9bbe f1f1 33bf
000001a0: 9e45 e0bd f8eb b5be bc06 713e d17c 5ebd
000001b0: a97c 8f3d 638f 68be 5009 353d 5079 883e
000001c0: 1929 34be 2a03 12be 75d0 2b3e 28ee 973d
000001d0: 4623 c0bc 98c7 bbbc fe33 81bd d1d0 f2bc
000001e0: 1f76 6abe 19a4 973c c069 aa3e e5be f6bd
000001f0: 7e2c 9bbe ba0d 343d ef9a c1bd ba89 9dbd
00000200: 955a 673d c097 b63d 530f 50bd 4527 623e
00000210: 68a4 4fbc 413e a7bd e813 4bbd 55a9 cabd
00000220: f4e6 753d bde9 933c b95c 60be 196c 1bbc
00000230: bc65 20bd 3062 6dbe dc85 0b3e c274 6ebc
00000240: 1ad0 7a3d 9b42 733e b28f 873e 6902 553e
00000250: e641 c03d f1d4 703e b710 743e 8827 253d
00000260: 62b7 eebd 8783 c5be 652b 2c3e 1c53 32be
00000270: da8e a3bd a86e 60be 4ef3 223d 9180 273e
00000280: f7b7 553e a207 22be 2c24 b23b 71f4 e83d
00000290: 1c53 513e 6c83 533d 2197 f43d 4534 f33d
000002a0: bef5 313d a116 46bc f70d f5bd 7ab7 8dbe
000002b0: 08bd 21bc 3f02 37be eef3 5c3e 3bcb 703e
000002c0: 5ebc b13d 5e65 74bc c16f 363e ce76 103e
000002d0: 396f fcbd 1d21 6cbd 0329 a7bc 9518 f93d
000002e0: 692c 103d be71 1abe b656 633e 95c3 da3d
000002f0: 42f0 82bd eb62 3ebd 9242 23be 88d8 213d
00000300: cfd9 a5be becb 8abe 27e7 babd e1b8 9abe
00000310: 1ff4 53bc 5ccb 9e3d 8ff7 d03e 2eb2 b83c
00000320: fa53 88be 89f6 35be 6480 51be 6003 24be
00000330: ca30 343e b358 fcbd a7dc 0d3e d473 6d3d
00000340: 7360 7e3e cedf b6bd 6534 3e3d a116 40be
00000350: ba36 123d e928 193a c9ca b9bc 8b98 9d3b
00000360: b1d5 96bd 6f07 143d 9744 3f3e 9339 c33d
00000370: 5830 93bd 79ac 3dbc 4a45 c6bd 0661 1dbe
00000380: fcdd babc 30ce 8cbd b295 8e3e 7510 2f3e
00000390: 7771 1dbe 8c8b 503e 508c 453e 3f16 9fbd
000003a0: 9b4a 2f3b 097d 8cbc 8324 acbc 89ab 033d
000003b0: 7b4b e93b 4cfe 08bd 9860 d2bd 411d b1bd
000003c0: 8184 7e3e 6fce 213e 0453 89bd 45c0 ce3d
000003d0: 4033 4b3e 18a2 313e 9c32 1ebb b255 17be
000003e0: db8c 7b3d e4ee df3d c49b b63d 09b7 d3bd
000003f0: 51b1 993e 9da9 5d3e 4468 1bbe c90b 063d
-0.0884571 -0.10350298 -0.25800687 -0.37998852 -0.07895294 -0.16662538 -0.35870975 -0.2707146
-0.108377434 -0.3823166 -0.17175917 0.040867317 0.123813875 0.029280782 0.11328893 0.007908859
-0.13387407 0.054969214 0.028647767 0.20651986 -0.07547441 0.06775765 0.30026254 0.25478494
-0.120146126 0.14441451 0.049849838 -0.281852 0.1753787 0.1744051 -0.11320286 -0.046268232
-0.19945772 -0.22084695 -0.0304134 -0.17716894 -0.41564646 -0.13995323 -0.25748268 -0.11371916
0.028353445 -0.012951876 0.1210373 -0.033863105 0.08601255 -0.20374937 -0.2257428 -0.27723545
-0.03173664 -0.16294147 0.043392263 0.08186369 -0.106761575 -0.0027009188 -0.079897135 0.008148129
-0.1552156 -0.13812856 0.1597618 0.0734456 -0.06947789 0.041899387 -0.103207424 -0.05984444
-0.042756062 0.01080125 0.025887644 -0.013294263 0.11272867 0.18675032 0.29226884 0.2830108
0.1097373 0.14405574 0.17176694 0.15593253 -0.02050702 0.017779244 -0.02513591 0.02547871
0.28855136 0.12528992 0.18559079 -0.19817483 -0.1671948 0.045061216 0.2779191 0.14075366
0.16105957 -0.19321944 -0.2876872 -0.53880423 -0.118454956 -0.26981202 -0.5294058 -0.40044466
-0.0681013 -0.08594872 -0.6301916 -0.14893554 -0.09855747 -0.35866538 -0.30292648 -0.7029105
-0.109507784 -0.35531592 0.23537725 -0.054318253 0.07006199 -0.22710948 0.044198334 0.26655054
-0.17593803 -0.1425902 0.16778739 0.074184716 -0.02345432 -0.022922322 -0.06308745 -0.029640587
-0.22896622 0.018510865 0.33283806 -0.12048129 -0.30307382 0.043958403 -0.09453379 -0.07692285
0.05648287 0.08915663 -0.050795864 0.22085293 -0.012673475 -0.08166171 -0.04957953 -0.09895579
0.060034707 0.018055791 -0.21910371 -0.009486222 -0.03915952 -0.23181987 0.13625282 -0.014554204
0.061233617 0.23755877 0.26476818 0.208017 0.09387569 0.2351873 0.23834501 0.040320903
-0.11656071 -0.3857691 0.16813429 -0.17414516 -0.07986231 -0.21917212 0.039782815 0.16357638
0.20870958 -0.15823224 0.005436441 0.113747485 0.2044186 0.051639006 0.11942888 0.11875204
0.04344725 -0.012090356 -0.11965554 -0.27679044 -0.009871729 -0.1787195 0.21577427 0.23515026
0.08678506 -0.014916746 0.17816068 0.1410782 -0.123259015 -0.057648767 -0.020405298 0.12162892
0.035198603 -0.15082452 0.22201046 0.106818356 -0.06393482 -0.046481054 -0.15943363 0.03951314
-0.32392737 -0.27108568 -0.0912612 -0.30219176 -0.012936621 0.077536315 0.40813872 0.0225459
-0.2662657 -0.17769827 -0.20459133 -0.16016912 0.17596737 -0.123216055 0.13853703 0.05797179
0.2484148 -0.08929406 0.046436686 -0.18758632 0.035696723 0.0005842583 -0.022679703 0.0048094443
-0.07364977 0.0361399 0.18678509 0.09532466 -0.07186955 -0.011576765 -0.096811846 -0.15369043
-0.022810929 -0.06875265 0.27848583 0.17096122 -0.15375315 0.20365733 0.19291806 -0.07767915
0.002674735 -0.017149465 -0.021013504 0.03214601 0.0071195937 -0.03344564 -0.1027233 -0.08648158
0.24855234 0.15801404 -0.06705287 0.10095266 0.19843769 0.1734699 -0.0024139052 -0.14778784
0.061413627 0.10934237 0.08916429 -0.103376456 0.30018094 0.21646734 -0.15176493 0.032726083

conv6.bias f4 [64]
00000000: 9726 653e ffae 06bd 0ee2 2e3c 0aeb 383e
00000010: 81ac a1bb 7584 823e 510c a13d eb10 7e3d
00000020: beac 103e c9b3 1e3e 5d90 1bbb 37e1 613e
00000030: 02d3 023e 2ed3 ccbd edeb 72bc b3f8 f2bd
00000040: 54ce 903e ea6c 98bd 8e8b 11be 2173 07bd
00000050: 7f63 e5bd 5eed e73d ff0a b8bc a04e a8bd
00000060: 7fcf 8cbd 6829 d73d 3953 d9bd 01fe 573c
00000070: 3003 4fbd b552 81bd 943a 9fbd e2a3 1c3e
00000080: 037b 8fbd 97d0 50be 6ccb 97bd 2e68 053d
00000090: fea6 8cbd 8ada 75bd 80bc c1bd 6e41 123d
000000a0: 34cb 45bd f308 08bd 8f60 92bd c1a4 4bbc
000000b0: 6f1e d1bd 3fc3 c63d 7700 413d 4416 343e
000000c0: 8ca9 55bd 66f2 1e3d 0c04 083e 73f2 e53d
000000d0: 9b35 a9bd 84ab febd 83ca 15bd 5f44 b73d
000000e0: 2012 433c f663 513c 3bb4 8c3e 5819 0c3d
000000f0: 80bc 4cbe 567a a1bc 9c2c 643e d0eb 7ebd
0.22378002 -0.032881733 0.010674013 0.1805841 -0.004933894 0.25491682 0.07863677 0.062027853
0.14128396 0.1549827 -0.002373717 0.22058569 0.12775806 -0.10001217 -0.014826757 -0.11863842
0.28282416 -0.07442649 -0.14213392 -0.03306878 -0.11200618 0.11324571 -0.02246618 -0.082181215
-0.06875514 0.105059445 -0.106115766 0.013183118 -0.05054015 -0.06314603 -0.07774845 0.15296891
-0.070058845 -0.2039207 -0.074118465 0.032570057 -0.06867789 -0.06002287 -0.09459782 0.03570693
-0.048289493 -0.03321166 -0.07147323 -0.012429417 -0.10210883 0.09705209 0.047119584 0.17586619
-0.052163646 0.038805388 0.13282794 0.11227884 -0.082621776 -0.12435058 -0.036570083 0.089485876
0.011906177 0.01278018 0.27481255 0.034203857 -0.19993782 -0.019711655 0.22282642 -0.062236607
