model/model_14.pth (torch_old, 571877 bytes, 24 tensors)

conv1.weight f4 [32, 3, 2, 2]
000000 c8 13 e1 bd 6c 55 e9 bd d9 0b 1c be d6 f7 c7 3e
       -0.10990101 -0.11393246 -0.15238895 0.3905627
000010 92 48 18 bf 2d 65 1a 3e 00 a8 0c be 3c ca dc 3e
       -0.59485734 0.15077658 -0.13735962 0.43123043
000020 ef 44 98 be 95 e3 99 bd f0 3c 53 3b e8 ba 8c 3e
       -0.29740092 -0.07514111 0.0032232367 0.27486348
000030 a6 63 53 3e 8c df ff bd 33 6d 01 3e 45 77 9d 3c
       0.20643482 -0.1249381 0.12639312 0.019221911
000040 4c 0a 97 3d a9 13 73 bd a7 b5 a8 3e e2 88 35 3d
       0.07375011 -0.05934492 0.3295109 0.044319995
000050 23 06 09 be d7 84 77 be 92 8a 19 bd ca c3 6e be
       -0.13381247 -0.24171768 -0.037485667 -0.23316875
000060 0a 1f f4 bd fe ca 31 3d 15 c1 00 3e 7f 42 6b 3e
       -0.11919983 0.04340648 0.12573655 0.22974585
000070 44 4e ab be b7 e8 4e 3e 48 ef 32 bd 3a c2 9e 3e
       -0.3345815 0.20205961 -0.043685228 0.31007558
000080 a0 4a 0c 3e e8 53 4b be 83 a3 eb be fa af ef bd
       0.13700342 -0.19856226 -0.46023187 -0.11703487
000090 54 41 c6 3e 61 18 44 bd b6 55 8b 3d 12 34 8d be
       0.38721716 -0.047874812 0.068034574 -0.2757879
0000a0 98 8b c6 3e 96 4a 6c be 0d 7e 2a 3e 98 a5 46 be
       0.38778377 -0.23075327 0.16649647 -0.19399107
0000b0 c2 1e 76 bd 37 37 85 3c 79 1c 5c be ed e1 16 be
       -0.060087927 0.01626168 -0.21495236 -0.14734621
0000c0 38 5e 1f be a5 dc d2 bd 0e f0 bd be bf 64 60 be
       -0.15563285 -0.10295991 -0.3709721 -0.21913432
0000d0 f9 b1 4a 3e a1 5f a7 bd 99 72 9b 3e ae 64 64 3e
       0.19794454 -0.08172537 0.3036087 0.22304031
0000e0 27 1b 37 bd 36 4e 90 be 35 c8 1e 3e 0e 81 cd 3c
       -0.04470363 -0.2818467 0.1550606 0.025085952
0000f0 90 b6 43 be 0d 4c ee 3d 4a 5a 76 3e f7 db 82 3e
       -0.19112611 0.11635599 0.2405788 0.25558445
000100 8c 6a 48 be 11 8e 08 be fe 83 b9 bb ef 19 c3 bc
       -0.19571894 -0.13335444 -0.0056614866 -0.023816077
000110 3c 67 a8 be 24 5f b7 be cb bb f7 3d 97 22 2f be
       -0.32891262 -0.35814774 0.120963655 -0.17103039
000120 99 a9 0a 3d 8c 49 9d bd e4 18 66 bd 44 82 35 bd
       0.033853147 -0.076800436 -0.05617608 -0.044313684
000130 5e 18 2a 3e b5 cf 21 3e e6 de 4d be c6 3d 4b 3e
       0.16610858 0.1580189 -0.2010456 0.19847783
000140 48 12 22 be bb cd 57 be d2 81 8b bb b4 81 d4 bd
       -0.15827286 -0.21074574 -0.004257419 -0.103763014
000150 e4 99 72 3e 52 2a 52 3d 4d 5a 12 bf 13 17 74 3d
       0.23691517 0.05130989 -0.5716904 0.059592318
000160 6d 00 03 3e e2 17 fa 3e a5 fe f0 bd 2e 6e 7a be
       0.12793131 0.48846346 -0.117673196 -0.24456093
000170 b6 fa 79 3e 8e e2 a2 3e f6 5c b3 be a6 50 52 be
       0.24412045 0.31813473 -0.3503186 -0.20538577
000180 b6 4d 31 3d 01 86 93 be 88 44 3a 3e 2f 6c c5 bd
       0.043287 -0.28813174 0.18190205 -0.09639775
000190 19 3c 0a 3e 34 19 ea be 42 7e d5 3e e2 d2 16 3d
       0.13499488 -0.45722353 0.4169789 0.036822207
0001a0 c7 3a 6c be 22 b8 cd be 91 15 0e 3f 1f df d7 3d
       -0.23069297 -0.40179545 0.5550166 0.10540604
0001b0 e7 d6 13 3e b6 03 0a bd fd 48 14 3d 52 d2 20 3e
       0.14437447 -0.033694945 0.03620242 0.15705231
0001c0 4c 65 5f 3e d1 f9 8d be 24 e8 4d 3c 73 59 65 3e
       0.21815985 -0.27729657 0.012567554 0.22397403
0001d0 f5 fc 17 3e a4 00 0e 3e ed 02 4a be ce 10 18 be
       0.14842589 0.13867432 -0.19727679 -0.1485016
0001e0 4b cc ef bd 3e 49 26 3d b0 c8 91 3e 42 eb 87 be
       -0.11708888 0.040597193 0.28473425 -0.26546675
0001f0 09 d3 2d 3e 50 c1 3f be 56 36 ac be 02 a5 fd bd
       0.16975035 -0.18726087 -0.33635205 -0.12384988
000200 bd 2d 56 3e 82 30 88 3e 65 40 65 be 71 71 09 3d
       0.20915885 0.2659951 -0.22387846 0.03355545
000210 79 f4 be 3e b1 43 65 3e ed 93 01 3e d9 a0 c7 3d
       0.37295893 0.22389103 0.12654085 0.09747476
000220 2a 86 11 3e a4 cf 81 bc 2b e0 f3 be d1 62 05 bf
       0.14211336 -0.015846081 -0.47631964 -0.52103907
000230 cf 3b fb bb 6d 2a 61 3d 76 d8 8d be 00 a2 3b 3d
       -0.007667042 0.0549721 -0.2770421 0.045808792
000240 3b ce 3f 3c d3 54 e6 3b 25 11 02 be b4 41 5f 3d
       0.011706884 0.007029155 -0.12701853 0.05450602
000250 9b a7 24 3e e6 0a a9 3e 94 a2 40 be 62 1d c4 3e
       0.16079561 0.33016127 -0.18812019 0.38303667
000260 78 ed 0a be 8f c6 c3 3c 06 28 d9 be c7 1d 3c be
       -0.1356715 0.023898391 -0.42413348 -0.18370734
000270 3d 62 ba be ee 64 19 be 74 7a 36 3e 71 cc b4 3c
       -0.36403075 -0.14979908 0.1782015 0.022070142
000280 9b d7 86 be 51 16 5d 3e a1 86 ba 3d 75 c8 b3 3e
       -0.2633637 0.21590544 0.0910771 0.35113874
000290 ac 2e a1 be b9 82 62 3d 56 65 77 be ef 24 ed bc
       -0.3148092 0.055300448 -0.2415975 -0.028948275
0002a0 6f 6d 08 bf 20 d9 9d be 6d 01 7e be 7f b8 09 3e
       -0.5329198 -0.30829716 -0.24805231 0.13449286
0002b0 ad 14 50 bd 7a cd a7 3d e9 fb a3 3e 06 35 f1 3e
       -0.050800968 0.081934884 0.3202813 0.47110766
0002c0 19 55 8a 3d bc 5e 81 bd 95 cb 58 be 93 05 b1 3e
       0.06754512 -0.06316897 -0.2117141 0.34574565
0002d0 7b e0 07 3e ce 0f d3 3d b1 0b 5b be 9f b5 17 be
       0.13269226 0.10305749 -0.21391179 -0.14815377
0002e0 fc 33 2c 3c fd 13 af 3e e9 76 2b be 7c ff 82 be
       0.010510441 0.34194937 -0.1674458 -0.25585544
0002f0 25 32 ef 3d 9c fb 18 be 71 b3 20 3e c8 33 52 be
       0.11679486 -0.14939731 0.15693451 -0.20527565
000300 7e ab af 3c 00 91 c3 bd ba f9 ae 3e 60 8f bd be
       0.021444079 -0.09549141 0.341749 -0.3702345
000310 8a 44 66 3e 66 5c 43 bd 7c 6f c0 3e 01 87 f0 be
       0.22487083 -0.04769554 0.37585056 -0.46978
000320 93 d9 44 3e 7a ed b7 be 7c 8e a4 3e 13 8c a7 be
       0.19223623 -0.35923368 0.32139957 -0.32724056
000330 00 a9 c9 bc 32 da 14 3e f1 b3 65 be 2b a7 5b 3e
       -0.024616718 0.1453636 -0.22431923 0.21450488
000340 20 3e 5f be 53 c8 7f 3e c6 92 50 be de 65 97 3e
       -0.21801043 0.24978761 -0.2036849 0.29569906
000350 14 0a 1b bf bd 23 39 3e eb ed 83 bd f9 2e 93 3e
       -0.60562253 0.1808004 -0.064418636 0.28746775
000360 3f 44 ef 3d 8d 94 3e be 14 38 35 be 42 b2 96 3e
       0.11682939 -0.18611355 -0.17697173 0.29432875
000370 dc 77 cc be ca d5 a2 3e 99 e1 dd be a3 34 4a be
       -0.39935195 0.31803733 -0.4333618 -0.19746642
000380 3c f7 7c 3e 03 2b 3c 3c be e0 44 3b 81 ad ce 3e
       0.24703687 0.011484864 0.0030041183 0.40366748
000390 49 34 41 3e 3e 1e e4 3e 18 ed 86 be de 82 8a be
       0.18867601 0.44554323 -0.26352763 -0.2705297
0003a0 51 b7 a4 3e 1c 2b 5e 3e 2c f3 8f be 93 5b 9f 3d
       0.3217111 0.21696132 -0.28115213 0.07781138
0003b0 8a 2e a0 be 4f f7 a8 3e 50 d0 3c be 33 3a c3 be
       -0.31285506 0.3300118 -0.1843884 -0.3813034
0003c0 62 1a 86 be b7 aa 51 bd 54 e7 2e 3e e5 97 5d 3d
       -0.26192003 -0.051188197 0.17080432 0.054099936
0003d0 d2 e8 b4 be b2 cd 1a be 1f eb d7 be f3 0b 96 be
       -0.35333878 -0.15117529 -0.4217157 -0.29305992
0003e0 10 1f 2d be 75 7b 95 3e 05 66 bb 3e cd 03 5a 3d
       -0.1690638 0.29195753 0.36601272 0.05322628
0003f0 7b 49 98 bc 31 02 48 3e fe d1 ee bd 3a 23 5d be
       -0.018589726 0.19532086 -0.116611466 -0.21595469

conv1.bias f4 [32]
000000 23 44 c2 be c7 4d bc bd 73 13 fc be 6c 4a 2d be
       -0.3794261 -0.09194522 -0.4923359 -0.16922921
000010 0f 68 c7 be 64 20 01 bf a5 2e 0f bf a9 58 07 3e
       -0.38946578 -0.5044005 -0.5593055 0.13217415
000020 cb f5 ab 3d 73 67 b4 be d2 d6 d0 be ea bb c2 bc
       0.08396491 -0.35235175 -0.40788895 -0.023771245
000030 ba 23 c1 bd 5b 58 47 be 2c 8d 9f 3d 4a d9 ca be
       -0.094306424 -0.19467299 0.07790598 -0.39618903
000040 ef ed a9 bd f4 44 f5 3d 2f 57 2a be dc 45 07 bf
       -0.08297335 0.119760424 -0.1663482 -0.5284097
000050 c5 63 02 bf 94 88 41 bf e0 24 0a 3e 76 c2 1b bf
       -0.50933486 -0.75599027 0.13490629 -0.608436
000060 9d f1 56 3d 86 3b d4 bd e8 17 bc be e1 16 ec be
       0.052476514 -0.10362916 -0.3673699 -0.46111205
000070 18 86 e8 3d e7 78 ee be 4d 8f cb be 43 4f 8e 3d
       0.11353701 -0.46576616 -0.39757767 0.06948712

conv2.weight f4 [32, 32, 2, 2]
000000 f2 b9 4d be 7c d2 f4 3d f8 bd c8 bd 2e 11 b2 bd
       -0.20090464 0.11954209 -0.09801859 -0.08694683
000010 9a f4 aa 3c 5d 6e 30 3d 00 84 91 bd 09 af 41 3c
       0.020868588 0.043074 -0.07105255 0.011821517
000020 60 77 a5 bc 40 36 05 3d 16 d3 52 be 48 19 34 be
       -0.020198524 0.03252244 -0.20588335 -0.17587769
000030 9a 9a cb bd 16 ff a4 bd 8a 99 0a bd c2 49 ca bd
       -0.09941597 -0.08056466 -0.033837833 -0.098773494
000040 18 6f bb bd 2e f6 e1 3c 20 d7 dc bd 27 8e 47 be
       -0.09152049 0.027583208 -0.10783219 -0.1948782
000050 6b 29 36 bd 73 66 07 3d aa 11 08 bd db 5a 98 3d
       -0.044473093 0.033056688 -0.03321997 0.07439204
000060 fc 80 17 3d 23 dd 13 3e 86 4b fc bd 5b 17 f6 3c
       0.036988243 0.14439826 -0.123190925 0.030040434
000070 f8 b5 9c be b0 8f a4 be 21 9a 5a bd d9 82 e4 be
       -0.3060758 -0.32140875 -0.053369645 -0.4463108
000080 c2 75 e7 3d f6 12 e5 3d 27 2a 10 3e 72 70 89 3e
       0.113017574 0.11185257 0.1407858 0.268436
000090 bf 31 e0 3d d0 64 ae bd 0c a9 fc 3d 1f 19 d3 3d
       0.10946988 -0.08515322 0.12336931 0.10307526
0000a0 89 06 e9 bd 58 60 90 3d dc ca 84 3d 16 75 d3 bc
       -0.113781996 0.07049626 0.06484005 -0.025812667
0000b0 2f 9b ef bc 8f 2a 86 be d9 70 32 3e 9a 22 25 be
       -0.029248802 -0.26204345 0.1742586 -0.1612648
0000c0 69 d0 03 3e 59 11 12 bd 14 05 95 3d 82 48 3a be
       0.12872471 -0.035661075 0.07276359 -0.18191722
0000d0 fd 75 78 3d 2f 1f 9c 3d 2c ad b1 3b 1d 65 e5 bd
       0.060659397 0.07623135 0.005422255 -0.112009265
0000e0 c6 0e e0 3d ed ef c2 3b 93 39 1b 3e 99 e2 f2 3d
       0.10940318 0.0059490115 0.15158682 0.11859626
0000f0 35 38 36 ba b1 41 a4 3e 5f b4 a1 bd 91 21 a5 bd
       -0.00069511245 0.3208137 -0.07895731 -0.08063043
000100 45 bd 1b 3e 51 4a c6 bc ee c0 49 be cd 31 26 bc
       0.1520892 -0.024205359 -0.19702503 -0.010143709
000110 9a 85 21 3d 9c 6f 81 be 23 8d 4f 3d 74 ee df 3a
       0.039434053 -0.25280464 0.050671708 0.0017084614
000120 f2 4a 88 3d f7 a7 4b 3d 2e 69 a9 bd 02 b5 53 be
       0.0665492 0.04972073 -0.082720146 -0.20674518
000130 fb 4e 00 be c6 f7 85 be c9 ff 55 3d 1d f0 c2 3d
       -0.12530129 -0.261656 0.05224589 0.09518454
000140 04 b9 95 3e fd a9 b7 3e f5 79 dc be 00 cd 3b be
       0.29242718 0.35871878 -0.43061796 -0.1833992
000150 60 14 8c be 52 aa 09 be 9c dd 62 bd 61 c4 5a be
       -0.27359295 -0.13443878 -0.055387124 -0.21363975
000160 61 d5 04 be a7 58 15 bb e6 d7 0f bd 60 4c 8d bc
       -0.12972023 -0.0022788437 -0.035118006 -0.017248333
000170 90 74 fb 3e 20 b2 66 3e 91 cb 75 be dc 05 94 be
       0.49112368 0.22528887 -0.24003436 -0.2891072
000180 78 63 95 be bf 3f cc 3d d9 53 03 3e 14 2b 91 be
       -0.2917745 0.09973096 0.12824954 -0.28353179
000190 b3 fc 03 3e f0 ca e3 3d e3 2a 4d be ee 5a 66 be
       0.12889366 0.11122692 -0.20035891 -0.22495624
0001a0 80 6e b0 bd 4e 94 6f 3e 0f ff 79 3d cc af 7b bd
       -0.08614826 0.23396417 0.06103426 -0.06144695
0001b0 03 ac 42 bd 20 6c df 3d e1 55 0e bb fe d4 2a 3d
       -0.047527324 0.10909295 -0.0021718668 0.04170703
0001c0 87 84 1a 3e d7 8b 2e 3e 67 82 34 3e ae 53 9c 3e
       0.15089618 0.17045532 0.1762787 0.30532593
0001d0 56 41 16 3d 1a 27 86 3e c7 f2 aa be 8e e3 23 be
       0.036683403 0.26201707 -0.3338835 -0.16004774
0001e0 7f e8 85 be 27 08 49 3e da 5a fe bd 60 2a ae 3d
       -0.26153943 0.19632016 -0.12419672 0.08504176
0001f0 26 9c 20 3e 25 c9 8c bd b7 8d 92 3d 8a a7 99 3d
       0.15684566 -0.06874303 0.07155936 0.07502659
000200 73 d5 69 be 57 47 01 be 93 04 30 be 84 6c 8b be
       -0.2283533 -0.1262487 -0.17189245 -0.27231228
000210 e7 07 c9 be 67 8b 71 be ce 57 9d be 1b 1a b1 be
       -0.39263842 -0.23588334 -0.30731052 -0.3459023
000220 95 37 bc be 29 60 e7 be 4c 19 0b bf 1c 07 9a be
       -0.36761156 -0.45190552 -0.54335475 -0.3008355
000230 dd 75 57 be dd 47 d6 be 94 4b d7 be 16 b2 db be
       -0.21041055 -0.41851702 -0.4204985 -0.42909306
000240 ad 21 6d be 69 19 87 be 9f 32 6f be 4c 6b 9f be
       -0.23157378 -0.26386574 -0.23359154 -0.3113655
000250 fc c7 3b 3e 98 1b 57 3e d3 0c 35 3e 6b ae 71 3e
       0.18338007 0.2100662 0.17680673 0.23601691
000260 62 8b b3 be 25 ed 9e be 2c c1 92 be c0 f4 8b be
       -0.35067278 -0.31040302 -0.28663003 -0.27335167
000270 c1 a8 b6 be e9 76 af be e3 b4 09 bf 6a e4 cc be
       -0.35675624 -0.3427041 -0.53791636 -0.40018016
000280 cd fb e8 be b3 74 f6 bd 10 d4 e1 be 3a 54 b4 be
       -0.4550461 -0.12033977 -0.44107103 -0.3522051
000290 ff 61 49 bc 3b 43 a8 3c 63 09 0c be af ae 57 3d
       -0.0122914305 0.02053987 -0.13675456 0.052656826
0002a0 1a 1b f2 3c 17 53 99 bd eb dc d8 3c 51 b8 f1 3d
       0.029553939 -0.07486551 0.02647253 0.11802734
0002b0 1b 23 d6 3d 14 d4 01 3e d2 aa e8 3d 36 52 4c 3e
       0.104559146 0.12678558 0.113607064 0.19953236
0002c0 ab 26 da be 44 d0 15 bf ca 25 2a bf bb 09 02 bf
       -0.42607626 -0.58520913 -0.6646391 -0.507961
0002d0 5e 58 d2 bd 34 fa 26 be 44 85 f9 bd 32 b1 0f be
       -0.10270761 -0.16306382 -0.121836215 -0.14032438
0002e0 36 08 37 be c6 9c a0 be de 58 a7 bd 21 ee 3b be
       -0.17874226 -0.3136961 -0.08171247 -0.18352558
0002f0 21 ce 65 3e d6 b9 31 3e 28 fd 80 3e fa ff 85 3e
       0.22441913 0.17356047 0.25193143 0.26171857
000300 dc d4 6f be dd 45 ea bc 4f 43 87 bd 02 29 86 bd
       -0.23421043 -0.028597767 -0.06604635 -0.0655079
000310 3e 41 49 be 7d dc 83 be 40 9a 3a be 02 de 7f be
       -0.19653794 -0.25754157 -0.18222904 -0.24987033
000320 11 1a 99 3c 4b 9a a4 3c 86 87 c3 3d 38 8d 12 3d
       0.018689187 0.020093104 0.095473334 0.035779208
000330 a7 f1 3b be ca 56 80 be a9 b3 4a bc 42 eb 0c be
       -0.18353902 -0.25066215 -0.012371936 -0.13761619
000340 82 1d ab 3e 7e 3f c8 3e 67 e8 a7 3e 0d 33 e2 3e
       0.3342095 0.3911094 0.32794496 0.44179574
000350 15 cd 50 3e 29 3e e2 3b 34 47 91 3e ea ba e8 3c
       0.20390733 0.0069043827 0.28374636 0.02840944
000360 f2 6a be be 19 0e c2 be 96 b2 10 bf 39 66 9f be
       -0.37190968 -0.3790138 -0.565225 -0.31132677
000370 a7 60 74 be 9e 69 91 be 0b cb 90 be 40 3b 8b be
       -0.23864995 -0.28400892 -0.2827991 -0.27193642
000380 bb 99 f6 be f5 cb da be 38 96 1d bf bb 77 e5 be
       -0.48164162 -0.42733732 -0.6155734 -0.4481791
000390 09 9b c1 3d 97 9d e1 bc 89 5e 4d bd 0a e3 06 3a
       0.09453399 -0.027540965 -0.050138984 0.0005145526
0003a0 f9 c2 63 be c1 4a 34 be 8e b2 34 be 74 0c d5 bc
       -0.22242345 -0.17606641 -0.17646238 -0.026006915
0003b0 47 bd 45 bd 34 d8 8e 3b b5 4f d7 3b c0 a8 39 bc
       -0.048276212 0.0043592695 0.006570781 -0.011331737
0003c0 e9 4d 34 be 0f 02 65 3c ef 8e 99 bd 20 8d 68 bd
       -0.17607845 0.013977542 -0.074979655 -0.056775212
0003d0 ac 0e 18 bd a3 e8 5f 3c 84 b8 3f be d7 66 d9 bc
       -0.037123367 0.013666305 -0.18722731 -0.026538296
0003e0 28 01 94 bd 7d b4 16 bd ca 34 2a 3d cc 93 fa 3c
       -0.07226783 -0.03679322 0.04155425 0.030588053
0003f0 00 a5 f2 be c7 b3 a1 be a8 66 b6 be d2 0b ca be
       -0.4739151 -0.31582472 -0.35625196 -0.39462143

conv2.bias f4 [32]
000000 0c 7f 3b 3d 02 9e 9e bd fc 83 d9 bd 41 00 1b be
       0.04577546 -0.07744981 -0.10620877 -0.15136816
000010 11 5c f5 3d d5 1a b9 bd 6b d5 14 be a8 b4 1a 3e
       0.11980451 -0.09038321 -0.14534537 0.15107977
000020 73 f7 7a bd ba e0 17 3e fe d3 4f be 69 63 3f 3e
       -0.061271142 0.1483182 -0.20295712 0.18690266
000030 7e ec d1 3d a2 38 f2 bd 63 8c e7 be 9b 81 eb bd
       0.102501854 -0.11827208 -0.45224294 -0.1149933
000040 e9 28 2c 3c e3 f7 5e 3b 82 78 55 3d 37 02 f1 3d
       0.010507801 0.0034022264 0.05211688 0.117680006
000050 fd bb 4f 3d 17 77 57 be 32 3c 42 3d 1d 80 0a 3e
       0.05071639 -0.21041523 0.047420688 0.13525434
000060 30 7f 86 bd 04 4d 48 3e 28 c1 16 3d c1 0a 00 be
       -0.06567228 0.19560629 0.036805302 -0.12504102
000070 74 ad ed 3b 5e 69 50 3e 96 7b 8c 3e 3c 73 1e be
       0.0072533432 0.20352694 0.2743804 -0.15473646

conv3.weight f4 [64, 32, 2, 2]
000000 d8 96 d6 bd 7f 40 b3 3d d5 fb 05 3c c9 d4 95 3e
       -0.1047799 0.08752536 0.008177717 0.29263905
000010 73 c8 20 3d de a8 60 be 1b d3 6e 3e 65 0d 53 be
       0.039253663 -0.21939418 0.23322718 -0.20610578
000020 cc 5b 74 3d 78 f5 95 3d bb 6d b9 3d 7e 3d f6 3c
       0.059657857 0.0732221 0.090541326 0.030058619
000030 46 3a 06 3d 1a 0c 71 bd 7a e1 6d 3c 6b 12 08 bd
       0.032770418 -0.05884943 0.01451909 -0.03322069
000040 ee 65 c4 be 70 d9 a3 be 16 cb 6c be a6 d3 8c be
       -0.38359016 -0.3200183 -0.23124346 -0.27505225
000050 db e2 92 bd b8 cf 45 3d 96 24 6f bd cd e0 28 3d
       -0.071721755 0.0482938 -0.0583845 0.04123001
000060 f9 c9 f4 3c d2 81 05 bd 97 37 3e bd 6d 4a 86 bd
       0.029881464 -0.03259451 -0.046439733 -0.06557164
000070 15 3b 16 be 5e 2b 59 be c3 9b 9f be a9 a3 d9 be
       -0.14670976 -0.2120795 -0.31173524 -0.42507675
000080 ca 2a ed bc 0b 1d bd bd 26 04 d6 3c 76 55 ce bc
       -0.028951067 -0.09234055 0.026125025 -0.025187235
000090 32 e7 81 3e 29 f9 92 bd 40 ab 77 3e 87 91 c9 be
       0.253717 -0.0717643 0.2418642 -0.3936884
0000a0 65 97 3a 3e 01 5c 9e 3e ac 62 66 3e b1 1e 9a 3e
       0.18221815 0.30929568 0.22498578 0.3010154
0000b0 4e a6 4a 3d 4b d4 b9 3d 63 96 d1 3c 2f 3f 33 3d
       0.049475007 0.09073695 0.025584405 0.04376143
0000c0 2a c2 98 bc dc c2 bb be 1f 6f c5 3e 07 07 37 bd
       -0.018647272 -0.36672103 0.3856134 -0.044684436
0000d0 36 6b 42 3e 83 88 51 3e 90 80 70 bd 07 ee f3 be
       0.1898621 0.20462231 -0.058716357 -0.47642538
0000e0 a7 51 0d be 59 1a 72 bd ae 70 09 bd c6 3a 73 be
       -0.13800679 -0.05910716 -0.033554725 -0.23752889
0000f0 f3 15 ea 3d 22 e3 9b 3d 2e 2c 70 3d 49 c8 49 3d
       0.11429968 0.076116815 0.058635883 0.049263272
000100 7c 37 8b 3d 1d 71 76 3d a7 0e b5 3d 3f 93 28 bc
       0.06797692 0.060166467 0.08840685 -0.010289012
000110 53 ce 3b 3d 94 a0 8b 3d 45 5c df bd 2a 0f ca bd
       0.045851063 0.06817737 -0.10906271 -0.098661736
000120 fa 4d 22 3e c1 bc 5e bc a1 d6 02 be 76 37 14 bd
       0.15850058 -0.013594807 -0.12777187 -0.036185704
000130 38 f5 88 3e b4 79 38 bd 56 de f9 3d 68 a9 96 3c
       0.26749587 -0.04503794 0.1220061 0.018391326
000140 ab c9 86 be 06 c6 3b 3d 06 e3 45 3d f7 24 20 3e
       -0.26325735 0.045843147 0.04831221 0.15639101
000150 b0 89 48 3e 9c b4 1e 3e 13 9a 25 bd 99 de ca 3d
       0.19583774 0.15498585 -0.04043014 0.099057384
000160 44 8d b5 bd e3 15 c8 bc c0 07 8a bd 7a e4 08 bd
       -0.08864835 -0.024424499 -0.067397594 -0.033421017
000170 a1 e2 c7 be 45 d3 09 be 43 46 b7 3e a0 42 52 3e
       -0.39040092 -0.13459499 0.35795793 0.20533228
000180 8c c1 17 3e 6f 94 6d be 2b 58 87 3e 39 15 5c be
       0.14819926 -0.23201154 0.26434454 -0.21492471
000190 bc 74 ca 3e bb 12 46 be 5f e6 a4 3c f7 7f a4 be
       0.39542186 -0.19343083 0.02012938 -0.3212888
0001a0 8e c0 8f 3d 8c aa 20 be ad 1d 49 be 16 0d f4 bd
       0.07019149 -0.15690058 -0.19640227 -0.119165584
0001b0 f4 8e 89 3d 7e d2 50 3c 09 99 a2 bd 3b 25 30 bc
       0.06716719 0.012745498 -0.079393454 -0.010751064
0001c0 38 87 03 3d f6 3f 1e 3d 03 15 d4 3d 84 25 36 3d
       0.032111377 0.038635217 0.1035557 0.04446937
0001d0 8a 1d 7c 3e d6 59 bc bd 37 70 1e 3e 4c bd 44 3b
       0.24620643 -0.09196822 0.15472494 0.0030020056
0001e0 77 10 76 3d e1 ee 88 3e c8 7c ee 3d d6 50 66 3e
       0.060074296 0.2674475 0.11644894 0.22491774
0001f0 88 9d 25 3c 35 02 85 3c 22 88 d8 3d a5 06 35 bd
       0.010108359 0.016236404 0.1057284 -0.04419579
000200 83 5f 56 be 48 29 0e bf c8 9a 7e 3d 4b cf 93 bc
       -0.20934872 -0.5553174 0.06215933 -0.01804318
000210 98 f9 76 3e b2 4d ba bd 06 50 81 3e 92 0c 55 3e
       0.2411865 -0.090968505 0.25256366 0.20805576
000220 72 73 1b 3d 16 db 32 3b 5f 7e d6 bd e5 ef a5 bd
       0.037951894 0.002729123 -0.10473322 -0.08102397
000230 be fa 80 bd fb 16 d0 bd cb 13 15 3d ed 11 75 3d
       -0.06297825 -0.10160633 0.03639583 0.05983155
000240 a6 4b a6 bd b8 70 1a be ee fe 3b be 0e 69 ba bd
       -0.081198975 -0.15082061 -0.18358967 -0.09102069
000250 74 d6 f1 bb 78 f6 d1 bc f0 33 d1 bc 0b ce 75 3d
       -0.007380301 -0.02563022 -0.025537461 0.06001095
000260 ce b4 71 bc 3f e1 d1 3c b4 80 6d 3d c5 ad 16 3d
       -0.01475258 0.025620101 0.05798407 0.036786813
000270 9a 36 06 bd fc da 94 be d1 49 df 3c a6 0b 36 be
       -0.032766916 -0.29073322 0.027256878 -0.17777881
000280 67 b3 0c bc f4 63 63 3c 4d c7 6e bc 9e 0e 9b bc
       -0.008587695 0.013878811 -0.014573884 -0.018927868
000290 3f ec d0 3d c5 75 1f 3e 13 de cb bd 51 15 61 be
       0.1020131 0.1557227 -0.09954467 -0.21980788
0002a0 a0 38 6d bd 93 5b 52 3d 94 0e 83 be 73 22 f9 bd
       -0.05791533 0.051356863 -0.2559706 -0.12164774
0002b0 5d b8 37 3d e6 86 af be 86 2d 75 3e 09 d5 a3 bd
       0.044853557 -0.34282607 0.23943147 -0.079996176
0002c0 3d 5d 56 3e af 3b 85 3e e9 ad a6 bd e0 b4 41 be
       0.20934005 0.26022097 -0.081386395 -0.18916655
0002d0 75 36 ca 3d e7 dc a0 3d 8b f4 dc 3d c4 79 81 3e
       0.09873668 0.07854634 0.1078883 0.25288212
0002e0 69 8a a3 be 92 90 0e bd 3e 47 8b be 22 69 4e 3d
       -0.31941536 -0.03480584 -0.2720279 0.05039323
0002f0 d8 31 fc bc a2 0e 9e 3d 8f a0 1c bd 33 45 ac 3c
       -0.030785486 0.07717635 -0.038239058 0.02102909
000300 25 30 24 3e c9 10 79 3c 46 71 21 bc 67 12 54 3d
       0.1603399 0.015201756 -0.009853667 0.051775362
000310 74 1c 83 bc 99 70 8c bd 4e ea 9c bd e4 8c a4 3d
       -0.016004778 -0.06857414 -0.076618776 0.08034685
000320 5e c5 38 3d 09 05 ff bc 51 1c b7 be 6b b1 30 be
       0.0451101 -0.03113033 -0.3576379 -0.1725518
000330 a8 63 07 be 2f 5b e1 3c 42 97 06 bf 5f ae c3 bd
       -0.1322161 0.0275093 -0.5257455 -0.09554743
000340 95 82 07 be 7f d2 c1 bc 0a 37 a6 be 3e 04 b9 be
       -0.13233407 -0.023659943 -0.32463866 -0.3613605
000350 4e f8 62 bd 89 ed bb bc 78 b2 c1 3c 67 15 04 3e
       -0.055412583 -0.022940414 0.02364467 0.1289879
000360 99 e0 0d 3d 43 64 7a 3d 82 7a 8e 3d e0 7f 2f 3e
       0.03463802 0.061130773 0.0695696 0.17138624
000370 ca 58 72 be 46 d2 8d be 7b a4 04 3e 55 52 ff bc
       -0.23666683 -0.27699488 0.1295337 -0.031167189
000380 2a b5 6d 3e 12 95 89 3e 0d b3 f8 bd a2 1c 96 bc
       0.2321364 0.26871544 -0.12143526 -0.0183242
000390 f9 0c 61 3e 24 48 f1 3d fb c5 10 be 5a 37 46 be
       0.21977605 0.11781338 -0.14138024 -0.19357052
0003a0 0f e4 94 be f5 2f 40 bf f4 a1 74 be 01 28 f5 be
       -0.29080245 -0.75073177 -0.23889905 -0.47882083
0003b0 46 72 8e 3c 5e 56 9a bd 10 37 1a 3d 2f fe a7 3d
       0.017388474 -0.075360045 0.037650168 0.082027785
0003c0 e3 93 6d 3e c9 bf bd 3d 93 af 98 be f0 fe b5 bd
       0.23200946 0.09265096 -0.29821452 -0.08886516
0003d0 5d 61 91 3d 3b 7a 51 3e 8a 3e 4b be 4d db 6d 3d
       0.07098649 0.20456783 -0.19848076 0.05807047
0003e0 80 b3 08 3e ef dc a7 3d 52 cd a3 3d 25 89 25 bf
       0.13349724 0.081964366 0.07998146 -0.6466239
0003f0 02 2c 5e bd e3 77 01 3d 3a 3d 70 bd c1 77 c7 3b
       -0.054241188 0.031608474 -0.05865214 0.006087274

conv3.bias f4 [64]
000000 65 7b 25 b9 7f b9 af 3e a2 0e 14 3e 93 9c cc be
       -0.00015781594 0.3432121 0.14458707 -0.39963207
000010 c6 17 27 3d b3 ab b4 bc 6e 6f f0 3d e5 bf b2 bd
       0.040794156 -0.022054529 0.117400035 -0.08728007
000020 f0 ab 07 3e ae 96 0a 3e 62 09 bd be 53 b7 b9 bd
       0.13249183 0.13534042 -0.3692122 -0.090681694
000030 30 dd 21 3d 61 c0 d9 bd e7 c9 d7 3d 0b 24 19 3e
       0.03951758 -0.106323965 0.10536557 0.14955156
000040 55 6d 39 bd ba 9e 06 3d 1c c8 36 3d 07 70 7e 3d
       -0.045270283 0.032866217 0.044624433 0.062118556
000050 b9 10 fe 3d 2f df bf 3a 6f fc ef be ff 79 0f be
       0.12405533 0.0014638657 -0.4687228 -0.14011382
000060 09 01 d7 3a f9 56 27 be e6 e4 b3 3e 14 1a b0 3d
       0.0016403507 -0.16341771 0.35135573 0.08598724
000070 f6 41 79 3e cb f8 10 3e 97 79 05 3e 84 86 51 3e
       0.24341568 0.14157407 0.13034664 0.2046147
000080 8b ad ad bd 1a 45 67 3e 60 2f 88 bd 8c 89 5f be
       -0.08480366 0.22584954 -0.06649661 -0.21829814
000090 a4 93 f2 3c 70 1b 7f 3e 42 fd 64 be 48 14 0e 3d
       0.029611416 0.2491281 -0.22362235 0.03468731
0000a0 a5 a4 b6 3d 46 24 3a 3e 27 7c 04 3d ae 69 2a be
       0.08918122 0.181779 0.032344963 -0.16641876
0000b0 b6 70 4e 3d b3 46 21 bd 03 5e 6c 3d b8 bf e4 3d
       0.05040046 -0.039374065 0.057706844 0.1116938
0000c0 20 bd 2f bd 45 bb 7d bd e2 9a a6 3d 49 f7 c2 bd
       -0.042904973 -0.061946172 0.0813501 -0.09519822
0000d0 ae 03 6e 3d 42 d9 2e be a9 7f 06 3e 99 52 19 bc
       0.058108978 -0.17075065 0.13134636 -0.009358072
0000e0 fe 6e 06 be 7a 8b e1 3c b6 71 e2 bd aa 37 4d be
       -0.13128278 0.027532328 -0.11056845 -0.20040765
0000f0 b3 98 a1 3d f1 95 0b 3c 48 07 11 be fd 97 33 bd
       0.07890453 0.008519636 -0.14162934 -0.04384612

conv4.weight f4 [64, 64, 2, 2]
000000 83 e5 39 3d 38 c2 49 be cb ff b3 bd 3a 36 11 bf
       0.045384895 -0.19702995 -0.08789023 -0.5672337
000010 0e 17 66 be 8c 38 6d 3e e8 f0 55 be 85 bd 75 3d
       -0.22469732 0.23166102 -0.2089268 0.059995193
000020 c6 72 c5 be 30 69 f4 3d 25 9c 8e be 30 30 24 bd
       -0.38564128 0.119341254 -0.27853504 -0.040085018
000030 e4 6b d8 bd dd aa 47 be c9 80 25 be b7 61 39 be
       -0.105674535 -0.19498773 -0.16162409 -0.18103682
000040 4f 04 0c 3e 7f 98 c8 3d fe da aa 3d 69 2d aa be
       0.13673519 0.09794711 0.08342551 -0.3323777
000050 e5 dd 7a be ba a6 aa be 6a a7 03 be 26 e0 47 be
       -0.24498709 -0.33330327 -0.12856832 -0.195191
000060 ee bd 24 3d 36 00 11 bf 55 9a 0a 3e 56 cd 2e be
       0.040220194 -0.56640947 0.13535435 -0.17070517
000070 f2 99 55 bd 06 9c f5 3c b7 42 3b 3e 01 54 ef 3c
       -0.052148767 0.029981624 0.18287168 0.02921486
000080 7d 6b 2d 3e 1c 2c 48 be c4 2d 9a 3e b0 c0 02 3d
       0.16935535 -0.19548076 0.3011304 0.031922042
000090 82 79 43 be ad 49 91 be 12 6e eb bd 02 62 03 be
       -0.1908932 -0.28376523 -0.114956036 -0.12830356
0000a0 8f 3d 07 be 12 94 ce 3c c9 5c 87 be fa 6d d5 be
       -0.13207076 0.02521709 -0.26437977 -0.41685468
0000b0 4e cc f4 be e5 0e ce 3d bb 7c f3 be 4c d4 e4 be
       -0.47812122 0.10061435 -0.475561 -0.4469322
0000c0 ae 31 b8 be c2 ee 21 3d aa 2d c4 bd 86 15 84 be
       -0.35975403 0.039534338 -0.09579022 -0.2579767
0000d0 a7 77 af bc 44 ce 8d bd e4 d3 40 3d ed 68 a5 bd
       -0.02141936 -0.06924108 0.047077075 -0.08076654
0000e0 0b 1d 88 3e d6 5b 9c bc f8 04 e7 3e 5d fa 89 3e
       0.26584658 -0.01908676 0.45120978 0.26948825
0000f0 16 1c 0b be aa 87 4a be c2 af 88 3e 36 31 5b bc
       -0.13584933 -0.19778314 0.26696593 -0.013378432
000100 56 59 ba bd 1d f5 62 3d 18 88 ac be ac ca 8a bc
       -0.09099071 0.05540954 -0.3369758 -0.016942345
000110 78 a5 51 be aa 0e 3e bd c4 b7 bf bd a3 94 b9 be
       -0.20473278 -0.046400703 -0.093612224 -0.36246213
000120 93 2d 19 3e c0 f0 3c be 1c 7f 65 3d 3c b5 aa 3d
       0.14958791 -0.18451214 0.056029424 0.08335349
000130 f8 ec c3 be b9 d0 ed bd 84 50 83 be 4d 83 97 bd
       -0.3826673 -0.11612076 -0.25647366 -0.073980905
000140 9f 4f 16 be 41 a7 bc 3e a3 bf 35 bc 27 0c ef 3d
       -0.1467881 0.36846355 -0.011093053 0.1167224
000150 14 9b c3 be fe ff f8 3e 16 14 e5 3c f6 55 42 bd
       -0.38204253 0.48632807 0.02796368 -0.04744526
000160 61 09 33 3d de 00 22 3d d0 f5 a5 be 9e ba aa 3d
       0.043710116 0.03955161 -0.32414103 0.08336376
000170 60 02 e5 bc 2a ed 2f 3d fb 53 0b 3d 65 49 ad 3d
       -0.027955234 0.042950787 0.034015637 0.084612645
000180 e2 a1 fa be db ad 0b be 03 77 47 be 33 c1 85 3e
       -0.48951632 -0.1364054 -0.19478993 0.26123962
000190 a7 0c 02 3d 59 c5 90 3e 28 06 0c be b0 c3 21 3e
       0.031750347 0.28275564 -0.13674223 0.15797305
0001a0 b9 b0 e9 3d 86 e1 41 be b0 1c 59 3e 43 bb b4 bd
       0.1141066 -0.18933687 0.2120235 -0.0882478
0001b0 b7 f4 64 be 82 33 04 bf 34 69 1d be b5 a1 b6 be
       -0.22358976 -0.51641095 -0.15372163 -0.35670248
0001c0 33 89 21 be 43 bb ec be 0d e7 28 3d 11 79 6f be
       -0.15774994 -0.4623662 0.041235972 -0.23386027
0001d0 d2 8a 1c be 5e 31 81 be 51 90 07 bf d2 d0 bb be
       -0.15287331 -0.25232977 -0.52954584 -0.36682755
0001e0 48 7f 7f 3d 3d 9f 91 3e d5 c0 d5 3c 6c f2 84 be
       0.062377244 0.28441802 0.026092926 -0.25966203
0001f0 6b 02 1a be c9 ca 55 3e d4 ae 6d be 22 fe c0 3d
       -0.15039985 0.20878138 -0.23211223 0.09423472
000200 73 bf 31 be 37 0b e2 bd 0b ae 5c be 69 94 33 be
       -0.17358188 -0.11037295 -0.21550767 -0.17537083
000210 fb f6 93 3d 93 80 b5 be cc dc d5 3c bd 9e 2e 3e
       0.07224842 -0.35449657 0.02610626 0.17052741
000220 23 bd a5 3d 73 14 10 be 54 87 64 be 84 c1 49 3e
       0.080927156 -0.14070301 -0.22317249 0.19702727
000230 e5 d4 10 be f8 a0 35 3d ee d0 dd bd b2 6a 78 3c
       -0.14143713 0.044342965 -0.10830866 0.015162157
000240 30 c3 23 bd 6d cb 68 bd e9 18 35 3e 92 04 11 3e
       -0.039981067 -0.056834627 0.17685284 0.141619
000250 a6 61 be 3d 32 92 31 3d 98 76 17 3e 46 ca 13 3d
       0.09295969 0.043352313 0.14791334 0.036081575
000260 1c bc 2b be a9 74 f4 3c 53 e5 00 bf ce 98 04 bf
       -0.16770977 0.029840784 -0.5034992 -0.5179566
000270 66 f9 a4 be e5 6a 08 3e a6 43 97 be da 47 e4 bd
       -0.32221526 0.13322027 -0.295438 -0.11146517
000280 ba b5 23 be 71 70 4e 3e 6d d0 48 be 31 49 a0 3e
       -0.15987292 0.2016008 -0.19610758 0.3130584
000290 40 8f 5b be 81 da 83 bc aa 66 30 bd e0 14 c0 bd
       -0.21441364 -0.016095402 -0.043066658 -0.093789816
0002a0 1c 37 16 3e be f1 0f be 58 53 f7 bd 02 f5 89 be
       0.1466946 -0.14057061 -0.120764434 -0.2694474
0002b0 a2 0b 7e bd e5 93 4c bd 2a d0 08 bd e8 27 ff 3a
       -0.062022813 -0.04994573 -0.033401646 0.0019466849
0002c0 d7 3e c8 3d f9 80 bd 3d d4 5e e6 bb 65 16 b4 3e
       0.09777611 0.09253115 -0.0070303474 0.35173336
0002d0 5f 1a 08 be bb 00 d3 3c 02 93 bf be 82 34 07 be
       -0.1329131 0.025757184 -0.37416846 -0.13203624
0002e0 86 43 6a bc 06 df cd be 60 ed 7a 3e ca ab c5 be
       -0.014298325 -0.40209216 0.24504614 -0.38607627
0002f0 78 fb d4 3d 28 2f 11 bf 30 ee 3b 3e 68 4d b5 bd
       0.10399526 -0.5671258 0.1835258 -0.08852655
000300 d7 89 95 be d4 70 76 3e c7 fa 33 be f8 e4 b8 3d
       -0.29206726 0.24066478 -0.17576133 0.09028047
000310 33 3b 65 bd 11 24 6c be 41 02 b9 3e f5 fd 08 be
       -0.05596466 -0.23060633 0.36134532 -0.13378127
000320 e5 f3 2b 3e 54 5a 23 be c6 82 c1 3e a4 61 f8 3d
       0.16792257 -0.15952426 0.37795085 0.121279985
000330 94 39 ad bd a3 25 1a 3d 73 b1 0e 3d ec 31 8e 3d
       -0.08458248 0.03763355 0.034837198 0.069431156
000340 a2 07 00 3e ad 53 d0 3c af dd 82 3e 06 95 7c 3e
       0.12502912 0.025430525 0.25559756 0.24666223
000350 99 42 40 3e bb 6f d0 be fd 91 77 bd 8e 56 f3 bd
       0.18775405 -0.40710244 -0.06044196 -0.11881743
000360 74 9d a2 3e 00 aa 6f be 90 87 ab 3e 71 08 aa 3e
       0.31760752 -0.23404694 0.33501863 0.33209565
000370 10 eb 94 be 52 f7 68 be 3a 49 d9 bd b6 bb c6 3c
       -0.29085588 -0.22750595 -0.1060967 0.02425943
000380 19 84 19 3e 55 db 4b 3e 04 47 fa bd d1 af b2 3e
       0.14991798 0.19907887 -0.122205764 0.34899762
000390 83 f0 86 be d4 17 32 3e f6 92 d9 be 36 4c cc bd
       -0.2635537 0.17391902 -0.42494935 -0.099754736
0003a0 3d 29 06 be 88 0e 1a 3e 5f 09 d3 3d cd 1b ae be
       -0.13101669 0.15044606 0.10304522 -0.34005585
0003b0 5f 1c c2 bd b8 a9 c6 bd 1d 4e 37 3c 72 ce 0f 3c
       -0.094780676 -0.0970034 0.011188057 0.008777248
0003c0 8c 4d 43 3d 6f a1 83 be c5 d2 ad 3e bf bb bf be
       0.047681376 -0.25709102 0.33949867 -0.37447926
0003d0 ee 22 0c 3d 05 de be be 50 e7 4d 3e d3 49 3f 3b
       0.034213 -0.37278762 0.2010777 0.002918829
0003e0 1a a0 7b be 1c b2 04 3e 9c 66 b5 bd a7 c2 34 be
       -0.24572793 0.12958568 -0.08857462 -0.17652379
0003f0 04 1a 40 be c8 09 0e 3e b7 14 58 be 57 33 e5 3d
       -0.18759924 0.13870919 -0.21101652 0.11191433

conv4.bias f4 [64]
000000 60 59 98 bd c7 63 a4 bd 89 16 02 bc 1f 08 d1 bd
       -0.07438922 -0.080268435 -0.007939943 -0.10206627
000010 89 f2 ac 3d 0f 8d 0c 3e 44 08 96 3b fe ce 65 bd
       0.084446974 0.13725685 0.004578622 -0.056105606
000020 04 10 0e be aa fd 5b 3e 9c c1 c6 bd d4 58 ef bc
       -0.13873297 0.21483484 -0.09704897 -0.029217161
000030 ce 05 00 3e 2f 7a 96 3e fd 34 f4 3d 65 b7 2f 3e
       0.12502214 0.29390094 0.11924169 0.17159803
000040 f4 e7 2c 3c a2 34 0e be f2 fe 27 3e 64 7a 2d 3d
       0.010553349 -0.13887265 0.16405848 0.04235305
000050 c6 1d bd 3e 3c 1e b3 3d a5 dc a1 be 41 b3 3b bd
       0.36936778 0.08746001 -0.3161365 -0.045825247
000060 be 44 bb bd 7e 67 3e 3e 4d aa 38 bd 08 e9 a1 3e
       -0.09143971 0.18594167 -0.045084286 0.316231
000070 66 c5 ba 3d f6 f5 00 3e b5 e1 19 be b8 c4 ae 3d
       0.09119682 0.12593827 -0.15027507 0.08533615
000080 e5 98 81 3e 4a 41 0f 3e df 47 eb bd c1 c4 0c be
       0.25311962 0.1398975 -0.11488318 -0.1374693
000090 db af 94 bd c4 8f 67 be 68 47 98 be 21 75 77 be
       -0.07260104 -0.22613436 -0.2974198 -0.24165775
0000a0 19 af 65 3d f2 17 98 be 22 bf 47 3c 59 12 9a 3d
       0.05607519 -0.2970577 0.012191566 0.07523031
0000b0 bf c6 d6 3d 8d 15 8d bd 6d e1 d4 3d 31 e3 14 be
       0.104871266 -0.06888876 0.10394559 -0.14539792
0000c0 54 79 22 3e 4b 76 3a be 6a 98 c2 bd cb 23 3b b9
       0.15866596 -0.18209188 -0.09501727 -0.00017847044
0000d0 c9 68 2f 3e 5d 58 89 3e 82 ff 89 3e 08 23 d4 bd
       0.17129816 0.26825228 0.2695275 -0.10358244
0000e0 e5 fd c5 bc a3 a1 83 3c be 05 83 bd af bf cb bd
       -0.024168918 0.016068285 -0.063975796 -0.0994867
0000f0 be 7b 09 3e cf a3 3a 3e e2 5c d8 bd c9 5d 93 bd
       0.1342611 0.1822655 -0.10564591 -0.071956225

conv5.weight f4 [128, 64, 2, 2]
000000 1a c6 19 bd fe 71 3d be 9d ad 04 be 9f c3 5d be
       -0.03754244 -0.18500516 -0.12956853 -0.21656655
000010 ea c8 aa 3c e0 d8 51 bd 28 88 d9 3c 83 30 ad bd
       0.020847756 -0.05123222 0.026554182 -0.084565185
000020 2e 04 2c 3e b4 1d 95 3c 9b 76 43 3e 32 51 5f be
       0.1679847 0.01820264 0.19088213 -0.21808317
000030 b9 00 55 be ea 83 dc 3c a4 76 63 be 36 95 13 be
       -0.20801057 0.02691837 -0.22213227 -0.14412388
000040 ea d1 de be 2e 1d 0c bf 43 b4 16 be 2f 47 9a be
       -0.43519527 -0.54732025 -0.14717202 -0.30132434
000050 69 01 af be 33 57 10 3d e6 bf 02 be 60 bb 2f be
       -0.34180763 0.03523941 -0.12768516 -0.17161322
000060 2e 9c 22 be 26 49 be 3c cb 2b 89 3d ee e0 29 3d
       -0.1587989 0.02322824 0.06697806 0.041474275
000070 fc 1f 82 be 77 94 78 be e9 8b 50 be 58 bb 20 bd
       -0.25415027 -0.24275385 -0.20365871 -0.039241165
000080 46 e4 6e bd 5e 3f de be 04 a3 1c bd c7 98 b9 bd
       -0.058323167 -0.4340772 -0.0382414 -0.09062343
000090 ca 1e 19 3e 35 60 1a bd 49 8a 8b 3e a2 08 62 bd
       0.14953151 -0.037689406 0.2725394 -0.055184014
0000a0 0a d0 2c be 47 57 a1 be 7e 08 08 3d db 05 05 3e
       -0.16876236 -0.315119 0.033211224 0.12990515
0000b0 bd d1 d3 be 1c b7 84 bd 19 ad 07 3d 1a 28 96 3e
       -0.41370955 -0.06480238 0.033124063 0.2932747
0000c0 e2 ce 5f be 1b 60 4b bf 9b b6 51 bd 4d e1 0d be
       -0.21856263 -0.7944352 -0.051199537 -0.13855477
0000d0 73 0c 87 be cd e3 2e bc 2a 0d 54 be b4 9e 6d 3d
       -0.26376686 -0.010674429 -0.20708147 0.05801268
0000e0 d1 2e f7 bc 0b 40 38 be f7 4f c8 be 47 78 5e 3e
       -0.030173691 -0.1799318 -0.39123508 0.2172557
0000f0 f3 e8 98 be d5 4c d1 3d 27 2e 9c 3d 1f f8 aa bc
       -0.29865226 0.10219733 0.0762599 -0.020870266
000100 ba 70 86 3e 38 89 60 3e ba 4b ec be 07 32 a1 be
       0.2625788 0.21927345 -0.46151525 -0.3148348
000110 e4 8e 49 bb 16 18 58 3c 8d 10 6f 3c e6 6f 6b 3d
       -0.0030755335 0.013189336 0.014591348 0.05747976
000120 fb eb 2e 3d fb fb 86 3e 18 9e a1 be 56 d5 36 be
       0.042705517 0.2636412 -0.31565928 -0.17854819
000130 68 00 e8 3d 52 d6 21 be 96 17 34 3d 1f f1 4b 3e
       0.113282025 -0.15804413 0.043967806 0.19916199
000140 d0 19 ed 3d 00 1a 69 bb f8 f3 f1 3d f6 20 22 3d
       0.11577189 -0.0035568476 0.118141115 0.039582215
000150 5d 43 13 bd 42 35 cb bd 1c 3a d7 bc 0a 81 f9 3d
       -0.035952915 -0.099222675 -0.026272826 0.121828154
000160 c5 80 ab be 2b 07 36 3d 39 af 13 bc 8d 1c a9 3e
       -0.3349668 0.04444043 -0.009013944 0.33029595
000170 e0 03 ca be 78 67 91 be dc 7c a8 3d ed 8a 08 bc
       -0.3945608 -0.28399253 0.0822694 -0.008333904
000180 59 7e 95 bd 21 01 03 bd 6d 9f 9b bd 4f e7 a9 bd
       -0.072994895 -0.0319835 -0.075987674 -0.08296072
000190 fa ef 1e be c5 57 5a be 1b 55 ab 3e a1 71 20 3e
       -0.15521231 -0.21322544 0.33463368 0.15668346
0001a0 29 04 11 bc e1 d8 80 bd 3e c2 65 3e 7f ae 03 bf
       -0.0088510895 -0.06291366 0.22437379 -0.51438135
0001b0 56 41 f5 3e 3e 0a 2a bd 42 db 82 3e 8d 20 27 3e
       0.4790141 -0.041513674 0.25557905 0.16321011
0001c0 75 4a 1f 3e d6 1d c8 3c b0 83 26 3f 61 12 53 bd
       0.15555747 0.02442829 0.6504469 -0.0515312
0001d0 af ab 45 3e 2f 7d 86 3e 3a b1 ba 3e 2c df 9e 3e
       0.19303773 0.26267383 0.36463338 0.31029642
0001e0 d4 b3 34 bd 1f 8d 0b 3d e0 ee 07 bd 77 39 45 be
       -0.04411681 0.03407013 -0.033186793 -0.19260202
0001f0 cf bb 60 3e d2 8c 3b be bc f6 5d 3e 51 17 b8 be
       0.21946643 -0.18315437 0.21676153 -0.3595529
000200 55 84 e1 bd 81 0b 83 bd 87 d6 af bd 73 bb a5 bd
       -0.110115685 -0.063986786 -0.0858584 -0.08092394
000210 6d 52 87 be 9c dc 06 bc 13 79 87 bd 46 8f 15 bd
       -0.26430073 -0.008231308 -0.0661489 -0.03651359
000220 51 2e d3 3e cd 0b 17 3f 99 20 4a 3e ed 15 ec 3e
       0.41246274 0.5900238 0.19738998 0.46110478
000230 db 9d 43 be 4c da 8b 3e 2e 1e a0 be 9f 7f 89 bc
       -0.19103186 0.27314985 -0.31273025 -0.016784487
000240 cb 84 18 3d 1b 9c 86 3d 92 72 cc 3c a1 bb 8d be
       0.037236016 0.065727435 0.024956975 -0.27682212
000250 14 17 b9 be ff 6b 91 be b2 1e 29 be 05 3c 97 3e
       -0.3615042 -0.28402707 -0.16515616 0.2953798
000260 b3 f5 e7 bc 65 59 c3 3e fc 35 e5 bd 15 40 75 be
       -0.0283154 0.3815414 -0.11191937 -0.23950227
000270 ba 19 40 be c3 b8 35 be 42 3a fc be 58 13 84 be
       -0.18759814 -0.17746262 -0.49263197 -0.25796008
000280 09 6e b3 bd 07 aa 94 be af a9 79 3e ee 95 61 bd
       -0.08761222 -0.2903597 0.24381135 -0.055074625
000290 ba fd bd be 75 5e 7a be 34 34 56 be 55 81 98 be
       -0.3710764 -0.24450095 -0.20918351 -0.29786173
0002a0 5b ce 42 bd 17 8a b6 3d ee f4 44 be 6f 3f d1 be
       -0.047560077 0.08913057 -0.19234058 -0.40868708
0002b0 bf 63 a2 3d 96 2a 0f 3e c5 4c f5 3d e6 50 c3 3e
       0.07929181 0.13981089 0.11977533 0.38147658
0002c0 4d 5f 8f bd 1f e4 6a be 58 27 23 bb a9 96 5f be
       -0.07000599 -0.22938584 -0.0024895277 -0.21834816
0002d0 5b d9 2a 3d d9 09 00 3e 74 e2 65 be 7c ab cf bd
       0.041711193 0.12503757 -0.22449666 -0.1014013
0002e0 78 23 e0 be 73 52 bc bc 30 f7 e7 be e6 a4 a4 be
       -0.4377706 -0.022988534 -0.45305777 -0.32157058
0002f0 c2 71 2c 3e ba 92 c3 bd 9e d2 94 be 88 ff b5 be
       0.1684027 -0.0954947 -0.29066938 -0.35546517
000300 3b 1f 0a be ec 67 b9 bc 88 6a 1b be 44 be 47 bd
       -0.13488476 -0.022632562 -0.15177357 -0.048765436
000310 00 25 1f 3e 37 7c 3b bf 73 6d 91 be 87 2b 1e bf
       0.15541458 -0.7323641 -0.28403816 -0.6178517
000320 7e ca 4f be 69 2f 97 3d 15 a7 99 bd 2a 7e 84 be
       -0.20292088 0.0738209 -0.075025715 -0.25877506
000330 05 14 37 3e f4 47 98 3d 0b cd 5c 3e 37 f6 89 be
       0.1787873 0.07435599 0.21562593 -0.2694566
000340 37 5f 88 3d 14 ad 74 be 34 10 59 be 1f 2b 94 be
       0.06658786 -0.23894149 -0.21197587 -0.2893915
000350 66 d7 90 3e ed a7 d8 3e 0e e3 4b 3d b7 7f 5b be
       0.28289336 0.42315617 0.049777083 -0.21435438
000360 1d d6 57 3e 08 bd 8e be 20 8f 2d be b8 95 ac be
       0.21077771 -0.27878594 -0.16949129 -0.33707976
000370 ca b8 a7 be f0 a5 e8 be d5 75 3f 3e 56 91 70 be
       -0.3275817 -0.454391 0.18697293 -0.23492941
000380 8c d0 80 3d b0 25 08 be 21 be 12 3e 23 12 60 3d
       0.06289777 -0.13295627 0.14330341 0.054704797
000390 5b 06 80 3d 9c 0b 10 3e a4 d1 ce be 11 f9 2f be
       0.06251212 0.14066929 -0.40394318 -0.17184855
0003a0 d1 b1 c5 3c 89 65 98 3e 74 b4 68 be ee 60 99 3e
       0.024132641 0.29764965 -0.22725087 0.29956764
0003b0 d5 9a 6b be dd 3d 01 be 21 dc c3 bd 9c 63 94 3d
       -0.23008282 -0.12621255 -0.09563471 0.072455615
0003c0 97 23 bf bd 9f a6 d0 3d c3 dd d5 3d 02 1f 6a 3f
       -0.0933296 0.101880305 0.10442688 0.91453564
0003d0 d3 3b b1 be 50 50 4d be 6d 57 7c bd 29 36 d5 be
       -0.34615955 -0.20050168 -0.061606813 -0.41642883
0003e0 12 ad 0b 3e b7 00 c7 3d 37 e7 d4 bc a6 b7 12 be
       0.1364024 0.09716933 -0.025989158 -0.14327869
0003f0 39 db 64 bd 7b 61 67 bc 8a fa 70 3a 0e fd 71 3c
       -0.05587313 -0.014122362 0.00091926067 0.014769806

conv5.bias f4 [128]
000000 4b be 67 3e 10 4c fa 3c b0 24 60 3e 1f a8 3e 3e
       0.22631185 0.030553848 0.21888995 0.1861882
000010 ce b9 c6 bd 32 83 e7 3d aa f7 4d 3e 0a ec ae 3d
       -0.09703408 0.113043204 0.20114008 0.08541115
000020 f9 21 4a 3e 2e 4d 9e be f1 aa 07 3e 56 73 41 3d
       0.19739522 -0.30918258 0.13248803 0.047229134
000030 43 08 83 be b0 05 4a be 45 ce ef bd 55 ef 78 3d
       -0.2559224 -0.19728732 -0.11709265 0.06077512
000040 31 e8 85 be 00 1e 21 3e 76 3b ee 3d 7b 08 dd bd
       -0.2615371 0.157341 0.11632435 -0.10792633
000050 a4 ad fb 3d 65 17 cf 3c ac 4d a8 bc c2 79 b9 3c
       0.12288979 0.02527971 -0.02054485 0.022641066
000060 f9 d2 cc 3e 66 14 2e 3e a4 47 f3 3d c6 3d e9 be
       0.4000471 0.16999969 0.11878899 -0.45554942
000070 eb 8b f3 bd 82 18 26 be c5 1b 50 bc fd 46 77 bc
       -0.118919216 -0.16220286 -0.012701933 -0.0150926085
000080 84 2a cd 3b f4 33 6d be 82 3e 1f 3e e6 69 4d 3e
       0.006261172 -0.2316435 0.15551189 0.20059928
000090 ba 3e 2f 3d 1d 91 c7 3d da 28 ef bc 62 4d c4 bc
       0.04278443 0.09744475 -0.029194284 -0.02396268
0000a0 35 cc 72 3d 6f 92 3f 3d 26 47 b2 3d b1 79 a7 3d
       0.05927678 0.04677051 0.08704977 0.08177508
0000b0 02 03 6e 3c 7b 64 2d 3e f4 ca 40 bd 58 97 5f 3e
       0.014527084 0.16932862 -0.04706855 0.21835077
0000c0 20 f8 01 3e a1 61 00 3e 7f c3 09 be c1 fd 88 be
       0.12692308 0.12537242 -0.13453482 -0.267561
0000d0 e6 bc cd be 50 56 85 be 6a c0 8a 3d 60 75 43 3e
       -0.4018318 -0.26042414 0.06774981 0.19087744
0000e0 a9 bd 34 3d 90 23 3d 3e c9 e9 27 be 50 f3 44 3d
       0.044126187 0.18470597 -0.16397776 0.048083603
0000f0 35 69 44 bd cc ae 64 3e 68 21 34 3e b3 52 4c 3e
       -0.047951896 0.22332305 0.17590868 0.19953422
000100 47 e2 1c be 23 15 81 3e 27 49 c8 bd 18 e4 6b 3e
       -0.15320693 0.2521144 -0.09779578 0.2303623
000110 c6 87 7d bd ce 98 8b 3c cc 14 23 bc 93 60 b3 bc
       -0.06189706 0.017040636 -0.009953689 -0.021896636
000120 bb c1 89 3d 88 bf 2b be 65 76 cc bd 5d f9 57 be
       0.06726404 -0.16772282 -0.099835195 -0.21091218
000130 06 52 62 3c 9c a4 8e be 69 07 42 be 37 85 17 3d
       0.013813501 -0.27859962 -0.18948139 0.036992278
000140 28 f5 05 3e 4f 64 39 bd 41 bb e9 3b 34 ba a3 bd
       0.13081801 -0.045261677 0.007132918 -0.079945
000150 03 49 8f bb 08 97 1a bc 2a af ad bd 9f 93 d0 3d
       -0.0043727173 -0.009435423 -0.084806755 0.101844065
000160 c3 a6 af be 3d c7 8f 3e 73 d0 09 3e ff ef 2c bc
       -0.34306917 0.28081694 0.13458423 -0.010555266
000170 f4 41 0b be 99 00 74 bd a2 1a 00 be 4f ee b0 3c
       -0.13599378 -0.059570882 -0.1251016 0.02159801
000180 26 c1 84 3e 25 e3 84 3d c8 0f 0d be 8d b3 9a 3e
       0.2592861 0.06488637 -0.13775551 0.3021511
000190 45 f2 06 be 42 21 0c be 39 b6 0b 3e 3c f9 10 bd
       -0.13178356 -0.13684562 0.13643731 -0.03539394
0001a0 40 17 04 be 8e 11 9e bd d2 65 47 3e af 91 2c be
       -0.12899494 -0.07718192 0.19472435 -0.16852449
0001b0 8b 63 14 3e c6 75 31 3e 09 ae 84 3e 0e fd bd bd
       0.14491098 0.17330083 0.25914028 -0.09276782
0001c0 f4 89 60 3e 96 8b 20 3d 77 f9 83 3d f2 8b d4 bc
       0.21927625 0.03919562 0.06444066 -0.025945637
0001d0 be 3f 3c be 55 83 65 3d 3c a1 e6 be 17 97 38 3e
       -0.1838369 0.05603345 -0.45044887 0.18026386
0001e0 6b f0 6f 3e a8 ac d3 3c 81 bd 8a 3c 64 de 9a 3c
       0.23431556 0.025839165 0.016936066 0.018904872
0001f0 fa 8b f5 3d 62 43 a4 bd 74 7e 2f be d3 20 38 be
       0.11989589 -0.08020665 -0.17138082 -0.17981271
