model/model_25.pth (torch_old, 571877 bytes, 24 tensors)

conv1.weight f4 [32, 3, 2, 2]
0	0xbde0177e	-0.10941981
1	0xbde69377	-0.112585954
2	0xbe1c6ace	-0.15275118
3	0x3ec85c3b	0.39132866
4	0xbf180f78	-0.59398603
5	0x3e1b316b	0.1515557
6	0xbe0c7bf7	-0.13719164
7	0x3edceaca	0.4314788
8	0xbe97dbb9	-0.29659823
9	0xbd990c07	-0.07472997
10	0x3b61ab6c	0.003443445
11	0x3e8cbbe5	0.27487102
12	0x3e4ec644	0.2019282
13	0xbe04d286	-0.12970933
14	0x3df9e2fc	0.12201497
15	0x3c744a9f	0.014910369
16	0x3d8f12fe	0.06986044
17	0xbd82766a	-0.06370242
18	0x3ea6908f	0.32532164
19	0x3d235705	0.03987791
20	0xbe0bf4a2	-0.13667539
21	0xbe7b57da	-0.24545231
22	0xbd284dad	-0.041089702
23	0xbe72f6b7	-0.23726927
24	0xbdf53c4b	-0.119743906
25	0x3d31330b	0.04326157
26	0x3e007310	0.12543893
27	0x3e6b4e9a	0.22979203
28	0xbeab6e32	-0.3348251
29	0x3e4e850b	0.2016794
30	0xbd31e7a8	-0.043433815
31	0x3e9ec58d	0.31010094
32	0x3e0b84fc	0.13624948
33	0xbe4bf30c	-0.19916934
34	0xbeebaf3d	-0.46032134
35	0xbdf0758b	-0.117411695
36	0x3ec60a0e	0.38679546
37	0xbd4668af	-0.048439678
38	0x3d8a6890	0.06758225
39	0xbe8d702f	-0.27624652
40	0x3ec68a1f	0.38777253
41	0xbe6c61fb	-0.23084252
42	0x3e2a3f90	0.1662581
43	0xbe46cd09	-0.19414152
44	0xbd726232	-0.059175678
45	0x3c8af7d5	0.016963879
46	0xbe5b9d38	-0.21446693
47	0xbe166e72	-0.14690569
48	0xbe20e56e	-0.1571252
49	0xbdd6453d	-0.10462425
50	0xbebe8f8f	-0.37218902
51	0xbe61dae1	-0.22056152
52	0x3e4911e8	0.19635737
53	0xbdab58ec	-0.0836657
54	0x3e9ac487	0.30228063
55	0x3e629d9e	0.22130439
56	0xbd3daa6a	-0.046305098
57	0xbe915695	-0.2838637
58	0x3e1d401c	0.15356487
59	0x3cbddec8	0.02317752
60	0xbe4360ac	-0.19079846
61	0x3deef91d	0.11668608
62	0x3e76a824	0.24087578
63	0x3e830980	0.25593185
64	0xbe47c567	-0.19508897
65	0xbe080fae	-0.13287231
66	0xbba7bf30	-0.005119227
67	0xbcbf43b8	-0.02334772
68	0xbea86c57	-0.32895157
69	0xbeb77353	-0.35830173
70	0x3df73a95	0.120717205
71	0xbe2f5a11	-0.17124201
72	0x3d0d346e	0.03447383
73	0xbd9b5f6b	-0.07586559
74	0xbd635e6a	-0.055509962
75	0xbd31e347	-0.04342964
76	0x3e2a79d6	0.16648039
77	0x3e2248cd	0.15848084
78	0xbe4d774d	-0.20065041
79	0x3e4bb309	0.19892515
80	0xbe22679e	-0.1585984
81	0xbe571480	-0.21003914
82	0xbb9734a1	-0.004614428
83	0xbdd45d76	-0.10369389
84	0x3e72477e	0.23660085
85	0x3d51c11d	0.051209558
86	0xbf126058	-0.5717826
87	0x3d74a437	0.05972692
88	0x3e026ae4	0.12736088
89	0x3ef9e1b6	0.48805016
90	0xbdf15ba6	-0.11785059
91	0xbe7a87a4	-0.24465805
92	0x3e78d8d3	0.24301462
93	0x3ea26415	0.31716982
94	0xbeb3a467	-0.35086367
95	0xbe52fdc4	-0.20604616
96	0x3d2e5033	0.042556953
97	0xbe93e973	-0.28889045
98	0x3e3941b1	0.18091466
99	0xbdc7bf93	-0.09753337
100	0x3e09ced4	0.13457805
101	0xbeea570b	-0.45769534
102	0x3ed50677	0.41606495
103	0x3d121b4f	0.035670575
104	0xbe6c7f43	-0.23095421
105	0xbecdd248	-0.40199494
106	0x3f0de95b	0.554342
107	0x3dd613a3	0.10452964
108	0x3e145c76	0.14488396
109	0xbd073e83	-0.0330186
110	0x3d15bbe1	0.03655613
111	0x3e215bae	0.1575763
112	0x3e60128a	0.21882072
113	0xbe8d9aa3	-0.2765704
114	0x3c559776	0.013036599
115	0x3e65e06e	0.22448894
116	0x3e18c8ef	0.149204
117	0x3e0efbd4	0.13963252
118	0xbe499749	-0.19686617
119	0xbe1779c9	-0.14792551
120	0xbdefbd7c	-0.11706063
121	0x3d25ec06	0.040508293
122	0x3e910db1	0.28330758
123	0xbe8882ce	-0.26662296
124	0x3e2e4f62	0.1702247
125	0xbe3f2148	-0.1866504
126	0xbead1225	-0.33802906
127	0xbe0036e0	-0.12520933
128	0x3e570fee	0.2100217
129	0x3e88c350	0.26711512
130	0xbe670dda	-0.22563878
131	0x3d023ccc	0.03179626
132	0x3ebe6c5e	0.37192053
133	0x3e646f65	0.22308119
134	0x3e00e366	0.12586746
135	0x3dc5fc08	0.09667212
136	0x3e10eaaa	0.14152017
137	0xbc867026	-0.016410898
138	0xbef3dff3	-0.47631797
139	0xbf056ffe	-0.5212401
140	0xbc02c159	-0.007980668
141	0x3d5f9cf3	0.054593038
142	0xbe8db943	-0.27680406
143	0x3d3bd248	0.045854837
144	0x3c548a94	0.012972493
145	0x3c10e04b	0.008842538
146	0xbe008160	-0.12549353
147	0x3d6757d4	0.056480244
148	0x3e24df6b	0.16100852
149	0x3ea96350	0.33083582
150	0xbe3fda30	-0.18735576
151	0x3ec4ac66	0.3841278
152	0xbe0af733	-0.13570862
153	0x3ccae24a	0.024766106
154	0xbed8e0d6	-0.42359036
155	0xbe3af371	-0.18256928
156	0xbeba2935	-0.36359563
157	0xbe195177	-0.14972483
158	0x3e36b441	0.17842199
159	0x3cb50d63	0.02210111
160	0xbe8675a1	-0.2626162
161	0x3e5d77f2	0.21627787
162	0x3dba7e40	0.091061115
163	0x3eb3c70c	0.35112798
164	0xbea0aa21	-0.31379798
165	0x3d64271a	0.055701353
166	0xbe7745d9	-0.24147739
167	0xbcec3394	-0.028833188
168	0xbf08636a	-0.53276694
169	0xbe9dca4d	-0.30818406
170	0xbe7da914	-0.2477153
171	0x3e09c9e7	0.13455926
172	0xbd50ddd9	-0.05099282
173	0x3da7cb20	0.0819304
174	0x3ea3f4ff	0.32022855
175	0x3ef13397	0.47109672
176	0x3d893bc5	0.06700853
177	0xbd821b3f	-0.06352853
178	0xbe594ea5	-0.21221407
179	0x3eb0df3a	0.34545308
180	0x3e05f890	0.130831
181	0x3dce9a34	0.10088006
182	0xbe5dd6de	-0.21663997
183	0xbe1a7771	-0.15084626
184	0x3c20552b	0.009785931
185	0x3eaeac74	0.34115946
186	0xbe2da3dc	-0.16957039
187	0xbe83e710	-0.25762224
188	0x3df03609	0.117290564
189	0xbe185dd8	-0.14879549
190	0x3e1fd97d	0.15610309
191	0xbe51f471	-0.20503403
192	0x3cb20252	0.021729622
193	0xbdc2e927	-0.095171265
194	0x3eaee7af	0.34161136
195	0xbebd8a4a	-0.3701957
196	0x3e667452	0.2250531
197	0xbd410a62	-0.047129042
198	0x3ec04164	0.3754989
199	0xbef06a03	-0.4695588
200	0x3e453286	0.19257554
201	0xbeb78899	-0.35846403
202	0x3ea46c05	0.32113662
203	0xbea767a7	-0.32696268
204	0xbcbc3031	-0.022972198
205	0x3e1642f3	0.14673977
206	0xbe63ef73	-0.22259311
207	0x3e5d1f8a	0.21594062
208	0xbe5e893b	-0.21732037
209	0x3e8037c9	0.2504256
210	0xbe4fb90d	-0.20285435
211	0x3e97cbb2	0.29647595
212	0xbf1afa77	-0.6053843
213	0x3e395f00	0.18102646
214	0xbd83464c	-0.064098924
215	0x3e935ab7	0.28780147
216	0x3df099e2	0.11748101
217	0xbe3e04d3	-0.18556528
218	0xbe35a8e2	-0.17740205
219	0x3e969ce9	0.29416588
220	0xbecc1a48	-0.398638
221	0x3ea339d5	0.3188006
222	0xbede18d3	-0.43378314
223	0xbe4a1510	-0.19734597
224	0x3e7e3226	0.24823818
225	0x3c4dc128	0.012558259
226	0x3b53e817	0.0032334381
227	0x3ecf03ee	0.40432686
228	0x3e425fd6	0.18981871
229	0x3ee47699	0.44621733
230	0xbe85d059	-0.2613552
231	0xbe898b2e	-0.26863998
232	0x3ea51c52	0.3224817
233	0x3e5ec139	0.21753396
234	0xbe8f6c75	-0.28012434
235	0x3da137de	0.07871984
236	0xbe9ffd51	-0.31247953
237	0x3ea90e6b	0.33018813
238	0xbe3cb6d0	-0.18429112
239	0xbec32058	-0.38110614
240	0xbe862db3	-0.2620674
241	0xbd52db5c	-0.05147873
242	0x3e2f3f4c	0.1711399
243	0x3d5de627	0.05417457
244	0xbeb50c77	-0.35361072
245	0xbe1b6aec	-0.15177506
246	0xbed7db26	-0.42159384
247	0xbe9614c8	-0.2931273
248	0xbe2ddcc4	-0.16978747
249	0x3e94d21e	0.29066557
250	0x3ebb25a6	0.3655216
251	0x3d576953	0.05259068
252	0xbc91e426	-0.017808985
253	0x3e499bb9	0.1968831
254	0xbdf10b04	-0.11769679
255	0xbe5d1758	-0.21590936

conv1.bias f4 [32]
0	0xbec2209c	-0.37915504
1	0xbdbeb5a5	-0.0931199
2	0xbefc470b	-0.4927295
3	0xbe2d20ed	-0.16907091
4	0xbec698dd	-0.387885
5	0xbf01381f	-0.5047626
6	0xbf0f2b72	-0.5592567
7	0x3e0598e0	0.13046598
8	0x3dae2c30	0.08504522
9	0xbeb41fa4	-0.3518039
10	0xbecf9fe9	-0.4055169
11	0xbcc0d2ee	-0.02353808
12	0xbdbef668	-0.09324342
13	0xbe4978cb	-0.19674985
14	0x3d9df490	0.07712662
15	0xbecae391	-0.39626744
16	0xbdaa4ccf	-0.08315431
17	0x3df5d04f	0.12002622
18	0xbe27910b	-0.16363923
19	0xbf074f8d	-0.5285576
20	0xbf0242ea	-0.5088335
21	0xbf411fd3	-0.75439185
22	0x3e0a06e7	0.13479196
23	0xbf1c5061	-0.6106015
24	0x3d523956	0.05132421
25	0xbdd41385	-0.103552856
26	0xbebd343b	-0.3695391
27	0xbeeb1135	-0.45911565
28	0x3dea6d78	0.11446661
29	0xbeefd488	-0.46841836
30	0xbecba840	-0.39776802
31	0x3d905773	0.070479296

conv2.weight f4 [32, 32, 2, 2]
0	0xbe4a348f	-0.19746612
1	0x3df69985	0.12041
2	0xbdc36bbd	-0.09542034
3	0xbdb3677d	-0.08759973
4	0x3ca712a5	0.020394633
5	0x3d335753	0.04378445
6	0xbd8f49f9	-0.06996531
7	0x3c4c3daa	0.012465874
8	0xbca427e0	-0.020038545
9	0x3d03dae6	0.03219118
10	0xbe53e92a	-0.20694414
11	0xbe3689d8	-0.1782602
12	0xbdc7b711	-0.09751714
13	0xbda20c0b	-0.07912453
14	0xbd090644	-0.03345324
15	0xbdc89906	-0.09794812
16	0xbdc0b163	-0.09408834
17	0x3cd9ff48	0.026610985
18	0xbde13b6d	-0.10997663
19	0xbe48b640	-0.19600773
20	0xbd3624ab	-0.044468563
21	0x3d06d6cb	0.032919686
22	0xbd02fce6	-0.031979464
23	0x3d9c673a	0.076368764
24	0x3d1540af	0.03643864
25	0x3e14107f	0.14459418
26	0xbdff85f5	-0.12476722
27	0x3cf3d31f	0.029763756
28	0xbe9b89c1	-0.30378535
29	0xbea3ce1f	-0.31993195
30	0xbd59fe05	-0.053220768
31	0xbee3a6cf	-0.44463202
32	0x3de1552e	0.11002575
33	0x3de210ab	0.110383354
34	0x3e10f89a	0.14157334
35	0x3e892ab8	0.26790404
36	0x3de0b3ab	0.10971769
37	0xbdac7d38	-0.08422321
38	0x3dfc7235	0.12326471
39	0x3dd32c23	0.10311153
40	0xbde672bc	-0.112523526
41	0x3d94291b	0.07234403
42	0x3d88cee3	0.066800855
43	0xbcc1757f	-0.023615597
44	0xbcf017d2	-0.029308233
45	0xbe864457	-0.26224014
46	0x3e3146da	0.17312184
47	0xbe2552c7	-0.16144858
48	0x3e05a5c2	0.13051513
49	0xbd0ddd68	-0.034634978
50	0x3d96adb9	0.07357354
51	0xbe397bbb	-0.18113606
52	0x3d7c0bca	0.06153468
53	0x3d9b35e2	0.07578637
54	0x3bce951d	0.006304397
55	0xbde649dc	-0.11244556
56	0x3de16572	0.11005677
57	0x3bd71452	0.0065637017
58	0x3e1ccdda	0.15312901
59	0x3df2fc09	0.11864478
60	0xb9a1b582	-0.00030843547
61	0x3ea3b6fd	0.31975546
62	0xbda18a51	-0.0788771
63	0xbda352cb	-0.07974776
64	0x3e1bf33b	0.15229504
65	0xbcc6beac	-0.024260841
66	0xbe48c218	-0.19605291
67	0xbc1a4cf3	-0.00941776
68	0x3d2d804b	0.042358678
69	0xbe808d85	-0.2510797
70	0x3d5a49e6	0.05329313
71	0x3b3507f5	0.002762315
72	0x3d8a7892	0.06761278
73	0x3d4b403a	0.049621798
74	0xbdac8517	-0.084238224
75	0xbe556de4	-0.20842701
76	0xbdff260b	-0.12458428
77	0xbe851dd4	-0.2599932
78	0x3d59dd75	0.053189714
79	0x3dbec118	0.093141735
80	0x3e951a14	0.2912146
81	0x3eb6dc55	0.35714975
82	0xbedce02f	-0.43139789
83	0xbe3ccb19	-0.1843685
84	0xbe8c19a8	-0.27363324
85	0xbe09ff36	-0.13476261
86	0xbd60690f	-0.05478769
87	0xbe5c2c15	-0.21501191
88	0xbe04af9e	-0.12957618
89	0xbad4f114	-0.0016246163
90	0xbd1024f7	-0.035191502
91	0xbc8937f8	-0.01675032
92	0x3efb62d7	0.49098846
93	0x3e6605e5	0.22463186
94	0xbe75b8a0	-0.2399621
95	0xbe943b84	-0.28951657
96	0xbe94a679	-0.2903326
97	0x3dcfc902	0.10145761
98	0x3e036f8d	0.12835522
99	0xbe904011	-0.2817388
100	0x3e0571c1	0.13031675
101	0x3de5353e	0.11191796
102	0xbe4d3e58	-0.20043314
103	0xbe66b8fd	-0.22531505
104	0xbdb42958	-0.08796948
105	0x3e70d5cc	0.23519057
106	0x3d6f7be2	0.058467753
107	0xbd7dad4a	-0.06193284
108	0xbd39f838	-0.045402735
109	0x3de2367f	0.110455506
110	0xbabbdb1a	-0.0014332265
111	0x3d3016b0	0.042990386
112	0x3e18eb01	0.14933397
113	0x3e2d3373	0.16914158
114	0x3e35ca0d	0.17752858
115	0x3e9bae5b	0.3040646
116	0x3d0cf2a4	0.034411088
117	0x3e85621a	0.26051408
118	0xbeaa3a95	-0.3324782
119	0xbe24fe6d	-0.1611268
120	0xbe84d509	-0.25943783
121	0x3e49dfa7	0.19714223
122	0xbdfe2501	-0.12409402
123	0x3dae42ed	0.08508859
124	0x3e1e407f	0.15454291
125	0xbd8facdf	-0.070153944
126	0x3d93ab17	0.07210367
127	0x3d992b4f	0.074789636
128	0xbe6908db	-0.22757284
129	0xbdfeac38	-0.12435192
130	0xbe2d9c5b	-0.16954176
131	0xbe8ae0da	-0.27124673
132	0xbec8f4e8	-0.3924935
133	0xbe7132f3	-0.23554592
134	0xbe9d4b1c	-0.30721366
135	0xbeb0ff88	-0.34569955
136	0xbebc2c78	-0.36752677
137	0xbee7a700	-0.45244598
138	0xbf0af36c	-0.5427768
139	0xbe9a60b4	-0.30151904
140	0xbe5717fe	-0.21005246
141	0xbed762bd	-0.4206752
142	0xbed76147	-0.42066404
143	0xbedc59d2	-0.43037277
144	0xbe6be406	-0.23036203
145	0xbe862fde	-0.26208395
146	0xbe6d76a0	-0.23189783
147	0xbe9e7ec2	-0.30956084
148	0x3e3ecc32	0.18632582
149	0x3e5a2afa	0.21305457
150	0x3e381614	0.17977172
151	0x3e748ed6	0.23882613
152	0xbeb38b62	-0.35067278
153	0xbe9eed25	-0.31040302
154	0xbe92c12c	-0.28663003
155	0xbe8bf4c0	-0.27335167
156	0xbeb57d99	-0.35447386
157	0xbeae8580	-0.34086227
158	0xbf08ebe3	-0.53484935
159	0xbecc691e	-0.39923948
160	0xbee815c0	-0.45329094
161	0xbdef99dd	-0.11699269
162	0xbee08428	-0.43850827
163	0xbeb26d74	-0.3484913
164	0xbc44ee3e	-0.012019692
165	0x3ca5b365	0.020227144
166	0xbe0bd27b	-0.1365451
167	0x3d55cff7	0.052200284
168	0x3cecfe84	0.028929956
169	0xbd9b0876	-0.07569973
170	0x3cd10c15	0.025518456
171	0x3df090c4	0.11746362
172	0x3dd862a0	0.10565686
173	0x3e030912	0.12796429
174	0x3deb3908	0.11485487
175	0x3e4db1c9	0.20087351
176	0xbed9ebfe	-0.4256286
177	0xbf15c7a7	-0.5850777
178	0xbf2a6ab3	-0.6656906
179	0xbf0253e3	-0.5090925
180	0xbdcc28c7	-0.09968715
181	0xbe23ae56	-0.15984473
182	0xbdf21fe0	-0.11822486
183	0xbe0c48fa	-0.13699713
184	0xbe3511e4	-0.17682606
185	0xbe9fecd9	-0.31235388
186	0xbda22202	-0.07916643
187	0xbe39e97c	-0.18155473
188	0x3e65b318	0.224316
189	0x3e31a8a2	0.17349485
190	0x3e80fd28	0.25193143
191	0x3e859a62	0.26094347
192	0xbe6d57a3	-0.23177962
193	0xbcd1f8e5	-0.025631377
194	0xbd82b131	-0.06381453
195	0xbd81ec91	-0.063439496
196	0xbe46c0a2	-0.19409421
197	0xbe82d898	-0.25555873
198	0xbe37d081	-0.17950632
199	0xbe7e395a	-0.24826565
200	0x3c9802fd	0.018556112
201	0x3ca1dd4f	0.019758848
202	0x3dc3b9c8	0.09556919
203	0x3d135360	0.035968184
204	0xbe3bf82d	-0.1835639
205	0xbe80a8db	-0.25128826
206	0xbc4a1637	-0.012334398
207	0xbe0ca611	-0.13735224
208	0x3eabd963	0.3356429
209	0x3ec90dd2	0.39268357
210	0x3ea89405	0.3292543
211	0x3ee2e782	0.4431725
212	0x3e50cd15	0.20390733
213	0x3be23e29	0.0069043827
214	0x3e914734	0.28374636
215	0x3ce8baea	0.02840944
216	0xbebde642	-0.37089735
217	0xbec128d2	-0.37726456
218	0xbf10589a	-0.56385195
219	0xbe9eea51	-0.31038144
220	0xbe734346	-0.23756132
221	0xbe90b031	-0.28259423
222	0xbe9033b2	-0.2816444
223	0xbe8a63b9	-0.27029207
224	0xbef5c3af	-0.48000857
225	0xbed9dbf0	-0.42550611
226	0xbf1ce2e7	-0.61283726
227	0xbee4827a	-0.44630796
228	0x3dc4b8a3	0.09605529
229	0xbcd9601c	-0.026535086
230	0xbd480cfa	-0.0488405
231	0x3ac8bf42	0.0015315788
232	0xbe63c2f9	-0.22242345
233	0xbe344ac1	-0.17606641
234	0xbe34b28e	-0.17646238
235	0xbcd50c74	-0.026006915
236	0xbd45bd47	-0.048276212
237	0x3b8e23ee	0.0043377792
238	0x3bd20888	0.0064097084
239	0xbc39ac49	-0.01133258
240	0xbe3323e2	-0.17494157
241	0x3c78bedc	0.015182223
242	0xbd96e9b5	-0.07368795
243	0xbd625d5c	-0.055264816
244	0xbd106264	-0.035250083
245	0x3c818b10	0.01581338
246	0xbe3de0f7	-0.18542849
247	0xbcc74f30	-0.024329752
248	0xbd966bad	-0.07344756
249	0xbd1b5ba9	-0.03792921
250	0x3d27e007	0.040985133
251	0x3cf98f09	0.030463712
252	0xbef1908f	-0.47180602
253	0xbea0483f	-0.3130512
254	0xbeb4ead7	-0.3533542
255	0xbec915f3	-0.39274558

conv2.bias f4 [32]
0	0x3d3e64cb	0.046482842
1	0xbd99f1fb	-0.07516857
2	0xbdd983fc	-0.10620877
3	0xbe1b0041	-0.15136816
4	0x3df39d8b	0.11895283
5	0xbdb91ad5	-0.09038321
6	0xbe14d56b	-0.14534537
7	0x3e1a3f71	0.15063263
8	0xbd7af773	-0.061271142
9	0x3e17deac	0.14831036
10	0xbe4fd3fe	-0.20295712
11	0x3e41dbc3	0.18931489
12	0x3dd294e1	0.10282303
13	0xbdf16463	-0.11786725
14	0xbee8488f	-0.45367858
15	0xbdeb819b	-0.1149933
16	0x3c2c28e9	0.010507801
17	0x3b5ef7e3	0.0034022264
18	0x3d53cf9f	0.051711675
19	0x3df195c9	0.117961474
20	0x3d4d6961	0.050149325
21	0xbe577717	-0.21041523
22	0x3d3e1658	0.046408027
23	0x3e08f9a6	0.13376483
24	0xbd88025b	-0.06641074
25	0x3e4561c2	0.19275573
26	0x3d0b7f43	0.034056913
27	0xbe000ac1	-0.12504102
28	0x3bcb8120	0.0062104613
29	0x3e51288f	0.20425628
30	0x3e8c6367	0.27419588
31	0xbe1e733c	-0.15473646

conv3.weight f4 [64, 32, 2, 2]
0	0xbdd21c95	-0.10259358
1	0x3db9c2f0	0.090703845
2	0x3c2a3a75	0.010389914
3	0x3e96fb8c	0.2948879
4	0x3d226b5c	0.039653167
5	0xbe613830	-0.2199409
6	0x3e7131be	0.23554131
7	0xbe51bb4c	-0.20481604
8	0x3d745bcc	0.059657857
9	0x3d95f578	0.0732221
10	0x3db96dbb	0.090541326
11	0x3cf63d7e	0.030058619
12	0x3d063a46	0.032770418
13	0xbd710c1a	-0.05884943
14	0x3c6de17a	0.01451909
15	0xbd08126b	-0.03322069
16	0xbec4694b	-0.38361582
17	0xbea40c23	-0.3204051
18	0xbe6dcf7b	-0.23223679
19	0xbe8c640d	-0.27420083
20	0xbd92e2db	-0.071721755
21	0x3d45cfb8	0.0482938
22	0xbd6f2496	-0.0583845
23	0x3d28e0cd	0.04123001
24	0x3cf4c9f9	0.029881464
25	0xbd0581d2	-0.03259451
26	0xbd3e3797	-0.046439733
27	0xbd864a6d	-0.06557164
28	0xbe16b57c	-0.14717668
29	0xbe57beea	-0.21068922
30	0xbe9fcee4	-0.31212533
31	0xbed86d60	-0.42270947
32	0xbced2aca	-0.028951067
33	0xbdbd1d0b	-0.09234055
34	0x3cd60426	0.026125025
35	0xbcce5576	-0.025187235
36	0x3e81e845	0.2537252
37	0xbd9205ec	-0.07130036
38	0x3e78f67e	0.2431278
39	0xbec887fa	-0.39166242
40	0x3e3a9765	0.18221815
41	0x3e9e5c01	0.30929568
42	0x3e6662ac	0.22498578
43	0x3e9a1eb1	0.3010154
44	0x3d5022b5	0.05081435
45	0x3dbd2173	0.092348956
46	0x3cda5fb7	0.026656969
47	0x3d39def3	0.045378637
48	0xbc944f02	-0.01810408
49	0xbebbb80a	-0.36663848
50	0x3ec65bcb	0.38741907
51	0xbd30fc1d	-0.043209184
52	0x3e46610b	0.19372956
53	0x3e54b010	0.20770288
54	0xbd69b709	-0.05705932
55	0xbef2edc0	-0.47447014
56	0xbe0c331f	-0.13691376
57	0xbd683329	-0.056689415
58	0xbd0a29b5	-0.03373118
59	0xbe738e7e	-0.23784825
60	0x3dea15f3	0.11429968
61	0x3d9be322	0.076116815
62	0x3d702c2e	0.058635883
63	0x3d49c849	0.049263272
64	0x3d8b377c	0.06797692
65	0x3d76711d	0.060166467
66	0x3db50ea7	0.08840685
67	0xbc28933f	-0.010289012
68	0x3d3bce53	0.045851063
69	0x3d8ba094	0.06817737
70	0xbddf5c45	-0.10906271
71	0xbdca0f2a	-0.098661736
72	0x3e2204fc	0.15822214
73	0xbc334fdd	-0.010944334
74	0xbe0330a0	-0.12811518
75	0xbd0faf8f	-0.035079535
76	0x3e898240	0.26857185
77	0xbd2ec334	-0.04266663
78	0x3dfb5775	0.122725405
79	0x3ca3263f	0.019915698
80	0xbe85dada	-0.26143533
81	0x3d48b809	0.049003635
82	0x3d51a10d	0.05117898
83	0x3e234b6d	0.15946741
84	0x3e4889b0	0.19583774
85	0x3e1eb49c	0.15498585
86	0xbd259a13	-0.04043014
87	0x3dcade99	0.099057384
88	0xbdaee1bd	-0.0853915
89	0xbcaccd8c	-0.021094106
90	0xbd830635	-0.06397668
91	0xbcfc5c1c	-0.03080564
92	0xbec7b3ec	-0.39004457
93	0xbe0a0d95	-0.13481744
94	0x3eb77ca4	0.3583728
95	0x3e538d12	0.20659283
96	0x3e17f8ef	0.14841054
97	0xbe6d7e22	-0.23192647
98	0x3e880e63	0.26573476
99	0xbe5aee19	-0.2137989
100	0x3eca922b	0.39564642
101	0xbe4551bd	-0.19269462
102	0x3cb6f661	0.02233428
103	0xbea39b3e	-0.31954378
104	0x3d8f4315	0.06995217
105	0xbe1f80b9	-0.15576448
106	0xbe48ede8	-0.19622004
107	0xbdf34919	-0.11879177
108	0x3d898ef4	0.06716719
109	0x3c50d27e	0.012745498
110	0xbda29909	-0.079393454
111	0xbc30253b	-0.010751064
112	0x3d05523d	0.03254913
113	0x3d26802f	0.04064959
114	0x3dd2632d	0.102728225
115	0x3d39f872	0.04540295
116	0x3e7eeeec	0.24895829
117	0xbdb829ae	-0.08992325
118	0x3e20dfec	0.1571042
119	0x3bb1af3d	0.0054225014
120	0x3d77c31b	0.0604888
121	0x3e89a996	0.26887196
122	0x3df06635	0.117382444
123	0x3e68718c	0.22699565
124	0x3c259d88	0.010108359
125	0x3c850235	0.016236404
126	0x3dd88822	0.1057284
127	0xbd3506a5	-0.04419579
128	0xbe55d29f	-0.20881127
129	0xbf0cb83f	-0.5496864
130	0x3d7ef99d	0.06224977
131	0xbc85fda0	-0.01635629
132	0x3e757d10	0.23973489
133	0xbdbd6402	-0.092475906
134	0x3e8087f1	0.25103715
135	0x3e53c576	0.20680794
136	0x3d1b7372	0.037951894
137	0x3b32db16	0.002729123
138	0xbdd67e5f	-0.10473322
139	0xbda5efe5	-0.08102397
140	0xbd80fabe	-0.06297825
141	0xbdd016fb	-0.10160633
142	0x3d1513cb	0.03639583
143	0x3d7511ed	0.05983155
144	0xbdaa3313	-0.08310523
145	0xbe1d6421	-0.15370227
146	0xbe3d361e	-0.18477675
147	0xbdc10223	-0.09424236
148	0xbbf1d674	-0.007380301
149	0xbcd1f678	-0.02563022
150	0xbcd133f0	-0.025537461
151	0x3d75ce0b	0.06001095
152	0xbc71b4ce	-0.01475258
153	0x3cd1e13f	0.025620101
154	0x3d6d80b4	0.05798407
155	0x3d16adc5	0.036786813
156	0xbcff6fee	-0.031181302
157	0xbe9376c8	-0.2880156
158	0x3ce25fd1	0.02763358
159	0xbe33e428	-0.17567503
160	0xbc0cb367	-0.008587695
161	0x3c6363f4	0.013878811
162	0xbc6ec74d	-0.014573884
163	0xbc9b0e9e	-0.018927868
164	0x3dcfdb2a	0.10149224
165	0x3e1f9422	0.15583852
166	0xbdcbe4a8	-0.09955722
167	0xbe603b17	-0.21897541
168	0xbd6d38a0	-0.05791533
169	0x3d525b93	0.051356863
170	0xbe830e94	-0.2559706
171	0xbdf92273	-0.12164774
172	0x3d397082	0.04527331
173	0xbeadf2de	-0.33974355
174	0x3e758df1	0.23979928
175	0xbda11d22	-0.07866885
176	0x3e5651d8	0.20929658
177	0x3e85cb3e	0.26131624
178	0xbda75ec2	-0.081723705
179	0xbe40c205	-0.18824013
180	0x3dcedbee	0.10100542
181	0x3da4263e	0.080151066
182	0x3de1bb00	0.110219955
183	0x3e825938	0.25458694
184	0xbea2dc4b	-0.31808695
185	0xbd101cab	-0.03518359
186	0xbe8c546b	-0.27408156
187	0x3d527d63	0.05138911
188	0xbcfc31d8	-0.030785486
189	0x3d9e0ea2	0.07717635
190	0xbd1ca08f	-0.038239058
191	0x3cac4533	0.02102909
192	0x3e243025	0.1603399
193	0x3c7910c9	0.015201756
194	0xbc217146	-0.009853667
195	0x3d541267	0.051775362
196	0xbc831c74	-0.016004778
197	0xbd8c7099	-0.06857414
198	0xbd9cea4e	-0.076618776
199	0x3da48ce4	0.08034685
200	0x3d38261f	0.04495823
201	0xbd07bf95	-0.03314169
202	0xbeb60384	-0.35549557
203	0xbe313043	-0.17303567
204	0xbe086660	-0.13320303
205	0x3cd8bea5	0.026458094
206	0xbf05eec1	-0.52317435
207	0xbdc3b696	-0.0955631
208	0xbe09464d	-0.13405724
209	0xbcc22b8b	-0.023702404
210	0xbea56c49	-0.32309178
211	0xbeb8666d	-0.36015645
212	0xbd62f84e	-0.055412583
213	0xbcbbed89	-0.022940414
214	0x3cc1b278	0.02364467
215	0x3e041567	0.1289879
216	0x3d1e073a	0.03858111
217	0x3d822008	0.06353766
218	0x3d97f925	0.074205674
219	0x3e321ff6	0.17395005
220	0xbe70c04c	-0.23510855
221	0xbe8ce122	-0.27515513
222	0x3e042bfc	0.12907404
223	0xbcf60a62	-0.030034248
224	0x3e6c3028	0.23065245
225	0x3e88f74a	0.26751167
226	0xbdfa0795	-0.122084774
227	0xbca1130a	-0.019662399
228	0x3e624f3e	0.22100541
229	0x3df00b9c	0.11720964
230	0xbe0e4c74	-0.13896352
231	0xbe441f55	-0.19152577
232	0xbe95e59c	-0.2927674
233	0xbf40d737	-0.7532839
234	0xbe74246c	-0.23842019
235	0xbef4fe15	-0.478501
236	0x3c8e7246	0.017388474
237	0xbd9a565e	-0.075360045
238	0x3d1a3710	0.037650168
239	0x3da7fe2f	0.082027785
240	0x3e6ee097	0.23327862
241	0x3dbb9bd1	0.09160579
242	0xbe97c3d5	-0.29641595
243	0xbdb27427	-0.087135606
244	0x3d905f58	0.070494354
245	0x3e51fb83	0.205061
246	0xbe4a5a88	-0.19761097
247	0x3d703250	0.05864173
248	0x3e09c220	0.13452959
249	0x3da6a42d	0.08136783
250	0x3dab4fa2	0.08364798
251	0xbf24d88e	-0.64392936
252	0xbd5e2c02	-0.054241188
253	0x3d0177e3	0.031608474
254	0xbd703d3a	-0.05865214
255	0x3bc777c1	0.006087274

conv3.bias f4 [64]
0	0x3b1355a5	0.0022481468
1	0x3eb125c0	0.34599113
2	0x3e167d4b	0.14696233
3	0xbecd516b	-0.4010118
4	0x3d2a0a5f	0.041513797
5	0xbcc44262	-0.023957435
6	0x3dedeb5a	0.116171554
7	0xbdb32341	-0.087469585
8	0x3e090c40	0.13383579
9	0x3e098142	0.13428214
10	0xbebd3709	-0.3695605
11	0xbdb7ae51	-0.08968795
12	0x3d2523a7	0.040317204
13	0xbddb0257	-0.10693806
14	0x3dd335e9	0.10313017
15	0x3e1aed04	0.15129477
16	0xbd3c82bc	-0.046023116
17	0x3d025878	0.03182265
18	0x3d314468	0.043278128
19	0x3d81bd85	0.06334976
20	0x3e01896d	0.1265008
21	0xbacf2d3c	-0.0015806328
22	0xbeeed016	-0.46643132
23	0xbe0f79ff	-0.14011382
24	0x3a948a4a	0.0011332717
25	0xbe2756f9	-0.16341771
26	0x3eb2933b	0.34877953
27	0x3daf0348	0.08545548
28	0x3e7a0087	0.24414264
29	0x3e13b7c5	0.14425571
30	0x3e04638f	0.12928604
31	0x3e54f823	0.20797782
32	0xbdaa0539	-0.083017774
33	0x3e65d65c	0.22445053
34	0xbd880b25	-0.06642751
35	0xbe5f898c	-0.21829814
36	0x3cf286b1	0.029605241
37	0x3e801e43	0.25023088
38	0xbe642460	-0.22279501
39	0x3d0bb294	0.034105852
40	0x3db9f32d	0.09079585
41	0x3e3b0fe7	0.18267785
42	0x3cfda809	0.030963914
43	0xbe2a69ae	-0.16641876
44	0x3d4b98d0	0.04970628
45	0xbd10dc86	-0.035366558
46	0x3d7069df	0.058694717
47	0x3de2e1fd	0.1107826
48	0xbd2f4978	-0.042794675
49	0xbd840a9e	-0.064473376
50	0x3da5a2b9	0.080876775
51	0xbdc2f749	-0.09519822
52	0x3d696a1b	0.056985956
53	0xbe2d108f	-0.16900848
54	0x3e05e939	0.13077249
55	0xbc1a01ed	-0.009399873
56	0xbe03c2be	-0.12867257
57	0x3cee2d47	0.029074324
58	0xbde25530	-0.110514045
59	0xbe4d37aa	-0.20040765
60	0x3da1eea6	0.07906847
61	0x3bf54405	0.007484915
62	0xbe11eebb	-0.14251225
63	0xbd32a345	-0.043612737

conv4.weight f4 [64, 64, 2, 2]
0	0x3d32256b	0.043492716
1	0xbe49e439	-0.19715966
2	0xbdaf4388	-0.085578024
3	0xbf10e194	-0.56594205
4	0xbe681a41	-0.22666265
5	0x3e6ff7de	0.23434398
6	0xbe5575a6	-0.2084566
7	0x3d79c7e3	0.060981642
8	0xbec6e76c	-0.38848436
9	0x3dece0c0	0.11566305
10	0xbe8fa30a	-0.28054076
11	0xbd31c22e	-0.043398075
12	0xbddadd37	-0.10686725
13	0xbe447c6b	-0.19188087
14	0xbe28177d	-0.1641521
15	0xbe3c0a98	-0.18363416
16	0x3e0c2241	0.13684942
17	0x3dc86330	0.097845435
18	0x3daa0b5b	0.08302947
19	0xbea9eaeb	-0.3318704
20	0xbe7a7ad3	-0.24460916
21	0xbeac25ae	-0.33622497
22	0xbe043931	-0.12912442
23	0xbe488f0d	-0.1958582
24	0x3d198858	0.037483543
25	0xbf11bdcf	-0.5693025
26	0x3e07dafb	0.13267128
27	0xbe3062a4	-0.17225128
28	0xbd5b21be	-0.053498976
29	0x3cec2a98	0.028828904
30	0x3e3759bd	0.17905326
31	0x3cd9ac87	0.026571525
32	0x3e2dcff1	0.16973855
33	0xbe46dfc9	-0.19421305
34	0x3e997c92	0.29977852
35	0x3d0cc619	0.03436861
36	0xbe467759	-0.19381465
37	0xbe90c6cb	-0.28276667
38	0xbdf22a0d	-0.11824427
39	0xbe04b7fd	-0.12960811
40	0xbe0564ff	-0.13026808
41	0x3ccb760f	0.024836568
42	0xbe866701	-0.2625046
43	0xbed5f64b	-0.4178947
44	0xbef60ba9	-0.4805577
45	0x3dcbc70c	0.099500746
46	0xbef500f1	-0.4785228
47	0xbee52ffc	-0.44763172
48	0xbeb8fbb4	-0.36129534
49	0x3d21e53d	0.03952526
50	0xbdc77f74	-0.09741107
51	0xbe85a5e5	-0.2610313
52	0xbca4917f	-0.02008891
53	0xbd937263	-0.07199552
54	0x3d431b6f	0.047633585
55	0xbda4a6f5	-0.08039657
56	0x3e86aa44	0.26301777
57	0xbcb56ee1	-0.022147598
58	0x3ee54dd4	0.4478594
59	0x3e883646	0.26603907
60	0xbe0de42f	-0.13856576
61	0xbe4be06f	-0.19909833
62	0x3e86a068	0.26294255
63	0xbc562841	-0.013071121
64	0xbdb9522b	-0.090488754
65	0x3d683536	0.05669137
66	0xbead6e37	-0.3387315
67	0xbc8e37fc	-0.01736068
68	0xbe51f6d4	-0.20504314
69	0xbd3c2946	-0.0459378
70	0xbdc179ff	-0.09447097
71	0xbeba3553	-0.36368808
72	0x3e159028	0.14605772
73	0xbe40e001	-0.1883545
74	0x3d663f33	0.056212615
75	0x3da72ffd	0.0816345
76	0xbec3313d	-0.38123503
77	0xbdef59e5	-0.11687068
78	0xbe83b910	-0.2572713
79	0xbd9adf0f	-0.07562076
80	0xbe196352	-0.14979294
81	0x3ebc0ab6	0.36726922
82	0xbc54da5e	-0.012991516
83	0x3debeca5	0.11519746
84	0xbec2b247	-0.3802664
85	0x3ef7cb3f	0.48397252
86	0x3cdbea85	0.026845226
87	0xbd43e617	-0.047826853
88	0x3d339655	0.04384454
89	0x3d1f8aaa	0.0389506
90	0xbea586e4	-0.32329476
91	0x3daa407e	0.08313082
92	0xbce50260	-0.027955234
93	0x3d2fed2a	0.042950787
94	0x3d0b53fb	0.034015637
95	0x3dad4965	0.084612645
96	0xbefb080a	-0.4902957
97	0xbe0c8273	-0.13721637
98	0xbe4b1fc2	-0.19836333
99	0x3e846221	0.25856116
100	0x3d020ca7	0.031750347
101	0x3e90c559	0.28275564
102	0xbe0c0628	-0.13674223
103	0x3e21c3b0	0.15797305
104	0x3de5ee79	0.11227126
105	0xbe3f7df4	-0.18700391
106	0x3e557250	0.20844388
107	0xbdb4c8dc	-0.088273734
108	0xbe64354d	-0.22285958
109	0xbf043d27	-0.5165581
110	0xbe1fec30	-0.15617442
111	0xbeb583f0	-0.35452223
112	0xbe241f04	-0.16027457
113	0xbeed3564	-0.46329796
114	0x3d23662a	0.039892353
115	0xbe6f4a87	-0.23368274
116	0xbe1c53e9	-0.15266384
117	0xbe81d590	-0.25358248
118	0xbf07c1ec	-0.53030276
119	0xbebb4e77	-0.365833
120	0x3d81ba1d	0.063343264
121	0x3e90c6d1	0.28276685
122	0x3ce944e9	0.028475242
123	0xbe85da20	-0.2614298
124	0xbe1aab9a	-0.15104523
125	0x3e561e61	0.20910026
126	0xbe6f008c	-0.23340052
127	0x3dbcd11c	0.09219572
128	0xbe338638	-0.17531669
129	0xbde18f57	-0.11013668
130	0xbe5db98f	-0.21652816
131	0xbe32a94d	-0.17447396
132	0x3d91850b	0.07105454
133	0xbeb5437a	-0.35403043
134	0x3cca3f02	0.024688248
135	0x3e2c69b0	0.16837192
136	0x3da2c76a	0.079481915
137	0xbe10a425	-0.14125116
138	0xbe633ba7	-0.22190724
139	0x3e4ae409	0.19813551
140	0xbe10d4e5	-0.14143713
141	0x3d35a0f8	0.044342965
142	0xbdddd0ee	-0.10830866
143	0x3c786ab2	0.015162157
144	0xbd2381ad	-0.03991859
145	0xbd70503e	-0.058670275
146	0x3e346ebb	0.17620365
147	0x3e0e155a	0.13875332
148	0x3dbed9c3	0.093188785
149	0x3d3241cd	0.043519784
150	0x3e19c712	0.15017346
151	0x3d207880	0.039177418
152	0xbe2b34c5	-0.16719349
153	0x3cf8c240	0.030366063
154	0xbf00a106	-0.502457
155	0xbf0435e7	-0.5164475
156	0xbea56066	-0.3230011
157	0x3e07ff12	0.13280895
158	0xbe980220	-0.2968912
159	0xbde3b8a8	-0.11119205
160	0xbe230f86	-0.1592389
161	0x3e4f0694	0.20217353
162	0xbe4ac22b	-0.19800632
163	0x3e9fbcd6	0.31198758
164	0xbe5dba67	-0.21653138
165	0xbc8f9e95	-0.017531672
166	0xbd2b725f	-0.04185712
167	0xbdc55ec3	-0.09637215
168	0x3e143657	0.14473854
169	0xbe133284	-0.14374739
170	0xbdfb80aa	-0.122804
171	0xbe8a11c7	-0.26966688
172	0xbd7e0ba2	-0.062022813
173	0xbd4c93e5	-0.04994573
174	0xbd08d02a	-0.033401646
175	0x3aff27e8	0.0019466849
176	0x3dc7464b	0.09730204
177	0x3db56240	0.0885663
178	0xbc40c094	-0.011764664
179	0x3eb1c12f	0.347177
180	0xbe08808c	-0.13330287
181	0x3cb650dc	0.022255354
182	0xbec11665	-0.37712398
183	0xbe082df7	-0.13298784
184	0xbc71246e	-0.014718158
185	0xbecd4cbb	-0.40097603
186	0x3e7aad5c	0.24480194
187	0xbec62cc8	-0.3870604
188	0x3dd425c5	0.103587665
189	0xbf10f0cf	-0.56617445
190	0x3e3b4255	0.18287022
191	0xbdb5fa0b	-0.088855825
192	0xbe9576fc	-0.2919234
193	0x3e76c8b6	0.24100003
194	0xbe34e1da	-0.1766428
195	0x3db9a338	0.09064335
196	0xbd6c94e7	-0.05775919
197	0xbe6e5365	-0.23274
198	0x3eb79761	0.3585768
199	0xbe0d73a5	-0.13813646
200	0x3e29988e	0.16562101
201	0xbe23958c	-0.15975016
202	0x3ec0a47b	0.3762549
203	0x3df7c75b	0.12098571
204	0xbdad3994	-0.08458248
205	0x3d1a25a3	0.03763355
206	0x3d0eb173	0.034837198
207	0x3d8e31ec	0.069431156
208	0x3dfcff1f	0.12353348
209	0x3ccb2787	0.024799122
210	0x3e81fc7b	0.2538794
211	0x3e7ad5e3	0.24495654
212	0x3e3d89e6	0.18509635
213	0xbed0867a	-0.40727597
214	0xbd798dd1	-0.060926262
215	0xbdf827f6	-0.12116997
216	0x3ea382c2	0.31935698
217	0xbe6f972d	-0.23397513
218	0x3eab0dba	0.3340891
219	0x3eab739f	0.3348665
220	0xbe96e9a8	-0.2947514
221	0xbe6b5524	-0.22981697
222	0xbddeecc7	-0.108850054
223	0x3caa397c	0.020779364
224	0x3e17c3a5	0.14820726
225	0x3e498d9c	0.19682926
226	0xbdf7a7d3	-0.12092557
227	0x3eb1cd73	0.34727058
228	0xbe8825ad	-0.26591244
229	0x3e30b7d3	0.17257623
230	0xbed990f9	-0.42493418
231	0xbdd09948	-0.10185486
232	0xbe08571a	-0.13314477
233	0x3e1a445b	0.15065138
234	0x3dcef92f	0.10106122
235	0xbeadd1fe	-0.33949274
236	0xbdc21c5f	-0.094780676
237	0xbdc6a9b8	-0.0970034
238	0x3c374e1d	0.011188057
239	0x3c0fce72	0.008777248
240	0x3d3e0ab2	0.04639692
241	0xbe85a035	-0.2609879
242	0x3ead8ec6	0.3389799
243	0xbec09a2c	-0.37617624
244	0x3d097b9a	0.03356514
245	0xbebff609	-0.37492397
246	0x3e4c44ce	0.19948122
247	0x3b1a4f32	0.002354574
248	0xbe7f8630	-0.24953532
249	0x3e017c5f	0.126451
250	0xbdbcc13a	-0.092165425
251	0xbe397d7d	-0.18114276
252	0xbe3d9250	-0.18512845
253	0x3e0d1327	0.13776837
254	0xbe584352	-0.2111943
255	0x3de36cd3	0.11104741

conv4.bias f4 [64]
0	0xbd9decac	-0.07711157
1	0xbda463c7	-0.080268435
2	0xbbaee702	-0.005337597
3	0xbdd1081f	-0.10206627
4	0x3da99488	0.08280283
5	0x3e0c5bc6	0.13706884
6	0x3b8b45ec	0.0042502787
7	0xbd67d6b4	-0.05660124
8	0xbe0e1004	-0.13873297
9	0x3e5e4bdd	0.21708627
10	0xbdc6c19c	-0.09704897
11	0xbce1b746	-0.027553212
12	0x3dfb0f45	0.12258772
13	0x3e96d2d4	0.29457724
14	0x3df273f8	0.118385255
15	0x3e2d9e81	0.16954996
16	0x3c227944	0.009916607
17	0xbe0e34a2	-0.13887265
18	0x3e26ec85	0.16301163
19	0x3d2ca166	0.04214611
20	0x3ebd844b	0.37014994
21	0x3db3dbd5	0.08782164
22	0xbea1dca5	-0.3161365
23	0xbd44106f	-0.047867235
24	0xbdbb44be	-0.09143971
25	0x3e3ceae9	0.18448986
26	0xbd3ff52e	-0.04686468
27	0x3ea22494	0.31668532
28	0x3db90aff	0.090353005
29	0x3dfda4c1	0.1238494
30	0xbe19e1b5	-0.15027507
31	0x3db00edc	0.08596584
32	0x3e82a4b5	0.25516286
33	0x3e0f3fb6	0.13989148
34	0xbde55cf4	-0.1119937
35	0xbe0cc4c1	-0.1374693
36	0xbd915465	-0.07096175
37	0xbe6675c6	-0.22505865
38	0xbe98afdd	-0.29821673
39	0xbe777521	-0.24165775
40	0x3d68d6a3	0.05684532
41	0xbe99f364	-0.30068505
42	0x3c5b4419	0.013382935
43	0x3d9ac06d	0.075562336
44	0x3dd38a28	0.103290856
45	0xbd8fbd7a	-0.07018562
46	0x3dd7738c	0.10520086
47	0xbe14e331	-0.14539792
48	0x3e239aa2	0.15976956
49	0xbe3a764b	-0.18209188
50	0xbdc2986a	-0.09501727
51	0x3a17ea33	0.0005795091
52	0x3e2fcba5	0.17167528
53	0x3e89d0e9	0.26917198
54	0x3e8a704d	0.27038804
55	0xbdd42308	-0.10358244
56	0xbcd06d19	-0.025442647
57	0x3c845b43	0.016156798
58	0xbd8305be	-0.063975796
59	0xbdcab45e	-0.098976836
60	0x3e093cb0	0.13402057
61	0x3e3ad0a2	0.1824365
62	0xbdd85ce2	-0.10564591
63	0xbd935dc9	-0.071956225

conv5.weight f4 [128, 64, 2, 2]
0	0xbd1a0202	-0.03759957
1	0xbe3c06d2	-0.18361977
2	0xbe024e30	-0.12725139
3	0xbe5da282	-0.21644023
4	0x3caac8ea	0.020847756
5	0xbd51d8e0	-0.05123222
6	0x3cd98828	0.026554182
7	0xbdad3083	-0.084565185
8	0x3e2d8436	0.16944966
9	0x3c9f3503	0.019434458
10	0x3e42922d	0.19001074
11	0xbe5e7d4c	-0.21727484
12	0xbe54d715	-0.20785172
13	0x3cd440df	0.02590984
14	0xbe62eccc	-0.22160643
15	0xbe12991f	-0.14316224
16	0xbede3337	-0.4339845
17	0xbf0ba759	-0.5455223
18	0xbe14757e	-0.14497945
19	0xbe9a2335	-0.30104986
20	0xbeadb482	-0.3392678
21	0x3d1039d2	0.03521139
22	0xbdff954e	-0.124796495
23	0xbe2df458	-0.16987741
24	0xbe203bfd	-0.15647884
25	0x3cc710a3	0.024299925
26	0x3d8e2aa5	0.069417275
27	0x3d2f12c9	0.042742524
28	0xbe810240	-0.2519703
29	0xbe7774ff	-0.24165724
30	0xbe4f5ae6	-0.20249519
31	0xbd13e706	-0.036108993
32	0xbd6fdcc4	-0.058560148
33	0xbede212e	-0.4338469
34	0xbd1a510c	-0.03767495
35	0xbdbbc09c	-0.09167597
36	0x3e18f55d	0.14937349
37	0xbd17a5de	-0.037023418
38	0x3e8b4945	0.27204338
39	0xbd5bfdad	-0.05370872
40	0xbe2cb0fa	-0.16864386
41	0xbea15c9d	-0.3151597
42	0x3d145c46	0.03622081
43	0x3e050c2e	0.12992927
44	0xbed2edee	-0.4119715
45	0xbd809706	-0.062788054
46	0x3d0da33d	0.034579504
47	0x3e96c41c	0.29446495
48	0xbe6151fa	-0.22003928
49	0xbf4b728b	-0.79471654
50	0xbd4b7155	-0.04966863
51	0xbe0eb8a7	-0.13937627
52	0xbe886e3b	-0.266466
53	0xbc2d23c4	-0.010567609
54	0xbe53e472	-0.20692614
55	0x3d7241fe	0.059144966
56	0xbcec7b06	-0.028867256
57	0xbe358913	-0.17728071
58	0xbec7635d	-0.38942996
59	0x3e601452	0.21882752
60	0xbe996c42	-0.29965407
61	0x3dd2d864	0.102951795
62	0x3d9d3f9b	0.076781474
63	0xbca0453c	-0.019564264
64	0x3e86cb08	0.26326776
65	0x3e658120	0.22412539
66	0xbeeb9633	-0.4601303
67	0xbe9ef9ea	-0.31050044
68	0xbb498ee4	-0.0030755335
69	0x3c581816	0.013189336
70	0x3c6f108d	0.014591348
71	0x3d6b6fe6	0.05747976
72	0x3d31a67e	0.04337167
73	0x3e87fc57	0.26559708
74	0xbea04169	-0.31299904
75	0xbe32fe96	-0.1747993
76	0x3ded4cfd	0.1158695
77	0xbe205b83	-0.15659909
78	0x3d3ca343	0.046054136
79	0x3e4e6e5a	0.20159283
80	0x3dec8f3c	0.11550757
81	0xbb41b6bb	-0.0029558379
82	0x3df45cb4	0.11931744
83	0x3d25371f	0.04033577
84	0xbd122d85	-0.035687942
85	0xbdcc1b98	-0.099662006
86	0xbcabb4c6	-0.020960223
87	0x3dfc3d2b	0.12316354
88	0xbeab80c5	-0.3349668
89	0x3d36072b	0.04444043
90	0xbc13af39	-0.009013944
91	0x3ea91c8d	0.33029595
92	0xbec918cf	-0.3927674
93	0xbe90068b	-0.28129992
94	0x3da8cc23	0.08242061
95	0xbc07736f	-0.008267268
96	0xbd957e59	-0.072994895
97	0xbd030121	-0.0319835
98	0xbd9b9f6d	-0.075987674
99	0xbda9e74f	-0.08296072
100	0xbe1f1efd	-0.15539165
101	0xbe5a3e29	-0.21312775
102	0x3eac6523	0.3367091
103	0x3e20c9ff	0.15702055
104	0xbbfeb3ad	-0.007772884
105	0xbd7eb60e	-0.06218534
106	0x3e65e593	0.22450857
107	0xbf03a2ed	-0.5142048
108	0x3ef56c5b	0.4793423
109	0xbd2b9c8a	-0.041897334
110	0x3e83cd3f	0.25742528
111	0x3e27e37a	0.16395369
112	0x3e1f72f4	0.15571195
113	0x3cca5c62	0.024702255
114	0x3f26b684	0.65122247
115	0xbd570ccb	-0.052502435
116	0x3e484067	0.19555818
117	0x3e871173	0.263805
118	0x3ebc928d	0.3683056
119	0x3e9fa9cf	0.3118424
120	0xbd342c19	-0.043987367
121	0x3d0fc99d	0.035104383
122	0xbd04faf0	-0.032465875
123	0xbe463982	-0.19357875
124	0x3e61ab16	0.2203792
125	0xbe3c2d55	-0.18376668
126	0x3e5e21f9	0.21692647
127	0xbeb7de20	-0.35911655
128	0xbddb66d2	-0.10712971
129	0xbd7f6f38	-0.062361926
130	0xbdaa9e1f	-0.083309405
131	0xbda5b02a	-0.08090241
132	0xbe885e1a	-0.26634294
133	0xbbe9c138	-0.007133629
134	0xbd87540b	-0.06607827
135	0xbd15a409	-0.03653339
136	0x3ed3d61d	0.41374293
137	0x3f17e6cc	0.59336543
138	0x3e4cad97	0.19988094
139	0x3eee97ef	0.4660029
140	0xbe4088c4	-0.18802172
141	0x3e8ca12c	0.27466714
142	0xbea06567	-0.31327364
143	0xbc81fc38	-0.015867338
144	0x3d2570b1	0.040390674
145	0x3d8a91e2	0.06766106
146	0x3cdc4399	0.026887702
147	0xbe8d9c63	-0.27658376
148	0xbeb6e60d	-0.3572239
149	0xbe8f5d99	-0.28001097
150	0xbe25094d	-0.16116829
151	0x3e989090	0.29797792
152	0xbcec532d	-0.028848255
153	0x3ec4318b	0.38319048
154	0xbde2546b	-0.11051258
155	0xbe755126	-0.23956737
156	0xbe4005b8	-0.18752182
157	0xbe32b5d5	-0.17452176
158	0xbefbde4a	-0.4919303
159	0xbe82af81	-0.25524524
160	0xbdb18e64	-0.08669737
161	0xbe940604	-0.2891084
162	0x3e7a4e6d	0.2444398
163	0xbd5e6d3a	-0.054303385
164	0xbebcc7aa	-0.36871082
165	0xbe79be5b	-0.24389021
166	0xbe5529e8	-0.20816767
167	0xbe97dc43	-0.29660234
168	0xbd3f6d96	-0.04673537
169	0x3db90ba1	0.09035421
170	0xbe455030	-0.1926887
171	0xbecff716	-0.406182
172	0x3da53f24	0.08068684
173	0x3e106d07	0.1410409
174	0x3df69673	0.12040415
175	0x3ec2e202	0.38063055
176	0xbd8dc781	-0.06922818
177	0xbe6a8472	-0.22902086
178	0xba4cefca	-0.0007817714
179	0xbe608ef2	-0.2192953
180	0x3d2f6f63	0.042830836
181	0x3e00a35b	0.12562315
182	0xbe646329	-0.22303452
183	0xbdc8fed9	-0.09814233
184	0xbee0b069	-0.4388459
185	0xbcb93905	-0.022610197
186	0xbee8d3dc	-0.45474136
187	0xbea51b6d	-0.32247487
188	0x3e2f3286	0.17109117
189	0xbdbfa541	-0.093576916
190	0xbe9387f7	-0.2881467
191	0xbeb4c728	-0.35308194
192	0xbe07798e	-0.13229963
193	0xbccc4930	-0.024937242
194	0xbe1a209a	-0.15051499
195	0xbd4da2d1	-0.050204102
196	0x3e1d795c	0.15378326
197	0xbf3bf928	-0.7342706
198	0xbe91951a	-0.28434068
199	0xbf1e6442	-0.6187173
200	0xbe4cc684	-0.19997603
201	0x3d9dba99	0.07701606
202	0xbd9d5644	-0.076824695
203	0xbe8470d3	-0.25867328
204	0x3e369f29	0.17834152
205	0x3d99fc26	0.075187966
206	0x3e5be3fd	0.2147369
207	0xbe8a1988	-0.26972604
208	0x3d8c9c7d	0.06865785
209	0xbe735360	-0.23762274
210	0xbe561a53	-0.2090848
211	0xbe935d60	-0.28782177
212	0x3e90a118	0.28247905
213	0x3ed9acfa	0.42514783
214	0x3d524eb1	0.051344577
215	0xbe5a34b2	-0.21309164
216	0x3e57c541	0.2107134
217	0xbe8e44ac	-0.27786767
218	0xbe2e1199	-0.169989
219	0xbeacc06c	-0.33740556
220	0xbea7ee77	-0.32799122
221	0xbee80f66	-0.45324248
222	0x3e3e7ce2	0.18602327
223	0xbe6f39a6	-0.23361835
224	0x3d84bb96	0.06481092
225	0xbe04ac9e	-0.12956473
226	0x3e134105	0.14380272
227	0x3d6d57ff	0.057945248
228	0x3d858e29	0.065212555
229	0x3e10f0ca	0.14154354
230	0xbece0c3b	-0.40243706
231	0xbe2dd364	-0.1697517
232	0x3ccaadab	0.024741014
233	0x3e993b53	0.29928073
234	0xbe68907f	-0.22711371
235	0x3e9ab272	0.30214268
236	0xbe6af9ed	-0.22946902
237	0xbdfff93b	-0.12498709
238	0xbdc37ae1	-0.09544922
239	0x3d96de98	0.07366675
240	0xbdb92618	-0.09040469
241	0x3dcebcc0	0.10094595
242	0x3dd95fca	0.106139734
243	0x3f6a267b	0.91464967
244	0xbeafa22e	-0.3430342
245	0xbe4c1807	-0.1993104
246	0xbd6c4d71	-0.05769104
247	0xbed53c24	-0.41647446
248	0x3e0bd0a3	0.13653807
249	0x3dc7f79c	0.097640246
250	0xbcd02091	-0.025406154
251	0xbe14c8c5	-0.14529712
252	0xbd64db39	-0.05587313
253	0xbc67617b	-0.014122362
254	0x3a70fa8a	0.00091926067
255	0x3c71fd0e	0.014769806

conv5.bias f4 [128]
0	0x3e686eeb	0.22698562
1	0x3d059e1e	0.032621495
2	0x3e5fe4af	0.2186458
3	0x3e3d369b	0.18477862
4	0xbdc36fd0	-0.09542811
5	0x3ded7f36	0.11596529
6	0x3e4e48ce	0.2014496
7	0x3db1f1af	0.086886756
8	0x3e4c4ec8	0.19951928
9	0xbe9e2534	-0.3088776
10	0x3e08c4de	0.13356349
11	0x3d3627bf	0.0444715
12	0xbe835761	-0.25652602
13	0xbe4960c8	-0.19665825
14	0xbdf2ed00	-0.118616104
15	0x3d708f36	0.058730327
16	0xbe85e831	-0.2615371
17	0x3e20e6f5	0.15713103
18	0x3df21bc2	0.11821701
19	0xbddd087b	-0.10792633
20	0x3df9cf7a	0.12197776
21	0x3ccbcda0	0.024878323
22	0xbca6ed92	-0.020376954
23	0x3cc2f1d3	0.023796951
24	0x3eccd284	0.4000436
25	0x3e2f599a	0.17124024
26	0x3df6967d	0.12040422
27	0xbee8300c	-0.45349157
28	0xbdf4405a	-0.119263366
29	0xbe261882	-0.16220286
30	0xbc6bb37d	-0.014386055
31	0xbc446bb1	-0.011988566
32	0x3bef8f5d	0.0073107914
33	0xbe6d33f4	-0.2316435
34	0x3e216181	0.15759851
35	0x3e4c47f0	0.19949317
36	0x3d325906	0.04354193
37	0x3dcc73da	0.099830344
38	0xbcf66fb6	-0.030082565
39	0xbcc2b69b	-0.023768714
40	0x3d72c0c6	0.059265874
41	0x3d47670a	0.04868225
42	0x3db5bc57	0.088738136
43	0x3da13e86	0.078732535
44	0x3c52a8c1	0.012857617
45	0x3e2c660b	0.16835801
46	0xbd386987	-0.045022514
47	0x3e60ea55	0.2196439
48	0x3e02c509	0.12770475
49	0x3e038c02	0.12846377
50	0xbe0a1b25	-0.13486917
51	0xbe882f0e	-0.265984
52	0xbecd3323	-0.40078077
53	0xbe859702	-0.26091772
54	0x3d8c4314	0.06848732
55	0x3e4372ea	0.19086805
56	0x3d2e73c9	0.04259089
57	0x3e3a1e62	0.18175653
58	0xbe27e9c9	-0.16397776
59	0x3d489b4f	0.04897624
60	0xbd497c34	-0.049190715
61	0x3e666830	0.22500682
62	0x3e37567f	0.1790409
63	0x3e4c0ff7	0.19927965
64	0xbe1e245d	-0.15443559
65	0x3e817eae	0.2529196
66	0xbdc6233f	-0.096746914
67	0x3e6bec45	0.23039348
68	0xbd80e3e1	-0.062934645
69	0x3c82cbed	0.01596638
70	0xbc244b0f	-0.010027661
71	0xbcb4cd74	-0.022070624
72	0x3d8ac7c7	0.06776386
73	0xbe2c02fa	-0.1679801
74	0xbdd0e62f	-0.10200154
75	0xbe572f41	-0.2101412
76	0x3c7d9d74	0.015479434
77	0xbe8e23c1	-0.27761653
78	0xbe420769	-0.18948139
79	0x3d0b9dfc	0.034086213
80	0x3e057cf9	0.13035955
81	0xbd3d1149	-0.046159063
82	0x3c1e47ca	0.0096606705
83	0xbda3ba34	-0.079945
84	0xbad8cbf3	-0.0016540274
85	0xbc087c74	-0.008330453
86	0xbdae7b68	-0.085196316
87	0x3dd0bd9b	0.101924144
88	0xbeb0d9cd	-0.3454117
89	0x3e8f50e7	0.2799141
90	0x3e0abc02	0.13548282
91	0xbc341de6	-0.0109934565
92	0xbe0b41f4	-0.13599378
93	0xbd818d61	-0.06325794
94	0xbe02e105	-0.1278115
95	0x3cb6f7c6	0.022334944
96	0x3e86192e	0.26191086
97	0x3d80bcbc	0.06285998
98	0xbe0e0f88	-0.13873112
99	0x3e9c2b39	0.30501726
100	0xbe06f245	-0.13178356
101	0xbe0c10ad	-0.13678236
102	0x3e0b18a0	0.13583612
103	0xbd073193	-0.033006262
104	0xbe029531	-0.12752225
105	0xbd9f8496	-0.07788961
106	0x3e451c7d	0.19249149
107	0xbe2dfa64	-0.16990048
108	0x3e13feb9	0.14452638
109	0x3e2fc34c	0.17164344
110	0x3e84d26b	0.25941786
111	0xbdc306a9	-0.09522755
112	0x3e5f15a6	0.21785602
113	0x3d1c3393	0.038135123
114	0x3d833c90	0.06408036
115	0xbcc24735	-0.023715595
116	0xbe3b7902	-0.1830788
117	0x3d68a491	0.056797568
118	0xbee70825	-0.451234
119	0x3e3837bf	0.17990015
120	0x3e70d233	0.23517685
121	0x3ccaaa75	0.024739483
122	0x3c904cec	0.017614804
123	0x3ca283b7	0.019838197
124	0x3dfa3e3d	0.12218902
125	0xbda41b00	-0.08012962
126	0xbe2f7e74	-0.17138082
127	0xbe37dfe6	-0.17956504

conv6.weight f4 [64, 128, 2, 2]
0	0xbd07a198	-0.033113092
1	0xbca17399	-0.019708442
2	0xbf197f3e	-0.5995978
3	0xbef33bc2	-0.4750653
4	0xbe5bd3c8	-0.21467507
5	0xbe96eb7e	-0.2947654
6	0xbeb3e075	-0.35132185
7	0xbe990a81	-0.29890826
8	0xbe03bf50	-0.12865949
9	0xbed087e3	-0.40728673
10	0xbe77ba06	-0.24192056
11	0x3e49a2dc	0.19691032
12	0x3e52acfc	0.20573801
13	0xbd07e1ba	-0.033174254
14	0xbc8c86a7	-0.017154051
15	0xbdcac732	-0.09901275
16	0xbde56b51	-0.112021096
17	0x3d96b285	0.07358269
18	0x3e0ae0a1	0.13562252
19	0x3e76642c	0.2406165
20	0x3d9bc807	0.076065116
21	0x3e17bce4	0.1481815
22	0x3ec08605	0.3760225
23	0x3e9e4285	0.30910125
24	0xbd40d90c	-0.047081992
25	0x3e261fc4	0.16223055
26	0x3d774fa0	0.06037867
27	0xbed273d5	-0.41103998
28	0x3e65f4c4	0.22456652
29	0xbce05045	-0.027382025
30	0xbe2a7cb9	-0.1664914
31	0x3d95c0d1	0.073121674
32	0xbe5230c1	-0.2052641
33	0xbe0ba6c9	-0.13637842
34	0xbd994dfd	-0.07485578
35	0xbd92eb4d	-0.07173786
36	0xbeb4e912	-0.3533407
37	0xbe72924a	-0.23688617
38	0x3b0df5ca	0.0021661394
39	0xbe26231b	-0.16224329
40	0x3d87e4ca	0.06635435
41	0xbca2d635	-0.019877532
42	0x3e144597	0.14479671
43	0x3d727f93	0.059203696
44	0x39ae1fac	0.00033211464
45	0xbe3119a9	-0.17294945
46	0xbe928052	-0.28613526
47	0xbeba6cfd	-0.36411276
48	0xbe68411c	-0.22681087
49	0xbeeb37cd	-0.4594101
50	0x3e286a6c	0.16446847
51	0xbc5e707a	-0.013576621
52	0xbe8a628e	-0.27028316
53	0x3d92ff17	0.07177561
54	0x3d8f0d97	0.06985014
55	0xbe2731e6	-0.16327628
56	0xbe80d090	-0.2515912
57	0xbeb7b175	-0.35877576
58	0x3e3cafcd	0.18426438
59	0xbdbf3c9c	-0.09337732
60	0xbc062a4c	-0.008188795
61	0x3daeda07	0.08537679
62	0xbca757f8	-0.020427689
63	0xbdbea8d9	-0.09309549
64	0xbcac64e1	-0.021044197
65	0x3d86027a	0.06543441
66	0x3c1295df	0.008946865
67	0x3ddb5a5e	0.107105955
68	0x3d4caa61	0.049967173
69	0x3d475b76	0.04867121
70	0x3ee75367	0.45180818
71	0x3ee08073	0.43848
72	0x3cc5c997	0.024143977
73	0x3d94b6a6	0.072614
74	0x3e441aae	0.19150802
75	0x3e60dc4e	0.2195904
76	0xbca7fe57	-0.02050702
77	0x3c91a5c7	0.017779244
78	0xbccde9d3	-0.02513591
79	0x3cd0b8ba	0.02547871
80	0x3df2de3f	0.11858796
81	0x3d1b4d94	0.03791578
82	0x3d57e825	0.052711625
83	0xbeb28c01	-0.3487244
84	0xbdd782ae	-0.10522972
85	0x3e4dc84f	0.20095943
86	0x3e61bc54	0.22044498
87	0x3e832230	0.2561202
88	0x3dd28ce2	0.102807775
89	0xbed2f950	-0.41205835
90	0xbe5aae54	-0.21355563
91	0xbf1fcd1e	-0.6242236
92	0xbe7b4b84	-0.24540526
93	0xbe49fef9	-0.1972617
94	0xbf270798	-0.6524596
95	0xbf4b54b8	-0.79426146
96	0xbd562e7c	-0.052290425
97	0xbedf73a6	-0.4364292
98	0xbf21fddb	-0.6327798
99	0xbec7153c	-0.38883388
100	0xb9f1e182	-0.00046135118
101	0xbee0409d	-0.43799296
102	0xbeab553d	-0.3346347
103	0xbf5b83f5	-0.85748225
104	0xbe5b3a65	-0.21408994
105	0xbeaef2ec	-0.3416971
106	0x3d9bbf88	0.07604891
107	0xbdc4f701	-0.09617425
108	0x3cff0a30	0.031132787
109	0xbe02fff1	-0.12792946
110	0x3d640e55	0.05567773
111	0x3e72b22f	0.23700784
112	0xbe034b66	-0.12821731
113	0xbd688c1d	-0.056774247
114	0x3d846773	0.06465044
115	0xbd7bdde0	-0.061490893
116	0xbcc02346	-0.02345432
117	0xbcbbc798	-0.022922322
118	0xbd8133fe	-0.06308745
119	0xbcf2d0d1	-0.029640587
120	0xbdf3e8ef	-0.11909663
121	0x3e817f6f	0.25292537
122	0x3d37ceca	0.044874944
123	0xbe81b024	-0.25329697
124	0xbe2f3dbd	-0.17113395
125	0xbd1e59fb	-0.03866003
126	0xbc04cdf9	-0.008105748
127	0xbcbb39a3	-0.022854632
128	0x3e790b07	0.24320613
129	0x3e04a497	0.12953411
130	0xbdca8e14	-0.098903805
131	0x3e6ba844	0.23013407
132	0x3cc9cd1b	0.024633935
133	0xbd4c3fcf	-0.04986554
134	0xbda06d19	-0.07833309
135	0xbd8a6b99	-0.06758804
136	0x3e8f9adf	0.28047845
137	0x3d0c77b3	0.03429384
138	0xbe605b8d	-0.21909924
139	0xbc46281f	-0.012094527
140	0xbdf3beac	-0.11901602
141	0xbe06d339	-0.13166513
142	0x3d0bfe14	0.034177855
143	0x3d353375	0.044238526
144	0x3e85968e	0.26091427
145	0x3ea5bc2c	0.32370126
146	0x3d888ef6	0.06667893
147	0x3ec7837f	0.3896751
148	0x3de76630	0.112987876
149	0x3ea20e7f	0.31651685
150	0x3e4eb756	0.20187125
151	0x3dbd0c34	0.09230843
152	0x3d2dd609	0.042440448
153	0xbeab2e7c	-0.33433902
154	0x3dc85576	0.097819254
155	0xbf03a1a6	-0.5141853
156	0xbe36b217	-0.17841373
157	0xbe1eb515	-0.15498765
158	0xbcf3754b	-0.029719016
159	0x3e884370	0.2661395
160	0x3e04e575	0.12978156
161	0xbec5fc7d	-0.38669196
162	0x3d469c6d	0.048489023
163	0x3c43bb91	0.011946575
164	0x3e0a79ad	0.13522978
165	0xbdc9c538	-0.098520696
166	0x3d4887b5	0.048957545
167	0x3db7e30d	0.089788534
168	0x3e3d47df	0.18484448
169	0xbe4951cb	-0.19660108
170	0xbe57ef9f	-0.21087502
171	0xbf02fade	-0.5116404
172	0xbe9896ba	-0.29802495
173	0x3d853bd7	0.06505554
174	0x3ea914a7	0.3302357
175	0x3e48ee95	0.19622262
176	0x3e152aa5	0.14567049
177	0x3d0b64a5	0.03403153
178	0x3e788d7e	0.24272725
179	0x3e679a1e	0.22617385
180	0xbead96ce	-0.33904117
181	0xbebb79d6	-0.3661639
182	0xbe8a476a	-0.2700761
183	0x3e44a498	0.19203413
184	0x3e5d6607	0.21620952
185	0xbd8bc4ae	-0.06824623
186	0x3e938cc5	0.28818336
187	0x3e140af5	0.14457305
188	0xbe47f065	-0.19525297
189	0xbc24029d	-0.010010389
190	0xbe269ca8	-0.16270697
191	0xbe09e819	-0.13467444
192	0xbe2a0ece	-0.1660721
193	0xbf1a8d16	-0.6037153
194	0xbdc38e41	-0.09548617
195	0xbe905a49	-0.28193882
196	0xbe2d526e	-0.16925976
197	0x3e56e7a1	0.20986797
198	0x3e969390	0.29409456
199	0xbeaf279f	-0.34209916
200	0xbe74e959	-0.2391714
201	0xbdc20911	-0.094743855
202	0x3d5f4271	0.054506723
203	0xbe19c405	-0.15016182
204	0x3e8176aa	0.25285846
205	0xbc9bc9df	-0.019017158
206	0x3e00e718	0.12588155
207	0x3e82756e	0.25480217
208	0x3ea7886d	0.32721272
209	0x3d590de5	0.052991766
210	0x3defc3f5	0.11707298
211	0xbdb91845	-0.09037832
212	0x3e779698	0.2417854
213	0x3e7c4a3c	0.24637693
214	0x3d42b40d	0.04753499
215	0x3db40758	0.08790463
216	0xbd115f50	-0.035491288
217	0x3e495412	0.19660977
218	0x3ec63bbb	0.38717446
219	0x3e301182	0.17194179
220	0xbe2da61e	-0.169579
221	0xbe71992e	-0.2359359
222	0xbd8c356a	-0.068461254
223	0xbdad5b9e	-0.0846474
224	0xbd6ef600	-0.058340073
225	0xbd779d29	-0.060452614
226	0x3eab1291	0.33412603
227	0x3dc65ae5	0.096853055
228	0x3c9ecdd0	0.019385248
229	0x3ccc0b86	0.024907839
230	0x3e8a4fa9	0.270139
231	0x3cabdbc6	0.02097882
232	0x3b2f4a9b	0.002674735
233	0xbc8c7d09	-0.017149465
234	0xbcac2483	-0.021013504
235	0x3d03ab89	0.03214601
236	0x3e2ab2bc	0.16669744
237	0x3e2788f3	0.16360836
238	0xbe6b365f	-0.2296996
239	0xbe6a6c63	-0.22892909
240	0x3dba620d	0.09100733
241	0x3c0fbffe	0.008773802
242	0xbe40a7df	-0.18814038
243	0x3e817d6e	0.25291008
244	0x3e9e63ca	0.30935508
245	0x3e248d14	0.16069442
246	0xbdf53a97	-0.11974066
247	0x3d04586c	0.03231089
248	0xbb9452f7	-0.0045264917
249	0x3e1c9a04	0.15293127
250	0xbe258958	-0.16165674
251	0x3de6b92b	0.11265787
252	0x3e6c0eb3	0.23052482
253	0x3dcf5117	0.101228885
254	0xbe7147c8	-0.23562539
255	0xbdd37575	-0.103251375
