model/model_28.pth (torch_old, 571877 bytes, 24 tensors)

conv1.weight f4 [32, 3, 2, 2]
0	0xbde0185b	-0.109421454
1	0xbde693db	-0.1125867
2	0xbe1c6b37	-0.15275274
3	0x3ec85c38	0.39132857
4	0xbf180f78	-0.59398603
5	0x3e1b313e	0.15155503
6	0xbe0c7c5a	-0.13719311
7	0x3edceac6	0.43147868
8	0xbe97dbc0	-0.29659843
9	0xbd990bc7	-0.074729495
10	0x3b619ead	0.0034426854
11	0x3e8cbbe4	0.274871
12	0x3e4ec67e	0.20192906
13	0xbe04d235	-0.12970813
14	0x3df9e3a8	0.12201625
15	0x3c744eb1	0.01491134
16	0x3d8f1381	0.06986142
17	0xbd8275d3	-0.063701294
18	0x3ea6908b	0.32532153
19	0x3d235899	0.039879415
20	0xbe0bf482	-0.13667491
21	0xbe7b57b7	-0.2454518
22	0xbd284cbf	-0.041088816
23	0xbe72f683	-0.2372685
24	0xbdf53c3f	-0.11974382
25	0x3d3133ab	0.043262165
26	0x3e00731f	0.12543915
27	0x3e6b4ece	0.2297928
28	0xbeab6e2a	-0.33482486
29	0x3e4e853e	0.20168015
30	0xbd31e4db	-0.043431144
31	0x3e9ec5a1	0.31010154
32	0x3e0b84f3	0.13624935
33	0xbe4bf305	-0.19916923
34	0xbeebaf3a	-0.46032125
35	0xbdf0757e	-0.1174116
36	0x3ec60a02	0.3867951
37	0xbd466b3f	-0.04844212
38	0x3d8a682a	0.06758149
39	0xbe8d702f	-0.27624652
40	0x3ec68a07	0.38777182
41	0xbe6c6267	-0.23084413
42	0x3e2a3f4d	0.1662571
43	0xbe46cd56	-0.19414267
44	0xbd726625	-0.059179444
45	0x3c8aef8f	0.016959934
46	0xbe5b9d6e	-0.21446773
47	0xbe166edb	-0.14690726
48	0xbe20e575	-0.15712531
49	0xbdd6456f	-0.10462462
50	0xbebe8f97	-0.37218925
51	0xbe61daee	-0.22056171
52	0x3e4911ba	0.19635668
53	0xbdab5988	-0.08366686
54	0x3e9ac480	0.30228043
55	0x3e629d63	0.22130351
56	0xbd3dab8c	-0.046306178
57	0xbe915697	-0.28386375
58	0x3e1d3ffe	0.15356442
59	0x3cbddb07	0.02317573
60	0xbe43607d	-0.19079776
61	0x3deefa1a	0.11668797
62	0x3e76a843	0.24087624
63	0x3e830981	0.25593188
64	0xbe47c532	-0.19508818
65	0xbe080f79	-0.13287152
66	0xbba7b67a	-0.0051181884
67	0xbcbf402d	-0.023346031
68	0xbea86c58	-0.3289516
69	0xbeb77350	-0.35830164
70	0x3df73b90	0.120719075
71	0xbe2f59bf	-0.17124079
72	0x3d0d34db	0.034474235
73	0xbd9b5f52	-0.0758654
74	0xbd635df5	-0.055509526
75	0xbd31e2fd	-0.043429364
76	0x3e2a79f9	0.16648091
77	0x3e2248f6	0.15848145
78	0xbe4d7730	-0.20064998
79	0x3e4bb32b	0.19892566
80	0xbe226780	-0.15859795
81	0xbe571459	-0.21003856
82	0xbb9730a7	-0.004613954
83	0xbdd45d5f	-0.103693716
84	0x3e724792	0.23660114
85	0x3d51c034	0.05120869
86	0xbf126058	-0.5717826
87	0x3d74a373	0.05972619
88	0x3e026ad7	0.12736069
89	0x3ef9e1b7	0.4880502
90	0xbdf15bc0	-0.11785078
91	0xbe7a87b3	-0.24465828
92	0x3e78d8c8	0.24301445
93	0x3ea26417	0.31716987
94	0xbeb3a467	-0.35086367
95	0xbe52fdda	-0.20604649
96	0x3d2e52be	0.042559378
97	0xbe93e96c	-0.28889024
98	0x3e3941e0	0.18091536
99	0xbdc7be8a	-0.09753139
100	0x3e09cf02	0.13457873
101	0xbeea5702	-0.45769507
102	0x3ed5067e	0.41606516
103	0x3d121e2f	0.035673317
104	0xbe6c7f1b	-0.23095362
105	0xbecdd241	-0.40199474
106	0x3f0de95b	0.554342
107	0x3dd614b9	0.10453171
108	0x3e145c71	0.14488389
109	0xbd073d6d	-0.033017565
110	0x3d15bd81	0.036557678
111	0x3e215b90	0.15757585
112	0x3e60127a	0.21882048
113	0xbe8d9aaa	-0.27657062
114	0x3c55a177	0.0130389845
115	0x3e65e04b	0.22448842
116	0x3e18c8e4	0.14920384
117	0x3e0efbbd	0.13963218
118	0xbe49976d	-0.1968667
119	0xbe1779e6	-0.14792594
120	0xbdefbd9b	-0.11706086
121	0x3d25ed2b	0.040509384
122	0x3e910db6	0.28330773
123	0xbe8882cb	-0.26662287
124	0x3e2e4f79	0.17022504
125	0xbe3f2128	-0.18664992
126	0xbead122f	-0.33802935
127	0xbe0036f7	-0.12520967
128	0x3e570fca	0.21002117
129	0x3e88c342	0.2671147
130	0xbe670e27	-0.22563992
131	0x3d023bb7	0.03179523
132	0x3ebe6c5f	0.37192056
133	0x3e646f7d	0.22308154
134	0x3e00e378	0.12586772
135	0x3dc5fc04	0.09667209
136	0x3e10eaaf	0.14152025
137	0xbc86713b	-0.016411414
138	0xbef3dfee	-0.47631782
139	0xbf056ffe	-0.5212401
140	0xbc02bff3	-0.007980335
141	0x3d5f9ced	0.054593015
142	0xbe8db93a	-0.2768038
143	0x3d3bd2e1	0.045855407
144	0x3c548f99	0.0129736895
145	0x3c10e305	0.008843188
146	0xbe008153	-0.12549333
147	0x3d6758ac	0.05648105
148	0x3e24df49	0.16100802
149	0x3ea96340	0.33083534
150	0xbe3fda52	-0.18735626
151	0x3ec4ac5b	0.38412747
152	0xbe0af77f	-0.13570975
153	0x3ccae26b	0.024766168
154	0xbed8e0e5	-0.4235908
155	0xbe3af3b2	-0.18257025
156	0xbeba292b	-0.36359534
157	0xbe195141	-0.14972402
158	0x3e36b483	0.17842297
159	0x3cb51190	0.022103101
160	0xbe867596	-0.26261586
161	0x3e5d7826	0.21627864
162	0x3dba7eb7	0.091062
163	0x3eb3c718	0.35112834
164	0xbea0aa15	-0.31379762
165	0x3d642939	0.055703375
166	0xbe774595	-0.24147637
167	0xbcec306b	-0.028831681
168	0xbf08636a	-0.53276694
169	0xbe9dca57	-0.30818436
170	0xbe7da9b9	-0.24771775
171	0x3e09c93e	0.13455674
172	0xbd50e0ac	-0.050995514
173	0x3da7c9b7	0.08192771
174	0x3ea3f4f4	0.32022822
175	0x3ef1338b	0.47109637
176	0x3d893a01	0.067005165
177	0xbd821cdd	-0.063531615
178	0xbe594f5b	-0.21221678
179	0x3eb0df2b	0.34545264
180	0x3e05f87f	0.13083075
181	0x3dce997d	0.10087869
182	0xbe5dd6f2	-0.21664026
183	0xbe1a7793	-0.15084676
184	0x3c205328	0.009785451
185	0x3eaeac69	0.34115914
186	0xbe2da3f4	-0.16957074
187	0xbe83e723	-0.2576228
188	0x3df035d6	0.117290184
189	0xbe185dfe	-0.14879605
190	0x3e1fd96e	0.15610287
191	0xbe51f48e	-0.20503446
192	0x3cb2039b	0.021730235
193	0xbdc2e8b6	-0.09517042
194	0x3eaee7af	0.34161136
195	0xbebd8a49	-0.37019566
196	0x3e667474	0.22505361
197	0xbd410925	-0.04712786
198	0x3ec04162	0.37549883
199	0xbef06a02	-0.46955878
200	0x3e4532bd	0.19257636
201	0xbeb78893	-0.35846385
202	0x3ea46c00	0.32113647
203	0xbea767a3	-0.32696256
204	0xbcbc33b7	-0.022973878
205	0x3e1642a9	0.14673866
206	0xbe63ef9d	-0.22259374
207	0x3e5d1f4e	0.21593973
208	0xbe5e896f	-0.21732114
209	0x3e8037c7	0.25042555
210	0xbe4fb932	-0.2028549
211	0x3e97cbb4	0.296476
212	0xbf1afa77	-0.6053843
213	0x3e395ec6	0.1810256
214	0xbd8346cb	-0.06409987
215	0x3e935ab5	0.2878014
216	0x3df099ad	0.11748061
217	0xbe3e04c2	-0.18556502
218	0xbe35a8e5	-0.1774021
219	0x3e969ce4	0.29416573
220	0xbecc1a4a	-0.39863807
221	0x3ea339d1	0.31880048
222	0xbede18d5	-0.4337832
223	0xbe4a14fd	-0.19734569
224	0x3e7e3248	0.24823868
225	0x3c4dc168	0.012558319
226	0x3b53e191	0.0032330493
227	0x3ecf03eb	0.40432677
228	0x3e425fc1	0.1898184
229	0x3ee47690	0.44621706
230	0xbe85d060	-0.2613554
231	0xbe898b32	-0.2686401
232	0x3ea51c53	0.32248172
233	0x3e5ec12b	0.21753375
234	0xbe8f6c65	-0.28012386
235	0x3da137fa	0.07872005
236	0xbe9ffd5d	-0.31247988
237	0x3ea90e63	0.3301879
238	0xbe3cb6c8	-0.184291
239	0xbec32052	-0.38110596
240	0xbe862db5	-0.26206747
241	0xbd52dc2c	-0.051479504
242	0x3e2f3f63	0.17114024
243	0x3d5de5cc	0.05417423
244	0xbeb50c72	-0.35361058
245	0xbe1b6adf	-0.15177487
246	0xbed7db20	-0.42159367
247	0xbe9614bf	-0.29312703
248	0xbe2ddcb7	-0.16978727
249	0x3e94d220	0.29066563
250	0x3ebb25af	0.36552188
251	0x3d5769d6	0.052591167
252	0xbc91e263	-0.017808145
253	0x3e499ba5	0.1968828
254	0xbdf10b1d	-0.11769698
255	0xbe5d1751	-0.21590926

conv1.bias f4 [32]
0	0xbec2209f	-0.37915513
1	0xbdbeb510	-0.09311879
2	0xbefc46fe	-0.49272913
3	0xbe2d2106	-0.16907129
4	0xbec698d7	-0.38788483
5	0xbf01381f	-0.5047626
6	0xbf0f2b70	-0.55925655
7	0x3e0598db	0.13046591
8	0x3dae2c19	0.08504505
9	0xbeb41fb2	-0.35180432
10	0xbecf9fea	-0.40551692
11	0xbcc0d289	-0.023537891
12	0xbdbef66b	-0.09324344
13	0xbe497921	-0.19675113
14	0x3d9df43f	0.07712602
15	0xbecae385	-0.3962671
16	0xbdaa4ddc	-0.08315632
17	0x3df5cfe1	0.120025404
18	0xbe2790ff	-0.16363905
19	0xbf074f8d	-0.5285576
20	0xbf0242ea	-0.5088335
21	0xbf411fd4	-0.7543919
22	0x3e0a0703	0.13479237
23	0xbf1c5061	-0.6106015
24	0x3d523b82	0.051326282
25	0xbdd413db	-0.1035535
26	0xbebd343d	-0.36953917
27	0xbeeb1137	-0.4591157
28	0x3dea6d69	0.114466496
29	0xbeefd493	-0.4684187
30	0xbecba837	-0.39776775
31	0x3d9057d1	0.07048

conv2.weight f4 [32, 32, 2, 2]
0	0xbe4a3473	-0.1974657
1	0x3df69b3e	0.12041329
2	0xbdc36a1b	-0.095417224
3	0xbdb366a8	-0.087598145
4	0x3ca712ac	0.020394646
5	0x3d33590a	0.043786086
6	0xbd8f49b9	-0.06996483
7	0x3c4c43a8	0.012467302
8	0xbca4258a	-0.020037431
9	0x3d03dba4	0.032191887
10	0xbe53e914	-0.20694381
11	0xbe3689c7	-0.17825995
12	0xbdc7b656	-0.09751575
13	0xbda20ba9	-0.0791238
14	0xbd09058f	-0.033452567
15	0xbdc89853	-0.097946785
16	0xbdc0b08d	-0.094086744
17	0x3cda029e	0.026612576
18	0xbde13aa1	-0.10997511
19	0xbe48b60b	-0.19600694
20	0xbd36235a	-0.044467308
21	0x3d06d8c7	0.03292158
22	0xbd02fc0b	-0.03197865
23	0x3d9c67ad	0.07636962
24	0x3d154047	0.036438253
25	0x3e141091	0.14459445
26	0xbdff8624	-0.12476757
27	0x3cf3d291	0.029763492
28	0xbe9b89c8	-0.30378556
29	0xbea3ce29	-0.31993225
30	0xbd59fe1c	-0.053220853
31	0xbee3a6e2	-0.4446326
32	0x3de1549a	0.110024646
33	0x3de210c2	0.110383525
34	0x3e10f8b2	0.1415737
35	0x3e892ab8	0.26790404
36	0x3de0b2fc	0.109716386
37	0xbdac7db9	-0.08422417
38	0x3dfc717c	0.12326333
39	0x3dd32b4e	0.10310994
40	0xbde67292	-0.11252321
41	0x3d9428d5	0.072343506
42	0x3d88cf05	0.06680111
43	0xbcc17584	-0.023615606
44	0xbcf0144b	-0.029306551
45	0xbe86444e	-0.26223987
46	0x3e314705	0.17312248
47	0xbe25527e	-0.1614475
48	0x3e05a5e2	0.1305156
49	0xbd0ddc16	-0.03463372
50	0x3d96ae04	0.073574096
51	0xbe397b93	-0.18113546
52	0x3d7c0b52	0.061534233
53	0x3d9b35ba	0.07578607
54	0x3bce9c8a	0.006305282
55	0xbde649db	-0.112445556
56	0x3de1655c	0.11005661
57	0x3bd71818	0.0065641515
58	0x3e1cce2a	0.1531302
59	0x3df2fc47	0.11864524
60	0xb9a1d32c	-0.00030865648
61	0x3ea3b703	0.31975564
62	0xbda189d7	-0.07887619
63	0xbda35245	-0.07974676
64	0x3e1bf315	0.15229447
65	0xbcc6c0d7	-0.024261875
66	0xbe48c206	-0.19605264
67	0xbc1a5006	-0.009418493
68	0x3d2d817d	0.042359818
69	0xbe808d88	-0.2510798
70	0x3d5a4c8a	0.05329565
71	0x3b352aa5	0.0027643826
72	0x3d8a7951	0.067614205
73	0x3d4b41d2	0.049623318
74	0xbdac84d1	-0.0842377
75	0xbe556da1	-0.20842601
76	0xbdff26e0	-0.12458587
77	0xbe851dd1	-0.2599931
78	0x3d59dcbb	0.05318902
79	0x3dbec123	0.09314182
80	0x3e951a0e	0.2912144
81	0x3eb6dc4c	0.35714948
82	0xbedce034	-0.43139803
83	0xbe3ccb21	-0.18436863
84	0xbe8c19ac	-0.27363336
85	0xbe09ff2d	-0.13476248
86	0xbd606789	-0.05478624
87	0xbe5c2c45	-0.21501262
88	0xbe04afd5	-0.129577
89	0xbad50882	-0.0016253146
90	0xbd1025e2	-0.035192378
91	0xbc8939fb	-0.01675128
92	0x3efb62e3	0.49098882
93	0x3e660621	0.22463275
94	0xbe75b874	-0.23996145
95	0xbe943b7c	-0.28951633
96	0xbe94a65e	-0.29033178
97	0x3dcfc982	0.101458564
98	0x3e036f92	0.1283553
99	0xbe903ffc	-0.28173816
100	0x3e0571d3	0.13031702
101	0x3de534c3	0.11191704
102	0xbe4d3e4e	-0.20043299
103	0xbe66b8f2	-0.22531489
104	0xbdb429e9	-0.08797056
105	0x3e70d5c4	0.23519045
106	0x3d6f7beb	0.058467787
107	0xbd7dabf0	-0.06193155
108	0xbd39f915	-0.04540356
109	0x3de236dc	0.1104562
110	0xbabc0513	-0.0014344774
111	0x3d301622	0.042989857
112	0x3e18eac5	0.14933307
113	0x3e2d3392	0.16914204
114	0x3e35ca3b	0.17752926
115	0x3e9bae5d	0.30406466
116	0x3d0cf129	0.034409676
117	0x3e85622d	0.26051465
118	0xbeaa3a91	-0.33247808
119	0xbe24fe52	-0.1611264
120	0xbe84d4fc	-0.25943744
121	0x3e49df98	0.197142
122	0xbdfe2455	-0.124092735
123	0x3dae4352	0.08508934
124	0x3e1e406b	0.15454261
125	0xbd8fac4c	-0.07015285
126	0x3d93ab9f	0.072104685
127	0x3d992b9b	0.0747902
128	0xbe6908ae	-0.22757217
129	0xbdfeac02	-0.12435152
130	0xbe2d9c01	-0.16954042
131	0xbe8ae0e1	-0.27124694
132	0xbec8f4f0	-0.39249372
133	0xbe713326	-0.23554668
134	0xbe9d4b28	-0.30721402
135	0xbeb0ff97	-0.3457
136	0xbebc2c73	-0.36752662
137	0xbee7a712	-0.45244652
138	0xbf0af36c	-0.5427768
139	0xbe9a60ca	-0.3015197
140	0xbe571808	-0.21005261
141	0xbed762c7	-0.4206755
142	0xbed76152	-0.42066437
143	0xbedc59e2	-0.43037325
144	0xbe6be417	-0.23036228
145	0xbe862fee	-0.26208442
146	0xbe6d76ae	-0.23189804
147	0xbe9e7ec4	-0.3095609
148	0x3e3ecc54	0.18632632
149	0x3e5a2b0f	0.21305488
150	0x3e381646	0.17977247
151	0x3e748f08	0.23882687
152	0xbeb38b62	-0.35067278
153	0xbe9eed25	-0.31040302
154	0xbe92c12c	-0.28663003
155	0xbe8bf4c0	-0.27335167
156	0xbeb57d8e	-0.35447353
157	0xbeae8580	-0.34086227
158	0xbf08ebe6	-0.5348495
159	0xbecc6943	-0.39924058
160	0xbee815e1	-0.45329192
161	0xbdef99f0	-0.11699283
162	0xbee08421	-0.43850806
163	0xbeb26d74	-0.3484913
164	0xbc44ee18	-0.012019657
165	0x3ca5b35e	0.02022713
166	0xbe0bd27f	-0.13654517
167	0x3d55cf8b	0.05219988
168	0x3cecfb9f	0.028928576
169	0xbd9b08f7	-0.07570069
170	0x3cd108e6	0.025516938
171	0x3df09016	0.11746232
172	0x3dd86291	0.10565675
173	0x3e03090e	0.12796423
174	0x3deb3906	0.11485486
175	0x3e4db1c1	0.20087339
176	0xbed9ebff	-0.42562863
177	0xbf15c7a8	-0.58507776
178	0xbf2a6ab3	-0.6656906
179	0xbf0253e2	-0.50909245
180	0xbdcc2899	-0.09968681
181	0xbe23ae47	-0.1598445
182	0xbdf21fbc	-0.11822459
183	0xbe0c48f5	-0.13699706
184	0xbe3511e0	-0.176826
185	0xbe9fecdd	-0.312354
186	0xbda221d9	-0.07916612
187	0xbe39e941	-0.18155386
188	0x3e65b308	0.22431576
189	0x3e31a878	0.17349422
190	0x3e80fd1b	0.25193104
191	0x3e859a54	0.26094306
192	0xbe6d57da	-0.23178044
193	0xbcd1f805	-0.02563096
194	0xbd82b0af	-0.06381356
195	0xbd81ec67	-0.06343918
196	0xbe46c07f	-0.19409369
197	0xbe82d886	-0.2555582
198	0xbe37d070	-0.17950606
199	0xbe7e3946	-0.24826536
200	0x3c9802e3	0.018556064
201	0x3ca1dd16	0.019758742
202	0x3dc3b9c5	0.09556917
203	0x3d13536a	0.03596822
204	0xbe3bf82d	-0.1835639
205	0xbe80a8d7	-0.25128815
206	0xbc4a15a7	-0.012334264
207	0xbe0ca610	-0.13735223
208	0x3eabd951	0.33564237
209	0x3ec90dbb	0.39268288
210	0x3ea893f8	0.3292539
211	0x3ee2e772	0.44317204
212	0x3e50cd15	0.20390733
213	0x3be240a8	0.0069046803
214	0x3e914734	0.28374636
215	0x3ce8baea	0.02840944
216	0xbebde660	-0.37089825
217	0xbec128e4	-0.3772651
218	0xbf10589b	-0.563852
219	0xbe9eea78	-0.3103826
220	0xbe73431d	-0.2375607
221	0xbe90b046	-0.28259486
222	0xbe90339a	-0.2816437
223	0xbe8a63ae	-0.27029175
224	0xbef5c3b0	-0.4800086
225	0xbed9dbcf	-0.42550513
226	0xbf1ce2e7	-0.61283726
227	0xbee48283	-0.44630823
228	0x3dc4b879	0.09605498
229	0xbcd96158	-0.026535675
230	0xbd480e03	-0.048841488
231	0x3ac89ab9	0.00153049
232	0xbe63c2f9	-0.22242345
233	0xbe344ac1	-0.17606641
234	0xbe34b28e	-0.17646238
235	0xbcd50c74	-0.026006915
236	0xbd45bd47	-0.048276212
237	0x3b8e23ee	0.0043377792
238	0x3bd2079e	0.0064095994
239	0xbc39ac43	-0.011332574
240	0xbe3323fd	-0.17494197
241	0x3c78bb05	0.015181308
242	0xbd96e987	-0.073687606
243	0xbd625ce3	-0.055264365
244	0xbd1061d9	-0.035249565
245	0x3c818b57	0.015813513
246	0xbe3de0d0	-0.1854279
247	0xbcc74e48	-0.02432932
248	0xbd966b94	-0.07344738
249	0xbd1b5ad0	-0.037928402
250	0x3d27df5e	0.040984504
251	0x3cf98d95	0.03046302
252	0xbef19089	-0.47180584
253	0xbea0483f	-0.3130512
254	0xbeb4eac6	-0.35335368
255	0xbec915e7	-0.39274523

conv2.bias f4 [32]
0	0x3d3e64e3	0.04648293
1	0xbd99f205	-0.07516865
2	0xbdd983fc	-0.10620877
3	0xbe1b0041	-0.15136816
4	0x3df39d66	0.11895256
5	0xbdb91ad5	-0.09038321
6	0xbe14d56b	-0.14534537
7	0x3e1a3f9c	0.15063328
8	0xbd7af773	-0.061271142
9	0x3e17dec7	0.14831077
10	0xbe4fd3fe	-0.20295712
11	0x3e41db74	0.18931371
12	0x3dd2951a	0.10282345
13	0xbdf164c2	-0.11786796
14	0xbee848a3	-0.45367917
15	0xbdeb819b	-0.1149933
16	0x3c2c28e9	0.010507801
17	0x3b5ef7e3	0.0034022264
18	0x3d53ced4	0.05171092
19	0x3df194df	0.11795973
20	0x3d4d6828	0.05014816
21	0xbe577717	-0.21041523
22	0x3d3e1491	0.046406332
23	0x3e08f99c	0.13376468
24	0xbd880260	-0.06641078
25	0x3e4561a5	0.1927553
26	0x3d0b7f33	0.034056854
27	0xbe000ac1	-0.12504102
28	0x3bcb6606	0.0062072305
29	0x3e5128a0	0.20425653
30	0x3e8c6367	0.27419588
31	0xbe1e733c	-0.15473646

conv3.weight f4 [64, 32, 2, 2]
0	0xbdd21b86	-0.10259156
1	0x3db9c3c7	0.09070545
2	0x3c2a3d62	0.010390611
3	0x3e96fb92	0.29488808
4	0x3d226a83	0.03965236
5	0xbe613854	-0.21994144
6	0x3e7131c4	0.2355414
7	0xbe51bb41	-0.20481588
8	0x3d745bcc	0.059657857
9	0x3d95f578	0.0732221
10	0x3db96dbb	0.090541326
11	0x3cf63d7e	0.030058619
12	0x3d063a46	0.032770418
13	0xbd710c1a	-0.05884943
14	0x3c6de17a	0.01451909
15	0xbd08126b	-0.03322069
16	0xbec46953	-0.38361606
17	0xbea40c1d	-0.32040492
18	0xbe6dcf61	-0.2322364
19	0xbe8c640c	-0.2742008
20	0xbd92e2db	-0.071721755
21	0x3d45cfb8	0.0482938
22	0xbd6f2496	-0.0583845
23	0x3d28e0cd	0.04123001
24	0x3cf4c9f9	0.029881464
25	0xbd0581d2	-0.03259451
26	0xbd3e3797	-0.046439733
27	0xbd864a6d	-0.06557164
28	0xbe16b592	-0.14717701
29	0xbe57becf	-0.21068881
30	0xbe9fcee1	-0.31212524
31	0xbed86d67	-0.42270967
32	0xbced2aca	-0.028951067
33	0xbdbd1d0b	-0.09234055
34	0x3cd60426	0.026125025
35	0xbcce5576	-0.025187235
36	0x3e81e844	0.25372517
37	0xbd920663	-0.071301244
38	0x3e78f6a7	0.2431284
39	0xbec887f6	-0.3916623
40	0x3e3a9765	0.18221815
41	0x3e9e5c01	0.30929568
42	0x3e6662ac	0.22498578
43	0x3e9a1eb1	0.3010154
44	0x3d5024ab	0.05081622
45	0x3dbd21bf	0.09234952
46	0x3cda6210	0.026658088
47	0x3d39deae	0.04537838
48	0xbc944dea	-0.018103559
49	0xbebbb812	-0.36663872
50	0x3ec65bc7	0.38741896
51	0xbd30fc26	-0.043209217
52	0x3e466130	0.19373012
53	0x3e54aff7	0.2077025
54	0xbd69b707	-0.057059314
55	0xbef2edc4	-0.47447026
56	0xbe0c3310	-0.13691354
57	0xbd6830dd	-0.056687225
58	0xbd0a28d7	-0.033730354
59	0xbe738ecf	-0.23784946
60	0x3dea15f3	0.11429968
61	0x3d9be322	0.076116815
62	0x3d702c2e	0.058635883
63	0x3d49c849	0.049263272
64	0x3d8b377c	0.06797692
65	0x3d76711d	0.060166467
66	0x3db50ea7	0.08840685
67	0xbc28933f	-0.010289012
68	0x3d3bce53	0.045851063
69	0x3d8ba094	0.06817737
70	0xbddf5c45	-0.10906271
71	0xbdca0f2a	-0.098661736
72	0x3e2204fd	0.15822215
73	0xbc3343b2	-0.010941433
74	0xbe0330a3	-0.12811522
75	0xbd0fada3	-0.035077702
76	0x3e898244	0.26857197
77	0xbd2ec18a	-0.042665042
78	0x3dfb5773	0.12272539
79	0x3ca32946	0.019917142
80	0xbe85dac9	-0.26143482
81	0x3d48b86f	0.049004015
82	0x3d51a0af	0.05117863
83	0x3e234b57	0.15946709
84	0x3e4889b0	0.19583774
85	0x3e1eb49c	0.15498585
86	0xbd259a13	-0.04043014
87	0x3dcade99	0.099057384
88	0xbdaee190	-0.085391164
89	0xbcaccd7e	-0.02109408
90	0xbd830649	-0.06397683
91	0xbcfc5db7	-0.030806405
92	0xbec7b3ed	-0.3900446
93	0xbe0a0d7d	-0.13481708
94	0x3eb77cb1	0.3583732
95	0x3e538d3b	0.20659344
96	0x3e17f8d5	0.14841016
97	0xbe6d7e50	-0.23192716
98	0x3e880e6b	0.265735
99	0xbe5aee13	-0.2137988
100	0x3eca9225	0.39564624
101	0xbe4551c3	-0.19269471
102	0x3cb6f33b	0.022332778
103	0xbea39b3b	-0.3195437
104	0x3d8f4268	0.06995088
105	0xbe1f80dd	-0.15576501
106	0xbe48ee1b	-0.1962208
107	0xbdf3488e	-0.11879073
108	0x3d898ef4	0.06716719
109	0x3c50d27e	0.012745498
110	0xbda29909	-0.079393454
111	0xbc30253b	-0.010751064
112	0x3d055296	0.032549463
113	0x3d26824b	0.0406516
114	0x3dd2627e	0.10272692
115	0x3d39f8e1	0.045403365
116	0x3e7eef40	0.24895954
117	0xbdb82967	-0.08992272
118	0x3e20e00c	0.15710467
119	0x3bb1c0d3	0.0054245978
120	0x3d77c213	0.060487818
121	0x3e89a992	0.26887184
122	0x3df06579	0.117381044
123	0x3e687180	0.22699547
124	0x3c259d88	0.010108359
125	0x3c850235	0.016236404
126	0x3dd88822	0.1057284
127	0xbd3506a5	-0.04419579
128	0xbe55d282	-0.20881084
129	0xbf0cb83f	-0.5496864
130	0x3d7ef81b	0.06224833
131	0xbc85fdd0	-0.016356379
132	0x3e757ce8	0.23973429
133	0xbdbd6446	-0.09247641
134	0x3e8087ea	0.25103694
135	0x3e53c545	0.20680721
136	0x3d1b7372	0.037951894
137	0x3b32db16	0.002729123
138	0xbdd67e5f	-0.10473322
139	0xbda5efe5	-0.08102397
140	0xbd80fabe	-0.06297825
141	0xbdd016fb	-0.10160633
142	0x3d1513cb	0.03639583
143	0x3d7511ed	0.05983155
144	0xbdaa34d9	-0.08310861
145	0xbe1d64a7	-0.15370427
146	0xbe3d3696	-0.18477854
147	0xbdc103a0	-0.094245195
148	0xbbf1d674	-0.007380301
149	0xbcd1f678	-0.02563022
150	0xbcd133f0	-0.025537461
151	0x3d75ce0b	0.06001095
152	0xbc71b4ce	-0.01475258
153	0x3cd1e13f	0.025620101
154	0x3d6d80b4	0.05798407
155	0x3d16adc5	0.036786813
156	0xbcff7427	-0.031183315
157	0xbe9376d2	-0.2880159
158	0x3ce25d4e	0.027632382
159	0xbe33e44c	-0.17567557
160	0xbc0cb367	-0.008587695
161	0x3c6363f4	0.013878811
162	0xbc6ec74d	-0.014573884
163	0xbc9b0e9e	-0.018927868
164	0x3dcfdb99	0.10149307
165	0x3e1f9411	0.15583827
166	0xbdcbe472	-0.09955682
167	0xbe603b23	-0.21897559
168	0xbd6d38a0	-0.05791533
169	0x3d525b93	0.051356863
170	0xbe830e94	-0.2559706
171	0xbdf92273	-0.12164774
172	0x3d3973ce	0.045276456
173	0xbeadf2dd	-0.33974352
174	0x3e758e21	0.23979999
175	0xbda11cb1	-0.078668006
176	0x3e56516d	0.20929499
177	0x3e85cb14	0.261315
178	0xbda75f83	-0.08172514
179	0xbe40c274	-0.18824178
180	0x3dceda6b	0.10100254
181	0x3da424b8	0.08014816
182	0x3de1b9d6	0.110217735
183	0x3e82591f	0.2545862
184	0xbea2dc49	-0.3180869
185	0xbd101c34	-0.035183147
186	0xbe8c5463	-0.27408132
187	0x3d527dad	0.051389385
188	0xbcfc31d8	-0.030785486
189	0x3d9e0ea2	0.07717635
190	0xbd1ca08f	-0.038239058
191	0x3cac4533	0.02102909
192	0x3e243025	0.1603399
193	0x3c7910c9	0.015201756
194	0xbc217146	-0.009853667
195	0x3d541267	0.051775362
196	0xbc831c74	-0.016004778
197	0xbd8c7099	-0.06857414
198	0xbd9cea4e	-0.076618776
199	0x3da48ce4	0.08034685
200	0x3d382733	0.04495926
201	0xbd07c0d0	-0.033142865
202	0xbeb6038b	-0.35549578
203	0xbe313060	-0.1730361
204	0xbe0866ad	-0.13320418
205	0x3cd8b8da	0.026455332
206	0xbf05eec1	-0.52317435
207	0xbdc3b772	-0.09556474
208	0xbe094613	-0.13405637
209	0xbcc23273	-0.023705697
210	0xbea56c56	-0.32309216
211	0xbeb86671	-0.36015657
212	0xbd62f84e	-0.055412583
213	0xbcbbed89	-0.022940414
214	0x3cc1b278	0.02364467
215	0x3e041567	0.1289879
216	0x3d1e0917	0.038582888
217	0x3d821fb4	0.06353703
218	0x3d97f9d5	0.074206986
219	0x3e321fdf	0.1739497
220	0xbe70c051	-0.23510863
221	0xbe8ce134	-0.27515566
222	0x3e042c1f	0.12907456
223	0xbcf608e2	-0.030033533
224	0x3e6c3062	0.23065332
225	0x3e88f73d	0.26751128
226	0xbdfa0717	-0.122083835
227	0xbca11106	-0.019661438
228	0x3e624ee5	0.22100408
229	0x3df00aa4	0.117207795
230	0xbe0e4ca3	-0.13896422
231	0xbe441f57	-0.1915258
232	0xbe95e5a1	-0.29276755
233	0xbf40d737	-0.7532839
234	0xbe7424d8	-0.2384218
235	0xbef4fe12	-0.4785009
236	0x3c8e7246	0.017388474
237	0xbd9a565e	-0.075360045
238	0x3d1a3710	0.037650168
239	0x3da7fe2f	0.082027785
240	0x3e6ee0ac	0.23327893
241	0x3dbb9be2	0.09160592
242	0xbe97c3c7	-0.29641554
243	0xbdb2737d	-0.08713434
244	0x3d90605b	0.07049628
245	0x3e51fb9e	0.2050614
246	0xbe4a5a89	-0.19761099
247	0x3d70344d	0.058643628
248	0x3e09c1f3	0.13452892
249	0x3da6a30e	0.08136569
250	0x3dab4ff3	0.083648585
251	0xbf24d88e	-0.64392936
252	0xbd5e2c02	-0.054241188
253	0x3d0177e3	0.031608474
254	0xbd703d3a	-0.05865214
255	0x3bc777c1	0.006087274

conv3.bias f4 [64]
0	0x3b13590a	0.0022483491
1	0x3eb125c4	0.34599125
2	0x3e167d72	0.14696291
3	0xbecd516e	-0.40101188
4	0x3d2a0b69	0.041514788
5	0xbcc4415b	-0.023956945
6	0x3dedeb5a	0.116171554
7	0xbdb32358	-0.08746976
8	0x3e090c2e	0.13383552
9	0x3e09815c	0.13428253
10	0xbebd370d	-0.36956063
11	0xbdb7adbd	-0.08968685
12	0x3d25226f	0.04031604
13	0xbddb0259	-0.10693807
14	0x3dd33637	0.10313075
15	0x3e1aed0f	0.15129493
16	0xbd3c81a1	-0.04602206
17	0x3d025b90	0.031825602
18	0x3d31437e	0.043277256
19	0x3d81bd6f	0.0633496
20	0x3e01896f	0.12650083
21	0xbacf4d45	-0.0015815875
22	0xbeeed01c	-0.4664315
23	0xbe0f79ff	-0.14011382
24	0x3a949ed5	0.001133884
25	0xbe2756f9	-0.16341771
26	0x3eb29339	0.34877947
27	0x3daf0409	0.085456915
28	0x3e7a00c9	0.24414362
29	0x3e13b7ac	0.14425534
30	0x3e046351	0.12928511
31	0x3e54f842	0.20797828
32	0xbdaa0542	-0.08301784
33	0x3e65d642	0.22445014
34	0xbd880af8	-0.06642717
35	0xbe5f898c	-0.21829814
36	0x3cf2869d	0.029605204
37	0x3e801e49	0.25023106
38	0xbe642462	-0.22279504
39	0x3d0bb21c	0.034105405
40	0x3db9f421	0.09079767
41	0x3e3b0fff	0.18267821
42	0x3cfda987	0.030964626
43	0xbe2a69ae	-0.16641876
44	0x3d4b9911	0.049706522
45	0xbd10d903	-0.03536321
46	0x3d706a0d	0.058694888
47	0x3de2e101	0.11078072
48	0xbd2f46b5	-0.04279204
49	0xbd840aaa	-0.064473465
50	0x3da5a260	0.08087611
51	0xbdc2f749	-0.09519822
52	0x3d696a23	0.056985985
53	0xbe2d107c	-0.1690082
54	0x3e05e993	0.13077383
55	0xbc1a06c5	-0.009401028
56	0xbe03c286	-0.12867174
57	0x3cee361e	0.02907854
58	0xbde2542e	-0.11051212
59	0xbe4d37aa	-0.20040765
60	0x3da1edae	0.07906662
61	0x3bf54ed8	0.0074862055
62	0xbe11eeb9	-0.14251222
63	0xbd32a3f1	-0.043613378

conv4.weight f4 [64, 64, 2, 2]
0	0x3d3224e8	0.043492228
1	0xbe49e468	-0.19716036
2	0xbdaf4291	-0.085576184
3	0xbf10e195	-0.5659421
4	0xbe681a6a	-0.22666326
5	0x3e6ff7fc	0.23434442
6	0xbe5575cf	-0.20845722
7	0x3d79c7fd	0.06098174
8	0xbec6e772	-0.38848454
9	0x3decdff2	0.11566152
10	0xbe8fa30b	-0.2805408
11	0xbd31c495	-0.043400366
12	0xbddadd17	-0.10686701
13	0xbe447c47	-0.19188033
14	0xbe2816fd	-0.1641502
15	0xbe3c0aed	-0.18363543
16	0x3e0c221f	0.13684891
17	0x3dc8633e	0.09784554
18	0x3daa0bb8	0.083030164
19	0xbea9eae0	-0.33187008
20	0xbe7a7aa9	-0.24460854
21	0xbeac259b	-0.3362244
22	0xbe043900	-0.12912369
23	0xbe488ec6	-0.19585714
24	0x3d19895f	0.037484523
25	0xbf11bdcf	-0.5693025
26	0x3e07dad6	0.13267073
27	0xbe306283	-0.17225079
28	0xbd5b2194	-0.05349882
29	0x3cec2ae0	0.028829038
30	0x3e3759a5	0.1790529
31	0x3cd9afdf	0.02657312
32	0x3e2dd010	0.16973901
33	0xbe46df2f	-0.19421075
34	0x3e997cbd	0.2997798
35	0x3d0cca0d	0.03437238
36	0xbe467775	-0.19381507
37	0xbe90c6bc	-0.28276622
38	0xbdf229fa	-0.11824413
39	0xbe04b836	-0.12960896
40	0xbe0564cf	-0.13026737
41	0x3ccb7e46	0.024840485
42	0xbe8666fc	-0.26250446
43	0xbed5f638	-0.41789412
44	0xbef60ba5	-0.4805576
45	0x3dcbc851	0.09950317
46	0xbef500f0	-0.47852278
47	0xbee52fe6	-0.44763106
48	0xbeb8fbb7	-0.36129543
49	0x3d21e3ee	0.03952401
50	0xbdc77ea3	-0.09740951
51	0xbe85a5d3	-0.26103076
52	0xbca48f2e	-0.020087805
53	0xbd9372a5	-0.07199601
54	0x3d431bac	0.04763381
55	0xbda4a62a	-0.08039506
56	0x3e86aa47	0.26301786
57	0xbcb56dc6	-0.02214707
58	0x3ee54dd1	0.44785932
59	0x3e883649	0.26603916
60	0xbe0de3ac	-0.13856381
61	0xbe4be02c	-0.19909734
62	0x3e86a081	0.2629433
63	0xbc561d8d	-0.013068569
64	0xbdb95286	-0.09048943
65	0x3d683585	0.056691665
66	0xbead6e3d	-0.33873168
67	0xbc8e374b	-0.01736035
68	0xbe51f6f5	-0.20504363
69	0xbd3c2c75	-0.045940835
70	0xbdc17a50	-0.094471574
71	0xbeba3543	-0.3636876
72	0x3e15906b	0.14605872
73	0xbe40dff8	-0.18835437
74	0x3d6641e8	0.056215197
75	0x3da73007	0.08163457
76	0xbec3312e	-0.3812346
77	0xbdef59d8	-0.11687058
78	0xbe83b909	-0.25727108
79	0xbd9adedf	-0.075620405
80	0xbe19636b	-0.14979331
81	0x3ebc0ad6	0.36727017
82	0xbc54d727	-0.012990749
83	0x3debed4d	0.11519871
84	0xbec2b23e	-0.38026613
85	0x3ef7cb33	0.48397216
86	0x3cdbea3b	0.026845088
87	0xbd43e6b2	-0.04782743
88	0x3d339734	0.04384537
89	0x3d1f8c64	0.038952246
90	0xbea586d4	-0.32329428
91	0x3daa40e3	0.083131574
92	0xbce50260	-0.027955234
93	0x3d2fed2a	0.042950787
94	0x3d0b53fb	0.034015637
95	0x3dad4965	0.084612645
96	0xbefb0814	-0.490296
97	0xbe0c826d	-0.13721628
98	0xbe4b201f	-0.19836472
99	0x3e84622a	0.25856143
100	0x3d020ca7	0.031750347
101	0x3e90c559	0.28275564
102	0xbe0c0628	-0.13674223
103	0x3e21c3b0	0.15797305
104	0x3de5eedc	0.112271994
105	0xbe3f7db3	-0.18700294
106	0x3e55726c	0.2084443
107	0xbdb4c94c	-0.08827457
108	0xbe64355b	-0.22285978
109	0xbf043d28	-0.5165582
110	0xbe1fec2d	-0.15617438
111	0xbeb583ce	-0.35452121
112	0xbe241e99	-0.16027297
113	0xbeed3550	-0.46329737
114	0x3d2366a8	0.039892823
115	0xbe6f4a74	-0.23368245
116	0xbe1c5398	-0.15266263
117	0xbe81d585	-0.25358215
118	0xbf07c1ec	-0.53030276
119	0xbebb4e5c	-0.3658322
120	0x3d81bae3	0.06334474
121	0x3e90c6d3	0.2827669
122	0x3ce948a9	0.02847703
123	0xbe85da26	-0.26142997
124	0xbe1aabb7	-0.15104567
125	0x3e561e3e	0.20909974
126	0xbe6f0089	-0.23340048
127	0x3dbcd10a	0.092195585
128	0xbe3385ea	-0.17531553
129	0xbde18e42	-0.11013462
130	0xbe5db996	-0.21652827
131	0xbe32a911	-0.17447306
132	0x3d91853c	0.071054906
133	0xbeb54356	-0.35402936
134	0x3cca41a0	0.024689496
135	0x3e2c6a10	0.16837335
136	0x3da2c765	0.07948188
137	0xbe10a40a	-0.14125076
138	0xbe633b77	-0.22190653
139	0x3e4ae420	0.19813585
140	0xbe10d4e5	-0.14143713
141	0x3d35a0f8	0.044342965
142	0xbdddd0ee	-0.10830866
143	0x3c786ab2	0.015162157
144	0xbd237fc8	-0.039916784
145	0xbd705048	-0.058670312
146	0x3e346e68	0.17620242
147	0x3e0e158a	0.13875404
148	0x3dbeda55	0.09318987
149	0x3d32431b	0.043521028
150	0x3e19c77c	0.15017503
151	0x3d207a3a	0.039179064
152	0xbe2b349c	-0.16719288
153	0x3cf8c1eb	0.030365905
154	0xbf00a106	-0.502457
155	0xbf0435e6	-0.5164474
156	0xbea5606d	-0.3230013
157	0x3e07fec0	0.13280773
158	0xbe980226	-0.2968914
159	0xbde3b7c6	-0.111190364
160	0xbe230f4f	-0.15923809
161	0x3e4f0689	0.20217337
162	0xbe4ac215	-0.19800599
163	0x3e9fbcd7	0.3119876
164	0xbe5dba66	-0.21653137
165	0xbc8f9a95	-0.017529765
166	0xbd2b7326	-0.04185786
167	0xbdc55f6f	-0.09637343
168	0x3e14367b	0.14473908
169	0xbe13324e	-0.14374658
170	0xbdfb80c9	-0.12280423
171	0xbe8a11c9	-0.26966694
172	0xbd7e0ba2	-0.062022813
173	0xbd4c93e5	-0.04994573
174	0xbd08d02a	-0.033401646
175	0x3aff27e8	0.0019466849
176	0x3dc74698	0.097302616
177	0x3db5625a	0.0885665
178	0xbc40babb	-0.01176327
179	0x3eb1c135	0.34717718
180	0xbe0880b6	-0.1333035
181	0x3cb64a5c	0.022252254
182	0xbec1165d	-0.37712374
183	0xbe082e0e	-0.13298818
184	0xbc71222d	-0.014717621
185	0xbecd4cc2	-0.40097624
186	0x3e7aadb6	0.24480328
187	0xbec62ccc	-0.38706052
188	0x3dd4261c	0.10358831
189	0xbf10f0cf	-0.56617445
190	0x3e3b42ac	0.18287152
191	0xbdb5f8d2	-0.08885349
192	0xbe9576e9	-0.29192284
193	0x3e76c8b5	0.24100001
194	0xbe34e1c3	-0.17664246
195	0x3db9a358	0.090643585
196	0xbd6c90d7	-0.057755318
197	0xbe6e5346	-0.23273954
198	0x3eb7975d	0.3585767
199	0xbe0d73c0	-0.13813686
200	0x3e299894	0.1656211
201	0xbe239597	-0.15975033
202	0x3ec0a47a	0.37625486
203	0x3df7c701	0.12098504
204	0xbdad3994	-0.08458248
205	0x3d1a25a3	0.03763355
206	0x3d0eb173	0.034837198
207	0x3d8e31ec	0.069431156
208	0x3dfcfefb	0.12353321
209	0x3ccb24de	0.024797853
210	0x3e81fc81	0.25387958
211	0x3e7ad59e	0.24495551
212	0x3e3d8a43	0.18509774
213	0xbed08674	-0.4072758
214	0xbd798c9c	-0.06092511
215	0xbdf828f1	-0.12117184
216	0x3ea382e8	0.3193581
217	0xbe6f96ca	-0.23397365
218	0x3eab0dd3	0.33408985
219	0x3eab73be	0.33486742
220	0xbe96e9b7	-0.29475185
221	0xbe6b5545	-0.22981746
222	0xbddeed66	-0.10885124
223	0x3caa3686	0.020777952
224	0x3e17c395	0.14820702
225	0x3e498dd1	0.19683005
226	0xbdf7a7d9	-0.12092561
227	0x3eb1cd6d	0.3472704
228	0xbe8825a6	-0.26591223
229	0x3e30b81a	0.17257729
230	0xbed990f0	-0.4249339
231	0xbdd098f1	-0.10185421
232	0xbe085737	-0.1331452
233	0x3e1a4467	0.15065156
234	0x3dcefa63	0.10106351
235	0xbeadd1eb	-0.33949217
236	0xbdc21c5f	-0.094780676
237	0xbdc6a9b8	-0.0970034
238	0x3c374e1d	0.011188057
239	0x3c0fce72	0.008777248
240	0x3d3e0e32	0.046400256
241	0xbe85a024	-0.2609874
242	0x3ead8ece	0.33898014
243	0xbec09a13	-0.3761755
244	0x3d097ce3	0.033566367
245	0xbebff616	-0.37492436
246	0x3e4c4515	0.19948228
247	0x3b1a4427	0.0023539157
248	0xbe7f8610	-0.24953485
249	0x3e017c5a	0.12645093
250	0xbdbcc0e1	-0.09216476
251	0xbe397d4d	-0.18114205
252	0xbe3d922f	-0.18512796
253	0x3e0d1358	0.1377691
254	0xbe58430e	-0.2111933
255	0x3de36cbc	0.11104724

conv4.bias f4 [64]
0	0xbd9dec71	-0.07711113
1	0xbda463c7	-0.080268435
2	0xbbaefaf4	-0.0053399745
3	0xbdd1081f	-0.10206627
4	0x3da995b8	0.0828051
5	0x3e0c5bcb	0.13706891
6	0x3b8b3557	0.004248302
7	0xbd67d415	-0.05659874
8	0xbe0e1004	-0.13873297
9	0x3e5e4ba3	0.2170854
10	0xbdc6c19c	-0.09704897
11	0xbce1bc48	-0.0275556
12	0x3dfb0d90	0.12258446
13	0x3e96d2cd	0.29457703
14	0x3df273f2	0.11838521
15	0x3e2d9e54	0.16954929
16	0x3c227ec0	0.009917915
17	0xbe0e34a2	-0.13887265
18	0x3e26ec56	0.16301093
19	0x3d2ca0a6	0.042145394
20	0x3ebd844a	0.3701499
21	0x3db3db23	0.087820314
22	0xbea1dca9	-0.31613663
23	0xbd441156	-0.047868095
24	0xbdbb44be	-0.09143971
25	0x3e3ceab5	0.18448909
26	0xbd3ff494	-0.046864107
27	0x3ea22484	0.31668484
28	0x3db90a0d	0.0903512
29	0x3dfda412	0.123848096
30	0xbe19e1b5	-0.15027507
31	0x3db00e87	0.08596521
32	0x3e82a4b7	0.25516292
33	0x3e0f3f47	0.13988982
34	0xbde55c29	-0.11199219
35	0xbe0cc4c1	-0.1374693
36	0xbd915423	-0.07096126
37	0xbe66759e	-0.22505805
38	0xbe98aff1	-0.29821733
39	0xbe777521	-0.24165775
40	0x3d68d836	0.05684682
41	0xbe99f35e	-0.30068487
42	0x3c5b425b	0.01338252
43	0x3d9ac073	0.07556238
44	0x3dd38990	0.10328972
45	0xbd8fbba9	-0.07018215
46	0x3dd7755c	0.105204314
47	0xbe14e331	-0.14539792
48	0x3e239aa5	0.15976961
49	0xbe3a764b	-0.18209188
50	0xbdc2986a	-0.09501727
51	0x3a17a1e1	0.00057843147
52	0x3e2fcb79	0.17167462
53	0x3e89d0e7	0.26917192
54	0x3e8a7046	0.27038783
55	0xbdd42308	-0.10358244
56	0xbcd06e70	-0.025443286
57	0x3c845c49	0.016157286
58	0xbd8305be	-0.063975796
59	0xbdcab4dd	-0.09897778
60	0x3e093c80	0.13401985
61	0x3e3ad0d8	0.1824373
62	0xbdd85ce2	-0.10564591
63	0xbd935dc9	-0.071956225

conv5.weight f4 [128, 64, 2, 2]
0	0xbd1a03b8	-0.037601203
1	0xbe3c0732	-0.1836212
2	0xbe024e1d	-0.1272511
3	0xbe5da231	-0.21643902
4	0x3caac8ea	0.020847756
5	0xbd51d8e0	-0.05123222
6	0x3cd98828	0.026554182
7	0xbdad3083	-0.084565185
8	0x3e2d83e6	0.16944847
9	0x3c9f2dec	0.019431077
10	0x3e4291c8	0.19000924
11	0xbe5e7db7	-0.21727644
12	0xbe54d6cf	-0.20785068
13	0x3cd44009	0.02590944
14	0xbe62ecdf	-0.22160672
15	0xbe1298d0	-0.14316106
16	0xbede3348	-0.433985
17	0xbf0ba759	-0.5455223
18	0xbe14755b	-0.14497893
19	0xbe9a2317	-0.30104896
20	0xbeadb48f	-0.33926818
21	0x3d103847	0.03520992
22	0xbdff95fe	-0.124797806
23	0xbe2df50e	-0.16988012
24	0xbe203c26	-0.15647945
25	0x3cc71070	0.02429983
26	0x3d8e2a6d	0.06941686
27	0x3d2f114e	0.042741112
28	0xbe810252	-0.25197083
29	0xbe7774fb	-0.24165718
30	0xbe4f5af5	-0.20249541
31	0xbd13ea4e	-0.036112122
32	0xbd6fdd80	-0.05856085
33	0xbede212d	-0.43384686
34	0xbd1a520e	-0.03767591
35	0xbdbbc0b8	-0.091676176
36	0x3e18f4f5	0.14937194
37	0xbd17a963	-0.037026774
38	0x3e8b493f	0.2720432
39	0xbd5bfed9	-0.05370984
40	0xbe2cb0e2	-0.1686435
41	0xbea15ca4	-0.31515992
42	0x3d145e27	0.036222603
43	0x3e050c0f	0.12992881
44	0xbed2ede6	-0.41197127
45	0xbd8097a4	-0.06278923
46	0x3d0da392	0.03457982
47	0x3e96c40e	0.29446453
48	0xbe6151e8	-0.22003901
49	0xbf4b728b	-0.79471654
50	0xbd4b712a	-0.04966847
51	0xbe0eb8b9	-0.13937654
52	0xbe886e5e	-0.26646703
53	0xbc2d290a	-0.0105688665
54	0xbe53e46f	-0.20692609
55	0x3d724247	0.05914524
56	0xbcec8073	-0.028869843
57	0xbe358929	-0.17728104
58	0xbec7636a	-0.38943034
59	0x3e60141c	0.21882671
60	0xbe996c48	-0.29965425
61	0x3dd2d87d	0.10295198
62	0x3d9d3f2a	0.07678063
63	0xbca048d1	-0.019565972
64	0x3e86cb16	0.26326817
65	0x3e658130	0.22412562
66	0xbeeb9625	-0.4601299
67	0xbe9ef9e3	-0.31050023
68	0xbb498ee4	-0.0030755335
69	0x3c581816	0.013189336
70	0x3c6f108d	0.014591348
71	0x3d6b6fe6	0.05747976
72	0x3d31a5a8	0.043370873
73	0x3e87fc3d	0.2655963
74	0xbea04168	-0.312999
75	0xbe32fea1	-0.17479946
76	0x3ded4c80	0.11586857
77	0xbe205bc2	-0.15660003
78	0x3d3ca0e7	0.046051886
79	0x3e4e6ddd	0.20159097
80	0x3dec8ec5	0.115506686
81	0xbb419bc6	-0.002954231
82	0x3df45d0c	0.1193181
83	0x3d253732	0.04033584
84	0xbd1230db	-0.035691123
85	0xbdcc1c08	-0.09966284
86	0xbcabb12d	-0.020958507
87	0x3dfc3da3	0.12316444
88	0xbeab80c5	-0.3349668
89	0x3d36072b	0.04444043
90	0xbc13af39	-0.009013944
91	0x3ea91c8d	0.33029595
92	0xbec918db	-0.39276776
93	0xbe900692	-0.28130013
94	0x3da8caf6	0.08241837
95	0xbc078271	-0.008270846
96	0xbd957e59	-0.072994895
97	0xbd030121	-0.0319835
98	0xbd9b9f6d	-0.075987674
99	0xbda9e74f	-0.08296072
100	0xbe1f1f13	-0.15539198
101	0xbe5a3e3a	-0.213128
102	0x3eac651f	0.336709
103	0x3e20c9ba	0.15701953
104	0xbbfec049	-0.007774387
105	0xbd7eba95	-0.062189657
106	0x3e65e56b	0.22450797
107	0xbf03a2ee	-0.51420486
108	0x3ef56c47	0.47934172
109	0xbd2b9e1e	-0.04189884
110	0x3e83cd42	0.25742537
111	0x3e27e35d	0.16395326
112	0x3e1f72dd	0.1557116
113	0x3cca5a97	0.0247014
114	0x3f26b684	0.65122247
115	0xbd570f70	-0.052504957
116	0x3e484017	0.19555698
117	0x3e87114a	0.26380378
118	0x3ebc9280	0.3683052
119	0x3e9fa9c1	0.311842
120	0xbd342c6b	-0.043987673
121	0x3d0fc9bc	0.0351045
122	0xbd04fbc2	-0.032466657
123	0xbe46399d	-0.19357915
124	0x3e61aaf1	0.22037865
125	0xbe3c2dda	-0.18376866
126	0x3e5e21ea	0.21692625
127	0xbeb7de1e	-0.3591165
128	0xbddb6746	-0.10713057
129	0xbd7f7041	-0.062362913
130	0xbdaa9f39	-0.083311506
131	0xbda5b18d	-0.08090506
132	0xbe885e35	-0.26634374
133	0xbbe9da0b	-0.0071365885
134	0xbd8754b0	-0.0660795
135	0xbd15a5c0	-0.036535025
136	0x3ed3d604	0.41374218
137	0x3f17e6cd	0.5933655
138	0x3e4cadd2	0.19988182
139	0x3eee9815	0.46600404
140	0xbe408876	-0.18802056
141	0x3e8ca10f	0.27466628
142	0xbea06556	-0.31327313
143	0xbc81fbba	-0.015867103
144	0x3d2570d6	0.04039081
145	0x3d8a9117	0.06765955
146	0x3cdc3f05	0.026885519
147	0xbe8d9c81	-0.27658466
148	0xbeb6e607	-0.35722372
149	0xbe8f5d95	-0.28001085
150	0xbe2508e3	-0.16116671
151	0x3e98908b	0.29797778
152	0xbcec52d4	-0.02884809
153	0x3ec4319a	0.38319093
154	0xbde254d1	-0.11051334
155	0xbe7551c3	-0.23956971
156	0xbe4005b7	-0.1875218
157	0xbe32b61c	-0.17452282
158	0xbefbde6d	-0.49193135
159	0xbe82af7a	-0.25524503
160	0xbdb18ec6	-0.0866981
161	0xbe940607	-0.28910848
162	0x3e7a4e25	0.24443872
163	0xbd5e6cf1	-0.054303113
164	0xbebcc7ae	-0.36871094
165	0xbe79be52	-0.24389008
166	0xbe552a12	-0.2081683
167	0xbe97dc54	-0.29660285
168	0xbd3f6e0d	-0.046735812
169	0x3db90bad	0.0903543
170	0xbe45507f	-0.19268988
171	0xbecff71b	-0.40618214
172	0x3da53ebd	0.08068607
173	0x3e106cef	0.14104055
174	0x3df695b5	0.12040273
175	0x3ec2e200	0.3806305
176	0xbd8dc816	-0.06922929
177	0xbe6a84b5	-0.22902186
178	0xba4cf6ad	-0.000781874
179	0xbe608f27	-0.21929608
180	0x3d2f7066	0.0428318
181	0x3e00a2c5	0.12562092
182	0xbe64631a	-0.22303429
183	0xbdc8ff50	-0.09814322
184	0xbee0b062	-0.4388457
185	0xbcb937e8	-0.022609666
186	0xbee8d3eb	-0.4547418
187	0xbea51b7e	-0.32247537
188	0x3e2f32c8	0.17109215
189	0xbdbfa598	-0.093577564
190	0xbe9387f7	-0.2881467
191	0xbeb4c717	-0.35308143
192	0xbe0779dd	-0.13230081
193	0xbccc4ab6	-0.024937969
194	0xbe1a2089	-0.15051474
195	0xbd4da306	-0.0502043
196	0x3e1d7974	0.15378362
197	0xbf3bf928	-0.7342706
198	0xbe9194e4	-0.28433907
199	0xbf1e6442	-0.6187173
200	0xbe4cc64b	-0.19997518
201	0x3d9dbadc	0.07701656
202	0xbd9d5758	-0.07682675
203	0xbe8470ef	-0.25867411
204	0x3e369ec5	0.17834003
205	0x3d99fc1b	0.075187884
206	0x3e5be3c3	0.21473603
207	0xbe8a198e	-0.26972622
208	0x3d8c9bb0	0.068656325
209	0xbe7353c8	-0.23762429
210	0xbe561a4f	-0.20908473
211	0xbe935d55	-0.28782144
212	0x3e90a0fb	0.28247818
213	0x3ed9ace6	0.42514724
214	0x3d524f6d	0.051345278
215	0xbe5a346c	-0.2130906
216	0x3e57c4d9	0.21071185
217	0xbe8e44b8	-0.27786803
218	0xbe2e1185	-0.1699887
219	0xbeacc07e	-0.3374061
220	0xbea7ee81	-0.32799152
221	0xbee80f81	-0.4532433
222	0x3e3e7d25	0.18602426
223	0xbe6f397e	-0.23361775
224	0x3d84bc17	0.06481188
225	0xbe04ac65	-0.12956388
226	0x3e1340b3	0.1438015
227	0x3d6d579b	0.057944875
228	0x3d858e49	0.06521279
229	0x3e10f10a	0.14154449
230	0xbece0c50	-0.4024377
231	0xbe2dd308	-0.16975033
232	0x3ccaad83	0.02474094
233	0x3e993b4a	0.29928046
234	0xbe68909c	-0.22711414
235	0x3e9ab279	0.3021429
236	0xbe6af9c5	-0.22946842
237	0xbdfff924	-0.12498692
238	0xbdc37ae6	-0.095449254
239	0x3d96de8f	0.073666684
240	0xbdb926e8	-0.09040624
241	0x3dcebc75	0.10094539
242	0x3dd95eb5	0.10613767
243	0x3f6a267b	0.91464967
244	0xbeafa227	-0.343034
245	0xbe4c17c8	-0.19930947
246	0xbd6c4dc3	-0.057691347
247	0xbed53c40	-0.4164753
248	0x3e0bd0ca	0.13653865
249	0x3dc7f71e	0.09763931
250	0xbcd02268	-0.025407031
251	0xbe14c8f9	-0.1452979
252	0xbd64db39	-0.05587313
253	0xbc67617b	-0.014122362
254	0x3a70fa8a	0.00091926067
255	0x3c71fd0e	0.014769806

conv5.bias f4 [128]
0	0x3e686e87	0.22698413
1	0x3d059dca	0.032621183
2	0x3e5fe43e	0.21864411
3	0x3e3d3669	0.18477787
4	0xbdc36f25	-0.095426835
5	0x3ded7fec	0.11596665
6	0x3e4e4872	0.20144823
7	0x3db1f037	0.086883955
8	0x3e4c4edf	0.19951962
9	0xbe9e253a	-0.30887777
10	0x3e08c4ed	0.13356371
11	0x3d362686	0.044470333
12	0xbe835769	-0.25652626
13	0xbe4960ab	-0.19665782
14	0xbdf2eccc	-0.11861572
15	0x3d7091c7	0.058732774
16	0xbe85e831	-0.2615371
17	0x3e20e6e5	0.1571308
18	0x3df21c1d	0.118217684
19	0xbddd087b	-0.10792633
20	0x3df9ce86	0.12197594
21	0x3ccbd055	0.024879614
22	0xbca6ed91	-0.020376952
23	0x3cc2ed73	0.023794865
24	0x3eccd278	0.40004325
25	0x3e2f5948	0.17123902
26	0x3df69652	0.1204039
27	0xbee83012	-0.45349175
28	0xbdf44037	-0.119263105
29	0xbe261882	-0.16220286
30	0xbc6bb40e	-0.01438619
31	0xbc446e81	-0.011989237
32	0x3bef9622	0.0073115984
33	0xbe6d33f4	-0.2316435
34	0x3e216178	0.15759838
35	0x3e4c4798	0.19949186
36	0x3d325b07	0.04354384
37	0x3dcc74d2	0.09983219
38	0xbcf66eda	-0.030082155
39	0xbcc2bb57	-0.023770971
40	0x3d72bf67	0.059264567
41	0x3d4768ae	0.048683815
42	0x3db5bd45	0.08873991
43	0x3da13dad	0.07873092
44	0x3c52ab43	0.012858215
45	0x3e2c663b	0.16835873
46	0xbd386778	-0.04502055
47	0x3e60ea7e	0.21964452
48	0x3e02c4db	0.12770407
49	0x3e038c0e	0.12846395
50	0xbe0a1b19	-0.134869
51	0xbe882f09	-0.26598385
52	0xbecd3314	-0.40078032
53	0xbe85971c	-0.2609185
54	0x3d8c43a5	0.0684884
55	0x3e4372e8	0.19086802
56	0x3d2e74d1	0.042591874
57	0x3e3a1e3c	0.18175596
58	0xbe27e9c9	-0.16397776
59	0x3d4899f1	0.048974935
60	0xbd497cd6	-0.04919132
61	0x3e66683f	0.22500704
62	0x3e375664	0.17904049
63	0x3e4c102c	0.19928044
64	0xbe1e244a	-0.1544353
65	0x3e817eba	0.25291997
66	0xbdc6243e	-0.096748814
67	0x3e6bec12	0.23039272
68	0xbd80e393	-0.06293406
69	0x3c82c6a0	0.015963852
70	0xbc244644	-0.010026518
71	0xbcb4d215	-0.022072831
72	0x3d8ac82e	0.067764625
73	0xbe2c0339	-0.16798104
74	0xbdd0e732	-0.10200347
75	0xbe572f2c	-0.21014088
76	0x3c7d9a74	0.015478719
77	0xbe8e23c4	-0.27761662
78	0xbe420769	-0.18948139
79	0x3d0b9ec5	0.03408696
80	0x3e057cfe	0.13035962
81	0xbd3d11d7	-0.04615959
82	0x3c1e4a86	0.009661322
83	0xbda3ba34	-0.079945
84	0xbad8aaed	-0.0016530432
85	0xbc087d02	-0.008330585
86	0xbdae7c49	-0.08519799
87	0x3dd0bd7a	0.1019239
88	0xbeb0d9d3	-0.34541187
89	0x3e8f50dc	0.27991378
90	0x3e0abbb8	0.13548172
91	0xbc341a8d	-0.010992658
92	0xbe0b41f4	-0.13599378
93	0xbd818ce5	-0.063257016
94	0xbe02e10e	-0.12781164
95	0x3cb6fb88	0.022336736
96	0x3e861921	0.26191047
97	0x3d80bd39	0.06286091
98	0xbe0e0f6f	-0.13873075
99	0x3e9c2b3b	0.30501732
100	0xbe06f245	-0.13178356
101	0xbe0c109f	-0.13678215
102	0x3e0b18b5	0.13583644
103	0xbd07318f	-0.033006247
104	0xbe0294f2	-0.1275213
105	0xbd9f85fa	-0.07789226
106	0x3e451c4d	0.19249077
107	0xbe2dfa7c	-0.16990083
108	0x3e13fea6	0.1445261
109	0x3e2fc317	0.17164265
110	0x3e84d265	0.25941768
111	0xbdc306df	-0.09522795
112	0x3e5f156c	0.21785516
113	0x3d1c33c3	0.0381353
114	0x3d833bf5	0.0640792
115	0xbcc24367	-0.02371378
116	0xbe3b791d	-0.1830792
117	0x3d68a720	0.056800008
118	0xbee70812	-0.45123345
119	0x3e38380c	0.1799013
120	0x3e70d25c	0.23517746
121	0x3ccaa3fa	0.024736393
122	0x3c904cbb	0.017614713
123	0x3ca27e74	0.019835688
124	0x3dfa3f06	0.12219052
125	0xbda41bac	-0.080130905
126	0xbe2f7e74	-0.17138082
127	0xbe37dfd6	-0.1795648

conv6.weight f4 [64, 128, 2, 2]
0	0xbd07a0fa	-0.033112504
1	0xbca1761b	-0.019709637
2	0xbf197f3f	-0.5995979
3	0xbef33b96	-0.47506398
4	0xbe5bd392	-0.21467426
5	0xbe96eb82	-0.29476553
6	0xbeb3e067	-0.35132143
7	0xbe990a7e	-0.29890817
8	0xbe03be92	-0.12865666
9	0xbed087c9	-0.40728596
10	0xbe77b978	-0.24191844
11	0x3e49a366	0.19691238
12	0x3e52ad25	0.20573862
13	0xbd07e094	-0.03317316
14	0xbc8c86b4	-0.017154075
15	0xbdcac5f3	-0.09901037
16	0xbde56a69	-0.11201937
17	0x3d96b35a	0.07358427
18	0x3e0ae144	0.13562495
19	0x3e766453	0.24061708
20	0x3d9bc855	0.0760657
21	0x3e17bcef	0.14818166
22	0x3ec08614	0.37602293
23	0x3e9e4290	0.30910158
24	0xbd40d942	-0.047082193
25	0x3e262023	0.16223197
26	0x3d774dbc	0.060376868
27	0xbed273d7	-0.41104004
28	0x3e65f4a8	0.2245661
29	0xbce04cef	-0.027380435
30	0xbe2a7c90	-0.1664908
31	0x3d95c125	0.0731223
32	0xbe523093	-0.20526342
33	0xbe0ba6ea	-0.13637891
34	0xbd994da8	-0.07485515
35	0xbd92ebe7	-0.07173901
36	0xbeb4e90c	-0.3533405
37	0xbe729295	-0.23688729
38	0x3b0df98e	0.0021663639
39	0xbe26231f	-0.16224335
40	0x3d87e5f9	0.06635661
41	0xbca2d436	-0.01987658
42	0x3e144609	0.14479841
43	0x3d728064	0.059204474
44	0x39adfdc9	0.00033186216
45	0xbe311971	-0.17294861
46	0xbe928037	-0.28613445
47	0xbeba6cd7	-0.36411163
48	0xbe684104	-0.22681051
49	0xbeeb37cc	-0.45941007
50	0x3e2869ef	0.1644666
51	0xbc5e75c6	-0.013577884
52	0xbe8a6279	-0.27028254
53	0x3d92feef	0.07177531
54	0x3d8f0e30	0.06985128
55	0xbe2731cf	-0.16327594
56	0xbe80d06c	-0.25159013
57	0xbeb7b158	-0.3587749
58	0x3e3cb02e	0.18426582
59	0xbdbf3c2b	-0.09337648
60	0xbc062553	-0.00818761
61	0x3daedae3	0.08537843
62	0xbca75403	-0.020425802
63	0xbdbea78f	-0.09309303
64	0xbcac64e1	-0.021044197
65	0x3d86027a	0.06543441
66	0x3c1295df	0.008946865
67	0x3ddb5a5e	0.107105955
68	0x3d4ca965	0.049966235
69	0x3d475d33	0.048672866
70	0x3ee75381	0.45180896
71	0x3ee0806c	0.43847978
72	0x3cc5cfdb	0.024146965
73	0x3d94b7ab	0.072615944
74	0x3e441b1d	0.19150968
75	0x3e60dc91	0.2195914
76	0xbca7fe57	-0.02050702
77	0x3c91a5c7	0.017779244
78	0xbccde9d3	-0.02513591
79	0x3cd0b8ba	0.02547871
80	0x3df2dde4	0.118587285
81	0x3d1b4c66	0.037914656
82	0x3d57e7e9	0.0527114
83	0xbeb28c19	-0.3487251
84	0xbdd7830c	-0.10523042
85	0x3e4dc85c	0.20095962
86	0x3e61bc6a	0.2204453
87	0x3e83220c	0.25611913
88	0x3dd28c7d	0.10280702
89	0xbed2f963	-0.41205892
90	0xbe5aae82	-0.21355632
91	0xbf1fcd1d	-0.62422353
92	0xbe7b4b90	-0.24540544
93	0xbe49ff22	-0.19726232
94	0xbf270799	-0.6524597
95	0xbf4b54b8	-0.79426146
96	0xbd563152	-0.05229313
97	0xbedf73a9	-0.4364293
98	0xbf21fddb	-0.6327798
99	0xbec71544	-0.38883412
100	0xb9f2262c	-0.00046186277
101	0xbee040a5	-0.4379932
102	0xbeab5522	-0.3346339
103	0xbf5b83f5	-0.85748225
104	0xbe5b3ae7	-0.21409188
105	0xbeaef2f2	-0.34169728
106	0x3d9bbf0e	0.076048
107	0xbdc4f7a1	-0.09617544
108	0x3cff0823	0.03113181
109	0xbe02ffce	-0.12792894
110	0x3d640e95	0.05567797
111	0x3e72b210	0.23700738
112	0xbe034b5b	-0.12821715
113	0xbd688dc9	-0.05677584
114	0x3d84680a	0.064651564
115	0xbd7bdb79	-0.061488602
116	0xbcc02346	-0.02345432
117	0xbcbbc798	-0.022922322
118	0xbd8133fe	-0.06308745
119	0xbcf2d0d1	-0.029640587
120	0xbdf3e937	-0.119097166
121	0x3e817f6f	0.25292537
122	0x3d37cfcd	0.04487591
123	0xbe81b039	-0.2532976
124	0xbe2f3d88	-0.17113316
125	0xbd1e58e6	-0.038659
126	0xbc04bd12	-0.0081017185
127	0xbcbb36d5	-0.022853294
128	0x3e790ac3	0.24320512
129	0x3e04a486	0.12953386
130	0xbdca8e1f	-0.09890389
131	0x3e6ba85c	0.23013443
132	0x3cc9cd1b	0.024633935
133	0xbd4c3fcf	-0.04986554
134	0xbda06d19	-0.07833309
135	0xbd8a6b99	-0.06758804
136	0x3e8f9aec	0.28047884
137	0x3d0c7777	0.034293618
138	0xbe605b49	-0.21909823
139	0xbc46232e	-0.012093348
140	0xbdf3bf34	-0.119017035
141	0xbe06d33f	-0.13166521
142	0x3d0bfdd5	0.03417762
143	0x3d3530cd	0.044235993
144	0x3e859694	0.26091444
145	0x3ea5bc36	0.32370156
146	0x3d888ebb	0.06667849
147	0x3ec7838e	0.38967556
148	0x3de76617	0.11298769
149	0x3ea20e71	0.31651643
150	0x3e4eb789	0.201872
151	0x3dbd0c40	0.09230852
152	0x3d2dd5ce	0.04244023
153	0xbeab2e80	-0.33433914
154	0x3dc8555e	0.097819075
155	0xbf03a1a6	-0.5141853
156	0xbe36b203	-0.17841344
157	0xbe1eb4f7	-0.1549872
158	0xbcf3715b	-0.029717138
159	0x3e884387	0.2661402
160	0x3e04e56b	0.12978141
161	0xbec5fca3	-0.3866931
162	0x3d469c64	0.04848899
163	0x3c43b9ab	0.011946122
164	0x3e0a796c	0.13522881
165	0xbdc9c51a	-0.09852047
166	0x3d488853	0.048958134
167	0x3db7e2c5	0.089788
168	0x3e3d47f1	0.18484475
169	0xbe495245	-0.1966029
170	0xbe57efa7	-0.21087514
171	0xbf02fadd	-0.51164037
172	0xbe9896b6	-0.29802483
173	0x3d853bdf	0.0650556
174	0x3ea914b2	0.33023602
175	0x3e48ee95	0.19622262
176	0x3e152aaa	0.14567056
177	0x3d0b651f	0.034031983
178	0x3e788db1	0.24272801
179	0x3e679a59	0.22617473
180	0xbead96cb	-0.33904108
181	0xbebb79e3	-0.3661643
182	0xbe8a4774	-0.2700764
183	0x3e44a472	0.19203356
184	0x3e5d6654	0.21621066
185	0xbd8bc407	-0.068244986
186	0x3e938ce0	0.28818417
187	0x3e140b20	0.14457369
188	0xbe47f01c	-0.19525188
189	0xbc24082b	-0.010011713
190	0xbe269cab	-0.16270702
191	0xbe09e816	-0.1346744
192	0xbe2a0ed4	-0.16607219
193	0xbf1a8d14	-0.6037152
194	0xbdc38e07	-0.09548574
195	0xbe905a2d	-0.281938
196	0xbe2d5250	-0.16925931
197	0x3e56e843	0.20987038
198	0x3e9693a0	0.29409504
199	0xbeaf2789	-0.3420985
200	0xbe74e95a	-0.23917142
201	0xbdc209dd	-0.094745375
202	0x3d5f41a6	0.054505967
203	0xbe19c426	-0.15016231
204	0x3e81768d	0.2528576
205	0xbc9bc8c5	-0.019016633
206	0x3e00e6f5	0.12588103
207	0x3e827573	0.25480232
208	0x3ea78876	0.327213
209	0x3d590e23	0.052991997
210	0x3defc3f5	0.11707298
211	0xbdb91811	-0.090377934
212	0x3e779665	0.24178465
213	0x3e7c4a41	0.246377
214	0x3d42b406	0.047534965
215	0x3db407df	0.08790564
216	0xbd116033	-0.035492133
217	0x3e495432	0.19661024
218	0x3ec63bcf	0.38717505
219	0x3e301174	0.17194158
220	0xbe2da5fc	-0.1695785
221	0xbe71990f	-0.23593543
222	0xbd8c358c	-0.06846151
223	0xbdad5b0e	-0.08464633
224	0xbd6ef50d	-0.058339167
225	0xbd779b9c	-0.060451135
226	0x3eab129c	0.33412635
227	0x3dc65af3	0.09685316
228	0x3c9ece76	0.019385558
229	0x3ccc1048	0.024910107
230	0x3e8a4fa8	0.27013898
231	0x3cabdbb2	0.020978782
232	0x3b2f4a9b	0.002674735
233	0xbc8c7d09	-0.017149465
234	0xbcac2483	-0.021013504
235	0x3d03ab89	0.03214601
236	0x3e2ab29e	0.166697
237	0x3e278913	0.16360883
238	0xbe6b3630	-0.2296989
239	0xbe6a6c2b	-0.22892825
240	0x3dba6288	0.091008246
241	0x3c0fbd7d	0.008773205
242	0xbe40a7a9	-0.18813957
243	0x3e817d7f	0.25291058
244	0x3e9e63c6	0.30935496
245	0x3e248cf5	0.16069396
246	0xbdf53a0d	-0.11973963
247	0x3d045967	0.032311823
248	0xbb945875	-0.0045271465
249	0x3e1c9960	0.15292883
250	0xbe258933	-0.16165619
251	0x3de6b9ac	0.11265883
252	0x3e6c0ec5	0.23052509
253	0x3dcf515b	0.10122939
254	0xbe7147e6	-0.23562583
255	0xbdd37595	-0.10325161
