model/model_21.pth (torch_old, 571877 bytes, 24 tensors)

conv1.weight f4 [32, 3, 2, 2]
00000000: 5114 e0bd b89d e6bd 7a69 1cbe c059 c83e
00000010: 180f 18bf 382d 1b3e 8b7a 0cbe 42e8 dc3e
00000020: 4cda 97be cb0e 99bd a002 623b e6ba 8c3e
00000030: 41ca 4e3e 94cc 04be 8feb f93d 2d92 743c
00000040: bf15 8f3d 5a72 82bd a291 a63e c45f 233d
00000050: 96f1 0bbe 3a54 7bbe d035 28bd 3ff1 72be
00000060: 6c42 f5bd e519 313d 3671 003e 4049 6b3e
00000070: 936d abbe fb84 4e3e 93dc 31bd cdc5 9e3e
00000080: 5488 0b3e 8ef0 4bbe a3aa ebbe 1e6f f0bd
00000090: 180f c63e 8943 46bd e080 8a3d a86a 8dbe
000000a0: 488d c63e 295c 6cbe 4e48 2a3e 09c6 46be
000000b0: d744 72bd 3d2a 8b3c 7f94 5bbe 2567 16be
000000c0: 0dd9 20be a12b d6bd 878a bebe 11cf 61be
000000d0: fe1e 493e 333e abbd d6c9 9a3e fea9 623e
000000e0: 5376 3dbd 4d51 91be 9a4b 1d3e fb3c be3c
000000f0: 3a61 43be 1af7 ee3d 5ba9 763e 1c09 833e
00000100: 8bc8 47be 6c13 08be b7d3 a7bb e45d bfbc
00000110: fe6d a8be 1675 b7be 9e38 f73d 255d 2fbe
00000120: 1935 0d3d d661 9bbd fa5b 63bd fbe4 31bd
00000130: 5c73 2a3e f341 223e 0d7d 4dbe e6ac 4b3e
00000140: 5363 22be 7c12 57be 6ba8 96bb 8455 d4bd
00000150: 0249 723e 53c5 513d 7f60 12bf 02a8 743d
00000160: d36c 023e 20e2 f93e bb57 f1bd 3887 7abe
00000170: 22d9 783e 0164 a23e dda4 b3be d9fe 52be
00000180: 9e3d 2e3d 4cea 93be 6e3c 393e 85c7 c7bd
00000190: fbca 093e 6a58 eabe 8705 d53e 950f 123d
000001a0: 1f82 6cbe cbd3 cdbe e7e8 0d3f d70e d63d
000001b0: aa52 143e 2669 07bd 588f 153d 0f51 213e
000001c0: f606 603e aa9f 8dbe 0cca 543c e8d3 653e
000001d0: 37be 183e 31f0 0e3e f0a2 49be 7c85 17be
000001e0: 27c3 efbd 7ad8 253d ae0e 913e 7182 88be
000001f0: f24b 2e3e a127 3fbe 900f adbe ab34 00be
00000200: 780d 573e 10c1 883e ac08 67be c143 023d
00000210: 326c be3e 546d 643e 24e2 003e 72f9 c53d
00000220: 8fe7 103e 348e 86bc e0e1 f3be 8f70 05bf
00000230: c61f 03bc 1786 5f3d eebb 8dbe 40ba 3b3d
00000240: c4bb 543c 871c 113c 7a7e 00be 5166 673d
00000250: dde3 243e 8166 a93e e8d6 3fbe c5ae c43e
00000260: efee 0abe 0913 cb3c fbdc d8be 97ed 3abe
00000270: 282c babe ba55 19be e5af 363e 26ee b43c
00000280: 7c78 86be fc72 5d3e cf77 ba3d 03c6 b33e
00000290: 44ac a0be 841b 643d 5847 77be 8b3e ecbc
000002a0: ce61 08bf 2ac7 9dbe 2da3 7dbe 80d0 093e
000002b0: 5bc3 50bd 00d9 a73d 8af8 a33e 6b37 f13e
000002c0: dd47 893d 320e 82bd 5548 59be 8fe2 b03e
000002d0: 17f4 053e 9a91 ce3d 52d9 5dbe 4279 1abe
000002e0: 29f9 1f3c 0faa ae3e 76a6 2dbe e6e7 83be
000002f0: 1129 f03d f662 18be a7d7 1f3e 81f5 51be
00000300: 7bff b13c abe7 c2bd dbe7 ae3e 7b89 bdbe
00000310: a774 663e 740b 41bd 7441 c03e 9469 f0be
00000320: d231 453e c988 b7be 616c a43e 6167 a7be
00000330: b515 bcbc 7646 163e 53ec 63be cd23 5d3e
00000340: 0086 5ebe 3c3a 803e 53b5 4fbe 70ce 973e
00000350: 33f9 1abf 4563 393e ee3f 83bd ea5c 933e
00000360: 6b90 f03d 660a 3ebe 0faf 35be 8a99 963e
00000370: 801d ccbe 3436 a33e 071c debe 441d 4abe
00000380: 692b 7e3e 074e 4d3c 7667 523b d200 cf3e
00000390: b262 423e 2178 e43e 95d0 85be c88a 89be
000003a0: 5c1c a53e e3c2 5e3e 1d6d 8fbe ee39 a13d
000003b0: 3efc 9fbe 2810 a93e d2b3 3cbe 9f1d c3be
000003c0: 522c 86be c9ce 52bd 1242 2f3e 19ec 5d3d
000003d0: 910b b5be 7f67 1bbe 54da d7be 9914 96be
000003e0: 14dc 2dbe 01d3 943e 4d26 bb3e 7b68 573d
000003f0: f509 92bc a693 493e 4a02 f1bd 9217 5dbe
-0.10941375 -0.11260551 -0.15274611 0.39130974 -0.5939803 0.15153968 -0.13718621 0.4314595
-0.29658735 -0.07473525 0.0034486428 0.27486342 0.20194341 -0.12968665 0.12203132 0.014927429
0.069865696 -0.06369467 0.32532984 0.03988625 -0.13666376 -0.24543849 -0.041066945 -0.2372484
-0.119755596 0.043237586 0.12543187 0.22977161 -0.33482036 0.20167916 -0.043423247 0.31010285
0.13626224 -0.19915983 -0.46028623 -0.11739944 0.3868339 -0.04840425 0.06762862 -0.27620435
0.38779664 -0.23082031 0.16629145 -0.19411482 -0.059147682 0.016987914 -0.21443366 -0.14687784
-0.15707798 -0.1045754 -0.37215063 -0.22051646 0.19640729 -0.08361473 0.30232114 0.2213516
-0.04625542 -0.2838234 0.15360871 0.023222437 -0.19080058 0.11668225 0.24088041 0.25592887
-0.19510095 -0.13288659 -0.005121674 -0.0233602 -0.32896417 -0.35831517 0.12071346 -0.17125376
0.034474466 -0.0758702 -0.055507638 -0.043431263 0.16645569 0.1584547 -0.20067234 0.19890174
-0.15858202 -0.21003145 -0.0045977137 -0.10367873 0.23660663 0.051213574 -0.5717849 0.059730537
0.12736826 0.48805332 -0.117843114 -0.24465644 0.2430158 0.31716922 -0.35086718 -0.20605029
0.04253923 -0.28889692 0.18089458 -0.09754852 0.13456337 -0.4577058 0.4160578 0.03565939
-0.23096512 -0.40200648 0.55433506 0.10452049 0.14484659 -0.03305926 0.036513656 0.15753578
0.21877655 -0.27660877 0.012987625 0.22444117 0.14916311 0.13958813 -0.19691062 -0.14797014
-0.11707144 0.04048965 0.28331512 -0.2666202 0.17021158 -0.18667461 -0.33800936 -0.12520091
0.21001232 0.26709795 -0.22561902 0.031802896 0.3719192 0.2230733 0.12586266 0.096667185
0.14150833 -0.01642523 -0.47633266 -0.52124876 -0.008003181 0.054571237 -0.2768244 0.04583192
0.01298422 0.008856899 -0.12548247 0.05649406 0.16102548 0.33086017 -0.18734324 0.3841459
-0.13567708 0.02478935 -0.42356095 -0.18254696 -0.36361814 -0.14974108 0.17840536 0.022086214
-0.26263797 0.21625894 0.09104883 0.35112008 -0.31381428 0.055690303 -0.24148309 -0.028838417
-0.5327424 -0.30816013 -0.24769278 0.13458443 -0.050967555 0.08195686 0.32025558 0.47112593
0.0670316 -0.06350364 -0.21218999 0.3454785 0.13081394 0.10086365 -0.21664932 -0.15085319
0.009763994 0.3411412 -0.16958031 -0.25762862 0.11726583 -0.148815 0.15609609 -0.20503809
0.021728268 -0.095168434 0.34161267 -0.37018952 0.22505437 -0.047130063 0.37549937 -0.4695555
0.19257286 -0.35846546 0.32113937 -0.3269606 -0.02295957 0.14675316 -0.2225812 0.21595688
-0.21730804 0.2504443 -0.20284013 0.29649687 -0.605365 0.18104275 -0.06408678 0.28781825
0.117462955 -0.18558654 -0.17742561 0.29414016 -0.39866257 0.3187729 -0.43380758 -0.19737726
0.24821247 0.01253081 0.0032105125 0.40430313 0.18982962 0.446229 -0.26135698 -0.26863694
0.322482 0.21754031 -0.28012934 0.07872377 -0.31247133 0.3302014 -0.18427971 -0.38108537
-0.2620569 -0.051466737 0.17115048 0.05418024 -0.35360387 -0.151762 -0.4215876 -0.2931259
-0.16978484 0.29067233 0.3655266 0.052589875 -0.017827014 0.1968523 -0.11768015 -0.21591023

conv1.bias f4 [32]
00000000: 0a26 c2be c6c3 bebd 134a fcbe 1023 2dbe
00000010: b29d c6be 2937 01bf fd2c 0fbf d29d 053e
00000020: 1625 ae3d 1423 b4be e6a2 cfbe 0a94 c0bc
00000030: 650b bfbd 6472 49be d7f7 9d3d c0e3 cabe
00000040: 2e54 aabd b7d1 f53d 3a98 27be 334f 07bf
00000050: 8b43 02bf a822 41bf c304 0a3e 644f 1cbf
00000060: b329 523d 1a18 d4bd cd33 bdbe dd15 ebbe
00000070: 8e79 ea3d f8cf efbe 02aa cbbe fd52 903d
-0.37919647 -0.093146846 -0.49275264 -0.16907907 -0.38792187 -0.5047479 -0.5592802 0.13048485
0.08503167 -0.35183012 -0.4055397 -0.02350809 -0.09328345 -0.19672543 0.07713287 -0.39626884
-0.08316837 0.120028906 -0.16366664 -0.52855223 -0.5088431 -0.75443506 0.13478379 -0.6105864
0.0513093 -0.103561595 -0.36953583 -0.45915118 0.11448966 -0.46838355 -0.39778143 0.07047079

conv2.weight f4 [32, 32, 2, 2]
00000000: 1438 4abe f28d f63d da6a c3bd 7a61 b3bd
00000010: 8d11 a73c 494e 333d 3b49 8fbd 5e30 4c3c
00000020: b431 a4bc edc6 033d 21e5 53be 4e8b 36be
00000030: 97b5 c7bd 3912 a2bd 91f9 08bd 6a9f c8bd
00000040: f09e c0bd e24b da3c 672a e1bd 94ad 48be
00000050: ce21 36bd 6dd2 063d 9907 03bd cd60 9c3d
00000060: 5e4c 153d d814 143e a082 ffbd 0feb f33c
00000070: f28d 9bbe 7fd2 a3be ab1f 5abd d5ac e3be
00000080: 9a53 e13d e00f e23d 70f7 103e 262c 893e
00000090: 1199 e03d 9391 acbd 3957 fc3d 9813 d33d
000000a0: bd7f e6bd bc20 943d aac5 883d 527d c1bc
000000b0: bf2b f0bc 6144 86be 6d45 313e 3154 25be
000000c0: b0a4 053e f3e0 0dbd 09ad 963d ac7a 39be
000000d0: d30e 7c3d 3c3d 9b3d f75d ce3b 3143 e6bd
000000e0: 3e60 e13d e494 d63b e6ce 1c3e 3bfb f23d
000000f0: f286 a5b9 8db9 a33e cb8b a1bd af4d a3bd
00000100: def6 1b3e e2b9 c6bc 33c0 48be 314d 1abc
00000110: 4d6a 2d3d be90 80be 9f39 5a3d b2a7 333b
00000120: 2d80 8a3d 6c50 4b3d a173 acbd 9b66 55be
00000130: b723 ffbd 7c1e 85be 34ee 593d b2c0 be3d
00000140: 501b 953e a6de b63e a1e0 dcbe a1c8 3cbe
00000150: 6a1b 8cbe 9c00 0abe 495f 60bd fb2b 5cbe
00000160: 50b6 04be 169a d8ba ce3f 10bd 1175 89bc
00000170: 4c62 fb3e 5907 663e c7ba 75be 083b 94be
00000180: aaa6 94be 91c0 cf3d b06a 033e 3343 90be
00000190: 3071 053e a435 e53d 453b 4dbe 09b8 66be
000001a0: 8219 b4bd 74d6 703e 5489 6f3d 719d 7dbd
000001b0: 3809 3abd bc33 e23d bab0 bcba 571c 303d
000001c0: 94e6 183e 142f 2d3e abc7 353e 36ae 9b3e
000001d0: 9c15 0d3d 3465 853e fa38 aabe 2ff4 24be
000001e0: c7d5 84be a5e0 493e 5f24 febd 2e44 ae3d
000001f0: 0240 1e3e 7cac 8fbd eea6 933d 3e2d 993d
00000200: 7c09 69be cbba febd 779d 2dbe 4ee3 8abe
00000210: 4ff6 c8be 2133 71be 204d 9dbe e900 b1be
00000220: 6d2d bcbe 4ca8 e7be 1bf4 0abf 7e61 9abe
00000230: e619 57be b562 d7be 0762 d7be 835b dcbe
00000240: 5ee6 6bbe 9430 86be 3279 6dbe 2080 9ebe
00000250: e0c6 3e3e 1926 5a3e df0f 383e 8d88 743e
00000260: 628b b3be 25ed 9ebe 2cc1 92be c0f4 8bbe
00000270: 1a82 b5be d388 aebe 63ed 08bf 9c6d ccbe
00000280: e817 e8be fba5 efbd 4b86 e0be 8070 b2be
00000290: a710 45bc 4491 a53c 7cd4 0bbe 56be 553d
000002a0: 67f9 ec3c 390a 9bbd e00c d13c f693 f03d
000002b0: d356 d83d b603 033e 902c eb3d f5ab 4d3e
000002c0: f0ec d9be d5c8 15bf ee69 2abf fa52 02bf
000002d0: ba36 ccbd 19b5 23be 8f31 f2bd 4150 0cbe
000002e0: fe17 35be 95ef 9fbe 4e2e a2bd 3af0 39be
000002f0: 23b3 653e 0aab 313e 28fd 803e da9a 853e
00000300: ac5e 6dbe c92f d2bc 95ba 82bd 87fa 81bd
00000310: 49c7 46be 89db 82be f6d6 37be 733f 7ebe
00000320: 0dfa 973c a4c7 a13c 58b7 c33d 2f4a 133d
00000330: 5df7 3bbe 3ca9 80be f128 4abc cba7 0cbe
00000340: 04d5 ab3e 7509 c93e 958f a83e 46e3 e23e
00000350: 15cd 503e 293e e23b 3447 913e eaba e83c
00000360: a5e8 bdbe d02b c1be 4d59 10bf 90ec 9ebe
00000370: e246 73be 58b1 90be 1034 90be 3665 8abe
00000380: 96c6 f5be 6edf d9be dee2 1cbf b183 e4be
00000390: 9ba7 c43d 6da4 d9bc 5d2d 48bd 9991 c43a
000003a0: f9c2 63be c14a 34be 8eb2 34be 740c d5bc
000003b0: 47bd 45bd 4d3d 8e3b 23f8 d13b 71ac 39bc
000003c0: 7226 33be 4b78 783c 47f3 96bd 7074 62bd
000003d0: 4374 10bd bc5e 813c 12e5 3dbe 7175 c7bc
000003e0: 2c69 96bd 5f55 1bbd c1d1 273d 0990 f93c
000003f0: 7093 f1be db4b a0be 82ed b4be 4f1a c9be
-0.19747955 0.12038793 -0.09541865 -0.087588266 0.020394111 0.04377583 -0.069963895 0.0124627035
-0.020043232 0.032172132 -0.20692874 -0.17826578 -0.097514324 -0.07913632 -0.03344113 -0.09796031
-0.09405315 0.026647512 -0.10994416 -0.19597465 -0.044465832 0.03291552 -0.031989668 0.07635651
0.036449783 0.14461076 -0.124760866 0.02977517 -0.30381733 -0.31996533 -0.053252857 -0.44467798
0.11002274 0.11038184 0.1415689 0.26791495 0.10966695 -0.084262036 0.12321324 0.103064716
-0.11254833 0.07232806 0.066783264 -0.023619328 -0.029317735 -0.26224044 0.1731164 -0.16145398
0.13051105 -0.034638356 0.073572226 -0.18113202 0.061537575 0.07580039 0.0062978226 -0.112432845
0.11004685 0.006548511 0.153133 0.11864325 -0.00031571795 0.31977502 -0.078879915 -0.07973801
0.15230891 -0.024258558 -0.19604568 -0.009417818 0.042337704 -0.2511043 0.053277608 0.0027413187
0.06762729 0.049637243 -0.08420492 -0.20839922 -0.12457984 -0.2599982 0.053205684 0.093140975
0.291224 0.35716742 -0.43140128 -0.18435909 -0.27364665 -0.13476795 -0.05477837 -0.21501152
-0.12960172 -0.0016525413 -0.0352171 -0.016779454 0.49098432 0.2246374 -0.23997031 -0.28951287
-0.29033405 0.10144151 0.12833667 -0.2817627 0.13031459 0.11191872 -0.20042141 -0.22531141
-0.08793928 0.23519307 0.058480576 -0.061917726 -0.045418948 0.11045024 -0.001439593 0.042995777
0.14931709 0.1691249 0.17751949 0.3040635 0.034444436 0.26053774 -0.33246595 -0.16108774
-0.2594435 0.19714601 -0.12409281 0.08509098 0.15454105 -0.07015321 0.07209574 0.074793324
-0.22757524 -0.12437972 -0.169546 -0.27126545 -0.3925042 -0.2355466 -0.30722904 -0.34571007
-0.36753407 -0.45245588 -0.54278725 -0.30152506 -0.21005973 -0.42067495 -0.42066976 -0.43038568
-0.23037097 -0.26208937 -0.23190764 -0.30957127 0.18630552 0.21303596 0.17974804 0.23880215
-0.35067278 -0.31040302 -0.28663003 -0.27335167 -0.35450822 -0.34088764 -0.53487223 -0.39927375
-0.4533074 -0.1170158 -0.43852457 -0.34851456 -0.012027896 0.02021087 -0.13655275 0.05218347
0.028927518 -0.07570309 0.025518835 0.11746971 0.105634354 0.12794384 0.11483109 0.20085128
-0.4256358 -0.5850957 -0.66567886 -0.5090786 -0.09971376 -0.15987052 -0.11825859 -0.1370249
-0.17684934 -0.31237474 -0.07918988 -0.18158045 0.22431616 0.17350402 0.25193143 0.26094705
-0.23180646 -0.025657551 -0.06383244 -0.063466124 -0.19411959 -0.25558117 -0.17953095 -0.24828891
0.01855185 0.019748516 0.095564544 0.03595942 -0.1835608 -0.25129116 -0.012338863 -0.13735883
0.33560956 0.39265028 0.32922044 0.4431402 0.20390733 0.0069043827 0.28374636 0.02840944
-0.37091556 -0.3772874 -0.5638626 -0.31039858 -0.23757508 -0.28260303 -0.2816472 -0.27030343
-0.48003072 -0.42553276 -0.6128367 -0.44631723 0.09602281 -0.026567662 -0.048871387 0.0014997005
-0.22242345 -0.17606641 -0.17646238 -0.026006915 -0.048276212 0.0043408037 0.006407754 -0.011332617
-0.17495134 0.015165399 -0.0737062 -0.055286825 -0.035267126 0.015792243 -0.18544415 -0.024347993
-0.07344279 -0.037923213 0.04097152 0.03046419 -0.47182798 -0.31307873 -0.35337454 -0.39277884

conv2.bias f4 [32]
00000000: 3c56 3e3d 1703 9abd fc83 d9bd 4100 1bbe
00000010: f79c f33d d51a b9bd 6bd5 14be 473b 1a3e
00000020: 73f7 7abd bce7 173e fed3 4fbe 8bdd 413e
00000030: eb99 d23d d562 f1bd 6b46 e8be 9b81 ebbd
00000040: e928 2c3c e3f7 5e3b e4d7 533d 8791 f13d
00000050: b477 4d3d 1777 57be 6c31 3e3d efff 083e
00000060: f601 88bd ff64 453e 6a6a 0b3d c10a 00be
00000070: dace cb3b af27 513e 9f62 8c3e 3c73 1ebe
0.04646896 -0.075201206 -0.10620877 -0.15136816 0.11895173 -0.09038321 -0.14534537 0.15061675
-0.061271142 0.14834493 -0.20295712 0.18932168 0.10283264 -0.11786429 -0.45366225 -0.1149933
0.010507801 0.0034022264 0.05171956 0.11795335 0.050162986 -0.21041523 0.04643385 0.13378881
-0.06640999 0.19276808 0.03403703 -0.12504102 0.006219727 0.20425294 0.27418992 -0.15473646

conv3.weight f4 [64, 32, 2, 2]
00000000: bc11 d2bd bcc9 b93d 278a 2a3c d0ff 963e
00000010: 3c73 223d bf34 61be 632b 713e 16c0 51be
00000020: cc5b 743d 78f5 953d bb6d b93d 7e3d f63c
00000030: 463a 063d 1a0c 71bd 7ae1 6d3c 6b12 08bd
00000040: c667 c4be e507 a4be 2fc9 6dbe 595e 8cbe
00000050: dbe2 92bd b8cf 453d 9624 6fbd cde0 283d
00000060: f9c9 f43c d281 05bd 9737 3ebd 6d4a 86bd
00000070: 8ea8 16be 15ba 57be 13cc 9fbe 4d6d d8be
00000080: ca2a edbc 0b1d bdbd 2604 d63c 7655 cebc
00000090: b6e9 813e fbfe 91bd e6f4 783e 1588 c8be
000000a0: 6597 3a3e 015c 9e3e ac62 663e b11e 9a3e
000000b0: 3a39 503d aa33 bd3d 888e da3c 9f09 3a3d
000000c0: 5b31 94bc 50b4 bbbe 235e c63e f5e0 30bd
000000d0: a25c 463e f3af 543e cbb6 69bd 6fed f2be
000000e0: ff32 0cbe 4235 68bd da2c 0abd 8a8e 73be
000000f0: f315 ea3d 22e3 9b3d 2e2c 703d 49c8 493d
00000100: 7c37 8b3d 1d71 763d a70e b53d 3f93 28bc
00000110: 53ce 3b3d 94a0 8b3d 455c dfbd 2a0f cabd
00000120: 2510 223e 7a60 33bc aa2c 03be b4c1 0fbd
00000130: 7181 893e ddc7 2ebd c852 fb3d 5201 a33c
00000140: 7ddb 85be 6cbe 483d d3a7 513d 744e 233e
00000150: b089 483e 9cb4 1e3e 139a 25bd 99de ca3d
00000160: 45e9 aebd 8de5 acbc 3e03 83bd 966b fcbc
00000170: 76b3 c7be f90e 0abe cd81 b73e 9294 533e
00000180: 66f6 173e eb82 6dbe d40f 883e bdec 5abe
00000190: 8f97 ca3e 0a4a 45be 80f9 b63c 159c a3be
000001a0: d367 8f3d 5379 1fbe 9ee9 48be f848 f3bd
000001b0: f48e 893d 7ed2 503c 0999 a2bd 3b25 30bc
000001c0: 724b 053d 876d 263d 5f69 d23d f6f7 393d
000001d0: 47ef 7e3e ac1b b8bd 05e3 203e 6fd6 b13b
000001e0: 5cc5 773d 1ca9 893e 3968 f03d ee6a 683e
000001f0: 889d 253c 3502 853c 2288 d83d a506 35bd
00000200: bad2 55be c0b9 0cbf 8e07 7f3d 2c22 86bc
00000210: 477f 753e 645c bdbd fa89 803e 66ca 533e
00000220: 7273 1b3d 16db 323b 5f7e d6bd e5ef a5bd
00000230: befa 80bd fb16 d0bd cb13 153d ed11 753d
00000240: e220 aabd 3657 1dbe 472c 3dbe b0eb c0bd
00000250: 74d6 f1bb 78f6 d1bc f033 d1bc 0bce 753d
00000260: ceb4 71bc 3fe1 d13c b480 6d3d c5ad 163d
00000270: 1b81 ffbc d977 93be a96d e23c 6ce5 33be
00000280: 67b3 0cbc f463 633c 4dc7 6ebc 9e0e 9bbc
00000290: 7fe2 cf3d da97 1f3e 59e1 cbbd 4c37 60be
000002a0: a038 6dbd 935b 523d 940e 83be 7322 f9bd
000002b0: 3567 393d 30f5 adbe a290 753e 1420 a1bd
000002c0: 6855 563e 77cc 853e 2359 a7bd 26c0 40be
000002d0: 49e9 ce3d b334 a43d 38c5 e13d 315d 823e
000002e0: 5fdc a2be b919 10bd fc51 8cbe 9f60 523d
000002f0: d831 fcbc a20e 9e3d 8fa0 1cbd 3345 ac3c
00000300: 2530 243e c910 793c 4671 21bc 6712 543d
00000310: 741c 83bc 9970 8cbd 4eea 9cbd e48c a43d
00000320: 7930 383d 74aa 07bd 7d06 b6be 2631 31be
00000330: 0d63 08be 85e8 d83c a2ef 05bf edaf c3bd
00000340: 3646 09be 5411 c2bc c86d a5be ff67 b8be
00000350: 4ef8 62bd 89ed bbbc 78b2 c13c 6715 043e
00000360: 84ed 1d3d 4c15 823d bce4 973d d214 323e
00000370: 32ca 70be bfe3 8cbe 4233 043e 81f1 f5bc
00000380: 1f32 6c3e 13f8 883e c404 fabd 3504 a1bc
00000390: c050 623e cb11 f03d a050 0ebe 1222 44be
000003a0: eee1 95be d1d5 40bf 6422 74be 31fb f4be
000003b0: 4672 8e3c 5e56 9abd 1037 1a3d 2ffe a73d
000003c0: 77dc 6e3e be96 bb3d 01c6 97be 4479 b2bd
000003d0: 0f5e 903d c4fb 513e b85d 4abe 1839 703d
000003e0: f5c2 093e 34af a63d 6c41 ab3d cbd8 24bf
000003f0: 022c 5ebd e377 013d 3a3d 70bd c177 c73b
-0.10257289 0.09071681 0.010408915 0.29492044 0.039660677 -0.21992777 0.23551707 -0.20483431
0.059657857 0.0732221 0.090541326 0.030058619 0.032770418 -0.05884943 0.01451909 -0.03322069
-0.38360423 -0.32037273 -0.23221277 -0.27415732 -0.071721755 0.0482938 -0.0583845 0.04123001
0.029881464 -0.03259451 -0.046439733 -0.06557164 -0.14712736 -0.21067078 -0.31210384 -0.4227089
-0.028951067 -0.09234055 0.026125025 -0.025187235 0.2537362 -0.07128712 0.24312171 -0.39166322
0.18221815 0.30929568 0.22498578 0.3010154 0.050835826 0.0923837 0.026679292 0.04541933
-0.01808994 -0.36661005 0.38743696 -0.043183286 0.19371274 0.20770244 -0.05705909 -0.47446772
-0.13691328 -0.056691416 -0.03373418 -0.23784843 0.11429968 0.076116815 0.058635883 0.049263272
0.06797692 0.060166467 0.08840685 -0.010289012 0.045851063 0.06817737 -0.10906271 -0.098661736
0.15826471 -0.010948295 -0.12810007 -0.03509684 0.26856568 -0.042671073 0.12271649 0.01989809
-0.2614402 0.049009725 0.05118544 0.15947896 0.19583774 0.15498585 -0.04043014 0.099057384
-0.085405864 -0.021105552 -0.06397103 -0.03081302 -0.39004105 -0.13482274 0.35841218 0.20662144
0.14840087 -0.23194472 0.26574576 -0.21379371 0.39568755 -0.19266525 0.022335768 -0.3195502
0.07002225 -0.15573625 -0.19620368 -0.11879152 0.06716719 0.012745498 -0.079393454 -0.010751064
0.032542653 0.040631797 0.10274004 0.04540249 0.24895965 -0.08989653 0.15711601 0.005427174
0.06049095 0.26886833 0.11738629 0.2269704 0.010108359 0.016236404 0.1057284 -0.04419579
-0.20881167 -0.5497093 0.062263064 -0.016373716 0.23974334 -0.09246138 0.25105268 0.20682678
0.037951894 0.002729123 -0.10473322 -0.08102397 -0.06297825 -0.10160633 0.03639583 0.05983155
-0.08307053 -0.153653 -0.18473922 -0.09419954 -0.007380301 -0.02563022 -0.025537461 0.06001095
-0.01475258 0.025620101 0.05798407 0.036786813 -0.031189492 -0.28802374 0.02764018 -0.17567986
-0.008587695 0.013878811 -0.014573884 -0.018927868 0.101506226 0.1558527 -0.09955091 -0.21896094
-0.05791533 0.051356863 -0.2559706 -0.12164774 0.04526444 -0.33976126 0.23980954 -0.078674465
0.20931017 0.26132557 -0.08171298 -0.18823299 0.10103089 0.08017864 0.110239446 0.25461724
-0.31808755 -0.03518078 -0.274063 0.051361676 -0.030785486 0.07717635 -0.038239058 0.02102909
0.1603399 0.015201756 -0.009853667 0.051775362 -0.016004778 -0.06857414 -0.076618776 0.08034685
0.044968102 -0.03312154 -0.35551825 -0.17303905 -0.13319035 0.026478061 -0.52318776 -0.095550396
-0.1340569 -0.023689903 -0.3231032 -0.36016843 -0.055412583 -0.022940414 0.02364467 0.1289879
0.03855659 0.06351718 0.074166745 0.17390755 -0.23514631 -0.27517506 0.12910178 -0.030022385
0.23065995 0.26751766 -0.1220794 -0.019655326 0.22101116 0.11722144 -0.13897943 -0.19153622
-0.29273933 -0.7532626 -0.23841244 -0.47847894 0.017388474 -0.075360045 0.037650168 0.082027785
0.23326288 0.09159611 -0.29643252 -0.08714536 0.0704919 0.20506197 -0.19762313 0.0586482
0.13453276 0.08138886 0.083620876 -0.643933 -0.054241188 0.031608474 -0.05865214 0.006087274

conv3.bias f4 [64]
00000000: 29c4 133b f124 b13e be79 163e 394d cdbe
00000010: 64fb 293d 724d c4bc 61f9 ed3d dd2d b3bd
00000020: 5a0d 093e e97f 093e 1d38 bdbe 94b3 b7bd
00000030: 0026 253d 1400 dbbd f548 d33d 5cf0 1a3e
00000040: af6f 3cbd c860 023d f549 313d 0bbb 813d
00000050: 0980 013e e647 ccba 48cf eebe ff79 0fbe
00000060: e470 923a f956 27be ec97 b23e 8a06 af3d
00000070: 4502 7a3e bbb9 133e d45e 043e 5df4 543e
00000080: bf20 aabd 54de 653e 4612 88bd 8c89 5fbe
00000090: 3a69 f23c 4f1b 803e d227 64be 03a6 0b3d
000000a0: e5e6 b93d dc0f 3b3e 857a fd3c ae69 2abe
000000b0: 35a7 4b3d 73ef 10bd 846e 703d 00dd e23d
000000c0: ba47 2fbd 2404 84bd e599 a53d 49f7 c2bd
000000d0: 917a 693d a00b 2dbe 09e6 053e b5a9 19bc
000000e0: 1bc6 03be 4d11 ee3c c959 e2bd aa37 4dbe
000000f0: 0bf0 a13d 8b24 f53b 43ef 11be 71cc 32bd
0.002254734 0.34598497 0.14694878 -0.4009798 0.04149951 -0.02396271 0.11619831 -0.08748982
0.13384 0.134277 -0.36956874 -0.08969799 0.040319443 -0.10693374 0.1031665 0.15130752
-0.046004947 0.03183058 0.04328342 0.06334504 0.12646498 -0.0015585392 -0.46642518 -0.14011382
0.001117256 -0.16341771 0.34881532 0.08546169 0.24414928 0.1442632 0.12926799 0.20796342
-0.08307027 0.22448093 -0.066441104 -0.21829814 0.029591192 0.25020835 -0.22280815 0.034093868
0.09077243 0.18267769 0.03094221 -0.16641876 0.049720008 -0.035384607 0.058699146 0.11077309
-0.042793013 -0.06446102 0.08085994 -0.09519822 0.057001654 -0.16898966 0.13076033 -0.00937884
-0.1286854 0.029060984 -0.110522814 -0.20040765 0.07907113 0.007481163 -0.14251427 -0.043652

conv4.weight f4 [64, 64, 2, 2]
00000000: 0149 323d 94e3 49be 444b afbd 92e2 10bf
00000010: 2f12 68be 90f6 6f3e 9c70 55be cfd1 793d
00000020: 5ae3 c6be b4ed ec3d 57a2 8fbe 13a8 31bd
00000030: 4ee6 dabd 767d 44be a214 28be ac06 3cbe
00000040: a227 0c3e 6f6e c83d 5208 aa3d bce9 a9be
00000050: bb7b 7abe a425 acbe 103b 04be 6395 48be
00000060: d2a0 193d e2bd 11bf bbdb 073e 0266 30be
00000070: 0319 5bbd be47 ec3c fa5f 373e e8c4 d93c
00000080: 59cb 2d3e 77ea 46be 417a 993e 029a 0c3d
00000090: e06e 46be 6fc6 90be ed1d f2bd e4b7 04be
000000a0: 346a 05be d839 cb3c 8967 86be 42f6 d5be
000000b0: 490b f6be f9bf cb3d b500 f5be b230 e5be
000000c0: 86fa b8be bcc5 213d af7f c7bd f8a7 85be
000000d0: 6da7 a4bc 0b6b 93bd 551c 433d f6a3 a4bd
000000e0: 16aa 863e c433 b5bc b64f e53e c737 883e
000000f0: 2de8 0dbe 4add 4bbe 81a1 863e 8115 56bc
00000100: f443 b9bd 1b3a 683d ea6c adbe ba15 8ebc
00000110: 93f0 51be 7311 3cbd c884 c1bd 0e33 babe
00000120: 798f 153e 1ae1 40be 8826 663d 9131 a73d
00000130: c332 c3be f263 efbd 78b8 83be ede8 9abd
00000140: f062 19be 660b bc3e e9f3 54bc b2ec eb3d
00000150: 23b2 c2be afcf f73e 5101 dc3c 8ad4 43bd
00000160: 2497 333d d288 1f3d 5187 a5be 6b32 aa3d
00000170: 6002 e5bc 2aed 2f3d fb53 0b3d 6549 ad3d
00000180: 3409 fbbe 717e 0cbe be1c 4bbe ee65 843e
00000190: a70c 023d 59c5 903e 2806 0cbe b0c3 213e
000001a0: 87f0 e53d 7c81 3fbe 327a 553e abc6 b4bd
000001b0: 0033 64be cd3c 04bf b4ec 1fbe 9683 b5be
000001c0: 8120 24be 1d35 edbe 7073 233d 3a51 6fbe
000001d0: 645c 1cbe 8dd2 81be 8fc2 07bf 084d bbbe
000001e0: dcbd 813d 50c3 903e 0ee6 e83c 4edc 85be
000001f0: d1a6 1abe dd1b 563e f8fc 6ebe eed4 bc3d
00000200: 6588 33be a49c e1bd 75b8 5dbe 17aa 32be
00000210: fa7e 913d b741 b5be a22e ca3c 3868 2c3e
00000220: 78b7 a23d 32b0 10be f83f 63be 37dc 4a3e
00000230: e5d4 10be f8a0 353d eed0 ddbd b26a 783c
00000240: e2cc 23bd 5e64 70bd 376b 343e e70c 0e3e
00000250: e1d7 be3d ca51 323d 5cc3 193e 4880 203d
00000260: 493c 2bbe 93b7 f83c a1a0 00bf 1a36 04bf
00000270: 4e66 a5be 69f6 073e ad00 98be f1c6 e3bd
00000280: ba13 23be 70fe 4e3e a1c0 4abe febd 9f3e
00000290: a9b1 5dbe 94b5 8fbc 066d 2bbd 1c4c c5bd
000002a0: d23c 143e 4e33 13be 3f79 fbbd c514 8abe
000002b0: a20b 7ebd e593 4cbd 2ad0 08bd e827 ff3a
000002c0: 414d c73d 5f78 b53d 4d6e 40bc 9cc1 b13e
000002d0: f77f 08be 02a8 b63c d115 c1be 0c2f 08be
000002e0: cfe5 70bc 3c4d cdbe eca4 7a3e 682c c6be
000002f0: c61b d43d c8f0 10bf 593f 3b3e 37fc b5bd
00000300: 7070 95be 38d0 763e 55de 34be 16ac b93d
00000310: 578f 6cbd 3d52 6ebe dc94 b73e a870 0dbe
00000320: aa92 293e 8099 23be 6ba4 c03e 51cb f73d
00000330: 9439 adbd a325 1a3d 73b1 0e3d ec31 8e3d
00000340: 6806 fd3d d228 cb3c 6bfd 813e 77d8 7a3e
00000350: 7e8d 3d3e 3186 d0be fe85 79bd 771c f8bd
00000360: 6b81 a33e 6399 6fbe 180f ab3e 9872 ab3e
00000370: fae9 96be 2b52 6bbe abe0 debd 335b aa3c
00000380: 1fc6 173e 0d8c 493e 15b0 f7bd 51cc b13e
00000390: ba25 88be 11ad 303e bc92 d9be 9cb2 d0bd
000003a0: 5650 08be 5d3e 1a3e 0ff1 ce3d 9dd1 adbe
000003b0: 5f1c c2bd b8a9 c6bd 1d4e 373c 72ce 0f3c
000003c0: b4fe 3d3d ff9d 85be 938b ad3e 579c c0be
000003d0: c378 093d 03f5 bfbe 7e48 4c3e 1b69 193b
000003e0: 2682 7fbe 2683 013e 96b3 bcbd df78 39be
000003f0: fe9b 3dbe 5119 0d3e 533f 58be 3065 e33d
0.043526653 -0.1971572 -0.08559278 -0.5659572 -0.22663186 0.234339 -0.20843738 0.060991105
-0.3884533 0.11568776 -0.28053543 -0.04337318 -0.106884584 -0.19188485 -0.16414121 -0.1836192
0.13686994 0.097866885 0.08302368 -0.33186138 -0.24461262 -0.33622468 -0.12913156 -0.19588237
0.037506886 -0.56930363 0.13267414 -0.17226413 -0.05349065 0.028842803 0.17907706 0.02658315
0.16972102 -0.19425379 0.29976085 0.03432656 -0.19378233 -0.28276393 -0.11822114 -0.12960774
-0.13028795 0.024807855 -0.26250866 -0.41789442 -0.48055485 0.09948725 -0.47852102 -0.44763714
-0.36128634 0.039495215 -0.097411506 -0.26104712 -0.020099366 -0.07198151 0.04763444 -0.080390856
0.2630164 -0.02211941 0.44787377 0.26605055 -0.138581 -0.19908634 0.26295093 -0.01306665
-0.09046164 0.05669604 -0.33872157 -0.017344344 -0.20501928 -0.04591508 -0.09449154 -0.36367077
0.14605512 -0.1883587 0.05618909 0.08163751 -0.38124666 -0.11688985 -0.25726676 -0.07563958
-0.14979148 0.36727446 -0.012997606 0.115197554 -0.38026533 0.48400638 0.026856096 -0.047810115
0.04384531 0.03894884 -0.323298 0.08310398 -0.027955234 0.042950787 0.034015637 0.084612645
-0.4903046 -0.13720109 -0.19835183 0.25859016 0.031750347 0.28275564 -0.13674223 0.15797305
0.112275176 -0.18701738 0.20847395 -0.088269554 -0.2228508 -0.51655275 -0.15617639 -0.35451955
-0.16028024 -0.46329585 0.03990501 -0.23370829 -0.15269619 -0.2535595 -0.5303125 -0.36582208
0.06335041 0.28274012 0.028430011 -0.26144642 -0.15102698 0.20909066 -0.23338687 0.092203006
-0.17532499 -0.11016205 -0.21652396 -0.17447697 0.07104297 -0.354017 0.02468044 0.16836631
0.0794515 -0.14129713 -0.22192371 0.19810568 -0.14143713 0.044342965 -0.10830866 0.015162157
-0.039990313 -0.058689468 0.17619024 0.1387211 0.093185194 0.04353503 0.1501593 0.03918484
-0.16722216 0.030360973 -0.502451 -0.5164505 -0.32304615 0.13277592 -0.29688016 -0.111219294
-0.15925494 0.20214248 -0.19800045 0.3119964 -0.21649803 -0.017542638 -0.04185202 -0.09633657
0.14476326 -0.1437504 -0.12278985 -0.2696897 -0.062022813 -0.04994573 -0.033401646 0.0019466849
0.09731532 0.088608496 -0.011745048 0.34718025 -0.13330065 0.02229691 -0.37711957 -0.13299197
-0.014703228 -0.40097988 0.24476975 -0.38705754 0.1035686 -0.56617403 0.18285884 -0.08885997
-0.29187346 0.24102867 -0.17662938 0.09066026 -0.057753887 -0.23273559 0.35855758 -0.13812506
0.16559854 -0.15976524 0.3762544 0.120993264 -0.08458248 0.03763355 0.034837198 0.069431156
0.123547375 0.024799738 0.25388655 0.24496637 0.18511006 -0.4072738 -0.0609188 -0.12114804
0.31934676 -0.23398356 0.33409953 0.33485866 -0.29475385 -0.22980563 -0.10882696 0.02079544
0.14821671 0.19682331 -0.12094132 0.34726194 -0.26591283 0.1725352 -0.42494762 -0.10190317
-0.13311896 0.15062852 0.10104572 -0.33948985 -0.094780676 -0.0970034 0.011188057 0.008777248
0.046385482 -0.26097104 0.3389555 -0.37619278 0.033562433 -0.37491617 0.19949529 0.0023408595
-0.24951991 0.12647685 -0.09213941 -0.18112515 -0.18516538 0.13779189 -0.21117906 0.11103284

conv4.bias f4 [64]
00000000: 22ec 9dbd c763 a4bd c9a1 afbb 1f08 d1bd
00000010: f5a3 a93d 215d 0c3e 9687 8b3b b0ed 67bd
00000020: 0410 0ebe a152 5e3e 9cc1 c6bd 0bc2 e1bc
00000030: 211c fb3d 6cd0 963e 3b61 f23d 1498 2d3e
00000040: 2346 223c a234 0ebe 0ef0 263e 25b3 2c3d
00000050: 7381 bd3e a9e6 b33d a5dc a1be 9116 44bd
00000060: be44 bbbd 73ea 3c3e 2a12 40bd 4824 a23e
00000070: 6405 b93d 42a7 fd3d b5e1 19be 990a b03d
00000080: daa7 823e 5c43 0f3e fe53 e5bd c1c4 0cbe
00000090: 5554 91bd 1470 66be 23b0 98be 2175 77be
000000a0: c3ae 683d fbf0 99be 3f59 5b3c 55c5 9a3d
000000b0: 5e8a d33d 91c2 8fbd 0178 d73d 31e3 14be
000000c0: 4e8c 233e 4b76 3abe 6a98 c2bd 92af 153a
000000d0: 5ac7 2f3e ebd1 893e 9970 8a3e 0823 d4bd
000000e0: dc6e d0bc 917a 843c be05 83bd 5fb8 cabd
000000f0: c13d 093e 21cc 3a3e e25c d8bd c95d 93bd
-0.077110544 -0.080268435 -0.0053598625 -0.10206627 0.082832254 0.13707401 0.0042581065 -0.05662316
-0.13873297 0.21711208 -0.09704897 -0.027558347 0.122612245 0.29455888 0.118349515 0.16952544
0.009904417 -0.13887265 0.16302511 0.042163033 0.37012824 0.08784229 -0.3161365 -0.047873084
-0.09143971 0.1844881 -0.046892323 0.31668305 0.09034231 0.123854175 -0.15027507 0.08595771
0.25518686 0.1399054 -0.11197661 -0.1374693 -0.07096163 -0.22503692 -0.29821882 -0.24165775
0.05680729 -0.30066666 0.013387977 0.07557169 0.10329126 -0.070195325 0.10520936 -0.14539792
0.1597149 -0.18209188 -0.09501727 0.0005710061 0.1716589 0.26917967 0.2703903 -0.10358244
-0.025443487 0.016171725 -0.063975796 -0.09898447 0.13402463 0.18241931 -0.10564591 -0.071956225

conv5.weight f4 [128, 64, 2, 2]
00000000: d6de 19bd 3505 3cbe 1b53 02be 93a0 5dbe
00000010: eac8 aa3c e0d8 51bd 2888 d93c 8330 adbd
00000020: 4b8b 2d3e 5a8b 9f3c 789b 423e ef74 5ebe
00000030: 7ddd 54be 9c25 d43c 47ee 62be 8897 12be
00000040: f035 debe 9ca9 0bbf 427c 14be 4926 9abe
00000050: b5b6 adbe 2d49 103d 9da0 ffbd 4cf7 2dbe
00000060: c63d 20be e410 c73c 343e 8e3d 782c 2f3d
00000070: aa02 81be 0575 77be 4e5a 4fbe 78ef 13bd
00000080: dad4 6fbd f120 debe 2b45 1abd fdc7 bbbd
00000090: b7f4 183e 30ac 17bd 6749 8b3e 35ff 5bbd
000000a0: 9cae 2cbe 1e5e a1be 2752 143d 0f11 053e
000000b0: d2ec d2be 398e 80bd ecb5 0d3d e0c4 963e
000000c0: 6351 61be 9473 4bbf bb6a 4bbd cbbd 0ebe
000000d0: f06b 88be 4234 2dbc 53e8 53be c143 723d
000000e0: 7b68 ecbc 2783 35be d762 c7be 4619 603e
000000f0: cd6a 99be 8fd7 d23d fa32 9d3d 4976 a0bc
00000100: 48c7 863e 8971 653e c09a ebbe c4fc 9ebe
00000110: e48e 49bb 1618 583c 8d10 6f3c e66f 6b3d
00000120: 2cb0 313d c0fa 873e 383f a0be a000 33be
00000130: 9153 ed3d bf56 20be 29bc 3c3d bb75 4e3e
00000140: d48c ec3d 431f 40bb 2651 f43d 501c 253d
00000150: 312b 12bd 6111 ccbd 47d6 abbc a236 fc3d
00000160: c580 abbe 2b07 363d 39af 13bc 8d1c a93e
00000170: e218 c9be 5a06 90be afcd a83d f477 07bc
00000180: 597e 95bd 2101 03bd 6d9f 9bbd 4fe7 a9bd
00000190: 571d 1fbe d238 5abe 3a60 ac3e 04c6 203e
000001a0: e01d ffbb fd9c 7ebd 91e6 653e e9a1 03bf
000001b0: 566d f53e 0b8e 2bbd f5cd 833e c1e3 273e
000001c0: f26e 1f3e 435c ca3c f7b6 263f 66fe 56bd
000001d0: e63b 483e 9f15 873e 3c94 bc3e bfab 9f3e
000001e0: c341 34bd 92ca 0f3d 85ff 04bd 2b3d 46be
000001f0: dba7 613e c229 3cbe f71f 5e3e b8de b7be
00000200: 2e6b dbbd 605b 7fbd c39e aabd 12ae a5bd
00000210: c85b 88be f0e8 e8bb d959 87bd d5a3 15bd
00000220: cbd6 d33e 02e7 173f 9eae 4c3e 3c96 ee3e
00000230: 1f8e 40be a29f 8c3e 8866 a0be fb0d 82bc
00000240: 2071 253d 789a 8a3d d91b dc3c fb9a 8dbe
00000250: 65e4 b6be b75b 8fbe 0d11 25be e492 983e
00000260: cd4e ecbc 8c2f c43e 8c52 e2bd 2450 75be
00000270: 4705 40be 4eb6 32be d9df fbbe 77af 82be
00000280: 1994 b1bd e705 94be 4b4a 7a3e da56 5ebd
00000290: a4c8 bcbe 8dc0 79be 9c2a 55be 8ddb 97be
000002a0: 7477 3fbd de03 b93d 6450 45be 40fa cfbe
000002b0: 3846 a53d 9b6d 103e 87a4 f63d bbe5 c23e
000002c0: 61c1 8dbd 3585 6abe cf55 47ba c08b 60be
000002d0: e470 2f3d acac 003e f65f 64be 5302 c9bd
000002e0: bcb2 e0be 7434 b9bc 16d3 e8be 661b a5be
000002f0: 8d27 2f3e b6a7 bfbd 268c 93be 3cca b4be
00000300: db79 07be 8d11 ccbc ff1b 1abe 4b91 4dbd
00000310: 3c7e 1d3e 2cf7 3bbf 3d95 91be 5964 1ebf
00000320: c5c7 4cbe efbb 9d3d 984b 9dbd 0d6f 84be
00000330: c8a1 363e 28f0 993d b3ea 5b3e d716 8abe
00000340: 619b 8c3d 7854 73be 171c 56be da5f 93be
00000350: c7a1 903e 0bae d93e b54d 523d 1e33 5abe
00000360: 55c5 573e 3f44 8ebe 0511 2ebe a3c0 acbe
00000370: f8ed a7be 2111 e8be bd7b 3e3e 193e 6fbe
00000380: b5c4 843d 25ae 04be 4442 133e 734f 6d3d
00000390: e185 853d aaef 103e b90c cebe eddc 2dbe
000003a0: 87db ca3c 9040 993e 1488 68be 82b1 9a3e
000003b0: 21fe 6abe 37f6 ffbd c47c c3bd 50e2 963d
000003c0: c229 b9bd 70c0 ce3d c15e d93d 6027 6a3f
000003d0: fea4 afbe 4d19 4cbe 6330 6cbd 7438 d5be
000003e0: 64d3 0b3e 00fd c73d 52f8 cfbc e5c6 14be
000003f0: 39db 64bd 7b61 67bc 8afa 703a 0efd 713c
-0.03756603 -0.18361361 -0.12727015 -0.21643285 0.020847756 -0.05123222 0.026554182 -0.084565185
0.16947667 0.019475628 0.19004619 -0.21724294 -0.20787616 0.02589684 -0.22161208 -0.14315617
-0.43400526 -0.5455568 -0.14500526 -0.30107334 -0.33928457 0.035226036 -0.124818064 -0.16988868
-0.15648565 0.024300046 0.06945458 0.042767018 -0.25197345 -0.24165733 -0.20249292 -0.036117047
-0.0585526 -0.43384507 -0.03766362 -0.09169004 0.14937101 -0.037029445 0.2720444 -0.05371018
-0.16863483 -0.31517118 0.03621116 0.12994789 -0.41196305 -0.06277127 0.034597322 0.2944708
-0.22003703 -0.79473233 -0.049662333 -0.13939588 -0.2664485 -0.010571541 -0.20694093 0.059146646
-0.028858414 -0.17725812 -0.38942596 0.21884641 -0.29964295 0.10295021 0.07675739 -0.019587653
0.26323915 0.22406591 -0.46016502 -0.3105222 -0.0030755335 0.013189336 0.014591348 0.05747976
0.0433809 0.26558495 -0.31298232 -0.17480707 0.11588205 -0.15658091 0.04607788 0.20162098
0.11550298 -0.0029315508 0.1192954 0.040310204 -0.03568572 -0.09964252 -0.020976199 0.12315108
-0.3349668 0.04444043 -0.009013944 0.33029595 -0.39276797 -0.28129846 0.08242356 -0.008268345
-0.072994895 -0.0319835 -0.075987674 -0.08296072 -0.15538536 -0.21310738 0.33667165 0.15700537
-0.007785544 -0.062161434 0.22451235 -0.5141893 0.4793498 -0.04188351 0.2574307 0.16395475
0.15569666 0.024702197 0.6512293 -0.052488707 0.195541 0.26383683 0.36831844 0.3118572
-0.044008028 0.035105295 -0.032470245 -0.19359271 0.22036688 -0.18375304 0.21691881 -0.35912108
-0.10713802 -0.062343 -0.08331063 -0.08089842 -0.26632524 -0.0071078464 -0.06608934 -0.036533196
0.41374812 0.59336865 0.19988486 0.46598995 -0.18804215 0.2746554 -0.31328225 -0.015875807
0.040391088 0.06767744 0.026868748 -0.27657303 -0.35721126 -0.2799966 -0.16119786 0.2979957
-0.028846169 0.38317525 -0.11050901 -0.23956352 -0.18752013 -0.17452356 -0.4919422 -0.25524494
-0.086708255 -0.28910753 0.24442403 -0.054282047 -0.36871827 -0.24389859 -0.20817035 -0.2965969
-0.04674478 0.09033941 -0.19268948 -0.40620613 0.08070034 0.14104311 0.120431 0.38065895
-0.0692165 -0.22902377 -0.0007604034 -0.2192831 0.04283227 0.12565869 -0.22302231 -0.098148964
-0.43886364 -0.02260802 -0.45473546 -0.32247466 0.17104931 -0.0935816 -0.28817862 -0.35310543
-0.13230078 -0.024910713 -0.15049742 -0.05018739 0.15380186 -0.7342403 -0.28434172 -0.6187187
-0.19998081 0.07701861 -0.07680434 -0.25865975 0.17835152 0.07516509 0.2147625 -0.2697055
0.06865574 -0.23762691 -0.20909153 -0.28784066 0.28248426 0.42515597 0.05134364 -0.21308562
0.2107137 -0.27786443 -0.1699868 -0.3374072 -0.32798743 -0.45325568 0.1860189 -0.23363532
0.064828314 -0.12957056 0.14380747 0.057937097 0.06519676 0.14153925 -0.40244082 -0.16978808
0.024762882 0.2993207 -0.2270816 0.30213553 -0.22948505 -0.12498134 -0.095452815 0.073673844
-0.09041168 0.10095298 0.10613776 0.9146633 -0.34305567 -0.19931526 -0.057663333 -0.41644633
0.13654858 0.09765053 -0.025386963 -0.14528997 -0.05587313 -0.014122362 0.00091926067 0.014769806

conv5.bias f4 [128]
00000000: 6d73 683e 2caa 053d e9e6 5f3e da35 3d3e
00000010: 4782 c3bd 9975 ed3d 7c4e 4e3e d9ef b13d
00000020: 3053 4c3e d726 9ebe d0c5 083e 8739 363d
00000030: 7e54 83be 3b64 49be 24e1 f2bd d08b 703d
00000040: 31e8 85be 17ef 203e be0b f23d 7b08 ddbd
00000050: f8d0 f93d e1b0 cb3c 3fea a6bc d6e2 c23c
00000060: e2d4 cc3e e34f 2f3e e290 f63d f72d e8be
00000070: 6940 f4bd 8218 26be 5bf8 6bbc 6db1 44bc
00000080: 1c6f ee3b f433 6dbe b85d 213e 2c47 4c3e
00000090: dc6d 323d ff74 cc3d ac4f f6bc bde1 c2bc
000000a0: e0ac 723d b46e 473d 8ab5 b53d a73c a13d
000000b0: b68a 523c 9860 2c3e 0a74 38bd 27e7 603e
000000c0: bbce 023e b183 033e ae18 0abe 8731 88be
000000d0: 7e36 cdbe 7695 85be a94b 8c3d 587a 433e
000000e0: b36b 2e3d e72a 3a3e c9e9 27be c4c4 483d
000000f0: a27d 49bd 1963 663e 4056 373e f510 4c3e
00000100: 211b 1ebe 8881 813e 5c29 c6bd 7cf3 6b3e
00000110: 41d6 80bd 6b0b 833c 8d4e 24bc 9380 b4bc
00000120: 64b7 8a3d bc06 2cbe bde2 d0bd 8f31 57be
00000130: f994 7d3c e028 8ebe 6907 42be 22ad 0b3d
00000140: 3c7f 053e 8cf8 3cbd d445 1e3c 34ba a3bd
00000150: 60d6 d9ba 4b68 08bc 066f aebd 00c0 d03d
00000160: 3cd7 b0be 9751 8f3e c1bd 0a3e 362e 34bc
00000170: f441 0bbe fd92 81bd 70dd 02be 0eb7 b63c
00000180: db17 863e e0ad 803d 3511 0ebe 092c 9c3e
00000190: 45f2 06be 6711 0cbe ad16 0b3e de44 07bd
000001a0: 1896 02be 9b90 9fbd 6e19 453e 29f6 2dbe
000001b0: 1702 143e 32c3 2f3e f9d4 843e 9c05 c3bd
000001c0: 8f18 5f3e 0b1a 1c3d 8225 833d 207b c2bc
000001d0: 457e 3bbe e2ac 683d 3c07 e7be f132 383e
000001e0: 35cc 703e 68c9 ca3c f0a3 903c 6e33 a23c
000001f0: d433 fa3d 1522 a4bd 747e 2fbe dedb 37be
0.22700281 0.03263299 0.21865429 0.18477574 -0.09546333 0.115946956 0.20147127 0.086883254
0.19953609 -0.30889007 0.1335671 0.044488456 -0.256504 -0.19667141 -0.118593484 0.058727086
-0.2615371 0.15716206 0.11818646 -0.10792633 0.12198061 0.024864616 -0.02037537 0.023789804
0.40006167 0.17120318 0.12039353 -0.45347568 -0.11926348 -0.16220286 -0.014402474 -0.012005192
0.007276429 -0.2316435 0.15758407 0.19949025 0.0435618 0.09983253 -0.030067287 -0.023789281
0.059246898 0.04868956 0.088725165 0.07872897 0.012850454 0.16833723 -0.04503254 0.21963178
0.12774174 0.12843205 -0.13485977 -0.26600286 -0.40080637 -0.26090592 0.068503685 0.19089639
0.04258318 0.18180428 -0.16397776 0.049015775 -0.04919208 0.2249874 0.17903996 0.19928344
-0.15440036 0.25294137 -0.096758574 0.230421 -0.06290866 0.015996655 -0.010028494 -0.022033965
0.0677326 -0.16799444 -0.10199497 -0.21014999 0.015477412 -0.2776556 -0.18948139 0.03410066
0.13036817 -0.04613547 0.009660203 -0.079945 -0.0016619675 -0.008325647 -0.0851727 0.10192871
-0.3453921 0.27991936 0.13548948 -0.010997346 -0.13599378 -0.06326864 -0.12779784 0.022304084
0.26190075 0.06283164 -0.13873751 0.30502346 -0.13178356 -0.13678513 0.13582869 -0.03302466
-0.12752569 -0.07791253 0.19247982 -0.16988434 0.14453922 0.17164305 0.25943735 -0.09522554
0.21786712 0.038110774 0.064036384 -0.023740351 -0.18309887 0.0568055 -0.45122707 0.17988183
0.23515399 0.024754241 0.017656296 0.019799914 0.12216917 -0.08014313 -0.17138082 -0.17954966

conv6.weight f4 [64, 128, 2, 2]
00000000: ec9c 07bd d43f a1bc 7480 19bf 8a41 f3be
00000010: 3ada 5bbe 59eb 96be f8e1 b3be f80b 99be
00000020: e3c9 03be f08b d0be 1abd 77be 58a1 493e
00000030: c0ae 523e 130a 08bd 4ed0 8cbc 32e5 cabd
00000040: 2785 e5bd 65a3 963d cdd8 0a3e 9c5d 763e
00000050: 58c6 9b3d e3b6 173e 3a84 c03e 1e3d 9e3e
00000060: 20df 40bd 9c1c 263e f167 773d 7075 d2be
00000070: b9f3 653e 8a54 e0bc 9a7c 2abe 6acd 953d
00000080: 8638 52be c8ac 0bbe 4c44 99bd 44e4 92bd
00000090: 9dec b4be c193 72be d0b9 0b3b 4029 26be
000000a0: d7de 873d 57b5 a2bc 1443 143e f1a1 723d
000000b0: 050a ae39 dd1e 31be 4981 92be 9b6c babe
000000c0: 1043 68be bb3c ebbe 2c71 283e c82d 5ebc
000000d0: aa65 8abe b9f3 923d 970a 8f3d fa32 27be
000000e0: 3ad5 80be b4b5 b7be a0b4 3c3e a93e bfbd
000000f0: d19c 06bc 39be ae3d f66a a7bc 07c0 bebd
00000100: e164 acbc 7a02 863d df95 123c 5e5a db3d
00000110: 89a1 4c3d 9547 473d 2554 e73e dd80 e03e
00000120: e8a9 c53c 21ac 943d b313 443e 20d0 603e
00000130: 57fe a7bc c7a5 913c d3e9 cdbc bab8 d03c
00000140: acdf f23d 4b58 1b3d 870e 583d 4189 b2be
00000150: 2982 d7bd 95c8 4d3e 02b4 613e 3b1f 833e
00000160: 1a8a d23d 0bf8 d2be 7cad 5abe 50ce 1fbf
00000170: 144b 7bbe 98fc 49be 5e08 27bf f054 4bbf
00000180: 42fb 55bd e574 dfbe aafe 21bf ed18 c7be
00000190: 5660 01ba 0c3f e0be f556 abbe 8a83 5bbf
000001a0: bf35 5bbe 2aef aebe 01cb 9b3d 02f5 c4bd
000001b0: e803 ff3c 8905 03be d819 643d 5eb7 723e
000001c0: 2f4e 03be 7197 68bd d053 843d 71f2 7bbd
000001d0: 4623 c0bc 98c7 bbbc fe33 81bd d1d0 f2bc
000001e0: b1e6 f3bd 207e 813e 18d0 373d e9af 81be
000001f0: 5f44 2fbe 4379 1ebd 5027 05bc 823a bbbc
00000200: 4211 793e 1ca7 043e 9087 cabd 6cad 6b3e
00000210: 1bcd c93c cf3f 4cbd 196d a0bd 996b 8abd
00000220: 0f9d 8f3e 2e57 0c3d 815b 60be 573f 46bc
00000230: b5a5 f3bd 04d3 06be b00c 0c3d 402b 353d
00000240: 1c93 853e 15b9 a53e 9b96 883d 2285 c73e
00000250: d56a e73d 560d a23e efb9 4e3e 2d09 bd3d
00000260: 52bc 2d3d 2e2f abbe 5546 c83d 65a2 03bf
00000270: f6b3 36be 8dc0 1ebe a78e f3bc 6e3d 883e
00000280: 40ea 043e bcfb c5be 1e8d 463d 89a0 433c
00000290: 236f 0a3e 51cb c9bd 6aaa 483d 41ec b73d
000002a0: 394c 3d3e 1c4b 49be 5ef1 57be cffa 02bf
000002b0: 669b 98be 4039 853d 6a14 a93e 2fef 483e
000002c0: bb2c 153e 1e50 0b3d d18e 783e 9098 673e
000002d0: b097 adbe 9e7b bbbe f244 8abe d3a7 443e
000002e0: da5f 5d3e 62c6 8bbd c889 933e 090a 143e
000002f0: 66f0 47be 08a9 23bc 61a2 26be a6ec 09be
00000300: 2b16 2abe b48e 1abf 3793 c3bd 0058 90be
00000310: 805b 2dbe efe4 563e b293 963e 0426 afbe
00000320: 2fed 74be e114 c2bd 6047 5f3d 69c6 19be
00000330: 3e7a 813e 07eb 9bbc d6ee 003e 1e76 823e
00000340: 0787 a73e 8ef5 583d 83c7 ef3d bd25 b9bd
00000350: cb97 773e 484e 7c3e d8d5 423d 5f0c b43d
00000360: 3667 11bd a155 493e ef38 c63e f40d 303e
00000370: a9a6 2dbe 859a 71be 1630 8cbd 6d51 adbd
00000380: 3aeb 6ebd 20b8 77bd ae0f ab3e d664 c63d
00000390: 28cb 9e3c b411 cc3c fb4e 8a3e ddcb ab3c
000003a0: 9b4a 2f3b 097d 8cbc 8324 acbc 89ab 033d
000003b0: 3aaf 2a3e 628c 273e af3b 6bbe d671 6abe
000003c0: c260 ba3d d79f 0f3c 65a6 40be a578 813e
000003d0: 2263 9e3e b28c 243e 043e f5bd c252 043d
000003e0: 3414 94bb bd9e 1c3e cf87 25be 89b4 e63d
000003f0: 1608 6c3e 3447 cf3d 5a47 71be 157d d3bd
-0.033108637 -0.019683756 -0.5996163 -0.4751094 -0.21469966 -0.2947643 -0.35133338 -0.29891944
-0.12869982 -0.40731764 -0.2419323 0.19690454 0.20574474 -0.033212733 -0.017189171 -0.09906997
-0.112070374 0.07355384 0.13559265 0.24059147 0.076061904 0.1481586 0.3760088 0.30906004
-0.04708779 0.16221851 0.06040186 -0.41105223 0.22456254 -0.027384061 -0.16649094 0.0731457
-0.20529374 -0.1364013 -0.0748373 -0.071724445 -0.35336772 -0.23689176 0.002132047 -0.16226673
0.066343 -0.01986186 0.14478713 0.05923647 0.0003319533 -0.1729693 -0.28614262 -0.36410984
-0.22681832 -0.4594477 0.16449422 -0.01356072 -0.2703069 0.07175393 0.06984442 -0.1632804
-0.2516268 -0.35880816 0.18428278 -0.09338123 -0.008216099 0.08532376 -0.020436745 -0.0931397
-0.021044197 0.06543441 0.008946865 0.107105955 0.04995874 0.04865225 0.45181385 0.43848315
0.02412887 0.072593935 0.1914814 0.21954393 -0.02050702 0.017779244 -0.02513591 0.02547871
0.11859068 0.037926 0.05274823 -0.3487034 -0.10522873 0.20096047 0.22041324 0.25609764
0.10280247 -0.41204867 -0.21355242 -0.6242418 -0.24540359 -0.19725263 -0.6524714 -0.7942648
-0.05224157 -0.4364387 -0.6327921 -0.38886204 -0.00049353146 -0.437981 -0.3346478 -0.8574759
-0.21407221 -0.34166843 0.07607079 -0.09617044 0.031129792 -0.1279508 0.05568871 0.23702762
-0.12822793 -0.05678505 0.064612985 -0.061510507 -0.02345432 -0.022922322 -0.06308745 -0.029640587
-0.11909235 0.25291538 0.044876188 -0.2532952 -0.17115925 -0.038689863 -0.008127049 -0.022855047
0.2432299 0.12954372 -0.09889138 0.23015374 0.024633935 -0.04986554 -0.07833309 -0.06758804
0.28049514 0.03426283 -0.21909906 -0.012100062 -0.118968405 -0.13166434 0.034191787 0.0442307
0.26088798 0.3236777 0.06669351 0.3896876 0.112996735 0.316508 0.20188116 0.09230266
0.042415924 -0.33434433 0.0977904 -0.5141967 -0.17842087 -0.1550314 -0.029731108 0.26609367
0.12979984 -0.3866862 0.048474424 0.01194013 0.13518958 -0.09853233 0.048990645 0.08980609
0.18486108 -0.19657558 -0.21088168 -0.51163954 -0.2980606 0.0650506 0.33023387 0.19622491
0.14567845 0.034011953 0.2427323 0.22616792 -0.3390479 -0.3661775 -0.27005726 0.19204645
0.21618596 -0.06824948 0.28816056 0.14456953 -0.19525298 -0.009989031 -0.1627288 -0.1346918
-0.16610019 -0.60374 -0.095495634 -0.2819214 -0.16929436 0.20985769 0.29409558 -0.3420869
-0.23918603 -0.094766386 0.054511428 -0.15017094 0.25288576 -0.019032968 0.12591109 0.2548074
0.32720205 0.052968554 0.11707976 -0.09040401 0.24178998 0.24639237 0.04756722 0.08791422
-0.03549882 0.19661571 0.38715312 0.17192823 -0.16958107 -0.23594101 -0.06845109 -0.08462796
-0.0583298 -0.06047833 0.334104 0.09687202 0.019383982 0.024910785 0.27013382 0.020971233
0.002674735 -0.017149465 -0.021013504 0.03214601 0.16668406 0.16362146 -0.22971986 -0.22894987
0.09100486 0.008766136 -0.18813474 0.25287357 0.30935007 0.16069296 -0.11974719 0.032305487
-0.00451901 0.15294929 -0.16165088 0.11264903 0.2304996 0.10121003 -0.23562375 -0.10326592

conv6.bias f4 [64]
00000000: 13a9 0a3e 19ab 86bd 7d73 e3bd f645 4c3e
00000010: 766e fcbd c1fa 963e c061 f13d b585 8b3d
00000020: 1b67 0d3e b94a 843d 198d 113e eaf7 933e
00000030: 8c0c f03d e512 98be 3a62 a03d 7f79 8cbe
00000040: fea8 cc3e 492f d9bd ee19 43be 04a8 7c3d
00000050: e7bd 12be 0f46 0a3d 9fd1 87bd d00a e6bd
00000060: f86c 05be f087 a93d 2fdc a1be f195 a23d
00000070: 593d 48be 8646 c2bd ca0d a3be 30b7 8f3d
00000080: 64db 1abe c2ef f3be 02d9 acbe 21a8 f33d
00000090: ca40 0fbe 88b2 1abe 8e29 dfbd fc93 2bbd
000000a0: 94d1 e6bd ff24 5abd bf4b 77be 3ce5 27be
000000b0: 5eb9 0bbe bc69 0f3e daa0 093d a401 7c3e
000000c0: 6883 34be 3d57 f33b 33e1 393e d432 f33d
000000d0: e971 7fbe df68 c0be 78df 87be d213 343e
000000e0: f9f9 a83d c699 5c3e e878 ab3e 7365 9dbd
000000f0: d605 d5be 2c26 2bbe 50e0 a73e 8ff2 b8bd
0.13541059 -0.06575603 -0.11106012 0.19948563 -0.12325756 0.29488185 0.117862225 0.06812612
0.13808863 0.06459565 0.1421398 0.2890008 0.11721143 -0.29701915 0.07831235 -0.27436444
0.3997268 -0.10604722 -0.1905286 0.06168367 -0.14330254 0.03375822 -0.06631779 -0.11232531
-0.1302985 0.08277881 -0.316133 0.07938755 -0.19554652 -0.094861075 -0.31846458 0.07017362
-0.15122753 -0.47643858 -0.33759314 0.118973024 -0.13989559 -0.15107167 -0.10896598 -0.041889176
-0.112704426 -0.05325794 -0.24149989 -0.1639604 -0.1364493 0.14005178 0.033600666 0.24610001
-0.17628253 0.007426171 0.18152313 0.11874929 -0.24945797 -0.3758001 -0.2653768 0.17585686
0.082508035 0.21543035 0.33490682 -0.076853655 -0.41606015 -0.1671378 0.32788324 -0.090306394
