model/model_9.pth (torch_old, 571877 bytes, 24 tensors)

conv1.weight f4 [32, 3, 2, 2]
-0.083716355 -0.09699903 -0.119258314 0.41552672 -0.56768745 0.16631295 -0.094606206 0.46320295
-0.2611379 -0.05320698 0.051759034 0.311301 0.19647716 -0.13845506 0.1150845 0.0022654857
0.05661903 -0.079707675 0.30917674 0.019141871 -0.15488324 -0.26836923 -0.0618086 -0.2618957
-0.106812276 0.05739986 0.14150468 0.24553713 -0.3442261 0.19624993 -0.046695344 0.30886218
0.12729606 -0.20869918 -0.46011785 -0.118350685 0.4187072 -0.013147127 0.094112396 -0.24220607
0.39885595 -0.21302497 0.16844776 -0.18196003 -0.056524556 0.023263393 -0.22125086 -0.14374499
-0.14433792 -0.09336367 -0.36653987 -0.21465155 0.21640229 -0.06591955 0.31826812 0.23697852
-0.025811326 -0.26427367 0.17082204 0.0406711 -0.20552301 0.104663536 0.23078574 0.24674799
-0.19872242 -0.13382515 -0.0039727837 -0.022438053 -0.32827234 -0.3551273 0.1272202 -0.16624846
0.03803241 -0.06964954 -0.056261417 -0.038614772 0.15315145 0.1456505 -0.2151195 0.1850931
-0.1514665 -0.19999681 -0.003728513 -0.09763821 0.23800908 0.05405338 -0.57108784 0.06221719
0.13065796 0.49293613 -0.117724486 -0.2416404 0.24827911 0.32578695 -0.34845725 -0.19869097
0.045706097 -0.28968588 0.1833618 -0.10031692 0.13557096 -0.46052623 0.416347 0.03146069
-0.23161091 -0.40780115 0.5542387 0.10006127 0.14721048 -0.029003754 0.032014146 0.1579291
0.21895067 -0.2763802 0.00633161 0.2192138 0.1480436 0.13916314 -0.20407622 -0.15329061
-0.11148094 0.035270195 0.2969827 -0.26334804 0.17276908 -0.19826849 -0.3228616 -0.12446521
0.1938286 0.24158616 -0.23019221 0.017994639 0.37131163 0.22032249 0.12177048 0.09451385
0.14892145 -0.011130141 -0.47016904 -0.5135314 -0.007707195 0.052154608 -0.27602026 0.047610156
0.019745078 0.02043487 -0.123519614 0.062575795 0.16440564 0.3407335 -0.19085908 0.3863329
-0.13004164 0.03761304 -0.42303413 -0.17548229 -0.3601408 -0.1445912 0.18244025 0.029443521
-0.2627515 0.22036818 0.09572963 0.36005387 -0.31110886 0.062074028 -0.23170903 -0.014859286
-0.5346021 -0.30870637 -0.24643044 0.13723949 -0.054517645 0.07912418 0.3199544 0.47131392
0.06497114 -0.06316359 -0.2112338 0.3473892 0.14452207 0.12746367 -0.21378173 -0.14255813
0.018426264 0.3610802 -0.17401333 -0.2531373 0.114823624 -0.14132047 0.14415625 -0.21229394
0.02748476 -0.09395138 0.34479412 -0.37068415 0.23077053 -0.047982004 0.38003954 -0.47012174
0.19696091 -0.36383983 0.32349467 -0.33191937 -0.03102132 0.13916467 -0.231172 0.20735446
-0.22367647 0.24332808 -0.2092157 0.2886351 -0.6107625 0.17588906 -0.07002255 0.28055692
0.112123094 -0.19209772 -0.17714866 0.29155394 -0.3918898 0.32193947 -0.41802838 -0.18644413
0.2534359 0.017825512 0.015000391 0.415339 0.17050391 0.4295042 -0.2724902 -0.285399
0.29680488 0.1971262 -0.29625472 0.05496203 -0.3405708 0.30617392 -0.20687656 -0.4124496
-0.26852724 -0.05995406 0.16596334 0.046622694 -0.35279885 -0.15188868 -0.4183598 -0.2928222
-0.15871963 0.29843178 0.3808265 0.062139444 -0.0576652 0.1585808 -0.1355902 -0.2533798
00000000: 7b73 abbd 6da7 c6bd b43d f4bd ebbf d43e
00000010: f753 11bf f14d 2a3e e6c0 c1bd f028 ed3e
00000020: deb3 85be 90ef 59bd 4801 543d d862 9f3e
00000030: 4f31 493e 2ac7 0dbe 6cb1 eb3d 8b78 143b
00000040: 5be9 673d c73d a3bd 6a4c 9e3e 6acf 9c3c
00000050: b699 1ebe b167 89be 042b 7dbd 3117 86be
00000060: 65c0 dabd 1e1c 6b3d 9ae6 103e 166e 7b3e
00000070: 673e b0be bef5 483e 9e43 3fbd 2f23 9e3e
00000080: e659 023e 3db5 55be 9194 ebbe d861 f2bd
00000090: ca60 d63e 0c67 57bc 00be c03d de04 78be
000000a0: d936 cc3e 3823 5abe 927d 2c3e bb53 3abe
000000b0: 4b86 67bd df92 be3c 968f 62be e331 13be
000000c0: 52cd 13be 7435 bfbd 1dab bbbe 9ecd 5bbe
000000d0: 9098 5d3e d400 87bd 0af4 a23e 7faa 723e
000000e0: 4672 d3bc e14e 87be f9eb 2e3e bd96 263d
000000f0: a074 52be d659 d63d 1953 6c3e 81ab 7c3e
00000100: e47d 4bbe 7609 09be 202e 82bb 02d0 b7bc
00000110: 5013 a8be 3fd3 b5be 0346 023e 093d 2abe
00000120: dfc7 1b3d 6ba4 8ebd 5f72 66bd 862a 1ebd
00000130: bcd3 1c3e 6825 153e 4948 5cbe 0c89 3d3e
00000140: 091a 1bbe f7cb 4cbe 115a 74bb 8bf6 c7bd
00000150: a7b8 733e 1467 5d3d d032 12bf 74d7 7e3d
00000160: 33cb 053e 2062 fc3e 8919 f1bd 9570 77be
00000170: e13c 7e3e 8ccd a63e fd68 b2be a575 4bbe
00000180: 5136 3b3d b551 94be 32c3 3b3e f572 cdbd
00000190: 1dd3 0a3e 18ca ebbe 6f2b d53e eddc 003d
000001a0: 692b 6dbe 50cb d0be 96e2 0d3f ecec cc3d
000001b0: 58be 163e 4899 edbc 4421 033d 2ab8 213e
000001c0: 9b34 603e b581 8dbe 6579 cf3b 9579 603e
000001d0: be98 173e c880 0e3e 5bf9 50be 37f8 1cbe
000001e0: 1e50 e4bd 7b77 103d 1e0e 983e 8ed5 86be
000001f0: 61ea 303e e506 4bbe 1e4e a5be 9ee7 febd
00000200: 017b 463e 5d62 773e 82b7 6bbe 7e69 933c
00000210: 8f1c be3e 389c 613e cd62 f93d 7a90 c13d
00000220: dd7e 183e 325b 36bc ffb9 f0be cb76 03bf
00000230: a38c fcbb 12a0 553d 8752 8dbe de02 433d
00000240: 6ec0 a13c 0767 a73c daf7 fcbd bd27 803d
00000250: f459 283e 9f74 ae3e 9070 43be 6dcd c53e
00000260: a329 05be 2210 1a3d ee97 d8be a1b1 33be
00000270: 6064 b8be b70f 14be 9ed1 3a3e 8a33 f13c
00000280: 5d87 86be 32a8 613e e50d c43d fb58 b83e
00000290: a949 9fbe 5641 7e3d 2245 6dbe 5d74 73bc
000002a0: afdb 08bf c30e 9ebe 4358 7cbe 8288 0c3e
000002b0: e54d 5fbd dc0b a23d 10d1 a33e 0f50 f13e
000002c0: 970f 853d ea5b 81bd ac4d 58be ffdc b13e
000002d0: 98fd 133e d685 023e 99e9 5abe c2fa 11be
000002e0: adf2 963c 81df b83e 8d30 32be 369b 81be
000002f0: a628 eb3d 50b6 10be b29d 133e 9563 59be
00000300: b827 e13c 9569 c0bd db88 b03e 50ca bdbe
00000310: 1c4f 6c3e c788 44bd 8b94 c23e ccb3 f0be
00000320: 1fb0 493e 3749 babe 18a1 a53e 56f1 a9be
00000330: 6c20 febc 2f81 0e3e 5ab8 6cbe ba54 543e
00000340: 720b 65be ff2a 793e a43c 56be fbc7 933e
00000350: ee5a 1cbf 431c 343e fc67 8fbd 28a5 8f3e
00000360: cba0 e53d 44b5 44be 7566 35be 8f46 953e
00000370: c8a5 c8be 40d5 a43e d107 d6be 36eb 3ebe
00000380: 5ac2 813e cf06 923c 33c4 753c 50a7 d43e
00000390: 9498 2e3e f9e7 db3e d683 8bbe d11f 92be
000003a0: cff6 973e 73db 493e b3ae 97be de1f 613d
000003b0: 4c5f aebe d4c2 9c3e 73d7 53be 982c d3be
000003c0: 677c 89be 6392 75bd 4bf2 293e 70f7 3e3d
000003d0: 0da2 b4be b588 1bbe 4133 d6be cbec 95be
000003e0: 6687 22be 0dcc 983e b1fb c23e ee85 7e3d
000003f0: 5832 6cbd 0163 223e 28d8 0abe ffba 81be

conv1.bias f4 [32]
-0.3776564 -0.06610789 -0.4716359 -0.14805907 -0.3843128 -0.50532985 -0.5657397 0.15608016
0.103806116 -0.34893933 -0.41412926 -0.031178752 -0.09542334 -0.19884706 0.07755558 -0.38134268
-0.069770105 0.12900104 -0.18743995 -0.5295221 -0.49663034 -0.7669758 0.14484385 -0.6114923
0.056707624 -0.11275919 -0.36603037 -0.5042677 0.114061795 -0.47557643 -0.38863242 0.089907944
00000000: 2e5c c1be 9363 87bd 437a f1be cc9c 17be
00000010: a6c4 c4be 4c5d 01bf 51d4 10bf 7ad3 1f3e
00000020: 4d98 d43d 2da8 b2be c008 d4be 956a ffbc
00000030: 506d c3bd 909e 4bbe 76d5 9e3d 593f c3be
00000040: a1e3 8ebd d918 043e 42f0 3fbe c38e 07bf
00000050: 5546 febe 8758 44bf f251 143e c28a 1cbf
00000060: 4146 683d 4aee e6bd 5568 bbbe b017 01bf
00000070: 3b99 e93d c17e f3be d4fa c6be a821 b83d

conv2.weight f4 [32, 32, 2, 2]
-0.23266505 0.11804909 -0.11234779 -0.084624685 0.026266191 0.048637502 -0.064132094 0.026043478
-0.02391326 0.025321681 -0.18688257 -0.16174245 -0.12095737 -0.08438543 -0.05498594 -0.10681212
-0.0783782 0.042473182 -0.09817485 -0.19667546 -0.04507079 0.050696824 -0.046955165 0.07126525
0.03261708 0.13724111 -0.122111246 0.015886733 -0.32832453 -0.3353512 -0.08513108 -0.48070332
0.123281695 0.10761626 0.15883121 0.2867127 0.07441659 -0.12117187 0.09132753 0.06689916
-0.10315799 0.06361928 0.06260315 -0.0431496 -0.041407168 -0.2589797 0.15109336 -0.17739819
0.15055948 -0.018480571 0.06521565 -0.1848328 0.044286508 0.06835722 -0.00064493663 -0.11969603
0.10435036 0.0027752689 0.15435813 0.124577306 -0.003173626 0.3233174 -0.08173143 -0.08882625
0.15911146 -0.011125224 -0.20133069 -0.00057677424 0.040565334 -0.22975042 0.056013543 0.013374951
0.06819677 0.07582927 -0.072405 -0.1884512 -0.1363056 -0.24370556 0.070287205 0.109806776
0.26661426 0.3404451 -0.45788348 -0.20685777 -0.26451167 -0.12705886 -0.040085785 -0.20374563
-0.13990949 -0.010646905 -0.04608786 -0.021068348 0.4905124 0.22422324 -0.24320024 -0.29792944
-0.27774674 0.10689833 0.10346399 -0.30700222 0.11936059 0.107998386 -0.20102155 -0.23409727
-0.06012911 0.24551837 0.063220605 -0.049795028 -0.08372728 0.09861724 -0.0134669 0.030440819
0.15248296 0.16385192 0.1977005 0.3267644 0.052238673 0.25518125 -0.32898727 -0.14094868
-0.29616317 0.1820997 -0.15538768 0.077027395 0.17589712 -0.060782343 0.0966273 0.10205602
-0.21873248 -0.11793304 -0.15955533 -0.27624178 -0.40215096 -0.23798436 -0.31447676 -0.347594
-0.36599606 -0.45803198 -0.5435289 -0.30704045 -0.22629397 -0.41885507 -0.42880043 -0.4320758
-0.23219948 -0.27358678 -0.23674203 -0.31522703 0.1643228 0.18899594 0.15399703 0.21515031
-0.35067278 -0.31040302 -0.28663003 -0.27335167 -0.35855794 -0.33365822 -0.53752947 -0.39146876
-0.47037488 -0.13587351 -0.4611305 -0.36822152 -0.019996582 0.014346335 -0.14106111 0.04653815
0.02730833 -0.073098294 0.0147404075 0.11679275 0.085845284 0.1099424 0.093574874 0.18169607
-0.43262577 -0.58227104 -0.67127985 -0.504645 -0.10326494 -0.16651206 -0.117365725 -0.13737671
-0.18662119 -0.33229035 -0.08226475 -0.19751145 0.22368647 0.17999585 0.25193143 0.26485696
-0.25282985 -0.046975322 -0.07789021 -0.078965425 -0.21422885 -0.27239603 -0.20198822 -0.27300185
0.018672144 0.020338502 0.089125596 0.032735184 -0.18355337 -0.26660246 -0.012731452 -0.13164216
0.31829634 0.3745662 0.30705652 0.42498943 0.20390733 0.0069043827 0.28374636 0.02840944
-0.38269228 -0.39076966 -0.5673939 -0.3213725 -0.2516676 -0.2968712 -0.29566932 -0.28526884
-0.4866114 -0.44063744 -0.6255391 -0.45653194 0.0839448 -0.035795856 -0.06038049 -0.010339641
-0.22242345 -0.17606641 -0.17646238 -0.026006915 -0.048276212 0.0025139728 0.007209042 -0.012542607
-0.18823205 -0.0031647922 -0.09220306 -0.07454519 -0.054440327 -0.0014182084 -0.19491068 -0.036232207
-0.07299358 -0.05341043 0.034425218 0.01927316 -0.49417228 -0.3327106 -0.3744825 -0.41241646
00000000: bf3f 6ebe b9c3 f13d 9916 e6bd b54f adbd
00000010: 322c d73c 1e38 473d b057 83bd 2259 d53c
00000020: bee5 c3bc 6a6f cf3c 255e 3fbe d09f 25be
00000030: 7fb8 f7bd 45d2 acbd f038 61bd 50c0 dabd
00000040: c084 a0bd 5cf8 2d3d e50f c9bd 4b65 49be
00000050: 269c 38bd 79a7 4f3d 0f54 40bd 84f3 913d
00000060: 7d99 053d ef88 0c3e 7615 fabd e524 823c
00000070: 271a a8be 27b3 abbe 3459 aebd bf1e f6be
00000080: 1d7b fc3d ea65 dc3d a6a4 223e 02cc 923e
00000090: ba67 983d f528 f8bd ee09 bb3d 6d02 893d
000000a0: 7f44 d3bd d34a 823d 1536 803d a3bd 30bd
000000b0: 909a 29bd fd98 84be 38b8 1a3e dfa7 35be
000000c0: 442c 1a3e 9164 97bc c88f 853d cf44 3dbe
000000d0: c565 353d dffe 8b3d f710 29ba 3123 f5bd
000000e0: a4b5 d53d 49e1 353b 0f10 1e3e 6322 ff3d
000000f0: 9cfc 4fbb dc89 a53e cf62 a7bd 89ea b5bd
00000100: 1dee 223e 9246 36bc a229 4ebe aa32 17ba
00000110: d627 263d b243 6bbe 756e 653d 9c22 5b3c
00000120: c0aa 8b3d 604c 9b3d 1349 94bd 5af9 40be
00000130: b293 0bbe f38d 79be bdf2 8f3d 60e2 e03d
00000140: aa81 883e d24e ae3e b46f eabe 86d2 53be
00000150: 136e 87be b81b 02be fe30 24bd b2a2 50be
00000160: 6f44 0fbe 5b70 2ebc a0c6 3cbd 8797 acbc
00000170: 7124 fb3e c79a 653e 7c09 79be 358a 98be
00000180: d234 8ebe 83ed da3d eee4 d33d 652f 9dbe
00000190: 5373 f43d 422e dd3d 98d8 4dbe 32b7 6fbe
000001a0: f149 76bd 2b69 7b3e ce79 813d dff5 4bbd
000001b0: 3579 abbd d6f7 c93d 46a4 5cbc 065f f93c
000001c0: 7e24 1c3e ccc8 273e 0072 4a3e aa4d a73e
000001d0: 38f8 553d 1ea7 823e 0571 a8be da54 10be
000001e0: b3a2 97be 5878 3a3e f31d 1fbe 8ac0 9d3d
000001f0: 601e 343e e8f6 78bd 89e4 c53d bf02 d13d
00000200: 68fb 5fbe e186 f1bd 7962 23be 906f 8dbe
00000210: bbe6 cdbe 2cb2 73be 1903 a1be d7f7 b1be
00000220: d663 bbbe 2b83 eabe b624 0bbf 6834 9dbe
00000230: 9bb9 67be 2c74 d6be bb8b dbbe 0a39 ddbe
00000240: b3c5 6dbe 9113 8cbe 816c 72be 7065 a1be
00000250: 3c44 283e 2788 413e 66b1 1d3e 5d50 5c3e
00000260: 628b b3be 25ed 9ebe 2cc1 92be c0f4 8bbe
00000270: e894 b7be 40d5 aabe 889b 09bf 986e c8be
00000280: fad4 f0be 6d22 0bbe 4c19 ecbe 8887 bcbe
00000290: dfcf a3bc e40c 6b3c 5372 10be ca9e 3e3d
000002a0: b8b5 df3c 8fb4 95bd c081 713c 0a31 ef3d
000002b0: a7cf af3d 7b29 e13d 2fa4 bf3d 890e 3a3e
000002c0: 2081 ddbe b70f 15bf ffd8 2bbf 6a30 01bf
000002d0: 927c d3bd 2382 2abe 715d f0bd 7bac 0cbe
000002e0: a019 3fbe f621 aabe 6c7a a8bd 7140 4abe
000002f0: 110e 653e d550 383e 28fd 803e 559b 873e
00000300: ea72 81be 3269 40bd e784 9fbd a0b8 a1bd
00000310: cf5e 5bbe 7e77 8bbe 00d6 4ebe e6c6 8bbe
00000320: 53f6 983c ee9c a63c 7b87 b63d 5415 063d
00000330: 6af5 3bbe 1e80 88be 9497 50bc 34cd 06be
00000340: bdf7 a23e 24c7 bf3e 8336 9d3e 3798 d93e
00000350: 15cd 503e 293e e23b 3447 913e eaba e83c
00000360: 3ef0 c3be f612 c8be ba40 11bf f08a a4be
00000370: 93da 80be 80ff 97be f861 97be c20e 92be
00000380: 2125 f9be 3b9b e1be 5523 20bf 8ebe e9be
00000390: 40eb ab3d ad9e 12bd 8851 77bd 9967 29bc
000003a0: f9c2 63be c14a 34be 8eb2 34be 740c d5bc
000003b0: 47bd 45bd 77c1 243b d439 ec3b 827f 4dbc
000003c0: e7bf 40be 6768 4fbb f5d4 bcbd 26ab 98bd
000003d0: d2fc 5ebd 2de3 b9ba aa96 47be 3968 14bd
000003e0: a87d 95bd e5c4 5abd 7501 0d3d bfe2 9d3c
000003f0: 2604 fdbe 0b59 aabe 2cbc bfbe 4028 d3be

conv2.bias f4 [32]
0.051267743 -0.09974685 -0.10620877 -0.15136816 0.13734156 -0.09038321 -0.14534537 0.13165851
-0.061271142 0.1461516 -0.20295712 0.1739077 0.108264945 -0.13164438 -0.45792085 -0.1149933
0.010507801 0.0034022264 0.050956942 0.12447283 0.035342447 -0.21041523 0.053268563 0.12254763
-0.0899656 0.19128554 0.04577295 -0.12504102 -0.0034835134 0.18815255 0.27233112 -0.15473646
00000000: 20fe 513d 1448 ccbd fc83 d9bd 4100 1bbe
00000010: 44a3 0c3e d51a b9bd 6bd5 14be 7dd1 063e
00000020: 73f7 7abd c4a8 153e fed3 4fbe dc14 323e
00000030: 03ba dd3d c9cd 06be 9a74 eabe 9b81 ebbd
00000040: e928 2c3c e3f7 5e3b 3ab8 503d 9ceb fe3d
00000050: 3ec3 103d 1777 57be 2330 5a3d 40fa fa3d
00000060: e23f b8bd 5be0 433e 6b7c 3b3d c10a 00be
00000070: a84b 64bb 10ab 403e fc6e 8b3e 3c73 1ebe

conv3.weight f4 [64, 32, 2, 2]
-0.0954363 0.091438085 0.01273676 0.2927573 0.03429523 -0.22518514 0.22960475 -0.21333678
0.059657857 0.0732221 0.090541326 0.030058619 0.032770418 -0.05884943 0.01451909 -0.03322069
-0.3679988 -0.33489037 -0.22451232 -0.2871914 -0.071721755 0.0482938 -0.0583845 0.04123001
0.029881464 -0.03259451 -0.046439733 -0.06557164 -0.12941709 -0.2108761 -0.3062542 -0.4254814
-0.028951067 -0.09234055 0.026125025 -0.025187235 0.27659526 -0.06483041 0.24208722 -0.39721605
0.18221815 0.30929568 0.22498578 0.3010154 0.061133396 0.0981628 0.031207817 0.052096922
-0.0042496575 -0.35004178 0.3875795 -0.044000268 0.1828634 0.19636598 -0.04881833 -0.4671623
-0.12905794 -0.05382501 -0.035004504 -0.23591281 0.11429968 0.076116815 0.058635883 0.049263272
0.06797692 0.060166467 0.08840685 -0.010289012 0.045851063 0.06817737 -0.10906271 -0.098661736
0.1529771 -0.013726888 -0.13360037 -0.03787104 0.26815194 -0.03323716 0.113984115 0.028974723
-0.25371334 0.07373883 0.04690206 0.17311262 0.19583774 0.15498585 -0.04043014 0.099057384
-0.11966149 -0.029742723 -0.08219673 -0.03718832 -0.39121163 -0.13058968 0.36242393 0.21232817
0.15044361 -0.22322777 0.28397962 -0.20198557 0.39557135 -0.20425887 0.016723333 -0.34290296
0.08477296 -0.15409498 -0.19879037 -0.120802246 0.06716719 0.012745498 -0.079393454 -0.010751064
0.015974198 0.030567935 0.094822675 0.04529261 0.24370407 -0.10502184 0.13340348 -0.018586092
0.042215575 0.24796885 0.100652054 0.2038818 0.010108359 0.016236404 0.1057284 -0.04419579
-0.18332145 -0.54705083 0.08938914 0.0061745634 0.21918723 -0.10315765 0.25370473 0.20066221
0.037951894 0.002729123 -0.10473322 -0.08102397 -0.06297825 -0.10160633 0.03639583 0.05983155
-0.05757258 -0.1274772 -0.16794518 -0.056569993 -0.007380301 -0.02563022 -0.025537461 0.06001095
-0.01475258 0.025620101 0.05798407 0.036786813 -0.012370997 -0.27304405 0.045850158 -0.141961
-0.008587695 0.013878811 -0.014573884 -0.018927868 0.108187556 0.15685593 -0.09076672 -0.2123895
-0.05791533 0.051356863 -0.2559706 -0.12164774 0.04565198 -0.35125235 0.25761676 -0.0695541
0.18948744 0.2300359 -0.1012022 -0.21722944 0.11730565 0.09750255 0.13320227 0.27159038
-0.32933196 -0.045761567 -0.24447212 0.03879709 -0.030785486 0.07717635 -0.038239058 0.02102909
0.1603399 0.015201756 -0.009853667 0.051775362 -0.016004778 -0.06857414 -0.076618776 0.08034685
0.03235748 -0.013375029 -0.38515738 -0.19088364 -0.12033551 0.04879633 -0.5551216 -0.09054791
-0.14488533 -0.018675169 -0.33482948 -0.36442667 -0.055412583 -0.022940414 0.02364467 0.1289879
0.04071896 0.07229822 0.06936323 0.16639425 -0.23610476 -0.27887285 0.16468793 -0.012676906
0.23240384 0.26443374 -0.110191375 0.0017791963 0.22083874 0.13900009 -0.13358967 -0.20133844
-0.28939334 -0.7260164 -0.23755585 -0.46767822 0.017388474 -0.075360045 0.037650168 0.082027785
0.19420539 0.07815986 -0.33142856 -0.11541959 0.07377311 0.21168232 -0.20569274 0.06183478
0.14618608 0.11268031 0.08742842 -0.64879 -0.054241188 0.031608474 -0.05865214 0.006087274
00000000: 1b74 c3bd e443 bb3d d8ad 503c 49e4 953e
00000010: 2879 0c3d ef96 66be 821d 6b3e f574 5abe
00000020: cc5b 743d 78f5 953d bb6d b93d 7e3d f63c
00000030: 463a 063d 1a0c 71bd 7ae1 6d3c 6b12 08bd
00000040: 576a bcbe c076 abbe 8fe6 65be c00a 93be
00000050: dbe2 92bd b8cf 453d 9624 6fbd cde0 283d
00000060: f9c9 f43c d281 05bd 9737 3ebd 6d4a 86bd
00000070: ea85 04be e8ef 57be 5acd 9cbe b3d8 d9be
00000080: ca2a edbc 0b1d bdbd 2604 d63c 7655 cebc
00000090: e59d 8d3e cec5 84bd b6e5 773e e75f cbbe
000000a0: 6597 3a3e 015c 9e3e ac62 663e b11e 9a3e
000000b0: 0367 7a3d 9409 c93d 89a7 ff3c 9563 553d
000000c0: b640 8bbb ad38 b3be d270 c63e a039 34bd
000000d0: 8b40 3b3e 2a14 493e bbf5 47bd e62f efbe
000000e0: c427 04be 9d77 5cbd e260 0fbd 2193 71be
000000f0: f315 ea3d 22e3 9b3d 2e2c 703d 49c8 493d
00000100: 7c37 8b3d 1d71 763d a70e b53d 3f93 28bc
00000110: 53ce 3b3d 94a0 8b3d 455c dfbd 2a0f cabd
00000120: 07a6 1c3e bee6 60bc 89ce 08be aa1e 1bbd
00000130: 364b 893e b023 08bd 8170 e93d 665c ed3c
00000140: b7e6 81be 6204 973d 601c 403d 6f44 313e
00000150: b089 483e 9cb4 1e3e 139a 25bd 99de ca3d
00000160: 1511 f5bd 03a7 f3bc c256 a8bd c852 18bd
00000170: e44c c8be 4db9 05be a18f b93e 8e6c 593e
00000180: e40d 1a3e d295 64be c765 913e 4ed5 4ebe
00000190: 5488 ca3e 3d29 51be 5fff 883c fa90 afbe
000001a0: 729d ad3d 13cb 1dbe b48f 4bbe 2b67 f7bd
000001b0: f48e 893d 7ed2 503c 0999 a2bd 3b25 30bc
000001c0: 52dc 823c 9b69 fa3c 6432 c23d be84 393d
000001d0: 8f8d 793e b115 d7bd ec9a 083e dc41 98bc
000001e0: 3dea 2c3d 8ceb 7d3e aa22 ce3d 64c6 503e
000001f0: 889d 253c 3502 853c 2288 d83d a506 35bd
00000200: 9eb8 3bbe 860b 0cbf a711 b73d fe53 ca3b
00000210: 9e72 603e 5144 d3bd 96e5 813e 657a 4d3e
00000220: 7273 1b3d 16db 323b 5f7e d6bd e5ef a5bd
00000230: befa 80bd fb16 d0bd cb13 153d ed11 753d
00000240: 3ad1 6bbd 6289 02be d2f9 2bbe f0b5 67bd
00000250: 74d6 f1bb 78f6 d1bc f033 d1bc 0bce 753d
00000260: ceb4 71bc 3fe1 d13c b480 6d3d c5ad 163d
00000270: b9af 4abc 6ecc 8bbe 60cd 3b3d 395e 11be
00000280: 67b3 0cbc f463 633c 4dc7 6ebc 9e0e 9bbc
00000290: 7091 dd3d d79e 203e e7e3 b9bd a27c 59be
000002a0: a038 6dbd 935b 523d 940e 83be 7322 f9bd
000002b0: 92fd 3a3d 59d7 b3be 58e6 833e 6172 8ebd
000002c0: ff08 423e 888e 6b3e 1943 cfbd 6571 5ebe
000002d0: f23d f03d 6baf c73d 2d66 083e e50d 8b3e
000002e0: 339e a8be 7b70 3bbd e656 7abe b3e9 1e3d
000002f0: d831 fcbc a20e 9e3d 8fa0 1cbd 3345 ac3c
00000300: 2530 243e c910 793c 4671 21bc 6712 543d
00000310: 741c 83bc 9970 8cbd 4eea 9cbd e48c a43d
00000320: 4789 043d f022 5bbc 5933 c5be 0077 43be
00000330: 7772 f6bd a9de 473d 731c 0ebf 2f71 b9bd
00000340: d25c 14be abfc 98bc c56e abbe 2296 babe
00000350: 4ef8 62bd 89ed bbbc 78b2 c13c 6715 043e
00000360: edc8 263d 1711 943d 4f0e 8e3d 4163 2a3e
00000370: 72c5 71be 6cc8 8ebe f4a3 283e ccb2 4fbc
00000380: 46fb 6d3e dc63 873e 04ac e1bd ec33 e93a
00000390: 8d23 623e 0a56 0e3e bbcb 08be aa2b 4ebe
000003a0: 5d2b 94be 36dc 39bf d741 73be 8573 efbe
000003b0: 4672 8e3c 5e56 9abd 1037 1a3d 2ffe a73d
000003c0: c7dd 463e 4712 a03d 01b1 a9be 1b61 ecbd
000003d0: 5b16 973d 40c3 583e 1ea1 52be 7746 7d3d
000003e0: ceb1 153e efc4 e63d ac0d b33d 1a17 26bf
000003f0: 022c 5ebd e377 013d 3a3d 70bd c177 c73b

conv3.bias f4 [64]
-0.010328936 0.36405513 0.1528494 -0.40876547 0.019672737 -0.0104306 0.12409587 -0.0965513
0.1374617 0.13097765 -0.36746678 -0.08891626 0.046983596 -0.116277836 0.10731109 0.13866092
-0.044736344 0.040773388 0.040967718 0.06052209 0.12926039 -0.013266071 -0.4610403 -0.14011382
-0.008587248 -0.16341771 0.38140094 0.07768793 0.25202513 0.1524757 0.12894788 0.22369918
-0.09579518 0.22349246 -0.09467478 -0.21829814 0.044986203 0.22270176 -0.22592019 0.024122871
0.080476016 0.18677391 0.028161353 -0.16641876 0.04590105 -0.04644092 0.058666077 0.107338116
-0.06496513 -0.06406411 0.07804115 -0.09519822 0.061267734 -0.18482994 0.13357797 -0.005216457
-0.14482085 0.01451165 -0.10980564 -0.20040765 0.10034372 -0.005878645 -0.1532857 -0.053703126
00000000: b33a 29bc 6f65 ba3e 8e84 1c3e b549 d1be
00000010: b828 a13c 1be5 2abc fa25 fe3d b0bc c5bd
00000020: c3c2 0c3e 011f 063e 9b24 bcbe ba19 b6bd
00000030: df71 403d 1323 eebd ebc5 db3d 21fd 0d3e
00000040: 753d 37bd ff01 273d c4cd 273d 03e6 773d
00000050: d65c 043e ef59 59bc 790d ecbe ff79 0fbe
00000060: 87b1 0cbc f956 27be fc46 c33e d91a 9f3d
00000070: 7009 813e 9722 1c3e ea0a 043e 6611 653e
00000080: 4330 c4bd 35db 643e dae4 c1bd 8c89 5fbe
00000090: 7443 383d ee0b 643e 9f57 67be 549d c53c
000000a0: 9cd0 a43d a941 3f3e a3b2 e63c ae69 2abe
000000b0: bd02 3c3d d638 3ebd d74b 703d 16d4 db3d
000000c0: 700c 85bd 0b34 83bd 0ad4 9f3d 49f7 c2bd
000000d0: e0f3 7a3d 0f44 3dbe aac8 083e d0ee aabb
000000e0: eb4b 14be 46c2 6d3c c8e1 e0bd aa37 4dbe
000000f0: 0281 cd3d a6a1 c0bb edf6 1cbe cff7 5bbd

conv4.weight f4 [64, 64, 2, 2]
0.054951884 -0.18871146 -0.1017625 -0.5548306 -0.20212252 0.26414207 -0.21326579 0.06771251
-0.40699956 0.09417523 -0.28648543 -0.0349749 -0.10979916 -0.20034386 -0.15059344 -0.18506448
0.12879167 0.12159463 0.06505223 -0.34233767 -0.26848438 -0.33884725 -0.10570647 -0.18598871
0.011370333 -0.5748457 0.1640168 -0.14001182 -0.078025624 0.011143304 0.20161231 0.014425692
0.18170811 -0.17739983 0.30768707 0.044641912 -0.18783352 -0.26410842 -0.08666175 -0.10485101
-0.14723918 0.032781478 -0.30847818 -0.40188575 -0.44867676 0.11990545 -0.48847255 -0.42077473
-0.37079352 0.043162655 -0.0947348 -0.25363582 -0.04494638 -0.062633865 0.06711663 -0.094005436
0.24431542 -0.021736724 0.4638879 0.27418956 -0.1458069 -0.20775206 0.27144846 -0.00901801
-0.07947502 0.08278786 -0.3076955 0.0037276233 -0.17467423 -0.020939289 -0.09757562 -0.3584087
0.13883871 -0.17224841 0.030763078 0.08446664 -0.37984234 -0.122723535 -0.2642601 -0.1056317
-0.13273957 0.3687398 0.006365305 0.11157448 -0.376665 0.4924659 0.050912816 -0.014664355
0.028358838 0.027493075 -0.30740738 0.072301194 -0.027955234 0.042950787 0.034015637 0.084612645
-0.49216336 -0.1124457 -0.19126989 0.2948399 0.031750347 0.28275564 -0.13674223 0.15797305
0.120487474 -0.19467475 0.24043828 -0.069794126 -0.2279958 -0.51553243 -0.15173142 -0.35168654
-0.16464147 -0.47030276 0.06519448 -0.21013634 -0.16426021 -0.22123972 -0.53987193 -0.36819243
0.043619666 0.27858552 0.035769835 -0.23688392 -0.13872598 0.20301917 -0.22156565 0.09166551
-0.19995253 -0.14482158 -0.19929075 -0.18204877 0.089356445 -0.33936104 0.03215943 0.17564371
0.08943345 -0.12885109 -0.2416618 0.19031195 -0.14143713 0.044342965 -0.10830866 0.015162157
-0.09711513 -0.08259008 0.17414811 0.16342334 0.08240331 0.047696218 0.16229534 0.031017644
-0.16608599 0.013912889 -0.50857085 -0.54070944 -0.3098923 0.1452433 -0.3138793 -0.11349517
-0.19083369 0.19849373 -0.22915897 0.29451624 -0.20495735 0.022089325 -0.05015896 -0.06804165
0.14446273 -0.127874 -0.10464374 -0.26425993 -0.062022813 -0.04994573 -0.033401646 0.0019466849
0.08427519 0.080323 0.006289258 0.34790996 -0.11176446 0.026782166 -0.37772244 -0.12089252
0.017992277 -0.38252348 0.24819863 -0.37388304 0.13215318 -0.5655466 0.19632597 -0.07919287
-0.30323845 0.24100156 -0.16004154 0.092111796 -0.041765057 -0.24812782 0.36889705 -0.13691743
0.17955273 -0.14621975 0.361969 0.12642114 -0.08458248 0.03763355 0.034837198 0.069431156
0.1200627 0.03346141 0.25522518 0.2531935 0.20445682 -0.40661302 -0.042870495 -0.10049269
0.31440747 -0.22567958 0.37973738 0.3534738 -0.26313955 -0.19767688 -0.10894753 0.028984735
0.15120302 0.19343472 -0.13715325 0.32974884 -0.28235424 0.16848807 -0.41095966 -0.08902111
-0.11336064 0.15490697 0.079089314 -0.3574889 -0.094780676 -0.0970034 0.011188057 0.008777248
0.03255799 -0.25386965 0.32566482 -0.3733731 0.004188079 -0.38465685 0.17623144 0.0045659854
-0.24875313 0.087798655 -0.10065585 -0.22044411 -0.16593279 0.16550359 -0.19715816 0.14883685
00000000: 3a15 613d 943d 41be dc68 d0bd 6109 0ebf
00000010: 35f9 4ebe a13d 873e 5962 5abe dbac 8a3d
00000020: 3f62 d0be f1de c03d 38ae 92be d741 0fbd
00000030: 62de e0bd f126 4dbe 2b35 1abe 8b81 3dbe
00000040: f7e1 033e 9b06 f93d 1b3a 853d e246 afbe
00000050: c976 89be 637d adbe a27c d8bd d373 3ebe
00000060: a24a 3a3c 1629 13bf 05f4 273e 425f 0fbe
00000070: e6cb 9fbd 6892 363c 7573 4e3e bd59 6c3c
00000080: b111 3a3e 4da8 35be 2989 9d3e 70da 363d
00000090: 6e57 40be 3839 87be b77b b1bd 20bc d6bd
000000a0: dec5 16be df45 063d daf0 9dbe f8c3 cdbe
000000b0: f6b8 e5be fd90 f53d 1319 fabe c96f d7be
000000c0: a6d8 bdbe 53cb 303d 5204 c2bd 8edc 81be
000000d0: b219 38bd 2f46 80bd 7274 893d ec85 c0bd
000000e0: d22d 7a3e 3711 b2bc b782 ed3e 9362 8c3e
000000f0: 674e 15be f5bc 54be 4bfb 8a3e 47c0 13bc
00000100: cdc3 a2bd ae8c a93d 448a 9dbe 244b 743b
00000110: cddd 32be df88 abbc bad5 c7bd 5881 b7be
00000120: bc2b 0e3e e361 30be da02 fc3c d9fc ac3d
00000130: b27a c2be 7a56 fbbd 1a4d 87be 6f55 d8bd
00000140: e2ec 07be 77cb bc3e 0c94 d03b 2981 e43d
00000150: 3cda c0be 7e24 fc3e f589 503d c342 70bc
00000160: cb50 e83c 2839 e13c 8064 9dbe a612 943d
00000170: 6002 e5bc 2aed 2f3d fb53 0b3d 6549 ad3d
00000180: d6fc fbbe ee49 e6bd 41dc 43be 41f5 963e
00000190: a70c 023d 59c5 903e 2806 0cbe b0c3 213e
000001a0: 23c2 f63d d158 47be 7435 763e 39f0 8ebd
000001b0: bb77 69be eff9 03bf 7b5f 1bbe 4210 b4be
000001c0: c697 28be 86cb f0be af84 853d fb2d 57be
000001d0: d433 28be aa8c 62be 0c35 0abf b883 bcbe
000001e0: 89aa 323d c3a2 8e3e 6483 123d b391 72be
000001f0: 2f0e 0ebe 42e4 4f3e 1be2 62be 20bb bb3d
00000200: 5bc0 4cbe 1c4c 14be e012 4cbe fe6a 3abe
00000210: 8300 b73d bbc0 adbe 9bb9 033d f2db 333e
00000220: e228 b73d 8af1 03be 3176 77be 23e1 423e
00000230: e5d4 10be f8a0 353d eed0 ddbd b26a 783c
00000240: 4ce4 c6bd fd24 a9bd e253 323e 7358 273e
00000250: 11c3 a83d 1c5d 433d c030 263e b718 fe3c
00000260: 7212 2abe e3f2 633c b331 02bf ef6b 0abf
00000270: 34aa 9ebe a9ba 143e cab4 a0be 2870 e8bd
00000280: e869 43be f141 4b3e a6a8 6abe d5ca 963e
00000290: 57e0 51be acf4 b43c 7b73 4dbd 6c59 8bbd
000002a0: 0aee 133e 67f1 02be 754f d6bd 144d 87be
000002b0: a20b 7ebd e593 4cbd 2ad0 08bd e827 ff3a
000002c0: 7998 ac3d 6380 a43d 1f16 ce3b 4121 b23e
000002d0: c4e4 e4bd 4666 db3c d664 c1be 7f96 f7bd
000002e0: 8a64 933c 1eda c3be c827 7e3e 996d bfbe
000002f0: 2a53 073e a9c7 10bf ad09 493e df2f a2bd
00000300: 1242 9bbe 1dc9 763e eee1 23be 1ca5 bc3d
00000310: d611 2bbd 3815 7ebe 13e0 bc3e 1534 0cbe
00000320: acdc 373e a1ba 15be 0054 b93e 8b74 013e
00000330: 9439 adbd a325 1a3d 73b1 0e3d ec31 8e3d
00000340: 6fe3 f53d d50e 093d e0ac 823e 94a2 813e
00000350: 215d 513e 952f d0be f998 2fbd 1dcf cdbd
00000360: 04fa a03e 8c18 67be f06c c23e 85fa b43e
00000370: 3aba 86be cf6b 4abe e21f dfbd 6571 ed3c
00000380: f7d4 1a3e c013 463e e771 0cbe d7d4 a83e
00000390: bc90 90be 2388 2c3e 4e69 d2be b350 b6bd
000003a0: a029 e8bd ef9f 1e3e 94f9 a13d c908 b7be
000003b0: 5f1c c2bd b8a9 c6bd 1d4e 373c 72ce 0f3c
000003c0: 875b 053d 34fb 81be 8abd a63e c22a bfbe
000003d0: 273c 893b bef1 c4be 0476 343e 439e 953b
000003e0: 24b9 7ebe c8cf b33d a724 cebd 1abc 61be
000003f0: 49ea 29be c679 293e d4e3 49be b068 183e

conv4.bias f4 [64]
-0.06685563 -0.08026837 -0.01619612 -0.10206627 0.096291974 0.14750347 0.009121758 -0.061050575
-0.13873297 0.2251229 -0.09704897 -0.032067433 0.11108397 0.2789501 0.11468708 0.17649247
0.008916976 -0.13887265 0.14643228 0.024704685 0.3704699 0.065006964 -0.3161365 -0.047006898
-0.09143971 0.15391342 -0.08908257 0.3152897 0.075135484 0.1389558 -0.15027507 0.07485721
0.26041678 0.14405638 -0.1237342 -0.1374693 -0.061142635 -0.24611433 -0.2857274 -0.24165775
0.055381358 -0.31709522 0.0103021 0.07051561 0.1216471 -0.059741806 0.10744911 -0.14539792
0.14516447 -0.18209188 -0.09501727 0.009422887 0.16176358 0.27469635 0.24495296 -0.10358244
-0.030784898 0.039175607 -0.063975796 -0.067151986 0.13529018 0.18306085 -0.10564591 -0.071956225
00000000: 9beb 88bd be63 a4bd baad 84bc 1f08 d1bd
00000010: ba34 c53d 260b 173e 6d73 153c 2b10 7abd
00000020: 0410 0ebe 9e86 663e 9cc1 c6bd 2459 03bd
00000030: fe7f e33d 8cd2 8e3e 0fe1 ea3d 71ba 343e
00000040: 8218 123c a234 0ebe 58f2 153e 7b61 ca3c
00000050: 3bae bd3e 5f22 853d a5dc a1be 4e8a 40bd
00000060: be44 bbbd 7b9b 1d3e ec70 b6bd a76d a13e
00000070: a2e0 993d 6e4a 0e3e b5e1 19be bd4e 993d
00000080: 5955 853e 8483 133e 5b68 fdbd c1c4 0cbe
00000090: b370 7abd 6505 7cbe dd4a 92be 2175 77be
000000a0: 90d7 623d 4e5a a2be 24ca 283c 7d6a 903d
000000b0: 1d22 f93d d3b3 74bd 470e dc3d 31e3 14be
000000c0: ffa5 143e 4b76 3abe 6a98 c2bd 7462 1a3c
000000d0: 5aa5 253e 00a5 8c3e f3d4 7a3e 0823 d4bd
000000e0: 9c30 fcbc 9a76 203d be05 83bd fb86 89bd
000000f0: 8289 0a3e 4e74 3b3e e25c d8bd c95d 93bd

conv5.weight f4 [128, 64, 2, 2]
-0.04902463 -0.2010244 -0.12008113 -0.23670216 0.020847756 -0.05123222 0.026554182 -0.084565185
0.16233096 0.0067613646 0.19302012 -0.22416897 -0.2021826 0.042963784 -0.24389006 -0.12631379
-0.42727306 -0.5364381 -0.16473708 -0.32868624 -0.35854146 0.02834818 -0.15073061 -0.15968846
-0.1557145 0.012835416 0.05995614 0.056339357 -0.25498527 -0.24786894 -0.17946123 -0.012047779
-0.07893512 -0.43219694 -0.070751265 -0.075737886 0.17042047 -0.02676517 0.29937738 -0.07062664
-0.15912482 -0.33273667 0.027984915 0.112470865 -0.44613665 -0.044910245 0.012984956 0.27072594
-0.21072695 -0.7617823 -0.073381014 -0.12858029 -0.25421512 -0.06057951 -0.2166592 0.029606396
-0.036230028 -0.20829646 -0.40018755 0.2144392 -0.28212824 0.10988843 0.052878473 -0.02135879
0.2683884 0.17765689 -0.5102943 -0.339243 -0.0030755335 0.013189336 0.014591348 0.05747976
0.032573476 0.24634384 -0.334056 -0.20005167 0.11488399 -0.14884833 0.07272831 0.20460205
0.11079075 -0.019716104 0.09801204 0.03757351 -0.024666762 -0.075538725 -0.06280574 0.13405386
-0.3349668 0.04444043 -0.009013944 0.33029595 -0.4027182 -0.2914112 0.08676418 0.0015497772
-0.072994895 -0.0319835 -0.075987674 -0.08296072 -0.15980963 -0.22024074 0.32356554 0.16033623
-0.016219376 -0.063770115 0.20713095 -0.48524702 0.46222082 -0.04966919 0.2166639 0.12664993
0.14656645 0.0015476374 0.627919 -0.064742215 0.17535438 0.2746341 0.3087569 0.30558577
-0.033249173 0.022709027 -0.0013854074 -0.2014265 0.21173829 -0.17455207 0.20846611 -0.3526715
-0.108459495 -0.08241782 -0.10020069 -0.05734736 -0.24688494 -0.005952839 -0.052798312 -0.051342715
0.40386483 0.546147 0.20419037 0.41726837 -0.20160419 0.2803897 -0.32950506 0.004915437
0.05026291 0.0613868 0.021371927 -0.27573094 -0.3667577 -0.27675724 -0.16818933 0.3225947
-0.032022648 0.36710557 -0.09998232 -0.22007163 -0.19133003 -0.19892536 -0.48021182 -0.2684051
-0.09428324 -0.3302623 0.23182005 -0.055583395 -0.36987007 -0.2541851 -0.19332613 -0.28907102
-0.06644963 0.09224394 -0.21377951 -0.42105615 0.07239816 0.115772516 0.113610685 0.40901846
-0.048573058 -0.2351257 -0.023922028 -0.20820056 0.062208544 0.1299064 -0.21786511 -0.10866987
-0.42022142 -0.031658195 -0.44154066 -0.33870167 0.17394519 -0.09116461 -0.2980711 -0.35890576
-0.14190386 -0.04539678 -0.15519997 -0.04094225 0.16324826 -0.6877026 -0.2798939 -0.58672374
-0.19948438 0.0688815 -0.06869957 -0.25275534 0.16598424 0.042541653 0.19926752 -0.3008704
0.066144615 -0.23318508 -0.22555791 -0.27968952 0.28897148 0.41216272 0.047923487 -0.22926776
0.21112476 -0.2589373 -0.16948521 -0.3181384 -0.3109966 -0.46105948 0.18294215 -0.24839093
0.07133953 -0.18065546 0.16689558 0.056049958 0.06835351 0.11632792 -0.446677 -0.1912317
0.03435013 0.29700798 -0.21619102 0.28083622 -0.21837945 -0.09339615 -0.09009796 0.10410476
-0.11781894 0.10112452 0.11753015 0.92317337 -0.333789 -0.18500601 -0.099484324 -0.43276367
0.11470951 0.064976 -0.037575983 -0.1598136 -0.05587313 -0.014122362 0.00091926067 0.014769806
00000000: 0dce 48bd 57d9 4dbe 18ed f5bd 0d62 72be
00000010: eac8 aa3c e0d8 51bd 2888 d93c 8330 adbd
00000020: 163a 263e 708e dd3b 11a7 453e 8d8c 65be
00000030: f508 4fbe cbfa 2f3d 51be 79be 6758 01be
00000040: 89c3 dabe 0254 09bf d6b0 28be 9049 a8be
00000050: bf92 b7be 713a e83c 2059 1abe 5f85 23be
00000060: 9f73 1fbe a34b 523c 9294 753d 19c4 663d
00000070: 6e8d 82be 5bd1 7dbe afc4 37be 0c64 45bc
00000080: bca8 a1bd eb48 ddbe 0ae6 90bd 771c 9bbd
00000090: b482 2e3e a142 dbbc fe47 993e b3a4 90bd
000000a0: 9ef1 22be 765c aabe 9f40 e53c 2057 e63d
000000b0: 066c e4be cef3 37bd dabe 543c 979c 8a3e
000000c0: cec8 57be 2a04 43bf c948 96bd 8daa 03be
000000d0: 7c28 82be 3822 78bd e9db 5dbe 1d89 f23c
000000e0: f065 14bd ab4b 55be 62e5 ccbe f395 5b3e
000000f0: 1d73 90be 2f0d e13d 1997 583d a1f8 aebc
00000100: 346a 893e b0eb 353e a6a2 02bf 42b1 adbe
00000110: e48e 49bb 1618 583c 8d10 6f3c e66f 6b3d
00000120: c46b 053d 8f41 7c3e 6309 abbe 58da 4cbe
00000130: 4c48 eb3d b26b 18be 95f2 943d 3383 513e
00000140: 43e6 e23d ab83 a1bc 89ba c83d aee6 193d
00000150: f311 cabc 0cb4 9abd 4ca0 80bd 6a45 093e
00000160: c580 abbe 2b07 363d 39af 13bc 8d1c a93e
00000170: 1431 cebe d933 95be 6bb1 b13d e521 cb3a
00000180: 597e 95bd 2101 03bd 6d9f 9bbd 4fe7 a9bd
00000190: 23a5 23be ca86 61be 62aa a53e 2e2f 243e
000001a0: 7fde 84bc e899 82bd 231a 543e 4c72 f8be
000001b0: 35a8 ec3e ec71 4bbd 24dd 5d3e 85b0 013e
000001c0: 8415 163e 18da ca3a 4dbf 203f 9197 84bd
000001d0: 1990 333e d79c 8c3e 6215 9e3e bd75 9c3e
000001e0: 4930 08bd 4808 ba3c 8f96 b5ba c042 4ebe
000001f0: ecd1 583e c7bd 32be 2478 553e 5c91 b4be
00000200: 0320 debd adca a8bd 0536 cdbd 11e5 6abd
00000210: 68cf 7cbe 0810 c3bb 0b43 58bd bd4c 52bd
00000220: 5fc7 ce3e 4ad0 0b3f 4817 513e 33a4 d53e
00000230: 5471 4ebe 3d8f 8f3e e3b4 a8be ad11 a13b
00000240: 7be0 4d3d ba70 7b3d 2e14 af3c 9b2c 8dbe
00000250: aac7 bbbe 20b3 8dbe d339 2cbe 222b a53e
00000260: 2e2a 03bd 43f5 bb3e 88c3 ccbd 755a 61be
00000270: 05ec 43be 17b3 4bbe 53de f5be 656c 89be
00000280: 9217 c1bd 2418 a9be 3c62 6d3e 6aab 63bd
00000290: 9c5f bdbe 8d24 82be 49f7 45be 1e01 94be
000002a0: be16 88bd 64ea bc3d 04e9 5abe ac94 d7be
000002b0: 7d45 943d 241a ed3d b8ac e83d de6a d13e
000002c0: 8bf4 46bd cbc4 70be 21f8 c3bc 8732 55be
000002d0: 63ce 7e3d 2f06 053e 0818 5fbe 4f8e debd
000002e0: 4327 d7be 06ac 01bd 9e11 e2be 4e6a adbe
000002f0: b01e 323e 83b4 babd c69c 98be 7fc2 b7be
00000300: 3f4f 11be f9f1 39bd beec 1ebe 10b3 27bd
00000310: 8d2a 273e 470d 30bf 414e 8fbe 8733 16bf
00000320: a245 4cbe be11 8d3d 5cb2 8cbd 2669 81be
00000330: c6f7 293e 2840 2e3d c90c 4c3e af0b 9abe
00000340: d476 873d 12c8 6ebe a7f8 66be 7733 8fbe
00000350: 12f4 933e fe06 d33e 6b4b 443d 2bc5 6abe
00000360: 1731 583e 6e93 84be 888d 2dbe 09e3 a2be
00000370: f23a 9fbe fd0f ecbe 3055 3b3e 315a 7ebe
00000380: 761a 923d bffd 38be ade6 2a3e a494 653d
00000390: edfc 8b3d 553d ee3d d9b2 e4be 3ed2 43be
000003a0: b9b2 0c3d 6e11 983e 2e61 5dbe c4c9 8f3e
000003b0: dd9e 5fbe 7b46 bfbd 4785 b8bd e034 d53d
000003c0: 0e4b f1bd 5f1a cf3d a6b3 f03d 1755 6c3f
000003d0: 64e6 aabe 3772 3dbe 70be cbbd 3393 ddbe
000003e0: d2ec ea3d 2312 853d 46e9 19bd 2da6 23be
000003f0: 39db 64bd 7b61 67bc 8afa 703a 0efd 713c

conv5.bias f4 [128]
0.22295666 0.025084792 0.19948341 0.19394302 -0.13457145 0.093792334 0.19999483 0.07270631
0.2177906 -0.30362922 0.11745856 0.0283312 -0.26404002 -0.21912292 -0.111115225 0.052095693
-0.2615371 0.17871198 0.11696549 -0.10792633 0.11497634 0.02755881 0.0042686844 0.016676173
0.42371562 0.20228454 0.10910895 -0.48083997 -0.14103793 -0.16220286 0.0028850639 -0.009052506
-0.027552688 -0.2316435 0.15662111 0.1938443 0.053585976 0.09980126 -0.042246964 -0.018628754
0.040549446 0.03586091 0.045242622 0.09303771 -0.010421381 0.13947953 -0.04362255 0.21009079
0.11944365 0.09502579 -0.117735244 -0.26804852 -0.42195863 -0.26218268 0.057057504 0.1885493
0.047760837 0.21139419 -0.16397776 0.055093784 -0.05728782 0.23876591 0.14970937 0.18918994
-0.14193147 0.23537835 -0.095378794 0.25647986 -0.05628511 0.014116917 -0.024435975 -0.03218793
0.07060942 -0.15816703 -0.11098872 -0.1907946 0.029323258 -0.2686789 -0.18948098 0.0578551
0.14075637 -0.05344649 0.011385605 -0.079945 -0.007366247 -0.0027018753 -0.07384375 0.10574849
-0.3574279 0.27211094 0.10862423 -0.0073871873 -0.13599378 -0.062312912 -0.11772195 0.010178966
0.25725594 0.071266584 -0.12957549 0.30929995 -0.13178356 -0.1500168 0.124534436 -0.04899052
-0.10979468 -0.0610448 0.19579548 -0.160251 0.13736498 0.19464861 0.25007913 -0.08245682
0.18551305 0.029885212 0.050969087 -0.01916058 -0.19432977 0.046803094 -0.47026494 0.19146462
0.23409152 0.018984465 0.010214238 0.02776088 0.10027106 -0.08722828 -0.17138082 -0.20746411
00000000: c04e 643e 9f7e cd3c 6145 4c3e 0099 463e
00000010: 19cd 09be 3216 c03d 72cb 4c3e 0ce7 943d
00000020: 8004 5f3e 4a75 9bbe 1d8e f03d d516 e83c
00000030: 4130 87be c261 60be 6190 e3bd 4b62 553d
00000040: 31e8 85be 4600 373e 9a8b ef3d 7b08 ddbd
00000050: b778 eb3d 03c3 e13c 52e0 8b3b 789c 883c
00000060: 41f1 d83e ae23 4f3e 8374 df3d a830 f6be
00000070: 3f6c 10be 8218 26be 5713 3d3b f650 14bc
00000080: 2db6 e1bc f433 6dbe 4961 203e 1f7f 463e
00000090: f87c 5b3d 9a64 cc3d 270b 2dbd 549b 98bc
000000a0: 2d17 263d e4e2 123d 5450 393d 8e8a be3d
000000b0: 71be 2abc b9d3 0e3e 8fad 32bd 0a22 573e
000000c0: df9e f43d e29c c23d 2d1f f1bd a83d 89be
000000d0: f60a d8be cf3c 86be 21b5 693d 1113 413e
000000e0: dea0 433d b877 583e c9e9 27be 05aa 613d
000000f0: a2a6 6abd 0d7f 743e 6a4d 193e 02bb 413e
00000100: 7c56 11be 0607 713e f555 c3bd 5451 833e
00000110: 378b 66bd a44a 673c f42d c8bc 7ed7 03bd
00000120: ac9b 903d 8af6 21be 0e4e e3bd a95f 43be
00000130: 5437 f03c 4890 89be 4d07 42be 78f9 6c3d
00000140: 7022 103e b5ea 5abd b08a 3a3c 34ba a3bd
00000150: 8f60 f1bb f211 31bb 643b 97bd aa92 d83d
00000160: ca00 b7be 2052 8b3e 6176 de3d 3810 f2bb
00000170: f441 0bbe d33b 7fbd 3518 f1bd aec5 263c
00000180: 0db7 833e 37f4 913d 70af 04be 905c 9e3e
00000190: 45f2 06be 019e 19be e90b ff3d 49aa 48bd
000001a0: 08dc e0bd 1d0a 7abd 9c7e 483e d718 24be
000001b0: 68a9 0c3e f751 473e 5f0a 803e 1fdf a8bd
000001c0: 22f7 3d3e d5d1 f43c f6c4 503d a6f6 9cbc
000001d0: 62fe 46be 9ab4 3f3d 91c6 f0be 4d0f 443e
000001e0: b0b5 6f3e 4f85 9b3c 9f59 273c c96a e33c
000001f0: ea5a cd3d bea4 b2bd 747e 2fbe 7971 54be

conv6.weight f4 [64, 128, 2, 2]
-0.052335348 -0.05248617 -0.5909522 -0.49687088 -0.21050312 -0.25711945 -0.3574071 -0.3033167
-0.12028583 -0.41018912 -0.23207141 0.19033921 0.22973056 -0.025922721 -0.010279543 -0.13167864
-0.10453183 0.063033976 0.13554911 0.23517941 0.076241635 0.13795286 0.38607574 0.32318172
-0.07472473 0.15288559 0.07913066 -0.40825754 0.24775374 0.002474971 -0.18237658 0.075541995
-0.1940454 -0.12493783 -0.073136225 -0.06221947 -0.37847093 -0.25945938 -0.022250578 -0.16765107
0.067050494 -0.014202448 0.122385 0.060044445 0.0011434259 -0.19541156 -0.30491063 -0.37147516
-0.1816716 -0.43528557 0.15625082 0.010786176 -0.21750343 0.09287424 0.11864492 -0.14683068
-0.27474314 -0.38004863 0.19964623 -0.097020544 -0.030805761 0.06641623 -0.0077995006 -0.107606046
-0.021044197 0.06543441 0.008946865 0.107105955 0.038262468 0.061404414 0.4486691 0.42287165
0.04836796 0.059459742 0.18689589 0.20491907 -0.02050702 0.017779244 -0.02513591 0.02547871
0.094440185 0.00459598 0.03541702 -0.37787172 -0.083262034 0.23733579 0.2149939 0.2628957
0.095363885 -0.41536808 -0.21231428 -0.6059474 -0.25012997 -0.19469184 -0.6161773 -0.765658
-0.06256707 -0.44794264 -0.6322131 -0.4039704 -0.007941317 -0.43113324 -0.38193932 -0.8602006
-0.19304074 -0.35128313 0.056359544 -0.10590411 0.03654128 -0.13766502 0.07462987 0.28550535
-0.11035203 -0.059523236 0.08492581 -0.07239409 -0.02345432 -0.022922322 -0.06308745 -0.029640587
-0.111658245 0.24162257 0.0460728 -0.279702 -0.22198687 -0.051343154 -0.023656098 -0.030180436
0.27239013 0.13638398 -0.0889088 0.2403653 0.024633935 -0.04986554 -0.07833309 -0.06758804
0.29743126 0.06286146 -0.20738779 -0.011341649 -0.113830924 -0.12297664 0.016996885 0.041424245
0.23650353 0.29899696 0.07547152 0.41340932 0.13537571 0.35671192 0.20778942 0.088092536
0.029832205 -0.30623662 0.108134665 -0.53389966 -0.18246137 -0.17940211 -0.052728575 0.2623921
0.12926328 -0.3612724 0.04081678 0.022470564 0.12831156 -0.104470484 0.061917465 0.109091915
0.20494452 -0.19467528 -0.21236128 -0.518432 -0.31710783 0.051174276 0.32883593 0.20466861
0.14477658 0.023888696 0.2210918 0.18093003 -0.33263925 -0.35228893 -0.24587554 0.22425383
0.20027824 -0.075501464 0.28578728 0.15743223 -0.20667619 -0.023817807 -0.14420326 -0.1520972
-0.20155618 -0.59240425 -0.074554674 -0.27525154 -0.13801166 0.23351125 0.30017382 -0.34109932
-0.23755074 -0.102138326 0.058129895 -0.14880864 0.2651927 0.013927646 0.1346383 0.2507559
0.3483276 0.04722396 0.1524642 -0.05907316 0.25086215 0.22385593 0.04058986 0.08414732
-0.019745117 0.24076052 0.373096 0.17191364 -0.16110936 -0.22690207 -0.06980244 -0.07330308
-0.061180376 -0.048930943 0.32428217 0.09525378 0.010439565 0.0018573647 0.2610009 -0.0006643513
0.002674735 -0.017149465 -0.021013504 0.03214601 0.16256386 0.18132716 -0.24114351 -0.22379674
0.07803588 -0.0013969464 -0.1788187 0.26339328 0.33594087 0.1797446 -0.10005571 0.03682789
-0.013468995 0.17464478 -0.15407959 0.110128164 0.23031826 0.12040033 -0.26571336 -0.100308575
00000000: 975d 56bd bdfb 56bd a548 17bf dc65 febe
00000010: 218e 57be 29a5 83be 10fe b6be 544c 9bbe
00000020: 6b58 f6bd 4f04 d2be 21a4 6dbe 48e8 423e
00000030: 7d3e 6b3e e35b d4bc 876b 28bc c4d6 06be
00000040: c914 d6bd f517 813d 63cd 0a3e dfd2 703e
00000050: 9324 9c3d 8443 0d3e b8ab c53e 1378 a53e
00000060: 4709 99bd 0a8e 1c3e 410f a23d 2207 d1be
00000070: 28b3 7d3e 2033 223b edc0 3abe c3b5 9a3d
00000080: d6b3 46be 68df ffbd 72c8 95bd d8d9 7ebd
00000090: f1c6 c1be dcd7 84be d846 b6bc b9ac 2bbe
000000a0: c551 893d 62b1 68bc fda4 fa3d 2af1 753d
000000b0: 02df 953a f819 48be 3f1d 9cbe fe31 bebe
000000c0: 1f08 3abe c0dd debe 3700 203e 80b8 303c
000000d0: 38b9 5ebe d934 be3d 1cfc f23d c85a 16be
000000e0: 22ab 8cbe bc95 c2be 1070 4c3e b5b2 c6bd
000000f0: 5d5c fcbc 3b05 883d f492 ffbb 8f60 dcbd
00000100: e164 acbc 7a02 863d df95 123c 5e5a db3d
00000110: 1bb9 1c3d 3283 7b3d f5b7 e53e a282 d83e
00000120: 7b1d 463d 0f8c 733d a361 3f3e 4ed6 513e
00000130: 57fe a7bc c7a5 913c d3e9 cdbc bab8 d03c
00000140: db69 c13d e099 963b 7011 113d 6778 c1be
00000150: 4985 aabd 2708 733e 5c27 5c3e 449a 863e
00000160: 244e c33d 20ab d4be ea68 59be 5e1f 1bbf
00000170: 0911 80be 4c5d 47be ccbd 1dbf 2a02 44bf
00000180: 2a23 80bd bd58 e5be b8d8 21bf 35d5 cebe
00000190: 4c1c 02bc 7fbd dcbe 8d8d c3be 1b36 5cbf
000001a0: 79ac 45be 62db b3be 44d9 663d 41e4 d8bd
000001b0: 4fac 153d 0ff8 0cbe 8cd7 983d c22d 923e
000001c0: 3f00 e2bd a3ce 73bd 95ed ad3d 5a43 94bd
000001d0: 4623 c0bc 98c7 bbbc fe33 81bd d1d0 f2bc
000001e0: 14ad e4bd e86b 773e d5b6 3c3d 1a35 8fbe
000001f0: 8750 63be 334d 52bd 6fca c1bc f63c f7bc
00000200: b876 8b3e 3ea8 0b3e d115 b6bd 5222 763e
00000210: 1bcd c93c cf3f 4cbd 196d a0bd 996b 8abd
00000220: e948 983e 82bd 803d 775d 54be 53d2 39bc
00000230: 3020 e9bd 2ddb fbbd 0d3d 8b3c 78ac 293d
00000240: fb2d 723e 2116 993e d090 9a3d 63aa d33e
00000250: ee9f 0a3e f2a2 b63e c0c6 543e dc69 b43d
00000260: ab62 f43c 0ccb 9cbe b575 dd3d a6ad 08bf
00000270: 27d7 3abe 30b5 37be ebf9 57bd 4258 863e
00000280: 985d 043e b2f8 b8be 7f2f 273d 3014 b83c
00000290: 1b64 033e 9ff4 d5bd 2b9d 7d3d 956b df3d
000002a0: fadc 513e f558 47be 3c75 59be f6b7 04bf
000002b0: f55b a2be 1e9c 513d 2f5d a83e a694 513e
000002c0: 5040 143e 3ab2 c33c e465 623e b945 393e
000002d0: b14f aabe 375f b4be ccc6 7bbe cca2 653e
000002e0: bd15 4d3e 83a0 9abd b652 923e ea35 213e
000002f0: eca2 53be 901d c3bc 05aa 13be 5ebf 1bbe
00000300: be64 4ebe cea7 17bf 1fb0 98bd c5ed 8cbe
00000310: ee52 0dbe 931d 6f3e 62b0 993e 92a4 aebe
00000320: 8040 73be e62d d1bd 9d19 6e3d 4b61 18be
00000330: 56c7 873e c830 643c 9fde 093e 1463 803e
00000340: ff57 b23e e96d 413d 931f 1c3e b3f6 71bd
00000350: 0171 803e 7d3a 653e 8e41 263d 6e55 ac3d
00000360: 83c0 a1bc ed89 763e 7006 bf3e 210a 303e
00000370: daf9 24be 0459 68be 95f4 8ebd ed1f 96bd
00000380: 4698 7abd d06b 48bd 5008 a63e 6a14 c33d
00000390: b60a 2b3c d172 f33a e9a1 853e dc27 2eba
000003a0: 9b4a 2f3b 097d 8cbc 8324 acbc 89ab 033d
000003b0: 2477 263e d4ad 393e 53ee 76be f92a 65be
000003c0: 47d1 9f3d be19 b7ba 401c 37be 7cdb 863e
000003d0: 7100 ac3e f80e 383e 02ea ccbd d7d8 163d
000003e0: 0fad 5cbc 15d6 323e 0ac7 1dbe e08a e13d
000003f0: 8dd8 6b3e 7394 f63d 950b 88be 956e cdbd

conv6.bias f4 [64]
0.13683408 -0.0677573 -0.11002524 0.20425096 -0.10552487 0.29307553 0.107547194 0.08454809
0.10806566 0.079263195 0.1318339 0.29871747 0.11568339 -0.27684036 0.08554331 -0.28195506
0.40102747 -0.10464604 -0.20126963 0.03585207 -0.14330254 0.055968333 -0.06631779 -0.11234449
-0.12716506 0.091979705 -0.29867932 0.07008746 -0.18517646 -0.094861075 -0.30406556 0.055588014
-0.13952206 -0.46278608 -0.3347278 0.1242425 -0.13989559 -0.14608553 -0.11245112 -0.03243612
-0.121089876 -0.07020292 -0.23944652 -0.1382046 -0.13641913 0.12971978 -0.00855781 0.23622303
-0.20761959 0.031621996 0.17216319 0.12070188 -0.22676232 -0.42181525 -0.2856391 0.1667111
0.079504676 0.1916851 0.30755168 -0.094559126 -0.36581 -0.15972827 0.3232471 -0.09030434
00000000: 3c1e 0c3e 57c4 8abd ea54 e1bd 2a27 513e
00000010: 6c1d d8bd ff0d 963e b441 dc3d 8d27 ad3d
00000020: 8751 dd3d be54 a23d 77ff 063e 7ff1 983e
00000030: 6aeb ec3d 05be 8dbe 5531 af3d 6a5c 90be
00000040: 7953 cd3e aa50 d6bd a019 4ebe 9fd9 123d
00000050: e7bd 12be 0d3f 653d 9fd1 87bd de14 e6bd
00000060: 8f37 02be db5f bc3d 7fec 98be 048a 8f3d
00000070: e69e 3dbe 8646 c2bd 7bae 9bbe 42b0 633d
00000080: dfde 0ebe 4cf2 ecbe 7161 abbe da72 fe3d
00000090: ca40 0fbe 7297 15be c64c e6bd bddb 04bd
000000a0: f8fd f7bd 8cc6 8fbd 7831 75be 8285 0dbe
000000b0: 75b1 0bbe 43d5 043e 0f36 0cbc 73e4 713e
000000c0: 3b9a 54be 1186 013d 8c4b 303e 8c32 f73d
000000d0: 6234 68be 2bf8 d7be 4a3f 92be 51b6 2a3e
000000e0: 59d3 a23d 1949 443e 6a77 9d3e 37a8 c1bd
000000f0: 734b bbbe cf8f 23be a580 a53e 7bf1 b8bd
