model/model_12.pth (torch_old, 571877 bytes, 24 tensors)

conv1.weight f4 [32, 3, 2, 2]
0	0xbde3e886	-0.11128335
1	0xbdeefee2	-0.11669709
2	0xbe1897aa	-0.14901605
3	0x3ec9a917	0.39386818
4	0xbf18b194	-0.5964596
5	0x3e17e580	0.14833641
6	0xbe080776	-0.13284096
7	0x3edfba36	0.43696755
8	0xbe9622ca	-0.29323417
9	0xbd964ff7	-0.07339471
10	0x3c3fc72a	0.011705199
11	0x3e914b64	0.2837783
12	0x3e4d9d2a	0.20079485
13	0xbe06ac36	-0.13151631
14	0x3df6202a	0.120178536
15	0x3c406329	0.011742392
16	0x3d8d477b	0.068983994
17	0xbd85d44f	-0.06534635
18	0x3ea5c0fb	0.32373795
19	0x3d180f65	0.037124056
20	0xbe0bdbcd	-0.13658066
21	0xbe7dfe4b	-0.24804036
22	0xbd273a9e	-0.040827386
23	0xbe74e1dc	-0.23914284
24	0xbdeff57b	-0.117167436
25	0x3d41ed49	0.047345433
26	0x3dfec7ba	0.124404386
27	0x3e6e165e	0.2325072
28	0xbeac7e1d	-0.33689967
29	0x3e4e714f	0.20160411
30	0xbd40023e	-0.04687714
31	0x3e9fa914	0.31183684
32	0x3e0dc18c	0.13843364
33	0xbe49fcb1	-0.197253
34	0xbeec5f2c	-0.4616636
35	0xbde9475b	-0.11390563
36	0x3ecacfdb	0.39611706
37	0xbd2226d1	-0.0395878
38	0x3d9eb6d4	0.077497154
39	0xbe87eeab	-0.26549277
40	0x3ec848b1	0.3911796
41	0xbe684aea	-0.22684827
42	0x3e306b99	0.17228545
43	0xbe406c00	-0.18791199
44	0xbd6f3ece	-0.058409505
45	0x3c754a6c	0.014971357
46	0xbe587774	-0.21139318
47	0xbe14ac38	-0.14518821
48	0xbe237807	-0.15963756
49	0xbddacd68	-0.106837094
50	0xbebff1cf	-0.37489173
51	0xbe63d4dd	-0.2224917
52	0x3e480dbb	0.19536488
53	0xbdacb74d	-0.08433399
54	0x3e9a532e	0.30141586
55	0x3e62666d	0.22109385
56	0xbd455685	-0.048178215
57	0xbe91ad18	-0.28452373
58	0x3e1c90a9	0.15289558
59	0x3cc33e6a	0.023833472
60	0xbe45ad78	-0.19304454
61	0x3dec9505	0.11551861
62	0x3e73d8ee	0.23813221
63	0x3e829449	0.25503758
64	0xbe4b2294	-0.1983741
65	0xbe0a13a6	-0.13484058
66	0xbc091e34	-0.008369017
67	0xbcc816f0	-0.024425
68	0xbea93f10	-0.33055925
69	0xbeb777bf	-0.35833547
70	0x3df4d7b7	0.11955207
71	0xbe2ea1c9	-0.17053904
72	0x3d012fe4	0.031539813
73	0xbda386c9	-0.079846926
74	0xbd76a2fc	-0.060214028
75	0xbd481a54	-0.048853233
76	0x3e21668e	0.15761778
77	0x3e19e048	0.15026963
78	0xbe574123	-0.21020941
79	0x3e427ee3	0.18993716
80	0xbe1fd00c	-0.15606707
81	0xbe560a1e	-0.20902297
82	0xbb5dc516	-0.0033839396
83	0xbdd31afb	-0.103078805
84	0x3e71f56c	0.23628777
85	0x3d52603c	0.051361308
86	0xbf12582e	-0.571658
87	0x3d76904d	0.06019621
88	0x3e034258	0.12818277
89	0x3efaa4c1	0.48953822
90	0xbdf35b48	-0.11882645
91	0xbe7a48e4	-0.24441868
92	0x3e7a56ab	0.24447124
93	0x3ea3dbbb	0.3200358
94	0xbeb3e627	-0.3513653
95	0xbe51462c	-0.20436925
96	0x3d359f4d	0.044341374
97	0xbe934b83	-0.28768548
98	0x3e399af6	0.18125519
99	0xbdc9b9a4	-0.09849861
100	0x3e0a862d	0.13527746
101	0xbeea4db6	-0.45762414
102	0x3ed5498c	0.41657674
103	0x3d102046	0.03518703
104	0xbe6afc7e	-0.2294788
105	0xbecdc96b	-0.40192732
106	0x3f0e7534	0.5564759
107	0x3dd6d847	0.104904704
108	0x3e17955e	0.14803073
109	0xbd0021d3	-0.031282257
110	0x3d1b015c	0.037843093
111	0x3e22a28a	0.15882316
112	0x3e628e3e	0.22124574
113	0xbe8ca98c	-0.27473104
114	0x3c51cc4a	0.012805054
115	0x3e656181	0.22400476
116	0x3e1ba92b	0.15201251
117	0x3e119486	0.14216813
118	0xbe490545	-0.19630916
119	0xbe176a44	-0.14786631
120	0xbdf61722	-0.12016131
121	0x3ceda859	0.029010938
122	0x3e95a3bc	0.29226482
123	0xbe881acf	-0.26582953
124	0x3e270f1e	0.1631436
125	0xbe504ad4	-0.20341045
126	0xbea6bef2	-0.32567555
127	0xbdfb0e74	-0.12258616
128	0x3e4c5cf3	0.19957332
129	0x3e7d5d75	0.24742682
130	0xbe5f5abc	-0.21811956
131	0x3d056d8f	0.032575186
132	0x3ebf436e	0.37356132
133	0x3e654223	0.2238851
134	0x3e02c35f	0.1276984
135	0x3dccfc9f	0.10009121
136	0x3e145aa0	0.14487696
137	0xbc67738a	-0.014126668
138	0xbef279cf	-0.47358558
139	0xbf0464c0	-0.5171623
140	0xbbe415e9	-0.0069606197
141	0x3d5d9982	0.054101475
142	0xbe8d68d3	-0.27619037
143	0x3d4150f3	0.04719634
144	0x3c244745	0.010026758
145	0x3bb84b1a	0.005624187
146	0xbe0198a9	-0.12655891
147	0x3d5ec5b0	0.05438775
148	0x3e23babe	0.15989205
149	0x3ea98407	0.3310854
150	0xbe410b69	-0.18852009
151	0x3ec49b9b	0.38399968
152	0xbe0bcde8	-0.13652766
153	0x3ccc7402	0.02495766
154	0xbed8fd6d	-0.4238085
155	0xbe3a171e	-0.18172881
156	0xbeb8e4b2	-0.3611198
157	0xbe1795e0	-0.14803267
158	0x3e379ddc	0.17931312
159	0x3cbe3c2e	0.023222055
160	0xbe85dc01	-0.26144412
161	0x3e5e9908	0.21738064
162	0x3dbd84ab	0.0925382
163	0x3eb4b78f	0.35296294
164	0xbea01635	-0.31266943
165	0x3d65222a	0.055940785
166	0xbe75c133	-0.23999481
167	0xbce23c29	-0.027616577
168	0xbf087e72	-0.5331794
169	0xbe9df585	-0.3085138
170	0xbe7c5b80	-0.2464428
171	0x3e0b09ae	0.13577911
172	0xbd5409d2	-0.051767178
173	0x3da6105c	0.08108589
174	0x3ea47d98	0.3212707
175	0x3ef16fb3	0.47155532
176	0x3d8855be	0.06656979
177	0xbd805a6f	-0.06267249
178	0xbe576220	-0.21033525
179	0x3eb1ce48	0.34727693
180	0x3e0f9e1f	0.14025162
181	0x3deafe54	0.114742905
182	0xbe5734ab	-0.21016185
183	0xbe107411	-0.14106776
184	0x3c4afba9	0.012389102
185	0x3eb219ae	0.34785217
186	0xbe2bcf37	-0.16778265
187	0xbe803f88	-0.2504847
188	0x3de98af3	0.114034556
189	0xbe1683f3	-0.14698772
190	0x3e1f485b	0.15554945
191	0xbe4ebca8	-0.20189154
192	0x3cb48419	0.022035645
193	0xbdc17ee6	-0.09448032
194	0x3eaf14fb	0.34195694
195	0xbebd00b3	-0.36914596
196	0x3e671327	0.225659
197	0xbd423d0b	-0.047421496
198	0x3ec0d245	0.37660423
199	0xbeefd9b5	-0.46845785
200	0x3e451b7a	0.19248763
201	0xbeb8955a	-0.36051446
202	0x3ea4c5e5	0.32182232
203	0xbea75e9f	-0.32689378
204	0xbcc9548a	-0.024576444
205	0x3e14fd3b	0.14549725
206	0xbe656e49	-0.22405352
207	0x3e5b65fb	0.21425621
208	0xbe5d9c8e	-0.21641752
209	0x3e807a00	0.2509308
210	0xbe4f7ae7	-0.20261727
211	0x3e9767cc	0.29571378
212	0xbf1b0d74	-0.605674
213	0x3e3995a8	0.18123496
214	0xbd858ce8	-0.06521016
215	0x3e9298c7	0.28632185
216	0x3de71cef	0.112848155
217	0xbe44eb8d	-0.1923048
218	0xbe395080	-0.18097115
219	0x3e943b6f	0.28951594
220	0xbecc8ad9	-0.39949682
221	0x3ea15ad9	0.31514624
222	0xbedd7c07	-0.43258688
223	0xbe4bca61	-0.1990142
224	0x3e8026d7	0.25029632
225	0x3c628dea	0.01382778
226	0x3bbad786	0.005701962
227	0x3ecfb926	0.40570945
228	0x3e481a5a	0.19541302
229	0x3ee7df7f	0.452877
230	0xbe840d98	-0.2579162
231	0xbe874df7	-0.2642667
232	0x3ea6e232	0.32594448
233	0x3e62e848	0.22158921
234	0xbe8cd837	-0.2750871
235	0x3da8a933	0.08235397
236	0xbe9e3a47	-0.30903837
237	0x3eab6559	0.3347576
238	0xbe3ba6e7	-0.18325387
239	0xbec1b30f	-0.37831923
240	0xbe8530ea	-0.2601388
241	0xbd50a23d	-0.050935972
242	0x3e2f6ff0	0.17132545
243	0x3d5f7e28	0.05456367
244	0xbeb397d9	-0.35076788
245	0xbe17b05f	-0.14813374
246	0xbed6f982	-0.41987234
247	0xbe9479d2	-0.28999192
248	0xbe297476	-0.16548333
249	0x3e97754c	0.29581678
250	0x3ebd0899	0.36920622
251	0x3d6886a8	0.056769043
252	0xbd0096c2	-0.031393774
253	0x3e3993d6	0.18122801
254	0xbdf344a4	-0.118783265
255	0xbe679d2c	-0.2261855

conv1.bias f4 [32]
0	0xbebfd749	-0.37468937
1	0xbdbb53ef	-0.091468684
2	0xbef97051	-0.48718503
3	0xbe2870e2	-0.16449311
4	0xbec4b353	-0.38418064
5	0xbf00d641	-0.50326926
6	0xbf0fc1d7	-0.5615515
7	0x3e095092	0.13409641
8	0x3dbb5c7a	0.09148498
9	0xbeb33dbb	-0.35008034
10	0xbed4dfac	-0.41576898
11	0xbd0f5998	-0.034997553
12	0xbdbf9213	-0.09354033
13	0xbe4dad1e	-0.2008557
14	0x3da0d161	0.07852436
15	0xbec8e547	-0.39237425
16	0xbdab858d	-0.08375082
17	0x3dff5ad2	0.124684945
18	0xbe2b2838	-0.16714561
19	0xbf06267c	-0.5240247
20	0xbf01fe22	-0.507784
21	0xbf4512fc	-0.7698209
22	0x3e0d8b9d	0.1382279
23	0xbf1b7931	-0.607318
24	0x3d642f9b	0.055709463
25	0xbdd382f9	-0.103277154
26	0xbeb7daa6	-0.35909003
27	0xbee83667	-0.45354006
28	0x3ded55ce	0.115886316
29	0xbef1d86b	-0.47235426
30	0xbec7d816	-0.39032048
31	0x3d9fd428	0.078041375

conv2.weight f4 [32, 32, 2, 2]
0	0xbe513803	-0.20431523
1	0x3df3f62e	0.119121894
2	0xbdd14d59	-0.10219831
3	0xbdafd3d6	-0.085853264
4	0x3bfe1eb8	0.007755127
5	0x3d0a00ec	0.033692285
6	0xbda3bcfd	-0.07995031
7	0x3ba4ba3c	0.0050270837
8	0xbcc495c3	-0.023997193
9	0x3cca8834	0.02472315
10	0xbe4f6cea	-0.20256391
11	0xbe2ab584	-0.16670805
12	0xbde361fd	-0.11102674
13	0xbda08365	-0.078375615
14	0xbd3cce75	-0.04609533
15	0xbdca3df3	-0.09875097
16	0xbdc1a09e	-0.094544634
17	0x3cfac90f	0.03061345
18	0xbdd2d9c3	-0.10295441
19	0xbe4ab36d	-0.19795008
20	0xbd48a6bc	-0.048987135
21	0x3cf33e5b	0.02969282
22	0xbd1cf9ec	-0.03832428
23	0x3d9437f6	0.07237236
24	0x3d0f643f	0.03500771
25	0x3e139ffc	0.14416498
26	0xbdf65a64	-0.120289594
27	0x3ce1a283	0.027543312
28	0xbe9d5ebe	-0.30736345
29	0xbea8cc20	-0.32968235
30	0xbd7d8c7e	-0.061901562
31	0xbee70d65	-0.45127407
32	0x3dd1f0ea	0.10251029
33	0x3ddcd1f8	0.10782236
34	0x3e0f673c	0.14004225
35	0x3e899dbe	0.2687816
36	0x3ddd11de	0.107944235
37	0xbdaa6a0c	-0.08321008
38	0x3df7cebe	0.1209998
39	0x3dd15e39	0.1022305
40	0xbde10582	-0.10987379
41	0x3d71b042	0.059005983
42	0x3d683692	0.056692667
43	0xbd28a121	-0.04116929
44	0xbd0ce2de	-0.034396045
45	0xbe870852	-0.26373535
46	0x3e269c95	0.16270669
47	0xbe31ee86	-0.17376146
48	0x3e055800	0.1302185
49	0xbd1e2e57	-0.038618412
50	0x3d802b3a	0.06258245
51	0xbe3db6c8	-0.18526757
52	0x3d688058	0.056763023
53	0x3d943168	0.07235986
54	0x3bbca88b	0.0057573966
55	0xbde7872b	-0.11305078
56	0x3ddd7247	0.10812812
57	0x3b086993	0.002081488
58	0x3e1a6e11	0.1508105
59	0x3df0a759	0.11750669
60	0x3c066919	0.008203768
61	0x3ea809e3	0.32820043
62	0xbda5e25c	-0.08099815
63	0xbda03579	-0.07822699
64	0x3e125c20	0.14292955
65	0xbcb02698	-0.021502778
66	0xbe51ebab	-0.20500056
67	0xbc2e7583	-0.010648134
68	0x3d3be078	0.045868367
69	0xbe80f31a	-0.25185472
70	0x3d570e0d	0.052503634
71	0x3b82dee4	0.003993856
72	0x3d8a43f0	0.06751239
73	0x3d6287e8	0.05530539
74	0xbdad090c	-0.08448991
75	0xbe4cc0cb	-0.1999542
76	0xbe0890a0	-0.1333642
77	0xbe820957	-0.2539775
78	0x3d575b76	0.05257746
79	0x3dcc60ad	0.09979377
80	0x3e9251c4	0.28578007
81	0x3eb48be1	0.3526297
82	0xbedfb900	-0.4369583
83	0xbe42479b	-0.18972628
84	0xbe8b358e	-0.27189296
85	0xbe036706	-0.12832269
86	0xbd68dd41	-0.05685163
87	0xbe56afb6	-0.20965466
88	0xbe10c089	-0.14135946
89	0x3ae20bbf	0.0017245932
90	0xbd37d2f8	-0.04487893
91	0xbc88f340	-0.016717553
92	0x3ef9f0fe	0.48816675
93	0x3e6676c1	0.22506239
94	0xbe74d4f9	-0.23909368
95	0xbe927800	-0.28607178
96	0xbe95a123	-0.292245
97	0x3dc80977	0.0976743
98	0x3df783fa	0.120857194
99	0xbe96b540	-0.29435158
100	0x3dfce73c	0.12348792
101	0x3dda9650	0.10673201
102	0xbe538c36	-0.20658955
103	0xbe6ceb32	-0.23136595
104	0xbda51e64	-0.08062437
105	0x3e72460c	0.23659533
106	0x3d915022	0.07095362
107	0xbd561d40	-0.05227399
108	0xbd5ec08f	-0.054382857
109	0x3de31b70	0.11089218
110	0xbb4b1fb6	-0.0030994243
111	0x3d288850	0.041145623
112	0x3e17b495	0.1481498
113	0x3e252959	0.16129054
114	0x3e3839df	0.17990826
115	0x3e9cf734	0.3065735
116	0x3d059a2d	0.032617737
117	0x3e82ff4e	0.25585407
118	0xbeab2b0d	-0.33431283
119	0xbe21d250	-0.15802884
120	0xbe8c0dc1	-0.27354243
121	0x3e4737a5	0.1945482
122	0xbe08a051	-0.13342406
123	0x3da88400	0.08228302
124	0x3e1c0d67	0.15239488
125	0xbd993f6d	-0.07482801
126	0x3d96998f	0.07353508
127	0x3d987646	0.07444434
128	0xbe69732c	-0.22797841
129	0xbdf97fdf	-0.121825926
130	0xbe2d382d	-0.1691596
131	0xbe87519b	-0.26429448
132	0xbec932d2	-0.39296585
133	0xbe6fbb24	-0.23411232
134	0xbe9b75e0	-0.3036337
135	0xbeae8526	-0.3408596
136	0xbebb5ff3	-0.3659664
137	0xbee7b62c	-0.45256174
138	0xbf0acd06	-0.5421909
139	0xbe98dcbd	-0.2985591
140	0xbe5abcf5	-0.21361144
141	0xbed72283	-0.42018518
142	0xbed8c7bd	-0.42339888
143	0xbeded58a	-0.43522292
144	0xbe6dd925	-0.23227365
145	0xbe8a1e15	-0.26976076
146	0xbe7312c4	-0.23737627
147	0xbea12b2b	-0.31478247
148	0x3e36c756	0.17849478
149	0x3e5276ac	0.20553082
150	0x3e2fa4e7	0.17152749
151	0x3e6d2b60	0.23161077
152	0xbeb38b62	-0.35067278
153	0xbe9eed25	-0.31040302
154	0xbe92c12c	-0.28663003
155	0xbe8bf4c0	-0.27335167
156	0xbeb8c81a	-0.36090165
157	0xbeb1f44b	-0.34756693
158	0xbf0b84b4	-0.54499364
159	0xbece194c	-0.40253675
160	0xbeea9fa6	-0.45824927
161	0xbdf7b597	-0.120951824
162	0xbee5d70d	-0.44890633
163	0xbeb4b4e9	-0.35294273
164	0xbc8b1bf0	-0.016981095
165	0x3c7ba933	0.015360164
166	0xbe124eea	-0.14287916
167	0x3d404098	0.0469366
168	0x3cdebc83	0.027189499
169	0xbda51d78	-0.08062261
170	0x3cad16d7	0.021129055
171	0x3de90917	0.11378687
172	0x3dc360cb	0.09539946
173	0x3df1f6cc	0.11814651
174	0x3dd5ad67	0.104334645
175	0x3e430aca	0.19047084
176	0xbeda3959	-0.42621878
177	0xbf160e89	-0.5861593
178	0xbf2a4310	-0.6650858
179	0xbf017de2	-0.50582707
180	0xbdd72864	-0.10505751
181	0xbe2a1794	-0.16610557
182	0xbdff9969	-0.124804325
183	0xbe12b5a8	-0.14327109
184	0xbe3b6419	-0.18299903
185	0xbea4af27	-0.3216488
186	0xbda9ef60	-0.0829761
187	0xbe3efa3d	-0.18650146
188	0x3e65cd73	0.22441654
189	0x3e367191	0.1781676
190	0x3e80fd28	0.25193143
191	0x3e879be6	0.2648613
192	0xbe738224	-0.23780113
193	0xbd014c35	-0.031566817
194	0xbd92d45f	-0.07169413
195	0xbd8aff12	-0.06786932
196	0xbe5367ff	-0.2064514
197	0xbe881db8	-0.26585174
198	0xbe43022e	-0.190438
199	0xbe84ca18	-0.25935435
200	0x3c442638	0.011972003
201	0x3c526d79	0.012843483
202	0x3db59db2	0.088679686
203	0x3ceba6fc	0.028766148
204	0xbe3bf560	-0.18355322
205	0xbe84a8a3	-0.2590991
206	0xbc5098d0	-0.012731746
207	0xbe06cd3a	-0.13164225
208	0x3ea9e9cc	0.33186185
209	0x3ec6abdb	0.3880299
210	0x3ea69a97	0.32539818
211	0x3ee0c53b	0.43900475
212	0x3e50cd15	0.20390733
213	0x3be23e29	0.0069043827
214	0x3e914734	0.28374636
215	0x3ce8baea	0.02840944
216	0xbec2af39	-0.3802431
217	0xbec48984	-0.38386166
218	0xbf1323ee	-0.574767
219	0xbea3d43e	-0.31997865
220	0xbe72837d	-0.23682971
221	0xbe92de2f	-0.28685138
222	0xbe910c6c	-0.2832979
223	0xbe8ca817	-0.27471992
224	0xbef93636	-0.48674172
225	0xbedc610b	-0.43042788
226	0xbf1eae74	-0.61984944
227	0xbee5e8ba	-0.4490412
228	0x3dbcae73	0.09212961
229	0xbd012b55	-0.031535465
230	0xbd5a82a6	-0.053347252
231	0xbb542c84	-0.0032375166
232	0xbe63c2f9	-0.22242345
233	0xbe344ac1	-0.17606641
234	0xbe34b28e	-0.17646238
235	0xbcd50c74	-0.026006915
236	0xbd45bd47	-0.048276212
237	0x3a9b362d	0.0011841707
238	0x3bc7dded	0.0060994537
239	0xbc4d7f82	-0.012542607
240	0xbe38a747	-0.18032561
241	0x3c162901	0.0091650495
242	0xbda39e3e	-0.07989167
243	0xbd782bb7	-0.060588565
244	0xbd57d979	-0.052697632
245	0x3a180d8b	0.0005800358
246	0xbe4984e1	-0.19679596
247	0xbd21abf0	-0.039470613
248	0xbd93c440	-0.07215166
249	0xbd2087a9	-0.039191876
250	0x3d0ad8d0	0.033898175
251	0x3cb1000b	0.021606466
252	0xbef445c5	-0.4770948
253	0xbea467a3	-0.3211032
254	0xbeb88c3f	-0.360445
255	0xbecb6833	-0.39727935

conv2.bias f4 [32]
0	0x3d2a270f	0.041541155
1	0xbda74f2d	-0.081693985
2	0xbdd983fc	-0.10620877
3	0xbe1b0041	-0.15136816
4	0x3e01751f	0.12642334
5	0xbdb91ad5	-0.09038321
6	0xbe14d56b	-0.14534537
7	0x3e1acdaa	0.15117517
8	0xbd7af773	-0.061271142
9	0x3e14ef1d	0.1454434
10	0xbe4fd3fe	-0.20295712
11	0x3e3ee680	0.18642616
12	0x3dc9ce5d	0.09853814
13	0xbdfa024a	-0.12207468
14	0xbeeb3d07	-0.45944998
15	0xbdeb819b	-0.1149933
16	0x3c2c28e9	0.010507801
17	0x3b5ef7e3	0.0034022264
18	0x3d4093a9	0.04701582
19	0x3df1bdf9	0.118038125
20	0x3d49b576	0.04924532
21	0xbe577717	-0.21041523
22	0x3d4bed74	0.049787
23	0x3e047141	0.12933828
24	0xbd885a6f	-0.06657874
25	0x3e419d3f	0.18907641
26	0x3d2076e6	0.03917589
27	0xbe000ac1	-0.12504102
28	0x3a30f835	0.0006750853
29	0x3e53f138	0.20697486
30	0x3e8bd317	0.27309486
31	0xbe1e733c	-0.15473646

conv3.weight f4 [64, 32, 2, 2]
0	0xbdcfaa4f	-0.10139906
1	0x3db746c5	0.08949045
2	0x3c5b7517	0.013394616
3	0x3e948f48	0.29015565
4	0x3ceb882f	0.02875146
5	0xbe67f00d	-0.22650166
6	0x3e669299	0.2251686
7	0xbe5ebe2c	-0.21752232
8	0x3d745bcc	0.059657857
9	0x3d95f578	0.0732221
10	0x3db96dbb	0.090541326
11	0x3cf63d7e	0.030058619
12	0x3d063a46	0.032770418
13	0xbd710c1a	-0.05884943
14	0x3c6de17a	0.01451909
15	0xbd08126b	-0.03322069
16	0xbec31816	-0.38104314
17	0xbea52a13	-0.32258663
18	0xbe6756b5	-0.2259167
19	0xbe87d037	-0.26526043
20	0xbd92e2db	-0.071721755
21	0x3d45cfb8	0.0482938
22	0xbd6f2496	-0.0583845
23	0x3d28e0cd	0.04123001
24	0x3cf4c9f9	0.029881464
25	0xbd0581d2	-0.03259451
26	0xbd3e3797	-0.046439733
27	0xbd864a6d	-0.06557164
28	0xbe13387e	-0.14377019
29	0xbe68e517	-0.22743641
30	0xbea09346	-0.3136236
31	0xbed45dbf	-0.41477773
32	0xbced2aca	-0.028951067
33	0xbdbd1d0b	-0.09234055
34	0x3cd60426	0.026125025
35	0xbcce5576	-0.025187235
36	0x3e84ddaf	0.2595038
37	0xbd95c602	-0.073131576
38	0x3e7b4c4d	0.24540825
39	0xbec86782	-0.3914147
40	0x3e3a9765	0.18221815
41	0x3e9e5c01	0.30929568
42	0x3e6662ac	0.22498578
43	0x3e9a1eb1	0.3010154
44	0x3d601c5b	0.054714542
45	0x3db78145	0.08960203
46	0x3cce5f20	0.025191844
47	0x3d35c8d9	0.044380996
48	0xbc0e30e5	-0.00867865
49	0xbeb9320c	-0.36170995
50	0x3ec6255d	0.3870038
51	0xbd362009	-0.044464145
52	0x3e41d426	0.18928584
53	0x3e5193c5	0.20466526
54	0xbd59f0c9	-0.053208146
55	0xbef30111	-0.4746175
56	0xbe0a4152	-0.1350148
57	0xbd7cf2ea	-0.0617551
58	0xbd0e308a	-0.03471426
59	0xbe6faf8f	-0.23406814
60	0x3dea15f3	0.11429968
61	0x3d9be322	0.076116815
62	0x3d702c2e	0.058635883
63	0x3d49c849	0.049263272
64	0x3d8b377c	0.06797692
65	0x3d76711d	0.060166467
66	0x3db50ea7	0.08840685
67	0xbc28933f	-0.010289012
68	0x3d3bce53	0.045851063
69	0x3d8ba094	0.06817737
70	0xbddf5c45	-0.10906271
71	0xbdca0f2a	-0.098661736
72	0x3e224e78	0.15850246
73	0xbcaf67e1	-0.021411838
74	0xbdfc1a4c	-0.12309703
75	0xbd0d42ac	-0.03448741
76	0x3e893cd7	0.2680423
77	0xbd1eced3	-0.03877146
78	0x3df6edb1	0.12057055
79	0x3cdc1c7d	0.026869053
80	0xbe83d6f4	-0.25749934
81	0x3d806a34	0.06270257
82	0x3d6ac593	0.057317328
83	0x3e25c4c3	0.1618834
84	0x3e4889b0	0.19583774
85	0x3e1eb49c	0.15498585
86	0xbd259a13	-0.04043014
87	0x3dcade99	0.099057384
88	0xbdc5f2d8	-0.096654594
89	0xbcaca50e	-0.021074798
90	0xbd8c393b	-0.06846853
91	0xbd0a2689	-0.033728156
92	0xbecb59c8	-0.39716935
93	0xbe0c3ab6	-0.13694271
94	0x3eb8e7ac	0.36114252
95	0x3e4b2cb3	0.1984127
96	0x3e17e3fe	0.14833066
97	0xbe6d9b0d	-0.23203678
98	0x3e8bb369	0.27285317
99	0xbe60c79f	-0.2195115
100	0x3ec98a70	0.39363432
101	0xbe570e68	-0.2100159
102	0x3c920a9d	0.017827326
103	0xbea68c05	-0.325287
104	0x3da60482	0.081063285
105	0xbe253020	-0.1613164
106	0xbe52394f	-0.20529674
107	0xbe01e684	-0.12685591
108	0x3d898ef4	0.06716719
109	0x3c50d27e	0.012745498
110	0xbda29909	-0.079393454
111	0xbc30253b	-0.010751064
112	0x3cd04e2e	0.025427904
113	0x3d2f954b	0.042866986
114	0x3dd11ee8	0.10210973
115	0x3d5f2bcc	0.054485127
116	0x3e7dc382	0.24781612
117	0xbdc905c7	-0.09815555
118	0x3e161c8a	0.14659324
119	0xbb4567b6	-0.003012163
120	0x3d60de03	0.054899227
121	0x3e88e918	0.26740336
122	0x3de03eb3	0.10949459
123	0x3e6023fb	0.21888725
124	0x3c259d88	0.010108359
125	0x3c850235	0.016236404
126	0x3dd88822	0.1057284
127	0xbd3506a5	-0.04419579
128	0xbe49adef	-0.19695257
129	0xbf0c2d70	-0.5475683
130	0x3d9cf228	0.07663375
131	0xbb00307e	-0.0019560154
132	0x3e75e3c2	0.24012664
133	0xbdbaef6b	-0.091276966
134	0x3e80d478	0.251621
135	0x3e51f86c	0.20504922
136	0x3d1b7372	0.037951894
137	0x3b32db16	0.002729123
138	0xbdd67e5f	-0.10473322
139	0xbda5efe5	-0.08102397
140	0xbd80fabe	-0.06297825
141	0xbdd016fb	-0.10160633
142	0x3d1513cb	0.03639583
143	0x3d7511ed	0.05983155
144	0xbd95dbe5	-0.07317332
145	0xbe129336	-0.14313969
146	0xbe2c69ef	-0.16837285
147	0xbdb5c23e	-0.088749394
148	0xbbf1d674	-0.007380301
149	0xbcd1f678	-0.02563022
150	0xbcd133f0	-0.025537461
151	0x3d75ce0b	0.06001095
152	0xbc71b4ce	-0.01475258
153	0x3cd1e13f	0.025620101
154	0x3d6d80b4	0.05798407
155	0x3d16adc5	0.036786813
156	0xbc64962f	-0.013951822
157	0xbe90a04d	-0.282473
158	0x3d313359	0.04326186
159	0xbe2af6eb	-0.16695754
160	0xbc0cb367	-0.008587695
161	0x3c6363f4	0.013878811
162	0xbc6ec74d	-0.014573884
163	0xbc9b0e9e	-0.018927868
164	0x3dc564ff	0.09638404
165	0x3e188804	0.14895636
166	0xbdcac71a	-0.09901257
167	0xbe60039e	-0.2187638
168	0xbd6d38a0	-0.05791533
169	0x3d525b93	0.051356863
170	0xbe830e94	-0.2559706
171	0xbdf92273	-0.12164774
172	0x3d48bf14	0.04901035
173	0xbeb11d72	-0.34592777
174	0x3e7b1dd8	0.24523103
175	0xbd9bbaab	-0.076039635
176	0x3e4e2305	0.20130546
177	0x3e7d6b2b	0.24747913
178	0xbdb0a863	-0.08625867
179	0xbe4b9556	-0.19881186
180	0x3dd83909	0.105577536
181	0x3db795fc	0.08964154
182	0x3ded9a6d	0.1160172
183	0x3e88c6ce	0.26714176
184	0xbea62531	-0.3245025
185	0xbd1b6913	-0.037942003
186	0xbe867c3a	-0.26266652
187	0x3d3aaa74	0.045572713
188	0xbcfc31d8	-0.030785486
189	0x3d9e0ea2	0.07717635
190	0xbd1ca08f	-0.038239058
191	0x3cac4533	0.02102909
192	0x3e243025	0.1603399
193	0x3c7910c9	0.015201756
194	0xbc217146	-0.009853667
195	0x3d541267	0.051775362
196	0xbc831c74	-0.016004778
197	0xbd8c7099	-0.06857414
198	0xbd9cea4e	-0.076618776
199	0x3da48ce4	0.08034685
200	0x3d203d8a	0.03912119
201	0xbce2870a	-0.027652282
202	0xbebc4e2f	-0.367784
203	0xbe2fd171	-0.1716974
204	0xbe05adb0	-0.13054538
205	0x3d1945f0	0.037420213
206	0xbf0a01e8	-0.5390916
207	0xbdb949c7	-0.09047275
208	0xbe084240	-0.13306522
209	0xbc7cf921	-0.015440256
210	0xbea5b462	-0.32364184
211	0xbeb5a16a	-0.35474712
212	0xbd62f84e	-0.055412583
213	0xbcbbed89	-0.022940414
214	0x3cc1b278	0.02364467
215	0x3e041567	0.1289879
216	0x3cf6cce1	0.03012699
217	0x3d84ee51	0.06490768
218	0x3d8bfb8e	0.068350896
219	0x3e32f3b2	0.17475775
220	0xbe766a55	-0.24064
221	0xbe89f7dd	-0.26946917
222	0x3e120554	0.14259845
223	0xbcc63ab9	-0.024197923
224	0x3e69b6ec	0.22823685
225	0x3e88491b	0.26618275
226	0xbdeba949	-0.11506898
227	0xbc22e822	-0.00994304
228	0x3e66b7cf	0.22531055
229	0x3dfae11a	0.12249966
230	0xbe0b4759	-0.13601436
231	0xbe4c93e3	-0.1997829
232	0xbe8ec3d3	-0.27883777
233	0xbf3dec10	-0.7418833
234	0xbe720d20	-0.2363782
235	0xbeeb8d37	-0.46006176
236	0x3c8e7246	0.017388474
237	0xbd9a565e	-0.075360045
238	0x3d1a3710	0.037650168
239	0x3da7fe2f	0.082027785
240	0x3e674a6e	0.22586986
241	0x3dc6568a	0.09684475
242	0xbe9d139f	-0.30679032
243	0xbdcf7377	-0.10129445
244	0x3d8f0cc3	0.06984856
245	0x3e4c3733	0.19942932
246	0xbe51f7aa	-0.20504633
247	0x3d65ba28	0.056085736
248	0x3e0e533c	0.13898939
249	0x3db8dc11	0.09026349
250	0x3db17522	0.086649194
251	0xbf267fdf	-0.65038866
252	0xbd5e2c02	-0.054241188
253	0x3d0177e3	0.031608474
254	0xbd703d3a	-0.05865214
255	0x3bc777c1	0.006087274

conv3.bias f4 [64]
0	0xbb888edd	-0.0041674213
1	0x3eb2c437	0.34915325
2	0x3e170395	0.1474746
3	0xbece843f	-0.4033527
4	0x3d21217f	0.039338585
5	0xbce8a911	-0.02840093
6	0x3df1a4e7	0.11799031
7	0xbdbb3c64	-0.09142378
8	0x3e095e97	0.1341499
9	0x3e0c86e3	0.1372333
10	0xbebf34c0	-0.37344933
11	0xbdc10a0b	-0.09425744
12	0x3d3b7219	0.04576311
13	0xbdd80526	-0.10547857
14	0x3dd83c4b	0.10558375
15	0x3e2043b7	0.15650831
16	0xbd243c70	-0.0400967
17	0x3d096664	0.033544913
18	0x3d22178a	0.03957323
19	0x3d830fb9	0.06399483
20	0x3e02c30a	0.12769714
21	0xb9e912b8	-0.0004445517
22	0xbef1207f	-0.47095105
23	0xbe0f79ff	-0.14011382
24	0xbc128efa	-0.008945221
25	0xbe2756f9	-0.16341771
26	0x3eb289ff	0.34870908
27	0x3db0177c	0.08598229
28	0x3e7b5137	0.245427
29	0x3e0fe7c0	0.1405325
30	0x3e078962	0.13236001
31	0x3e5740fa	0.2102088
32	0xbdaaf1d6	-0.08346908
33	0x3e6c3ca5	0.23070009
34	0xbd8d60eb	-0.06903251
35	0xbe5f898c	-0.21829814
36	0x3d17e1c5	0.037080545
37	0x3e7421f6	0.2384108
38	0xbe62a695	-0.22133859
39	0x3d191922	0.037377484
40	0x3db1c75d	0.08680604
41	0x3e3c718c	0.1840269
42	0x3d0ef64e	0.034902863
43	0xbe2a69ae	-0.16641876
44	0x3d60dd47	0.054898527
45	0xbd079deb	-0.033109587
46	0x3d5d86e8	0.054083735
47	0x3ddc9586	0.10770707
48	0xbd3bf075	-0.045883615
49	0xbd6f111f	-0.058365937
50	0x3dab5995	0.08366696
51	0xbdc2f749	-0.09519822
52	0x3d6fa2cd	0.05850487
53	0xbe2e4520	-0.17018557
54	0x3e01a877	0.1266192
55	0xbad20761	-0.0016023928
56	0xbe0234fe	-0.12715527
57	0x3cfa5798	0.030559346
58	0xbde3bdf6	-0.111202165
59	0xbe4d37aa	-0.20040765
60	0x3daf3fc4	0.08557084
61	0x39f69466	0.00047031342
62	0xbe1d575a	-0.15365353
63	0xbd1a14a6	-0.037617348

conv4.weight f4 [64, 64, 2, 2]
0	0x3d150ac8	0.036387235
1	0xbe537c63	-0.20652919
2	0xbde0e066	-0.109803006
3	0xbf1288bf	-0.5723991
4	0xbe65706a	-0.22406164
5	0x3e7331dd	0.2374949
6	0xbe4f95cd	-0.20271988
7	0x3d792200	0.06082344
8	0xbec7163c	-0.3888415
9	0x3de3cb7f	0.11122798
10	0xbe91ef8b	-0.2850307
11	0xbd2a9f70	-0.041655958
12	0xbde16549	-0.11005647
13	0xbe563ee8	-0.20922434
14	0xbe22df44	-0.15905482
15	0xbe3f13b1	-0.18659855
16	0x3e0d5811	0.13803126
17	0x3dc80869	0.09767229
18	0x3da194c5	0.07889704
19	0xbea9130c	-0.33022344
20	0xbe815bbd	-0.25265303
21	0xbeaed427	-0.34146234
22	0xbdfea38f	-0.1243354
23	0xbe50021b	-0.20313303
24	0x3cd1c7c2	0.025607947
25	0xbf10bd4e	-0.56538856
26	0x3e0b4527	0.13600598
27	0xbe2c56cb	-0.16829984
28	0xbd80ff30	-0.06298673
29	0x3c79e855	0.015253146
30	0x3e47934b	0.19489782
31	0x3c84081f	0.016117154
32	0x3e2732d0	0.16327977
33	0xbe4e5fcb	-0.2015373
34	0x3e98c3fd	0.29837027
35	0x3ce1a127	0.027542664
36	0xbe412444	-0.1886149
37	0xbe8f28e7	-0.27960894
38	0xbddc5df9	-0.10760111
39	0xbe00d1d0	-0.12580037
40	0xbe01995f	-0.12656163
41	0x3ccda919	0.025105046
42	0xbe8b9e53	-0.2726923
43	0xbed6f434	-0.41983187
44	0xbeef142b	-0.46695074
45	0x3dd9333d	0.10605476
46	0xbef3fb1d	-0.47652522
47	0xbee0e9c1	-0.4392834
48	0xbebe4d17	-0.3716819
49	0x3d024cec	0.03181164
50	0xbdc16446	-0.09442954
51	0xbe8767a3	-0.26446256
52	0xbd1c575c	-0.03816925
53	0xbd889f5a	-0.06671019
54	0x3d4b8932	0.049691387
55	0xbd94bbe7	-0.07262402
56	0x3e84e746	0.25957698
57	0xbcf2c18b	-0.029633304
58	0x3ee6fac0	0.45113182
59	0x3e8585e4	0.26078713
60	0xbe18ba41	-0.149148
61	0xbe5834c9	-0.21113886
62	0x3e83bd77	0.25730488
63	0xbc89a393	-0.016801631
64	0xbdbb943e	-0.09159134
65	0x3d71ecff	0.059063908
66	0xbea95d40	-0.33078957
67	0xbc5e1b2d	-0.013556284
68	0xbe4fe5b3	-0.20302467
69	0xbd4cbddd	-0.049985755
70	0xbdc847af	-0.097792976
71	0xbebc421a	-0.3676918
72	0x3e109d51	0.14122511
73	0xbe398115	-0.18115647
74	0x3d49031e	0.04907524
75	0x3dab31a4	0.083590776
76	0xbec55c2c	-0.38546884
77	0xbe026fb3	-0.12737922
78	0xbe87ab24	-0.26497757
79	0xbd95420b	-0.07287987
80	0xbe15ce09	-0.14629377
81	0x3ebae51d	0.36502925
82	0xbbf035d8	-0.0073306374
83	0x3dd429c0	0.10359526
84	0xbec2b916	-0.38031834
85	0x3efa5311	0.488915
86	0x3d34acba	0.044110037
87	0xbd1b484c	-0.037910745
88	0x3d135ba2	0.03597606
89	0x3d228711	0.03967959
90	0xbea25cde	-0.31711477
91	0x3dabfe5c	0.083981246
92	0xbce50260	-0.027955234
93	0x3d2fed2a	0.042950787
94	0x3d0b53fb	0.034015637
95	0x3dad4965	0.084612645
96	0xbef42240	-0.4768238
97	0xbe097585	-0.13423736
98	0xbe454d44	-0.19267756
99	0x3e883c0c	0.26608312
100	0x3d020ca7	0.031750347
101	0x3e90c559	0.28275564
102	0xbe0c0628	-0.13674223
103	0x3e21c3b0	0.15797305
104	0x3dda4ab5	0.106587805
105	0xbe4489e0	-0.1919322
106	0x3e579687	0.21053515
107	0xbdb4a416	-0.088203594
108	0xbe6f0ca3	-0.23344664
109	0xbf04ea59	-0.51920086
110	0xbe2c26e8	-0.16811717
111	0xbebabdd5	-0.36472955
112	0xbe2fbbad	-0.17161436
113	0xbef1284e	-0.47101063
114	0x3d260ee2	0.040541537
115	0xbe70b18c	-0.23505229
116	0xbe2f0d88	-0.17095006
117	0xbe7dc934	-0.24783784
118	0xbf087106	-0.5329746
119	0xbebc249e	-0.36746687
120	0x3d6a2b09	0.057169948
121	0x3e8e843c	0.27835262
122	0x3cb224af	0.021746008
123	0xbe842d55	-0.25815836
124	0xbe1463a4	-0.14491135
125	0x3e52c437	0.20582663
126	0xbe659b11	-0.22422434
127	0x3dbe131f	0.09280991
128	0xbe470b2a	-0.19437853
129	0xbdef7eb7	-0.11694091
130	0xbe65568a	-0.22396293
131	0xbe34e49c	-0.17665333
132	0x3d877ec6	0.06615977
133	0xbeb7614a	-0.35816413
134	0x3cca1d99	0.024672316
135	0x3e255d3b	0.16148846
136	0x3dad07bf	0.08448743
137	0xbe12c2eb	-0.14332168
138	0xbe6bf8f2	-0.23044184
139	0x3e425afd	0.18980022
140	0xbe10d4e5	-0.14143713
141	0x3d35a0f8	0.044342965
142	0xbdddd0ee	-0.10830866
143	0x3c786ab2	0.015162157
144	0xbd7b90ff	-0.061417576
145	0xbd864e82	-0.06557943
146	0x3e32f166	0.17474899
147	0x3e15ccb6	0.14628872
148	0x3dab6177	0.08368199
149	0x3d33f9dd	0.04393946
150	0x3e1c46cd	0.15261383
151	0x3d2e8746	0.042609476
152	0xbe20a897	-0.15689312
153	0x3cbae80e	0.02281573
154	0xbf0074bf	-0.5017814
155	0xbf073ff4	-0.5283196
156	0xbea9736b	-0.3309587
157	0x3e04624f	0.12928127
158	0xbe9ba737	-0.30401012
159	0xbde22ee1	-0.11044098
160	0xbe33a87e	-0.17544743
161	0x3e490fc5	0.19634922
162	0xbe5348eb	-0.20633285
163	0x3e9cb65d	0.30607882
164	0xbe54d71e	-0.20785186
165	0xbb8ca0f8	-0.00429165
166	0xbd21d86e	-0.039513044
167	0xbdb9c9fe	-0.0907173
168	0x3e170366	0.1474739
169	0xbe0d43ae	-0.13795349
170	0xbdf37805	-0.11888126
171	0xbe8a8c79	-0.27060297
172	0xbd7e0ba2	-0.062022813
173	0xbd4c93e5	-0.04994573
174	0xbd08d02a	-0.033401646
175	0x3aff27e8	0.0019466849
176	0x3daf3578	0.0855512
177	0x3da38d29	0.079859085
178	0xbc31998f	-0.010839834
179	0x3eb176b9	0.3466089
180	0xbdf0bf9c	-0.117552966
181	0x3c13fdb0	0.009032652
182	0xbec39728	-0.3820126
183	0xbe120aee	-0.14261982
184	0xbc7608de	-0.015016763
185	0xbed22627	-0.41044733
186	0x3e701ed0	0.23449254
187	0xbecb9c36	-0.39767617
188	0x3de3c03e	0.11120652
189	0xbf11dfed	-0.5698231
190	0x3e32fef5	0.17480071
191	0xbdd8ce5a	-0.105862334
192	0xbe9b0ebc	-0.3028468
193	0x3e70a5a7	0.23500691
194	0xbe234a26	-0.15946254
195	0x3db7ee86	0.089810416
196	0xbd554d20	-0.052075505
197	0xbe73ca61	-0.2380767
198	0x3eb64d08	0.35605645
199	0xbe13a703	-0.14419179
200	0x3e3089e9	0.17240109
201	0xbe29da35	-0.16587146
202	0x3ec04df1	0.37559465
203	0x3defd01d	0.11709616
204	0xbdad3994	-0.08458248
205	0x3d1a25a3	0.03763355
206	0x3d0eb173	0.034837198
207	0x3d8e31ec	0.069431156
208	0x3dffa46c	0.12482533
209	0x3cab377d	0.020900482
210	0x3e7ffdfe	0.24999234
211	0x3e76dcd9	0.24107684
212	0x3e3c96de	0.18416926
213	0xbed453e0	-0.41470242
214	0xbd728d09	-0.059216533
215	0xbdf6cb57	-0.12050503
216	0x3e9c938f	0.30581328
217	0xbe74f912	-0.23923138
218	0x3eb37c2f	0.35055682
219	0x3eaab12b	0.33338293
220	0xbe942b4a	-0.28939277
221	0xbe6c0fc8	-0.23052895
222	0xbde79661	-0.113079794
223	0x3c8fc092	0.01754788
224	0x3e1159d1	0.14194418
225	0x3e3ef782	0.18649104
226	0xbdffbbf1	-0.12487019
227	0x3eaebf7e	0.34130472
228	0xbe87ac9a	-0.26498872
229	0x3e30e07d	0.17273135
230	0xbed794bd	-0.42105666
231	0xbdd41b88	-0.10356814
232	0xbdead3e3	-0.114661954
233	0x3e1d7f07	0.15380488
234	0x3db0bca0	0.08629727
235	0xbeb12dcf	-0.34605262
236	0xbdc21c5f	-0.094780676
237	0xbdc6a9b8	-0.0970034
238	0x3c374e1d	0.011188057
239	0x3c0fce72	0.008777248
240	0x3d244d83	0.040112983
241	0xbe897feb	-0.26855406
242	0x3eaa8758	0.33306384
243	0xbec2680e	-0.37970012
244	0x3cf32035	0.029678443
245	0xbec48586	-0.3838312
246	0x3e4c22c6	0.1993514
247	0x3ab8eff9	0.0014109603
248	0xbe811ece	-0.25218815
249	0x3dd6c945	0.10487608
250	0xbdc749bf	-0.09730863
251	0xbe49de9d	-0.19713826
252	0xbe3b97c4	-0.18319613
253	0x3e0a46ff	0.13503645
254	0xbe54bec0	-0.2077589
255	0x3de6bf84	0.112669975

conv4.bias f4 [64]
0	0xbdab1129	-0.083528824
1	0xbda463c7	-0.080268435
2	0xbbb75e7c	-0.00559598
3	0xbdd1081f	-0.10206627
4	0x3db78939	0.0896172
5	0x3e0ba58c	0.1363737
6	0x3c251b69	0.010077336
7	0xbd672fe7	-0.056442168
8	0xbe0e1004	-0.13873297
9	0x3e68bb21	0.22727634
10	0xbdc6c19c	-0.09704897
11	0xbd0921d7	-0.033479538
12	0x3deacbaa	0.11464627
13	0x3e987df7	0.29783604
14	0x3de40410	0.11133587
15	0x3e3308ec	0.17483872
16	0x3c58683d	0.013208446
17	0xbe0e34a2	-0.13887265
18	0x3e283ddc	0.16429847
19	0x3d1e0109	0.038575206
20	0x3ebec08b	0.37256274
21	0x3da8f523	0.08249881
22	0xbea1dca5	-0.3161365
23	0xbd4709f1	-0.048593465
24	0xbdbb44be	-0.09143971
25	0x3e3884ed	0.18019457
26	0xbd5f289e	-0.054482095
27	0x3ea13eec	0.31493318
28	0x3db5b58b	0.08872517
29	0x3dfd1bd3	0.12358823
30	0xbe19e1b5	-0.15027507
31	0x3dab2bde	0.083579764
32	0x3e803c80	0.25046158
33	0x3e0af173	0.13568668
34	0xbdee7f63	-0.11645391
35	0xbe0cc4c1	-0.1374693
36	0xbd8adaac	-0.067799896
37	0xbe695799	-0.22787322
38	0xbe96062d	-0.29301587
39	0xbe777521	-0.24165775
40	0x3d53e5f3	0.05173297
41	0xbe97e020	-0.2966318
42	0x3c354447	0.011063642
43	0x3d974b92	0.07387461
44	0x3dd936d4	0.10606161
45	0xbd9179d6	-0.071033165
46	0x3dcf3123	0.10116794
47	0xbe14e331	-0.14539792
48	0x3e1be2c5	0.15223224
49	0xbe3a764b	-0.18209188
50	0xbdc2986a	-0.09501727
51	0xbaafb3ff	-0.0013405083
52	0x3e2a6e20	0.16643572
53	0x3e897809	0.26849392
54	0x3e8873cf	0.26650855
55	0xbdd42308	-0.10358244
56	0xbcfd5097	-0.030922217
57	0x3cc34ed8	0.023841307
58	0xbd8305be	-0.063975796
59	0xbdd63073	-0.1045846
60	0x3e093edb	0.13402884
61	0x3e3c1f46	0.18371305
62	0xbdd85ce2	-0.10564591
63	0xbd935dc9	-0.071956225

conv5.weight f4 [128, 64, 2, 2]
0	0xbd303059	-0.043014858
1	0xbe3a3c80	-0.18187141
2	0xbe07ceda	-0.13262501
3	0xbe5e9a06	-0.21738443
4	0x3caac8ea	0.020847756
5	0xbd51d8e0	-0.05123222
6	0x3cd98828	0.026554182
7	0xbdad3083	-0.084565185
8	0x3e322e23	0.17400412
9	0x3cc4060a	0.02392866
10	0x3e4d4dfe	0.20049283
11	0xbe54ef32	-0.20794371
12	0xbe4be7c4	-0.1991263
13	0x3d00ee46	0.031477235
14	0xbe6efdb0	-0.23338962
15	0xbe0ee749	-0.13955416
16	0xbedf6827	-0.4363415
17	0xbf0be4fa	-0.54646266
18	0xbe15c7cf	-0.14627002
19	0xbe9e4ed6	-0.30919522
20	0xbeae09d4	-0.33991873
21	0x3d0f4f8e	0.03498798
22	0xbdf9bfb8	-0.121947706
23	0xbe26e826	-0.16299495
24	0xbe1b8371	-0.1518686
25	0x3cc24999	0.023716735
26	0x3d9d3d8b	0.07677754
27	0x3d37483a	0.044746615
28	0xbe82d098	-0.2554977
29	0xbe79d661	-0.24398185
30	0xbe4ed64c	-0.20198935
31	0xbd0b2fd0	-0.033981144
32	0xbd7639e1	-0.06011379
33	0xbee1a570	-0.4407153
34	0xbd20fae8	-0.039301783
35	0xbdaa2e33	-0.08309593
36	0x3e170e96	0.14751658
37	0xbd005b3d	-0.03133701
38	0x3e908f71	0.28234437
39	0xbd781a56	-0.06057199
40	0xbe2f1061	-0.17096092
41	0xbea1bd5f	-0.3158979
42	0x3d2a0971	0.04151291
43	0x3e04095c	0.12894195
44	0xbed6ea6a	-0.4197572
45	0xbd6273d6	-0.05528625
46	0x3cd1072b	0.025516113
47	0x3e967548	0.29386353
48	0xbe6c5756	-0.23080191
49	0xbf4a2cf8	-0.78974867
50	0xbd1fba53	-0.038996052
51	0xbe0f1216	-0.13971743
52	0xbe867908	-0.26264215
53	0xbc79a60f	-0.015237345
54	0xbe581773	-0.21102695
55	0x3d5d7ed0	0.054076016
56	0xbcf94613	-0.030428922
57	0xbe425574	-0.1897791
58	0xbec60644	-0.38676655
59	0x3e5cddb8	0.21568954
60	0xbe96b5cb	-0.29435572
61	0x3dc49f84	0.09600738
62	0x3d86c581	0.0658064
63	0xbc9cb39b	-0.019128611
64	0x3e88f845	0.26751915
65	0x3e579759	0.21053828
66	0xbeefcaa4	-0.4683429
67	0xbe9ff77f	-0.31243512
68	0xbb498ee4	-0.0030755335
69	0x3c581816	0.013189336
70	0x3c6f108d	0.014591348
71	0x3d6b6fe6	0.05747976
72	0x3d43ceeb	0.047804754
73	0x3e8baf0d	0.2728199
74	0xbea6727f	-0.3250923
75	0xbe273109	-0.16327299
76	0x3dea9557	0.114542656
77	0xbe183684	-0.14864546
78	0x3d60c38c	0.054873988
79	0x3e4e3752	0.2013829
80	0x3df31da4	0.11870888
81	0xbc8e25be	-0.017351981
82	0x3df7f5d2	0.121074334
83	0x3d12ced2	0.03584177
84	0xbced9b8d	-0.029004836
85	0xbdbcac78	-0.09212583
86	0xbcf5d0d5	-0.030006805
87	0x3e024a62	0.12723687
88	0xbeab80c5	-0.3349668
89	0x3d36072b	0.04444043
90	0xbc13af39	-0.009013944
91	0x3ea91c8d	0.33029595
92	0xbeca7097	-0.39539024
93	0xbe8fcf4b	-0.2808784
94	0x3db2dbe6	0.087333485
95	0xbab6cc22	-0.0013946334
96	0xbd957e59	-0.072994895
97	0xbd030121	-0.0319835
98	0xbd9b9f6d	-0.075987674
99	0xbda9e74f	-0.08296072
100	0xbe217433	-0.15766983
101	0xbe633f31	-0.22192074
102	0x3ea93e36	0.33055276
103	0x3e27f5dc	0.16402382
104	0xbc0838f3	-0.008314359
105	0xbd753eb0	-0.059874237
106	0x3e6182ab	0.22022502
107	0xbf01a027	-0.50635
108	0x3efa0225	0.4882976
109	0xbd243bc9	-0.040096078
110	0x3e83af27	0.25719568
111	0x3e26724e	0.16254541
112	0x3e27259d	0.16322942
113	0x3c6f6f82	0.014613988
114	0x3f267cf3	0.6503441
115	0xbd616be7	-0.055034544
116	0x3e4689b2	0.19388464
117	0x3e86567c	0.26237857
118	0x3eb8a7fa	0.36065656
119	0x3ea094e4	0.31363595
120	0xbd16ca1c	-0.03681384
121	0x3d0407a8	0.032233864
122	0xbca70690	-0.020388871
123	0xbe3c918c	-0.18414897
124	0x3e6129ae	0.21988556
125	0xbe3a516d	-0.18195124
126	0x3e594979	0.21219434
127	0xbeb89bf1	-0.36056474
128	0xbdd7de32	-0.10540427
129	0xbd9d4a50	-0.076801896
130	0xbda1ce65	-0.07900695
131	0xbd8e8b49	-0.0696016
132	0xbe89fafb	-0.26949295
133	0x3b55b357	0.0032608116
134	0xbd95a7d3	-0.073074006
135	0xbcee38eb	-0.029079875
136	0x3ed2d17b	0.41175446
137	0x3f154167	0.5830292
138	0x3e4221d8	0.18958223
139	0x3ee7272f	0.45147082
140	0xbe4758a3	-0.19467406
141	0x3e8b2d55	0.27183023
142	0xbea3671d	-0.31914607
143	0xbc420c1c	-0.011843707
144	0x3d343d52	0.044003792
145	0x3d8afc12	0.0678636
146	0x3ce71c5c	0.028211765
147	0xbe8d5b03	-0.276085
148	0xbeb8c482	-0.36087424
149	0xbe8ec0f2	-0.2788158
150	0xbe2c95e7	-0.16854058
151	0x3e997f65	0.29980007
152	0xbd16748c	-0.03673224
153	0x3ebe1227	0.37123224
154	0xbdec4451	-0.11536468
155	0xbe75eaa4	-0.2401529
156	0xbe375b51	-0.17905928
157	0xbe33881a	-0.17532387
158	0xbefe1794	-0.49627364
159	0xbe8443b1	-0.25832894
160	0xbdb10c7c	-0.08644959
161	0xbe9b53a4	-0.3033725
162	0x3e7c92a5	0.24665315
163	0xbd702cf0	-0.058636606
164	0xbebde217	-0.37086555
165	0xbe77db84	-0.24204832
166	0xbe527458	-0.20552194
167	0xbe96e6b7	-0.29472896
168	0xbd4dc6c6	-0.050238393
169	0x3dc05753	0.09391656
170	0xbe43c4b6	-0.19118008
171	0xbed34902	-0.41266638
172	0x3d94bb89	0.07262332
173	0x3e0d9059	0.13824596
174	0x3dfc2fa6	0.12313776
175	0x3ec70bc3	0.3887616
176	0xbd6b59ff	-0.057458874
177	0xbe6a54e1	-0.22883941
178	0xbad7828b	-0.0016442103
179	0xbe58526f	-0.21125196
180	0x3d537bc6	0.05163171
181	0x3e0a421d	0.13501783
182	0xbe60e0d2	-0.21960762
183	0xbdd8a975	-0.10579196
184	0xbee3fc3c	-0.44528377
185	0xbcf78bb3	-0.030217981
186	0xbee4a1ae	-0.44654602
187	0xbea95594	-0.33073103
188	0x3e2d73a3	0.16938643
189	0xbdc53dac	-0.096309036
190	0xbe98f4b5	-0.29874197
191	0xbeb5ff50	-0.3554635
192	0xbe0a75b2	-0.1352146
193	0xbcf07916	-0.029354613
194	0xbe1569c5	-0.14591129
195	0xbd5815ce	-0.05275517
196	0x3e1d0f96	0.15337977
197	0xbf37fe48	-0.7187238
198	0xbe9383d4	-0.28811514
199	0xbf1902e0	-0.5977001
200	0xbe548f6e	-0.20757839
201	0x3d73cf18	0.059523672
202	0xbd93a47f	-0.072091095
203	0xbe85e4ef	-0.26151225
204	0x3e446215	0.1917804
205	0x3d8f85f8	0.070079744
206	0x3e65bbf1	0.22434975
207	0xbe88dc29	-0.2673047
208	0x3d97dd4f	0.07415258
209	0xbe7a10bb	-0.24420445
210	0xbe51416c	-0.20435113
211	0xbe90fd07	-0.28318045
212	0x3e902bc5	0.28158394
213	0x3eda9aa7	0.42696115
214	0x3d59a52d	0.05313604
215	0xbe5b2f7a	-0.2140483
216	0x3e540078	0.20703304
217	0xbe89a0e6	-0.26880568
218	0xbe2c5367	-0.1682869
219	0xbeacdc63	-0.33761892
220	0xbeacfc2f	-0.3378615
221	0xbee9bd57	-0.45652267
222	0x3e427ec2	0.18993667
223	0xbe78b252	-0.24286774
224	0x3d766d8d	0.06016307
225	0xbe1a63ec	-0.1507718
226	0x3e13c227	0.14429532
227	0x3d6e1997	0.058129873
228	0x3d994c74	0.074852854
229	0x3e093720	0.13399935
230	0xbed02bc8	-0.40658402
231	0xbe290f99	-0.16509856
232	0x3cc41f54	0.02394072
233	0x3e9bdf97	0.30444023
234	0xbe688a06	-0.22708902
235	0x3e9b5e86	0.30345553
236	0xbe68182f	-0.22665475
237	0xbe00109a	-0.12506333
238	0xbdcb94bb	-0.099404775
239	0x3d9f4a3a	0.077778295
240	0xbdce873d	-0.100843884
241	0x3dcbdab8	0.09953827
242	0x3ddbeff3	0.10739126
243	0x3f69d470	0.9133978
244	0xbeaa5109	-0.3326495
245	0xbe529fc8	-0.20568764
246	0xbd873f2a	-0.066038445
247	0xbed36ee1	-0.4129553
248	0x3e05eee7	0.13079415
249	0x3dbcd627	0.09220534
250	0xbccaf776	-0.024776202
251	0xbe13158e	-0.14363691
252	0xbd64db39	-0.05587313
253	0xbc67617b	-0.014122362
254	0x3a70fa8a	0.00091926067
255	0x3c71fd0e	0.014769806

conv5.bias f4 [128]
0	0x3e6aa0e9	0.22912945
1	0x3d203932	0.039117046
2	0x3e5f3c79	0.21800412
3	0x3e3a6d2b	0.18205707
4	0xbdcc418c	-0.099734396
5	0x3de5379a	0.11192246
6	0x3e4ea94b	0.20181768
7	0x3da7bd5a	0.08190413
8	0x3e4b4b81	0.19853021
9	0xbe9f0ca1	-0.31064323
10	0x3e064ca3	0.13115172
11	0x3d1a11dd	0.037614692
12	0xbe838d39	-0.25693682
13	0xbe4a5709	-0.19759764
14	0xbdf719af	-0.12065446
15	0x3d839ca8	0.06426364
16	0xbe85e831	-0.2615371
17	0x3e253533	0.16133575
18	0x3df40920	0.11915803
19	0xbddd087b	-0.10792633
20	0x3dfdd356	0.12393825
21	0x3cc7ca9f	0.02438861
22	0xbcad39dd	-0.021145755
23	0x3cbc5a2e	0.02299222
24	0x3ecc5db3	0.39915237
25	0x3e357713	0.17721204
26	0x3dfb9ef7	0.122861795
27	0xbee7fd77	-0.45310566
28	0xbdf1dc6e	-0.11809622
29	0xbe261882	-0.16220286
30	0xbc8dfd1d	-0.017332608
31	0xbc3e25d1	-0.011605696
32	0xbb0188f8	-0.0019765478
33	0xbe6d33f4	-0.2316435
34	0x3e2aacb3	0.16667442
35	0x3e4dfec1	0.20116712
36	0x3d2d847c	0.042362675
37	0x3ddbfc71	0.10741509
38	0xbd0f7c19	-0.035030458
39	0xbcbe6465	-0.023241231
40	0x3d667136	0.05626031
41	0x3d2a83f8	0.04162976
42	0x3d901754	0.070356995
43	0x3da42a19	0.08015842
44	0x3bbf42c2	0.0058368156
45	0x3e2665b1	0.1624973
46	0xbd409569	-0.04701749
47	0x3e5e138f	0.21687149
48	0x3e025482	0.1272755
49	0x3e03db85	0.12876709
50	0xbe0ad5f8	-0.13558185
51	0xbe87e31f	-0.26540467
52	0xbecd63e3	-0.4011527
53	0xbe867e83	-0.26268396
54	0x3d833ba0	0.06407857
55	0x3e475bf0	0.19468665
56	0x3d3c37b6	0.045951568
57	0x3e3f62f7	0.18690096
58	0xbe27e9c9	-0.16397776
59	0x3d4950a1	0.04914916
60	0xbd5ad007	-0.053421047
61	0x3e5fff8b	0.21874826
62	0x3e33e20a	0.17566696
63	0x3e4f8c7f	0.20268439
64	0xbe1ce472	-0.1532152
65	0x3e7d21a0	0.24719858
66	0xbdb535ea	-0.08848174
67	0x3e74bad8	0.238994
68	0xbd8964ce	-0.0670868
69	0x3c9a10e3	0.01880688
70	0xbc29bfa9	-0.010360637
71	0xbcad7ab7	-0.021176679
72	0x3d8c37e7	0.068466
73	0xbe2ce10e	-0.16882727
74	0xbdd84235	-0.10559503
75	0xbe558c21	-0.20854236
76	0x3ca4f4bc	0.02013623
77	0xbe8e001a	-0.27734452
78	0xbe420769	-0.18948139
79	0x3d292591	0.04129559
80	0x3e0c3959	0.13693751
81	0xbd34bdeb	-0.044126432
82	0x3c550e6c	0.013003927
83	0xbda3ba34	-0.079945
84	0xbc221cc5	-0.0098945545
85	0xbb13b54c	-0.0022538481
86	0xbda5824d	-0.080814935
87	0x3ddd90fe	0.10818671
88	0xbeb33b31	-0.35006097
89	0x3e8e313b	0.27771935
90	0x3e0ad5b9	0.13558091
91	0xbc133238	-0.008984141
92	0xbe0b41f4	-0.13599378
93	0xbd7f652d	-0.062352348
94	0xbe002a2b	-0.12516086
95	0x3c96210b	0.018326303
96	0x3e880419	0.26565626
97	0x3d79980e	0.060936026
98	0xbe077920	-0.132298
99	0x3e9f33a6	0.31094092
100	0xbe06f245	-0.13178356
101	0xbe0ec320	-0.13941622
102	0x3e082dfe	0.13298795
103	0xbcfbdee4	-0.030745931
104	0xbdfd242c	-0.12360415
105	0xbd96619e	-0.07342838
106	0x3e4937db	0.19650213
107	0xbe2feccf	-0.17180179
108	0x3e0fe767	0.14053117
109	0x3e3a14e3	0.1817203
110	0x3e8087e6	0.25103682
111	0xbdc2095a	-0.0947444
112	0x3e585006	0.21124277
113	0x3d17cc5d	0.03706013
114	0x3d828aee	0.06374155
115	0xbcb3b2e4	-0.021935888
116	0xbe3d35a8	-0.184775
117	0x3d577b9b	0.052608114
118	0xbeed08df	-0.4629583
119	0x3e371d09	0.1788217
120	0x3e7331a2	0.23749402
121	0x3cf4f721	0.029902996
122	0x3c940837	0.018070323
123	0x3caed8df	0.021343647
124	0x3e07ff1b	0.13280909
125	0xbdaaedfa	-0.08346172
126	0xbe2f7e74	-0.17138082
127	0xbe3dedd5	-0.18547757

conv6.weight f4 [64, 128, 2, 2]
0	0xbd119935	-0.0355465
1	0xbca00211	-0.019532235
2	0xbf189b8a	-0.59612334
3	0xbef51304	-0.4786607
4	0xbe50e6bf	-0.20400523
5	0xbe96b35d	-0.29433718
6	0xbead4233	-0.33839568
7	0xbe993cd8	-0.29929233
8	0xbdfd058a	-0.12354572
9	0xbece8c26	-0.403413
10	0xbe7a761b	-0.24459116
11	0x3e4467e1	0.19180252
12	0x3e5cfe1e	0.21581313
13	0xbd16d02f	-0.036819633
14	0xbc85341b	-0.016260197
15	0xbdd31ab6	-0.10307829
16	0xbde9e784	-0.11421111
17	0x3d969805	0.07353214
18	0x3e0e4f19	0.13897361
19	0x3e7d9271	0.24762894
20	0x3d821629	0.06351883
21	0x3e158c8e	0.14604399
22	0x3ec29f00	0.38011932
23	0x3e9d562f	0.30729815
24	0xbd77dfcf	-0.060516175
25	0x3e0d797b	0.13815872
26	0x3d86cf58	0.065825164
27	0xbed7ad33	-0.42124328
28	0x3e665f04	0.22497183
29	0xbcd6d28f	-0.026223449
30	0xbe3f5344	-0.18684107
31	0x3d8a8b48	0.06764847
32	0xbe47d535	-0.19514926
33	0xbdf3ad0d	-0.11898241
34	0xbd82775f	-0.063704245
35	0xbd858e68	-0.065213025
36	0xbeb6ce92	-0.35704476
37	0xbe6d9562	-0.23201516
38	0xbc4a579b	-0.012349988
39	0xbe29c43e	-0.16578767
40	0x3d8aca5f	0.067768805
41	0xbc9bfd87	-0.01904179
42	0x3e0a44b2	0.13502768
43	0x3d66310d	0.056199122
44	0x3b3d3e12	0.0028876108
45	0xbe37f4e8	-0.17964518
46	0xbe9258c9	-0.28583363
47	0xbec009a7	-0.37507364
48	0xbe60496e	-0.21903011
49	0xbeeacaf2	-0.4585796
50	0x3e2be52d	0.16786642
51	0xbc2de667	-0.010614014
52	0xbe8639d9	-0.2621601
53	0x3da6b690	0.0814029
54	0x3da515fb	0.08060833
55	0xbe2b6075	-0.16736014
56	0xbe858efc	-0.2608565
57	0xbebad8f8	-0.3649366
58	0x3e39d7a9	0.18148674
59	0xbdb8ea32	-0.09029044
60	0xbc3e737d	-0.011624214
61	0x3dabaf30	0.08383024
62	0xbc8aac4d	-0.016927863
63	0xbdd515e5	-0.10404567
64	0xbcac64e1	-0.021044197
65	0x3d86027a	0.06543441
66	0x3c1295df	0.008946865
67	0x3ddb5a5e	0.107105955
68	0x3d362aa9	0.044474278
69	0x3d48f5f8	0.0490627
70	0x3ee7dbec	0.45284975
71	0x3edbb7ff	0.42913815
72	0x3d1440e4	0.036194697
73	0x3d912a00	0.07088089
74	0x3e4b9847	0.19882308
75	0x3e60aefa	0.21941748
76	0xbca7fe57	-0.02050702
77	0x3c91a5c7	0.017779244
78	0xbccde9d3	-0.02513591
79	0x3cd0b8ba	0.02547871
80	0x3dda35bf	0.106547825
81	0x3ce8559b	0.028361132
82	0x3d7781ed	0.06042664
83	0xbeb690de	-0.356574
84	0xbdcfd60f	-0.1014825
85	0x3e50d8cc	0.20395201
86	0x3e5e41df	0.21704815
87	0x3e7d6549	0.24745668
88	0x3ddec953	0.10878243
89	0xbed19e66	-0.4094116
90	0xbe5c6464	-0.21522671
91	0xbf1f89f6	-0.62319887
92	0xbe748ca0	-0.23881769
93	0xbe49de23	-0.19713645
94	0xbf277a07	-0.65420574
95	0xbf48adab	-0.78389996
96	0xbd5406aa	-0.051764168
97	0xbedb3d31	-0.42820123
98	0xbf213bf0	-0.6298208
99	0xbec58a40	-0.3858204
100	0xbb38b19a	-0.002818203
101	0xbee10028	-0.43945432
102	0xbeb26463	-0.34842214
103	0xbf5b5866	-0.8568176
104	0xbe5589ac	-0.20853299
105	0xbeafc219	-0.34327772
106	0x3d7351a7	0.05940404
107	0xbdc516c2	-0.09623481
108	0x3d0b7e91	0.03405625
109	0xbe0eea82	-0.13956645
110	0x3d6ea877	0.05826613
111	0x3e8042c7	0.25050947
112	0xbded49ae	-0.11586319
113	0xbd5f95fb	-0.054586392
114	0x3d909f34	0.070616156
115	0xbd7d478a	-0.061835803
116	0xbcc02346	-0.02345432
117	0xbcbbc798	-0.022922322
118	0xbd8133fe	-0.06308745
119	0xbcf2d0d1	-0.029640587
120	0xbdf5390e	-0.11973773
121	0x3e78ca84	0.24296004
122	0x3d406905	0.046975154
123	0xbe827a7d	-0.25484076
124	0xbe3afefc	-0.18261331
125	0xbd0f8223	-0.035036217
126	0xbc95325f	-0.018212495
127	0xbcf3f7d8	-0.029781267
128	0x3e7ffecf	0.24999546
129	0x3e0d9bd1	0.1382897
130	0xbdce3d18	-0.100702465
131	0x3e780949	0.24222292
132	0x3cc9cd1b	0.024633935
133	0xbd4c3fcf	-0.04986554
134	0xbda06d19	-0.07833309
135	0xbd8a6b99	-0.06758804
136	0x3e951177	0.29114887
137	0x3d3a31ef	0.045457777
138	0xbe5ae2be	-0.21375558
139	0xbc302f49	-0.010753461
140	0xbdf1ffe3	-0.11816385
141	0xbdfc9445	-0.12332968
142	0x3ceb0181	0.02868724
143	0x3d6fc32d	0.058535744
144	0x3e827304	0.25478375
145	0x3e9ec69b	0.310109
146	0x3d8952c5	0.0670524
147	0x3ecc0da5	0.3985416
148	0x3e05c38a	0.13062873
149	0x3ea6675d	0.32500735
150	0x3e51ea6b	0.2049958
151	0x3dbd6e55	0.0924956
152	0x3d2eb095	0.04264887
153	0xbea7c4ce	-0.32767338
154	0x3dc4ea1a	0.09614964
155	0xbf04f72c	-0.51939654
156	0xbe26d3eb	-0.16291778
157	0xbe26bd15	-0.16283067
158	0xbce15f75	-0.027511338
159	0x3e885774	0.2662922
160	0x3e0594d5	0.13045056
161	0xbec300df	-0.38086602
162	0x3d4b56e6	0.04964342
163	0x3c9406ca	0.018069644
164	0x3e0c4eee	0.13701984
165	0xbdc1938c	-0.094519705
166	0x3d542911	0.051796976
167	0x3dc88db1	0.097926505
168	0x3e488e17	0.19585453
169	0xbe43dbcf	-0.19126819
170	0xbe469036	-0.1939095
171	0xbf011549	-0.50423104
172	0xbe975af5	-0.29561582
173	0x3d8396c3	0.0642524
174	0x3ea99904	0.33124554
175	0x3e4ce728	0.20010054
176	0x3e1bd0ba	0.15216342
177	0x3d181993	0.037133764
178	0x3e7eda92	0.24888065
179	0x3e67f6a0	0.22652674
180	0xbeae433a	-0.34035665
181	0xbebb5675	-0.365894
182	0xbe87a1f6	-0.26490754
183	0x3e4db5ac	0.20088834
184	0x3e53dc1b	0.20689432
185	0xbd8923e2	-0.06696297
186	0x3e933882	0.2875405
187	0x3e1da48c	0.15394801
188	0xbe461c40	-0.19346714
189	0xbc0a0085	-0.008422975
190	0xbe1ef119	-0.15521659
191	0xbe11f0bc	-0.14251989
192	0xbe3020de	-0.17200038
193	0xbf18e77e	-0.5972823
194	0xbdcd28b6	-0.100175306
195	0xbe948e43	-0.29014787
196	0xbe2ecec7	-0.17071067
197	0x3e51aaaa	0.2047526
198	0x3e956123	0.29175672
199	0xbeb0d79a	-0.3453949
200	0xbe7502ec	-0.23926896
201	0xbdc80c01	-0.097679146
202	0x3d779be9	0.060451422
203	0xbe252462	-0.1612716
204	0x3e80f86a	0.25189525
205	0xbc817e5c	-0.015807323
206	0x3dfa8c82	0.12233831
207	0x3e812633	0.25224456
208	0x3ea4db6a	0.3219865
209	0x3d2c0f3b	0.042006712
210	0x3df530ba	0.119721845
211	0xbdae2b02	-0.08504297
212	0x3e8047ff	0.2505493
213	0x3e74e8f5	0.23916991
214	0x3d3f9680	0.046774387
215	0x3db17b88	0.0866614
216	0xbd0330f2	-0.0320291
217	0x3e521f65	0.20519789
218	0x3ec3bb7f	0.38228986
219	0x3e338bbc	0.17533773
220	0xbe2501a1	-0.16113903
221	0xbe6e1ea0	-0.2325387
222	0xbd66710e	-0.05626016
223	0xbda138b5	-0.07872144
224	0xbd6d9675	-0.058004815
225	0xbd868103	-0.06567576
226	0x3eab40bf	0.33447835
227	0x3dcbcbb1	0.099509604
228	0x3c9bc69c	0.019015603
229	0x3cd93628	0.026515082
230	0x3e88f402	0.26748663
231	0x3c65943b	0.014012392
232	0x3b2f4a9b	0.002674735
233	0xbc8c7d09	-0.017149465
234	0xbcac2483	-0.021013504
235	0x3d03ab89	0.03214601
236	0x3e28839d	0.16456456
237	0x3e2a421d	0.16626783
238	0xbe6dbff2	-0.23217753
239	0xbe697501	-0.2279854
240	0x3db31586	0.0874434
241	0xbbd207a8	-0.006409604
242	0xbe3f8071	-0.1870134
243	0x3e799d05	0.24376304
244	0x3e9f71a0	0.31141376
245	0x3e23a72a	0.15981737
246	0xbde56b21	-0.11202074
247	0x3d18e486	0.037327312
248	0xbbfea042	-0.007770569
249	0x3e27c587	0.16383944
250	0xbe1cc7b6	-0.15310559
251	0x3dd55bd3	0.10417905
252	0x3e6b37bb	0.22970478
253	0x3dd94bdf	0.106101744
254	0xbe6fc898	-0.23416364
255	0xbddaec81	-0.10689641
