model/model_27.pth (torch_old, 571877 bytes, 24 tensors)

conv1.weight f4 [32, 3, 2, 2]
-0.10942003 -0.112585396 -0.15275164 0.39132863 -0.59398603 0.15155585 -0.13719213 0.4314787
-0.29659814 -0.07472891 0.0034438975 0.27487105 0.20192887 -0.1297086 0.122015685 0.014910866
0.0698609 -0.06370183 0.32532147 0.039878644 -0.13667512 -0.24545227 -0.04108919 -0.23726888
-0.11974294 0.043262597 0.12543958 0.22979294 -0.33482453 0.20167997 -0.043430902 0.3101014
0.13624933 -0.19916978 -0.46032143 -0.11741145 0.38679495 -0.048442055 0.06758106 -0.2762467
0.38777176 -0.23084436 0.16625671 -0.19414283 -0.05917885 0.016960392 -0.21446791 -0.14690717
-0.1571255 -0.1046248 -0.3721893 -0.22056189 0.19635676 -0.083666876 0.3022804 0.22130363
-0.046306252 -0.2838639 0.1535644 0.023175841 -0.19079797 0.11668691 0.24087608 0.25593194
-0.19508846 -0.13287176 -0.0051190853 -0.023347324 -0.32895148 -0.3583016 0.12071813 -0.17124107
0.03447397 -0.0758656 -0.055509783 -0.043429647 0.16648066 0.15848118 -0.20065023 0.1989254
-0.1585981 -0.21003865 -0.004613864 -0.103693545 0.23660076 0.051208634 -0.5717826 0.059726108
0.12736039 0.48804998 -0.11785094 -0.24465835 0.24301413 0.31716967 -0.35086387 -0.20604654
0.04255871 -0.28889024 0.18091534 -0.09753178 0.13457875 -0.457695 0.41606528 0.0356729
-0.2309536 -0.40199468 0.554342 0.10453109 0.14488453 -0.033017084 0.03655811 0.1575766
0.21882115 -0.27657047 0.013039137 0.22448908 0.1492045 0.13963276 -0.1968659 -0.14792524
-0.11706138 0.04050812 0.28330737 -0.26662314 0.17022426 -0.1866506 -0.3380294 -0.12521
0.21002074 0.26711452 -0.22564012 0.031794455 0.37192062 0.22308126 0.12586756 0.09667154
0.14152017 -0.0164117 -0.47631785 -0.5212401 -0.007980455 0.054593083 -0.2768039 0.045855064
0.01297171 0.008841561 -0.12549405 0.056479346 0.16100758 0.33083522 -0.1873566 0.3841273
-0.13571005 0.024764806 -0.42359087 -0.18257071 -0.36359534 -0.14972417 0.17842284 0.022103261
-0.26261586 0.2162784 0.091062196 0.35112828 -0.31379765 0.055703342 -0.24147666 -0.028831325
-0.53276694 -0.3081845 -0.24771723 0.13455734 -0.050995033 0.08192802 0.32022807 0.47109628
0.06700565 -0.06353121 -0.21221617 0.34545258 0.1308312 0.100879505 -0.21663977 -0.15084617
0.009785891 0.3411592 -0.16957027 -0.25762224 0.11729061 -0.14879589 0.15610303 -0.20503408
0.021729635 -0.095171206 0.34161124 -0.37019578 0.22505295 -0.047128756 0.37549868 -0.4695589
0.19257557 -0.35846406 0.32113644 -0.32696274 -0.02297396 0.14673865 -0.22259411 0.2159395
-0.21732137 0.25042528 -0.20285533 0.29647574 -0.6053843 0.1810254 -0.06410071 0.28780115
0.117481485 -0.18556471 -0.17740154 0.29416603 -0.39863786 0.31880072 -0.433783 -0.19734553
0.24823843 0.012558304 0.003232872 0.4043269 0.1898189 0.4462171 -0.26135537 -0.26864007
0.32248172 0.21753392 -0.28012398 0.07871996 -0.3124797 0.33018804 -0.18429118 -0.38110608
-0.2620676 -0.05147855 0.17114037 0.05417524 -0.35361072 -0.1517748 -0.4215937 -0.29312712
-0.16978726 0.2906656 0.36552182 0.052591104 -0.01780959 0.19688226 -0.11769719 -0.21590973
00000000: 9c17 e0bd 2c93 e6bd ed6a 1cbe 3a5c c83e
00000010: 780f 18bf 7531 1b3e 187c 0cbe c7ea dc3e
00000020: b6db 97be 790b 99bd 03b3 613b e6bb 8c3e
00000030: 71c6 4e3e 55d2 04be 5ce3 f93d b44c 743c
00000040: 3b13 8f3d 1b76 82bd 8990 a63e ca57 233d
00000050: 90f4 0bbe d757 7bbe 234d 28bd 9df6 72be
00000060: c93b f5bd 1f34 313d 3c73 003e d74e 6b3e
00000070: 1f6e abbe 3285 4e3e 9ae4 31bd 9cc5 9e3e
00000080: f284 0b3e 2af3 4bbe 40af ebbe 6a75 f0bd
00000090: fd09 c63e 2d6b 46bd f067 8a3d 3570 8dbe
000000a0: 058a c63e 7762 6cbe 333f 2a3e 61cd 46be
000000b0: 8665 72bd 85f0 8a3c 7a9d 5bbe d56e 16be
000000c0: 82e5 20be 8745 d6bd 998f bebe fada 61be
000000d0: bf11 493e 8a59 abbd 7fc4 9a3e 6b9d 623e
000000e0: a0ab 3dbd 9c56 91be fc3f 1d3e 43db bd3c
000000f0: 8b60 43be 8cf9 ee3d 38a8 763e 8309 833e
00000100: 45c5 47be 890f 08be 00be a7bb e342 bfbc
00000110: 546c a8be 4f73 b7be 113b f73d d259 2fbe
00000120: 9434 0d3d 6c5f 9bbd 3a5e 63bd 49e3 31bd
00000130: e879 2a3e e448 223e 4177 4dbe 1ab3 4b3e
00000140: 8a67 22be 5f14 57be e52f 97bb 485d d4bd
00000150: 7847 723e 25c0 513d 5860 12bf 5da3 743d
00000160: c36a 023e b0e1 f93e d55b f1bd b887 7abe
00000170: b2d8 783e 1064 a23e 6ea4 b3be ddfd 52be
00000180: 0b52 2e3d 6ce9 93be df41 393e bebe c7bd
00000190: 03cf 093e 0057 eabe 8206 d53e bf1d 123d
000001a0: 1a7f 6cbe 3fd2 cdbe 5be9 0d3f 6514 d63d
000001b0: 9c5c 143e ec3c 07bd f5bd 153d c35b 213e
000001c0: a712 603e a59a 8dbe 1ba2 553c 77e0 653e
000001d0: 10c9 183e e4fb 0e3e 3797 49be b779 17be
000001e0: e0bd efbd d8eb 253d aa0d 913e d482 88be
000001f0: 454f 2e3e 5621 3fbe 3112 adbe 0d37 00be
00000200: ad0f 573e 3cc3 883e 340e 67be e73a 023d
00000210: 616c be3e 6a6f 643e 6de3 003e bafb c53d
00000220: aaea 103e d471 86bc efdf f3be fe6f 05bf
00000230: 74c0 02bc ff9c 5f3d 3eb9 8dbe 85d2 3b3d
00000240: 4c87 543c 32dc 103c 8381 00be e356 673d
00000250: 2cdf 243e 3c63 a93e 69da 3fbe 55ac c43e
00000260: 93f7 0abe 90df ca3c e7e0 d8be d1f3 3abe
00000270: 2b29 babe 4b51 19be 7ab4 363e e611 b53c
00000280: 9675 86be 1678 5d3e d17e ba3d 16c7 b33e
00000290: 16aa a0be 3029 643d a845 77be ac2f ecbc
000002a0: 6a63 08bf 5cca 9dbe 96a9 7dbe 66c9 093e
000002b0: 2be0 50bd e1c9 a73d eff4 a33e 8833 f13e
000002c0: 423a 893d a71c 82bd 324f 59be 29df b03e
000002d0: 9df8 053e ea99 ce3d d1d6 5dbe 6b77 1abe
000002e0: 0055 203c 6bac ae3e d4a3 2dbe 10e7 83be
000002f0: 0f36 f03d f35d 18be 79d9 1f3e 74f4 51be
00000300: 5902 b23c 1fe9 c2bd abe7 ae3e 4d8a bdbe
00000310: 4874 663e 150a 41bd 5d41 c03e 066a f0be
00000320: 8832 453e 9a88 b7be ff6b a43e a967 a7be
00000330: e333 bcbc a842 163e b6ef 63be 3f1f 5d3e
00000340: 7e89 5ebe be37 803e 4fb9 4fbe abcb 973e
00000350: 77fa 1abf b95e 393e 3c47 83bd ac5a 933e
00000360: 229a f03d ad04 3ebe c0a8 35be ee9c 963e
00000370: 431a ccbe d939 a33e ce18 debe f214 4abe
00000380: 3732 7e3e 58c1 4d3c 98de 533b ef03 cf3e
00000390: e35f 423e 9176 e43e 5fd0 85be 318b 89be
000003a0: 531c a53e 36c1 5e3e 696c 8fbe ee37 a13d
000003b0: 57fd 9fbe 680e a93e d4b6 3cbe 5620 c3be
000003c0: b92d 86be 2cdb 52bd 6c3f 2f3e dbe6 5d3d
000003d0: 770c b5be da6a 1bbe 21db d7be c214 96be
000003e0: b6dc 2dbe 1fd2 943e ad25 bb3e c569 573d
000003f0: 6be5 91bc 819b 493e 390b f1bd 7117 5dbe

conv1.bias f4 [32]
-0.37915528 -0.09311945 -0.49272907 -0.16907112 -0.38788486 -0.5047626 -0.55925655 0.13046618
0.0850448 -0.351804 -0.40551704 -0.023537638 -0.09324364 -0.19675085 0.07712581 -0.39626732
-0.08315487 0.1200249 -0.16363908 -0.5285576 -0.5088335 -0.7543919 0.13479285 -0.6106015
0.0513258 -0.10355349 -0.36953908 -0.4591154 0.11446545 -0.4684185 -0.397768 0.07047947
00000000: a420 c2be 69b5 bebd fc46 fcbe fb20 2dbe
00000010: d898 c6be 1f38 01bf 702b 0fbf ed98 053e
00000020: f82b ae3d a71f b4be ee9f cfbe 01d2 c0bc
00000030: 86f6 bebd 0e79 49be 23f4 9d3d 8de3 cabe
00000040: 1a4d aabd 9dcf f53d 0191 27be 8d4f 07bf
00000050: ea42 02bf d41f 41bf 2307 0a3e 6150 1cbf
00000060: 013b 523d da13 d4bd 3a34 bdbe 2c11 ebbe
00000070: dd6c ea3d 8dd4 efbe 3fa8 cbbe 8a57 903d

conv2.weight f4 [32, 32, 2, 2]
-0.19746539 0.120412275 -0.0954171 -0.08759828 0.020394128 0.04378544 -0.06996572 0.012466771
-0.020036915 0.032191977 -0.20694345 -0.17826003 -0.09751664 -0.07912431 -0.033453178 -0.09794706
-0.094087675 0.02661164 -0.10997547 -0.19600704 -0.044467434 0.03292081 -0.031979196 0.07636949
0.036438603 0.14459436 -0.1247673 0.029763779 -0.3037857 -0.31993234 -0.05322101 -0.44463238
0.11002508 0.110383555 0.14157338 0.2679039 0.10971727 -0.084223524 0.123264134 0.10311076
-0.112523176 0.07234339 0.06680078 -0.023615971 -0.02930738 -0.26224005 0.17312248 -0.16144758
0.13051532 -0.034634605 0.07357409 -0.18113591 0.061534252 0.07578677 0.006304713 -0.112445354
0.1100571 0.0065648295 0.15312995 0.1186456 -0.0003092031 0.31975543 -0.07887548 -0.07974755
0.15229468 -0.02426247 -0.19605273 -0.009418526 0.0423595 -0.2510798 0.053295143 0.0027636949
0.06761417 0.049622536 -0.08423767 -0.20842637 -0.124584615 -0.25999305 0.053189017 0.09314175
0.29121473 0.3571498 -0.43139783 -0.18436863 -0.27363294 -0.1347625 -0.054786924 -0.21501257
-0.12957706 -0.0016255059 -0.03519213 -0.016750986 0.49098864 0.22463238 -0.23996162 -0.2895164
-0.29033223 0.101457655 0.12835532 -0.28173837 0.1303171 0.11191782 -0.20043282 -0.22531448
-0.08797113 0.2351899 0.05846712 -0.06193249 -0.045403544 0.11045577 -0.0014338145 0.042990167
0.14933363 0.16914214 0.17752878 0.30406478 0.03441068 0.2605146 -0.3324779 -0.16112638
-0.259438 0.19714135 -0.124093264 0.08508875 0.15454286 -0.07015303 0.072104014 0.07478961
-0.22757196 -0.12435111 -0.16954033 -0.27124664 -0.3924937 -0.23554623 -0.30721384 -0.34569973
-0.36752644 -0.45244604 -0.54277676 -0.30151922 -0.21005286 -0.4206754 -0.42066446 -0.43037277
-0.23036228 -0.2620842 -0.23189807 -0.30956122 0.1863264 0.213055 0.17977233 0.23882669
-0.35067278 -0.31040302 -0.28663003 -0.27335167 -0.3544733 -0.34086183 -0.53484946 -0.39924008
-0.45329157 -0.11699233 -0.43850806 -0.34849146 -0.012018708 0.020228036 -0.13654451 0.052200813
0.028929798 -0.075699784 0.025518278 0.11746334 0.1056573 0.12796468 0.114855275 0.20087376
-0.4256282 -0.58507776 -0.66569054 -0.5090925 -0.0996872 -0.15984449 -0.11822493 -0.13699712
-0.17682597 -0.3123539 -0.07916643 -0.18155423 0.224316 0.17349431 0.2519312 0.26094323
-0.23177992 -0.025630577 -0.06381358 -0.06343884 -0.1940938 -0.255558 -0.17950594 -0.2482652
0.018556874 0.019759614 0.09556972 0.035968926 -0.1835639 -0.25128826 -0.01233395 -0.13735217
0.33564246 0.39268306 0.329254 0.4431722 0.20390733 0.0069043827 0.28374636 0.02840944
-0.370898 -0.37726495 -0.563852 -0.3103824 -0.23756063 -0.2825945 -0.28164375 -0.27029154
-0.4800087 -0.4255055 -0.61283726 -0.44630778 0.09605519 -0.0265351 -0.048840985 0.0015310626
-0.22242345 -0.17606641 -0.17646238 -0.026006915 -0.048276212 0.0043377792 0.006409695 -0.011332574
-0.17494191 0.015181846 -0.0736875 -0.05526426 -0.035249464 0.015813794 -0.1854279 -0.02432925
-0.073446974 -0.037927676 0.040985577 0.030463398 -0.4718057 -0.31305143 -0.35335347 -0.3927452
00000000: 5e34 4abe b69a f63d 0a6a c3bd ba66 b3bd
00000010: 9611 a73c 5d58 333d 304a 8fbd 6d41 4c3c
00000020: 7524 a4bc bcdb 033d fce8 53be cc89 36be
00000030: ceb6 c7bd ed0b a2bd 3306 09bd 7898 c8bd
00000040: 0ab1 c0bd a700 da3c d23a e1bd 12b6 48be
00000050: 7c23 36bd f9d7 063d 9efc 02bd 9b67 9c3d
00000060: a540 153d 8b10 143e 0086 ffbd 2bd3 f33c
00000070: cd89 9bbe 2cce a3be 46fe 59bd dba6 e3be
00000080: d454 e13d c610 e23d 9df8 103e b32a 893e
00000090: 73b3 e03d 627d acbd e871 fc3d bc2b d33d
000000a0: 8d72 e6bd c528 943d d9ce 883d 4876 c1bc
000000b0: 0816 f0bc 5444 86be 0547 313e 8452 25be
000000c0: cfa5 053e 04dd 0dbd 03ae 963d b17b 39be
000000d0: 570b 7c3d 1836 9b3d c497 ce3b c049 e6bd
000000e0: 9e65 e13d c81d d73b 19ce 1c3e 77fc f23d
000000f0: 8a1c a2b9 fcb6 a33e 7889 a1bd af52 a3bd
00000100: 23f3 1b3e 16c2 c6bc 0cc2 48be 2950 1abc
00000110: 2881 2d3d 888d 80be 024c 5a3d 1b1f 353b
00000120: 4c79 8a3d 0041 4b3d cd84 acbd b96d 55be
00000130: 3826 ffbd cf1d 85be badc 593d 1ac1 be3d
00000140: 191a 953e 57dc b63e 2de0 dcbe 21cb 3cbe
00000150: 9e19 8cbe 2eff 09be 4168 60bd 412c 5cbe
00000160: d9af 04be ed0e d5ba 9f25 10bd 5d39 89bc
00000170: dd62 fb3e 0806 663e 80b8 75be 7e3b 94be
00000180: 6da6 94be 08c9 cf3d 946f 033e 0340 90be
00000190: d971 053e 2c35 e53d 433e 4dbe d7b8 66be
000001a0: 352a b4bd 9fd5 703e 387b 6f3d ecac 7dbd
000001b0: 11f9 39bd a236 e23d d5ee bbba 7516 303d
000001c0: eaea 183e 9933 2d3e 1bca 353e 61ae 9b3e
000001d0: 37f2 0c3d 2b62 853e 8b3a aabe 50fe 24be
000001e0: 0fd5 84be 6cdf 493e 9c24 febd 0343 ae3d
000001f0: 7c40 1e3e 64ac 8fbd 45ab 933d 4c2b 993d
00000200: a008 69be cbab febd fb9b 2dbe d7e0 8abe
00000210: eff4 c8be 0833 71be 224b 9dbe 8eff b0be
00000220: 6d2c bcbe 02a7 e7be 6bf3 0abf ba60 9abe
00000230: 1918 57be c462 d7be 5561 d7be d259 dcbe
00000240: 17e4 6bbe e62f 86be b076 6dbe cf7e 9ebe
00000250: 59cc 3e3e 172b 5a3e 3d16 383e fc8e 743e
00000260: 628b b3be 25ed 9ebe 2cc1 92be c0f4 8bbe
00000270: 867d b5be 7185 aebe e5eb 08bf 3269 ccbe
00000280: d515 e8be ad99 efbd 2184 e0be 796d b2be
00000290: 1dea 44bc 44b5 a53c 53d2 0bbe 85d0 553d
000002a0: 2ffe ec3c 7d08 9bbd b50b d13c 9f90 f03d
000002b0: db62 d83d 2c09 033e 3e39 eb3d dab1 4d3e
000002c0: f0eb d9be a8c7 15bf b26a 2abf e353 02bf
000002d0: cd28 ccbd 46ae 23be e91f f2bd f948 0cbe
000002e0: de11 35be daec 9fbe 0222 a2bd 5ae9 39be
000002f0: 18b3 653e 7ea8 313e 20fd 803e 5a9a 853e
00000300: b757 6dbe 37f7 d1bc b2b0 82bd 39ec 81bd
00000310: 86c0 46be 80d8 82be 68d0 37be 3c39 7ebe
00000320: 9604 983c eade a13c 0fba c33d 2754 133d
00000330: 2df8 3bbe dba8 80be 5614 4abc 0ca6 0cbe
00000340: 54d9 ab3e c10d c93e fb93 a83e 77e7 e23e
00000350: 15cd 503e 293e e23b 3447 913e eaba e83c
00000360: 58e6 bdbe df28 c1be 9b58 10bf 71ea 9ebe
00000370: 1843 73be 3ab0 90be 9c33 90be a763 8abe
00000380: b3c3 f5be dbdb d9be e7e2 1cbf 7482 e4be
00000390: 95b8 c43d 2360 d9bc 7c0d 48bd f0ad c83a
000003a0: f9c2 63be c14a 34be 8eb2 34be 740c d5bc
000003b0: 47bd 45bd ee23 8e3b 6b08 d23b 43ac 39bc
000003c0: f923 33be 47bd 783c 79e9 96bd c75c 62bd
000003d0: be61 10bd ee8b 813c d0e0 3dbe 234e c7bc
000003e0: 5e6b 96bd 0d5a 1bbd 7ee0 273d 608e f93c
000003f0: 8490 f1be 4748 a0be bfea b4be e615 c9be

conv2.bias f4 [32]
0.04648231 -0.075168364 -0.10620877 -0.15136816 0.118953034 -0.09038321 -0.14534537 0.1506335
-0.061271142 0.14831056 -0.20295712 0.18931462 0.102823295 -0.11786773 -0.45367885 -0.1149933
0.010507801 0.0034022264 0.051712 0.11796017 0.050147552 -0.21041523 0.046405803 0.13376486
-0.0664113 0.19275545 0.03405723 -0.12504102 0.00620825 0.20425612 0.27419588 -0.15473646
00000000: 3c64 3e3d dff1 99bd fc83 d9bd 4100 1bbe
00000010: a69d f33d d51a b9bd 6bd5 14be ab3f 1a3e
00000020: 73f7 7abd b9de 173e fed3 4fbe b1db 413e
00000030: 0595 d23d a364 f1bd 9848 e8be 9b81 ebbd
00000040: e928 2c3c e3f7 5e3b f6cf 533d 1a95 f13d
00000050: 8567 4d3d 1777 57be 0314 3e3d a8f9 083e
00000060: a602 88bd af61 453e 987f 0b3d c10a 00be
00000070: 936e cb3b 8428 513e 6763 8c3e 3c73 1ebe

conv3.weight f4 [64, 32, 2, 2]
-0.102592625 0.090704516 0.010390153 0.294888 0.03965259 -0.2199412 0.23554155 -0.20481583
0.059657857 0.0732221 0.090541326 0.030058619 0.032770418 -0.05884943 0.01451909 -0.03322069
-0.3836161 -0.3204049 -0.23223619 -0.2742008 -0.071721755 0.0482938 -0.0583845 0.04123001
0.029881464 -0.03259451 -0.046439733 -0.06557164 -0.14717664 -0.21068892 -0.31212518 -0.42270952
-0.028951067 -0.09234055 0.026125025 -0.025187235 0.25372517 -0.07130113 0.24312788 -0.3916625
0.18221815 0.30929568 0.22498578 0.3010154 0.050814983 0.092349 0.026657607 0.045379028
-0.018104866 -0.3666388 0.38741887 -0.04320957 0.19373001 0.20770247 -0.05706006 -0.47447014
-0.13691348 -0.056688372 -0.033730008 -0.23784906 0.11429968 0.076116815 0.058635883 0.049263272
0.06797692 0.060166467 0.08840685 -0.010289012 0.045851063 0.06817737 -0.10906271 -0.098661736
0.15822177 -0.010943306 -0.12811567 -0.03507839 0.26857188 -0.042666018 0.122724734 0.019916542
-0.26143497 0.049004246 0.051178556 0.15946694 0.19583774 0.15498585 -0.04043014 0.099057384
-0.08539209 -0.021094818 -0.063977346 -0.030806748 -0.3900447 -0.1348173 0.35837308 0.20659287
0.14841017 -0.23192643 0.26573482 -0.21379904 0.39564636 -0.1926946 0.022332888 -0.31954384
0.06995164 -0.15576524 -0.19622056 -0.11879112 0.06716719 0.012745498 -0.079393454 -0.010751064
0.032548845 0.040650155 0.10272635 0.045402333 0.24895874 -0.08992282 0.15710434 0.0054244236
0.060488172 0.2688719 0.11738158 0.22699532 0.010108359 0.016236404 0.1057284 -0.04419579
-0.20881104 -0.5496864 0.06224877 -0.016356515 0.23973462 -0.09247558 0.25103676 0.20680755
0.037951894 0.002729123 -0.10473322 -0.08102397 -0.06297825 -0.10160633 0.03639583 0.05983155
-0.08310703 -0.15370362 -0.18477768 -0.09424423 -0.007380301 -0.02563022 -0.025537461 0.06001095
-0.01475258 0.025620101 0.05798407 0.036786813 -0.03118376 -0.28801578 0.027631927 -0.17567536
-0.008587695 0.013878811 -0.014573884 -0.018927868 0.10149253 0.15583852 -0.09955704 -0.21897554
-0.05791533 0.051356863 -0.2559706 -0.12164774 0.045274656 -0.33974352 0.23979925 -0.07866907
0.20929556 0.26131558 -0.08172479 -0.18824118 0.10100369 0.080149315 0.11021889 0.25458628
-0.3180872 -0.035183176 -0.27408144 0.051389303 -0.030785486 0.07717635 -0.038239058 0.02102909
0.1603399 0.015201756 -0.009853667 0.051775362 -0.016004778 -0.06857414 -0.076618776 0.08034685
0.04495817 -0.033142906 -0.35549578 -0.1730363 -0.13320376 0.026456041 -0.52317435 -0.09556455
-0.13405621 -0.023704067 -0.32309195 -0.3601566 -0.055412583 -0.022940414 0.02364467 0.1289879
0.03858303 0.06353747 0.07420678 0.17394972 -0.23510848 -0.27515554 0.12907484 -0.030033058
0.23065239 0.26751125 -0.12208483 -0.01966217 0.22100414 0.11720773 -0.13896424 -0.19152586
-0.29276755 -0.7532839 -0.23842129 -0.47850138 0.017388474 -0.075360045 0.037650168 0.082027785
0.23327912 0.091606185 -0.2964156 -0.08713461 0.07049537 0.20506114 -0.19761115 0.058642507
0.13452928 0.08136593 0.0836473 -0.64392936 -0.054241188 0.031608474 -0.05865214 0.006087274
00000000: 151c d2bd 4ac3 b93d 763b 2a3c 8ffb 963e
00000010: c16a 223d 4438 61be ce31 713e 3ebb 51be
00000020: cc5b 743d 78f5 953d bb6d b93d 7e3d f63c
00000030: 463a 063d 1a0c 71bd 7ae1 6d3c 6b12 08bd
00000040: 5469 c4be 1c0c a4be 53cf 6dbe 0c64 8cbe
00000050: dbe2 92bd b8cf 453d 9624 6fbd cde0 283d
00000060: f9c9 f43c d281 05bd 9737 3ebd 6d4a 86bd
00000070: 79b5 16be d6be 57be dfce 9fbe 626d d8be
00000080: ca2a edbc 0b1d bdbd 2604 d63c 7655 cebc
00000090: 44e8 813e 5406 92bd 84f6 783e fd87 c8be
000000a0: 6597 3a3e 015c 9e3e ac62 663e b11e 9a3e
000000b0: 5f23 503d 7921 bd3d 0e61 da3c 5cdf 393d
000000c0: a850 94bc 15b8 bbbe c45b c63e 85fc 30bd
000000d0: 2961 463e f5af 543e cfb7 69bd c0ed f2be
000000e0: 0c33 0cbe 1132 68bd 7a28 0abd b48e 73be
000000f0: f315 ea3d 22e3 9b3d 2e2c 703d 49c8 493d
00000100: 7c37 8b3d 1d71 763d a70e b53d 3f93 28bc
00000110: 53ce 3b3d 94a0 8b3d 455c dfbd 2a0f cabd
00000120: e304 223e 8d4b 33bc c130 03be 5cae 0fbd
00000130: 4182 893e 90c2 2ebd 1b57 fb3d 0428 a33c
00000140: ceda 85be adb8 483d 9ba0 513d 4d4b 233e
00000150: b089 483e 9cb4 1e3e 139a 25bd 99de ca3d
00000160: 0ce2 aebd 0acf acbc 8e06 83bd 6f5e fcbc
00000170: f0b3 c7be 8c0d 0abe ad7c b73e 158d 533e
00000180: d6f8 173e 1f7e 6dbe 650e 883e 23ee 5abe
00000190: 2992 ca3e bc51 45be 76f3 b63c 409b a3be
000001a0: ce42 8f3d ec80 1fbe 0bee 48be c248 f3bd
000001b0: f48e 893d 7ed2 503c 0999 a2bd 3b25 30bc
000001c0: f051 053d c780 263d 3162 d23d ccf7 393d
000001d0: 0aef 7e3e 7529 b8bd f6df 203e 5dbf b13b
000001e0: 72c2 773d 94a9 893e c165 f03d 7671 683e
000001f0: 889d 253c 3502 853c 2288 d83d a506 35bd
00000200: 90d2 55be 3fb8 0cbf 91f8 7e3d 19fe 85bc
00000210: fe7c 753e d663 bdbd e487 803e 5cc5 533e
00000220: 7273 1b3d 16db 323b 5f7e d6bd e5ef a5bd
00000230: befa 80bd fb16 d0bd cb13 153d ed11 753d
00000240: 0534 aabd 7b64 1dbe 5c36 3dbe 1e03 c1bd
00000250: 74d6 f1bb 78f6 d1bc f033 d1bc 0bce 753d
00000260: ceb4 71bc 3fe1 d13c b480 6d3d c5ad 163d
00000270: 1675 ffbc ce76 93be 5a5c e23c 3ee4 33be
00000280: 67b3 0cbc f463 633c 4dc7 6ebc 9e0e 9bbc
00000290: 51db cf3d 2294 1f3e 90e4 cbbd 203b 60be
000002a0: a038 6dbd 935b 523d 940e 83be 7322 f9bd
000002b0: eb71 393d ddf2 adbe ef8d 753e 401d a1bd
000002c0: 9351 563e 28cb 853e 545f a7bd 4cc2 40be
000002d0: 06db ce3d 5325 a43d 71ba e13d 2259 823e
000002e0: 53dc a2be 3c1c 10bd 6754 8cbe 977d 523d
000002f0: d831 fcbc a20e 9e3d 8fa0 1cbd 3345 ac3c
00000300: 2530 243e c910 793c 4671 21bc 6712 543d
00000310: 741c 83bc 9970 8cbd 4eea 9cbd e48c a43d
00000320: 0f26 383d dbc0 07bd 8b03 b6be 6e30 31be
00000330: 9166 08be 57ba d83c c1ee 05bf 59b7 c3bd
00000340: 0846 09be 082f c2bc 4f6c a5be 7266 b8be
00000350: 4ef8 62bd 89ed bbbc 78b2 c13c 6715 043e
00000360: 3d09 1e3d ef1f 823d b9f9 973d e01f 323e
00000370: 47c0 70be 30e1 8cbe 322c 043e e307 f6bc
00000380: 2430 6c3e 3cf7 883e 9d07 fabd 8f12 a1bc
00000390: e94e 623e 9b0a f03d a44c 0ebe 5b1f 44be
000003a0: a1e5 95be 37d7 40bf b624 74be 22fe f4be
000003b0: 4672 8e3c 5e56 9abd 1037 1a3d 2ffe a73d
000003c0: b9e0 6e3e 069c bb3d c9c3 97be a173 b2bd
000003d0: e05f 903d 8cfb 513e 945a 4abe 2033 703d
000003e0: 0bc2 093e 2ea3 a63d 474f ab3d 8ed8 24bf
000003f0: 022c 5ebd e377 013d 3a3d 70bd c177 c73b

conv3.bias f4 [64]
0.002247198 0.3459914 0.14696293 -0.40101206 0.041514616 -0.023956714 0.11617131 -0.087469414
0.13383527 0.1342822 -0.3695605 -0.08968712 0.040317066 -0.10693926 0.10313053 0.15129445
-0.046023 0.031825032 0.043277074 0.06334935 0.1265007 -0.0015814472 -0.46643123 -0.14011382
0.0011342999 -0.16341771 0.34877944 0.08545612 0.24414322 0.14425522 0.12928534 0.20797843
-0.08301749 0.22445016 -0.06642749 -0.21829814 0.029605135 0.25023106 -0.22279519 0.03410447
0.09079704 0.18267794 0.03096363 -0.16641876 0.049706668 -0.035363734 0.058694147 0.1107817
-0.04279277 -0.06447319 0.08087664 -0.09519822 0.056985695 -0.16900793 0.1307732 -0.009400426
-0.12867127 0.029077154 -0.11051281 -0.20040765 0.07906762 0.0074859345 -0.14251205 -0.043612283
00000000: ba45 133b c925 b13e 737d 163e 7451 cdbe
00000010: 3b0b 2a3d df40 c4bc 39eb ed3d 2a23 b3bd
00000020: 1d0c 093e 4681 093e 0937 bdbe e1ad b7bd
00000030: 8223 253d f902 dbbd 1936 d33d efec 1a3e
00000040: 9d82 3cbd f75a 023d 4d43 313d 4ebd 813d
00000050: 6689 013e 9048 cfba 13d0 eebe ff79 0fbe
00000060: caac 943a f956 27be 3893 b23e 9e03 af3d
00000070: ae00 7a3e a4b7 133e 6063 043e 4cf8 543e
00000080: 1305 aabd 43d6 653e 230b 88bd 8c89 5fbe
00000090: 7886 f23c 491e 803e 6c24 64be 21b1 0b3d
000000a0: ccf3 b93d ed0f 3b3e 70a7 fd3c ae69 2abe
000000b0: 3899 4b3d 90d9 10bd 4669 703d 84e1 e23d
000000c0: 7947 2fbd 850a 84bd a7a2 a53d 49f7 c2bd
000000d0: d569 693d 6a10 2dbe 69e9 053e 3f04 1abc
000000e0: 67c2 03be 3633 ee3c 8a54 e2bd aa37 4dbe
000000f0: 34ee a13d 924c f53b aeee 11be cba2 32bd

conv4.weight f4 [64, 64, 2, 2]
0.043492667 -0.19716048 -0.08557686 -0.5659421 -0.22666328 0.23434411 -0.20845708 0.060981892
-0.38848463 0.1156617 -0.2805408 -0.043400735 -0.10686672 -0.19188039 -0.16415112 -0.18363467
0.13684887 0.097845785 0.08303009 -0.33187038 -0.24460877 -0.33622444 -0.12912408 -0.19585742
0.037485138 -0.5693025 0.13267046 -0.17225154 -0.05349895 0.028829731 0.17905253 0.026572028
0.16973907 -0.19421111 0.29977944 0.034371585 -0.19381495 -0.2827665 -0.11824513 -0.12960915
-0.13026774 0.0248389 -0.26250452 -0.4178942 -0.48055765 0.09950163 -0.47852266 -0.44763142
-0.36129555 0.039523408 -0.09740995 -0.26103088 -0.020088354 -0.071995005 0.047633704 -0.080395274
0.26301792 -0.022146376 0.44785947 0.26603916 -0.13856457 -0.19909748 0.26294312 -0.013067796
-0.09048976 0.05669134 -0.3387319 -0.017360395 -0.20504367 -0.045939617 -0.09447242 -0.36368805
0.14605875 -0.18835442 0.05621436 0.08163453 -0.38123494 -0.116870865 -0.2572712 -0.07562014
-0.14979355 0.3672697 -0.012990504 0.11519896 -0.38026634 0.48397204 0.02684551 -0.047827203
0.043844126 0.03895104 -0.32329446 0.08313044 -0.027955234 0.042950787 0.034015637 0.084612645
-0.49029586 -0.13721645 -0.1983639 0.25856116 0.031750347 0.28275564 -0.13674223 0.15797305
0.112270884 -0.18700275 0.20844378 -0.08827412 -0.22285928 -0.5165582 -0.15617469 -0.3545217
-0.16027352 -0.4632975 0.039893 -0.23368289 -0.15266314 -0.25358254 -0.53030276 -0.36583257
0.063344635 0.28276694 0.028477246 -0.26142997 -0.15104501 0.20909977 -0.23340042 0.092195995
-0.1753154 -0.11013543 -0.21652831 -0.17447312 0.07105434 -0.3540297 0.024689145 0.16837281
0.07948137 -0.14125067 -0.22190715 0.19813567 -0.14143713 0.044342965 -0.10830866 0.015162157
-0.039917566 -0.05867077 0.17620249 0.13875349 0.09318987 0.043520622 0.1501743 0.03917889
-0.16719286 0.030366942 -0.502457 -0.5164474 -0.3230013 0.1328076 -0.29689115 -0.11119133
-0.15923837 0.20217332 -0.19800605 0.31198758 -0.21653141 -0.017531311 -0.041857857 -0.09637312
0.14473876 -0.14374721 -0.12280386 -0.26966697 -0.062022813 -0.04994573 -0.033401646 0.0019466849
0.097301476 0.08856702 -0.011764054 0.34717718 -0.13330375 0.022252942 -0.37712362 -0.13298826
-0.0147171905 -0.40097636 0.24480282 -0.3870607 0.103588015 -0.56617445 0.18287086 -0.0888544
-0.29192328 0.24099973 -0.17664276 0.090642914 -0.057756633 -0.23273951 0.35857677 -0.1381366
0.16562115 -0.1597501 0.376255 0.120986 -0.08458248 0.03763355 0.034837198 0.069431156
0.12353271 0.024798276 0.25387928 0.24495567 0.18509702 -0.40727603 -0.060924776 -0.121171005
0.31935778 -0.23397359 0.3340896 0.33486694 -0.2947522 -0.22981764 -0.10885109 0.020777605
0.14820673 0.19682969 -0.120926045 0.3472705 -0.26591238 0.17257653 -0.42493364 -0.10185451
-0.1331452 0.1506509 0.101063 -0.3394927 -0.094780676 -0.0970034 0.011188057 0.008777248
0.046398953 -0.2609879 0.3389802 -0.37617585 0.033566706 -0.37492394 0.19948262 0.0023544529
-0.2495348 0.1264513 -0.09216461 -0.18114233 -0.18512814 0.13776873 -0.2111931 0.111047044
00000000: 5e25 323d 70e4 49be ec42 afbd 95e1 10bf
00000010: 6b1a 68be e7f7 6f3e c675 55be 26c8 793d
00000020: 75e7 c6be 0be0 ec3d 0ba3 8fbe f8c4 31bd
00000030: f0dc dabd 4b7c 44be 3b17 28be ba0a 3cbe
00000040: 1c22 0c3e 5f63 c83d ae0b aa3d eaea a9be
00000050: b97a 7abe 9c25 acbe 1a39 04be d98e 48be
00000060: 048a 193d cfbd 11bf c4da 073e b562 30be
00000070: b721 5bbd 542c ec3c 8c59 373e 95ad d93c
00000080: 14d0 2d3e 47df 46be b17c 993e 38c9 0c3d
00000090: 6d77 46be c5c6 90be 812a f2bd 43b8 04be
000000a0: e864 05be f37a cb3c fe66 86be 3bf6 d5be
000000b0: a70b f6be 83c7 cb3d ec00 f5be f22f e5be
000000c0: bbfb b8be 4ce3 213d de7e c7bd d7a5 85be
000000d0: 5590 a4bc 1e72 93bd 8f1b 433d 47a6 a4bd
000000e0: 49aa 863e 516c b5bc d64d e53e 4936 883e
000000f0: dfe3 0dbe 36e0 4bbe 7ba0 863e 4f1a 56bc
00000100: b252 b9bd 2e35 683d 456e adbe 6337 8ebc
00000110: f8f6 51be 2e2b 3cbd c27a c1bd 5235 babe
00000120: 6d90 153e fbdf 40be 0741 663d 0130 a73d
00000130: 3a31 c3be fe59 efbd 0db9 83be bbde 9abd
00000140: 7b63 19be c60a bc3e 1fd6 54bc 6fed eb3d
00000150: 45b2 c2be 2fcb f73e 1deb db3c 75e6 43bd
00000160: e695 333d 208b 1f3d da86 a5be 4b40 aa3d
00000170: 6002 e5bc 2aed 2f3d fb53 0b3d 6549 ad3d
00000180: 0f08 fbbe 7882 0cbe e81f 4bbe 2162 843e
00000190: a70c 023d 59c5 903e 2806 0cbe b0c3 213e
000001a0: 47ee e53d a67d 3fbe 4972 553e 10c9 b4bd
000001b0: 3935 64be 283d 04bf 42ec 1fbe de83 b5be
000001c0: be1e 24be 5435 edbe d866 233d 914a 6fbe
000001d0: ba53 1cbe 92d5 81be ecc1 07bf 684e bbbe
000001e0: d5ba 813d d4c6 903e 1d49 e93c 26da 85be
000001f0: 8bab 1abe 401e 563e 8500 6fbe 41d1 bc3d
00000200: e185 33be af8e e1bd 99b9 5dbe 15a9 32be
00000210: f084 913d 6143 b5be e440 ca3c ec69 2c3e
00000220: 21c7 a23d 04a4 10be a13b 63be 14e4 4a3e
00000230: e5d4 10be f8a0 353d eed0 ddbd b26a 783c
00000240: 9a80 23bd c350 70bd 6d6e 343e 6515 0e3e
00000250: 55da be3d ae42 323d 4bc7 193e 0b7a 203d
00000260: 9b34 2bbe 18c4 f83c 06a1 00bf e635 04bf
00000270: 6d60 a5be b7fe 073e 1e02 98be 48b8 e3bd
00000280: 620f 23be 8606 4f3e 19c2 4abe d6bc 9f3e
00000290: 69ba 5dbe d39d 8fbc 2573 2bbd 455f c5bd
000002a0: 6636 143e 7832 13be 9780 fbbd ca11 8abe
000002b0: a20b 7ebd e593 4cbd 2ad0 08bd e827 ff3a
000002c0: ff45 c73d a062 b53d 05be 40bc 35c1 b13e
000002d0: c780 08be cd4b b63c 5916 c1be 132e 08be
000002e0: 5f20 71bc c64c cdbe 97ad 7a3e d22c c6be
000002f0: f425 d43d cff0 10bf 8042 3b3e 4cf9 b5bd
00000300: f876 95be a2c8 763e d7e1 34be fea2 b93d
00000310: 3892 6cbd 4453 6ebe 6097 b73e ae73 0dbe
00000320: 9798 293e 8895 23be 7fa4 c03e 82c7 f73d
00000330: 9439 adbd a325 1a3d 73b1 0e3d ec31 8e3d
00000340: b8fe fc3d c125 cb3c 77fc 813e a9d5 7a3e
00000350: 138a 3d3e 7c86 d0be 428c 79bd 8128 f8bd
00000360: dd82 a33e c696 6fbe cb0d ab3e ae73 ab3e
00000370: c3e9 96be 5155 6bbe 52ed debd cc35 aa3c
00000380: 81c3 173e b98d 493e 13a8 f7bd 70cd b13e
00000390: ab25 88be e7b7 303e e790 d9be 1999 d0bd
000003a0: 3757 08be 3b44 1a3e 1efa ce3d fdd1 adbe
000003b0: 5f1c c2bd b8a9 c6bd 1d4e 373c 72ce 0f3c
000003c0: d40c 3e3d 35a0 85be d08e ad3e 1f9a c0be
000003d0: 3e7d 093d 08f6 bfbe 2c45 4c3e 2a4d 1a3b
000003e0: 0d86 7fbe 737c 013e cdc0 bcbd 607d 39be
000003f0: 3b92 3dbe 3f13 0d3e 0143 58be a26c e33d

conv4.bias f4 [64]
-0.07711166 -0.080268435 -0.005339051 -0.10206627 0.08280401 0.13706854 0.00424912 -0.056599468
-0.13873297 0.21708576 -0.09704897 -0.027555259 0.12258513 0.29457697 0.118385464 0.16955005
0.009917878 -0.13887265 0.16301169 0.042144902 0.37014994 0.0878214 -0.3161365 -0.04786793
-0.09143971 0.18448955 -0.04686384 0.31668505 0.09035123 0.123848535 -0.15027507 0.085965656
0.25516295 0.13989025 -0.11199218 -0.1374693 -0.07096126 -0.22505829 -0.29821715 -0.24165775
0.05684673 -0.30068502 0.013382835 0.07556225 0.10328986 -0.07018337 0.10520336 -0.14539792
0.15976965 -0.18209188 -0.09501727 0.00057903136 0.17167433 0.26917195 0.27038798 -0.10358244
-0.025442407 0.016156456 -0.063975796 -0.098977715 0.13401996 0.18243718 -0.10564591 -0.071956225
00000000: b8ec 9dbd c763 a4bd 35f3 aebb 1f08 d1bd
00000010: 2695 a93d b25b 0c3e 343c 8b3b d8d4 67bd
00000020: 0410 0ebe bb4b 5e3e 9cc1 c6bd 91bb e1bc
00000030: ea0d fb3d cbd2 963e 1474 f23d 879e 2d3e
00000040: 987e 223c a234 0ebe 89ec 263e 22a0 2c3d
00000050: 4b84 bd3e b5db b33d a5dc a1be 2a11 44bd
00000060: be44 bbbd d4ea 3c3e 4cf4 3fbd 8b24 a23e
00000070: 110a b93d 4da4 fd3d b5e1 19be c30e b03d
00000080: b8a4 823e 643f 0f3e 285c e5bd c1c4 0cbe
00000090: 2354 91bd ae75 66be ebaf 98be 2175 77be
000000a0: 1ed8 683d 63f3 99be ae43 5b3c 62c0 9a3d
000000b0: a289 d33d 4cbc 8fbd dc74 d73d 31e3 14be
000000c0: a89a 233e 4b76 3abe 6a98 c2bd 23ca 173a
000000d0: 65cb 2f3e e8d0 893e 4b70 8a3e 0823 d4bd
000000e0: 986c d0bc 8b5a 843c be05 83bd d4b4 cabd
000000f0: 873c 093e d0d0 3a3e e25c d8bd c95d 93bd

conv5.weight f4 [128, 64, 2, 2]
-0.037600808 -0.18362126 -0.12725168 -0.21643977 0.020847756 -0.05123222 0.026554182 -0.084565185
0.16944928 0.019432288 0.1900102 -0.21727593 -0.20785084 0.025909003 -0.2216065 -0.14316092
-0.43398473 -0.5455223 -0.1449798 -0.3010495 -0.33926806 0.035210527 -0.12479718 -0.16987908
-0.15647912 0.024299275 0.069417 0.042741064 -0.2519705 -0.24165751 -0.20249541 -0.03611166
-0.058561232 -0.43384686 -0.03767609 -0.091676 0.14937185 -0.03702587 0.27204305 -0.05370933
-0.16864353 -0.31515977 0.036222182 0.12992865 -0.4119712 -0.06278939 0.034579374 0.29446435
-0.2200396 -0.79471654 -0.049668368 -0.13937621 -0.26646665 -0.010568567 -0.20692632 0.05914531
-0.02886967 -0.17728129 -0.38943025 0.21882674 -0.2996542 0.102951184 0.07678077 -0.019566255
0.26326814 0.22412564 -0.46013027 -0.31050044 -0.0030755335 0.013189336 0.014591348 0.05747976
0.04336995 0.2655964 -0.31299904 -0.17479984 0.11586798 -0.15660046 0.046051536 0.20159134
0.11550646 -0.002955494 0.119317666 0.040335134 -0.03569004 -0.09966334 -0.020959072 0.12316401
-0.3349668 0.04444043 -0.009013944 0.33029595 -0.39276743 -0.28130007 0.08241896 -0.008270298
-0.072994895 -0.0319835 -0.075987674 -0.08296072 -0.15539184 -0.21312763 0.33670878 0.15701926
-0.0077742115 -0.062189132 0.22450808 -0.51420486 0.479342 -0.04189831 0.2574254 0.16395299
0.15571105 0.024701394 0.65122247 -0.052504342 0.1955574 0.26380393 0.36830547 0.3118417
-0.04398773 0.035104215 -0.032466475 -0.19357862 0.22037873 -0.18376766 0.21692656 -0.35911664
-0.107130446 -0.062362563 -0.08331077 -0.08090397 -0.2663439 -0.007136221 -0.06608023 -0.036534876
0.41374266 0.5933655 0.19988196 0.46600378 -0.18802068 0.2746665 -0.31327325 -0.015866766
0.040390905 0.06766034 0.026886238 -0.27658454 -0.3572238 -0.2800109 -0.16116779 0.29797783
-0.028848266 0.38319066 -0.11051286 -0.23956947 -0.1875214 -0.17452258 -0.49193057 -0.25524515
-0.08669857 -0.2891085 0.24443887 -0.054303393 -0.36871055 -0.2438898 -0.20816793 -0.29660267
-0.046735637 0.09035395 -0.19268964 -0.4061823 0.08068703 0.14104062 0.12040319 0.38063043
-0.069229536 -0.22902158 -0.0007823709 -0.21929675 0.042830933 0.12562165 -0.22303396 -0.09814313
-0.43884614 -0.022610351 -0.4547416 -0.32247543 0.17109174 -0.09357763 -0.28814724 -0.3530812
-0.13230047 -0.02493834 -0.15051481 -0.05020558 0.15378365 -0.7342706 -0.28433943 -0.6187173
-0.1999755 0.07701654 -0.07682616 -0.25867423 0.17834051 0.07518838 0.21473631 -0.26972625
0.06865608 -0.23762411 -0.2090853 -0.28782156 0.28247863 0.42514735 0.051345438 -0.21309146
0.21071203 -0.27786782 -0.16998862 -0.3374059 -0.3279913 -0.45324284 0.18602385 -0.23361807
0.06481177 -0.12956388 0.14380202 0.057944532 0.06521218 0.14154395 -0.40243757 -0.1697514
0.024740577 0.2992804 -0.22711378 0.30214292 -0.22946872 -0.12498657 -0.09544976 0.07366638
-0.09040615 0.1009447 0.10613772 0.91464967 -0.34303397 -0.19930989 -0.05769159 -0.41647503
0.13653828 0.09763958 -0.025407305 -0.14529777 -0.05587313 -0.014122362 0.00091926067 0.014769806
00000000: 4e03 1abd 3607 3cbe 444e 02be 63a2 5dbe
00000010: eac8 aa3c e0d8 51bd 2888 d93c 8330 adbd
00000020: 1d84 2d3e 7630 9f3c 0992 423e 957d 5ebe
00000030: dad6 54be 1e3f d43c d0ec 62be c798 12be
00000040: 3f33 debe 59a7 0bbf 9675 14be 2923 9abe
00000050: 8bb4 adbe ea38 103d aa95 ffbd c8f4 2dbe
00000060: 103c 20be 460f c73c 802a 8e3d 4111 2f3d
00000070: 4702 81be 1175 77be f55a 4fbe d2e9 13bd
00000080: e7dd 6fbd 2d21 debe 3e52 1abd a0c0 bbbd
00000090: eff4 183e 70a8 17bd 3a49 8b3e 50fe 5bbd
000000a0: e4b0 2cbe 9f5c a1be b65d 143d 040c 053e
000000b0: e4ed d2be b997 80bd 1aa3 0d3d 08c4 963e
000000c0: 1052 61be 8b72 4bbf 0f71 4bbd a3b8 0ebe
000000d0: 516e 88be c827 2dbc 7ee4 53be 5a42 723d
000000e0: 1680 ecbc 3a89 35be 6763 c7be 1e14 603e
000000f0: 466c 99be 12d8 d23d 3d3f 9d3d 6949 a0bc
00000100: 15cb 863e 3181 653e 3296 ebbe eaf9 9ebe
00000110: e48e 49bb 1618 583c 8d10 6f3c e66f 6b3d
00000120: b0a4 313d 40fc 873e 6941 a0be bbfe 32be
00000130: 314c ed3d df5b 20be 89a0 3c3d f66d 4e3e
00000140: a78e ec3d f6b0 41bb d25c f43d 7436 253d
00000150: b82f 12bd 4b1c ccbd 5cb2 abbc 6a3d fc3d
00000160: c580 abbe 2b07 363d 39af 13bc 8d1c a93e
00000170: d018 c9be 9006 90be 46cb a83d 2580 07bc
00000180: 597e 95bd 2101 03bd 6d9f 9bbd 4fe7 a9bd
00000190: 0a1f 1fbe 213e 5abe 1865 ac3e a8c9 203e
000001a0: d0be febb 08ba 7ebd 72e5 653e eea2 03bf
000001b0: 516c f53e 909d 2bbd 43cd 833e 4be3 273e
000001c0: b872 1f3e 945a ca3c 84b6 263f cb0e 57bd
000001d0: 3340 483e 4f11 873e 8992 bc3e b7a9 9f3e
000001e0: 7a2c 34bd 70c9 0f3d 91fb 04bd 7939 46be
000001f0: f6aa 613e 972d 3cbe ff21 5e3e 23de b7be
00000200: 3567 dbbd e36f 7fbd d69e aabd fbb0 a5bd
00000210: 3a5e 88be f6d6 e9bb 1255 87bd 98a5 15bd
00000220: 14d6 d33e cde6 173f dbad 4c3e 0c98 ee3e
00000230: 7e88 40be 16a1 8c3e 5a65 a0be 05fb 81bc
00000240: ef70 253d 8191 8a3d 8740 dc3c 7d9c 8dbe
00000250: 0ae6 b6be 975d 8fbe 2b09 25be 8d90 983e
00000260: 3353 ecbc 9131 c43e 9154 e2bd b351 75be
00000270: 9c05 40be 0cb6 32be 53de fbbe 7eaf 82be
00000280: 058f b1bd 0806 94be 2f4e 7a3e 3c6d 5ebd
00000290: a1c7 bcbe 3fbe 79be f929 55be 4edc 97be
000002a0: de6d 3fbd 7e0b b93d 6f50 45be 20f7 cfbe
000002b0: 3e3f a53d f46c 103e f395 f63d fee1 c23e
000002c0: 37c8 8dbd a284 6abe 0618 4dba 548f 60be
000002d0: 7d6f 2f3d f6a2 003e 0463 64be 44ff c8bd
000002e0: 71b0 e0be 5839 b9bc e4d3 e8be 801b a5be
000002f0: ac32 2f3e a1a5 bfbd 0988 93be 0fc7 b4be
00000300: c679 07be 7d4b ccbc 8e20 1abe 5ea4 4dbd
00000310: 7679 1d3e 28f9 3bbf f094 91be 4264 1ebf
00000320: 61c6 4cbe d9ba 9d3d 0957 9dbd f370 84be
00000330: e59e 363e 5efc 993d d6e3 5b3e 8f19 8abe
00000340: 8f9b 8c3d bc53 73be 751a 56be 595d 93be
00000350: 0aa1 903e eaac d93e 984f 523d a634 5abe
00000360: e5c4 573e b144 8ebe 7f11 2ebe 77c0 acbe
00000370: 7aee a7be 720f e8be 097d 3e3e 9339 6fbe
00000380: 09bc 843d 65ac 04be d640 133e 3f57 6d3d
00000390: f78d 853d e6f0 103e 4c0c cebe 50d3 2dbe
000003a0: c0ac ca3c 483b 993e 8490 68be 7ab2 9a3e
000003b0: d9f9 6abe f5f8 ffbd 2a7b c3bd 66de 963d
000003c0: dc26 b9bd 18bc ce3d bc5e d93d 7b26 6a3f
000003d0: 26a2 afbe e417 4cbe 044e 6cbd 373c d5be
000003e0: b1d0 0b3e 43f7 c73d fb22 d0bc f0c8 14be
000003f0: 39db 64bd 7b61 67bc 8afa 703a 0efd 713c

conv5.bias f4 [128]
0.22698414 0.032620173 0.21864507 0.1847785 -0.09542689 0.1159664 0.20144887 0.08688455
0.19951937 -0.30887786 0.13356352 0.04447004 -0.25652623 -0.19665793 -0.1186157 0.058732238
-0.2615371 0.15713055 0.118218526 -0.10792633 0.12197724 0.024878118 -0.020377757 0.023795506
0.40004334 0.17123927 0.12040481 -0.45349163 -0.119262904 -0.16220286 -0.014385946 -0.011988907
0.00731196 -0.2316435 0.15759882 0.19949235 0.043543164 0.09983138 -0.030082855 -0.023770291
0.05926501 0.048683725 0.088739075 0.0787319 0.012858592 0.16835847 -0.04502135 0.21964425
0.12770404 0.12846346 -0.13486889 -0.26598394 -0.40078035 -0.26091805 0.06848734 0.19086783
0.042591784 0.18175618 -0.16397776 0.04897564 -0.04919162 0.22500683 0.17904066 0.1992806
-0.15443523 0.25291985 -0.096747644 0.23039325 -0.06293467 0.015965428 -0.010025983 -0.022070881
0.06776477 -0.16798075 -0.10200275 -0.21014136 0.015478169 -0.27761683 -0.18948139 0.034087177
0.13035977 -0.046159264 0.009661137 -0.079945 -0.0016543289 -0.008329587 -0.08519717 0.10192481
-0.34541178 0.27991384 0.13548164 -0.010992522 -0.13599378 -0.063257344 -0.1278118 0.02233651
0.26191065 0.06286082 -0.13873094 0.30501732 -0.13178356 -0.13678208 0.1358366 -0.033007152
-0.12752113 -0.07789091 0.19249055 -0.16990058 0.14452629 0.17164263 0.25941795 -0.09522747
0.21785496 0.03813544 0.06407968 -0.0237145 -0.18307932 0.05679896 -0.4512337 0.17990069
0.23517725 0.024738379 0.017614713 0.019836325 0.122189954 -0.08013037 -0.17138082 -0.17956445
00000000: 886e 683e bb9c 053d 7ee4 5f3e 9336 3d3e
00000010: 2c6f c3bd cb7f ed3d 9d48 4e3e 87f0 b13d
00000020: ce4e 4c3e 3d25 9ebe e0c4 083e 3726 363d
00000030: 6857 83be b260 49be caec f2bd 3791 703d
00000040: 31e8 85be d5e6 203e 8e1c f23d 7b08 ddbd
00000050: 34cf f93d 32cd cb3c 41ef a6bc cbee c23c
00000060: 7bd2 cc3e 5959 2f3e cc96 f63d 0e30 e8be
00000070: 1c40 f4bd 8218 26be 08b3 6bbc 1f6d 44bc
00000080: 2b99 ef3b f433 6dbe 9661 213e b947 4c3e
00000090: 515a 323d 6574 cc3d 5270 f6bc eab9 c2bc
000000a0: debf 723d 9668 473d d5bc b53d 313e a13d
000000b0: d8ac 523c 2a66 2c3e 4f68 38bd 6cea 603e
000000c0: d9c4 023e ed8b 033e 121b 0abe 0c2f 88be
000000d0: 1533 cdbe 0d97 85be 1743 8c3d db72 433e
000000e0: b974 2e3d 4b1e 3a3e c9e9 27be ae9a 483d
000000f0: 277d 49bd 3168 663e 6f56 373e 3710 4c3e
00000100: 4524 1ebe b67e 813e a123 c6bd 35ec 6b3e
00000110: e4e3 80bd eec9 823c 0544 24bc fecd b4bc
00000120: 41c8 8a3d 2503 2cbe d1e6 d0bd 4c2f 57be
00000130: 2598 7d3c cb23 8ebe 6907 42be ff9e 0b3d
00000140: 087d 053e 7f11 3dbd bf49 1e3c 34ba a3bd
00000150: 11d6 d8ba d278 08bc db7b aebd f4bd d03d
00000160: d0d9 b0be de50 8f3e b3bb 0a3e fb19 34bc
00000170: f441 0bbe 118d 81bd 19e1 02be 0efb b63c
00000180: 2719 863e 2cbd 803d 7c0f 0ebe 3b2b 9c3e
00000190: 45f2 06be 9a10 0cbe c018 0b3e 8232 07bd
000001a0: e694 02be 4585 9fbd 3e1c 453e 6bfa 2dbe
000001b0: b3fe 133e 16c3 2f3e 6ed2 843e 9f06 c3bd
000001c0: 5f15 5f3e e833 1c3d 353c 833d e944 c2bc
000001d0: 2579 3bbe 07a6 683d 1b08 e7be e337 383e
000001e0: 4ed2 703e 24a8 ca3c bb4c 903c ca7f a23c
000001f0: ba3e fa3d 641b a4bd 747e 2fbe bedf 37be

conv6.weight f4 [64, 128, 2, 2]
-0.03311197 -0.019708792 -0.5995978 -0.47506464 -0.21467385 -0.29476506 -0.35132188 -0.2989083
-0.12865768 -0.40728644 -0.24191901 0.1969116 0.2057391 -0.033173207 -0.017154077 -0.09901114
-0.11201962 0.073583916 0.13562417 0.24061726 0.07606511 0.14818124 0.37602288 0.30910137
-0.047081783 0.16223113 0.060377087 -0.41103995 0.22456643 -0.027382068 -0.1664906 0.073121674
-0.20526363 -0.13637911 -0.07485543 -0.071738325 -0.35334027 -0.23688756 0.002167841 -0.16224372
0.06635642 -0.019877307 0.14479768 0.059203867 0.00033230247 -0.17294882 -0.28613448 -0.36411154
-0.22681056 -0.45940977 0.16446677 -0.013578072 -0.2702832 0.07177473 0.06985146 -0.16327682
-0.25159034 -0.35877544 0.18426548 -0.09337689 -0.008187608 0.08537781 -0.020425655 -0.09309447
-0.021044197 0.06543441 0.008946865 0.107105955 0.049966272 0.04867237 0.4518088 0.43847993
0.024145575 0.07261507 0.19150864 0.21959071 -0.02050702 0.017779244 -0.02513591 0.02547871
0.11858758 0.037914187 0.052712083 -0.34872496 -0.10523028 0.20095913 0.22044516 0.2561196
0.10280775 -0.41205877 -0.21355598 -0.62422353 -0.24540552 -0.19726261 -0.6524597 -0.79426146
-0.0522913 -0.4364291 -0.6327798 -0.3888343 -0.00046198844 -0.437993 -0.33463404 -0.85748225
-0.21409094 -0.34169745 0.07604775 -0.096175335 0.031131845 -0.12792954 0.055676714 0.237007
-0.12821783 -0.05677544 0.06465164 -0.06148911 -0.02345432 -0.022922322 -0.06308745 -0.029640587
-0.119095765 0.25292552 0.044876643 -0.25329712 -0.17113371 -0.038659222 -0.008103051 -0.022853583
0.24320558 0.12953389 -0.09890382 0.23013498 0.024633935 -0.04986554 -0.07833309 -0.06758804
0.28047898 0.03429324 -0.21909839 -0.012094138 -0.11901666 -0.13166553 0.03417828 0.04423639
0.26091462 0.32370168 0.066678174 0.38967538 0.11298753 0.3165162 0.20187144 0.092308015
0.042441122 -0.33433905 0.09781856 -0.5141853 -0.17841367 -0.15498807 -0.029717011 0.26613986
0.1297816 -0.38669264 0.048489273 0.011946468 0.13522896 -0.09852154 0.048958663 0.08978805
0.18484458 -0.19660246 -0.21087451 -0.5116404 -0.29802445 0.065056495 0.33023605 0.19622284
0.14567009 0.03403136 0.24272795 0.2261746 -0.33904105 -0.36616457 -0.27007642 0.19203345
0.2162101 -0.06824536 0.28818393 0.14457281 -0.19525225 -0.010011813 -0.16270746 -0.13467473
-0.16607198 -0.60371524 -0.095485896 -0.2819381 -0.16925974 0.20987007 0.2940946 -0.34209892
-0.2391717 -0.094745345 0.054506127 -0.15016226 0.25285754 -0.019016959 0.12588125 0.25480247
0.32721272 0.05299048 0.11707253 -0.09037822 0.24178456 0.24637638 0.047535814 0.08790543
-0.035491742 0.19660993 0.38717487 0.17194177 -0.16957842 -0.23593593 -0.068462305 -0.08464754
-0.058340155 -0.06045219 0.3341263 0.096852556 0.019385736 0.024910081 0.2701391 0.020978706
0.002674735 -0.017149465 -0.021013504 0.03214601 0.16669701 0.16360827 -0.22969942 -0.22892834
0.09100774 0.008772339 -0.18813987 0.2529103 0.3093552 0.1606943 -0.11973897 0.03231246
-0.0045270687 0.15292989 -0.16165653 0.11265776 0.23052551 0.10122931 -0.23562524 -0.103251345
00000000: 6ba0 07bd 5574 a1bc 3e7f 19bf ac3b f3be
00000010: 76d3 5bbe 72eb 96be 76e0 b3be 820a 99be
00000020: d7be 03be d987 d0be 9eb9 77be 32a3 493e
00000030: 45ad 523e a1e0 07bd b586 8cbc 5ac6 cabd
00000040: 8b6a e5bd 2ab3 963d 10e1 0a3e 5f64 763e
00000050: 06c8 9b3d d3bc 173e 1286 c03e 8942 9e3e
00000060: d4d8 40bd eb1f 263e f74d 773d d473 d2be
00000070: bef4 653e 5c50 e0bc 837c 2abe d1c0 953d
00000080: a130 52be f7a6 0bbe ce4d 99bd 8beb 92bd
00000090: 04e9 b4be a792 72be 5612 0e3b 3823 26be
000000a0: e0e5 873d bcd5 a2bc d845 143e c17f 723d
000000b0: e238 ae39 7f19 31be 3880 92be d46c babe
000000c0: 0741 68be c237 ebbe fa69 283e 9076 5ebc
000000d0: 8f62 8abe a1fe 923d 480e 8f3d 0a32 27be
000000e0: 73d0 80be 6ab1 b7be 17b0 3c3e 623c bfbd
000000f0: 5125 06bc 90da ae3d b453 a7bc 50a8 bebd
00000100: e164 acbc 7a02 863d df95 123c 5e5a db3d
00000110: 6fa9 4c3d ae5c 473d 7c53 e73e 7180 e03e
00000120: f1cc c53c 36b7 943d d71a 443e 63dc 603e
00000130: 57fe a7bc c7a5 913c d3e9 cdbc bab8 d03c
00000140: 0cde f23d e84b 1b3d a0e8 573d 148c b2be
00000150: f982 d7bd 3bc8 4d3e 60bc 613e 1c22 833e
00000160: df8c d23d 5ef9 d2be 6bae 5abe 1dcd 1fbf
00000170: 964b 7bbe 36ff 49be 9907 27bf b854 4bbf
00000180: 672f 56bd a373 dfbe dbfd 21bf 4a15 c7be
00000190: 0a37 f2b9 9e40 e0be 2755 abbe f583 5bbf
000001a0: a83a 5bbe f8f2 aebe ecbe 9b3d 93f7 c4bd
000001b0: 3608 ff3c f6ff 02be 440d 643d f7b1 723e
000001c0: 894b 03be 5d8d 68bd 1468 843d 01dc 7bbd
000001d0: 4623 c0bc 98c7 bbbc fe33 81bd d1d0 f2bc
000001e0: 7be8 f3bd 747f 813e 92d0 373d 29b0 81be
000001f0: ad3d 2fbe 2259 1ebd a9c2 04bc 7037 bbbc
00000200: e20a 793e 88a4 043e 168e cabd 81a8 6b3e
00000210: 1bcd c93c cf3f 4cbd 196d a0bd 996b 8abd
00000220: f19a 8f3e 1277 0c3d 545b 60be 7e26 46bc
00000230: 02bf f3bd 54d3 06be 86fe 0b3d 3831 353d
00000240: 9a96 853e 3abc a53e 918e 883d 8883 c73e
00000250: 0266 e73d 690e a23e 63b7 4e3e fc0b bd3d
00000260: bed6 2d3d 7d2e abbe 1955 c83d a6a1 03bf
00000270: 13b2 36be 31b5 1ebe 1771 f3bc 7c43 883e
00000280: 78e5 043e 94fc c5be b09c 463d 1ebb 433c
00000290: 7679 0a3e a9c5 c9bd e188 483d cce2 b73d
000002a0: e647 3d3e 2852 49be 7def 57be defa 02bf
000002b0: a996 98be 573c 853d b314 a93e a4ee 483e
000002c0: 8a2a 153e 7864 0b3d ad8d 783e 509a 673e
000002d0: ca96 adbe ec79 bbbe 7547 8abe 6ba4 443e
000002e0: 2e66 5d3e 39c4 8bbd d88c 933e e50a 143e
000002f0: 35f0 47be 9608 24bc c99c 26be 2ce8 09be
00000300: c60e 2abe 158d 1abf 1c8e c3bd 315a 90be
00000310: 6d52 2dbe 2ee8 563e 9193 963e 9727 afbe
00000320: 6de9 74be d909 c2bd d141 5f3d 23c4 19be
00000330: 8b76 813e 74c9 9bbc 04e7 003e 7875 823e
00000340: 6d88 a73e 8c0c 593d b9c3 ef3d 3718 b9bd
00000350: 5f96 773e 174a 7c3e eab4 423d c307 b43d
00000360: ca5f 11bd 1d54 493e c93b c63e 8111 303e
00000370: f7a5 2dbe 3099 71be f735 8cbd b05b adbd
00000380: 16f6 6ebd b79c 77bd 9a12 ab3e a25a c63d
00000390: d6ce 9e3c 3a10 cc3c ac4f 8a3e 89db ab3c
000003a0: 9b4a 2f3b 097d 8cbc 8324 acbc 89ab 033d
000003b0: 9fb2 2a3e ed88 273e 5336 6bbe 316c 6abe
000003c0: 4462 ba3d dbb9 0f3c bda7 40be 757d 813e
000003d0: ce63 9e3e 0c8d 243e b539 f5bd 125a 043d
000003e0: ce57 94bb a799 1c3e 4a89 25be 1db9 e63d
000003f0: e10e 6c3e 5051 cf3d be47 71be 7175 d3bd

conv6.bias f4 [64]
0.13543676 -0.06575603 -0.11109059 0.19949196 -0.12325809 0.29485208 0.11787937 0.06815836
0.13809295 0.06460496 0.14215854 0.28899878 0.11720021 -0.29704574 0.07831797 -0.27436423
0.3997162 -0.10604722 -0.19050536 0.061691582 -0.14330254 0.033770464 -0.06631779 -0.11232531
-0.1302985 0.082777806 -0.31614113 0.07939017 -0.19552791 -0.094861075 -0.3184648 0.07017929
-0.15125117 -0.47648868 -0.33762148 0.11897758 -0.13989559 -0.15107489 -0.10896476 -0.04185788
-0.11269941 -0.053242832 -0.24152154 -0.1639686 -0.13644594 0.14007974 0.033597782 0.24609971
-0.17631868 0.007429481 0.18153402 0.11871991 -0.24945979 -0.37583032 -0.26538563 0.17583244
0.08249681 0.21544756 0.3349205 -0.07685253 -0.41607037 -0.16717197 0.32788077 -0.090306394
00000000: efaf 0a3e 19ab 86bd 7783 e3bd 9f47 4c3e
00000010: bd6e fcbd daf6 963e bd6a f13d 9c96 8b3d
00000020: 3d68 0d3e 9b4f 843d 0292 113e a6f7 933e
00000030: aa06 f03d 6116 98be 2c65 a03d 7879 8cbe
00000040: 9aa7 cc3e 492f d9bd d613 43be 50b0 7c3d
00000050: e7bd 12be e652 0a3d 9fd1 87bd d00a e6bd
00000060: f86c 05be 6987 a93d 40dd a1be 5097 a23d
00000070: 7838 48be 8646 c2bd d10d a3be 29ba 8f3d
00000080: 96e1 1abe 53f6 f3be b9dc acbe 84aa f33d
00000090: ca40 0fbe 60b3 1abe eb28 dfbd 2b73 2bbd
000000a0: f3ce e6bd 2815 5abd 6c51 77be 62e7 27be
000000b0: 7cb8 0bbe 1071 0f3e d49d 093d 9001 7c3e
000000c0: e28c 34be 0173 f33b 0ee4 393e 6d23 f33d
000000d0: 6372 7fbe d56c c0be a0e0 87be 6b0d 343e
000000e0: 16f4 a83d 499e 5c3e b37a ab3e dc64 9dbd
000000f0: 2d07 d5be 212f 2bbe fddf a73e 8ff2 b8bd
