model/model_11.pth (torch_old, 571877 bytes, 24 tensors)

conv1.weight f4 [32, 3, 2, 2]
00000000: 42f1 d9bd fd74 efbd 20ad 0fbe 82e9 ca3e
00000010: 8f06 19bf 7038 123e e5ca 01be bc8c df3e
00000020: 06e5 96be 5493 a0bd 63eb 893c 3016 913e
00000030: 45a5 543e 8387 01be 945a 013e 339a 753c
00000040: 48be 963d 6705 7dbd 6585 a73e 8366 1e3d
00000050: 94d2 0bbe 9c28 7fbe f1fc 2dbd c466 78be
00000060: 5004 ddbd 3a27 713d 022e 0e3e 6c1a 7d3e
00000070: 8172 abbe a3ca 533e ee29 29bd f504 a33e
00000080: 44b0 073e e4ca 49be f862 eebe a53f e7bd
00000090: 0406 cb3e 8473 10bd 989d 953d 9708 88be
000000a0: 7492 c53e 60b1 69be 77fc 253e 0fbe 46be
000000b0: 8f53 86bd e5fd 383c c76a 66be 2102 1fbe
000000c0: 515c 24be dd50 dcbd 189a c0be 5230 65be
000000d0: 651f 473e 13c4 adbd 507f 993e fc13 613e
000000e0: f5fe 44bd 22d8 91be 80b5 1c3e 656b bc3c
000000f0: 265b 45be bfc4 ed3d 3f90 743e 881b 833e
00000100: c255 46be 1e58 04be faf0 8fbb 5162 a4bc
00000110: 472d a6be c3f8 b3be 0b35 003e 4bcc 28be
00000120: 806d df3c 1ade acbd 2f9b 82bd 8648 5abd
00000130: c6a2 1f3e 89be 173e 598e 58be a18d 403e
00000140: 0ac1 1ebe a7e5 55be 7c16 18bb 325a d3bd
00000150: 221b 723e 8437 583d 814d 12bf 72ff 7c3d
00000160: 202c 053e ccd2 fb3e 125c f1bd 1b40 78be
00000170: d496 7c3e ee96 a53e f3ec b2be d39f 4dbe
00000180: 5adc 363d fb0c 94be 650d 393e f107 cfbd
00000190: 3008 083e 4ece ebbe 29de d33e 3a6f 013d
000001a0: b84e 6fbe ae4e d0be c83d 0d3f 8cb3 cb3d
000001b0: 5fde 163e 728d f8bc 34a1 0e3d 09e1 223e
000001c0: 95f2 5e3e 1c37 8ebe 6c3d f73b acae 613e
000001d0: 8556 163e 6f85 0d3e 0613 4fbe b793 1bbe
000001e0: 37f6 efbd 0630 033d a244 973e 5c7b 87be
000001f0: 5a65 2c3e aede 49be 8345 a5be 10b1 f9bd
00000200: c2ea 473e 28e1 793e d4fb 66be e7ba c13c
00000210: f851 bd3e 016c 613e b572 fd3d 3a1c c73d
00000220: 808a 123e 8d51 80bc 5fec f2be 4334 04bf
00000230: 26b7 18bc 8d0d 543d 1a24 8ebe ec07 423d
00000240: 61e2 853c 3b11 733c db5c fdbd 35ef 7b3d
00000250: 74f6 273e 107a ad3e 8e85 3fbe 887e c73e
00000260: 4e94 07be 284b 083d 6d1a d8be 5355 33be
00000270: e1d9 b9be bb2c 17be 10a6 373e 1220 c93c
00000280: 0f27 86be 955d 613e c1c6 c13d 2784 b63e
00000290: 377c a0be 1de9 703d e730 73be 07c2 c1bc
000002a0: a33d 09bf 499b 9ebe 4024 7ebe 7201 0b3e
000002b0: 52c4 5fbd ef28 a13d c5b7 a33e 5fe0 f03e
000002c0: 2b6a 833d 107b 84bd b3d6 58be 4930 b13e
000002d0: b169 183e d628 053e 6a8d 52be 4794 06be
000002e0: 892c a13c 53ca b83e ea56 29be 6f91 78be
000002f0: 22a1 f33d e737 0dbe 7baf 1e3e 54a6 4bbe
00000300: 9b9b bf3c 608a bebd 5292 af3e 0b6b bcbe
00000310: 3332 663e fb6b 44bd 1e22 c03e 7635 f0be
00000320: 61a1 423e 537f b9be 6812 a33e 72d9 a8be
00000330: 0163 c5bc 9882 163e 4c78 64be 31df 5d3e
00000340: af24 5dbe ad41 803e 32b4 4dbe 3209 983e
00000350: 725b 1bbf 8607 383e a05c 86bd 3243 923e
00000360: 140a e53d 5dd6 47be 21af 38be 7abb 923e
00000370: b7c8 cabe ae15 a13e 51cd dabe 23da 4abe
00000380: 3623 813e 34c2 5d3c 692a 1f3c 619f d03e
00000390: 999c 463e 7b56 e73e 8cac 82be cdd3 86be
000003a0: 94a3 a43e be3e 603e 4679 8dbe 5a7c a23d
000003b0: c032 a2be cb7e a83e 3b6b 44be 2594 c6be
000003c0: 02fe 87be 3c6d 69bd 1b04 293e d634 3d3d
000003d0: 39bb b5be 9b84 1cbe 4de8 d8be 70e8 97be
000003e0: 52d3 26be 1153 983e 989f be3e cabe 693d
000003f0: 4a76 24bd db46 2c3e 104d f0bd dac7 73be
-0.106417194 -0.116922356 -0.14030886 0.39631277 -0.5977563 0.14279342 -0.12675054 0.4366206
-0.29471606 -0.078406006 0.016835874 0.2833724 0.2076617 -0.1264935 0.12632209 0.014990377
0.07360512 -0.06177273 0.3271896 0.03867198 -0.13654548 -0.24917835 -0.04247755 -0.24257952
-0.10791838 0.0588753 0.13884738 0.2471711 -0.33485797 0.20682769 -0.041299753 0.3183972
0.13250834 -0.19706303 -0.46559882 -0.11291436 0.39653027 -0.035266414 0.07305449 -0.26569054
0.38588297 -0.2282157 0.16209589 -0.19408439 -0.06558906 0.011291002 -0.2250167 -0.15528156
-0.16050841 -0.10757611 -0.37617564 -0.22381714 0.1944557 -0.08484664 0.29979944 0.2198028
-0.04809471 -0.2848521 0.15303612 0.023000428 -0.19273052 0.11609792 0.2388315 0.25606942
-0.19368652 -0.12924239 -0.0043927403 -0.020066412 -0.3245642 -0.35150728 0.12520234 -0.16484182
0.027273893 -0.084408 -0.06377255 -0.05329182 0.15589437 0.14818777 -0.21148051 0.18804027
-0.15503326 -0.20888387 -0.002320676 -0.10319938 0.23643163 0.05278732 -0.5714951 0.06176705
0.13005114 0.49184263 -0.11785139 -0.24243204 0.24666911 0.32341713 -0.34946403 -0.200805
0.044643737 -0.28916153 0.18071516 -0.101089366 0.13284373 -0.46055835 0.41380432 0.031600215
-0.23369873 -0.40685028 0.55172396 0.09946355 0.14733265 -0.030340884 0.034821704 0.15906157
0.21772225 -0.2777642 0.007545164 0.22039288 0.14681442 0.13820432 -0.202221 -0.15193067
-0.11716884 0.03202822 0.2954455 -0.26461303 0.16835538 -0.19713852 -0.32279596 -0.12191975
0.19523147 0.24402297 -0.22557002 0.023648692 0.369766 0.22013856 0.12375394 0.09722181
0.14310646 -0.015663886 -0.47445962 -0.51642245 -0.00932101 0.051770736 -0.27761918 0.047370836
0.016343297 0.014835651 -0.123712264 0.061507422 0.16402608 0.3388219 -0.18703291 0.38963723
-0.13240167 0.0332748 -0.4220766 -0.17513017 -0.3629904 -0.14763157 0.17934442 0.024551425
-0.26201674 0.22008355 0.094617374 0.356477 -0.31344768 0.058816064 -0.23749124 -0.02365209
-0.53609675 -0.30977848 -0.24818516 0.1357477 -0.054630585 0.078691356 0.31976143 0.47046182
0.06416734 -0.06468785 -0.21175651 0.3460715 0.14884068 0.13003859 -0.20561758 -0.13142501
0.019674556 0.3609186 -0.16537061 -0.24274229 0.11895968 -0.13790856 0.15496628 -0.19887668
0.023389628 -0.09303737 0.3429132 -0.36800417 0.22480087 -0.04795454 0.3752603 -0.46915787
0.19006874 -0.36229953 0.3184998 -0.32978398 -0.02409506 0.14698255 -0.22311515 0.21667172
-0.21596025 0.25050107 -0.2008827 0.29694515 -0.6068641 0.1797162 -0.065606356 0.2856689
0.11183563 -0.19515367 -0.18035556 0.28658658 -0.39606258 0.31461853 -0.4273477 -0.19809775
0.25222176 0.013535071 0.009714701 0.40746596 0.19395675 0.45183167 -0.25522268 -0.26333466
0.3215605 0.21898934 -0.27631587 0.079338744 -0.31679344 0.32909235 -0.1918153 -0.387849
-0.2656098 -0.05698894 0.16505472 0.046192966 -0.35494402 -0.1528496 -0.4236473 -0.29669523
-0.1629155 0.29750875 0.37231135 0.057066716 -0.04015187 0.16823904 -0.117334485 -0.23806706

conv1.bias f4 [32]
00000000: 917c c0be a167 9fbd 3d45 f0be d30a 22be
00000010: 84a5 c4be c08e 02bf a106 10bf 6486 073e
00000020: 03d5 c43d 276a b4be d225 d5be 8768 06bd
00000030: 2b09 b5bd 9675 49be 4659 9a3d 0507 c5be
00000040: 5522 aabd cf1e ef3d 86e7 2fbe 1c0b 06bf
00000050: 782a ffbe 5d7b 46bf 7f8a 0f3e 7c94 1abf
00000060: 0e0b 5a3d e823 c1bd b1ef babe c77c f2be
00000070: 636c f13d 7563 f6be 5e58 c7be 9499 b03d
-0.37595037 -0.077834375 -0.46927825 -0.15824442 -0.38407528 -0.5099907 -0.56260115 0.1323486
0.09610941 -0.35237238 -0.41630417 -0.03281453 -0.08839639 -0.19673762 0.07536559 -0.38481918
-0.083073296 0.11675798 -0.17178163 -0.523607 -0.4983709 -0.7753199 0.14017676 -0.6038282
0.0532332 -0.09430677 -0.36510995 -0.47360823 0.11788251 -0.48122755 -0.38934606 0.08623043

conv2.weight f4 [32, 32, 2, 2]
00000000: e444 4dbe b4a4 073e 75fe c3bd 9d4f acbd
00000010: a64c 9c3c bd86 2d3d cd89 93bd 2d1e 913c
00000020: cd7e b6bc 6f9c c23c a654 56be 1079 31be
00000030: 2e7c d1bd 6bf0 91bd a613 34bd b898 b9bd
00000040: 90d6 bcbd 5d23 023d b16d d4bd 7a5b 4bbe
00000050: 6643 43bd c465 213d dc3f 42bd fa5c 8e3d
00000060: 413a 123d ecf9 133e 9792 fabd e421 a03c
00000070: 239c 9fbe dc02 a8be 3244 7bbd bf9c e9be
00000080: f392 e13d 9a6f e43d 2338 153e e30c 8d3e
00000090: 99ee c43d 8878 c5bd ad75 e03d c4c5 b93d
000000a0: df17 d8bd c790 783d 6824 633d aaaa 30bd
000000b0: cbc9 1ebd dd7b 86be 3e4d 213e 5543 35be
000000c0: b2bd 0c3e 4a0e 19bd dc4e 8a3d a8b4 43be
000000d0: 8a76 593d ac57 983d 6e03 4d3b 157f efbd
000000e0: 0fd0 d83d 5459 bb39 c8d1 1a3e a530 ed3d
000000f0: 8a83 983b 4af5 a93e 69a0 9abd 6108 aabd
00000100: 308a 1c3e 2940 60bc 0211 4abe f782 f6ba
00000110: 2b54 4c3d e024 77be 2755 7b3d f1fe b13b
00000120: b7ae 8c3d 17b1 823d bd25 a5bd fe58 49be
00000130: 6d11 0fbe 843e 78be 4ec9 853d 464b cf3d
00000140: 924b 8f3e 46bc b23e 65da e2be e2b8 46be
00000150: bb24 8abe da51 03be 827f 39bd fb5c 54be
00000160: b551 0ebe 386e 1b3b 630f 2dbd ff17 46bc
00000170: 8686 f93e 2934 643e cd6e 76be 66ed 97be
00000180: 856d 93be e9e0 d33d bb5e fc3d c6ca 95be
00000190: b391 003e 913b e33d 1093 4cbe 99c9 6abe
000001a0: 7f45 9cbd 414d 753e e9b5 7e3d 7746 30bd
000001b0: 7f08 81bd 5234 e93d cf37 36ba 65ae 353d
000001c0: 408f 1b3e d158 293e 5542 3b3e 5910 9e3e
000001d0: 3442 1f3d cfb8 7d3e d117 aabe 595e 1dbe
000001e0: 7dc2 91be 16f9 453e bf43 12be 9b50 a73d
000001f0: a930 243e a766 8abd 33fe a03d 1feb a83d
00000200: e13b 64be aaa5 ffbd 66cb 2abe b346 88be
00000210: b170 c9be 2138 6cbe ef4f 9dbe 3a3c aebe
00000220: 0c60 bbbe 0427 e9be de34 0bbf 44af 9bbe
00000230: c0ad 62be 9b6e d7be a41a dabe d0db dcbe
00000240: a507 70be 8d56 8abe e5dd 70be 129f a2be
00000250: 3994 2f3e 26dc 493e a684 283e f0f9 643e
00000260: 628b b3be 25ed 9ebe 2cc1 92be c0f4 8bbe
00000270: b677 b9be e0e3 b1be b935 0abf 5c64 ccbe
00000280: 9ec6 edbe 9fca 00be 8f77 e6be 328f b8be
00000290: 6c94 90bc bedb 853c 1b56 0fbe 5e48 483d
000002a0: 2da9 da3c 7ab6 97bd f36f 833c 5a53 ea3d
000002b0: 2060 bf3d 826e ef3d 54ab cf3d a0e9 403e
000002c0: ab1e ddbe 2104 17bf f714 2bbf 9629 02bf
000002d0: c59c d2bd a1d4 27be 8b35 f3bd a81d 0cbe
000002e0: 38f7 3dbe c43e a4be fff4 a5bd 0d48 3dbe
000002f0: a7bb 653e 82ae 3b3e 28fd 803e 559b 873e
00000300: f210 79be 9284 16bd cecd 96bd db48 95bd
00000310: ee37 5bbe 367a 8abe 9a16 4bbe 2a99 88be
00000320: f97c a13c 4b93 a83c b3c6 bc3d 318f 0e3d
00000330: 60f5 3bbe 4051 85be 9497 50bc 34cd 06be
00000340: e40b a83e 48fa c43e 9b40 a33e 3468 de3e
00000350: 15cd 503e 293e e23b 3447 913e eaba e83c
00000360: 8704 c3be a6fe c5be feb4 11bf 8568 a3be
00000370: 88ea 75be 0730 95be 0952 93be cfb6 8ebe
00000380: eea9 f8be ed83 e3be 050f 1ebf 93fc e5be
00000390: 5d87 b23d b38c 11bd 5a75 68bd 1455 05bc
000003a0: f9c2 63be c14a 34be 8eb2 34be 740c d5bc
000003b0: 47bd 45bd 77c1 243b d439 ec3b 827f 4dbc
000003c0: ec27 39be 1e9e d53b 3916 aabd c434 84bd
000003d0: 0578 51bd 50b0 063b d9cd 44be c519 1dbd
000003e0: 83c0 94bd 7d7a 3abd f7b6 0f3d aabd c23c
000003f0: dbe6 f7be 0444 a6be 145b bcbe dd77 cfbe
-0.20045811 0.13246423 -0.09570018 -0.084136225 0.019079518 0.042364825 -0.07204018 0.017714584
-0.02227726 0.023756234 -0.20930728 -0.17331338 -0.102287635 -0.07125934 -0.04396405 -0.09062332
-0.09220612 0.031772006 -0.103724845 -0.19859114 -0.047671698 0.039403692 -0.047424182 0.069513276
0.035700087 0.14450806 -0.12234991 0.01954741 -0.3117381 -0.32814682 -0.061344333 -0.456274
0.110143565 0.11154099 0.14572196 0.27548894 0.096158214 -0.0964213 0.10959945 0.09070924
-0.10551428 0.060684945 0.05545464 -0.043131508 -0.038766664 -0.26266375 0.15752122 -0.17701466
0.13744238 -0.037367143 0.067533225 -0.19111884 0.053091563 0.07438597 0.0031282562 -0.11694161
0.10586559 0.00035733974 0.15119088 0.11581544 0.0046543526 0.33194953 -0.07550127 -0.083023794
0.1528709 -0.013687172 -0.1973305 -0.0018807341 0.049884956 -0.2413516 0.061360504 0.0054320027
0.06869262 0.063814335 -0.08063839 -0.19662854 -0.13971491 -0.24242598 0.065325364 0.10121779
0.27987343 0.34909266 -0.44307247 -0.19406465 -0.26981148 -0.12824193 -0.045287617 -0.20738594
-0.13898356 0.0023716819 -0.042251002 -0.012090682 0.48735446 0.22285523 -0.24065705 -0.29673308
-0.28794494 0.103456326 0.12322756 -0.29256266 0.1255558 0.11095346 -0.19977975 -0.22928466
-0.07630443 0.23955251 0.0621852 -0.04303595 -0.063004486 0.113869324 -0.0006951065 0.04435577
0.15191364 0.16537787 0.18287022 0.30871847 0.038881496 0.2477753 -0.33221295 -0.15368022
-0.28468695 0.193333 -0.14283656 0.08169671 0.16034187 -0.06757861 0.07860985 0.08247971
-0.22288467 -0.1248277 -0.16679153 -0.2661644 -0.3934379 -0.23068286 -0.30725047 -0.34030324
-0.36596715 -0.4553758 -0.54377544 -0.30407155 -0.22136593 -0.42076573 -0.4259845 -0.43136454
-0.23440416 -0.27019158 -0.23522146 -0.31761986 0.17146386 0.19712886 0.16456851 0.22360969
-0.35067278 -0.31040302 -0.28663003 -0.27335167 -0.36224145 -0.34744167 -0.53988224 -0.39920318
-0.46440595 -0.12577294 -0.4501309 -0.3604675 -0.017648898 0.016340133 -0.1399769 0.04889714
0.026691997 -0.074078515 0.016044592 0.11441679 0.09344506 0.116909996 0.101401 0.18839121
-0.4318746 -0.58990675 -0.66828865 -0.50844705 -0.10283808 -0.16389705 -0.11875447 -0.13683188
-0.18551338 -0.32079136 -0.0810337 -0.18484516 0.22434865 0.18328288 0.25193143 0.26485696
-0.2432287 -0.036747523 -0.07363473 -0.07289287 -0.21408054 -0.27046365 -0.1983284 -0.26679355
0.019712912 0.020578047 0.09217586 0.034804527 -0.18355322 -0.2603855 -0.012731452 -0.13164216
0.32821572 0.384722 0.31885228 0.43438876 0.20390733 0.0069043827 0.28374636 0.02840944
-0.38089392 -0.38670844 -0.569168 -0.3191568 -0.24015248 -0.29138204 -0.28773525 -0.27873847
-0.48567146 -0.4443659 -0.6174167 -0.4491926 0.08717225 -0.03553457 -0.05675254 -0.00813796
-0.22242345 -0.17606641 -0.17646238 -0.026006915 -0.048276212 0.0025139728 0.007209042 -0.012542607
-0.18081635 0.006519093 -0.0830502 -0.06455377 -0.05113985 0.0020551868 -0.1921915 -0.038354654
-0.07263281 -0.04552697 0.0350866 0.02377208 -0.48418316 -0.32473767 -0.36788237 -0.40521136

conv2.bias f4 [32]
00000000: 2b3f 413d bf23 b4bd fc83 d9bd 4100 1bbe
00000010: 88fe 023e d51a b9bd 6bd5 14be b01d 1a3e
00000020: 73f7 7abd be53 173e fed3 4fbe fcab 413e
00000030: fa9a ce3d a870 f6bd 6390 efbe 9b81 ebbd
00000040: e928 2c3c e3f7 5e3b ff61 403d f7bd f43d
00000050: 1eb7 4e3d 1777 57be 6f5e 4d3d 3b04 073e
00000060: 2d36 a6bd f5a7 473e b158 313d c10a 00be
00000070: 54a8 c13a 91a2 4d3e 22f2 893e 3c73 1ebe
0.047179382 -0.087958805 -0.10620877 -0.15136816 0.12792408 -0.09038321 -0.14534537 0.15050387
-0.061271142 0.14778039 -0.20295712 0.18913263 0.10088153 -0.12033206 -0.46789846 -0.1149933
0.010507801 0.0034022264 0.046968456 0.119502954 0.050467603 -0.21041523 0.050138887 0.13185208
-0.08115802 0.19497664 0.043297473 -0.12504102 0.0014774897 0.20081545 0.26942545 -0.15473646

conv3.weight f4 [64, 32, 2, 2]
00000000: 97cc c9bd 8ba7 be3d 3f6b 113c 557e 943e
00000010: 5206 fb3c 74fd 69be 8788 6a3e 327b 5fbe
00000020: cc5b 743d 78f5 953d bb6d b93d 7e3d f63c
00000030: 463a 063d 1a0c 71bd 7ae1 6d3c 6b12 08bd
00000040: 8996 bdbe b996 a7be 09a6 61be eb1a 8dbe
00000050: dbe2 92bd b8cf 453d 9624 6fbd cde0 283d
00000060: f9c9 f43c d281 05bd 9737 3ebd 6d4a 86bd
00000070: 33e6 13be 1bbc 66be 023b a2be cf2f d6be
00000080: ca2a edbc 0b1d bdbd 2604 d63c 7655 cebc
00000090: 05fb 863e 3410 9fbd f6e6 773e 1572 cabe
000000a0: 6597 3a3e 015c 9e3e ac62 663e b11e 9a3e
000000b0: 174d 4e3d 556f b53d d8f6 a93c 4a9a 173d
000000c0: 6578 03bc e8aa b8be a64d c63e f057 65bd
000000d0: 04e3 3e3e 6441 4a3e 99e2 67bd ab5a f5be
000000e0: 3e2e 0dbe 7317 5ebd a752 25bd 56bc 74be
000000f0: f315 ea3d 22e3 9b3d 2e2c 703d 49c8 493d
00000100: 7c37 8b3d 1d71 763d a70e b53d 3f93 28bc
00000110: 53ce 3b3d 94a0 8b3d 455c dfbd 2a0f cabd
00000120: 63ea 173e b5f3 8bbc 488e 07be 59f2 c9bc
00000130: 0352 883e 5994 2dbd 603b fc3d aac3 043d
00000140: cd25 83be 5c8a 983d ada8 583d 32d8 2b3e
00000150: b089 483e 9cb4 1e3e 139a 25bd 99de ca3d
00000160: 1496 dabd 6c6c 8bbc 5bbe 9abd eee5 f6bc
00000170: fdae cbbe 1dad 0abe 7b29 ba3e a9a5 533e
00000180: 2395 0c3e 625a 73be e000 8c3e cc56 5cbe
00000190: eeba c53e 0666 5cbe 2257 4e3c 21b4 a9be
000001a0: 86d0 8c3d 4c31 2abe eb53 52be a88f f8bd
000001b0: f48e 893d 7ed2 503c 0999 a2bd 3b25 30bc
000001c0: 4837 d13c 7c6c 253d 127a d03d 30bc 623d
000001d0: f9d4 713e b802 e0bd e1dc 0c3e 69be 4cbc
000001e0: 403b 5e3d 4448 843e 52df d43d 64bc 563e
000001f0: 889d 253c 3502 853c 2288 d83d a506 35bd
00000200: 30ec 4bbe 61c2 0cbf 5e5e 8a3d acc8 13bc
00000210: cccc 723e 4ff3 b9bd 2c99 803e 0ead 503e
00000220: 7273 1b3d 16db 323b 5f7e d6bd e5ef a5bd
00000230: befa 80bd fb16 d0bd cb13 153d ed11 753d
00000240: 3f28 82bd a038 05be 4e0c 2bbe 5953 a2bd
00000250: 74d6 f1bb 78f6 d1bc f033 d1bc 0bce 753d
00000260: ceb4 71bc 3fe1 d13c b480 6d3d c5ad 163d
00000270: ddfe 46bc 10b9 8dbe ec15 1c3d 775d 26be
00000280: 67b3 0cbc f463 633c 4dc7 6ebc 9e0e 9bbc
00000290: cdf0 c53d 702f 133e f9a6 c6bd f2b2 64be
000002a0: a038 6dbd 935b 523d 940e 83be 7322 f9bd
000002b0: 438d 1d3d dc2c b5be cc9a 703e aaeb b1bd
000002c0: 92a3 443e 2377 723e 277f c0bd d936 57be
000002d0: e3b2 d73d 8ab6 b83d 1059 f93d c328 883e
000002e0: b8a9 9fbe 564f 27bd dd67 80be 94db 4a3d
000002f0: d831 fcbc a20e 9e3d 8fa0 1cbd 3345 ac3c
00000300: 2530 243e c910 793c 4671 21bc 6712 543d
00000310: 741c 83bc 9970 8cbd 4eea 9cbd e48c a43d
00000320: 6724 fd3c 2a66 19bd ecd6 bebe a400 46be
00000330: d7ef 0fbe 9152 de3c 0d67 0cbf a98d d0bd
00000340: 72b6 15be c704 dfbc a246 aabe 8b8d b8be
00000350: 4ef8 62bd 89ed bbbc 78b2 c13c 6715 043e
00000360: a679 d73c 1e2e 683d b9f2 813d 94bd 2c3e
00000370: e27b 7dbe 5a6f 92be 8023 0e3e 4b20 babc
00000380: fd5a 6a3e 3ccc 873e 5d11 ebbd ec88 d8bb
00000390: a2e3 683e a203 fc3d 107d 02be 040b 54be
000003a0: 1e47 91be a826 3cbf 5ae2 71be 555e f2be
000003b0: 4672 8e3c 5e56 9abd 1037 1a3d 2ffe a73d
000003c0: 6261 593e 2acd ac3d d22a a5be 5ab2 e4bd
000003d0: fa02 833d 50a0 483e d9bd 58be 3df7 4f3d
000003e0: 2613 0a3e 2c14 b23d d5e5 b83d 0058 29bf
000003f0: 022c 5ebd e377 013d 3a3d 70bd c177 c73b
-0.098534755 0.093093 0.008875667 0.29002634 0.030642662 -0.22850591 0.22903644 -0.21824339
0.059657857 0.0732221 0.090541326 0.030058619 0.032770418 -0.05884943 0.01451909 -0.03322069
-0.37028912 -0.3273218 -0.22035994 -0.275596 -0.071721755 0.0482938 -0.0583845 0.04123001
0.029881464 -0.03259451 -0.046439733 -0.06557164 -0.14443283 -0.22532694 -0.31685644 -0.4183335
-0.028951067 -0.09234055 0.026125025 -0.025187235 0.26363388 -0.077667624 0.24209198 -0.39540163
0.18221815 0.30929568 0.22498578 0.3010154 0.050366487 0.088591255 0.020747587 0.037012376
-0.00802431 -0.3606789 0.38731116 -0.055992067 0.18641287 0.19751507 -0.056612585 -0.47920737
-0.13787171 -0.05422158 -0.040362027 -0.2389997 0.11429968 0.076116815 0.058635883 0.049263272
0.06797692 0.060166467 0.08840685 -0.010289012 0.045851063 0.06817737 -0.10906271 -0.098661736
0.14835505 -0.017083982 -0.1323787 -0.024651693 0.2662507 -0.042377803 0.123160124 0.032413162
-0.25614777 0.07448265 0.052895237 0.1678169 0.19583774 0.15498585 -0.04043014 0.099057384
-0.106731564 -0.017019473 -0.07555839 -0.030138936 -0.39781943 -0.135426 0.36359772 0.20668663
0.13728766 -0.23764947 0.27344418 -0.21517485 0.3861918 -0.21523294 0.012594016 -0.3314524
0.0687571 -0.16620368 -0.20539825 -0.12136775 0.06716719 0.012745498 -0.079393454 -0.010751064
0.025539055 0.040386662 0.10179533 0.05535525 0.23616399 -0.109380186 0.13756134 -0.012496569
0.054255724 0.25836384 0.103941575 0.20970303 0.010108359 0.016236404 0.1057284 -0.04419579
-0.19914317 -0.549841 0.0675628 -0.009020012 0.23710936 -0.090796106 0.2511686 0.20378515
0.037951894 0.002729123 -0.10473322 -0.08102397 -0.06297825 -0.10160633 0.03639583 0.05983155
-0.063553326 -0.13009882 -0.16703913 -0.079260536 -0.007380301 -0.02563022 -0.025537461 0.06001095
-0.01475258 0.025620101 0.05798407 0.036786813 -0.012145725 -0.27680254 0.038106844 -0.16246592
-0.008587695 0.013878811 -0.014573884 -0.018927868 0.0966507 0.14373565 -0.09699816 -0.22333887
-0.05791533 0.051356863 -0.2559706 -0.12164774 0.038464796 -0.35385787 0.2349655 -0.086875275
0.19203022 0.2367826 -0.093992524 -0.21017016 0.10532167 0.090191916 0.121751904 0.265936
-0.31184173 -0.040847145 -0.2507924 0.049525812 -0.030785486 0.07717635 -0.038239058 0.02102909
0.1603399 0.015201756 -0.009853667 0.051775362 -0.016004778 -0.06857414 -0.076618776 0.08034685
0.030901147 -0.037450947 -0.37273347 -0.19336182 -0.14056335 0.02713898 -0.54844743 -0.101832695
-0.14620379 -0.027223958 -0.33257014 -0.3604549 -0.055412583 -0.022940414 0.02364467 0.1289879
0.026303124 0.056684606 0.06345124 0.16869193 -0.24754289 -0.2860058 0.1388073 -0.022720477
0.22886272 0.26523006 -0.11477921 -0.0066081192 0.22743085 0.123053804 -0.1274302 -0.20707327
-0.2837457 -0.73496485 -0.23621503 -0.47337595 0.017388474 -0.075360045 0.037650168 0.082027785
0.21228555 0.084375694 -0.32259232 -0.1116683 0.06397052 0.19592404 -0.21166171 0.050772894
0.13483867 0.08695254 0.09028212 -0.661499 -0.054241188 0.031608474 -0.05865214 0.006087274

conv3.bias f4 [64]
00000000: a952 07bc 94d8 b03e 92c7 153e 0d9f cdbe
00000010: 1fcc 1e3d 5fa6 b1bc 04c0 ff3d c4c4 babd
00000020: 8818 073e be29 0b3e 9a92 bebe 8842 b2bd
00000030: fd93 3d3d b10a fabd 5f35 c63d 4dc2 1c3e
00000040: 8362 2ebd cbde 083d 6f55 3d3d 5a82 823d
00000050: 0e80 0a3e c9fe 60bc 90ac f1be ff79 0fbe
00000060: 453f 813a f956 27be 0ef0 b63e e33a b33d
00000070: 5798 783e 66ac 103e 6562 0f3e 51ab 563e
00000080: b15e b2bd c796 6c3e e8e9 8cbd 8c89 5fbe
00000090: c5da 003d 62db 723e 6e12 62be ecc3 f83c
000000a0: 3aa7 b63d 7eb5 3f3e d36f ff3c ae69 2abe
000000b0: aa18 5e3d 985e 12bd 502e 7d3d f4d4 d63d
000000c0: 49c2 5abd 5c9d 6fbd 7c9f ac3d 49f7 c2bd
000000d0: c22f 7f3d a065 2ebe a278 043e e652 88bb
000000e0: 5c65 01be a6bb d83c 02c6 debd aa37 4dbe
000000f0: f794 9e3d 1590 1d3c 99f8 1dbe 68d5 37bd
-0.008259454 0.34540236 0.14626911 -0.4016041 0.038768884 -0.021685777 0.12487796 -0.09119561
0.13192952 0.13590142 -0.37221223 -0.08704096 0.04628371 -0.122090705 0.096781485 0.15308495
-0.042574417 0.033415597 0.046224054 0.06372519 0.13525411 -0.0137326205 -0.47201967 -0.14011382
0.0009860775 -0.16341771 0.35730022 0.08751466 0.24276863 0.14128265 0.14002378 0.2096379
-0.08709467 0.23104392 -0.068805516 -0.21829814 0.031458635 0.237165 -0.22077343 0.03036686
0.08918615 0.18721578 0.031181252 -0.16641876 0.05422274 -0.035734743 0.061811745 0.10489836
-0.05340794 -0.05849968 0.08428857 -0.09519822 0.062301405 -0.17030954 0.12936643 -0.004160273
-0.12636322 0.026456665 -0.10877611 -0.20040765 0.077432565 0.009616871 -0.15426864 -0.044881254

conv4.weight f4 [64, 64, 2, 2]
00000000: 385a 0b3d 558c 52be ce0a d3bd ab10 11bf
00000010: 6d13 62be 608c 703e 195c 56be 7c3d 463d
00000020: f757 c9be 7317 c13d 788f 96be ed5f 6dbd
00000030: 5f12 e8bd ee7c 56be 75d6 26be 813a 3cbe
00000040: 0ba4 083e 04a5 d43d 10e0 973d 721b abbe
00000050: d6e9 81be 2d27 b0be b6a1 04be 7ee1 51be
00000060: 84a5 803c 9b06 14bf f353 0b3e 855f 32be
00000070: f02b 8bbd 2ff9 523c ba82 403e 509b 683c
00000080: 2155 283e c98b 4cbe 8b86 993e 6c92 0f3d
00000090: 5d78 4abe 7bbf 92be cc11 eabd e2a9 00be
000000a0: 02f3 0ebe 506c e03c 02c4 8fbe e688 d3be
000000b0: d254 eebe 42e6 e53d e595 f6be 41fe d8be
000000c0: f0db c3be 04ac e83c 1d32 cebd 05ab 89be
000000d0: e215 42bd 489f 89bd 08dd 383d 0543 95bd
000000e0: 4510 7c3e cfcf 0dbd 2f52 e33e 18c3 813e
000000f0: fc20 1cbe 36d3 69be 03f3 823e 5152 b2bc
00000100: 6db0 c2bd 9026 753d 77e1 a4be f207 4bbc
00000110: 9190 52be 73f6 43bd 676b c8bd 6afb b9be
00000120: d4ff 113e 2e02 32be 4346 333d ace9 9d3d
00000130: a658 c2be 8694 0bbe 5f69 88be 2973 d1bd
00000140: 9f9c 11be 2392 b83e 5dd6 48bc 0035 dc3d
00000150: 4350 c3be 741b f73e aefd 413d 7f3d 14bd
00000160: 3df3 023d 3a7d 043d 7d1c 9ebe 4b93 a43d
00000170: 6002 e5bc 2aed 2f3d fb53 0b3d 6549 ad3d
00000180: 05eb f9be 1940 03be c83f 41be 2b32 8d3e
00000190: a70c 023d 59c5 903e 2806 0cbe b0c3 213e
000001a0: 9eb4 d23d b30a 4dbe 314d 543e 4afc c4bd
000001b0: 36e7 73be 9b1a 04bf b6b6 2cbe 1caa b5be
000001c0: f6db 32be bc4f f1be 1aa1 203d e421 74be
000001d0: 406b 36be 12af 73be cd63 0bbf 71ba c1be
000001e0: c17b 263d 9930 893e f6ff c03c 8654 86be
000001f0: f72b 0fbe 6926 483e 29b4 61be 938e a53d
00000200: 8601 55be 1eaf 00be a4fb 5bbe 2156 36be
00000210: a8f7 813d 3392 b5be dbbc 8c3c f375 233e
00000220: bc48 b43d be6a 14be 9f52 75be 6faa 3e3e
00000230: e5d4 10be f8a0 353d eed0 ddbd b26a 783c
00000240: 3812 8dbd b033 89bd b9a1 353e 101d 153e
00000250: b2a3 a63d b5ef 503d 6e4e 263e 321e 393d
00000260: ad59 24be d331 093c ffaa 02bf 1287 0bbf
00000270: f65d a8be 434d 073e 2f02 a0be 8454 ebbd
00000280: 3bde 42be b999 403e e2c9 4ebe 1b71 943e
00000290: e214 55be e940 81bb ee23 0dbd 0c3d b1bd
000002a0: 74d3 093e fe84 0dbe f28b 06be 0320 8ebe
000002b0: a20b 7ebd e593 4cbd 2ad0 08bd e827 ff3a
000002c0: 245b a03d 68b5 903d a15e 87bc 3130 a83e
000002d0: 7329 fcbd 7240 183c 096a cbbe 24b1 08be
000002e0: 87c4 81bc 6b0e d1be 527f 743e edc7 c8be
000002f0: eab4 df3d 721a 13bf b523 3a3e 1c50 cbbd
00000300: 633f 9fbe f82d 6e3e 0a27 2abe 632b b83d
00000310: f5fa 58bd b910 79be abe4 b53e 297b 1cbe
00000320: dc9f 263e a9f5 1ebe 68ca ba3e e3a9 003e
00000330: 9439 adbd a325 1a3d 73b1 0e3d ec31 8e3d
00000340: 2c75 ec3d f674 863c 6f79 7d3e 890f 793e
00000350: 63cd 423e fe3a d9be f99f 53bd d3f4 f0bd
00000360: 4500 9c3e dbb5 70be 920e b73e 514f ab3e
00000370: 222b 8ebe b44b 5bbe ea97 efbd d24d c83c
00000380: eab1 163e e052 3c3e d698 05be 7f30 a93e
00000390: cd78 8cbe 19a2 283e e082 d9be 202b cabd
000003a0: aacc f8bd 18f3 183e b5e2 b33d f760 b3be
000003b0: 5f1c c2bd b8a9 c6bd 1d4e 373c 72ce 0f3c
000003c0: d04b dc3c f37a 8dbe 677e a53e 7171 c2be
000003d0: 555d 8d3c ff54 c4be a398 393e ec07 b43a
000003e0: af0c 86be 0b89 c33d 1f3d ddbd c503 5abe
000003f0: 84cc 30be 8bed 163e dd85 4ebe 2304 003e
0.034021586 -0.20561345 -0.10304795 -0.5666606 -0.22077723 0.23491049 -0.2093357 0.04839848
-0.39324924 0.09428301 -0.29406333 -0.05795281 -0.11331629 -0.20946094 -0.16292746 -0.18381692
0.13343827 0.10383037 0.074157834 -0.33419377 -0.25373715 -0.3440489 -0.12952313 -0.20496175
0.015703924 -0.5782258 0.13606243 -0.1741925 -0.0679549 0.012876793 0.18799868 0.014197186
0.16438724 -0.19975199 0.2998546 0.03505175 -0.19772477 -0.28661713 -0.11429176 -0.12564805
-0.13959888 0.027395397 -0.2807923 -0.41315383 -0.46549088 0.11225559 -0.48161235 -0.4238148
-0.38253736 0.028402336 -0.10068152 -0.2688829 -0.04738415 -0.067198336 0.045132667 -0.072881736
0.24615581 -0.03462201 0.4439864 0.25344157 -0.15246958 -0.22834477 0.25576028 -0.021767767
-0.09506307 0.05985123 -0.32203266 -0.012392031 -0.2056296 -0.047842454 -0.0978611 -0.36324626
0.14257747 -0.17383644 0.04376818 0.07710585 -0.37958258 -0.13630876 -0.26642892 -0.10227043
-0.14219902 0.36048993 -0.012258139 0.107522964 -0.38147172 0.48263133 0.04736107 -0.03619146
0.03197025 0.032345988 -0.3088111 0.080359064 -0.027955234 0.042950787 0.034015637 0.084612645
-0.48812118 -0.1281742 -0.18871987 0.27577338 0.031750347 0.28275564 -0.13674223 0.15797305
0.10288356 -0.20023613 0.20732571 -0.09618433 -0.23818669 -0.51603097 -0.16866574 -0.35481346
-0.17466721 -0.47131145 0.03921614 -0.23841053 -0.1781435 -0.23797253 -0.5444916 -0.37837556
0.040645365 0.2679489 0.023559552 -0.2623636 -0.13981615 0.19545902 -0.22041382 0.080838345
-0.20801362 -0.12566802 -0.21482712 -0.17806293 0.06346065 -0.35463104 0.017179897 0.15962963
0.088029355 -0.14493844 -0.23957299 0.18619703 -0.14143713 0.044342965 -0.10830866 0.015162157
-0.068882406 -0.06699312 0.17737474 0.14561868 0.08136691 0.051009852 0.16240856 0.045194812
-0.16049834 0.008373695 -0.5104217 -0.54502976 -0.32884187 0.13213067 -0.31251666 -0.114907295
-0.19030087 0.1880864 -0.201942 0.28992543 -0.20808747 -0.0039445055 -0.034458093 -0.08654222
0.13459569 -0.13820264 -0.13139322 -0.27758798 -0.062022813 -0.04994573 -0.033401646 0.0019466849
0.07829884 0.070658505 -0.016524615 0.32849267 -0.12312593 0.009292709 -0.39729336 -0.13348824
-0.015840782 -0.40831313 0.23876694 -0.3921503 0.109231785 -0.5746223 0.18177684 -0.09927389
-0.31103048 0.23259723 -0.16616455 0.0899265 -0.052973706 -0.24322785 0.35526022 -0.15281357
0.16271919 -0.155234 0.3648255 0.12564807 -0.08458248 0.03763355 0.034837198 0.069431156
0.11545786 0.016413193 0.24753354 0.24322332 0.19023661 -0.4242782 -0.051666234 -0.117654465
0.30468956 -0.23506872 0.35753304 0.3345895 -0.27767283 -0.21415597 -0.11698897 0.02445117
0.14716306 0.1839099 -0.13046584 0.33044812 -0.27435914 0.16468085 -0.42482662 -0.09871507
-0.121484116 0.14936483 0.08783475 -0.35034916 -0.094780676 -0.0970034 0.011188057 0.008777248
0.026891619 -0.27632865 0.32323 -0.37977174 0.017256418 -0.38346097 0.18124633 0.0013735271
-0.26181552 0.09547623 -0.108026735 -0.212905 -0.17265517 0.14739053 -0.20168252 0.12501578

conv4.bias f4 [64]
00000000: 2118 bdbd be63 a4bd ea45 37bc 1f08 d1bd
00000010: bc6d c03d 65be 0b3e 59a9 ff3b d78f 6cbd
00000020: 0410 0ebe fd21 643e 9cc1 c6bd 01b7 05bd
00000030: 2921 de3d 9c3a 993e d3a9 f53d 836f 2f3e
00000040: a235 003c a234 0ebe 4d66 213e f435 013d
00000050: 277f bb3e 176a 973d a5dc a1be dfa3 46bd
00000060: be44 bbbd 09ac 2c3e 60aa 6ebd 1ec0 a13e
00000070: 114d b33d 51c8 0a3e b5e1 19be c96b b03d
00000080: 38e1 823e bb03 0d3e c391 f2bd c1c4 0cbe
00000090: 6d8b 8cbd 8dab 6ebe edf8 9abe 2175 77be
000000a0: 84c7 543d cf9d 9bbe c81f 193c e7fb 943d
000000b0: a91b d83d 2ef6 8ebd b6e0 d13d 31e3 14be
000000c0: 2224 1d3e 4b76 3abe 6a98 c2bd f5b6 d2bb
000000d0: 657b 293e abd4 893e 39e3 893e 0823 d4bd
000000e0: 0233 d5bc 05f1 cb3c be05 83bd 060e dabd
000000f0: a8c9 073e fb33 3c3e e25c d8bd c95d 93bd
-0.09233118 -0.08026837 -0.011186102 -0.10206627 0.0939593 0.13646848 0.0078021702 -0.057754364
-0.13873297 0.2227859 -0.09704897 -0.03264523 0.108461685 0.29927528 0.11995282 0.17132382
0.007825287 -0.13887265 0.15761681 0.031545594 0.36620447 0.07393282 -0.3161365 -0.048496123
-0.09143971 0.16862501 -0.05826795 0.31591886 0.087549336 0.13552977 -0.15027507 0.086143084
0.25562453 0.13770954 -0.11844208 -0.1374693 -0.06862531 -0.23307629 -0.3026804 -0.24165775
0.051948085 -0.30393836 0.009345956 0.07274609 0.10552151 -0.06980549 0.10247938 -0.14539792
0.15345815 -0.18209188 -0.09501727 -0.0064305016 0.16550978 0.26920065 0.2693117 -0.10358244
-0.026025299 0.0248952 -0.063975796 -0.10647206 0.1326052 0.18379204 -0.10564591 -0.071956225

conv5.weight f4 [128, 64, 2, 2]
00000000: faee 57bd c7df 45be 2bac 01be 7642 63be
00000010: eac8 aa3c e0d8 51bd 2888 d93c 8330 adbd
00000020: f92d 313e 5a79 6e3c 5e5d 533e 4928 5fbe
00000030: 0b58 49be 2422 f23c 924f 70be 109e 0fbe
00000040: 59d5 e1be 96c2 0cbf 305f 1dbe 5580 a5be
00000050: d0ef b0be e514 f93c 78c8 01be 7914 28be
00000060: 44af 22be fa71 b23c 3a47 8d3d 3fb0 3f3d
00000070: 0fb3 85be dac8 75be f69d 4abe 8270 c8bc
00000080: 47f9 6cbd cf59 ddbe 5da9 43bd cb59 a3bd
00000090: 5fd5 1e3e cbb2 f1bc 148f 923e 89aa 8ebd
000000a0: 9060 32be 5acb a3be 158e 093d e450 fd3d
000000b0: 0fb3 ddbe 85f7 3ebd e8bc aa3c a4fc 8e3e
000000c0: c066 69be 9782 47bf ad82 72bd f6e9 16be
000000d0: d05f 84be 3931 1cbd d6fc 5ebe 2eb7 2b3d
000000e0: 1262 bdbc 4bbb 42be 87e7 c3be 1a62 5c3e
000000f0: 84c7 96be e6dd d63d d9eb 713d ef53 c3bb
00000100: a754 883e 9a5e 543e 1488 edbe 86dc a1be
00000110: e48e 49bb 1618 583c 8d10 6f3c e66f 6b3d
00000120: 1096 233d 66c2 8c3e 360a acbe b6ea 23be
00000130: 7bc5 fc3d a385 0dbe 701f 863d 6737 523e
00000140: 9453 fc3d 85b2 9bbc 7b99 fc3d aba1 2c3d
00000150: 24c9 0ebd 3d87 b9bd 43a0 1dbd 0710 033e
00000160: c580 abbe 2b07 363d 39af 13bc 8d1c a93e
00000170: 56b3 c8be e67f 94be 6853 be3d e38b 8bba
00000180: 597e 95bd 2101 03bd 6d9f 9bbd 4fe7 a9bd
00000190: 3f69 23be 8b8a 65be ce0d a53e 2240 213e
000001a0: 9e5b 44bc e35a 6bbd fae1 583e 81fb fdbe
000001b0: 036c f93e 76e3 24bd f753 823e 1cd4 1b3e
000001c0: 6fd3 273e cac9 963c cb7d 253f 0a1d 47bd
000001d0: d885 413e 9b0b 8c3e 122a b23e 7c75 993e
000001e0: 8c93 0bbd 6a19 c53c d015 7abc 64a6 41be
000001f0: 4bf7 5b3e 66a3 3bbe 8aad 553e 92cb b4be
00000200: 4acf d9bd e6ff 98bd d642 a1bd f651 7cbd
00000210: 23d5 81be 3885 f9b9 3741 67bd 5f58 e0bc
00000220: 2ea0 cd3e 1371 123f 7326 413e ac00 e13e
00000230: 1512 4bbe 682b 8f3e ec1b 9fbe e368 663b
00000240: 5c58 253d d3f4 693d 77ca 263d 54fd 8bbe
00000250: 7b98 bcbe 1553 93be 4695 35be 928a 9b3e
00000260: 013d 15bd 9053 bd3e 8a61 dbbd 234e 75be
00000270: 4351 48be e69b 46be 098f fcbe 2164 83be
00000280: 9baf a8bd 808e 9fbe adc0 7c3e c0f8 58bd
00000290: 5179 bfbe d321 81be c968 5bbe acd4 97be
000002a0: 3581 54bd 99e7 c03d 1e70 4abe dd31 d1be
000002b0: 1740 933d 5b6f 023e 05e9 fb3d aa8a c43e
000002c0: 4ca4 4dbd 3f46 64be 16f8 09bc beed 5bbe
000002d0: a11d 5b3d 5f88 073e ee1c 63be e5ab e1bd
000002e0: 1523 dbbe 535e cabc b259 e2be 72fa a7be
000002f0: 4ac8 263e ead7 d4bd 1755 9ebe bebb b9be
00000300: 2378 0dbe 18f0 20bd f858 20be 28b8 64bd
00000310: 127d 133e da7c 35bf fe2a 93be 8bd1 17bf
00000320: eeec 54be 35af 833d 7937 82bd 70ba 82be
00000330: b27b 443e ffa6 753d 0846 633e 0e36 8dbe
00000340: 9e1d 973d 67ce 6bbe ea7c 5cbe 06cf 8bbe
00000350: 2cfd 8d3e 6ae8 d73e 32c1 5c3d 185c 65be
00000360: b95e 573e 4781 8bbe 2e60 28be 9a5d adbe
00000370: e6e0 a9be e5a5 efbe b948 343e b28c 77be
00000380: 546b 4b3d 29af 29be bc4f 163e 8f2d 553d
00000390: 2955 983d 8b78 053e cd58 d6be 198d 3ebe
000003a0: 273f b43c 8747 983e ab21 6cbe b787 993e
000003b0: 2d8f 61be d72d debd 93e7 bdbd fadf b13d
000003c0: 564c c5bd 0f30 da3d f7b0 e53d d43c 6a3f
000003d0: 09b1 abbe 1a99 4fbe 2329 a2bd 63d1 d9be
000003e0: 55e2 f93d 1e91 a73d 0165 cebc 31f0 15be
000003f0: 39db 64bd 7b61 67bc 8afa 703a 0efd 713c
-0.05271814 -0.19323646 -0.12663333 -0.22193322 0.020847756 -0.05123222 0.026554182 -0.084565185
0.17302693 0.0145553 0.20641086 -0.21792711 -0.19662492 0.029557295 -0.23467854 -0.1402514
-0.44108084 -0.54984415 -0.15368342 -0.32324472 -0.34557962 0.030405471 -0.12674129 -0.1641406
-0.15887171 0.021782864 0.06898351 0.04679894 -0.26113173 -0.240024 -0.1978682 -0.02446771
-0.057854917 -0.4323258 -0.04776894 -0.07976111 0.15511082 -0.0295042 0.28624785 -0.06966121
-0.17419648 -0.31991082 0.033582766 0.12368944 -0.43300673 -0.04662277 0.02084203 0.27927125
-0.22793102 -0.7793364 -0.059206653 -0.14737687 -0.2585435 -0.03813288 -0.21776137 0.04192274
-0.023118053 -0.19016759 -0.3826258 0.21521798 -0.29449093 0.104915425 0.059062812 -0.0059609334
0.26627085 0.20739213 -0.46392882 -0.3161356 -0.0030755335 0.013189336 0.014591348 0.05747976
0.039938033 0.27492064 -0.3360154 -0.16007504 0.12342354 -0.1382051 0.06548965 0.20528947
0.12320629 -0.019006023 0.123339616 0.042146366 -0.03485979 -0.09058998 -0.038482916 0.12799083
-0.3349668 0.04444043 -0.009013944 0.33029595 -0.39199322 -0.2900383 0.09293252 -0.0010646548
-0.072994895 -0.0319835 -0.075987674 -0.08296072 -0.15958117 -0.22416131 0.32237095 0.15747121
-0.011984734 -0.057459723 0.21179953 -0.49605945 0.4871522 -0.040255986 0.25454685 0.15217632
0.1638925 0.018406767 0.6464507 -0.04861168 0.18898714 0.27352604 0.34797722 0.29972446
-0.03407626 0.02405997 -0.01526399 -0.18911129 0.21481054 -0.1832405 0.20866981 -0.35311562
-0.106352404 -0.07470684 -0.07874076 -0.0616016 -0.25357923 -0.00047592237 -0.056458678 -0.027385889
0.4016127 0.5720379 0.18862323 0.43945825 -0.19831116 0.27962804 -0.3107599 0.0035157732
0.04036747 0.05711825 0.04072043 -0.27341712 -0.36835083 -0.28774324 -0.17732725 0.30379158
-0.03643513 0.36977816 -0.107119635 -0.23955588 -0.19562249 -0.19395408 -0.49327877 -0.2566233
-0.08236619 -0.31163406 0.24682875 -0.0529716 -0.37397245 -0.25221118 -0.21426691 -0.29654443
-0.051881034 0.09419174 -0.19769332 -0.40858355 0.071899585 0.12737791 0.12300304 0.38387042
-0.050205514 -0.22292422 -0.008420965 -0.2147741 0.053495053 0.13235615 -0.22179005 -0.110191144
-0.42800203 -0.02470318 -0.44209057 -0.32808262 0.16287342 -0.10392745 -0.30924293 -0.36276048
-0.1381536 -0.03929147 -0.15658939 -0.055839688 0.1440318 -0.70893633 -0.28743738 -0.5930411
-0.20793507 0.064299025 -0.06358237 -0.25532866 0.19187811 0.059973713 0.22194684 -0.27580303
0.07378696 -0.23027955 -0.21532026 -0.27306384 0.27732217 0.42169505 0.053895183 -0.22398412
0.21032228 -0.27247068 -0.1644294 -0.33860475 -0.33179396 -0.46806255 0.17605866 -0.24174765
0.049662903 -0.16570725 0.14678854 0.0520454 0.07438118 0.13034265 -0.41864625 -0.18608512
0.02200277 0.2974207 -0.23059718 0.29986355 -0.22027273 -0.10848587 -0.09272685 0.08685298
-0.096337005 0.10653698 0.11215394 0.91499066 -0.33533505 -0.20273247 -0.079180025 -0.42542562
0.122013725 0.08181976 -0.025194647 -0.14642407 -0.05587313 -0.014122362 0.00091926067 0.014769806

conv5.bias f4 [128]
00000000: fb98 6b3e d38b e13c 7bf8 553e e403 3e3e
00000010: 3bac cbbd 39fc e03d 605f 513e c752 ab3d
00000020: ad05 4d3e a4c6 9dbe 4ecf 033e 0312 253d
00000030: da5c 83be cb92 55be 5250 fcbd d028 833d
00000040: 31e8 85be 45fd 253e 2fc6 f43d 7b08 ddbd
00000050: acbc ee3d a469 a13c 547c 19bc 6f2c 963c
00000060: 7843 d33e 3dfc 3a3e ff22 e93d a62e eebe
00000070: d0fc fcbd 8218 26be 8fe4 80bc 05f9 f2bb
00000080: e14f 06bc f433 6dbe 4606 2b3e a91c 513e
00000090: 81e6 3e3d 1f4e d73d a607 29bd cb9f 63bc
000000a0: 06e2 4c3d 1a15 1d3d 8ccc 873d a95e b63d
000000b0: 6adc 3d3b b1a4 233e ce46 45bd ff7a 5d3e
000000c0: 24ff 033e a60b f73d 0393 04be 1f4c 89be
000000d0: 07d7 cebe 36b3 88be 3245 8c3d 1d61 443e
000000e0: 95cd 4a3d aa0c 453e c9e9 27be 448d 593d
000000f0: dd07 40bd c2b0 653e 68de 3f3e dace 463e
00000100: 39cd 16be 6921 7e3e 4e4e b9bd 0c25 713e
00000110: 6c96 93bd 3bc3 5e3c 65e1 f9bb a8c5 07bd
00000120: 160c 893d 03bc 2bbe f4de e3bd 6c42 4cbe
00000130: 420a 603c 7102 8dbe 4d07 42be 4506 313d
00000140: 47ac 0c3e 841d 3dbd 8e6f 4f3c 34ba a3bd
00000150: dc68 35bc c01d 6c3b 3c04 9bbd 6e1f c83d
00000160: fb10 b2be 884e 8c3e 90ad 083e 009f b8bb
00000170: f441 0bbe 5d5c 5abd f4d4 02be 054d a73c
00000180: 57c2 873e 2df0 863d 7d81 0dbe 620d 9f3e
00000190: 45f2 06be f6e0 14be 0cbb 023e 0297 01bd
000001a0: bda2 efbd b01e a9bd 975b 4f3e d1f4 34be
000001b0: 28ea 113e 35b6 3a3e 18e0 813e 1b57 bcbd
000001c0: 25a8 5b3e 7d4f 043d 3bba 643d f445 c8bc
000001d0: f766 3ebe d744 563d 7819 ebbe 2b10 3b3e
000001e0: f4e7 723e 30a7 b33c 7398 1f3c e73c b93c
000001f0: ecbd 053e 969f b5bd 747e 2fbe c9f1 45be
0.23007576 0.027532494 0.20895569 0.18556172 -0.0994496 0.10985608 0.20446539 0.08365398
0.20021696 -0.30815613 0.12872049 0.04030038 -0.25656778 -0.20856778 -0.123200074 0.06404269
-0.2615371 0.16209896 0.11951863 -0.10792633 0.1165708 0.019703694 -0.009368021 0.018331734
0.41262412 0.18260284 0.11383628 -0.46519965 -0.12352908 -0.16220286 -0.015733985 -0.0074149393
-0.008197756 -0.2316435 0.16701612 0.20421089 0.046606544 0.10512947 -0.04126706 -0.013893078
0.05002024 0.038350202 0.06630811 0.08904774 0.0028970488 0.15980794 -0.048163228 0.2162895
0.12890297 0.12062769 -0.12946706 -0.26815888 -0.40398428 -0.26699227 0.068491355 0.19177671
0.049512465 0.19243112 -0.16397776 0.053113237 -0.0468825 0.22430709 0.18737185 0.19414845
-0.14726724 0.24817432 -0.090481386 0.23549289 -0.07206425 0.013596351 -0.007625746 -0.033147484
0.06691758 -0.1677094 -0.11126509 -0.19947213 0.013674321 -0.27540925 -0.18948098 0.04321887
0.13737594 -0.046170726 0.012660874 -0.079945 -0.011072364 0.0036028475 -0.07569167 0.0977162
-0.3477858 0.27403665 0.13347459 -0.0056341887 -0.13599378 -0.05331074 -0.12776548 0.020422468
0.26515457 0.06588779 -0.13818927 0.31064898 -0.13178356 -0.14538941 0.12766665 -0.031638153
-0.11700962 -0.08257806 0.20249783 -0.17671515 0.1424948 0.18233569 0.25366282 -0.091963015
0.21450861 0.03230237 0.055841666 -0.024447419 -0.18593965 0.052311745 -0.4591787 0.18267886
0.23721296 0.021930307 0.009740937 0.022612048 0.1306073 -0.08868329 -0.17138082 -0.19330515

conv6.weight f4 [64, 128, 2, 2]
00000000: d68f 37bd 4028 04bd e6f1 19bf 36b7 fabe
00000010: 41ce 5abe 88b3 90be ca96 b3be f7b6 96be
00000020: 39d9 ebbd 50b4 cdbe b002 71be 11ef 3b3e
00000030: 098c 5b3e a775 31bd 7a74 51bc 85dc ecbd
00000040: ff1e e7bd aa52 903d c2ad 0b3e a721 783e
00000050: deee 863d 35f2 0a3e 7856 c13e d4fe 9c3e
00000060: 7208 8abd bf3f 153e 2734 9b3d fba2 d1be
00000070: 6770 653e 1202 8fbc 3053 39be af73 a03d
00000080: 247d 3dbe 4efc edbd c61e 82bd 7d39 82bd
00000090: 6c5b babe 554b 71be 3e02 f8bb 526a 1abe
000000a0: e980 883d 019a aebc ae55 0b3e 7a51 5b3d
000000b0: 164d b3ba 97d7 3ebe ea78 90be 4ac5 c0be
000000c0: d1c4 57be d739 ebbe 5715 2a3e 623e 20bc
000000d0: 3909 80be 550a a03d 2618 b93d 70b2 26be
000000e0: ff33 88be ad76 c1be 767e 3c3e c3b2 bcbd
000000f0: 14ce e1bc d159 8f3d aa95 56bc 270e debd
00000100: e164 acbc 7a02 863d df95 123c 5e5a db3d
00000110: 7442 2b3d 11c7 443d 7699 e73e de05 d63e
00000120: 6ab3 1a3d 58f2 8a3d 08c9 473e 4dd7 5e3e
00000130: 57fe a7bc c7a5 913c d3e9 cdbc bab8 d03c
00000140: 2db8 d43d 0a6b 8a3c dfde 543d e359 babe
00000150: 5d8c d2bd 9b0a 593e 5c2d 5c3e c8bd 823e
00000160: 723f bf3d be90 d1be 08b7 61be cf29 1fbf
00000170: 83f8 75be ce46 48be 576a 25bf d80d 46bf
00000180: 5c76 8cbd b8f7 e1be 534e 24bf d690 cdbe
00000190: 13d7 02bc ce9a e1be 3a52 bbbe ae16 5bbf
000001a0: 5655 53be a595 b4be 4dbf 783d 2c2a ddbd
000001b0: e409 053d 39b6 13be a601 893d 623f 853e
000001c0: fff5 f9bd 2c4d 91bd 6e9f 9c3d 1e80 8cbd
000001d0: 4623 c0bc 98c7 bbbc fe33 81bd d1d0 f2bc
000001e0: dd00 e5bd 57f8 7b3e 69a7 573d 6dfa 85be
000001f0: 5cc7 42be fc8e 3fbd b47b d3bc f83b cabc
00000200: 7b88 823e 5b28 0d3e c7f0 cbbd 6f57 6f3e
00000210: 1bcd c93c cf3f 4cbd 196d a0bd 996b 8abd
00000220: cdd7 983e 4cac 4a3d d29b 58be 3f47 dbbb
00000230: 1e17 03be b48c 01be 53c2 983c 217e 5b3d
00000240: cac0 843e a026 9f3e e365 973d 5e9f cd3e
00000250: d9c5 003e 8083 a93e 6cde 533e bf86 b03d
00000260: ac3c 323d 5560 a2be 83ee c43d 3491 04bf
00000270: 5356 34be 3b13 35be 2fe9 2bbd 8a3d 883e
00000280: 987b f43d 04cb bfbe 9640 1b3d f04f 403c
00000290: 254f 0c3e e740 d1bd be10 623d c1c8 df3d
000002a0: 3235 423e fcc9 53be 1763 49be adac 01bf
000002b0: 5049 97be 3950 5c3d 3ef8 a93e dee2 4b3e
000002c0: 8906 193e ada7 143d e07c 6e3e 263a 583e
000002d0: 4ac1 abbe 12a6 b7be 9d46 89be 3b46 4a3e
000002e0: 4b11 533e a427 aabd 2357 923e b905 173e
000002f0: bcca 43be da3c eabb 4f38 1dbe be88 0ebe
00000300: 675d 2dbe c58d 1cbf 2295 b1bd b7bb 93be
00000310: 8f28 24be f7a8 5f3e a90c 953e 80b0 b2be
00000320: 5e56 73be c407 d7bd f17d 583d 52ab 27be
00000330: 3716 873e ac2d 07bc a63a 003e 00b1 823e
00000340: 8ba1 a73e 4be7 443d 1323 f93d d2a3 a6bd
00000350: 979d 7a3e 0524 6f3e 6a14 383d b04d a43d
00000360: 1ebc 05bd 0d7f 583e 6034 c13e c666 323e
00000370: 9cd3 2bbe 77a4 73be ce47 7fbd 5c38 a8bd
00000380: f99a 56bd 90b0 53bd 315d aa3e 26f2 d53d
00000390: b5ee 9e3c af3f 903c 1ec5 873e c172 1a3c
000003a0: 9b4a 2f3b 097d 8cbc 8324 acbc 89ab 033d
000003b0: 74b3 1d3e 25ea 283e 8175 6bbe c7ea 75be
000003c0: 5bfb ae3d ef67 df3a a394 48be d628 813e
000003d0: 5415 a43e 5141 2b3e 7e3a d5bd e4f8 fb3c
000003e0: b300 41bc 3f5b 283e f918 17be b2c3 df3d
000003f0: a52c 6b3e 3dce d53d bd8f 73be c3f1 e2bd
-0.044814907 -0.032264948 -0.6013473 -0.48967904 -0.21367742 -0.2826197 -0.3507598 -0.29436466
-0.11516041 -0.4017663 -0.23536181 0.18352915 0.21440138 -0.043325093 -0.012784118 -0.11565498
-0.11285209 0.07047017 0.13640502 0.24231587 0.06588529 0.13568957 0.37761283 0.30663168
-0.06739892 0.14575098 0.07578307 -0.40944657 0.2240616 -0.017457042 -0.1809814 0.07834565
-0.18504769 -0.11620389 -0.06353526 -0.06358621 -0.36397874 -0.23563893 -0.0075686267 -0.1507962
0.06665213 -0.02131367 0.13606903 0.0535445 -0.001367959 -0.18636928 -0.2821725 -0.3765052
-0.21071173 -0.45942566 0.16609703 -0.009780498 -0.25007036 0.07814471 0.09037809 -0.16279006
-0.2660217 -0.37785855 0.18407616 -0.092137836 -0.027564086 0.06999553 -0.013097206 -0.10842543
-0.021044197 0.06543441 0.008946865 0.107105955 0.04181142 0.048041407 0.4523427 0.4180135
0.03776876 0.06784505 0.19510281 0.21761818 -0.02050702 0.017779244 -0.02513591 0.02547871
0.10386691 0.016896743 0.05197036 -0.36396703 -0.102806784 0.21195452 0.21501678 0.25535417
0.09338273 -0.40930742 -0.22042477 -0.6217317 -0.24020581 -0.1955826 -0.64615387 -0.77364874
-0.06858513 -0.44134307 -0.64182013 -0.40149564 -0.007985848 -0.4406342 -0.3658617 -0.8558148
-0.20638022 -0.3527042 0.060729314 -0.10799059 0.032480136 -0.14424981 0.066897675 0.2602492
-0.12205123 -0.070947975 0.07647596 -0.06860374 -0.02345432 -0.022922322 -0.06308745 -0.029640587
-0.11181805 0.24606453 0.05264989 -0.26167622 -0.19021362 -0.04676722 -0.025815822 -0.024686798
0.2549475 0.13784926 -0.09958034 0.23373197 0.024633935 -0.04986554 -0.07833309 -0.06758804
0.29852143 0.04948072 -0.2115319 -0.006691843 -0.12801787 -0.1265133 0.018647349 0.053587083
0.25928336 0.31084156 0.0739248 0.4016065 0.12575473 0.3310814 0.20690316 0.08619451
0.043514892 -0.3171412 0.09615805 -0.5178406 -0.17611055 -0.17683117 -0.041970428 0.2660945
0.11937636 -0.37459576 0.03790339 0.011737809 0.13702066 -0.10217457 0.055191748 0.10926963
0.18965605 -0.2068252 -0.19666706 -0.5065411 -0.2954812 0.053787444 0.33197206 0.19910762
0.14943899 0.03629272 0.23289824 0.21115932 -0.33545905 -0.3586889 -0.26811686 0.19753353
0.20612065 -0.08308342 0.28582105 0.14748277 -0.19120306 -0.0071483674 -0.15353511 -0.1391935
-0.16930161 -0.61153823 -0.08671023 -0.28854153 -0.16031097 0.21841799 0.2911122 -0.34900284
-0.23763415 -0.10499528 0.052854482 -0.16373947 0.26384136 -0.008250635 0.12522373 0.25525665
0.32740435 0.04807214 0.12164893 -0.08136715 0.24474178 0.23353584 0.044941343 0.0802263
-0.032650106 0.21142216 0.3773527 0.17422017 -0.16779941 -0.23793207 -0.062324338 -0.08213875
-0.052393887 -0.051682055 0.33274224 0.10446577 0.019400934 0.017608492 0.26517576 0.0094267735
0.002674735 -0.017149465 -0.021013504 0.03214601 0.15400487 0.16495569 -0.22994043 -0.24015342
0.08544036 0.0017044524 -0.1958795 0.25226468 0.32047522 0.16724135 -0.10411547 0.030758329
-0.011779952 0.16441058 -0.1475562 0.10925998 0.2296625 0.104397275 -0.237853 -0.11081269

conv6.bias f4 [64]
00000000: 0aa5 0a3e 19ab 86bd 4389 e5bd c4f2 4a3e
00000010: e41a 05be 9c34 963e 6ccd dd3d a544 953d
00000020: 7185 073e c66d 973d 40ba 043e 0d83 973e
00000030: 2dde f83d aff0 98be 2ce0 b23d 7e92 90be
00000040: 923a ce3e 492f d9bd 913e 49be 5ce8 7b3d
00000050: e7bd 12be d912 153d 9fd1 87bd d00a e6bd
00000060: f86c 05be 1719 af3d 57e1 9abe d9e6 a03d
00000070: 9592 47be 8646 c2bd 524b 9ebe b252 863d
00000080: aa3c 13be 74f3 efbe b3ec abbe e1e1 073e
00000090: ca40 0fbe 8bf2 13be 9765 e5bd 3d89 14bd
000000a0: 0d82 e8bd ea16 60bd 4ada 7abe 8e3c 1ebe
000000b0: 5eb9 0bbe f3d5 143e 059e a13c 0aae 7a3e
000000c0: d94c 38be 11c0 893c ea7e 383e aaea e53d
000000d0: 35a8 6cbe c519 c6be 1de6 89be 41a7 2f3e
000000e0: 6057 ab3d c653 553e 2c8c a83e a66f adbd
000000f0: bda1 c3be 0add 26be 79ec a53e 8ff2 b8bd
0.1353952 -0.06575603 -0.11207821 0.1981917 -0.12998539 0.29337013 0.10830197 0.072884835
0.13234498 0.073939845 0.12961674 0.2959217 0.12151752 -0.29871127 0.08734164 -0.28236765
0.4027906 -0.10604722 -0.19652773 0.061500892 -0.14330254 0.036394928 -0.06631779 -0.11232531
-0.1302985 0.085497074 -0.30250046 0.07856531 -0.1948951 -0.094861075 -0.3091684 0.06558742
-0.1437861 -0.46865427 -0.33579025 0.1326976 -0.13989559 -0.14447992 -0.11201017 -0.036263693
-0.1135293 -0.054709353 -0.24497333 -0.15452787 -0.1364493 0.1453474 0.01972867 0.24480453
-0.17998065 0.016815217 0.18017164 0.11226399 -0.23111041 -0.38691536 -0.26933375 0.17153646
0.08366275 0.20832738 0.32919443 -0.08468561 -0.38209334 -0.16295257 0.32406977 -0.090306394
