model/model_20.pth (torch_old, 571877 bytes, 24 tensors)

conv1.weight f4 [32, 3, 2, 2]
-0.10943535 -0.1126151 -0.15275025 0.39132443 -0.5939965 0.15153116 -0.13718094 0.43148145
-0.29656816 -0.074711025 0.0034551502 0.27490222 0.20197213 -0.12964255 0.12207577 0.014958847
0.06988144 -0.06366453 0.3253586 0.03990351 -0.13661401 -0.2453734 -0.04101514 -0.23720492
-0.11970386 0.043215673 0.12550482 0.22979033 -0.33486834 0.20155747 -0.04342831 0.31002837
0.1361955 -0.19928777 -0.460362 -0.11749923 0.386875 -0.048310652 0.06767652 -0.27614334
0.38784537 -0.23074752 0.1663501 -0.19406073 -0.05912213 0.017040985 -0.21438578 -0.14685614
-0.15704095 -0.10452729 -0.3721095 -0.22047028 0.19647267 -0.08353788 0.3023844 0.22141969
-0.046240613 -0.28377336 0.15363216 0.023269208 -0.19074942 0.11672868 0.24094962 0.2559894
-0.19506198 -0.13284312 -0.0050631617 -0.023307854 -0.32891458 -0.35825372 0.12078681 -0.17118235
0.034413505 -0.07592591 -0.055558734 -0.0434847 0.16649722 0.15850502 -0.20063046 0.19895004
-0.15865411 -0.21010461 -0.004647903 -0.10374402 0.23653026 0.051141303 -0.57184863 0.059671722
0.12732652 0.4880093 -0.11788494 -0.24469903 0.24294952 0.31709626 -0.3509327 -0.20611733
0.042445485 -0.28899434 0.18079308 -0.09765378 0.13445337 -0.45782596 0.41594827 0.035543658
-0.23105243 -0.40210247 0.5542489 0.10442841 0.14480804 -0.033086527 0.03647665 0.1574913
0.2187145 -0.27665272 0.01291342 0.22436911 0.14911155 0.13955726 -0.19697315 -0.1480259
-0.117036596 0.040513318 0.28337243 -0.26654133 0.1702457 -0.18662497 -0.33798268 -0.12510894
0.21010971 0.2671906 -0.22549981 0.031963453 0.37191138 0.22304711 0.12585582 0.09665031
0.14153653 -0.016410055 -0.47630462 -0.5212294 -0.007995187 0.054567423 -0.27681407 0.04583573
0.013038627 0.008895968 -0.12539893 0.056557402 0.16108678 0.33090135 -0.187267 0.3841974
-0.13563317 0.024816273 -0.42348325 -0.18249188 -0.3635563 -0.1496869 0.17846827 0.022144126
-0.2625871 0.21629468 0.09111426 0.35117134 -0.31380612 0.05569381 -0.24147104 -0.028830072
-0.53278923 -0.30820853 -0.24774766 0.13454531 -0.05100946 0.0819093 0.32020718 0.47108635
0.0670005 -0.06353841 -0.21222404 0.34545043 0.13082722 0.10087533 -0.21657825 -0.15076241
0.00970497 0.34108472 -0.16959015 -0.25760594 0.11715447 -0.14892109 0.15599966 -0.20510021
0.02162607 -0.09525206 0.34152994 -0.37026876 0.22494648 -0.047210835 0.375412 -0.469635
0.1924509 -0.3585617 0.32103384 -0.32705468 -0.023098487 0.14661959 -0.22270884 0.21584295
-0.21742441 0.25032988 -0.20294252 0.29640573 -0.60547066 0.1809448 -0.06417104 0.2877449
0.11733248 -0.18565613 -0.17755839 0.2940711 -0.3987576 0.31872576 -0.43389317 -0.19740029
0.24817829 0.012533788 0.0031773713 0.4043171 0.1897447 0.44616127 -0.26140562 -0.26868686
0.3223676 0.217437 -0.28018442 0.07866534 -0.31258166 0.3301133 -0.1843226 -0.38113603
-0.26211897 -0.051537797 0.17110386 0.054103263 -0.35366565 -0.15182896 -0.421638 -0.2932063
-0.16980648 0.290642 0.36551464 0.052547384 -0.018004518 0.19668613 -0.11766143 -0.21605201
00000000: a41f e0bd bfa2 e6bd 906a 1cbe ad5b c83e
00000010: 2810 18bf fc2a 1b3e 2979 0cbe 23eb dc3e
00000020: c8d7 97be 1802 99bd cd6f 623b fcbf 8c3e
00000030: c8d1 4e3e 04c1 04be dc02 fa3d f415 753c
00000040: 001e 8f3d 8d62 82bd 6795 a63e dd71 233d
00000050: 8be4 0bbe 2a43 7bbe 7eff 27bd d9e5 72be
00000060: 4c27 f5bd eb02 313d 5684 003e 284e 6b3e
00000070: dd73 abbe 1565 4e3e e2e1 31bd 0abc 9e3e
00000080: d576 0b3e 1812 4cbe 91b4 ebbe 70a3 f0bd
00000090: 7b14 c63e 64e1 45bd fd99 8a3d a962 8dbe
000000a0: ab93 c63e 1449 6cbe ae57 2a3e dbb7 46be
000000b0: 0c2a 72bd 8999 8b3c f287 5bbe 7561 16be
000000c0: 58cf 20be 6712 d6bd 2385 bebe f6c2 61be
000000d0: 2230 493e e815 abbd 21d2 9a3e d8bb 623e
000000e0: cc66 3dbd be4a 91be c051 1d3e 119f be3c
000000f0: d153 43be 720f ef3d 7fbb 763e 0b11 833e
00000100: 54be 47be 0708 08be e1e8 a5bb 1df0 bebc
00000110: 7e67 a8be 086d b7be 135f f73d 6d4a 2fbe
00000120: 2df5 0c3d 0b7f 9bbd 8e91 63bd 031d 32bd
00000130: 3f7e 2a3e 244f 223e 1272 4dbe 8fb9 4b3e
00000140: 3976 22be aa25 57be 704d 98bb bf77 d4bd
00000150: fd34 723e 8b79 513d ac64 12bf 566a 743d
00000160: e261 023e 5bdc f93e a96d f1bd 6292 7abe
00000170: c2c7 783e 715a a23e 73ad b3be 6c10 53be
00000180: 51db 2d3d 11f7 93be d221 393e b4fe c7bd
00000190: 25ae 093e 2a68 eabe 2cf7 d43e 3a96 113d
000001a0: 0299 6cbe 60e0 cdbe 42e3 0d3f 90de d53d
000001b0: 8f48 143e bd85 07bd 8a68 153d 6645 213e
000001c0: b2f6 5f3e 6da5 8dbe cf92 533c 04c1 653e
000001d0: b3b0 183e 19e8 0e3e 54b3 49be 1a94 17be
000001e0: e2b0 efbd 4bf1 253d 3116 913e 1b78 88be
000001f0: e454 2e3e 9e1a 3fbe 110c adbe 8f1c 00be
00000200: 0027 573e 35cd 883e 6ce9 66be 1cec 023d
00000210: 2b6b be3e 7666 643e 59e0 003e 99f0 c53d
00000220: f4ee 103e 616e 86bc 33de f3be 4a6f 05bf
00000230: 3ffe 02bc 1782 5f3d 93ba 8dbe 3fbe 3b3d
00000240: f79f 553c 65c0 113c 9468 00be bca8 673d
00000250: eff3 243e e76b a93e ecc2 3fbe 86b5 c43e
00000260: 6ce3 0abe 7f4b cb3c ccd2 d8be 27df 3abe
00000270: 0d24 babe 8647 19be 63c0 363e 9967 b53c
00000280: d171 86be 5a7c 5d3e 1d9a ba3d bbcc b33e
00000290: 32ab a0be 311f 643d 2f44 77be 0b2d ecbc
000002a0: e064 08bf 82cd 9dbe 90b1 7dbe 3fc6 093e
000002b0: 4cef 50bd 10c0 a73d 32f2 a33e 3b32 f13e
000002c0: 8f37 893d 6d20 82bd 4251 59be e1de b03e
000002d0: 92f7 053e ba97 ce3d b0c6 5dbe 7661 1abe
000002e0: 9801 1f3c a8a2 ae3e 0aa9 2dbe ede4 83be
000002f0: afee ef3d c57e 18be 60be 1f3e ca05 52be
00000300: 2829 b13c 8313 c3bd 03dd ae3e de93 bdbe
00000310: 5f58 663e 2660 41bd 0036 c03e 0074 f0be
00000320: d911 453e 6695 b7be 8c5e a43e b673 a7be
00000330: 0a39 bdbc 7223 163e c90d 64be ef05 5d3e
00000340: 81a4 5ebe 3d2b 803e 2ad0 4fbe 7ec2 973e
00000350: 2000 1bbf 9849 393e 1b6c 83bd 4d53 933e
00000360: 034c f03d a41c 3ebe ded1 35be 7d90 963e
00000370: f529 ccbe 0630 a33e 3f27 debe 4d23 4abe
00000380: 7322 7e3e 845a 4d3c 723b 503b a702 cf3e
00000390: 6f4c 423e 406f e43e f5d6 85be 5391 89be
000003a0: 5e0d a53e cea7 5e3e 5574 8fbe 4b1b a13d
000003b0: b40a a0be 9c04 a93e 10bf 3cbe 4324 c3be
000003c0: 7534 86be 4c19 53bd da35 2f3e 629b 5d3d
000003d0: aa13 b5be 0d79 1bbe f0e0 d7be 231f 96be
000003e0: c0e1 2dbe 07cf 943e bc24 bb3e ed3b 573d
000003f0: 367e 93bc 1768 493e 7af8 f0bd bd3c 5dbe

conv1.bias f4 [32]
-0.379152 -0.09317323 -0.49269775 -0.16909072 -0.38797358 -0.5047981 -0.5592072 0.13054694
0.08516354 -0.3518307 -0.405525 -0.023562312 -0.09341166 -0.1967307 0.077298276 -0.39633396
-0.08314004 0.12004346 -0.1635192 -0.5286045 -0.5087767 -0.75458145 0.13504204 -0.6107097
0.051223543 -0.10352187 -0.36951688 -0.45909092 0.11454292 -0.46819583 -0.3978813 0.070419714
00000000: 3620 c2be 9bd1 bebd e142 fcbe 1e26 2dbe
00000010: 79a4 c6be 733a 01bf 3428 0fbf 19ae 053e
00000020: 396a ae3d 2723 b4be f9a0 cfbe c005 c1bc
00000030: 9d4e bfbd c673 49be 8f4e 9e3d 49ec cabe
00000040: 5345 aabd 58d9 f53d 9471 27be a052 07bf
00000050: 313f 02bf 402c 41bf 7648 0a3e 7957 1cbf
00000060: c7cf 513d 4603 d4bd 5131 bdbe f70d ebbe
00000070: 7a95 ea3d 5db7 efbe 19b7 cbbe 3638 903d

conv2.weight f4 [32, 32, 2, 2]
-0.19748071 0.120283246 -0.09540378 -0.087562524 0.020382602 0.043674957 -0.06993875 0.012425497
-0.02008653 0.032172453 -0.20690188 -0.17819002 -0.097389095 -0.07916903 -0.03336091 -0.09802005
-0.094207756 0.0265026 -0.110083975 -0.19612943 -0.044491924 0.03288595 -0.032031853 0.07633792
0.03637224 0.14457284 -0.1247962 0.029723262 -0.303927 -0.31997955 -0.05336225 -0.44485465
0.11002745 0.11028809 0.14158125 0.267924 0.10962348 -0.08433756 0.12314563 0.10300124
-0.112496376 0.07240262 0.06677882 -0.023575984 -0.029311297 -0.26217803 0.17314239 -0.16143426
0.1304685 -0.034589197 0.0735337 -0.1811615 0.061449196 0.07575615 0.006194661 -0.11248414
0.10987679 0.006365687 0.15298702 0.11852431 -0.0003081026 0.31985947 -0.07891044 -0.07966214
0.15235187 -0.024334874 -0.19610253 -0.0095008 0.042221107 -0.25114492 0.05317924 0.002695418
0.06754017 0.049577806 -0.084221914 -0.2083996 -0.124567546 -0.25997746 0.053309936 0.09321571
0.2911789 0.35715407 -0.43149245 -0.1844324 -0.27363542 -0.13472532 -0.05474189 -0.21503091
-0.12960115 -0.0017482179 -0.035267804 -0.016886398 0.49083635 0.22452675 -0.24010181 -0.28962585
-0.29037786 0.10139836 0.12823273 -0.28194156 0.13013338 0.11181854 -0.20056 -0.22545037
-0.087985806 0.23513554 0.058474433 -0.061945967 -0.04542815 0.110501155 -0.0014546036 0.043050725
0.1492405 0.16902247 0.17750366 0.30410746 0.034467023 0.26053172 -0.33256492 -0.16105048
-0.25945318 0.19717503 -0.12403958 0.085103795 0.15450893 -0.0702409 0.072106935 0.074790575
-0.227512 -0.12438299 -0.1695243 -0.27122805 -0.39243352 -0.23548649 -0.30716148 -0.34567294
-0.3676038 -0.45249602 -0.54281425 -0.30148292 -0.21002041 -0.42060152 -0.4206307 -0.43032473
-0.23041041 -0.26212108 -0.23194224 -0.30960292 0.18622091 0.212979 0.17969449 0.23875245
-0.35067278 -0.31040302 -0.28663003 -0.27335167 -0.3545016 -0.3408762 -0.5349176 -0.39933515
-0.45345017 -0.11722266 -0.4386156 -0.3486464 -0.012036264 0.020218052 -0.13657613 0.052180417
0.029086607 -0.07555574 0.025652587 0.11765141 0.105726436 0.12803774 0.11491766 0.2009385
-0.42566293 -0.5850981 -0.6656807 -0.5090632 -0.0999397 -0.16011964 -0.11847981 -0.13724567
-0.17692563 -0.31247094 -0.07929432 -0.18164735 0.22431572 0.17345199 0.25193143 0.26094705
-0.23197237 -0.025745144 -0.0640087 -0.063541986 -0.19416 -0.25562182 -0.1795496 -0.24829477
0.018651934 0.019853354 0.09565943 0.036058646 -0.1835608 -0.25138462 -0.012315411 -0.13740435
0.3356159 0.39265415 0.3292294 0.44316247 0.20390733 0.0069043827 0.28374636 0.02840944
-0.3709017 -0.37725618 -0.563882 -0.31044245 -0.2375858 -0.28268173 -0.28165933 -0.27037904
-0.48002765 -0.4255836 -0.6128404 -0.44634488 0.09603698 -0.026554927 -0.048863523 0.0015112235
-0.22242345 -0.17606641 -0.17646238 -0.026006915 -0.048276212 0.0043408037 0.006393392 -0.011332617
-0.17493667 0.015168292 -0.07367136 -0.05524463 -0.0353366 0.015754577 -0.18547472 -0.024402939
-0.07342163 -0.037835386 0.0409613 0.030516177 -0.47189793 -0.3131399 -0.3534044 -0.3928342
00000000: 6238 4abe 1057 f63d 0f63 c3bd fb53 b3bd
00000010: 6af9 a63c 83e4 323d 0c3c 8fbd 5094 4b3c
00000020: 828c a4bc 43c7 033d 16de 53be 7277 36be
00000030: ef73 c7bd 5f23 a2bd 73a5 08bd bcbe c8bd
00000040: ffef c0bd fb1b d93c b573 e1bd 27d6 48be
00000050: 2a3d 36bd 6bb3 063d d533 03bd 0e57 9c3d
00000060: 0ffb 143d e70a 143e 2695 ffbd 337e f33c
00000070: 529c 9bbe 5cd4 a3be 6092 5abd fdc3 e3be
00000080: 1256 e13d b9de e13d adfa 103e 562d 893e
00000090: 4682 e03d 2cb9 acbd c733 fc3d 50f2 d23d
000000a0: 8064 e6bd d347 943d 55c3 883d 6c22 c1bc
000000b0: 3f1e f0bc 333c 86be 3d4c 313e 064f 25be
000000c0: 8999 053e 67ad 0dbd d698 963d 6682 39be
000000d0: 27b2 7b3d 0a26 9b3d 95fc ca3b 165e e6bd
000000e0: 1507 e13d 4197 d03b a1a8 1c3e e0bc f23d
000000f0: d588 a1b9 9fc4 a33e cc9b a1bd e725 a3bd
00000100: 2102 1c3e ee59 c7bc 1acf 48be 3ea9 1bbc
00000110: 0af0 2c3d 1196 80be 7ad2 593d 9ca5 303b
00000120: 8052 8a3d 1912 4b3d 8a7c acbd b466 55be
00000130: 451d ffbd c41b 85be 855b 5a3d e1e7 be3d
00000140: 6715 953e e6dc b63e 94ec dcbe d9db 3cbe
00000150: f119 8cbe 6ff5 09be 0839 60bd 1031 5cbe
00000160: 2ab6 04be 7524 e5ba f974 10bd 5855 8abc
00000170: e74e fb3e 57ea 653e 40dd 75be d749 94be
00000180: 68ac 94be f2a9 cf3d 714f 033e a55a 90be
00000190: af41 053e 1e01 e53d 9a5f 4dbe 76dc 66be
000001a0: e731 b4bd 5fc7 703e e382 6f3d 0ebb 7dbd
000001b0: de12 3abd 6e4e e23d 66a8 beba f555 303d
000001c0: 80d2 183e 3a14 2d3e 85c3 353e f9b3 9b3e
000001d0: 4b2d 0d3d 6a64 853e f345 aabe 6bea 24be
000001e0: 0cd7 84be 40e8 493e 7708 febd e64a ae3d
000001f0: 9737 1e3e 76da 8fbd cdac 933d cd2b 993d
00000200: e8f8 68be 82bc febd c797 2dbe 67de 8abe
00000210: 0ced c8be 5f23 71be 4544 9dbe 0bfc b0be
00000220: 9136 bcbe 8fad e7be e0f5 0abf f85b 9abe
00000230: 970f 57be 1559 d7be e85c d7be 8653 dcbe
00000240: b5f0 6bbe bc34 86be 4482 6dbe 4684 9ebe
00000250: b2b0 3e3e 2b17 5a3e d501 383e 867b 743e
00000260: 628b b3be 25ed 9ebe 2cc1 92be c0f4 8bbe
00000270: 3c81 b5be 5387 aebe 5cf0 08bf a875 ccbe
00000280: 9f2a e8be 6f12 f0bd 3992 e0be c881 b2be
00000290: c033 45bc 54a0 a53c 9dda 0bbe 22bb 553d
000002a0: 0947 ee3c f8bc 9abd 6025 d23c 39f3 f03d
000002b0: 1a87 d83d 531c 033e f359 eb3d d2c2 4d3e
000002c0: 7ef0 d9be fdc8 15bf 0d6a 2abf f751 02bf
000002d0: 2fad ccbd 67f6 23be 8ba5 f2bd 218a 0cbe
000002e0: fe2b 35be 31fc 9fbe 0f65 a2bd c301 3abe
000002f0: 05b3 653e 669d 313e 28fd 803e da9a 853e
00000300: 2a8a 6dbe 7be7 d2bc fe16 83bd 4d22 82bd
00000310: e1d1 46be dde0 82be dadb 37be fc40 7ebe
00000320: f1cb 983c 80a3 a23c 17e9 c33d 3bb2 133d
00000330: 5df7 3bbe 7cb5 80be 94c6 49bc bab3 0cbe
00000340: d9d5 ab3e f709 c93e c290 a83e 31e6 e23e
00000350: 15cd 503e 293e e23b 3447 913e eaba e83c
00000360: d4e6 bdbe b927 c1be 925a 10bf 50f2 9ebe
00000370: b149 73be a9bb 90be a735 90be 1f6f 8abe
00000380: 2fc6 f5be 18e6 d9be 1ce3 1cbf 5187 e4be
00000390: 09af c43d b889 d9bc 1e25 48bd 3f14 c63a
000003a0: f9c2 63be c14a 34be 8eb2 34be 740c d5bc
000003b0: 47bd 45bd 4d3d 8e3b a97f d13b 71ac 39bc
000003c0: 9922 33be 6e84 783c 03e1 96bd 3148 62bd
000003d0: 1cbd 10bd be0f 813c 16ed 3dbe ace8 c7bc
000003e0: 145e 96bd 47f9 1abd 09c7 273d 10fd f93c
000003f0: 9b9c f1be df53 a0be 6cf1 b4be 9021 c9be

conv2.bias f4 [32]
0.046369568 -0.07519588 -0.10620877 -0.15136816 0.11898191 -0.09038321 -0.14534537 0.15068583
-0.061271142 0.14832614 -0.20295712 0.189218 0.102582246 -0.11776689 -0.45374483 -0.1149933
0.010507801 0.0034022264 0.051645152 0.11781604 0.050207663 -0.21041523 0.046514455 0.13376461
-0.0664938 0.19280028 0.03399352 -0.12504102 0.0061464217 0.2040765 0.27396834 -0.15473646
00000000: 04ee 3d3d 4c00 9abd fc83 d9bd 4100 1bbe
00000010: caac f33d d51a b9bd 6bd5 14be 634d 1a3e
00000020: 73f7 7abd cfe2 173e fed3 4fbe 5dc2 413e
00000030: a416 d23d c42f f1bd 3e51 e8be 9b81 ebbd
00000040: e928 2c3c e3f7 5e3b de89 533d 8949 f13d
00000050: 8da6 4d3d 1777 57be f185 3e3d 97f9 083e
00000060: e72d 88bd 706d 453e ca3c 0b3d c10a 00be
00000070: ec67 c93b 6ef9 503e 9445 8c3e 3c73 1ebe

conv3.weight f4 [64, 32, 2, 2]
-0.10257048 0.09065105 0.010385531 0.29494855 0.039545693 -0.2200243 0.23535973 -0.2050282
0.059657857 0.0732221 0.090541326 0.030058619 0.032770418 -0.05884943 0.01451909 -0.03322069
-0.38358617 -0.3203697 -0.23210965 -0.27413264 -0.071721755 0.0482938 -0.0583845 0.04123001
0.029881464 -0.03259451 -0.046439733 -0.06557164 -0.14712669 -0.21072908 -0.31215876 -0.42276567
-0.028951067 -0.09234055 0.026125025 -0.025187235 0.25355202 -0.071342 0.24297331 -0.39187288
0.18221815 0.30929568 0.22498578 0.3010154 0.050852016 0.09242091 0.026636815 0.045404624
-0.018223582 -0.36656892 0.38733912 -0.043256976 0.19359484 0.20771694 -0.057167754 -0.47457314
-0.13688846 -0.056635283 -0.033672124 -0.2377925 0.11429968 0.076116815 0.058635883 0.049263272
0.06797692 0.060166467 0.08840685 -0.010289012 0.045851063 0.06817737 -0.10906271 -0.098661736
0.15830301 -0.011016941 -0.12812625 -0.035231963 0.26847053 -0.042739477 0.12256346 0.019742949
-0.26157814 0.04888285 0.0510555 0.15940215 0.19583774 0.15498585 -0.04043014 0.099057384
-0.08546513 -0.021261819 -0.06404058 -0.030923624 -0.3901386 -0.13488345 0.3585759 0.20670389
0.14835607 -0.23197022 0.26566976 -0.21388288 0.39573613 -0.19267237 0.022344446 -0.3197233
0.07009408 -0.15562205 -0.19621779 -0.11881905 0.06716719 0.012745498 -0.079393454 -0.010751064
0.03250056 0.040537387 0.10263393 0.045225468 0.24888228 -0.08992487 0.15705091 0.005352782
0.06043931 0.2687609 0.1173712 0.22684951 0.010108359 0.016236404 0.1057284 -0.04419579
-0.20885861 -0.5498233 0.062312886 -0.01633686 0.239801 -0.09239554 0.25119212 0.20700522
0.037951894 0.002729123 -0.10473322 -0.08102397 -0.06297825 -0.10160633 0.03639583 0.05983155
-0.082912266 -0.153503 -0.18455556 -0.094046615 -0.007380301 -0.02563022 -0.025537461 0.06001095
-0.01475258 0.025620101 0.05798407 0.036786813 -0.031078165 -0.2879744 0.027773585 -0.175755
-0.008587695 0.013878811 -0.014573884 -0.018927868 0.10161316 0.1559505 -0.099450864 -0.21886088
-0.05791533 0.051356863 -0.2559706 -0.12164774 0.045252632 -0.3398705 0.23991312 -0.07869222
0.2093216 0.26133344 -0.08164732 -0.18823308 0.10108256 0.080272675 0.11028086 0.2547464
-0.31804118 -0.035175826 -0.27407897 0.051267013 -0.030785486 0.07717635 -0.038239058 0.02102909
0.1603399 0.015201756 -0.009853667 0.051775362 -0.016004778 -0.06857414 -0.076618776 0.08034685
0.045018185 -0.032984387 -0.35563147 -0.17295897 -0.13308588 0.02663882 -0.523164 -0.095415816
-0.13404857 -0.023599666 -0.32317123 -0.3600878 -0.055412583 -0.022940414 0.02364467 0.1289879
0.03846684 0.06355146 0.074048206 0.17392963 -0.23519683 -0.2750784 0.1291607 -0.029954236
0.23066856 0.2675395 -0.12202441 -0.019620083 0.22109799 0.11735092 -0.13894604 -0.19156931
-0.29261678 -0.75307506 -0.23848115 -0.47845092 0.017388474 -0.075360045 0.037650168 0.082027785
0.233318 0.09166911 -0.29650724 -0.08720224 0.070524275 0.20512399 -0.19754346 0.058781076
0.1346316 0.08157401 0.083552636 -0.64383954 -0.054241188 0.031608474 -0.05865214 0.006087274
00000000: 7910 d2bd 42a7 b93d 1328 2a3c 7f03 973e
00000010: aafa 213d 0d4e 61be 2402 713e eaf2 51be
00000020: cc5b 743d 78f5 953d bb6d b93d 7e3d f63c
00000030: 463a 063d 1a0c 71bd 7ae1 6d3c 6b12 08bd
00000040: 6865 c4be 7f07 a4be 27ae 6dbe 1d5b 8cbe
00000050: dbe2 92bd b8cf 453d 9624 6fbd cde0 283d
00000060: f9c9 f43c d281 05bd 9737 3ebd 6d4a 86bd
00000070: 61a8 16be 5dc9 57be 46d3 9fbe be74 d8be
00000080: ca2a edbc 0b1d bdbd 2604 d63c 7655 cebc
00000090: 92d1 813e c11b 92bd ffcd 783e 90a3 c8be
000000a0: 6597 3a3e 015c 9e3e ac62 663e b11e 9a3e
000000b0: 344a 503d 2d47 bd3d 7335 da3c 33fa 393d
000000c0: 9f49 95bc ecae bbbe 5051 c63e 3a2e 31bd
000000d0: ba3d 463e c0b3 543e bc28 6abd 40fb f2be
000000e0: 7d2c 0cbe 66fa 67bd c8eb 09bd e17f 73be
000000f0: f315 ea3d 22e3 9b3d 2e2c 703d 49c8 493d
00000100: 7c37 8b3d 1d71 763d a70e b53d 3f93 28bc
00000110: 53ce 3b3d 94a0 8b3d 455c dfbd 2a0f cabd
00000120: 2f1a 223e 6680 34bc 8733 03be 644f 10bd
00000130: f874 893e 970f 2fbd 8d02 fb3d f7bb a13c
00000140: 92ed 85be 6239 483d 921f 513d 513a 233e
00000150: b089 483e 9cb4 1e3e 139a 25bd 99de ca3d
00000160: 5808 afbd 442d aebc b527 83bd 8a53 fdbc
00000170: 3fc0 c7be e31e 0abe 4397 b73e 2faa 533e
00000180: a7ea 173e 9a89 6dbe de05 883e 1d04 5bbe
00000190: ed9d ca3e e84b 45be b30b b73c c6b2 a3be
000001a0: 7c8d 8f3d 635b 1fbe 51ed 48be 6757 f3bd
000001b0: f48e 893d 7ed2 503c 0999 a2bd 3b25 30bc
000001c0: 4f1f 053d 880a 263d bd31 d23d 573e 393d
000001d0: ffda 7e3e 882a b8bd f4d1 203e 6466 af3b
000001e0: 368f 773d 079b 893e 5060 f03d 3d4b 683e
000001f0: 889d 253c 3502 853c 2288 d83d a506 35bd
00000200: 08df 55be 38c1 0cbf cc3b 7f3d e1d4 85bc
00000210: 658e 753e df39 bdbd 419c 803e 2df9 533e
00000220: 7273 1b3d 16db 323b 5f7e d6bd e5ef a5bd
00000230: befa 80bd fb16 d0bd cb13 153d ed11 753d
00000240: e8cd a9bd e42f 1dbe 22fc 3cbe 839b c0bd
00000250: 74d6 f1bb 78f6 d1bc f033 d1bc 0bce 753d
00000260: ceb4 71bc 3fe1 d13c b480 6d3d c5ad 163d
00000270: a397 febc 6171 93be 6e85 e33c 1ef9 33be
00000280: 67b3 0cbc f463 633c 4dc7 6ebc 9e0e 9bbc
00000290: 8f1a d03d 7db1 1f3e e5ac cbbd 111d 60be
000002a0: a038 6dbd 935b 523d 940e 83be 7322 f9bd
000002b0: d35a 393d 8203 aebe c9ab 753e 6329 a1bd
000002c0: 6758 563e 7fcd 853e b636 a7bd 2cc0 40be
000002d0: 6004 cf3d 0066 a43d eeda e13d 1f6e 823e
000002e0: 4bd6 a2be 8714 10bd 1454 8cbe 5cfd 513d
000002f0: d831 fcbc a20e 9e3d 8fa0 1cbd 3345 ac3c
00000300: 2530 243e c910 793c 4671 21bc 6712 543d
00000310: 741c 83bc 9970 8cbd 4eea 9cbd e48c a43d
00000320: fd64 383d a31a 07bd 5415 b6be 281c 31be
00000330: aa47 08be a839 da3c 13ee 05bf 5e69 c3bd
00000340: 0744 09be 1654 c1bc b376 a5be 6e5d b8be
00000350: 4ef8 62bd 89ed bbbc 78b2 c13c 6715 043e
00000360: 688f 1d3d 4527 823d 96a6 973d 9c1a 323e
00000370: 70d7 70be 13d7 8cbe b442 043e 9662 f5bc
00000380: 6134 6c3e f0fa 883e efe7 f9bd 4cba a0bc
00000390: 8367 623e ae55 f03d df47 0ebe bf2a 44be
000003a0: ded1 95be 87c9 40bf 6734 74be 85f7 f4be
000003b0: 4672 8e3c 5e56 9abd 1037 1a3d 2ffe a73d
000003c0: eaea 6e3e 04bd bb3d cccf 97be 1797 b2bd
000003d0: 086f 903d 060c 523e d548 4abe 6dc4 703d
000003e0: dedc 093e 4610 a73d a51d ab3d abd2 24bf
000003f0: 022c 5ebd e377 013d 3a3d 70bd c177 c73b

conv3.bias f4 [64]
0.0020664944 0.34603164 0.14693795 -0.4009397 0.04149074 -0.023918709 0.116259806 -0.08749797
0.13373326 0.13428426 -0.369565 -0.0896269 0.040275704 -0.10681314 0.103178404 0.15140928
-0.04604407 0.031861253 0.043361075 0.06335315 0.12650591 -0.0015987705 -0.46643373 -0.14011382
0.0012444297 -0.16341771 0.3489789 0.08539318 0.24412845 0.14445733 0.12929596 0.2079977
-0.08324525 0.22446653 -0.06655359 -0.21829814 0.029584736 0.25012824 -0.22277746 0.034064665
0.0907503 0.18276401 0.03094183 -0.16641876 0.049655534 -0.035522494 0.05852544 0.11064555
-0.04273917 -0.064461745 0.080916815 -0.09519822 0.056902017 -0.1689775 0.13056938 -0.009362981
-0.12882026 0.02892589 -0.110557705 -0.20040765 0.07905211 0.0075598885 -0.14259218 -0.043654397
00000000: 066e 073b 0f2b b13e e776 163e f847 cdbe
00000010: 32f2 293d 2bf1 c3bc 9f19 ee3d 2332 b3bd
00000020: 5ff1 083e d081 093e a037 bdbe 4f8e b7bd
00000030: 23f8 243d d9c0 dabd 334f d33d 090b 1b3e
00000040: b598 3cbd f280 023d 629b 313d 4cbf 813d
00000050: c48a 013e d68d d1ba 67d0 eebe ff79 0fbe
00000060: 221c a33a f956 27be 5dad b23e 9fe2 ae3d
00000070: cffc 793e 9fec 133e 2966 043e 59fd 543e
00000080: 7c7c aabd 8eda 653e 404d 88bd 8c89 5fbe
00000090: b05b f23c cf10 803e c61f 64be 6487 0b3d
000000a0: 4bdb b93d 7d26 3b3e b879 fd3c ae69 2abe
000000b0: 9a63 4b3d 0980 11bd 5fb8 6f3d 229a e23d
000000c0: 450f 2fbd 8504 84bd b7b7 a53d 49f7 c2bd
000000d0: 1712 693d 7008 2dbe fbb3 053e 3067 19bc
000000e0: 75e9 03be fdf5 ec3c 146c e2bd aa37 4dbe
000000f0: 13e6 a13d f1b8 f73b af03 12be f4ce 32bd

conv4.weight f4 [64, 64, 2, 2]
0.04343407 -0.1972748 -0.08583099 -0.56602234 -0.22660054 0.23424612 -0.2083969 0.06093751
-0.38839808 0.115742676 -0.28059125 -0.043444987 -0.10685451 -0.19193445 -0.16414084 -0.18365999
0.13685463 0.09791415 0.082918726 -0.33194238 -0.24471167 -0.33618197 -0.12917349 -0.19591999
0.03748622 -0.56926167 0.13261472 -0.1722825 -0.053660996 0.028900731 0.17896321 0.026445573
0.16961434 -0.1944143 0.2995803 0.034155518 -0.19385575 -0.28291053 -0.118271805 -0.12967633
-0.13033564 0.024874408 -0.26251966 -0.4178971 -0.48051837 0.0994431 -0.4784518 -0.44770995
-0.3613644 0.03937727 -0.097490884 -0.26110548 -0.020195179 -0.07182475 0.047724072 -0.080305934
0.2630046 -0.021997685 0.44785458 0.26598912 -0.13855581 -0.19919735 0.26296458 -0.013201302
-0.090627655 0.05660024 -0.3387537 -0.01739325 -0.20510897 -0.04593015 -0.0946335 -0.36360735
0.14616998 -0.18833372 0.05617187 0.08162591 -0.38128933 -0.11697126 -0.25734958 -0.07564703
-0.14982568 0.3672775 -0.0129987225 0.11521891 -0.3803748 0.48394933 0.026831228 -0.04789396
0.043761946 0.038972482 -0.3232721 0.08308695 -0.027955234 0.042950787 0.034015637 0.084612645
-0.49035004 -0.13724455 -0.19823222 0.25866947 0.031750347 0.28275564 -0.13674223 0.15797305
0.11226298 -0.18703716 0.20847514 -0.08835363 -0.22284777 -0.51660204 -0.15610136 -0.3546409
-0.16024865 -0.46328726 0.0398368 -0.23383927 -0.1527325 -0.25357154 -0.5302959 -0.36576307
0.06340925 0.28261173 0.028213235 -0.261514 -0.15092798 0.2090668 -0.23338862 0.09224851
-0.17547557 -0.11013828 -0.21656564 -0.17443039 0.07096254 -0.35407582 0.024627535 0.16847512
0.079422586 -0.14126362 -0.22201452 0.19805348 -0.14143713 0.044342965 -0.10830866 0.015162157
-0.040172767 -0.058756962 0.17600337 0.13856338 0.093139805 0.043544464 0.15009497 0.039166972
-0.16721493 0.030473152 -0.50238496 -0.5164701 -0.32307753 0.13267009 -0.29684794 -0.111295305
-0.15926604 0.20213977 -0.19799672 0.31208417 -0.21634993 -0.017566044 -0.041813448 -0.0962393
0.14474447 -0.1438622 -0.122703195 -0.2697158 -0.062022813 -0.04994573 -0.033401646 0.0019466849
0.09728471 0.08870105 -0.011760118 0.3471843 -0.13330281 0.022231689 -0.37700838 -0.13309634
-0.014853895 -0.40109316 0.24454458 -0.38712916 0.10348325 -0.5661622 0.18282944 -0.08892161
-0.2919234 0.24093382 -0.17665954 0.0906774 -0.05795263 -0.23291634 0.35845745 -0.13820018
0.16559516 -0.15977247 0.37625328 0.120976985 -0.08458248 0.03763355 0.034837198 0.069431156
0.12339645 0.024776928 0.253879 0.2449175 0.18506922 -0.40737697 -0.061030895 -0.121156834
0.31914595 -0.23413844 0.33403143 0.33468717 -0.29472917 -0.22981736 -0.10879503 0.020814206
0.14821948 0.19690911 -0.12096966 0.34736347 -0.26582667 0.17247091 -0.42503497 -0.101934046
-0.13323522 0.15053369 0.10086471 -0.33960745 -0.094780676 -0.0970034 0.011188057 0.008777248
0.04628529 -0.26107267 0.33878088 -0.3762138 0.033572458 -0.37481403 0.19948898 0.0022199666
-0.24953339 0.12641229 -0.092186645 -0.1812164 -0.18532866 0.1376901 -0.21116985 0.11103463
00000000: ece7 313d 6802 4abe 28c8 afbd d7e6 10bf
00000010: f909 68be 37de 6f3e ff65 55be 9c99 793d
00000020: 1ddc c6be 7f0a ed3d a8a9 8fbe 5ff3 31bd
00000030: 8ad6 dabd 778a 44be 8914 28be 5d11 3cbe
00000040: 9f23 0c3e 3787 c83d 4bd1 a93d 5af4 a9be
00000050: b295 7abe 0b20 acbe 0e46 04be 409f 48be
00000060: 278b 193d 22bb 11bf 27cc 073e d36a 30be
00000070: a2cb 5bbd 3ac1 ec3c 2242 373e 63a4 d83c
00000080: 62af 2d3e 8b14 47be 9762 993e a8e6 0b3d
00000090: 1f82 46be a6d9 90be 7d38 f2bd dfc9 04be
000000a0: b576 05be 6ac5 cb3c fa68 86be 9cf6 d5be
000000b0: 8106 f6be d3a8 cb3d a2f7 f4be 3d3a e5be
000000c0: c104 b9be 0f4a 213d 4da9 c7bd 9eaf 85be
000000d0: 5c70 a5bc db18 93bd 517a 433d 7077 a4bd
000000e0: 8aa8 863e 7d34 b4bc 324d e53e ba2f 883e
000000f0: 93e1 0dbe 64fa 4bbe 4ba3 863e 464a 58bc
00000100: fe9a b9bd a7d5 673d 2071 adbe 4a7c 8ebc
00000110: 1608 52be 4121 3cbd 35cf c1bd be2a babe
00000120: 95ad 153e 8eda 40be 7a14 663d 7c2b a73d
00000130: 5b38 c3be a18e efbd 53c3 83be d4ec 9abd
00000140: e76b 19be cc0b bc3e 98f8 54bc e4f7 eb3d
00000150: 7cc0 c2be 35c8 f73e 2acd db3c 752c 44bd
00000160: ba3f 333d 9ca1 1f3d ec83 a5be 7e29 aa3d
00000170: 6002 e5bc 2aed 2f3d fb53 0b3d 6549 ad3d
00000180: 290f fbbe d689 0cbe 63fd 4abe 5370 843e
00000190: a70c 023d 59c5 903e 2806 0cbe b0c3 213e
000001a0: 22ea e53d ab86 3fbe 827a 553e bff2 b4bd
000001b0: 3532 64be 0840 04bf 09d9 1fbe 7e93 b5be
000001c0: 3918 24be fd33 edbe ea2b 233d 9073 6fbe
000001d0: e965 1cbe 21d4 81be 79c1 07bf 4c45 bbbe
000001e0: b5dc 813d 7cb2 903e 711f e73c 2ae5 85be
000001f0: dd8c 1abe 9b15 563e 6dfd 6ebe c9ec bc3d
00000200: deaf 33be 2e90 e1bd 62c3 5dbe e19d 32be
00000210: cf54 913d 6d49 b5be afbf c93c be84 2c3e
00000220: 4fa8 a23d 69a7 10be c657 63be 88ce 4a3e
00000230: e5d4 10be f8a0 353d eed0 ddbd b26a 783c
00000240: 338c 24bd 24ab 70bd 3a3a 343e 8fe3 0d3e
00000250: 15c0 be3d ae5b 323d 7fb2 193e 8c6d 203d
00000260: 643a 2bbe d5a2 f93c 4d9c 00bf 6237 04bf
00000270: 6b6a a5be abda 073e 74fc 97be cbee e3bd
00000280: a316 23be bafd 4e3e a7bf 4abe 7fc9 9f3e
00000290: d68a 5dbe aae6 8fbc 9444 2bbd 1c19 c5bd
000002a0: e537 143e 9d50 13be d04b fbbd 3018 8abe
000002b0: a20b 7ebd e593 4cbd 2ad0 08bd e827 ff3a
000002c0: 353d c73d e5a8 b53d 83ad 40bc 24c2 b13e
000002d0: 8880 08be 3b1f b63c 3e07 c1be 684a 08be
000002e0: c05d 73bc 155c cdbe e569 7a3e cb35 c6be
000002f0: 07ef d33d 02f0 10bf a437 3b3e 881c b6bd
00000300: fc76 95be 5bb7 763e 3de6 34be 13b5 b93d
00000310: bd5f 6dbd 9f81 6ebe bc87 b73e 5984 0dbe
00000320: c791 293e 659b 23be 45a4 c03e c8c2 f73d
00000330: 9439 adbd a325 1a3d 73b1 0e3d ec31 8e3d
00000340: 47b7 fc3d fcf8 ca3c 6efc 813e a7cb 7a3e
00000350: c982 3d3e b793 d0be 88fb 79bd 1321 f8bd
00000360: 1967 a33e fdc1 6fbe 2b06 ab3e 1e5c ab3e
00000370: bee6 96be 3e55 6bbe eecf debd 8e82 aa3c
00000380: d9c6 173e 8ba2 493e f1be f7bd a0d9 b13e
00000390: 6f1a 88be 379c 303e 2f9e d9be ccc2 d0bd
000003a0: d06e 08be 8125 1a3e 2892 ce3d 07e1 adbe
000003b0: 5f1c c2bd b8a9 c6bd 1d4e 373c 72ce 0f3c
000003c0: a595 3d3d 51ab 85be b074 ad3e 189f c0be
000003d0: 4683 093d a0e7 bfbe d746 4c3e dc7c 113b
000003e0: ae85 7fbe 3972 013e 5acc bcbd cb90 39be
000003f0: ccc6 3dbe a2fe 0c3e e93c 58be 2066 e33d

conv4.bias f4 [64]
-0.07717948 -0.080268435 -0.005267341 -0.10206627 0.082896166 0.13710134 0.0042646667 -0.056661066
-0.13873297 0.21700215 -0.09704897 -0.027619123 0.122653954 0.29456675 0.11837661 0.16954927
0.0098355515 -0.13887265 0.1631412 0.042293243 0.37007818 0.08793527 -0.3161365 -0.047968104
-0.09143971 0.18457338 -0.046861984 0.31672764 0.0903045 0.12381635 -0.15027507 0.08598199
0.25523734 0.13993442 -0.11206817 -0.1374693 -0.07105644 -0.22499143 -0.2982298 -0.24165775
0.05677197 -0.3007549 0.013491214 0.07550715 0.10324269 -0.07020122 0.105141856 -0.14539792
0.15965104 -0.18209188 -0.09501727 0.0007080697 0.17161036 0.26894146 0.2705019 -0.10358244
-0.02538464 0.01611745 -0.063975796 -0.09901124 0.13403115 0.18240611 -0.10564591 -0.071956225
00000000: 4610 9ebd c763 a4bd a999 acbb 1f08 d1bd
00000010: 77c5 a93d 4b64 0c3e 9ebe 8b3b 6f15 68bd
00000020: 0410 0ebe d035 5e3e 9cc1 c6bd 8041 e2bc
00000030: ff31 fb3d 74d1 963e 706f f23d 539e 2d3e
00000040: 4b25 213c a234 0ebe 7d0e 273e ae3b 2d3d
00000050: e37a bd3e 6817 b43d a5dc a1be 347a 44bd
00000060: be44 bbbd ce00 3d3e 5af2 3fbd 202a a23e
00000070: 91f1 b83d 6d93 fd3d b5e1 19be 5317 b03d
00000080: 78ae 823e f84a 0f3e ff83 e5bd c1c4 0cbe
00000090: 0a86 91bd 2764 66be 94b1 98be 2175 77be
000000a0: ba89 683d 8cfc 99be 410a 5d3c 7ea3 9a3d
000000b0: e770 d33d a8c5 8fbd 9d54 d73d 31e3 14be
000000c0: 907b 233e 4b76 3abe 6a98 c2bd c19d 393a
000000d0: a0ba 2f3e b2b2 893e 3a7f 8a3e 0823 d4bd
000000e0: 73f3 cfbc be08 843c be05 83bd 68c6 cabd
000000f0: 763f 093e abc8 3a3e e25c d8bd c95d 93bd

conv5.weight f4 [128, 64, 2, 2]
-0.037487358 -0.18357332 -0.12728256 -0.21643403 0.020847756 -0.05123222 0.026554182 -0.084565185
0.16944674 0.01953519 0.19006017 -0.21718591 -0.207976 0.025761448 -0.22167528 -0.14316893
-0.4340846 -0.54561734 -0.14510684 -0.30102727 -0.33939412 0.03525608 -0.12484709 -0.16981764
-0.15658131 0.02424827 0.06949021 0.042776935 -0.2520231 -0.24169241 -0.20244497 -0.03613782
-0.058538947 -0.4337547 -0.037630685 -0.091692016 0.14931366 -0.037038818 0.27211314 -0.05368646
-0.16861305 -0.31519732 0.036145832 0.12995963 -0.41199374 -0.06275122 0.034613613 0.29438248
-0.21998163 -0.7947455 -0.049713083 -0.13940164 -0.26630044 -0.010464673 -0.20697726 0.059081785
-0.02885857 -0.17722818 -0.3895036 0.21883437 -0.29955584 0.102991916 0.076644994 -0.019665206
0.26314467 0.22387624 -0.46027067 -0.31063572 -0.0030755335 0.013189336 0.014591348 0.05747976
0.043465655 0.26538658 -0.3128708 -0.17500786 0.11590273 -0.1565757 0.046031464 0.20162304
0.11545675 -0.002816935 0.11926238 0.04041046 -0.035689093 -0.09965902 -0.0211298 0.12299483
-0.3349668 0.04444043 -0.009013944 0.33029595 -0.39279845 -0.2812601 0.08236041 -0.008238665
-0.072994895 -0.0319835 -0.075987674 -0.08296072 -0.15535419 -0.21307658 0.33650458 0.15684304
-0.007941155 -0.06211553 0.22446951 -0.5142433 0.47933194 -0.04184999 0.25739926 0.16397427
0.15571535 0.024684032 0.6512375 -0.052487757 0.19542314 0.26377705 0.36819527 0.31179538
-0.044033933 0.03500278 -0.032519802 -0.19358946 0.22025377 -0.18377364 0.21692654 -0.3591155
-0.10714538 -0.062403005 -0.083323255 -0.081019446 -0.26615036 -0.0070164227 -0.06606765 -0.036565498
0.41381007 0.5933205 0.19984394 0.46586734 -0.18812035 0.27462518 -0.31325993 -0.015891595
0.04033324 0.06766705 0.02691062 -0.2766688 -0.35733005 -0.28006348 -0.16132456 0.2980123
-0.028832808 0.3830957 -0.11059435 -0.2395706 -0.18764552 -0.17453761 -0.4920444 -0.25530773
-0.086821675 -0.2890415 0.24440369 -0.05426504 -0.3687767 -0.24404515 -0.20822094 -0.2966419
-0.04675291 0.090259604 -0.19274485 -0.40624917 0.08063087 0.14093807 0.12039648 0.38072038
-0.06919129 -0.22914623 -0.00060142815 -0.2191683 0.042824198 0.12572731 -0.22305281 -0.098124646
-0.4389457 -0.022538831 -0.45474502 -0.3225202 0.17086948 -0.09366852 -0.28836948 -0.35306633
-0.13233079 -0.024946868 -0.15046282 -0.050064337 0.15388903 -0.73422253 -0.2844061 -0.6186478
-0.20004588 0.07699396 -0.07677807 -0.25869665 0.17831837 0.0750847 0.21479887 -0.26966235
0.06866922 -0.23763649 -0.20912975 -0.28786772 0.28250992 0.4250953 0.051459603 -0.21306567
0.21071823 -0.2777881 -0.17003968 -0.3373966 -0.32806462 -0.45330885 0.18599555 -0.23370215
0.06473961 -0.12965521 0.14370334 0.057814755 0.0651313 0.14140682 -0.40250647 -0.16987774
0.024777994 0.29935062 -0.22714049 0.30204606 -0.22959699 -0.12502827 -0.09550944 0.07368727
-0.09045543 0.1009492 0.10609175 0.91471535 -0.34307933 -0.19930741 -0.057664234 -0.4164119
0.13655536 0.0976832 -0.025350206 -0.14520673 -0.05587313 -0.014122362 0.00091926067 0.014769806
00000000: 588c 19bd a5fa 3bbe 5c56 02be e2a0 5dbe
00000010: eac8 aa3c e0d8 51bd 2888 d93c 8330 adbd
00000020: 7283 2d3e 4308 a03c 229f 423e fc65 5ebe
00000030: a9f7 54be ac09 d33c d8fe 62be e09a 12be
00000040: 5640 debe 94ad 0bbf e396 14be 3f20 9abe
00000050: 11c5 adbe ae68 103d d5af ffbd ade4 2dbe
00000060: da56 20be 4fa4 c63c e250 8e3d de36 2f3d
00000070: 2c09 81be 377e 77be bc4d 4fbe 4005 14bd
00000080: 89c6 6fbd 1915 debe a222 1abd 06c9 bbbd
00000090: aee5 183e 04b6 17bd 6a52 8b3e 55e6 5bbd
000000a0: e6a8 2cbe 8b61 a1be a70d 143d 2314 053e
000000b0: d8f0 d2be b683 80bd 01c7 0d3d 4db9 963e
000000c0: dd42 61be 7174 4bbf f29f 4bbd 4ebf 0ebe
000000d0: 8858 88be 0574 2bbc d9f1 53be beff 713d
000000e0: cf68 ecbc 4e7b 35be 046d c7be 1e16 603e
000000f0: 625f 99be 6ded d23d 0df8 9c3d ed18 a1bc
00000100: e6ba 863e d03f 653e 99a8 ebbe a50b 9fbe
00000110: e48e 49bb 1618 583c 8d10 6f3c e66f 6b3d
00000120: 0b09 323d c0e0 873e 9a30 a0be 4335 33be
00000130: 695e ed3d 6155 20be 7d8b 3c3d 4576 4e3e
00000140: 9774 ec3d 549c 38bb d63f f43d 7085 253d
00000150: ba2e 12bd 071a ccbd 6718 adbc b7e4 fb3d
00000160: c580 abbe 2b07 363d 39af 13bc 8d1c a93e
00000170: e11c c9be 5301 90be 93ac a83d 77fb 06bc
00000180: 597e 95bd 2101 03bd 6d9f 9bbd 4fe7 a9bd
00000190: 2b15 1fbe bf30 5abe 544a ac3e 769b 203e
000001a0: 9e1b 02bc db6c 7ebd 56db 653e 73a5 03bf
000001b0: ff6a f53e e56a 2bbd d6c9 833e dfe8 273e
000001c0: d873 1f3e 2b36 ca3c 80b7 263f 67fd 56bd
000001d0: 011d 483e c90d 873e 1784 bc3e a5a3 9f3e
000001e0: ed5c 34bd 135f 0f3d 7c33 05bd 513c 46be
000001f0: 348a 613e 282f 3cbe fe21 5e3e fddd b7be
00000200: 096f dbbd 4b9a 7fbd 62a5 aabd 86ed a5bd
00000210: dc44 88be 05ea e5bb 7a4e 87bd b4c5 15bd
00000220: eade d33e dae3 173f e4a3 4c3e 2a86 ee3e
00000230: 9fa2 40be ac9b 8c3e 9b63 a0be 172f 82bc
00000240: 7834 253d 0695 8a3d a973 dc3c 88a7 8dbe
00000250: f7f3 b6be 7b64 8fbe 4432 25be 1195 983e
00000260: c832 ecbc 1f25 c43e 4a7f e2bd ff51 75be
00000270: 2626 40be fdb9 32be 3eed fbbe b2b7 82be
00000280: 90cf b1bd 3ffd 93be f644 7a3e 0545 5ebd
00000290: 4dd0 bcbe f9e6 79be df37 55be 72e1 97be
000002a0: fb7f 3fbd 07da b83d e85e 45be e4ff cfbe
000002b0: cc21 a53d 1252 103e 6e92 f63d c8ed c23e
000002c0: 2ab4 8dbd 4fa5 6abe 29a9 1dba a86d 60be
000002d0: 6d68 2f3d a9be 003e f567 64be 93f5 c8bd
000002e0: 7ebd e0be 5ba3 b8bc 57d4 e8be 5e21 a5be
000002f0: 69f8 2e3e 48d5 bfbd 2aa5 93be 1cc5 b4be
00000300: b981 07be 605d ccbc ed12 1abe 4310 4dbd
00000310: 1695 1d3e 02f6 3bbf ad9d 91be b45f 1ebf
00000320: d4d8 4cbe 02af 9d3d d23d 9dbd e373 84be
00000330: 1799 363e 02c6 993d 3cf4 5b3e 2f11 8abe
00000340: 73a2 8c3d fb56 73be 1c26 56be 6663 93be
00000350: 24a5 903e 17a6 d93e 4ec7 523d e32d 5abe
00000360: 85c6 573e 3e3a 8ebe e21e 2ebe 3fbf acbe
00000370: 16f8 a7be 1918 e8be 9e75 3e3e 9e4f 6fbe
00000380: 3396 843d 56c4 04be f826 133e 2acf 6c3d
00000390: 8f63 853d f3cc 103e 5415 cebe 6ef4 2dbe
000003a0: 38fb ca3c 7c44 993e 8497 68be c8a5 9a3e
000003b0: 791b 6bbe 6907 00be 749a c3bd 5ae9 963d
000003c0: b240 b9bd 74be ce3d a246 d93d c92a 6a3f
000003d0: 18a8 afbe 3e17 4cbe 5531 6cbd f133 d5be
000003e0: 2bd5 0b3e 210e c83d 3cab cfbc 13b1 14be
000003f0: 39db 64bd 7b61 67bc 8afa 703a 0efd 713c

conv5.bias f4 [128]
0.22694348 0.03268935 0.2187808 0.18484357 -0.095681444 0.115874365 0.2015582 0.08679303
0.19945051 -0.30886975 0.13353829 0.04450635 -0.25641543 -0.19671915 -0.11859217 0.05862617
-0.2615371 0.15708612 0.11818189 -0.10792633 0.12205862 0.024828387 -0.020203223 0.023953205
0.40008628 0.17116876 0.12030109 -0.45348454 -0.119391546 -0.16220286 -0.01439666 -0.012115408
0.0071584163 -0.2316435 0.15761808 0.19968444 0.043611243 0.09990242 -0.030093135 -0.023849273
0.059148468 0.04869395 0.08871309 0.07873594 0.012816111 0.16823792 -0.04502455 0.21964906
0.12779582 0.12845285 -0.13483614 -0.26610306 -0.40096235 -0.26093194 0.06851774 0.19096176
0.042562984 0.18187173 -0.16397776 0.049171094 -0.04918232 0.22495672 0.17906956 0.19935754
-0.1542846 0.25293013 -0.09669639 0.23038135 -0.06298288 0.016056558 -0.009954375 -0.021803617
0.067603424 -0.16801731 -0.10198371 -0.21021247 0.015528606 -0.27790305 -0.18948139 0.034043413
0.13039541 -0.0461137 0.009737014 -0.079945 -0.0015613259 -0.008335962 -0.0851934 0.101962455
-0.34546462 0.27984223 0.13555743 -0.010905012 -0.13599378 -0.06327569 -0.12768039 0.022201007
0.26198253 0.06274871 -0.13878414 0.30497718 -0.13178356 -0.1368411 0.13577479 -0.033080142
-0.12755926 -0.077751905 0.19243528 -0.16988489 0.14453517 0.17171295 0.25947002 -0.09523285
0.21783106 0.038134493 0.063937634 -0.023791032 -0.18307039 0.0568944 -0.45134297 0.17995195
0.23513444 0.024846114 0.017625563 0.019634739 0.12206143 -0.080284625 -0.17138082 -0.17955486
00000000: df63 683e 45e5 053d 1308 603e a247 3d3e
00000010: a2f4 c3bd 8a4f ed3d 4665 4e3e 8bc0 b13d
00000020: c13c 4c3e 2d24 9ebe 43be 083e 4a4c 363d
00000030: e248 83be bf70 49be 74e0 f2bd ff21 703d
00000040: 31e8 85be 2fdb 203e 5909 f23d 7b08 ddbd
00000050: dff9 f93d e764 cb3c 3b81 a5bc 8339 c43c
00000060: 1cd8 cc3e dd46 2f3e 6b60 f63d 202f e8be
00000070: 8e83 f4bd 8218 26be f8df 6bbc b47f 46bc
00000080: 2691 ea3b f433 6dbe a266 213e 147a 4c3e
00000090: b4a1 323d a499 cc3d e185 f6bc 8d5f c3bc
000000a0: aa45 723d 4f73 473d 35af b53d 4f40 a13d
000000b0: aafa 513c 9046 2c3e aa6b 38bd afeb 603e
000000c0: e8dc 023e 2589 033e 7c12 0abe a93e 88be
000000d0: f04a cdbe df98 85be 0753 8c3d 7b8b 433e
000000e0: 8656 2e3d 953c 3a3e c9e9 27be a167 493d
000000f0: 6673 49bd 0e5b 663e 035e 373e 6224 4c3e
00000100: c8fc 1dbe 0f80 813e c208 c6bd 17e9 6b3e
00000110: 2bfd 80bd 0b89 833c ad17 23bc 809d b2bc
00000120: aa73 8a3d bb0c 2cbe d6dc d0bd f041 57be
00000130: b26b 7e3c 4f49 8ebe 6907 42be 1b71 0b3d
00000140: 6086 053e b8e1 3cbd ff87 1f3c 34ba a3bd
00000150: 67a5 ccba 8f93 08bc e179 aebd b1d1 d03d
00000160: bde0 b0be 7b47 8f3e 91cf 0a3e efaa 32bc
00000170: f441 0bbe af96 81bd a6be 02be e3de b53c
00000180: 9322 863e 6582 803d 6e1d 0ebe f825 9c3e
00000190: 45f2 06be 1320 0cbe 8c08 0b3e 0b7f 07bd
000001a0: e59e 02be 643c 9fbd c10d 453e 4ef6 2dbe
000001b0: 0701 143e 85d5 2f3e 41d9 843e 7109 c3bd
000001c0: 1b0f 5f3e ea32 1c3d bcf1 823d 69e5 c2bc
000001d0: ce76 3bbe 1a0a 693d 6d16 e7be 5345 383e
000001e0: 15c7 703e 148a cb3c 7c63 903c 08d9 a03c
000001f0: 58fb f93d 446c a4bd 747e 2fbe 3bdd 37be

conv6.weight f4 [64, 128, 2, 2]
-0.033025127 -0.019621676 -0.59953284 -0.47512326 -0.21473774 -0.29481074 -0.35138476 -0.29891163
-0.12876888 -0.40742704 -0.2419338 0.19684282 0.20580968 -0.033181448 -0.017236628 -0.09911017
-0.11208118 0.073610395 0.1356347 0.24068783 0.07600427 0.1480921 0.37595525 0.30893603
-0.046986025 0.16217081 0.060305245 -0.41119298 0.22442907 -0.027325938 -0.16661675 0.073181584
-0.20537297 -0.13644238 -0.07476283 -0.07165974 -0.35347584 -0.23687111 0.0020278902 -0.1623547
0.066294156 -0.019789038 0.14477566 0.05929902 0.00039409255 -0.17305093 -0.28620005 -0.3641068
-0.22679372 -0.45946407 0.16457462 -0.013535946 -0.27021602 0.071855366 0.06989081 -0.16327013
-0.251697 -0.35880536 0.18427536 -0.09343044 -0.008316936 0.085255 -0.020394241 -0.093212955
-0.021044197 0.06543441 0.008946865 0.107105955 0.049899846 0.0487259 0.4517097 0.43843022
0.024148552 0.0725572 0.191473 0.219521 -0.02050702 0.017779244 -0.02513591 0.02547871
0.118643045 0.037903696 0.052669313 -0.34888545 -0.105260596 0.20096365 0.22033818 0.25601822
0.10271606 -0.4120264 -0.21350765 -0.6242236 -0.24536766 -0.19722389 -0.6525148 -0.7942787
-0.052123867 -0.4362908 -0.63285565 -0.38884825 -0.0005753232 -0.43790945 -0.3346357 -0.85740966
-0.21397674 -0.34158924 0.07610437 -0.09614269 0.031061372 -0.12802744 0.055645846 0.23706442
-0.12803128 -0.056676254 0.06458977 -0.0615925 -0.02345432 -0.022922322 -0.06308745 -0.029640587
-0.1190679 0.25289482 0.04481379 -0.25334793 -0.1711984 -0.03863103 -0.00820938 -0.022847563
0.24332018 0.12959446 -0.09890064 0.23016335 0.024633935 -0.04986554 -0.07833309 -0.06758804
0.2806592 0.034217782 -0.21910611 -0.0120551195 -0.11901713 -0.13163605 0.03408516 0.04419923
0.2608077 0.32355487 0.06664676 0.3895424 0.113015324 0.31654248 0.20188098 0.09227081
0.042449765 -0.3343768 0.09760594 -0.51429623 -0.17836963 -0.1550884 -0.029723568 0.26611012
0.12974057 -0.38674244 0.048467834 0.011916238 0.13511921 -0.098616995 0.04890947 0.08972587
0.18485 -0.19649345 -0.21093224 -0.5116164 -0.29828855 0.06497109 0.3302503 0.1962121
0.14571191 0.033976 0.24276005 0.22619735 -0.33907333 -0.3662703 -0.27008015 0.19201897
0.21605836 -0.06832778 0.28815162 0.1445227 -0.1952838 -0.009959257 -0.16277233 -0.1347575
-0.16612065 -0.6037807 -0.09553751 -0.28191984 -0.1693185 0.20992519 0.29401663 -0.34218833
-0.23917401 -0.094769984 0.054582734 -0.15019076 0.25278544 -0.0190051 0.12588194 0.25483316
0.32716316 0.05290325 0.11705357 -0.09036942 0.24186844 0.24634552 0.047614403 0.0878417
-0.03552332 0.19660948 0.3871139 0.17187627 -0.16951256 -0.2359614 -0.06841916 -0.08454117
-0.05846813 -0.060537245 0.33409286 0.096856125 0.01941821 0.02494802 0.2700938 0.020867242
0.002674735 -0.017149465 -0.021013504 0.03214601 0.16668853 0.16354968 -0.22980478 -0.2290804
0.09094708 0.008695458 -0.18818538 0.2528213 0.309168 0.1606521 -0.11983455 0.032186177
-0.0044650836 0.15308553 -0.1616305 0.11263455 0.2304205 0.101103134 -0.2354678 -0.10339931
00000000: 5b45 07bd a3bd a0bc fc7a 19bf 5b43 f3be
00000010: 36e4 5bbe 6ff1 96be b4e8 b3be f20a 99be
00000020: fddb 03be 479a d0be 7ebd 77be 2a91 493e
00000030: c6bf 523e 45e9 07bd d433 8dbc 46fa cabd
00000040: d18a e5bd 0cc1 963d d3e3 0a3e df76 763e
00000050: 20a8 9b3d 75a5 173e 357d c03e dd2c 9e3e
00000060: 6b74 40bd 1b10 263e a202 773d e387 d2be
00000070: bcd0 653e a5da dfbc 959d 2abe 3ae0 953d
00000080: 4b4d 52be 8db7 0bbe 411d 99bd 57c2 92bd
00000090: c9fa b4be 578e 72be 5ae6 043b 4f40 26be
000000a0: 3bc5 873d 9f1c a2bc 1240 143e 87e3 723d
000000b0: 359e ce39 4334 31be d088 92be 356c babe
000000c0: 9d3c 68be e03e ebbe 4086 283e dfc5 5dbc
000000d0: c159 8abe e828 933d ea22 8f3d 4930 27be
000000e0: 6ede 80be 56b5 b7be aeb2 3c3e 7558 bfbd
000000f0: c243 08bc 2c9a ae3d d311 a7bc 6fe6 bebd
00000100: e164 acbc 7a02 863d df95 123c 5e5a db3d
00000110: c863 4c3d cf94 473d 7e46 e73e ed79 e03e
00000120: 2fd3 c53c df98 943d 8011 443e 1dca 603e
00000130: 57fe a7bc c7a5 913c d3e9 cdbc bab8 d03c
00000140: 20fb f23d e840 1b3d c7bb 573d 1da1 b2be
00000150: de92 d7bd 6ac9 4d3e 55a0 613e d214 833e
00000160: cc5c d23d 20f5 d2be c0a1 5abe 1ecd 1fbf
00000170: a941 7bbe 0ff5 49be 360b 27bf d955 4bbf
00000180: d67f 55bd 8261 dfbe d402 22bf 1e17 c7be
00000190: 49d1 16ba ab35 e0be 5f55 abbe 337f 5bbf
000001a0: b81c 5bbe c9e4 aebe 9cdc 9b3d 75e6 c4bd
000001b0: 6b74 fe3c a019 03be e6ec 633d 04c1 723e
000001c0: a21a 03be 5c25 68bd a447 843d 6b48 7cbd
000001d0: 4623 c0bc 98c7 bbbc fe33 81bd d1d0 f2bc
000001e0: dfd9 f3bd 6e7b 813e aa8e 373d d2b6 81be
000001f0: a24e 2fbe 923b 1ebd a380 06bc d02a bbbc
00000200: ed28 793e 69b4 043e 6b8c cabd f1af 6b3e
00000210: 1bcd c93c cf3f 4cbd 196d a0bd 996b 8abd
00000220: 90b2 8f3e f227 0c3d 5a5d 60be d682 45bc
00000230: 41bf f3bd 9acb 06be e19c 0b3d 400a 353d
00000240: 9688 853e fca8 a53e 197e 883d 1a72 c73e
00000250: 9474 e73d db11 a23e e3b9 4e3e 7af8 bc3d
00000260: cedf 2d3d 7033 abbe a0e5 c73d eba8 03bf
00000270: 87a6 36be 7ecf 1ebe d77e f3bc 963f 883e
00000280: b6da 043e 1b03 c6be 3586 463d 533c 433c
00000290: b15c 0a3e b5f7 c9bd 4c55 483d 32c2 b73d
000002a0: 5249 3d3e 9435 49be 9ffe 57be 4bf9 02bf
000002b0: 47b9 98be 900f 853d 9116 a93e d3eb 483e
000002c0: 8135 153e 6b2a 0b3d 1796 783e 47a0 673e
000002d0: 059b adbe c887 bbbe f247 8abe 9fa0 443e
000002e0: 673e 5d3e 6fef 8bbd 9c88 933e c2fd 133e
000002f0: 7af8 47be 272c 23bc caad 26be dffd 09be
00000300: 881b 2abe 5f91 1abf 2ca9 c3bd cc57 90be
00000310: d461 2dbe a1f6 563e 5989 963e 4f33 afbe
00000320: 08ea 74be c416 c2bd 2592 5f3d 9bcb 19be
00000330: 186d 813e 95b0 9bbc 32e7 003e 7e79 823e
00000340: ee81 a73e 14b1 583d c8b9 ef3d 9a13 b9bd
00000350: 5cac 773e 0042 7c3e 5207 433d 59e6 b33d
00000360: e780 11bd ff53 493e cb33 c63e 5500 303e
00000370: b394 2dbe de9f 71be 581f 8cbd ec23 adbd
00000380: 477c 6fbd e7f5 77bd 380e ab3e 815c c63d
00000390: f012 9f3c ca5f cc3c bc49 8a3e c7f1 aa3c
000003a0: 9b4a 2f3b 097d 8cbc 8324 acbc 89ab 033d
000003b0: 66b0 2a3e 9179 273e f251 6bbe 0d94 6abe
000003c0: 7642 ba3d 6577 0e3c abb3 40be cb71 813e
000003d0: 454b 9e3e fc81 243e d16b f5bd a7d5 033d
000003e0: d64f 92bb 74c2 1c3e 7782 25be f1ac e63d
000003f0: 5af3 6b3e 290f cf3d 791e 71be 04c3 d3bd

conv6.bias f4 [64]
0.13534102 -0.06575603 -0.11106207 0.19946678 -0.12319855 0.2950345 0.117834024 0.06805118
0.1381142 0.06464395 0.14202736 0.2890144 0.11735847 -0.29706594 0.078226924 -0.27434543
0.39977905 -0.10604722 -0.19067864 0.06178774 -0.14330254 0.033811025 -0.06631779 -0.11232531
-0.1302985 0.082819186 -0.31616333 0.079240024 -0.1957136 -0.094861075 -0.31842306 0.07013083
-0.15128416 -0.4764952 -0.33760482 0.11909067 -0.13989559 -0.15114532 -0.10899496 -0.041721873
-0.1128519 -0.053360283 -0.24136713 -0.16399337 -0.1364493 0.13987176 0.033646964 0.24603136
-0.1761459 0.00745657 0.18157077 0.1188513 -0.24949743 -0.3758825 -0.26537865 0.17589678
0.08247364 0.2152794 0.33481377 -0.07691335 -0.41602367 -0.16696362 0.32791388 -0.090306394
00000000: d696 0a3e 19ab 86bd 8374 e3bd 0541 4c3e
00000010: 854f fcbd c30e 973e f752 f13d 6b5e 8b3d
00000020: cf6d 0d3e 0c64 843d 9f6f 113e b2f9 933e
00000030: a359 f03d 0719 98be 7035 a03d 0177 8cbe
00000040: d7af cc3e 492f d9bd 4341 43be 2415 7d3d
00000050: e7bd 12be 6e7d 0a3d 9fd1 87bd d00a e6bd
00000060: f86c 05be 1b9d a93d 29e0 a1be 9848 a23d
00000070: 2569 48be 8646 c2bd 5908 a3be c1a0 8f3d
00000080: 3cea 1abe 2ef7 f3be 8ada acbe cfe5 f33d
00000090: ca40 0fbe d7c5 1abe c038 dfbd 8ee4 2abd
000000a0: e61e e7bd 5090 5abd f228 77be e1ed 27be
000000b0: 5eb9 0bbe 8b3a 0f3e 66d1 093d a5ef 7b3e
000000c0: 975f 34be 3e56 f43b b0ed 393e 4f68 f33d
000000d0: 417c 7fbe ac73 c0be b6df 87be 491e 343e
000000e0: f1e7 a83d 3472 5c3e b66c ab3e bf84 9dbd
000000f0: 0e01 d5be 83f8 2abe 54e4 a73e 8ff2 b8bd
