model/model_2.pth (torch_old, 571877 bytes, 24 tensors)

conv1.weight f4 [32, 3, 2, 2]
000000 30 75 1a bb 4d 26 d1 bd 75 33 bd bd 41 c7 92 3e
       -0.0023568384 -0.102123834 -0.0923833 0.28667644
000010 82 61 e3 be 34 06 4a 3e aa b0 4b bd a9 79 af 3e
       -0.4441033 0.19728929 -0.049729027 0.34272507
000020 71 a7 56 be 4b 78 f6 bd 9f d2 d2 3c a0 c7 e9 3d
       -0.20962311 -0.12034663 0.025735198 0.114150286
000030 11 fb 23 3e 12 de 2a be ab 73 eb 3d ba 44 86 ba
       0.16013743 -0.16686276 0.11496671 -0.0010243871
000040 28 be 97 3d 85 0e 9e bd 5b 58 b3 3e 1a 0e 8a 3d
       0.07409316 -0.07717613 0.35028347 0.06740971
000050 a7 be c5 bd b3 ef 7e be 95 23 bd 3c 6a bd 19 be
       -0.09655505 -0.24896125 0.023088256 -0.15013662
000060 ff c2 22 be fd ab e4 3c 46 e8 d4 3d c2 55 3c 3e
       -0.15894698 0.027914042 0.10395865 0.18392089
000070 f7 5a 9e be cd 7b 69 3e f3 73 33 3d 58 21 a9 3e
       -0.30928776 0.22801133 0.04381175 0.33033252
000080 3f 92 17 3e dd b1 5d be bd b7 a5 be f2 c4 a8 bd
       0.14801882 -0.2164988 -0.32366744 -0.08240689
000090 b3 2e ad 3e c7 6c 8a bd ee ec 18 3d 6c 52 92 be
       0.3382469 -0.06759029 0.03733533 -0.28578508
0000a0 b8 19 c0 3e 30 bb 29 be 52 cf 3d 3e 66 14 05 be
       0.37519622 -0.16575313 0.18536118 -0.12996063
0000b0 da 0e 7f bd 0d d3 bb 3d 70 c0 51 be bd 6c c2 bd
       -0.062270023 0.09171114 -0.20483565 -0.094933964
0000c0 46 98 1f be 24 61 ab bd 12 5f b7 be c5 53 31 be
       -0.15585431 -0.083681375 -0.3581472 -0.17317112
0000d0 08 6b 2c 3e 00 b9 89 bd 0a ba 91 3e a2 63 82 3e
       0.16837704 -0.06724739 0.2846225 0.2546664
0000e0 df c5 25 b9 27 34 56 be 94 c5 2d 3e 94 2e bb 3d
       -0.00015809339 -0.20918332 0.16969901 0.091397434
0000f0 14 e7 42 be c2 f8 14 3e 99 5d 65 3e 3b 90 87 3e
       -0.19033462 0.14548019 0.22398986 0.26477227
000100 fc 55 44 be d0 53 dd bd de b5 a1 3c a9 d3 f8 3c
       -0.19173425 -0.108070016 0.019740041 0.030374365
000110 f0 fa a3 be 5f 1e a8 be e7 f0 fe 3d e6 72 04 be
       -0.32027388 -0.3283567 0.12448292 -0.12934455
000120 67 b7 4b 3e a6 41 af 3d 5a ea 03 3e f6 4f f7 3d
       0.19894181 0.08557443 0.12882367 0.12075798
000130 cc f3 d5 3d a6 81 1e 3e a1 83 82 be bd e0 3b 3e
       0.10446891 0.15479144 -0.2549105 0.1834745
000140 b7 37 87 be 0b 6d 7b be cc 93 96 bc d2 dd 53 bd
       -0.26409695 -0.24553315 -0.018381022 -0.051725216
000150 e1 aa 64 3e 8a d9 ad bb d0 ae df be dc 98 08 3e
       0.2233081 -0.0053054737 -0.4368806 0.13339561
000160 e0 3b 5d 3d 75 67 bd 3e ae 96 ee bc 0a e9 5b be
       0.05401218 0.36992994 -0.029124584 -0.21475616
000170 50 5b 2c 3e 62 5e 75 3e 13 4e 96 be 97 7c 27 be
       0.16831708 0.23961785 -0.2935644 -0.16356121
000180 06 3d 3a 3d 23 5c 1e be 4d 8c 2a 3d 5e e3 9b bd
       0.045468353 -0.15464835 0.041637708 -0.07611726
000190 aa 69 20 3e f3 f7 a3 be 1b a5 90 3e 84 70 8a 3d
       0.15665308 -0.32025108 0.28250965 0.06759742
0001a0 3d 94 56 be b7 59 b7 be 8b a3 e4 3e 29 0e a1 3d
       -0.20954986 -0.35810634 0.44656023 0.07864029
0001b0 5e 5c f6 3d af e6 5c bd b7 b6 b7 3c c5 35 11 3e
       0.120293364 -0.053930935 0.022425992 0.14180668
0001c0 1c 79 8f 3e 20 3f 5b be 8c 29 31 3d f7 3d 6a 3e
       0.28022087 -0.21410799 0.043252513 0.228752
0001d0 51 1a 34 3e 9b 06 12 3e c7 af 5b be 5f 83 4c be
       0.17588164 0.14260332 -0.21453772 -0.19971989
0001e0 c1 e3 ee bd fd 14 d4 3d 6d 5b 5b 3e ca c2 7d be
       -0.11664534 0.10355566 0.21421595 -0.24781337
0001f0 ed 4b 75 3e ab f7 8b bd 41 7b a9 be 55 cd b8 bd
       0.23954745 -0.06834348 -0.33101848 -0.09023539
000200 4f 2f 88 3e 08 f5 ab 3e 2d 4b 4b be d4 72 09 3d
       0.26598594 0.33585382 -0.19852896 0.033556774
000210 bb 89 8d 3e 63 b4 5f 3e cd 66 c5 3d 16 5b 02 3e
       0.27644143 0.21846156 0.09638748 0.12730059
000220 3a a4 d7 3d 48 15 1f 3d 23 80 d8 be ec 1e d2 be
       0.105293706 0.038838655 -0.4228526 -0.41039217
000230 d3 06 c5 bd 4a 19 49 3d 92 37 8e be 1a e2 a4 3d
       -0.09620442 0.049096383 -0.27776772 0.08050938
000240 d2 9e 76 3d 2b 0c 59 ba aa e3 62 bd 44 31 50 3d
       0.060210057 -0.0008279706 -0.0553929 0.050828233
000250 b1 6a 38 3e 8d af 99 3e 7b 24 52 be 86 53 99 3e
       0.1800945 0.30016747 -0.20521729 0.29946536
000260 b8 af 37 bd 32 7f 6f 3d ab e8 c6 be 71 e8 54 be
       -0.044845313 0.058470912 -0.38849387 -0.20791794
000270 da 09 89 be 46 b9 02 be 21 1a 83 3e 3f 56 0d 3d
       -0.2676533 -0.12765989 0.25605872 0.03450608
000280 15 1e 8d be 9b 24 32 3e 36 63 cc 3d a1 29 9e 3e
       -0.27562013 0.17396776 0.099798605 0.30891135
000290 de d3 72 be 1a 48 ef 3d 54 02 db bd db b2 95 3d
       -0.23713633 0.11683674 -0.106938034 0.073095046
0002a0 07 3c d0 be 67 88 81 be 01 26 2f be 8b 0e 05 3e
       -0.40670797 -0.2529938 -0.17104341 0.12993829
0002b0 c4 1a d5 bc d2 d2 05 3d 5d 21 8e 3e aa a0 ae 3e
       -0.02601374 0.032671757 0.2775983 0.34106952
0002c0 5b 01 e1 3d b6 07 06 bd 77 ef 64 be cf 53 94 3e
       0.10986587 -0.032722197 -0.22356974 0.2897019
0002d0 09 67 67 3d 17 c0 73 3d a3 ca 52 be 0b ff e6 bd
       0.056494746 0.059509363 -0.20585112 -0.11279114
0002e0 08 19 99 bd a0 f2 9c 3e f6 ea 4e be a7 cc 86 be
       -0.074754775 0.30653858 -0.20206818 -0.26328012
0002f0 40 bb ce 3d 66 a8 0f be 47 e6 48 3e e3 f3 0d be
       0.10094309 -0.14029083 0.19619094 -0.13862567
000300 7d a2 dc bc 32 32 2f bd 48 af 95 3e 2c c3 a2 be
       -0.02693295 -0.04277248 0.2923529 -0.3178953
000310 88 b8 29 3e d7 df 23 3d 92 5f 9c 3e 30 1d c6 be
       0.165743 0.040008392 0.30541664 -0.38694143
000320 0e 70 23 3e 64 79 96 be 4f c5 94 3e 1e 45 8a be
       0.15960714 -0.2938949 0.29056785 -0.27005857
000330 e4 c7 82 3c ec d1 21 3d 26 a9 1f be a6 69 ac 3d
       0.015964456 0.039506838 -0.15591869 0.08418588
000340 a2 cb 09 be e4 8c 2c 3e ec f8 e2 bd da ab 2e 3e
       -0.13456586 0.1685062 -0.11082634 0.17057744
000350 82 5e 00 bf f5 c4 37 3e fc 81 45 3d e7 1e 7f 3e
       -0.5014421 0.17946227 0.048219666 0.24914132
000360 42 8b 3e 3e a8 bc 10 be 0f c5 e9 bd d9 e4 a5 3e
       0.1860781 -0.14134467 -0.11414539 0.3240116
000370 e2 73 ab be 86 07 9f 3e 21 e6 aa be 86 e4 1d be
       -0.3348685 0.31060427 -0.333787 -0.15419206
000380 0d 7c f3 3d 3a 1f bd bd 6e fc 97 bd 1e ab a9 3e
       0.11888895 -0.092344716 -0.07421194 0.33138365
000390 b8 e3 38 3e 49 22 b3 3e ed 6e 2f be 8b e7 70 be
       0.18055618 0.34987095 -0.17132159 -0.23525827
0003a0 73 f0 8a 3e 67 54 c5 3d 47 7d 6d be 72 cf 8d 3d
       0.27136573 0.09635239 -0.23192321 0.06924333
0003b0 d1 e9 9e be cd 5f 77 3e 10 0b aa 3b 39 cd a6 be
       -0.31037763 0.24157639 0.005189307 -0.32578447
0003c0 ea 38 92 be 0e 75 6c bd 68 36 06 3e 65 e5 bb 3c
       -0.28559047 -0.05772882 0.13106692 0.022936532
0003d0 98 25 6d be cd 50 82 bd 87 16 91 be 4c cf 4a be
       -0.23158872 -0.06363068 -0.283375 -0.1980564
0003e0 5c cc 1a be 9b 8e 90 3e ae 9b bf 3e 48 20 05 3d
       -0.1511702 0.282338 0.37423462 0.03250149
0003f0 84 2d 12 bd 0a de 04 3e c8 65 ca bd ab 2a 7f be
       -0.03568794 0.12975326 -0.098826945 -0.2491862

conv1.bias f4 [32]
000000 db 1d bc bd 82 98 fc 3d 3b d3 1f bc 25 6d db 3d
       -0.09185382 0.12333776 -0.009754951 0.10714177
000010 d2 4a 3d bd a4 76 4f be e6 4a a8 bd 80 7c 00 3e
       -0.046213932 -0.20260102 -0.08217411 0.12547493
000020 9d ab cd 3d 2d ce 74 be 45 5e 02 3e a8 ba 20 bb
       0.10042498 -0.23906775 0.12731273 -0.0024525318
000030 14 ee 44 3e 8a c5 c0 3d 33 bd 2a 3e bf 23 b5 bd
       0.19231445 0.094126776 0.16673736 -0.08844709
000040 fa 15 97 bc 54 10 f3 3d b0 3b e1 3c 82 1d 8d be
       -0.018443096 0.11868349 0.027494282 -0.27561575
000050 f6 84 70 be 17 98 f4 be db ad c7 3d 0d 51 97 be
       -0.2348822 -0.47772285 0.09749957 -0.29554024
000060 88 49 b6 3d 71 25 96 bc 02 5e 69 be 73 9e 7f 3c
       0.08900744 -0.0183284 -0.22789767 0.015601742
000070 a2 e3 e7 3d e7 33 7f be e4 13 a6 bd 13 ed bb 3d
       0.113227144 -0.24922143 -0.081092626 0.09176078

conv2.weight f4 [32, 32, 2, 2]
000000 a7 9c 80 be 01 bb aa bc 54 90 fd bc 36 48 39 bb
       -0.25119516 -0.020841124 -0.03095261 -0.00282718
000010 f1 2e 78 3c 68 7c a4 3d 96 b3 b2 3d d8 08 13 3e
       0.01514791 0.08031541 0.087256595 0.14358842
000020 99 bd 5d 3d b2 0e 66 3c 49 52 33 3d 6f 84 32 bd
       0.054135893 0.01404159 0.043779645 -0.04358333
000030 7c fc 28 3b 97 c8 af bd 0d 28 38 3d d9 97 86 bd
       0.0025785258 -0.08583181 0.04496007 -0.065719314
000040 cd a4 e5 3b a0 7d d0 3d 5d 47 43 bd 66 93 d7 bd
       0.007008171 0.10180211 -0.04767548 -0.10526161
000050 ca 58 c2 bc 9c 5e c0 bc 24 7c 96 bd de 56 cd bc
       -0.023723979 -0.023482613 -0.07347897 -0.025065836
000060 9c 58 5c bd 2e 28 7c 3d 16 c2 af bd 9d 38 35 3a
       -0.053795442 0.061561756 -0.08581941 0.0006913038
000070 27 07 d9 be 62 02 a5 be 1a 3e 26 be ae 28 aa be
       -0.4238827 -0.3222838 -0.16234627 -0.3323416
000080 2b 4f 3e 3d 09 69 b1 3c 35 68 1c 3e c5 33 84 3e
       0.04646222 0.02165653 0.15274127 0.25820747
000090 fe 2e d2 3d 00 1c 91 bd a6 23 f4 3d 65 7d 1b 3d
       0.10262869 -0.07085419 0.11920862 0.037961382
0000a0 c4 51 f1 bd 1a f2 7e bd ad 99 6c 3c 13 3f 71 bd
       -0.11783174 -0.062242605 0.014440936 -0.058898043
0000b0 4e cf 89 bd de 3f 5f be c6 1c e4 3d b0 b2 75 bd
       -0.06728993 -0.21801707 0.111383006 -0.059984863
0000c0 b1 2f da bc d2 09 c9 bd 78 b2 6a 3d b1 69 f4 bd
       -0.02663407 -0.09816326 0.057299107 -0.119342215
0000d0 4c 97 5e 3e d6 8f 7f 3d 05 d0 68 3d 88 ba 46 3d
       0.21737403 0.062393032 0.056839008 0.048517734
0000e0 8e 62 2c 3e 23 67 d6 3d 74 36 18 3e ef 64 0c 3e
       0.1683447 0.104688905 0.14864522 0.13710378
0000f0 11 d8 ad bd 45 7a 28 3e 9a 1d 5c bd 90 e1 c4 bd
       -0.08488477 0.16452892 -0.053739168 -0.09613335
000100 f9 0e 9c 3d f2 28 e2 bd f7 83 0d be a5 7d 2b 3d
       0.07620043 -0.11042966 -0.13819872 0.04186787
000110 db 0d 4c 3c 56 66 27 be 39 be b0 bb fd b2 9b 3d
       0.012454475 -0.16347632 -0.00539377 0.07602499
000120 84 08 0c be c1 db 42 3c aa f6 99 bd 69 cc 73 bd
       -0.13675123 0.011893214 -0.075177506 -0.059521113
000130 e6 93 bc bd c6 17 8c be b0 75 74 3c 34 6a 06 be
       -0.09207897 -0.27361888 0.014920637 -0.13126451
000140 4b b2 1f 3e 27 85 5b 3e 87 a0 82 be d6 bf df ba
       0.15595357 0.21437512 -0.25513098 -0.0017070721
000150 8a a5 15 be 0d 98 03 be 20 5f 49 bd 4c fb 23 3b
       -0.1461393 -0.12850972 -0.049162984 0.002502161
000160 d6 9a 17 bd 3c 75 8a bc b5 e6 be bd 50 dc df ba
       -0.037012897 -0.016901605 -0.093213476 -0.0017079208
000170 a2 5e 9e 3e 4a 2e e3 3d da a8 0e be 46 93 0d be
       0.30931574 0.11092813 -0.139316 -0.13825712
000180 d8 9e 94 be 73 4a 16 bd b4 d7 c4 bd 65 2c c6 be
       -0.29027438 -0.036692094 -0.096114546 -0.38705745
000190 d9 02 19 bd 5f 26 af 3d d7 d4 41 be dc 60 6b bc
       -0.03735623 0.085522406 -0.18928848 -0.014366355
0001a0 f2 cc 4e 3b 8d 4f eb 3d 91 53 97 bd cf 1e 9e bd
       0.0031555262 0.114897825 -0.07388986 -0.0772072
0001b0 eb d1 57 3b ea e8 4c bc 09 e5 ff 3d 74 35 51 3e
       0.0032931517 -0.012506703 0.12494857 0.20430547
0001c0 58 ac 42 3e 95 a5 2e 3e 58 c1 89 3e 46 b0 b5 3e
       0.19011056 0.17055352 0.26905322 0.35486048
0001d0 bb 09 bb 3d 32 09 36 3e c2 bc 2a be 33 5f 64 bd
       0.09132715 0.17776945 -0.16673568 -0.05575485
0001e0 3e 0b 57 bd 44 94 ed 3d 36 c7 b5 bd 29 04 f5 3d
       -0.052500956 0.11600545 -0.08875887 0.11963684
0001f0 f5 76 35 3e 71 0f 81 3b 58 56 d5 3d 1f 16 17 3e
       0.1772116 0.0039386083 0.104168594 0.14754532
000200 8b b0 43 be 0d df 52 bd 74 b1 30 be 5c a3 1c bd
       -0.19110315 -0.05148225 -0.17255193 -0.03824173
000210 8b 30 5d be 58 68 dd bd 97 30 37 be ae ee 4e be
       -0.21600549 -0.108109176 -0.1788963 -0.20208237
000220 bf ca 1f bd 2a eb ef bd 21 b6 db bd 09 80 68 bc
       -0.039011713 -0.11714776 -0.10728098 -0.014190682
000230 28 32 d1 bd e7 49 52 be 5b 58 6d be 60 72 71 be
       -0.10214645 -0.20536004 -0.23178236 -0.23578787
000240 de a1 48 be b7 14 5e be 09 3f 3f be 76 ae 7d be
       -0.19592997 -0.2168759 -0.1867639 -0.24773583
000250 f8 1f 00 3e 8d d9 15 3e 81 ba aa 3d 3b e2 19 3e
       0.12512195 0.1463377 0.08336354 0.15027706
000260 cd 9f af bd 2a 38 2c bd db fe a6 bc 26 f5 23 bd
       -0.085754015 -0.04204575 -0.020385196 -0.040028714
000270 47 78 2a be ef 7a fe bd 01 98 25 be 7e 0b a5 bd
       -0.16647445 -0.124257915 -0.16171266 -0.080588326
000280 3c 22 3d be b8 89 40 be 6b 9d 3d be 1b a8 5a be
       -0.1847009 -0.18802536 -0.18517081 -0.2135319
000290 f8 cf bb bd 3b 23 fa bd 3e f4 31 be a1 73 b0 bd
       -0.09170526 -0.12213751 -0.17378327 -0.086158045
0002a0 33 f1 8f bc 3a 64 e9 bd 91 87 d0 bd 3c 5b 07 bc
       -0.017571067 -0.1139607 -0.10182107 -0.008261498
0002b0 f6 b7 22 3e e1 08 46 3e 3c c0 e6 3d fb 23 44 3e
       0.15890488 0.19339325 0.112671345 0.1915435
0002c0 08 05 8b be cc 9c 81 be 43 c4 ab be 8f a4 4e be
       -0.27152276 -0.2531494 -0.33548173 -0.20179962
0002d0 e6 63 45 be 46 c9 4e be de 41 43 be 29 ca b6 bd
       -0.1927639 -0.20193967 -0.19068095 -0.08925278
0002e0 a1 e5 e4 bd 85 25 66 be 4e 16 f7 bd 22 d0 47 be
       -0.11176611 -0.2247525 -0.12064801 -0.1951299
0002f0 87 2b 84 3d 1c b1 54 3d c5 f2 19 3e 20 33 47 3e
       0.06453615 0.051926717 0.15034015 0.19453096
000300 cc db a1 be f0 f6 27 be 1b 7a 42 be 5d 39 36 be
       -0.31613004 -0.16402793 -0.18991892 -0.1779532
000310 17 ac 0f be 06 20 e3 bd fd 9c 06 be e4 5f d4 bd
       -0.14030491 -0.11090092 -0.13145824 -0.10369852
000320 e7 b9 95 3d 6d ea 85 3d bc 78 d9 3d 2d de 4f 3d
       0.07310849 0.06538854 0.106187314 0.050748993
000330 6e 7f 20 bd bf 81 dc bd 82 c2 1c 3d e0 4f 56 3b
       -0.039184026 -0.107669346 0.038271435 0.0032701418
000340 73 be 45 3e 62 5d 61 3e 74 82 e2 3d 5c 5e 47 3e
       0.19310932 0.22008279 0.11060038 0.19469589
000350 89 b0 68 bd 04 e4 e9 3c f7 1b 8f 3d 36 b9 af bd
       -0.056808982 0.02855111 0.06987756 -0.08580248
000360 a9 a3 8f be be 84 79 be 4e 95 a2 be da 8a 49 be
       -0.2805455 -0.24367043 -0.31754535 -0.19681874
000370 0c 18 20 be ac 94 4e be e3 97 5b be fe 42 55 be
       -0.15634173 -0.20173901 -0.21444659 -0.20826337
000380 9e 28 4c be 34 2a 36 be d1 f3 f0 bd 37 9e a2 bd
       -0.19937369 -0.17789537 -0.11765254 -0.07940333
000390 f4 06 c7 3d 96 d2 a0 3c e3 01 28 bd ea 3b 3d 3d
       0.09718123 0.019631665 -0.041017424 0.046199717
0003a0 4a 36 af bd 79 f7 04 bd 42 0a 9b bd ce bb 72 3c
       -0.08555277 -0.03246257 -0.07570316 0.014815284
0003b0 a5 d0 8c bc 5c b1 1f bd 02 5a bc bc 4a 34 be bc
       -0.017189333 -0.038987502 -0.022992138 -0.023218293
0003c0 53 f7 a5 bd c6 be 10 3d ed d3 32 bd 60 dc 14 bc
       -0.08103814 0.035338186 -0.04365914 -0.009085745
0003d0 82 43 19 be bd f5 ca bc 6d f0 fb bd d3 4b 4f be
       -0.14967158 -0.02477538 -0.12301717 -0.20243768
0003e0 f2 0c 93 3d 95 23 00 3d 9c a5 ae 3d 5e 4d ee bc
       0.071802035 0.031283934 0.08527681 -0.029089626
0003f0 a6 7f 8f be f7 49 82 be 8d 3a 34 be 3c c8 48 be
       -0.28027076 -0.25447056 -0.1760046 -0.19607633

conv2.bias f4 [32]
000000 67 5b 02 3e aa 61 6d bd fc 83 d9 bd 0e 62 b4 bd
       0.1273018 -0.057954468 -0.10620877 -0.08807765
000010 09 47 50 3d d5 1a b9 bd 3a 6a f3 bd 7b b7 e4 3d
       0.050848994 -0.09038321 -0.118854955 0.111678086
000020 73 f7 7a bd 4f 2e 28 3d 06 0f e6 bd f5 93 e3 3d
       -0.061271142 0.04105979 -0.11233334 0.11112205
000030 21 97 93 bc d6 0d 62 bd 51 94 62 be 43 3a b5 bd
       -0.0180164 -0.055188976 -0.2212689 -0.08849003
000040 43 6d 54 3c 4b ef e7 3c db b4 51 3d 2c 10 d4 3d
       0.012965503 0.028312346 0.051197868 0.10354647
000050 6b 4f 03 3d 82 a5 26 be ce 22 9d 3c c1 e7 05 3e
       0.03205816 -0.16274074 0.019181635 0.13076688
000060 41 35 5c bd 21 42 20 3e 0a 38 83 bd c1 0a 00 be
       -0.053761724 0.15650226 -0.06407173 -0.12504102
000070 8a 0a 9c 3d aa ff 04 3e d6 c6 5b 3e ac 7e 9e bd
       0.07619198 0.12988153 0.21462569 -0.077390045

conv3.weight f4 [64, 32, 2, 2]
000000 e7 99 65 be e5 db 5b 3d a1 97 b0 bb f0 06 87 3e
       -0.2242199 0.053676505 -0.0053891693 0.2637248
000010 2b 78 45 3d a3 d1 9d bd 1f 74 d6 3d 9b 8a 30 be
       0.048210304 -0.07706001 0.10471367 -0.17240374
000020 cc 5b 74 3d 78 f5 95 3d bb 6d b9 3d 7e 3d f6 3c
       0.059657857 0.0732221 0.090541326 0.030058619
000030 20 f0 61 3d 22 0c 71 bd 07 c7 69 3c de e9 be 3c
       0.05516064 -0.05884946 0.014268643 0.023304876
000040 1e ed 0b bd 3e b6 33 bb fd 3f da 3b a1 42 8e 3d
       -0.03416168 -0.0027421857 0.00666046 0.06946302
000050 db e2 92 bd b8 cf 45 3d 96 24 6f bd cd e0 28 3d
       -0.071721755 0.0482938 -0.0583845 0.04123001
000060 aa b4 61 3d 6a 3a 7c bd 97 e9 39 bd ce e9 86 bd
       0.055103935 -0.061579145 -0.045388784 -0.065875635
000070 03 6c c6 bd 37 d2 df bd a9 1b 4c be d1 d0 76 be
       -0.0968857 -0.10928767 -0.19932427 -0.24103095
000080 ca 2a ed bc 0b 1d bd bd 26 04 d6 3c 76 55 ce bc
       -0.028951067 -0.09234055 0.026125025 -0.025187235
000090 ad ef 78 3d c9 9f 88 bd 36 06 ae 3d c7 59 89 be
       0.060775448 -0.066711016 0.084972784 -0.26826307
0000a0 47 30 46 bd 60 f4 6a 3d e3 e2 29 be e1 f4 71 be
       -0.048385885 0.05736196 -0.16590457 -0.2362857
0000b0 38 77 06 3e 90 06 a2 3d 8e fb 63 3e a9 6c 65 3d
       0.13131416 0.07911408 0.22263929 0.05601183
0000c0 a8 73 f1 3b 96 3c 2f be 6e ea 2f 3e 18 6c d1 bc
       0.0073685236 -0.17112955 0.17179272 -0.025564238
0000d0 e9 d6 db bd f4 8d 89 3c c5 f4 a2 bc 1c be 5e be
       -0.1073435 0.016791321 -0.019892106 -0.21752208
0000e0 68 37 0b be 18 b3 79 bc f1 89 b9 3d 47 eb bd bd
       -0.13595355 -0.015240453 0.09059513 -0.09273391
0000f0 92 a2 df 3d 09 8e 8e 3d 01 49 6e 3d 6e 0f 7f 3d
       0.1091968 0.06960685 0.05817509 0.062270574
000100 72 d3 40 3d 98 d5 b5 3b fe 1f b3 3d c5 87 10 3a
       0.04707665 0.005549144 0.087463364 0.00055133953
000110 0c f4 4f 3d 4a 09 14 3d 80 ea ad bd 73 98 8d bd
       0.05076985 0.03614167 -0.08491993 -0.06913843
000120 14 c4 08 3e 3e 82 d0 3d 42 ea 12 be 07 bc 2c 3d
       0.13356048 0.10181092 -0.14347175 0.042171504
000130 4f 95 85 3e 76 7d 5e bd 66 92 6a 3b ea 56 9a 3d
       0.26090476 -0.054318868 0.0035792827 0.07536109
000140 9f db 05 be bc ae 95 bc 61 ee c5 bb 70 38 04 3e
       -0.1307206 -0.018271796 -0.00604038 0.12912154
000150 42 bd 10 3e 3c 67 fe 3d c2 69 c7 bd 29 dc c3 3d
       0.14134696 0.12422034 -0.097369686 0.095634766
000160 91 08 95 bd b5 61 b8 bc 03 41 27 be a4 f0 7d 3d
       -0.072770245 -0.022507528 -0.16333394 0.06199707
000170 79 51 af be c7 ed 47 bd 55 fb 5e 3e 99 53 39 3e
       -0.34241846 -0.048810747 0.21775563 0.18098296
000180 48 49 76 3d 79 88 17 be d4 a9 f0 3d 64 92 31 be
       0.06012848 -0.14798154 0.11751142 -0.17341
000190 4a 2d 16 3e 52 61 9b bd 7c 21 42 bd dc 25 26 be
       0.14665714 -0.07586922 -0.047395214 -0.1622538
0001a0 75 59 b2 bd e1 b9 62 be 66 5a 8c bd 21 96 4c bb
       -0.08708469 -0.2214122 -0.0685318 -0.0031217413
0001b0 f4 8e 89 3d 7e d2 50 3c 09 99 a2 bd 3b 25 30 bc
       0.06716719 0.012745498 -0.079393454 -0.010751064
0001c0 45 de 21 3e 4e 01 3f bc 12 5b 98 3d d9 04 c1 3c
       0.15807445 -0.011658026 0.07439245 0.023561882
0001d0 db 84 45 3e 9a fb 98 3c ab 5d 16 3d 4d d7 85 bd
       0.19288962 0.01867466 0.036710422 -0.06535206
0001e0 24 5e e7 3d ee 84 ad 3d 6c 6f 82 3d 53 49 9d 3d
       0.11297253 0.0847262 0.06368908 0.07680001
0001f0 a6 4a e0 bc 3b e7 bd 3c f6 c6 83 3d b2 a2 c4 3b
       -0.027379345 0.023181548 0.06434433 0.00600084
000200 fd 37 db bd 61 0d 59 be b1 aa b1 3d 98 52 bd 3d
       -0.10704038 -0.2119651 0.08675135 0.09244269
000210 41 9d 3a 3e f9 73 4a 3d c2 b7 24 3e 21 9c ad 3d
       0.1822405 0.049427006 0.16085723 0.08477045
000220 72 73 1b 3d 16 db 32 3b 5f 7e d6 bd e5 ef a5 bd
       0.037951894 0.002729123 -0.10473322 -0.08102397
000230 1d 78 79 bd d2 92 ca bd cb 13 15 3d ed 11 75 3d
       -0.060905565 -0.09891285 0.03639583 0.05983155
000240 31 e7 d3 bc 56 ec 14 3b 47 3c 1c be e2 db 88 bd
       -0.025867077 0.0022723875 -0.15257369 -0.06682564
000250 74 d6 f1 bb 78 f6 d1 bc f0 33 d1 bc 0b ce 75 3d
       -0.007380301 -0.02563022 -0.025537461 0.06001095
000260 ce b4 71 bc 3f e1 d1 3c b4 80 6d 3d c5 ad 16 3d
       -0.01475258 0.025620101 0.05798407 0.036786813
000270 28 43 05 bd 55 2a 23 be 37 ff b4 3c 92 11 46 be
       -0.03253475 -0.15934117 0.022094352 -0.1934264
000280 67 b3 0c bc f4 63 63 3c 4d c7 6e bc 9e 0e 9b bc
       -0.008587695 0.013878811 -0.014573884 -0.018927868
000290 5a b7 13 3d aa ff 85 3d 1c 52 13 be 74 29 06 be
       0.03606353 0.06542905 -0.14386791 -0.1310175
0002a0 2b 86 21 3c 5a 16 0c 3e 36 a3 80 bd c5 c9 74 3b
       0.009858648 0.13680401 -0.0628113 0.003735171
0002b0 ce 6c c6 3c dc 44 68 be b0 57 37 3e e7 6f a8 bd
       0.024221804 -0.22682518 0.17904544 -0.08224469
0002c0 5b e6 18 3e 95 6b 1d 3e 6c 49 62 3b 4e ed b7 bd
       0.14931624 0.1537307 0.0034528626 -0.08980809
0002d0 7c ca e8 3d bd f0 0b 3d 2a 61 0e 3e 62 ad 6a 3d
       0.11366746 0.034165133 0.13904253 0.057294257
0002e0 83 c5 87 bd 0d ad 0d 3e 6c a6 cc be 6e f8 29 be
       -0.06629469 0.13835545 -0.3997072 -0.16598675
0002f0 c4 01 f1 bc 0f 97 b1 3d 0b 33 25 bd e8 5f 15 3d
       -0.029419787 0.0867139 -0.04033188 0.036468416
000300 3e d9 5d 3d c7 cc aa bd 56 3f a9 bd 82 bd 90 3b
       0.054162256 -0.083398394 -0.082640335 0.0044171223
000310 74 1c 83 bc 33 38 8e bd 4e ea 9c bd e4 8c a4 3d
       -0.016004778 -0.06944313 -0.076618776 0.08034685
000320 cb b6 61 bd 6b 8c 71 3d b3 7c 80 be d8 47 b9 bd
       -0.055105966 0.058971804 -0.25095138 -0.09046906
000330 b1 3f 38 bd 9d 8d 12 3c 02 85 d8 bd 16 f8 61 bd
       -0.044982616 0.008944896 -0.10572244 -0.055168234
000340 5f d2 99 be a4 3e 63 be e8 76 47 be 4d df a7 be
       -0.30043313 -0.22191864 -0.19478953 -0.32787552
000350 cf 9c 1e 3c 61 26 1c bb 88 11 15 3d 41 cd 13 3e
       0.009680941 -0.0023826587 0.036393672 0.14433767
000360 17 14 e5 3c 0b 29 fa 3c ba 87 2c 3d 0f 7c 84 3d
       0.027963681 0.030537149 0.042121626 0.06468975
000370 6c 7a e3 bd fd 36 7b bd fa b7 5d 3e 45 a6 2f 3e
       -0.111073345 -0.061331738 0.21652213 0.1715327
000380 24 c2 0e 3e 1b 75 1f 3e b4 86 63 bd 63 29 36 bd
       0.13941246 0.15572016 -0.055548385 -0.044473063
000390 2f 3d 03 3e 85 95 d8 3d 24 ee f2 bc b4 40 1a bd
       0.12816308 0.105753936 -0.02965457 -0.037659362
0003a0 4e a5 93 be 81 a1 b5 be 42 d9 21 be 78 bf 9b be
       -0.28837055 -0.3547478 -0.15805534 -0.30419517
0003b0 46 72 8e 3c 5e 56 9a bd 10 37 1a 3d 2f fe a7 3d
       0.017388474 -0.075360045 0.037650168 0.082027785
0003c0 e6 33 74 3d cd 85 6b 3d 15 6c 11 be 67 5d 27 be
       0.059619807 0.05750065 -0.14201386 -0.16344224
0003d0 88 a7 b2 3d 08 5c dd 3d 45 ef fd bd 00 c9 8b 3a
       0.0872336 0.10808569 -0.12399153 0.0010664761
0003e0 3c fc 92 3c d9 17 3a 3c a3 a3 ab 3c f4 33 93 be
       0.01794254 0.011358225 0.020952052 -0.28750575
0003f0 02 2c 5e bd 1c 70 01 3d 3a 3d 70 bd f2 89 c7 3b
       -0.054241188 0.031601056 -0.05865214 0.0060894424

conv3.bias f4 [64]
000000 b8 f3 1a 3d e7 0b 50 3e d6 a9 56 3d a5 18 8a be
       0.037830085 0.2031704 0.052408062 -0.26971927
000010 90 b6 1f 3e 9d 1b ff bd 51 6a 8c 3d 4f 5b 55 be
       0.15596986 -0.12456439 0.06856216 -0.20835613
000020 fb 14 95 3d b5 c7 8b 3d 8a 70 2d be 6e ad a3 bd
       0.07279392 0.068252005 -0.16937461 -0.079920635
000030 8a f2 20 3d bf 7c f0 bc 59 6b b5 3d 57 d3 53 3e
       0.039293803 -0.029356359 0.088583656 0.20686089
000040 1a 18 97 bc 0a 24 87 bb b9 5c 6a 3d 23 a6 bd 3c
       -0.01844411 -0.0041241692 0.057217333 0.02315051
000050 d1 5a 21 3e d7 e1 8a 3b b1 20 97 be 6d 23 e1 bd
       0.157573 0.004238348 -0.2951713 -0.10993085
000060 38 75 14 3c e0 cb 31 bd 11 31 53 3e 5c b9 67 3d
       0.00906115 -0.04340732 0.20624186 0.056573257
000070 1f 4e 35 3e 3b c8 ca 3d c1 8f a4 3d f8 40 1b 3e
       0.17705582 0.09901472 0.080352314 0.15161502
000080 83 5e e1 3c db a3 3d 3e e9 11 a7 3c d8 a2 ec bd
       0.027510887 0.18519537 0.020394282 -0.115544975
000090 ea 8c 23 3d c4 8b 32 3e c1 45 72 bd 46 1b 51 bd
       0.039929308 0.17436129 -0.059148554 -0.0510514
0000a0 01 2c 35 3e b3 94 8f 3c a1 ab 9a bc c1 e6 09 be
       0.17692567 0.01752696 -0.018880667 -0.13466932
0000b0 09 f2 93 bc 79 59 1a bd 97 d0 de b9 a7 76 03 3d
       -0.018059747 -0.037682984 -0.0004249855 0.032095578
0000c0 ae f4 aa bd 9e e3 b0 bb f5 eb d4 3d 8d 1a 7a bd
       -0.0834745 -0.005398228 0.10396568 -0.061060477
0000d0 ca 03 0c 3d 80 af 87 be 0a cf d7 bc 65 39 09 bd
       0.0341833 -0.26501083 -0.026343841 -0.033502
0000e0 df 8f e6 3b df 1c b4 3c cd ca 8d bd cd 2a 22 be
       0.0070361937 0.021986423 -0.06923447 -0.1583664
0000f0 91 a2 ea bc 71 cb b3 3d 7c e1 25 bd 58 c7 64 bc
       -0.02864197 0.08779038 -0.04049824 -0.013963543

conv4.weight f4 [64, 64, 2, 2]
000000 99 09 4f 3d 32 1e f3 bd 78 c4 6a bc 99 bc 6a be
       0.050546262 -0.11870994 -0.014329068 -0.22923507
000010 7e 0c aa bd 3d f4 ee 3c f5 d4 c9 be 5a eb 9c bd
       -0.08303164 0.029169196 -0.39420286 -0.07662077
000020 1d 29 a9 be f9 5e dd 3d 5a ab f9 bc dc b3 c6 3d
       -0.3303918 0.1080913 -0.030477215 0.09702274
000030 db 3f 5d be ce a3 4d 3c 6a 31 29 be 6e eb bf bd
       -0.2160639 0.012551261 -0.16522756 -0.093710765
000040 1f c8 0c bd 2e be 1a be 6d 75 50 3d 04 5e 19 be
       -0.034370538 -0.1511161 0.050893236 -0.1497727
000050 65 d6 ec 3d 3e 9e bb bc b8 26 8b bc ab 1e 84 3d
       0.1156433 -0.022902604 -0.016986236 0.06451162
000060 a4 8b 4e bd c3 1a be be a2 19 92 3d 6b 72 ee bd
       -0.05042614 -0.37129793 0.07133795 -0.11642917
000070 81 c8 a8 bd 8b a5 b4 bd 43 13 3c 3d 2e 9b 11 3a
       -0.08241368 -0.08820637 0.045916807 0.00055544346
000080 ab 1b df 3d 90 58 33 be e4 0d 2f 3e 1e 7d 06 be
       0.10893949 -0.17514253 0.17095143 -0.13133666
000090 82 a3 0d be 24 d0 99 bd 4b 5c ab 3d 70 b0 28 be
       -0.13831905 -0.07510403 0.08367213 -0.16473556
0000a0 bd b0 fa bc d8 bc bb bc 5e 1f 3e be f0 95 78 bd
       -0.030601854 -0.022917196 -0.18566653 -0.060689867
0000b0 c0 9c 95 be 37 89 b9 bd e3 f9 b6 3d be 3b 35 be
       -0.29221153 -0.09059375 0.08934381 -0.17698571
0000c0 ae b5 2b be f9 ef 99 bd f0 76 17 be 07 84 a7 be
       -0.16768524 -0.07516474 -0.14791465 -0.32717916
0000d0 20 df 9a bb 2e 9b 8f bd 12 ee e6 3c 12 31 19 be
       -0.0047263056 -0.0701202 0.028189693 -0.14960125
0000e0 df f8 12 3e 41 e1 f4 bd 72 29 86 3e ca 3c 14 3e
       0.1435275 -0.11957026 0.26203495 0.14476314
0000f0 7a 98 ee 3c b5 3c 5d be ee 44 11 3e 47 24 36 bd
       0.02912544 -0.21605189 0.14186451 -0.04446819
000100 db 07 7f 3c db fe 19 be 11 2f 28 3d 56 4b de 3c
       0.015565838 -0.15038626 0.04106051 0.027135532
000110 e2 1d c4 bd 68 e5 03 3e 40 1b b3 bd 8b 98 a8 3d
       -0.09576012 0.1288048 -0.08745432 0.0823222
000120 bc 55 26 bc 0b 8b cd 3c f8 0d 3d 3e 49 7e 0f 3e
       -0.010152277 0.025090715 0.1846236 0.14013018
000130 e7 16 01 be 37 b0 69 3d 93 ca 75 be 1a ae 5d bd
       -0.12606393 0.057052817 -0.24003057 -0.054121114
000140 46 11 ed bd a5 63 b9 bd 7d 3c 67 be 56 fb 32 bd
       -0.1157556 -0.09052209 -0.22581668 -0.043696724
000150 47 30 e1 bc 03 5d 63 3e ce 07 72 be f2 24 da 3c
       -0.02748884 0.2220345 -0.2363579 0.026628945
000160 12 ba 22 3d 0c a3 9c bd 1a db 87 bb 79 ad 93 bd
       0.03972823 -0.07648286 -0.004145992 -0.07210822
000170 60 02 e5 bc 2a ed 2f 3d fb 53 0b 3d 65 49 ad 3d
       -0.027955234 0.042950787 0.034015637 0.084612645
000180 66 cd 23 bd 58 b6 b5 3d 14 e0 04 be 55 45 82 3e
       -0.039990805 0.0887267 -0.12976104 0.2544352
000190 1d 89 e6 3a e2 2b 1b 3e 62 65 c0 bd 9b 02 a1 3d
       0.001758847 0.15153459 -0.09394337 0.07861825
0001a0 15 62 55 3b 5f d2 5d be a8 88 47 3d 2a a5 45 be
       0.0032559682 -0.21662281 0.04871431 -0.19301286
0001b0 e9 4b 4c be 59 47 25 be f7 e4 7e bc 18 05 4c be
       -0.19950832 -0.16140498 -0.015557519 -0.19923818
0001c0 bb 9c 7f bd 49 bb d6 be f8 a6 b7 bc 54 92 2d be
       -0.06240533 -0.41939762 -0.022418484 -0.16950351
0001d0 17 55 48 be e0 8b cb bd 44 88 4f be d6 0c 60 be
       -0.19563709 -0.099387884 -0.20266825 -0.21879897
0001e0 1d dc bb 3c b2 45 06 3e c7 65 94 3d eb e5 28 3d
       0.022932107 0.13112524 0.07245975 0.04123489
0001f0 9a 05 bf bd 04 59 52 3e 09 dc 4c be ff b5 7c 3d
       -0.0932724 0.2054177 -0.20005812 0.061697003
000200 2c b8 98 3d b9 a7 14 ba 4a 32 01 3e f8 f1 fc bd
       0.07457003 -0.00056707446 0.1261684 -0.123508394
000210 90 27 00 3d 6e e6 f9 bd b3 20 88 3d 6a 03 04 3e
       0.03128773 -0.12202154 0.06646862 0.12891927
000220 ca 6b 91 3d d5 de 33 bd 41 c9 62 bd bc 8d 3d 3d
       0.07100637 -0.04391368 -0.055367712 0.046277747
000230 01 5b ab bd e4 8a 46 3d 63 ac bd bd 05 57 6a bd
       -0.08366967 0.0484723 -0.09261396 -0.057211895
000240 a0 80 a2 bd 8e 2c fe 3d a6 ac a4 bd bb f5 70 3d
       -0.079346895 0.12410842 -0.080407426 0.058828097
000250 b4 88 f8 bc af 9d b5 3c 8c d8 6a 3d a3 81 1b 3c
       -0.030338623 0.022169916 0.05733542 0.009491357
000260 e3 e6 95 be 5f e1 8b 3d f9 1a 00 be 85 51 e1 bd
       -0.29277715 0.068300955 -0.12510289 -0.11001877
000270 a1 6f e4 bd 29 de 2a 3e e2 69 14 be 3a e5 3e bc
       -0.11154104 0.1668631 -0.14493516 -0.011651332
000280 a0 fe a3 bd e6 d8 4f 3e 6c bf ab be 0c 84 e3 3d
       -0.0800755 0.20297584 -0.3354448 0.1110917
000290 81 b5 ef bd fc c0 30 3e ae 5e 24 be d0 ed 7a 3d
       -0.11704541 0.17261118 -0.16051742 0.061261952
0002a0 28 ec 6a be d0 8f 20 be 01 6b be bd 45 73 96 bb
       -0.22941649 -0.1567986 -0.09297753 -0.004591378
0002b0 a2 0b 7e bd e5 93 4c bd 2a d0 08 bd e8 27 ff 3a
       -0.062022813 -0.04994573 -0.033401646 0.0019466849
0002c0 cc 87 f0 3c 41 42 9f 3d b1 a4 47 3d 2a b2 9a 3e
       0.029361628 0.07776309 0.048741046 0.30214053
0002d0 fa bd 2b be b6 6a 1c bd 38 4f dd bd cb 03 d6 bc
       -0.16771689 -0.038187705 -0.108061254 -0.026124856
0002e0 e9 52 a9 bd e8 59 a5 be 06 a9 3a 3e 9f 05 2f be
       -0.08267767 -0.32295156 0.1822854 -0.17091988
0002f0 3f 2f a4 3d a2 c9 88 be fe 5b 1d 3e 12 60 80 bc
       0.08016824 -0.26716334 0.15367123 -0.01567081
000300 96 86 ae bd 39 30 0b 3d 04 0b 84 bd 1d dd 3f 3e
       -0.08521764 0.033981536 -0.064474136 0.18736692
000310 a9 31 16 3d b8 31 b8 bd a8 fb 80 3e e0 8c d2 bd
       0.036668453 -0.08993858 0.25191998 -0.10280776
000320 a6 d4 12 3d ca 87 01 be 17 89 88 3e c0 11 49 bd
       0.03584733 -0.12649456 0.2666709 -0.049089193
000330 94 39 ad bd 31 0c 8e 3d 86 50 40 3d 5a 32 8e 3d
       -0.08458248 0.06935919 0.046951793 0.069431975
000340 32 d4 ca 3d 1b 2b 99 3c 5a 59 0b 3e f3 31 2e 3e
       0.09903754 0.018697312 0.13608304 0.17011242
000350 cb a4 94 3d b5 e9 83 be 41 2c ee 3d 23 10 45 be
       0.07257994 -0.25764242 0.116295345 -0.19244437
000360 83 af 8e 3d ac 5f 4b be 85 de 01 3d 19 9f 25 3e
       0.0696707 -0.19860715 0.03170635 0.16173972
000370 8a c5 3c be 8d 7f 4e bd 10 e3 21 bd 5a 45 ae bd
       -0.1843473 -0.05041461 -0.039523184 -0.085093215
000380 e7 05 14 3e a2 f9 d9 3d a3 8c 07 bd 80 95 7f 3e
       0.14455377 0.10643317 -0.033093106 0.24959373
000390 ae 43 2c be 70 70 02 3e be ab c8 bd 95 c7 17 bd
       -0.16822693 0.12738204 -0.09798382 -0.03705557
0003a0 69 4c 46 be cc 06 3f 3c c0 94 93 bd a5 93 41 be
       -0.19365086 0.011659335 -0.07206106 -0.18903978
0003b0 24 ed a6 bd 2d c7 13 be 11 69 47 bd 84 b3 46 bd
       -0.081507 -0.14431448 -0.048684184 -0.048511043
0003c0 01 f4 12 be b9 78 aa be 8d 98 2b 3e 09 29 f7 bd
       -0.14350893 -0.3329523 0.16757412 -0.12068374
0003d0 7a 6d 79 bd e3 a8 27 be 21 1a 41 3e 6a 05 44 3d
       -0.06089542 -0.16373019 0.18857624 0.047856726
0003e0 63 e0 7b be fc 7d af 3d ac f2 b1 bd a1 d6 c5 bc
       -0.24597315 0.085689515 -0.08688864 -0.024150195
0003f0 3e 29 05 3d c2 95 76 bc 05 94 24 bd b2 c1 0a 3e
       0.032510035 -0.0150503535 -0.040180225 0.13550451

conv4.bias f4 [64]
000000 8d 1a 85 3b 8b c1 5a bd 66 12 a3 3d bd bb c8 bd
       0.004062003 -0.053407233 0.079624936 -0.09801433
000010 be f6 3e 3c 0e df 48 3d 9e fb 04 3d e0 96 86 bc
       0.011655508 0.049040847 0.032466523 -0.016429365
000020 af 33 e9 bd 44 1b f9 3d 5c c4 85 bd 1d b2 ad 3a
       -0.11386811 0.12163404 -0.06531593 0.0013251934
000030 84 d6 6c 3d 5c 70 25 3e fd 6b ae 3d 03 29 fe 3d
       0.057821766 0.16156143 0.08516691 0.12410166
000040 71 67 52 3d 62 ac 9e bd 0d 66 d1 3d ff c7 9c 3d
       0.05136818 -0.07747723 0.10224543 0.07655334
000050 7c f3 3d 3e 7c 1b 89 3d 11 16 fe bd e3 1b 19 bd
       0.18549913 0.06694695 -0.124065526 -0.03738011
000060 bf 6d 6a bb 30 49 10 3e a5 06 8f 3b ab e8 09 3e
       -0.003577098 0.14090419 0.0043648058 0.13467662
000070 16 0a 8c bc 8c 35 18 3d b7 a3 ba bd 74 d6 d6 3d
       -0.017094653 0.03716044 -0.091132574 0.104901224
000080 a2 39 a9 3d 36 52 d8 3d 7a 6a 3a bd 9f 42 b7 bd
       0.08262946 0.105625555 -0.0455117 -0.08948254
000090 e0 96 27 bd 81 a7 a6 bd 09 b6 1d be 81 ff ae bd
       -0.04091537 -0.081374176 -0.15401472 -0.08544827
0000a0 90 22 37 3d 3d b4 db bd 4b 04 4a 3b e9 ac e4 3c
       0.044710696 -0.10727737 0.0030825313 0.027914481
0000b0 35 1f 5e 3b be d9 46 bd bf 37 dd 3c 6d 0e e9 bd
       0.0033893113 -0.0485475 0.02700412 -0.113797046
0000c0 8e a7 b1 3d d3 a8 19 be ec 8c 81 bd 36 3c ab 3c
       0.08674537 -0.15005808 -0.06325707 0.020902734
0000d0 86 1a ba 3d f3 3b 11 3e 02 93 d3 3d 88 16 93 bd
       0.0908709 0.14183025 0.10330774 -0.07182032
0000e0 ef ba 82 bc e6 0f 0a bd 3a 26 e9 bc fa b4 64 bd
       -0.015958278 -0.03370657 -0.02846061 -0.055836655
0000f0 6c 20 99 3d e8 d5 62 3d 85 3b 5b bd bf 71 93 bd
       0.07476887 0.05537978 -0.05352356 -0.0719943

conv5.weight f4 [128, 64, 2, 2]
000000 20 8e 21 be 0d fd a9 bd 58 30 9d be 0b 1b 21 be
       -0.15776873 -0.08300219 -0.30700946 -0.15732972
000010 ea c8 aa 3c e0 d8 51 bd 28 88 d9 3c 83 30 ad bd
       0.020847756 -0.05123222 0.026554182 -0.084565185
000020 e4 1f 2d 3e 05 25 e3 3d 4f 7d bc 3e 13 ab 85 ba
       0.16906697 0.11091045 0.36814353 -0.0010198079
000030 ea 1b 9a b9 b0 60 20 3e 64 6b 6a be 0e f3 5e be
       -0.00029393967 0.15661883 -0.22892529 -0.21772406
000040 f7 d0 0a be af 68 da bd 84 67 6f be 90 33 80 bd
       -0.13556276 -0.10664498 -0.23379332 -0.06259835
000050 96 cc a5 bd a1 a7 98 3d 12 d1 cf 3a 09 be 0a bd
       -0.08095662 0.07453848 0.0015855154 -0.033872638
000060 c2 63 04 bd 7a 64 4e 3d 67 c8 c5 3b 08 95 99 3e
       -0.0323217 0.05038879 0.0060358527 0.29996514
000070 ea 7f 42 be 97 e2 be bd b2 db a9 3d fa 3f 41 3d
       -0.18994108 -0.09320562 0.08293857 0.047180153
000080 e9 92 d0 bd eb a9 85 be c4 17 73 3d 45 1e 88 bd
       -0.10184271 -0.261062 0.059348837 -0.066463985
000090 fa dd ce 3d c4 14 1b be 7a 69 28 3e ed b7 99 be
       0.101009324 -0.1514464 0.16446486 -0.30023137
0000a0 15 69 46 bd 55 44 d6 bd 67 ae d2 3d d7 0d c5 3d
       -0.048440058 -0.10462252 0.10287171 0.0962178
0000b0 8c c2 33 be d2 11 29 3e f9 7e da bb 3c 49 2d 3e
       -0.17554682 0.16510704 -0.0066679684 0.16922468
0000c0 e4 2e 94 3d 6d c8 a1 be c4 a3 d4 bd ef 66 bc be
       0.07235506 -0.31598225 -0.10382798 -0.36797282
0000d0 0e cc 94 be 78 e9 85 bd 67 07 59 be 68 f8 fd 3c
       -0.2906193 -0.06538671 -0.2119423 0.031002238
0000e0 28 e9 ca bd e5 03 1c be 62 2d 15 be 4b 8d 40 3e
       -0.09907752 -0.1523586 -0.14568093 0.18803899
0000f0 03 5e 0f bd 80 8b fe 3d 2c d3 6f 3d 4e 75 74 bd
       -0.035001766 0.12428951 0.058551 -0.059682183
000100 0e 6d 45 3d b0 95 87 3d 1b 94 b3 be 55 2f cf 3b
       0.048199706 0.066203475 -0.35073933 0.006322781
000110 e4 8e 49 bb 16 18 58 3c 8d 10 6f 3c 08 e8 0e 3d
       -0.0030755335 0.013189336 0.014591348 0.03488925
000120 59 99 db bb 57 4a 62 3c 39 ec 8f bd 79 d4 8f bd
       -0.00670163 0.013811669 -0.07027478 -0.07022948
000130 d8 4c 43 3d 5b 83 81 bc ac 32 bf 3d 9f a9 3a 3e
       0.047680706 -0.015809705 0.09335837 0.18228768
000140 3a 6c ca 3d 7a 7a 29 3c a3 53 a5 3d 94 d1 f0 bc
       0.09883924 0.010344142 0.08072593 -0.02939681
000150 53 c0 c7 3d 17 01 98 bd d6 41 6d 3d 53 1f 72 3e
       0.0975348 -0.07422083 0.057924114 0.23644762
000160 49 7f f0 bd 1c fe d4 bc 4a 19 e1 bc 12 32 48 3d
       -0.11743028 -0.026000075 -0.02747788 0.048875876
000170 c6 3d 01 be 8e d4 ef bc bd 67 15 3e 71 ab c6 bc
       -0.12621221 -0.029276159 0.14590354 -0.024251672
000180 59 8c 3c bd f4 ff 73 bd f2 95 49 bd fd 6a 5b bd
       -0.046032283 -0.059570268 -0.049215265 -0.05356883
000190 27 77 88 bd 9c 55 1c bc 7c da 8b 3d a7 85 8c 3e
       -0.066633515 -0.009541895 0.06828782 0.2744572
0001a0 ec a7 1a bd db 85 18 be 67 7f ce 3d 92 9e a5 be
       -0.0377578 -0.14894812 0.10082894 -0.32347542
0001b0 38 05 97 3e fa bb ea 3c 63 51 83 3e 37 dc cf 3c
       0.2949617 0.028654087 0.2564803 0.025373561
0001c0 3f 1a db 3d 22 72 66 be e0 5c 88 3e 53 88 86 3d
       0.106983654 -0.22504476 0.26633358 0.065689705
0001d0 e8 58 22 3e be 24 31 3e 3a fc 25 3e c4 e5 0e 3e
       0.15854228 0.17299172 0.16209498 0.13954836
0001e0 e8 de 72 bd 2e 85 84 bb 1e 4f a4 bb a3 9e 49 bd
       -0.05929461 -0.0040441966 -0.0050143143 -0.049223553
0001f0 fe 2e 97 3d 12 1d bf bc ae 02 89 3e 5a e2 26 be
       0.0738201 -0.023329291 0.26759857 -0.16297284
000200 b6 8b d6 3d 68 64 80 bd e5 42 24 be 62 d8 07 3c
       0.104758665 -0.06269151 -0.16041143 0.008291336
000210 f3 fb 8e be 15 22 1a be b1 36 45 be 78 d8 bb be
       -0.27926597 -0.15052064 -0.19259144 -0.3668859
000220 3c 07 a2 ba ad ca 86 3d 5d d5 36 bd 59 21 68 bd
       -0.0012361775 0.06581626 -0.044637073 -0.056672428
000230 6e 07 3d bc cc 19 5f bd f9 b4 59 bd 4f fe b6 3b
       -0.011537416 -0.05446796 -0.053151105 0.005584515
000240 29 d1 71 bc 41 bd 9b 3c c0 30 9d 3d b7 91 68 bd
       -0.01475934 0.019011142 0.07675314 -0.05677959
000250 b2 4f 80 be 3f 43 59 be 35 b7 32 be 71 55 4a 3e
       -0.25060803 -0.21217059 -0.174527 0.19759156
000260 82 2f fd 3a ba 1c 88 bc 85 3f 33 ba cd 63 c2 bc
       0.0019316527 -0.01661526 -0.0006837773 -0.02372923
000270 14 ce b8 3c 59 e0 11 3e 31 04 76 be a1 55 8d 3d
       0.022559203 0.14245738 -0.24025036 0.06901098
000280 3c dd ff bd 08 54 41 be af b7 84 3b 40 83 aa bd
       -0.12493369 -0.18879712 0.004050217 -0.08325815
000290 a3 ac 27 be d9 f6 88 be 20 75 06 be 85 af 1b be
       -0.1637445 -0.2675083 -0.13130617 -0.15203674
0002a0 dd 6f b0 3d 8b d2 65 bc 3a 50 1f be f2 49 4a be
       0.08615086 -0.014027248 -0.15557948 -0.1975477
0002b0 fb f5 91 3c a0 b5 f8 bd 4c 01 e8 bc 0e 65 5c 3e
       0.017817488 -0.12144017 -0.02832093 0.21522924
0002c0 e4 ac 1f 3e 6d f9 30 be 2a 13 8c bd 37 0d b6 bd
       0.15593296 -0.17282648 -0.06839593 -0.08889239
0002d0 23 c4 0f 3e 82 1f af 3d de 7c f2 bd 43 aa 30 bd
       0.14039664 0.085509315 -0.11840223 -0.043131124
0002e0 4b a7 d7 bd c0 49 72 bd 1e 90 d3 be 1c 7a 63 be
       -0.105299555 -0.059152365 -0.4132089 -0.2221455
0002f0 c5 98 8e 3d 7e 3b f1 bd 43 04 03 be 89 a1 5f be
       0.06962732 -0.11778925 -0.12794594 -0.21838965
000300 a6 36 68 3d 05 b3 11 3d 9a 2b da bd 95 54 cc bc
       0.05669274 0.035571117 -0.106528476 -0.024942676
000310 51 b5 86 3c 86 4e ad be 85 56 0f 3d d1 88 32 be
       0.01644388 -0.3384897 0.03499462 -0.17435004
000320 fb fb 09 be 1f 30 74 3d 1a e0 1f be bd 77 b8 bd
       -0.13475029 0.059616204 -0.15612832 -0.09007213
000330 fe c8 1e 3e 7e bd c7 3d 04 2a 73 3e 49 15 c8 be
       0.1550636 0.0975294 0.23746496 -0.3907874
000340 1b 49 75 bd af c7 17 bd 85 78 2d bd ad 64 c3 bc
       -0.059884172 -0.037055667 -0.042351265 -0.023851717
000350 16 bf 90 3e 8b 03 5d 3e 80 3f 6d 3d 21 e0 7d bc
       0.28270787 0.21583383 0.057921886 -0.015495331
000360 40 1a 47 3e 73 44 26 bc 22 8f 80 3d 26 76 61 3e
       0.19443607 -0.0101481555 0.062773004 0.22017726
000370 69 0d c0 3d f2 e1 18 be 8d ec 3e 3e 90 7a 09 be
       0.09377558 -0.14929941 0.18644924 -0.1342566
000380 d4 94 71 3d f0 7d 01 be 97 21 87 3d a5 ff 99 bd
       0.058979824 -0.12645698 0.06598204 -0.075194634
000390 42 05 f1 bc a8 91 a1 bc 68 e4 b2 bc dd c5 04 bd
       -0.029421452 -0.019722775 -0.021837428 -0.03241526
0003a0 95 0e 25 3e c0 6d 7d 3e 38 20 44 bd 2b a9 52 3e
       0.16118844 0.24748898 -0.04788229 0.20572345
0003b0 d8 1b 5c be b0 df 9c bd 32 83 9d be 8d 8c 01 3d
       -0.21494997 -0.076598525 -0.30764157 0.03162818
0003c0 dc 58 ba bd b3 97 14 bc f6 74 46 3e 3d f9 e6 3e
       -0.0909898 -0.009069371 0.19380555 0.4511203
0003d0 da f3 8b be 32 45 17 3d 6c ed 61 be 7f ff db bd
       -0.2733448 0.036931224 -0.22063226 -0.107420914
0003e0 e1 7a f3 3d 08 f8 20 bd 14 36 31 3e 03 85 5a 3a
       0.11888672 -0.03929904 0.17305785 0.00083358603
0003f0 76 de 64 bd 7b 61 67 bc 8a fa 70 3a 0e fd 71 3c
       -0.055876218 -0.014122362 0.00091926067 0.014769806

conv5.bias f4 [128]
000000 3e 69 77 3e f1 1f f0 3d 49 32 b2 3d c8 a6 a4 3d
       0.2416124 0.11724842 0.087009974 0.080396235
000010 1b 10 a1 bd 42 af 90 3d 3a b8 f6 3d 36 f7 0a 3e
       -0.078644 0.07064678 0.12046857 0.13570866
000020 04 d3 d9 3d 84 3d f0 bd bf 2c c1 bd c7 26 71 3c
       0.10635951 -0.11730483 -0.09432363 0.014718718
000030 d4 d0 89 bd 39 59 a0 bd 8d 26 a2 3c 5e 63 ea 3d
       -0.06729284 -0.07829518 0.019793773 0.11444734
000040 cb 47 a8 bd f3 66 1e 3e 51 8a 20 3e f9 1a 9c bd
       -0.082168184 0.1546896 0.15677764 -0.07622332
000050 43 65 0c 3e 15 45 1c 3e d9 12 6d bd 47 a5 be 3c
       0.13710503 0.15260728 -0.057879303 0.02327217
000060 74 c3 6b 3e 4a 4c 05 3e ee 39 2a 3e 53 71 36 be
       0.23023778 0.13017383 0.16623661 -0.17816667
000070 8c 0b ab bd e6 c6 c5 bd cb ec 5f 3e d2 35 c8 3d
       -0.08351812 -0.096570775 0.21867673 0.097758904
000080 de 00 84 3d b4 bf ad bd 0e 87 f0 3c 93 e3 7d 3e
       0.06445478 -0.0848383 0.029361274 0.24793844
000090 6c 31 40 3d 31 de 26 3e d4 62 31 3d 59 f0 64 bd
       0.046922132 0.16295697 0.04330714 -0.055893276
0000a0 8e c3 6b bd 3e 88 a0 3c 15 e4 0e bd 00 c7 ad 3d
       -0.057559542 0.019596215 -0.034885485 0.08485222
0000b0 9f 07 3f 3d 5c e6 ed 3d 3c 0b 1b 3d b0 61 10 3e
       0.046638127 0.11616203 0.03785251 0.14099765
0000c0 7b 42 15 3e 9a 39 15 3d 1b a7 0c be e3 39 a7 bd
       0.14576142 0.036431886 -0.1373562 -0.08165338
0000d0 3a 3f 34 be 7b 16 3c bd 6d 7d 36 3e 4b 5f 87 3e
       -0.17602244 -0.045919877 0.17821284 0.2643989
0000e0 98 dc c1 3d d3 d5 33 3e 91 9a d6 bd 04 bd 0e 3e
       0.09465903 0.17562036 -0.104787 0.13939291
0000f0 97 3f 17 bb 3e 4f 39 3e 7b ca 57 3e 66 ee 1a 3e
       -0.0023078674 0.18096635 0.21073334 0.15130004
000100 e7 15 86 bd 79 b3 a6 3d 1a 2c ea 3d ce 5a 9c 3e
       -0.06547146 0.081397004 0.11434193 0.30538028
000110 28 18 1a bd e1 2f 11 3e 82 3a 10 3e 20 cc 56 3d
       -0.037620693 0.1417842 0.14084819 0.052440763
000120 96 1e e6 3d 0e 2b 49 3d c3 d4 43 3d 92 f7 49 bd
       0.112363026 0.049113326 0.047810327 -0.049308367
000130 74 70 31 3d 8a 74 1f be 6b 22 be bd 50 3a 09 3e
       0.043320134 -0.155718 -0.092839085 0.1340115
000140 f3 28 d2 3d 17 56 64 3d 8b 71 e8 bd 63 4f c4 bc
       0.10261717 0.055746164 -0.113497816 -0.023963636
000150 d4 72 ae 3d e8 55 67 3d 1e 01 1f bd a0 04 19 3e
       0.085179955 0.05647841 -0.038819425 0.1494317
000160 b6 a6 1a bc 7c 2e 47 3e ad c4 43 3e 7d 9c d5 3d
       -0.009439161 0.19451326 0.19117995 0.104302384
000170 0f d7 90 bd 1d 9a a4 3d 6c a3 18 3e f4 26 d3 3d
       -0.07072269 0.08037207 0.1490609 0.10310164
000180 fb d5 47 3e 44 16 fc 3b 24 2f a0 bd d9 30 93 3e
       0.19515221 0.007693084 -0.07821491 0.28748205
000190 e6 23 ad bd 64 02 52 bd 93 10 10 3d 13 21 05 bc
       -0.08454113 -0.05127181 0.035172056 -0.008125561
0001a0 09 eb c2 bd ee 2c 20 bd 45 f2 19 3e f5 99 6b bd
       -0.09517486 -0.03910535 0.15033825 -0.05751987
0001b0 c5 cf 35 bb 41 3b 58 3e 3d a9 68 3e a3 dc 27 bd
       -0.0027742248 0.21116354 0.2272081 -0.0409819
0001c0 87 a7 30 3e 4b f9 00 3e 06 2c e8 3d 06 47 87 bd
       0.17251407 0.12595098 0.11336522 -0.066053435
0001d0 64 42 96 bd ef 81 d0 3d 3d 37 1a be fd 59 1c 3e
       -0.07336882 0.10181033 -0.15060134 0.15268703
0001e0 d5 8c 03 3e eb 6b d1 3c d3 fb b3 3d a8 cf be 3d
       0.12846692 0.025564155 0.08788266 0.09316951
0001f0 3f 17 0c 3d da 5e e1 bc 3a 2d dd bd 3b 60 c5 bd
       0.034201857 -0.027511049 -0.10799642 -0.09637495
