model/model_29.pth (torch_old, 571877 bytes, 24 tensors)

conv1.weight f4 [32, 3, 2, 2]
-0.10942189 -0.11258705 -0.15275271 0.39132887 -0.59398603 0.1515555 -0.13719293 0.43147904
-0.2965981 -0.07472912 0.0034426672 0.27487138 0.20192899 -0.12970848 0.1220162 0.01491079
0.06986126 -0.06370171 0.32532156 0.039879218 -0.13667528 -0.24545215 -0.041089863 -0.2372686
-0.11974377 0.04326258 0.12543882 0.2297926 -0.33482498 0.2016799 -0.043431025 0.3101012
0.1362493 -0.19916944 -0.46032143 -0.117412105 0.3867949 -0.048442382 0.06758114 -0.27624658
0.38777167 -0.23084408 0.16625698 -0.19414239 -0.059179123 0.01696057 -0.21446757 -0.1469068
-0.15712552 -0.104624525 -0.37218943 -0.22056188 0.19635667 -0.08366683 0.30228022 0.22130351
-0.046306107 -0.2838639 0.15356429 0.023175744 -0.19079801 0.116688184 0.24087614 0.25593168
-0.1950883 -0.13287176 -0.005117796 -0.023345677 -0.32895172 -0.35830176 0.12071918 -0.17124104
0.034474194 -0.07586548 -0.055509303 -0.043429244 0.16648118 0.15848172 -0.20064971 0.19892593
-0.15859844 -0.21003908 -0.004614186 -0.10369415 0.2366012 0.05120834 -0.5717826 0.059725694
0.12736076 0.48805013 -0.1178512 -0.2446583 0.24301437 0.31716985 -0.35086372 -0.2060466
0.042558905 -0.28889024 0.18091543 -0.09753148 0.13457853 -0.45769507 0.41606516 0.035673056
-0.23095366 -0.4019947 0.554342 0.104531094 0.14488432 -0.033017676 0.036557876 0.1575762
0.21882103 -0.2765704 0.013039601 0.22448896 0.14920443 0.13963272 -0.1968662 -0.14792539
-0.117060564 0.04051003 0.28330782 -0.26662293 0.17022523 -0.18664964 -0.33802962 -0.12521005
0.21002102 0.26711458 -0.22564074 0.031794596 0.37192068 0.22308144 0.12586783 0.09667183
0.14152038 -0.01641139 -0.4763177 -0.5212401 -0.007980283 0.054592617 -0.27680364 0.045854896
0.012973957 0.008843642 -0.12549293 0.056480877 0.16100837 0.33083552 -0.18735588 0.38412756
-0.13570927 0.0247668 -0.4235908 -0.18256995 -0.36359528 -0.1497237 0.1784232 0.022103742
-0.2626158 0.21627896 0.09106278 0.35112846 -0.31379765 0.055704083 -0.24147628 -0.02883129
-0.53276694 -0.30818442 -0.24771768 0.13455671 -0.05099509 0.08192804 0.32022825 0.4710964
0.06700548 -0.06353122 -0.21221663 0.3454526 0.13083099 0.10087919 -0.2166396 -0.15084608
0.0097854845 0.3411591 -0.16957015 -0.25762266 0.11729019 -0.14879581 0.15610333 -0.20503388
0.021730227 -0.095170625 0.34161136 -0.37019563 0.22505338 -0.047127917 0.37549877 -0.4695588
0.19257618 -0.35846385 0.32113647 -0.32696256 -0.022974137 0.14673837 -0.22259392 0.21593963
-0.21732117 0.25042546 -0.20285483 0.29647592 -0.6053843 0.18102555 -0.064100005 0.28780127
0.11748148 -0.18556447 -0.17740163 0.29416603 -0.39863768 0.31880078 -0.43378288 -0.19734472
0.24823973 0.012560706 0.0032355106 0.4043272 0.18981805 0.446217 -0.26135537 -0.26864004
0.32248166 0.21753334 -0.28012404 0.07871975 -0.31247997 0.3301878 -0.18429102 -0.38110608
-0.26206747 -0.051478818 0.17114064 0.054175034 -0.35361046 -0.15177423 -0.4215935 -0.29312682
-0.16978654 0.29066572 0.365522 0.052592304 -0.017807465 0.19688305 -0.11769743 -0.21590926
00000000: 9518 e0bd 0a94 e6bd 356b 1cbe 425c c83e
00000010: 780f 18bf 5d31 1b3e 4e7c 0cbe d2ea dc3e
00000020: b5db 97be 950b 99bd 5f9e 613b f1bb 8c3e
00000030: 79c6 4e3e 4dd2 04be a1e3 f93d 634c 743c
00000040: 6c13 8f3d 0b76 82bd 8c90 a63e 6458 233d
00000050: 9bf4 0bbe cf57 7bbe d84d 28bd 8af6 72be
00000060: 393c f5bd 1a34 313d 0973 003e c04e 6b3e
00000070: 2e6e abbe 2d85 4e3e bbe4 31bd 96c5 9e3e
00000080: f084 0b3e 13f3 4bbe 40af ebbe c275 f0bd
00000090: fb09 c63e 856b 46bd fb67 8a3d 3170 8dbe
000000a0: 028a c63e 6462 6cbe 453f 2a3e 43cd 46be
000000b0: cf65 72bd e5f0 8a3c 639d 5bbe bc6e 16be
000000c0: 83e5 20be 6245 d6bd 9d8f bebe f9da 61be
000000d0: b911 493e 8459 abbd 79c4 9a3e 639d 623e
000000e0: 79ab 3dbd 9c56 91be f53f 1d3e 0fdb bd3c
000000f0: 8e60 43be 37fa ee3d 3ca8 763e 7a09 833e
00000100: 3ac5 47be 890f 08be 2fb3 a7bb 6f3f bfbc
00000110: 5c6c a8be 5473 b7be 9e3b f73d d059 2fbe
00000120: d034 0d3d 5c5f 9bbd b95d 63bd dde2 31bd
00000130: 0b7a 2a3e 0849 223e 1e77 4dbe 3db3 4b3e
00000140: a167 22be 7c14 57be 9932 97bb 995d d4bd
00000150: 9647 723e d6bf 513d 5860 12bf eea2 743d
00000160: dc6a 023e b5e1 f93e f85b f1bd b587 7abe
00000170: c2d8 783e 1664 a23e 69a4 b3be e1fd 52be
00000180: 3f52 2e3d 6ce9 93be e541 393e 96be c7bd
00000190: f4ce 093e 0257 eabe 7e06 d53e e91d 123d
000001a0: 1e7f 6cbe 40d2 cdbe 5be9 0d3f 6614 d63d
000001b0: 8e5c 143e 8b3d 07bd b6bd 153d a85b 213e
000001c0: 9f12 603e a39a 8dbe 0da4 553c 6fe0 653e
000001d0: 0cc9 183e e1fb 0e3e 4b97 49be c179 17be
000001e0: 73bd efbd d8ed 253d b90d 913e cd82 88be
000001f0: 864f 2e3e 1521 3fbe 3812 adbe 1037 00be
00000200: c00f 573e 3ec3 883e 5e0e 67be 0d3b 023d
00000210: 636c be3e 766f 643e 7fe3 003e e1fb c53d
00000220: b8ea 103e 2e71 86bc eadf f3be fe6f 05bf
00000230: bcbf 02bc 829c 5f3d 35b9 8dbe 58d2 3b3d
00000240: b890 543c ece4 103c 3881 00be 7e58 673d
00000250: 61df 243e 4663 a93e 38da 3fbe 5eac c43e
00000260: 5ff7 0abe bfe3 ca3c e5e0 d8be 9ef3 3abe
00000270: 2929 babe 2b51 19be 92b4 363e e812 b53c
00000280: 9475 86be 3b78 5d3e 1f7f ba3d 1cc7 b33e
00000290: 16aa a0be f729 643d 8f45 77be 992f ecbc
000002a0: 6a63 08bf 59ca 9dbe b4a9 7dbe 3cc9 093e
000002b0: 3ae0 50bd e3c9 a73d f5f4 a33e 8c33 f13e
000002c0: 2b3a 893d a81c 82bd 514f 59be 2adf b03e
000002d0: 8ff8 053e c099 ce3d c5d6 5dbe 6577 1abe
000002e0: 4c53 203c 68ac ae3e cca3 2dbe 1ee7 83be
000002f0: d735 f03d ee5d 18be 8dd9 1f3e 67f4 51be
00000300: 9703 b23c d1e8 c2bd afe7 ae3e 488a bdbe
00000310: 6574 663e 3409 41bd 6041 c03e 036a f0be
00000320: b132 453e 9388 b7be 006c a43e a367 a7be
00000330: 4234 bcbc 9542 163e a9ef 63be 471f 5d3e
00000340: 7189 5ebe c437 803e 2db9 4fbe b1cb 973e
00000350: 77fa 1abf c35e 393e dd46 83bd b05a 933e
00000360: 219a f03d 9d04 3ebe c6a8 35be ee9c 963e
00000370: 3d1a ccbe db39 a33e ca18 debe bc14 4abe
00000380: 8e32 7e3e 6bcb 4d3c dc0a 543b fa03 cf3e
00000390: aa5f 423e 8e76 e43e 5fd0 85be 308b 89be
000003a0: 511c a53e 0fc1 5e3e 6b6c 8fbe d237 a13d
000003b0: 60fd 9fbe 600e a93e c9b6 3cbe 5620 c3be
000003c0: b52d 86be 74db 52bd 7e3f 2f3e a4e6 5d3d
000003d0: 6e0c b5be b46a 1bbe 1adb d7be b814 96be
000003e0: 86dc 2dbe 23d2 943e b325 bb3e 076b 573d
000003f0: f6e0 91bc b69b 493e 5a0b f1bd 5117 5dbe

conv1.bias f4 [32]
-0.37915513 -0.09311789 -0.49272928 -0.16907202 -0.38788462 -0.5047626 -0.5592565 0.13046603
0.08504448 -0.35180414 -0.4055167 -0.023537578 -0.09324381 -0.19675115 0.077125706 -0.39626724
-0.08315634 0.120024614 -0.16363826 -0.5285576 -0.5088335 -0.7543919 0.13479272 -0.6106015
0.051326245 -0.103552826 -0.3695385 -0.45911542 0.11446563 -0.4684188 -0.3977676 0.07047966
00000000: 9f20 c2be 98b4 bebd 0347 fcbe 3721 2dbe
00000010: d098 c6be 1f38 01bf 6f2b 0fbf e398 053e
00000020: cd2b ae3d ac1f b4be e39f cfbe e1d1 c0bc
00000030: 9cf6 bebd 2279 49be 15f4 9d3d 8ae3 cabe
00000040: df4d aabd 77cf f53d ca90 27be 8d4f 07bf
00000050: ea42 02bf d41f 41bf 1a07 0a3e 6150 1cbf
00000060: 783b 523d 8113 d4bd 2634 bdbe 2d11 ebbe
00000070: f56c ea3d 97d4 efbe 32a8 cbbe a457 903d

conv2.weight f4 [32, 32, 2, 2]
-0.19746578 0.12041333 -0.09541694 -0.08759893 0.020395648 0.043787222 -0.069963984 0.012468225
-0.020038744 0.03219211 -0.20694444 -0.1782599 -0.09751666 -0.07912372 -0.033453155 -0.09794671
-0.094086625 0.026612956 -0.10997539 -0.19600694 -0.044466414 0.032922447 -0.031977843 0.07637013
0.03643777 0.14459467 -0.12476786 0.02976327 -0.3037857 -0.31993225 -0.053220514 -0.4446325
0.11002465 0.110383786 0.14157379 0.26790395 0.109716535 -0.08422409 0.12326346 0.10311015
-0.11252281 0.07234388 0.066801324 -0.023615409 -0.029307043 -0.26224014 0.17312157 -0.16144782
0.13051641 -0.034633175 0.07357477 -0.18113473 0.06153469 0.07578599 0.0063056187 -0.11244563
0.11005676 0.0065639433 0.15313056 0.11864499 -0.0003079934 0.3197561 -0.07887664 -0.07974547
0.15229414 -0.024262259 -0.19605294 -0.009418628 0.042360578 -0.25107974 0.05329613 0.0027641917
0.06761399 0.04962266 -0.08423848 -0.20842646 -0.12458674 -0.25999337 0.05318786 0.09314203
0.29121432 0.35714942 -0.43139815 -0.18436863 -0.2736332 -0.13476248 -0.054786064 -0.21501304
-0.12957776 -0.001626281 -0.03519359 -0.016751941 0.4909884 0.22463247 -0.2399619 -0.28951657
-0.2903318 0.10145856 0.12835553 -0.2817379 0.13031691 0.111916214 -0.2004331 -0.22531532
-0.087969676 0.23519118 0.05846821 -0.061930753 -0.04540315 0.110456266 -0.001434025 0.042990163
0.14933324 0.16914263 0.17752954 0.30406466 0.034409583 0.26051474 -0.33247826 -0.16112638
-0.25943765 0.19714238 -0.12409383 0.08508886 0.15454358 -0.0701517 0.07210566 0.074791156
-0.22757256 -0.124351054 -0.16953981 -0.27124724 -0.39249292 -0.23554596 -0.3072136 -0.3456994
-0.3675264 -0.4524463 -0.54277676 -0.3015199 -0.21005236 -0.42067498 -0.42066434 -0.430373
-0.23036171 -0.262084 -0.23189776 -0.30956045 0.18632634 0.21305524 0.17977245 0.23882703
-0.35067278 -0.31040302 -0.28663003 -0.27335167 -0.35447338 -0.34086192 -0.53484946 -0.39924023
-0.45329177 -0.11699302 -0.43850794 -0.348491 -0.012019807 0.020227158 -0.13654526 0.052199807
0.028928516 -0.07570045 0.02551695 0.11746264 0.10565701 0.12796456 0.114855155 0.20087372
-0.42562863 -0.5850777 -0.6656906 -0.50909257 -0.09968605 -0.1598437 -0.118223704 -0.13699602
-0.17682533 -0.31235355 -0.07916534 -0.18155296 0.22431576 0.17349395 0.25193104 0.26094306
-0.2317799 -0.02562944 -0.06381305 -0.06343859 -0.19409345 -0.25555807 -0.17950553 -0.24826494
0.01855629 0.019758793 0.09556938 0.035968367 -0.1835639 -0.2512879 -0.012334257 -0.137352
0.33564222 0.3926827 0.32925373 0.44317192 0.20390733 0.0069046803 0.28374636 0.02840944
-0.37089816 -0.37726495 -0.56385213 -0.31038254 -0.2375604 -0.28259447 -0.28164336 -0.2702914
-0.48000854 -0.42550522 -0.61283714 -0.44630772 0.09605514 -0.026535243 -0.048841275 0.0015305801
-0.22242345 -0.17606641 -0.17646238 -0.026006915 -0.048276212 0.0043377792 0.006409331 -0.011332574
-0.17494212 0.015181662 -0.07368738 -0.055264067 -0.035249215 0.015813865 -0.18542735 -0.02432861
-0.07344784 -0.03792892 0.04098373 0.030462682 -0.471805 -0.31305048 -0.35335356 -0.39274454
00000000: 7834 4abe 449b f63d f569 c3bd 1167 b3bd
00000010: c614 a73c 3b5a 333d 4749 8fbd 8747 4c3c
00000020: 4b28 a4bc e0db 033d 3ee9 53be c389 36be
00000030: d1b6 c7bd 9e0b a2bd 2d06 09bd 4998 c8bd
00000040: 7db0 c0bd 6a03 da3c c73a e1bd 0bb6 48be
00000050: 6a22 36bd b0d9 063d 33fb 02bd f167 9c3d
00000060: c53f 153d a010 143e 4b86 ffbd 1ad2 f33c
00000070: cd89 9bbe 29ce a3be c1fd 59bd dfa6 e3be
00000080: 9b54 e13d e510 e23d b8f8 103e b52a 893e
00000090: 10b3 e03d ae7d acbd 8e71 fc3d 6a2b d33d
000000a0: 5c72 e6bd 0729 943d 22cf 883d 1a75 c1bc
000000b0: 5315 f0bc 5744 86be c846 313e 9452 25be
000000c0: 18a6 053e 84db 0dbd 5eae 963d 627b 39be
000000d0: cd0b 7c3d af35 9b3d 5d9f ce3b e549 e6bd
000000e0: 7065 e13d 5916 d73b 42ce 1c3e 25fc f23d
000000f0: 2d7a a1b9 12b7 a33e 138a a1bd 9851 a3bd
00000100: fff2 1b3e a5c1 c6bc 1ac2 48be 9750 1abc
00000110: 4982 2d3d 868d 80be 0b4d 5a3d 7127 353b
00000120: 3479 8a3d 2141 4b3d 3985 acbd bf6d 55be
00000130: 5527 ffbd da1d 85be 83db 593d 40c1 be3d
00000140: 0b1a 953e 4adc b63e 38e0 dcbe 21cb 3cbe
00000150: a719 8cbe 2dff 09be 5a67 60bd 612c 5cbe
00000160: 08b0 04be ef28 d5ba 2727 10bd 5e3b 89bc
00000170: d562 fb3e 0e06 663e 93b8 75be 843b 94be
00000180: 5fa6 94be 81c9 cf3d a26f 033e f33f 90be
00000190: cc71 053e 5434 e53d 563e 4dbe 0fb9 66be
000001a0: 7229 b4bd f5d5 703e 5d7c 6f3d 1aab 7dbd
000001b0: a7f8 39bd e536 e23d e5f5 bbba 7416 303d
000001c0: d0ea 183e ba33 2d3e 4eca 353e 5dae 9b3e
000001d0: 10f1 0c3d 3062 853e 973a aabe 50fe 24be
000001e0: 03d5 84be b1df 493e e824 febd 1143 ae3d
000001f0: ac40 1e3e b2ab 8fbd 22ac 933d 1b2c 993d
00000200: c808 69be c4ab febd d89b 2dbe ebe0 8abe
00000210: d5f4 c8be f632 71be 1a4b 9dbe 83ff b0be
00000220: 6c2c bcbe 0ba7 e7be 6bf3 0abf d160 9abe
00000230: f717 57be b662 d7be 5161 d7be da59 dcbe
00000240: f1e3 6bbe e02f 86be 9b76 6dbe b57e 9ebe
00000250: 55cc 3e3e 272b 5a3e 4516 383e 138f 743e
00000260: 628b b3be 25ed 9ebe 2cc1 92be c0f4 8bbe
00000270: 897d b5be 7485 aebe e5eb 08bf 3769 ccbe
00000280: dc15 e8be 099a efbd 1d84 e0be 6a6d b2be
00000290: b9ee 44bc 6db3 a53c 85d2 0bbe 77cf 553d
000002a0: 7ffb ec3c d608 9bbd ec08 d13c 4190 f03d
000002b0: b462 d83d 2409 033e 2e39 eb3d d7b1 4d3e
000002c0: ffeb d9be a7c7 15bf b36a 2abf e453 02bf
000002d0: 3328 ccbd 11ae 23be 451f f2bd af48 0cbe
000002e0: b311 35be ceec 9fbe 7021 a2bd 05e9 39be
000002f0: 08b3 653e 66a8 313e 1bfd 803e 549a 853e
00000300: b657 6dbe d5f4 d1bc 6bb0 82bd 17ec 81bd
00000310: 6fc0 46be 82d8 82be 4cd0 37be 2a39 7ebe
00000320: 5c03 983c 31dd a13c e1b9 c33d 9153 133d
00000330: 2df8 3bbe cfa8 80be a015 4abc 01a6 0cbe
00000340: 4cd9 ab3e b50d c93e f293 a83e 6ee7 e23e
00000350: 15cd 503e a840 e23b 3447 913e eaba e83c
00000360: 5de6 bdbe df28 c1be 9d58 10bf 76ea 9ebe
00000370: 0943 73be 39b0 90be 8f33 90be a263 8abe
00000380: aec3 f5be d2db d9be e5e2 1cbf 7282 e4be
00000390: 8fb8 c43d 7060 d9bc ca0d 48bd bf9d c83a
000003a0: f9c2 63be c14a 34be 8eb2 34be 740c d5bc
000003b0: 47bd 45bd ee23 8e3b 5e05 d23b 43ac 39bc
000003c0: 0724 33be 81bc 783c 69e9 96bd 935c 62bd
000003d0: 7b61 10bd 148c 813c abe0 3dbe cb4c c7bc
000003e0: d26b 96bd 5b5b 1bbd 8ede 273d e08c f93c
000003f0: 6d90 f1be 2748 a0be c2ea b4be d015 c9be

conv2.bias f4 [32]
0.046482883 -0.075168245 -0.10620877 -0.15136816 0.118952505 -0.09038321 -0.14534537 0.150633
-0.061271142 0.14831112 -0.20295712 0.1893136 0.10282389 -0.11786612 -0.45367917 -0.1149933
0.010507801 0.0034022264 0.051712014 0.11796007 0.050146073 -0.21041523 0.046405673 0.13376525
-0.06641118 0.19275574 0.03405677 -0.12504102 0.006207397 0.2042566 0.27419588 -0.15473646
00000000: d664 3e3d cff1 99bd fc83 d9bd 4100 1bbe
00000010: 5f9d f33d d51a b9bd 6bd5 14be 8a3f 1a3e
00000020: 73f7 7abd dfde 173e fed3 4fbe 6ddb 413e
00000030: 5595 d23d cb63 f1bd a348 e8be 9b81 ebbd
00000040: e928 2c3c e3f7 5e3b facf 533d 0d95 f13d
00000050: f865 4d3d 1777 57be e013 3e3d c2f9 083e
00000060: 9602 88bd c361 453e 1d7f 0b3d c10a 00be
00000070: 6c67 cb3b a428 513e 6763 8c3e 3c73 1ebe

conv3.weight f4 [64, 32, 2, 2]
-0.102591954 0.090704985 0.010391126 0.29488805 0.039652657 -0.21994175 0.23554176 -0.20481604
0.059657857 0.0732221 0.090541326 0.030058619 0.032770418 -0.05884943 0.01451909 -0.03322069
-0.3836162 -0.32040522 -0.23223631 -0.27420086 -0.071721755 0.0482938 -0.0583845 0.04123001
0.029881464 -0.03259451 -0.046439733 -0.06557164 -0.14717695 -0.21068832 -0.31212533 -0.42270964
-0.028951067 -0.09234055 0.026125025 -0.025187235 0.25372517 -0.07130114 0.24312773 -0.39166245
0.18221815 0.30929568 0.22498578 0.3010154 0.050816074 0.092348866 0.026657226 0.045377903
-0.0181041 -0.36663866 0.3874189 -0.043209963 0.19373001 0.20770253 -0.057059273 -0.4744702
-0.13691378 -0.056687627 -0.033730965 -0.23784922 0.11429968 0.076116815 0.058635883 0.049263272
0.06797692 0.060166467 0.08840685 -0.010289012 0.045851063 0.06817737 -0.10906271 -0.098661736
0.1582228 -0.010939487 -0.12811579 -0.03507723 0.26857206 -0.04266428 0.122725226 0.019917447
-0.26143473 0.049003623 0.0511789 0.15946676 0.19583774 0.15498585 -0.04043014 0.099057384
-0.085390754 -0.021094577 -0.06397625 -0.030806363 -0.39004472 -0.13481729 0.35837325 0.20659347
0.1484108 -0.23192672 0.26573503 -0.21379814 0.39564633 -0.19269462 0.02233237 -0.31954375
0.069950625 -0.15576454 -0.19622126 -0.11879035 0.06716719 0.012745498 -0.079393454 -0.010751064
0.032550544 0.040653158 0.102726035 0.045403738 0.24896024 -0.08992225 0.15710442 0.005425373
0.060487736 0.26887172 0.11738075 0.22699513 0.010108359 0.016236404 0.1057284 -0.04419579
-0.2088105 -0.5496864 0.062249336 -0.016355008 0.2397338 -0.09247716 0.2510365 0.20680645
0.037951894 0.002729123 -0.10473322 -0.08102397 -0.06297825 -0.10160633 0.03639583 0.05983155
-0.08310849 -0.15370443 -0.18477836 -0.09424505 -0.007380301 -0.02563022 -0.025537461 0.06001095
-0.01475258 0.025620101 0.05798407 0.036786813 -0.031182138 -0.28801602 0.027633004 -0.17567542
-0.008587695 0.013878811 -0.014573884 -0.018927868 0.10149333 0.15583812 -0.09955675 -0.21897542
-0.05791533 0.051356863 -0.2559706 -0.12164774 0.045276843 -0.33974385 0.23979975 -0.07866834
0.20929472 0.26131454 -0.081725344 -0.18824223 0.101002604 0.08014879 0.11021793 0.2545864
-0.3180867 -0.03518328 -0.2740813 0.051389385 -0.030785486 0.07717635 -0.038239058 0.02102909
0.1603399 0.015201756 -0.009853667 0.051775362 -0.016004778 -0.06857414 -0.076618776 0.08034685
0.04495967 -0.033142902 -0.3554962 -0.17303666 -0.1332039 0.026455797 -0.52317435 -0.09556458
-0.13405567 -0.023705943 -0.32309222 -0.36015642 -0.055412583 -0.022940414 0.02364467 0.1289879
0.038584456 0.06353817 0.074207954 0.17395005 -0.23510864 -0.27515584 0.1290745 -0.030033391
0.23065399 0.26751152 -0.12208354 -0.019661611 0.22100438 0.11720788 -0.1389645 -0.1915257
-0.29276752 -0.7532839 -0.23842162 -0.4785008 0.017388474 -0.075360045 0.037650168 0.082027785
0.23327951 0.09160682 -0.2964152 -0.087133534 0.07049608 0.20506121 -0.19761121 0.05864334
0.1345289 0.08136555 0.08364813 -0.64392936 -0.054241188 0.031608474 -0.05865214 0.006087274
00000000: bb1b d2bd 89c3 b93d 8b3f 2a3c 91fb 963e
00000010: d36a 223d 6938 61be dc31 713e 4cbb 51be
00000020: cc5b 743d 78f5 953d bb6d b93d 7e3d f63c
00000030: 463a 063d 1a0c 71bd 7ae1 6d3c 6b12 08bd
00000040: 5869 c4be 270c a4be 5bcf 6dbe 0e64 8cbe
00000050: dbe2 92bd b8cf 453d 9624 6fbd cde0 283d
00000060: f9c9 f43c d281 05bd 9737 3ebd 6d4a 86bd
00000070: 8eb5 16be aebe 57be e4ce 9fbe 666d d8be
00000080: ca2a edbc 0b1d bdbd 2604 d63c 7655 cebc
00000090: 44e8 813e 5506 92bd 7af6 783e fb87 c8be
000000a0: 6597 3a3e 015c 9e3e ac62 663e b11e 9a3e
000000b0: 8424 503d 6721 bd3d 4160 da3c 2ede 393d
000000c0: 0d4f 94bc 10b8 bbbe c55b c63e eefc 30bd
000000d0: 2961 463e f9af 543e fcb6 69bd c2ed f2be
000000e0: 2033 0cbe 4931 68bd 7b29 0abd bf8e 73be
000000f0: f315 ea3d 22e3 9b3d 2e2c 703d 49c8 493d
00000100: 7c37 8b3d 1d71 763d a70e b53d 3f93 28bc
00000110: 53ce 3b3d 94a0 8b3d 455c dfbd 2a0f cabd
00000120: 2805 223e 893b 33bc c930 03be 24ad 0fbd
00000130: 4782 893e bdc0 2ebd 5d57 fb3d ea29 a33c
00000140: c6da 85be 06b8 483d f7a0 513d 414b 233e
00000150: b089 483e 9cb4 1e3e 139a 25bd 99de ca3d
00000160: 59e1 aebd 89ce acbc fb05 83bd a05d fcbc
00000170: f1b3 c7be 8b0d 0abe b37c b73e 3d8d 533e
00000180: 00f9 173e 337e 6dbe 6c0e 883e e6ed 5abe
00000190: 2892 ca3e bd51 45be 60f2 b63c 3d9b a3be
000001a0: 4642 8f3d bd80 1fbe 3aee 48be 5b48 f3bd
000001b0: f48e 893d 7ed2 503c 0999 a2bd 3b25 30bc
000001c0: b853 053d ed83 263d 0762 d23d 45f9 393d
000001d0: 6fef 7e3e 2829 b8bd fbdf 203e 54c7 b13b
000001e0: fdc1 773d 8ea9 893e 5265 f03d 6971 683e
000001f0: 889d 253c 3502 853c 2288 d83d a506 35bd
00000200: 6bd2 55be 3fb8 0cbf 29f9 7e3d f0fa 85bc
00000210: c77c 753e aa64 bdbd db87 803e 12c5 533e
00000220: 7273 1b3d 16db 323b 5f7e d6bd e5ef a5bd
00000230: befa 80bd fb16 d0bd cb13 153d ed11 753d
00000240: c934 aabd b264 1dbe 8a36 3dbe 8c03 c1bd
00000250: 74d6 f1bb 78f6 d1bc f033 d1bc 0bce 753d
00000260: ceb4 71bc 3fe1 d13c b480 6d3d c5ad 163d
00000270: af71 ffbc d676 93be 9c5e e23c 42e4 33be
00000280: 67b3 0cbc f463 633c 4dc7 6ebc 9e0e 9bbc
00000290: bcdb cf3d 0794 1f3e 69e4 cbbd 183b 60be
000002a0: a038 6dbd 935b 523d 940e 83be 7322 f9bd
000002b0: 3674 393d e8f2 adbe 118e 753e de1c a1bd
000002c0: 5b51 563e 05cb 853e 9e5f a7bd 92c2 40be
000002d0: 74da ce3d 0c25 a43d f0b9 e13d 2659 823e
000002e0: 43dc a2be 581c 10bd 6254 8cbe ad7d 523d
000002f0: d831 fcbc a20e 9e3d 8fa0 1cbd 3345 ac3c
00000300: 2530 243e c910 793c 4671 21bc 6712 543d
00000310: 741c 83bc 9970 8cbd 4eea 9cbd e48c a43d
00000320: a227 383d dac0 07bd 9903 b6be 8630 31be
00000330: 9a66 08be d4b9 d83c c1ee 05bf 5db7 c3bd
00000340: e445 09be f732 c2bc 586c a5be 6c66 b8be
00000350: 4ef8 62bd 89ed bbbc 78b2 c13c 6715 043e
00000360: bc0a 1e3d 4d20 823d 57fa 973d f61f 323e
00000370: 52c0 70be 3ae1 8cbe 1b2c 043e 9608 f6bc
00000380: 8f30 6c3e 45f7 883e ef06 fabd 6311 a1bc
00000390: f94e 623e af0a f03d b64c 0ebe 501f 44be
000003a0: a0e5 95be 37d7 40bf cc24 74be 0ffe f4be
000003b0: 4672 8e3c 5e56 9abd 1037 1a3d 2ffe a73d
000003c0: d3e0 6e3e 5b9c bb3d bcc3 97be 1173 b2bd
000003d0: 4060 903d 91fb 513e 985a 4abe 0034 703d
000003e0: f2c1 093e fba2 a63d b64f ab3d 8ed8 24bf
000003f0: 022c 5ebd e377 013d 3a3d 70bd c177 c73b

conv3.bias f4 [64]
0.0022484506 0.34599137 0.14696305 -0.401012 0.041514285 -0.023956172 0.11617166 -0.08746966
0.13383523 0.13428238 -0.36956048 -0.089686625 0.040316727 -0.10693786 0.10312976 0.1512946
-0.046021666 0.031826556 0.043277074 0.06334928 0.1265008 -0.0015808257 -0.4664314 -0.14011382
0.00113487 -0.16341771 0.34877932 0.08545724 0.24414419 0.14425515 0.12928544 0.20797858
-0.083018735 0.22444962 -0.0664285 -0.21829814 0.029606413 0.25023147 -0.22279564 0.034106288
0.09079777 0.18267839 0.030964224 -0.16641876 0.049706597 -0.035362158 0.05869484 0.110779874
-0.042791303 -0.06447327 0.080876485 -0.09519822 0.05698517 -0.16900855 0.13077416 -0.009399205
-0.12867153 0.029081138 -0.11051201 -0.20040765 0.07906583 0.007485712 -0.14251225 -0.043612722
00000000: be5a 133b c825 b13e 7b7d 163e 7251 cdbe
00000010: e20a 2a3d bc3f c4bc 68eb ed3d 4b23 b3bd
00000020: 1a0c 093e 5281 093e 0837 bdbe 9fad b7bd
00000030: 2723 253d 3d02 dbbd b235 d33d f9ec 1a3e
00000040: 3781 3cbd 905c 023d 4d43 313d 44bd 813d
00000050: 6d89 013e b533 cfba 19d0 eebe ff79 0fbe
00000060: ebbf 943a f956 27be 3493 b23e 3504 af3d
00000070: ef00 7a3e 9fb7 133e 6763 043e 56f8 543e
00000080: ba05 aabd 1fd6 653e aa0b 88bd 8c89 5fbe
00000090: 2689 f23c 571e 803e 8a24 64be 09b3 0b3d
000000a0: 2ef4 b93d 0b10 3b3e afa8 fd3c ae69 2abe
000000b0: 2599 4b3d e9d7 10bd 006a 703d 8fe0 e23d
000000c0: ef45 2fbd 900a 84bd 92a2 a53d 49f7 c2bd
000000d0: 4869 693d 9410 2dbe a9e9 053e 20ff 19bc
000000e0: 78c2 03be 913b ee3c 1f54 e2bd aa37 4dbe
000000f0: 44ed a13d b44a f53b bbee 11be 41a3 32bd

conv4.weight f4 [64, 64, 2, 2]
0.04349205 -0.19716038 -0.085575856 -0.5659421 -0.22666311 0.23434485 -0.20845813 0.060980894
-0.38848475 0.11565989 -0.28054088 -0.0434024 -0.10686795 -0.19188006 -0.16415052 -0.18363592
0.1368492 0.097845666 0.08303002 -0.33186996 -0.2446084 -0.33622453 -0.12912351 -0.19585629
0.037484128 -0.5693025 0.13267075 -0.17225078 -0.05349992 0.02882777 0.17905293 0.02657253
0.16973887 -0.19421062 0.29977986 0.0343727 -0.19381543 -0.28276622 -0.11824492 -0.12960881
-0.13026789 0.024840798 -0.26250488 -0.41789398 -0.48055768 0.09950278 -0.47852293 -0.44763112
-0.3612953 0.039523736 -0.09740971 -0.26103115 -0.02008839 -0.071997136 0.04763308 -0.080394804
0.26301765 -0.022147587 0.44785932 0.26603925 -0.13856398 -0.19909851 0.2629435 -0.013068963
-0.09048915 0.05669276 -0.3387315 -0.01736068 -0.20504361 -0.045940462 -0.09447172 -0.3636876
0.14605816 -0.1883547 0.05621514 0.08163345 -0.3812351 -0.116871014 -0.25727072 -0.07561968
-0.14979292 0.3672708 -0.012989627 0.1151993 -0.38026595 0.4839723 0.0268459 -0.04782664
0.0438449 0.03895188 -0.3232937 0.08313039 -0.027955234 0.042950787 0.034015637 0.084612645
-0.49029604 -0.13721606 -0.19836403 0.2585616 0.031750347 0.28275564 -0.13674223 0.15797305
0.112271555 -0.18700251 0.20844345 -0.08827471 -0.22286041 -0.5165582 -0.15617456 -0.35452175
-0.1602731 -0.46329713 0.039892565 -0.23368202 -0.15266232 -0.25358245 -0.53030276 -0.365832
0.063345544 0.28276676 0.028478473 -0.2614299 -0.15104666 0.20909981 -0.23340051 0.09219426
-0.17531572 -0.1101344 -0.21652749 -0.1744733 0.0710543 -0.3540296 0.024688698 0.16837305
0.07948093 -0.1412503 -0.22190711 0.19813587 -0.14143713 0.044342965 -0.10830866 0.015162157
-0.039915346 -0.058671482 0.17620249 0.13875401 0.09319045 0.04352046 0.15017572 0.039179564
-0.16719288 0.030364538 -0.502457 -0.5164474 -0.32300118 0.13280758 -0.2968914 -0.11119009
-0.15923783 0.20217343 -0.19800584 0.3119874 -0.21653055 -0.017529754 -0.041857198 -0.096373156
0.14473918 -0.14374708 -0.12280377 -0.26966727 -0.062022813 -0.04994573 -0.033401646 0.0019466849
0.09730256 0.08856585 -0.011763684 0.3471772 -0.13330348 0.022251412 -0.377124 -0.13298817
-0.014716565 -0.40097588 0.24480343 -0.38706023 0.1035878 -0.56617445 0.18287109 -0.088853195
-0.29192257 0.24100053 -0.1766423 0.090643615 -0.057755377 -0.23273976 0.35857663 -0.13813695
0.16562086 -0.15975058 0.37625465 0.120983906 -0.08458248 0.03763355 0.034837198 0.069431156
0.12353245 0.02479794 0.25387934 0.24495536 0.18509774 -0.40727597 -0.060925506 -0.12117219
0.31935832 -0.23397338 0.3340901 0.3348675 -0.29475188 -0.2298171 -0.10885082 0.02077675
0.14820626 0.19683008 -0.12092666 0.3472701 -0.26591218 0.17257822 -0.42493367 -0.10185403
-0.1331456 0.1506518 0.10106415 -0.33949208 -0.094780676 -0.0970034 0.011188057 0.008777248
0.046401143 -0.26098782 0.3389802 -0.37617564 0.033566065 -0.37492466 0.19948225 0.0023537765
-0.24953513 0.12645014 -0.09216572 -0.18114233 -0.1851278 0.13776883 -0.21119359 0.111047566
00000000: b824 323d 69e4 49be 6542 afbd 95e1 10bf
00000010: 601a 68be 19f8 6f3e 0c76 55be 1ac7 793d
00000020: 79e7 c6be 18df ec3d 0ea3 8fbe b7c6 31bd
00000030: 95dd dabd 357c 44be 1317 28be 0e0b 3cbe
00000040: 3222 0c3e 4f63 c83d a50b aa3d dcea a9be
00000050: a07a 7abe 9f25 acbe f438 04be 8d8e 48be
00000060: f588 193d cfbd 11bf d7da 073e 8262 30be
00000070: bb22 5bbd 3728 ec3c a759 373e a2ae d93c
00000080: 07d0 2d3e 26df 46be bf7c 993e 63ca 0c3d
00000090: 8d77 46be bcc6 90be 652a f2bd 2cb8 04be
000000a0: f264 05be ee7e cb3c 0a67 86be 33f6 d5be
000000b0: a80b f6be 1dc8 cb3d f500 f5be e82f e5be
000000c0: b3fb b8be a4e3 213d be7e c7bd e0a5 85be
000000d0: 6890 a4bc 3c73 93bd e81a 433d 08a6 a4bd
000000e0: 40aa 863e db6e b5bc d14d e53e 4c36 883e
000000f0: b7e3 0dbe 7be0 4bbe 88a0 863e 341f 56bc
00000100: 6052 b9bd ab36 683d 376e adbe fc37 8ebc
00000110: f4f6 51be 112c 3cbd 647a c1bd 4335 babe
00000120: 4590 153e 0ee0 40be d941 663d 702f a73d
00000130: 3f31 c3be 125a efbd fdb8 83be 7ede 9abd
00000140: 5163 19be eb0a bc3e 72d2 54bc 9ced eb3d
00000150: 38b2 c2be 38cb f73e efeb db3c dee5 43bd
00000160: b696 333d 028c 1f3d c086 a5be 4440 aa3d
00000170: 6002 e5bc 2aed 2f3d fb53 0b3d 6549 ad3d
00000180: 1508 fbbe 5e82 0cbe f11f 4bbe 3062 843e
00000190: a70c 023d 59c5 903e 2806 0cbe b0c3 213e
000001a0: a1ee e53d 967d 3fbe 3372 553e 5fc9 b4bd
000001b0: 8535 64be 283d 04bf 39ec 1fbe e083 b5be
000001c0: a21e 24be 4835 edbe 6366 233d 574a 6fbe
000001d0: 8353 1cbe 8fd5 81be ecc1 07bf 554e bbbe
000001e0: 4fbb 813d cec6 903e b04b e93c 24da 85be
000001f0: faab 1abe 431e 563e 8b00 6fbe 58d0 bc3d
00000200: f785 33be 258e e1bd 62b9 5dbe 21a9 32be
00000210: eb84 913d 5e43 b5be f43f ca3c fc69 2c3e
00000220: e6c6 a23d eba3 10be 9e3b 63be 21e4 4a3e
00000230: e5d4 10be f8a0 353d eed0 ddbd b26a 783c
00000240: 467e 23bd 8251 70bd 6d6e 343e 8815 0e3e
00000250: a2da be3d 8342 323d aac7 193e c07a 203d
00000260: 9c34 2bbe 0dbf f83c 06a1 00bf e635 04bf
00000270: 6960 a5be b6fe 073e 2602 98be a1b7 e3bd
00000280: 3e0f 23be 8d06 4f3e 0bc2 4abe d0bc 9f3e
00000290: 2fba 5dbe 8f9a 8fbc 7472 2bbd 4a5f c5bd
000002a0: 8236 143e 6f32 13be 8b80 fbbd d411 8abe
000002b0: a20b 7ebd e593 4cbd 2ad0 08bd e827 ff3a
000002c0: 9146 c73d 0362 b53d 78bc 40bc 36c1 b13e
000002d0: b580 08be 9848 b63c 6616 c1be 0d2e 08be
000002e0: bf1d 71bc b64c cdbe c0ad 7a3e c22c c6be
000002f0: d725 d43d cff0 10bf 8f42 3b3e aaf8 b5bd
00000300: e076 95be d8c8 763e b8e1 34be 5ca3 b93d
00000310: e790 6cbd 5553 6ebe 5b97 b73e c673 0dbe
00000320: 8498 293e a895 23be 73a4 c03e 69c6 f73d
00000330: 9439 adbd a325 1a3d 73b1 0e3d ec31 8e3d
00000340: 95fe fc3d 0d25 cb3c 79fc 813e 94d5 7a3e
00000350: 438a 3d3e 7a86 d0be 068d 79bd 2029 f8bd
00000360: ef82 a33e b896 6fbe dc0d ab3e c173 ab3e
00000370: b8e9 96be 2d55 6bbe 2eed debd 0134 aa3c
00000380: 62c3 173e d38d 493e 66a8 f7bd 63cd b13e
00000390: a425 88be 58b8 303e e890 d9be d898 d0bd
000003a0: 5257 08be 7744 1a3e b9fa ce3d e8d1 adbe
000003b0: 5f1c c2bd b8a9 c6bd 1d4e 373c 72ce 0f3c
000003c0: 200f 3e3d 32a0 85be d08e ad3e 189a c0be
000003d0: 927c 093d 20f6 bfbe 1345 4c3e d141 1a3b
000003e0: 2386 7fbe 257c 013e 62c1 bcbd 607d 39be
000003f0: 2492 3dbe 4613 0d3e 2243 58be e86c e33d

conv4.bias f4 [64]
-0.07711168 -0.080268435 -0.0053394646 -0.10206627 0.082805865 0.13706955 0.004247196 -0.056597844
-0.13873297 0.21708521 -0.09704897 -0.027555807 0.12258416 0.29457697 0.11838604 0.16954906
0.009920089 -0.13887265 0.16301067 0.04214404 0.37014976 0.087820016 -0.31613663 -0.047866642
-0.09143971 0.18448873 -0.04686493 0.31668484 0.090350315 0.12384716 -0.15027507 0.08596575
0.25516292 0.13988912 -0.11199261 -0.1374693 -0.07096074 -0.22505735 -0.29821742 -0.24165775
0.056847714 -0.30068487 0.013382621 0.07556262 0.1032887 -0.07018057 0.10520463 -0.14539792
0.15976979 -0.18209188 -0.09501727 0.0005791814 0.17167409 0.26917195 0.2703878 -0.10358244
-0.025442991 0.016158035 -0.063975796 -0.09897837 0.13402054 0.18243721 -0.10564591 -0.071956225
00000000: baec 9dbd c763 a4bd adf6 aebb 1f08 d1bd
00000010: 1f96 a93d f65b 0c3e 102c 8b3b 24d3 67bd
00000020: 0410 0ebe 964b 5e3e 9cc1 c6bd b7bc e1bc
00000030: 670d fb3d cbd2 963e 6174 f23d 459e 2d3e
00000040: de87 223c a234 0ebe 45ec 263e 3b9f 2c3d
00000050: 4584 bd3e fbda b33d a9dc a1be d00f 44bd
00000060: be44 bbbd 9dea 3c3e 71f5 3fbd 8424 a23e
00000070: 9609 b93d 94a3 fd3d b5e1 19be d00e b03d
00000080: b7a4 823e 183f 0f3e 625c e5bd c1c4 0cbe
00000090: dd53 91bd 6f75 66be f4af 98be 2175 77be
000000a0: 26d9 683d 5ef3 99be c842 5b3c 93c0 9a3d
000000b0: 0789 d33d d5ba 8fbd 8675 d73d 31e3 14be
000000c0: b19a 233e 4b76 3abe 6a98 c2bd 35d4 173a
000000d0: 55cb 2f3e e8d0 893e 4570 8a3e 0823 d4bd
000000e0: d26d d0bc db5d 843c be05 83bd 2cb5 cabd
000000f0: ae3c 093e d2d0 3a3e e25c d8bd c95d 93bd

conv5.weight f4 [128, 64, 2, 2]
-0.03760048 -0.18362196 -0.12725073 -0.21643943 0.020847756 -0.05123222 0.026554182 -0.084565185
0.16944854 0.019430412 0.19000885 -0.21727744 -0.20785032 0.025909385 -0.2216068 -0.14316045
-0.43398452 -0.5455223 -0.14497846 -0.30104902 -0.33926824 0.03521068 -0.12479732 -0.16988029
-0.15647978 0.024300352 0.069416784 0.042740796 -0.2519709 -0.24165721 -0.20249625 -0.036112987
-0.058561634 -0.43384743 -0.03767673 -0.091676265 0.14937302 -0.037025433 0.2720437 -0.053709324
-0.16864285 -0.31515983 0.036223475 0.12992842 -0.41197115 -0.06278853 0.034580633 0.29446456
-0.22003907 -0.7947166 -0.049669508 -0.1393776 -0.26646656 -0.010568303 -0.20692582 0.059145465
-0.028869212 -0.17728063 -0.38943022 0.21882737 -0.29965454 0.10295174 0.07678036 -0.01956596
0.26326814 0.22412576 -0.46012992 -0.3104998 -0.0030755335 0.013189336 0.014591348 0.05747976
0.043371413 0.2655965 -0.31299895 -0.17479889 0.1158695 -0.15659992 0.046052787 0.20159121
0.11550708 -0.002953014 0.119318746 0.040337298 -0.035691477 -0.09966292 -0.02095827 0.12316416
-0.3349668 0.04444043 -0.009013944 0.33029595 -0.39276773 -0.2813004 0.082418665 -0.008270818
-0.072994895 -0.0319835 -0.075987674 -0.08296072 -0.15539132 -0.21312779 0.33670902 0.15701957
-0.007774462 -0.06218986 0.22450787 -0.51420486 0.47934186 -0.041898042 0.25742555 0.16395405
0.15571131 0.02470184 0.65122247 -0.052504186 0.19555658 0.26380363 0.368305 0.31184205
-0.043987945 0.03510316 -0.03246775 -0.19357967 0.22037858 -0.18376887 0.21692653 -0.35911652
-0.107130654 -0.06236084 -0.08331213 -0.08090587 -0.26634368 -0.007137176 -0.066079415 -0.036534566
0.41374156 0.5933655 0.19988148 0.4660037 -0.18802024 0.2746661 -0.3132734 -0.015867572
0.040391296 0.06765991 0.026886145 -0.27658486 -0.3572236 -0.28001082 -0.1611667 0.29797792
-0.0288476 0.38319084 -0.11051283 -0.23956911 -0.18752228 -0.1745228 -0.49193147 -0.25524536
-0.08669758 -0.28910828 0.24443856 -0.054302655 -0.36871094 -0.24389012 -0.20816876 -0.29660338
-0.046735365 0.09035536 -0.19268969 -0.4061819 0.080686525 0.14104033 0.12040159 0.38063058
-0.06922934 -0.22902192 -0.00078134565 -0.21929641 0.042831402 0.12561987 -0.22303444 -0.09814422
-0.43884563 -0.022608379 -0.45474178 -0.3224754 0.17109147 -0.09357807 -0.28814706 -0.35308164
-0.13230078 -0.024938576 -0.15051408 -0.050203566 0.15378287 -0.7342706 -0.2843397 -0.6187173
-0.19997478 0.07701638 -0.076827586 -0.25867435 0.17833978 0.075187884 0.21473598 -0.26972613
0.0686562 -0.23762444 -0.2090851 -0.2878212 0.2824785 0.42514712 0.051345896 -0.21309014
0.21071243 -0.27786806 -0.16998829 -0.33740622 -0.32799137 -0.45324337 0.18602455 -0.23361771
0.06481138 -0.12956403 0.14380121 0.057943907 0.06521424 0.14154534 -0.40243733 -0.16974983
0.024740443 0.29928035 -0.22711459 0.30214268 -0.22946832 -0.12498809 -0.095449924 0.073665634
-0.09040539 0.100946315 0.10613754 0.91464967 -0.34303415 -0.1993089 -0.057691697 -0.41647545
0.13653865 0.09763863 -0.025408423 -0.14529884 -0.05587313 -0.014122362 0.00091926067 0.014769806
00000000: f602 1abd 6507 3cbe 044e 02be 4ca2 5dbe
00000010: eac8 aa3c e0d8 51bd 2888 d93c 8330 adbd
00000020: eb83 2d3e 872c 9f3c ae91 423e fa7d 5ebe
00000030: b7d6 54be eb3f d43c e5ec 62be a798 12be
00000040: 3833 debe 59a7 0bbf 3c75 14be 1923 9abe
00000050: 91b4 adbe 1339 103d bd95 ffbd 19f5 2dbe
00000060: 3c3c 20be 8811 c73c 632a 8e3d f910 2f3d
00000070: 5402 81be fd74 77be 2d5b 4fbe 36eb 13bd
00000080: 53de 6fbd 4021 debe ea52 1abd c4c0 bbbd
00000090: 3ef5 183e fba7 17bd 5049 8b3e 4ffe 5bbd
000000a0: b6b0 2cbe a15c a1be 115f 143d f50b 053e
000000b0: e2ed d2be 4697 80bd 6ca4 0d3d 0fc4 963e
000000c0: ec51 61be 8c72 4bbf 4172 4bbd 00b9 0ebe
000000d0: 4e6e 88be ad26 2dbc 5de4 53be 8442 723d
000000e0: 207f ecbc 0e89 35be 6663 c7be 4814 603e
000000f0: 526c 99be 5dd8 d23d 053f 9d3d cb48 a0bc
00000100: 15cb 863e 3981 653e 2696 ebbe d4f9 9ebe
00000110: e48e 49bb 1618 583c 8d10 6f3c e66f 6b3d
00000120: 39a6 313d 44fc 873e 6641 a0be 7bfe 32be
00000130: fd4c ed3d bb5b 20be d9a1 3c3d ed6d 4e3e
00000140: fa8e ec3d 5b87 41bb 635d f43d b938 253d
00000150: 3a31 12bd 131c ccbd aeb0 abbc 7e3d fc3d
00000160: c580 abbe 2b07 363d 39af 13bc 8d1c a93e
00000170: da18 c9be 9b06 90be 1ecb a83d 5382 07bc
00000180: 597e 95bd 2101 03bd 6d9f 9bbd 4fe7 a9bd
00000190: e71e 1fbe 2c3e 5abe 2065 ac3e bdc9 203e
000001a0: eac0 febb cbba 7ebd 64e5 653e eea2 03bf
000001b0: 4c6c f53e 489d 2bbd 48cd 833e 92e3 273e
000001c0: c972 1f3e 835b ca3c 84b6 263f a10e 57bd
000001d0: fc3f 483e 4511 873e 7992 bc3e c3a9 9f3e
000001e0: b42c 34bd 55c8 0f3d e7fc 04bd c039 46be
000001f0: ecaa 613e e82d 3cbe fd21 5e3e 1fde b7be
00000200: 5167 dbbd 156e 7fbd 8d9f aabd fab1 a5bd
00000210: 335e 88be f9de e9bb a554 87bd 45a5 15bd
00000220: efd5 d33e cde6 173f bbad 4c3e 0998 ee3e
00000230: 6188 40be 09a1 8c3e 5f65 a0be b6fc 81bc
00000240: 5871 253d 4791 8a3d 5540 dc3c 889c 8dbe
00000250: 03e6 b6be 945d 8fbe e208 25be 9090 983e
00000260: cd51 ecbc 9731 c43e 8d54 e2bd 9b51 75be
00000270: d705 40be 1bb6 32be 71de fbbe 85af 82be
00000280: 808e b1bd 0006 94be 1a4e 7a3e 766c 5ebd
00000290: aec7 bcbe 55be 79be 312a 55be 66dc 97be
000002a0: 956d 3fbd 3b0c b93d 7250 45be 13f7 cfbe
000002b0: fa3e a53d e06c 103e 1c95 f63d 03e2 c23e
000002c0: 1dc8 8dbd b984 6abe 38d3 4cba 3d8f 60be
000002d0: fb6f 2f3d 7fa2 003e 2463 64be d6ff c8bd
000002e0: 60b0 e0be 3535 b9bc ead3 e8be 7f1b a5be
000002f0: 9a32 2f3e dca5 bfbd 0388 93be 1ec7 b4be
00000300: db79 07be fc4b ccbc 5d20 1abe 41a2 4dbd
00000310: 4279 1d3e 28f9 3bbf f994 91be 4264 1ebf
00000320: 30c6 4cbe c4ba 9d3d c857 9dbd f770 84be
00000330: b49e 363e 1bfc 993d c0e3 5b3e 8b19 8abe
00000340: 9f9b 8c3d d253 73be 681a 56be 4d5d 93be
00000350: 06a1 903e e2ac d93e 1350 523d 4d34 5abe
00000360: 00c5 573e b944 8ebe 6911 2ebe 82c0 acbe
00000370: 7cee a7be 840f e8be 387d 3e3e 7b39 6fbe
00000380: d4bb 843d 6fac 04be a040 133e 9756 6d3d
00000390: 0b8f 853d 43f1 103e 440c cebe e6d2 2dbe
000003a0: 78ac ca3c 463b 993e ba90 68be 72b2 9a3e
000003b0: bef9 6abe c1f9 ffbd 407b c3bd 02de 963d
000003c0: 7626 b9bd f1bc ce3d a35e d93d 7b26 6a3f
000003d0: 2ca2 afbe a217 4cbe 214e 6cbd 453c d5be
000003e0: cad0 0b3e c3f6 c73d 5325 d0bc 38c9 14be
000003f0: 39db 64bd 7b61 67bc 8afa 703a 0efd 713c

conv5.bias f4 [128]
0.22698435 0.03262056 0.21864398 0.18477724 -0.095426805 0.11596736 0.20144767 0.08688337
0.19952025 -0.3088778 0.13356379 0.044470184 -0.25652632 -0.19665757 -0.11861683 0.058731344
-0.2615371 0.15713057 0.11821765 -0.10792633 0.12197642 0.024880331 -0.020376222 0.023795748
0.40004322 0.17123915 0.12040467 -0.45349172 -0.119263016 -0.16220286 -0.014385685 -0.011988378
0.007312533 -0.2316435 0.15759894 0.19949129 0.043544494 0.09983305 -0.030084608 -0.023771858
0.05926432 0.04868556 0.088739656 0.07873127 0.012858236 0.16835855 -0.045019396 0.21964501
0.1277034 0.12846477 -0.13486855 -0.26598373 -0.40078038 -0.2609185 0.068488434 0.19086802
0.042592924 0.18175563 -0.16397776 0.048974678 -0.049192455 0.22500668 0.17904039 0.19928126
-0.15443516 0.25292015 -0.09674916 0.23039243 -0.0629336 0.015962876 -0.010027357 -0.022074565
0.06776468 -0.1679807 -0.102003686 -0.21014115 0.01547809 -0.27761647 -0.18948139 0.034086786
0.13035922 -0.046160344 0.00966146 -0.079945 -0.0016533653 -0.008329835 -0.08519847 0.10192265
-0.34541154 0.27991387 0.13548116 -0.010993743 -0.13599378 -0.06325738 -0.12781163 0.022336874
0.26191008 0.06285991 -0.13873088 0.30501726 -0.13178356 -0.13678259 0.1358362 -0.03300516
-0.1275213 -0.07789221 0.19249023 -0.16990061 0.14452596 0.17164232 0.2594176 -0.09522819
0.217855 0.03813394 0.06407929 -0.023713449 -0.18307903 0.05679913 -0.45123327 0.17990097
0.23517673 0.024734281 0.017614817 0.019835634 0.12218979 -0.08013124 -0.17138082 -0.1795658
00000000: 966e 683e 239d 053d 35e4 5f3e 3f36 3d3e
00000010: 216f c3bd 4c80 ed3d 4c48 4e3e e9ef b13d
00000020: 094f 4c3e 3b25 9ebe f2c4 083e 5e26 363d
00000030: 6b57 83be 9a60 49be 61ed f2bd 4790 703d
00000040: 31e8 85be d6e6 203e 181c f23d 7b08 ddbd
00000050: c6ce f93d d6d1 cb3c 09ec a6bc 4def c23c
00000060: 77d2 cc3e 5159 2f3e b996 f63d 1130 e8be
00000070: 2b40 f4bd 8218 26be f0b1 6bbc e76a 44bc
00000080: f99d ef3b f433 6dbe 9e61 213e 7247 4c3e
00000090: b65b 323d 4575 cc3d ff73 f6bc 33bd c2bc
000000a0: 25bf 723d 826a 473d 23bd b53d dc3d a13d
000000b0: 5aab 523c 2f66 2c3e 4266 38bd 9fea 603e
000000c0: aec4 023e 458c 033e fb1a 0abe 052f 88be
000000d0: 1633 cdbe 1c97 85be aa43 8c3d e872 433e
000000e0: eb75 2e3d 261e 3a3e c9e9 27be ac99 483d
000000f0: 077e 49bd 2768 663e 5d56 373e 6310 4c3e
00000100: 4024 1ebe c07e 813e 6c24 c6bd feeb 6b3e
00000110: 55e3 80bd 94c4 823c c949 24bc b8d5 b4bc
00000120: 35c8 8a3d 2203 2cbe 4fe7 d0bd 3e2f 57be
00000130: d197 7d3c bf23 8ebe 6907 42be 969e 0b3d
00000140: e37c 053e a112 3dbd 1a4b 1e3c 34ba a3bd
00000150: bcb5 d8ba dc79 08bc 897c aebd d3bc d03d
00000160: c8d9 b0be df50 8f3e 93bb 0a3e 1a1f 34bc
00000170: f441 0bbe 168d 81bd 0de1 02be d2fb b63c
00000180: 1419 863e b2bc 803d 780f 0ebe 392b 9c3e
00000190: 45f2 06be bc10 0cbe a518 0b3e 6b30 07bd
000001a0: f294 02be f385 9fbd 291c 453e 6dfa 2dbe
000001b0: 9dfe 133e 01c3 2f3e 62d2 843e ff06 c3bd
000001c0: 6215 5f3e 5632 1c3d 013c 833d b542 c2bc
000001d0: 1279 3bbe 34a6 683d 0c08 e7be f637 383e
000001e0: 2bd2 703e 8c9f ca3c f34c 903c 577e a23c
000001f0: a43e fa3d d91b a4bd 747e 2fbe 19e0 37be

conv6.weight f4 [64, 128, 2, 2]
-0.03311314 -0.019709507 -0.5995979 -0.47506347 -0.21467435 -0.29476565 -0.35132113 -0.29890773
-0.12865588 -0.40728608 -0.24191816 0.19691294 0.20573936 -0.033172294 -0.017153064 -0.099009424
-0.112019576 0.07358414 0.13562508 0.24061713 0.07606676 0.14818265 0.3760234 0.30910194
-0.047081232 0.16223228 0.060377736 -0.41104013 0.22456616 -0.027378915 -0.16648978 0.07312269
-0.2052633 -0.13637935 -0.07485529 -0.07173899 -0.3533406 -0.2368873 0.0021659574 -0.1622432
0.066358104 -0.019875305 0.14479916 0.059205174 0.0003327246 -0.1729487 -0.286134 -0.3641115
-0.22681043 -0.4594101 0.16446672 -0.013576524 -0.2702828 0.0717749 0.06985142 -0.1632759
-0.25158936 -0.35877416 0.18426646 -0.093375206 -0.008186501 0.08537912 -0.020425264 -0.09309285
-0.021044197 0.06543441 0.008946865 0.107105955 0.04996579 0.048673667 0.45180914 0.43848032
0.02414872 0.07261736 0.19151029 0.2195922 -0.02050702 0.017779244 -0.02513591 0.02547871
0.11858823 0.037913956 0.05271134 -0.3487249 -0.105229564 0.20096001 0.22044548 0.25611934
0.10280615 -0.4120593 -0.2135562 -0.62422353 -0.24540435 -0.19726194 -0.6524597 -0.79426146
-0.052293625 -0.43642917 -0.6327798 -0.38883412 -0.00046239854 -0.43799293 -0.33463386 -0.85748225
-0.21409266 -0.34169757 0.07604702 -0.09617506 0.031132068 -0.12792903 0.05567804 0.23700781
-0.12821676 -0.056775447 0.06465326 -0.06148669 -0.02345432 -0.022922322 -0.06308745 -0.029640587
-0.11909665 0.2529251 0.044876788 -0.25329733 -0.17113248 -0.038658284 -0.008101632 -0.022852585
0.24320535 0.12953378 -0.098904245 0.23013417 0.024633935 -0.04986554 -0.07833309 -0.06758804
0.28047854 0.03429414 -0.21909867 -0.01209341 -0.11901697 -0.13166445 0.034176692 0.044236243
0.26091495 0.32370147 0.066676505 0.38967475 0.11298775 0.31651714 0.20187278 0.092309535
0.042441376 -0.33433914 0.09781958 -0.5141853 -0.1784136 -0.1549867 -0.029716656 0.26614052
0.12978075 -0.38669336 0.04848914 0.011945995 0.13522893 -0.098518424 0.048958384 0.08978958
0.18484525 -0.19660272 -0.21087493 -0.51164037 -0.29802442 0.06505558 0.330236 0.19622304
0.14567085 0.034033295 0.24272834 0.22617574 -0.33904123 -0.3661638 -0.27007642 0.192034
0.2162109 -0.06824469 0.28818434 0.14457427 -0.19525123 -0.010011596 -0.16270645 -0.13467368
-0.16607167 -0.6037152 -0.095484704 -0.28193775 -0.16925907 0.20987053 0.2940946 -0.34209898
-0.23917148 -0.094744734 0.05450488 -0.15016207 0.25285754 -0.019015808 0.12588088 0.25480264
0.3272129 0.052991442 0.11707391 -0.090377636 0.24178453 0.24637747 0.047534384 0.08790611
-0.035492323 0.1966102 0.38717505 0.1719419 -0.16957775 -0.23593444 -0.06845996 -0.0846447
-0.058337495 -0.06045104 0.33412656 0.0968534 0.019384976 0.02490978 0.270139 0.020980055
0.002674735 -0.017149465 -0.021013504 0.03214601 0.16669732 0.16360776 -0.2296979 -0.22892882
0.09100844 0.008773536 -0.1881388 0.2529108 0.30935484 0.16069373 -0.119739965 0.03231112
-0.004527676 0.15292834 -0.16165629 0.112659164 0.23052521 0.10122942 -0.23562637 -0.1032521
00000000: a5a1 07bd d575 a1bc 3f7f 19bf 853b f3be
00000010: 98d3 5bbe 86eb 96be 5de0 b3be 6f0a 99be
00000020: 5ebe 03be cd87 d0be 65b9 77be 8ca3 493e
00000030: 57ad 523e acdf 07bd 9584 8cbc 74c5 cabd
00000040: 856a e5bd 48b3 963d 4de1 0a3e 5664 763e
00000050: e4c8 9b3d 31bd 173e 2486 c03e 9c42 9e3e
00000060: 40d8 40bd 3820 263e a54e 773d da73 d2be
00000070: acf4 653e bf49 e0bc 4c7c 2abe 59c1 953d
00000080: 8b30 52be 07a7 0bbe bb4d 99bd e4eb 92bd
00000090: 0fe9 b4be 9692 72be bcf2 0d3b 1523 26be
000000a0: c2e6 873d 89d1 a2bc 3b46 143e 2081 723d
000000b0: 8a71 ae39 7719 31be 2880 92be d36c babe
000000c0: fe40 68be cd37 ebbe f769 283e 1270 5ebc
000000d0: 8262 8abe b8fe 923d 430e 8f3d cc31 27be
000000e0: 52d0 80be 3fb1 b7be 59b0 3c3e 803b bfbd
000000f0: ad20 06bc 40db ae3d e252 a7bc 77a7 bebd
00000100: e164 acbc 7a02 863d df95 123c 5e5a db3d
00000110: eea8 4c3d 0a5e 473d 8753 e73e 7e80 e03e
00000120: 89d3 c53c 69b8 943d 461b 443e c7dc 603e
00000130: 57fe a7bc c7a5 913c d3e9 cdbc bab8 d03c
00000140: 63de f23d aa4b 1b3d d9e7 573d 128c b2be
00000150: 9982 d7bd 76c8 4d3e 76bc 613e 1322 833e
00000160: 088c d23d 70f9 d2be 7aae 5abe 1dcd 1fbf
00000170: 474b 7bbe 09ff 49be 9907 27bf b854 4bbf
00000180: d731 56bd a573 dfbe dbfd 21bf 4415 c7be
00000190: 156e f2b9 9c40 e0be 2155 abbe f583 5bbf
000001a0: 1b3b 5bbe fcf2 aebe 8abe 9b3d 6ef7 c4bd
000001b0: ae08 ff3c d4ff 02be a80e 643d 2db2 723e
000001c0: 414b 03be 5f8d 68bd ee68 843d 78d9 7bbd
000001d0: 4623 c0bc 98c7 bbbc fe33 81bd d1d0 f2bc
000001e0: f2e8 f3bd 667f 813e b9d0 373d 30b0 81be
000001f0: 5a3d 2fbe 2658 1ebd b5bc 04bc 5835 bbbc
00000200: d30a 793e 81a4 043e 4f8e cabd 4ba8 6b3e
00000210: 1bcd c93c cf3f 4cbd 196d a0bd 996b 8abd
00000220: e29a 8f3e 0378 0c3d 675b 60be 7023 46bc
00000230: 2bbf f3bd 0cd3 06be dcfc 0b3d 1031 353d
00000240: a596 853e 33bc a53e b18d 883d 7383 c73e
00000250: 1f66 e73d 890e a23e bdb7 4e3e c80c bd3d
00000260: 02d7 2d3d 802e abbe a255 c83d a6a1 03bf
00000270: 0eb2 36be d5b4 1ebe 5870 f3bc 9243 883e
00000280: 3fe5 043e acfc c5be 8c9c 463d 22b9 433c
00000290: 7479 0a3e 07c4 c9bd 9688 483d 99e3 b73d
000002a0: 1348 3d3e 3952 49be 99ef 57be ddfa 02bf
000002b0: a896 98be dc3b 853d b114 a93e b1ee 483e
000002c0: bd2a 153e 7f66 0b3d c78d 783e 9d9a 673e
000002d0: d096 adbe d279 bbbe 7547 8abe 90a4 443e
000002e0: 6466 5d3e dfc3 8bbd e68c 933e 470b 143e
000002f0: f0ef 47be ad07 24bc 859c 26be e6e7 09be
00000300: b10e 2abe 148d 1abf 7c8d c3bd 255a 90be
00000310: 4052 2dbe 4de8 563e 9193 963e 9927 afbe
00000320: 5ee9 74be 8709 c2bd 8240 5f3d 16c4 19be
00000330: 8b76 813e 0ac7 9bbc ebe6 003e 7e75 823e
00000340: 7388 a73e 8e0d 593d 72c4 ef3d e917 b9bd
00000350: 5d96 773e 604a 7c3e 6ab3 423d 1e08 b43d
00000360: 6660 11bd 2f54 493e cf3b c63e 8a11 303e
00000370: caa5 2dbe cc98 71be bc34 8cbd 335a adbd
00000380: 4cf3 6ebd 829b 77bd a312 ab3e 135b c63d
00000390: 3ecd 9e3c 980f cc3c a94f 8a3e 5dde ab3c
000003a0: 9b4a 2f3b 097d 8cbc 8324 acbc 89ab 033d
000003b0: b4b2 2a3e cb88 273e ed35 6bbe 516c 6abe
000003c0: a262 ba3d e1be 0f3c 75a7 40be 867d 813e
000003d0: c263 9e3e e68c 243e 3a3a f5bd aa58 043d
000003e0: e65c 94bb 3f99 1c3e 3a89 25be d9b9 e63d
000003f0: cd0e 6c3e 5f51 cf3d 0a48 71be d675 d3bd

conv6.bias f4 [64]
0.1354379 -0.06575603 -0.11108977 0.1994927 -0.12325728 0.29485247 0.11788019 0.06815961
0.13809241 0.06460427 0.14215918 0.28899857 0.11719829 -0.2970464 0.078317605 -0.27436456
0.39971596 -0.10604722 -0.19050412 0.06169121 -0.14330254 0.03376867 -0.06631779 -0.11232531
-0.1302985 0.082776554 -0.31614092 0.07939044 -0.19552696 -0.094861075 -0.31846496 0.07017921
-0.15125212 -0.47648928 -0.33762178 0.118975855 -0.13989559 -0.15107495 -0.10896692 -0.041858315
-0.11269985 -0.053242285 -0.24152134 -0.16396998 -0.13644595 0.14008042 0.03359817 0.24609947
-0.17631868 0.0074294633 0.18153399 0.118720345 -0.24946047 -0.3758302 -0.2653869 0.17583224
0.08249762 0.21544789 0.33492061 -0.076853335 -0.4160715 -0.16717179 0.32788065 -0.090306394
00000000: 3cb0 0a3e 19ab 86bd 0983 e3bd d047 4c3e
00000010: 506e fcbd e7f6 963e 2b6b f13d 4497 8b3d
00000020: 1968 0d3e 3e4f 843d 2d92 113e 9ff7 933e
00000030: a805 f03d 7716 98be fb64 a03d 8379 8cbe
00000040: 92a7 cc3e 492f d9bd 8313 43be ecaf 7c3d
00000050: e7bd 12be 0451 0a3d 9fd1 87bd d00a e6bd
00000060: f86c 05be c186 a93d 39dd a1be 7497 a23d
00000070: 3838 48be 8646 c2bd d70d a3be 1eba 8f3d
00000080: d6e1 1abe 67f6 f3be c3dc acbe 9da9 f33d
00000090: ca40 0fbe 64b3 1abe 0c2a dfbd a073 2bbd
000000a0: 2ecf e6bd 9514 5abd 5f51 77be bfe7 27be
000000b0: 7db8 0bbe 3e71 0f3e 3c9e 093d 8001 7c3e
000000c0: e28c 34be db72 f33b 0ce4 393e a723 f33d
000000d0: 9172 7fbe d16c c0be cbe0 87be 5e0d 343e
000000e0: 83f4 a83d 5f9e 5c3e b77a ab3e 4865 9dbd
000000f0: 5307 d5be 152f 2bbe f9df a73e 8ff2 b8bd
