model/model_15.pth (torch_old, 571877 bytes, 24 tensors)

conv1.weight f4 [32, 3, 2, 2]
-0.110421754 -0.11333599 -0.15304364 0.39117053 -0.59448695 0.15162612 -0.13717045 0.4319342
-0.29709756 -0.07442412 0.003383732 0.27558118 0.2049301 -0.12669554 0.12474841 0.017545832
0.072541535 -0.06095466 0.32818437 0.042844277 -0.13449064 -0.24294902 -0.03847857 -0.23435855
-0.11771773 0.04495397 0.12693375 0.23087694 -0.33376345 0.20303713 -0.04311528 0.3106908
0.13751094 -0.19768168 -0.45998013 -0.11676098 0.3871428 -0.047865562 0.06799683 -0.2759506
0.38770774 -0.23074554 0.16642278 -0.19409968 -0.059225433 0.016938442 -0.21424574 -0.14696176
-0.15629487 -0.10360893 -0.37149385 -0.21968706 0.19711544 -0.08263426 0.30292425 0.22221635
-0.045335405 -0.28251478 0.1544867 0.024428118 -0.19057874 0.1168568 0.24111363 0.25609088
-0.19463994 -0.13234994 -0.0047225445 -0.022883475 -0.32807848 -0.35740408 0.121702515 -0.17030065
0.034642827 -0.07573595 -0.05521002 -0.043219402 0.16618936 0.15825725 -0.20090455 0.19873513
-0.15836719 -0.21059912 -0.004656332 -0.104056634 0.23662274 0.051135253 -0.5718856 0.059547357
0.12756999 0.48813432 -0.11782529 -0.24468373 0.24355726 0.3175981 -0.35054398 -0.2056394
0.042925417 -0.2886229 0.18150422 -0.09699495 0.134791 -0.45753208 0.4166366 0.03628865
-0.23076165 -0.40194404 0.55475765 0.10501644 0.14442797 -0.033511106 0.036365684 0.15725762
0.21804495 -0.27726066 0.012571005 0.2239942 0.14852263 0.1388807 -0.19712219 -0.14837024
-0.11692987 0.040756006 0.28429812 -0.265963 0.16974041 -0.18728602 -0.3368705 -0.12457557
0.20955643 0.26663134 -0.22415383 0.033203688 0.37338012 0.2243906 0.1271966 0.09808342
0.14264028 -0.015262525 -0.475432 -0.52015585 -0.0072073145 0.055500377 -0.2761205 0.046711784
0.011476513 0.0067726476 -0.12709562 0.05438964 0.16039032 0.32972944 -0.18820797 0.38288543
-0.13624689 0.023401478 -0.42447397 -0.18401858 -0.3636534 -0.14959869 0.17845485 0.022198146
-0.26281923 0.2164072 0.09130588 0.35141766 -0.3141453 0.05578915 -0.24126454 -0.028597098
-0.5329033 -0.3084032 -0.24793217 0.13446082 -0.050669484 0.08207181 0.32048872 0.47131005
0.0674743 -0.063217126 -0.2118084 0.34573227 0.13234752 0.10240437 -0.21466386 -0.14869952
0.010759378 0.34193525 -0.16793841 -0.25616464 0.11745889 -0.14882858 0.15696703 -0.2048578
0.020531058 -0.09632596 0.34079787 -0.3711204 0.22410847 -0.048318963 0.37496552 -0.47049212
0.19152972 -0.35978636 0.32064322 -0.32784972 -0.023758553 0.14607753 -0.22346725 0.21525182
-0.21764849 0.25016123 -0.20321283 0.29613945 -0.60543036 0.18103552 -0.064107105 0.28775245
0.11656515 -0.18615158 -0.17765145 0.2940629 -0.39951715 0.31829992 -0.43385807 -0.19740857
0.24731795 0.011911958 0.002950956 0.40390307 0.18835044 0.4453378 -0.26367095 -0.27059263
0.32132304 0.21671064 -0.2820428 0.07723682 -0.31331402 0.32969183 -0.18551993 -0.38195547
-0.26277927 -0.052167647 0.17022358 0.053301703 -0.35428977 -0.15224752 -0.42251298 -0.2939895
-0.17031755 0.29058868 0.36484578 0.051996075 -0.017512543 0.19670154 -0.116372496 -0.21525088
00000000: cd24 e2bd b31c e8bd 79b7 1cbe 8147 c83e
00000010: 4c30 18bf e143 1b3e 6976 0cbe 7b26 dd3e
00000020: 2c1d 98be ac6b 98bd 9ac1 5d3b fa18 8d3e
00000030: 32d9 513e 7abc 01be 187c ff3d 47bc 8f3c
00000040: a890 943d 98ab 79bd c807 a83e 7b7d 2f3d
00000050: eab7 09be a1c7 78be b49b 1dbd b0fb 6fbe
00000060: fe15 f1bd a721 383d ecfa 013e 016b 6c3e
00000070: 0be3 aabe f7e8 4f3e a699 30bd dd12 9f3e
00000080: abcf 0c3e 116d 4abe 8482 ebbe 6120 efbd
00000090: 9537 c63e ae0e 44bd ec41 8b3d 6649 8dbe
000000a0: a181 c63e 8f48 6cbe bc6a 2a3e 11c2 46be
000000b0: 5e96 72bd 7dc2 8a3c 3c63 5bbe 257d 16be
000000c0: c30b 20be eb30 d4bd 7134 bebe a5f5 60be
000000d0: a1d8 493e 273c a9bd e318 9b3e af8c 633e
000000e0: 9eb1 39bd c7a5 90be c331 1e3e 7a1d c83c
000000f0: 1327 43be 9e52 ef3d 7ee6 763e 581e 833e
00000100: b14f 47be be86 07be 93bf 9abb 2076 bbbc
00000110: e7f9 a7be abfd b6be 2b3f f93d 4b63 2ebe
00000120: a3e5 0d3d 731b 9bbd e723 62bd d406 31bd
00000130: 8b2d 2a3e 300e 223e ecb9 4dbe 3981 4b3e
00000140: 022b 22be 4ca7 57be 2594 98bb a51b d5bd
00000150: 3b4d 723e 3373 513d 1867 12bf eee7 733d
00000160: b5a1 023e beec f93e 634e f1bd 5f8e 7abe
00000170: 1367 793e 389c a23e 807a b3be 2393 52be
00000180: 90d2 2f3d 61c6 93be 3edc 393e 4aa5 c6bd
00000190: a706 0a3e a541 eabe 6451 d53e 68a3 143d
000001a0: c84c 6cbe 9ccb cdbe 9904 0e3f dc12 d73d
000001b0: ede4 133e f142 09bd 2ff4 143d 2408 213e
000001c0: 2d47 5f3e 1cf5 8dbe 9ef6 4d3c bc5e 653e
000001d0: 5116 183e be36 0e3e 66da 49be 5eee 17be
000001e0: ed78 efbd c5ef 263d 868f 913e 4d2c 88be
000001f0: 6ed0 2d3e e8c7 3fbe 4a7a acbe 7a21 ffbd
00000200: f695 563e e783 883e 9588 65be 9700 083d
00000210: ae2b bf3e a6c6 653e d33f 023e f6df c83d
00000220: 4b10 123e ab0f 7abc d36b f3be ef28 05bf
00000230: 562b ecbb 5d54 633d ab5f 8dbe db54 3f3d
00000240: fc07 3c3c 16ed dd3b 5b25 02be acc7 5e3d
00000250: 5c3d 243e 4cd2 a83e 97b9 40be 8f09 c43e
00000260: 4e84 0bbe 75b4 bf3c a754 d9be 5e6f 3cbe
00000270: c730 babe 6630 19be debc 363e e3d8 b53c
00000280: 3e90 86be d999 5d3e 94fe ba3d 04ed b33e
00000290: a7d7 a0be 2a83 643d 0d0e 77be 7644 eabc
000002a0: 5a6c 08bf 06e7 9dbe eee1 7dbe 19b0 093e
000002b0: ce8a 4fbd 4415 a83d 1917 a43e 8d4f f13e
000002c0: f72f 8a3d fb77 81bd 4de4 58be d203 b13e
000002d0: 1c86 073e 62b9 d13d d8d0 5bbe b044 18be
000002e0: 1a48 303c 2312 af3e 0cf8 2bbe 0328 83be
000002f0: 498e f03d 8566 18be f7bb 203e 3ec6 51be
00000300: c030 a83c 8b46 c5bd 0f7d ae3e 7e03 bebe
00000310: b17c 653e 1bea 45bd 7bfb bf3e 58e4 f0be
00000320: 5e20 443e eb35 b8be 592b a43e ebdb a7be
00000330: 4ca1 c2bc 5995 153e 99d4 64be f96a 5c3e
00000340: 3fdf 5ebe 2215 803e 0617 50be 979f 973e
00000350: 7cfd 1abf 6061 393e 964a 83bd 4a54 933e
00000360: b6b9 ee3d 859e 3ebe 43ea 35be 6a8f 963e
00000370: 838d ccbe 35f8 a23e a522 debe 7925 4abe
00000380: eb40 7d3e 602a 433c d464 413b 62cc ce3e
00000390: f0de 403e 5103 e43e e1ff 86be 1e8b 8abe
000003a0: 7484 a43e 65e9 5d3e ea67 90be 562e 9e3d
000003b0: b26a a0be 5ecd a83e f0f8 3dbe ab8f c3be
000003c0: 018b 86be bead 55bd 174f 2e3e e352 5a3d
000003d0: 7865 b5be c6e6 1bbe 9f53 d8be cb85 96be
000003e0: b967 2ebe 0ac8 943e 11cd ba3e d6f9 543d
000003f0: 7776 8fbc 216c 493e b454 eebd ba6a 5cbe

conv1.bias f4 [32]
-0.37837172 -0.09252518 -0.49153066 -0.16997232 -0.3889755 -0.50542796 -0.5595049 0.13172561
0.083521746 -0.3521755 -0.4066517 -0.02400525 -0.093337856 -0.19537377 0.07862861 -0.3960181
-0.08344181 0.12111295 -0.16502595 -0.52815366 -0.5081435 -0.75459576 0.13373376 -0.6094328
0.051686533 -0.10336843 -0.36804315 -0.46089804 0.11360205 -0.46597943 -0.39731067 0.06876874
00000000: f0b9 c1be d77d bdbd e8a9 fbbe 390d 2ebe
00000010: cc27 c7be ba63 01bf b73b 0fbf 14e3 063e
00000020: 730d ab3d 5950 b4be a734 d0be a8a6 c4bc
00000030: eb27 bfbd 1010 48be 0908 a13d e2c2 cabe
00000040: 8ae3 aabd 110a f83d 90fc 28be 1435 07bf
00000050: b115 02bf 302d 41bf 81f1 083e ca03 1cbf
00000060: 42b5 533d d4b2 d3bd 2770 bcbe d4fa ebbe
00000070: 31a8 e83d db94 eebe 4e6c cbbe a0d6 8c3d

conv2.weight f4 [32, 32, 2, 2]
-0.19977264 0.11870396 -0.09704934 -0.08739684 0.020833518 0.043057427 -0.06996651 0.011983099
-0.02032239 0.03181873 -0.20615645 -0.1762836 -0.09844689 -0.07960552 -0.033105027 -0.09884812
-0.09267978 0.027420696 -0.108533226 -0.19427776 -0.044984624 0.03248438 -0.033291157 0.074668996
0.037094582 0.14541246 -0.123089276 0.030812435 -0.30446526 -0.32002288 -0.0530289 -0.44534507
0.111461855 0.11083035 0.14097928 0.26803455 0.10938608 -0.08497831 0.12337123 0.102912046
-0.11237485 0.07143131 0.066100515 -0.025146166 -0.029956155 -0.2628116 0.17331636 -0.16218756
0.12993482 -0.03415087 0.07377832 -0.18124224 0.060458127 0.07552355 0.0051730596 -0.11266518
0.10924699 0.00592776 0.15206109 0.118694894 -0.0002040355 0.32082206 -0.07892947 -0.080570936
0.15190457 -0.024663692 -0.19719358 -0.010758452 0.039941255 -0.25292417 0.051122338 0.0012302604
0.06741324 0.049593072 -0.08327863 -0.20833036 -0.12318274 -0.25990164 0.05358054 0.094373085
0.2917167 0.35795185 -0.4313647 -0.1841313 -0.27272314 -0.13480386 -0.054945454 -0.21448693
-0.12957583 -0.0019329648 -0.03529141 -0.017387606 0.48977405 0.22404636 -0.24059148 -0.28983772
-0.28951135 0.10141831 0.12910613 -0.28215533 0.12902647 0.11072078 -0.20047809 -0.22585602
-0.085047685 0.23554102 0.061679583 -0.060193814 -0.046787973 0.10963093 -0.00067165145 0.042083703
0.1495996 0.16910973 0.1762773 0.304585 0.035843316 0.26072145 -0.33408093 -0.16041689
-0.2608862 0.19654478 -0.123151466 0.08481663 0.15585627 -0.069852725 0.07245995 0.0750892
-0.2276046 -0.12528487 -0.17031689 -0.27135473 -0.392143 -0.23568158 -0.30682272 -0.3457048
-0.36741808 -0.45159844 -0.5430998 -0.30039272 -0.21014977 -0.4186194 -0.41993734 -0.42918256
-0.23161085 -0.2635598 -0.23309746 -0.3108469 0.18393731 0.21065073 0.1772318 0.23644036
-0.35067278 -0.31040302 -0.28663003 -0.27335167 -0.3564539 -0.34237444 -0.5378764 -0.40071988
-0.45480227 -0.119328886 -0.44110954 -0.35137087 -0.011600563 0.021110646 -0.13640378 0.05328877
0.029767742 -0.07517476 0.026493713 0.11829874 0.10513666 0.12736496 0.11423087 0.20006604
-0.42538965 -0.5845745 -0.6649257 -0.50734246 -0.10234007 -0.16266775 -0.12119044 -0.13989186
-0.17782165 -0.31317404 -0.080887854 -0.18308294 0.22441857 0.17401275 0.25193143 0.26171857
-0.23387788 -0.028249465 -0.06589425 -0.06571659 -0.19596668 -0.25663048 -0.18135443 -0.24878749
0.018862791 0.02014131 0.09586421 0.036231685 -0.18353902 -0.25012898 -0.012466384 -0.13736509
0.3346965 0.39157027 0.3284472 0.44223252 0.20390733 0.0069043827 0.28374636 0.02840944
-0.37178314 -0.37837222 -0.56497335 -0.31154808 -0.23824687 -0.28374842 -0.28245053 -0.27147308
-0.48152915 -0.42700517 -0.6152165 -0.44840378 0.09479004 -0.027255109 -0.04981621 0.00095708005
-0.22242345 -0.17606641 -0.17646238 -0.026006915 -0.048276212 0.00436143 0.0065712635 -0.011331737
-0.1754856 0.014571216 -0.07423882 -0.05561016 -0.036789376 0.013978657 -0.18675119 -0.026218772
-0.07237704 -0.037167538 0.041476 0.030391542 -0.4732388 -0.31499556 -0.35562885 -0.39387465
00000000: 3391 4cbe 101b f33d cec1 c6bd 1dfd b2bd
00000010: 0eab aa3c fc5c 303d 9a4a 8fbd c354 443c
00000020: 247b a6bc 5b54 023d ad1a 53be b083 34be
00000030: 869e c9bd 3808 a3bd 2399 07bd e270 cabd
00000040: e6ce bdbd 5ea1 e03c ab46 debd c0f0 46be
00000050: cc41 38bd 570e 053d 4f5c 08bd 0fec 983d
00000060: 7df0 173d 01e7 143e 3b16 fcbd 5c6a fc3c
00000070: dfe2 9bbe 0ada a3be d534 59bd 4504 e4be
00000080: 1d46 e43d 06fb e23d df5c 103e d33b 893e
00000090: cf05 e03d 1c09 aebd 0eaa fc3d 8dc3 d23d
000000a0: c924 e6bd 944a 923d b55f 873d 55ff cdbc
000000b0: 9c66 f5bc 3e8f 86be d879 313e 7f14 26be
000000c0: a20d 053e c8e1 0bbd 1619 973d 9197 39be
000000d0: f1a2 773d 17ac 9a3d c582 a93b 00bd e6bd
000000e0: e3bc df3d a83d c23b e7b5 1b3e 4f16 f33d
000000f0: 5df2 55b9 ca42 a43e c6a5 a1bd 6002 a5bd
00000100: df8c 1b3e 830b cabc 1ded 49be 3844 30bc
00000110: 7199 233d 477f 81be a865 513d b040 a13a
00000120: f40f 8a3d 1b22 4b3d fd8d aabd 8e54 55be
00000130: 3b47 fcbd d411 85be 4577 5b3d ad46 c13d
00000140: e45b 953e 7745 b73e d5db dcbe ea8c 3cbe
00000150: 5ea2 8bbe 060a 0abe 7c0e 61bd 76a2 5bbe
00000160: 87af 04be 895b fdba ba8d 10bd 7470 8ebc
00000170: aac3 fa3e 696c 653e 9d5d 76be 9c65 94be
00000180: d53a 94be 67b4 cf3d 6634 043e aa76 90be
00000190: 841f 043e 94c1 e23d 214a 4dbe cd46 67be
000001a0: 7b2d aebd aa31 713e bba3 7c3d ca8d 76bd
000001b0: bfa4 3fbd 2e86 e03d c411 30ba f65f 2c3d
000001c0: a330 193e 1a2b 2d3e 0982 343e 91f2 9b3e
000001d0: 71d0 123d 487d 853e a80c abbe 5344 24be
000001e0: e092 85be 0943 493e d636 fcbd 57b4 ad3d
000001f0: c998 1f3e f20e 8fbd e265 943d 5ec8 993d
00000200: 2e11 69be ad4a 00be 8d67 2ebe 02ef 8abe
00000210: f8c6 c8be 8356 71be de17 9dbe 3800 b1be
00000220: 391e bcbe e937 e7be 9708 0bbf 13cd 99be
00000230: 8031 57be 4855 d6be 0702 d7be d1bd dbbe
00000240: 652b 6dbe 4ff1 86be 1ab1 6ebe 5327 9fbe
00000250: 105a 3c3e d3b4 573e 417c 353e 6c1d 723e
00000260: 628b b3be 25ed 9ebe 2cc1 92be c0f4 8bbe
00000270: 2081 b6be b44b afbe 45b2 09bf 282b cdbe
00000280: d8db e8be b462 f4bd 1cd9 e1be e2e6 b3be
00000290: 4a10 3ebc 3cf0 ac3c 6fad 0bbe 5345 5a3d
000002a0: 7bdb f33c 39f5 99bd 5809 d93c 9c46 f23d
000002b0: e451 d73d f66b 023e e0f1 e93d 1dde 4c3e
000002c0: accc d9be ada6 15bf 9238 2abf 32e1 01bf
000002d0: ac97 d1bd 6092 26be b232 f8bd d03f 0fbe
000002e0: e116 36be 5958 a0be 88a8 a5bd 187a 3bbe
000002f0: fbcd 653e 6630 323e 28fd 803e faff 853e
00000300: af7d 6fbe 6c6b e7bc 91f3 86bd 6b96 86bd
00000310: 7dab 48be 1265 83be fab4 39be 26c2 7ebe
00000320: 2486 9a3c 63ff a43c 7454 c43d ad67 143d
00000330: a7f1 3bbe e810 80be ce3f 4cbc 6fa9 0cbe
00000340: 575d ab3e e67b c83e 3b2a a83e 4d6c e23e
00000350: 15cd 503e 293e e23b 3447 913e eaba e83c
00000360: 5c5a bebe 01ba c1be 18a2 10bf 3b83 9fbe
00000370: fdf6 73be 7947 91be 5b9d 90be 85fe 8abe
00000380: fd8a f6be 6ca0 dabe d47e 1dbf 2e95 e5be
00000390: 4821 c23d 1b46 dfbc 150c 4cbd 8ee4 7a3a
000003a0: f9c2 63be c14a 34be 8eb2 34be 740c d5bc
000003b0: 47bd 45bd 54ea 8e3b c153 d73b c0a8 39bc
000003c0: 7fb2 33be 1cbc 6e3c 860a 98bd 7bc7 63bd
000003d0: 75b0 16bd bd06 653c b43b 3fbe c0c8 d6bc
000003e0: 6a3a 94bd fd3c 18bd bde2 293d aff7 f83c
000003f0: 5b4c f2be 1947 a1be fc14 b6be f0a9 c9be

conv2.bias f4 [32]
0.045512866 -0.07649743 -0.10620877 -0.15136816 0.119360454 -0.09038321 -0.14534537 0.14983273
-0.061271142 0.1480066 -0.20295712 0.1876979 0.10327011 -0.11737455 -0.45345214 -0.1149933
0.010507801 0.0034022264 0.05169306 0.11808745 0.050942417 -0.21041523 0.047942217 0.13480553
-0.0663509 0.19450817 0.03583168 -0.12504102 0.008688608 0.20358564 0.27461255 -0.15473646
00000000: b36b 3a3d afaa 9cbd fc83 d9bd 4100 1bbe
00000010: 4173 f43d d51a b9bd 6bd5 14be c06d 193e
00000020: 73f7 7abd 0b8f 173e fed3 4fbe e133 403e
00000030: 487f d33d 1162 f0bd e12a e8be 9b81 ebbd
00000040: e928 2c3c e3f7 5e3b 1abc 533d d5d7 f13d
00000050: ffa8 503d 1777 57be 0f5f 443d 760a 0a3e
00000060: fbe2 87bd 262d 473e 3dc4 123d c10a 00be
00000070: aa5a 0e3c c178 503e 049a 8c3e 3c73 1ebe

conv3.weight f4 [64, 32, 2, 2]
-0.102872774 0.0892505 0.009246627 0.2939903 0.03907202 -0.21970834 0.23356391 -0.20572245
0.059657857 0.0732221 0.090541326 0.030058619 0.032770418 -0.05884943 0.01451909 -0.03322069
-0.38241658 -0.3195399 -0.23110951 -0.27449438 -0.071721755 0.0482938 -0.0583845 0.04123001
0.029881464 -0.03259451 -0.046439733 -0.06557164 -0.14689022 -0.21105854 -0.31193727 -0.4233516
-0.028951067 -0.09234055 0.026125025 -0.025187235 0.25497863 -0.07084691 0.24403755 -0.39202127
0.18221815 0.30929568 0.22498578 0.3010154 0.050102666 0.0914635 0.025352545 0.04383574
-0.017212778 -0.36549285 0.38751268 -0.042812176 0.19119182 0.20627017 -0.057827797 -0.47608933
-0.13795853 -0.05762311 -0.03320101 -0.23711407 0.11429968 0.076116815 0.058635883 0.049263272
0.06797692 0.060166467 0.08840685 -0.010289012 0.045851063 0.06817737 -0.10906271 -0.098661736
0.1584019 -0.012841427 -0.12665479 -0.03485944 0.2685346 -0.044264406 0.12402025 0.02024048
-0.26142937 0.046790175 0.049710337 0.1570509 0.19583774 0.15498585 -0.04043014 0.099057384
-0.08720467 -0.023417246 -0.06633484 -0.033056706 -0.38901833 -0.13413355 0.35833254 0.20599645
0.14757602 -0.23280178 0.26502582 -0.21464317 0.39602026 -0.19308153 0.022383282 -0.31908408
0.06993408 -0.15660338 -0.19542515 -0.117627785 0.06716719 0.012745498 -0.079393454 -0.010751064
0.033071853 0.040184658 0.1043862 0.045920074 0.246695 -0.092480294 0.15489861 0.0029711789
0.061269157 0.26832348 0.118508436 0.22703445 0.010108359 0.016236404 0.1057284 -0.04419579
-0.20852025 -0.5530455 0.06244421 -0.017237233 0.24087161 -0.09136088 0.25282162 0.20828342
0.037951894 0.002729123 -0.10473322 -0.08102397 -0.06297825 -0.10160633 0.03639583 0.05983155
-0.08139818 -0.15110585 -0.18388762 -0.09210037 -0.007380301 -0.02563022 -0.025537461 0.06001095
-0.01475258 0.025620101 0.05798407 0.036786813 -0.0318194 -0.28883576 0.028134407 -0.17669003
-0.008587695 0.013878811 -0.014573884 -0.018927868 0.10169073 0.15560625 -0.099845126 -0.21965143
-0.05791533 0.051356863 -0.2559706 -0.12164774 0.0454915 -0.34135407 0.24009924 -0.07927331
0.20887358 0.26022887 -0.081574306 -0.18918861 0.09971911 0.079523325 0.1088488 0.25388741
-0.31871212 -0.035414748 -0.2732982 0.050963305 -0.030785486 0.07717635 -0.038239058 0.02102909
0.1603399 0.015201756 -0.009853667 0.051775362 -0.016004778 -0.06857414 -0.076618776 0.08034685
0.04559539 -0.030713696 -0.3566244 -0.17205581 -0.13196449 0.027890608 -0.5249489 -0.09506018
-0.13281932 -0.023394512 -0.3237983 -0.36078396 -0.055412583 -0.022940414 0.02364467 0.1289879
0.036765493 0.062954895 0.07180062 0.17333819 -0.235436 -0.2754428 0.12906334 -0.031293657
0.23148875 0.26803195 -0.12148942 -0.01833214 0.22088788 0.11834693 -0.1400443 -0.19269143
-0.2913373 -0.7513373 -0.23869105 -0.47900274 0.017388474 -0.075360045 0.037650168 0.082027785
0.23158628 0.092293054 -0.29707548 -0.08841488 0.07164405 0.20514704 -0.1975689 0.05891857
0.13466308 0.08304512 0.081594415 -0.64522594 -0.054241188 0.031608474 -0.05865214 0.006087274
00000000: f6ae d2bd f7c8 b63d 2a7f 173c e685 963e
00000010: fc09 203d 39fb 60be 612b 6f3e e8a8 52be
00000020: cc5b 743d 78f5 953d bb6d b93d 7e3d f63c
00000030: 463a 063d 1a0c 71bd 7ae1 6d3c 6b12 08bd
00000040: 1bcc c3be bc9a a3be f9a7 6cbe 878a 8cbe
00000050: dbe2 92bd b8cf 453d 9624 6fbd cde0 283d
00000060: f9c9 f43c d281 05bd 9737 3ebd 6d4a 86bd
00000070: 646a 16be bb1f 58be 3eb6 9fbe 8ac1 d8be
00000080: ca2a edbc 0b1d bdbd 2604 d63c 7655 cebc
00000090: 8f8c 823e 2f18 91bd fbe4 793e 03b7 c8be
000000a0: 6597 3a3e 015c 9e3e ac62 663e b11e 9a3e
000000b0: 7438 4d3d 3751 bb3d 24b0 cf3c 1b8d 333d
000000c0: d001 8dbc e121 bbbe 1068 c63e d25b 2fbd
000000d0: cac7 433e 7d38 533e d7dc 6cbd fbc1 f3be
000000e0: 0045 0dbe 3606 6cbd c8fd 07bd 08ce 72be
000000f0: f315 ea3d 22e3 9b3d 2e2c 703d 49c8 493d
00000100: 7c37 8b3d 1d71 763d a70e b53d 3f93 28bc
00000110: 53ce 3b3d 94a0 8b3d 455c dfbd 2a0f cabd
00000120: 1c34 223e d964 52bc cbb1 01be c6c8 0ebd
00000130: 5e7d 893e 984e 35bd 54fe fd3d 5dcf a53c
00000140: 12da 85be 0ea7 3f3d 119d 4b3d f3d1 203e
00000150: b089 483e 9cb4 1e3e 139a 25bd 99de ca3d
00000160: 5d98 b2bd 86d5 bfbc 90da 87bd 7866 07bd
00000170: 692d c7be 4e5a 09be 5d77 b73e bcf0 523e
00000180: 2b1e 173e 9763 6ebe 77b1 873e 6bcb 5bbe
00000190: 2bc3 ca3e 2ab7 45be 255d b73c fd5e a3be
000001a0: 9939 8f3d a35c 20be 881d 48be d6e6 f0bd
000001b0: f48e 893d 7ed2 503c 0999 a2bd 3b25 30bc
000001c0: 5a76 073d ab98 243d 6fc8 d53d b016 3c3d
000001d0: 9d9d 7c3e 4f66 bdbd be9d 1e3e 1cb8 423b
000001e0: 5ef5 7a3d b261 893e 8db4 f23d b87b 683e
000001f0: 889d 253c 3502 853c 2288 d83d a506 35bd
00000200: 5586 55be 6494 0dbf 80c5 7f3d 1935 8dbc
00000210: 0ca7 763e 6a1b bbbd d671 813e 4048 553e
00000220: 7273 1b3d 16db 323b 5f7e d6bd e5ef a5bd
00000230: befa 80bd fb16 d0bd cb13 153d ed11 753d
00000240: 17b4 a6bd 7ebb 1abe 094d 3cbe 1e9f bcbd
00000250: 74d6 f1bb 78f6 d1bc f033 d1bc 0bce 753d
00000260: ceb4 71bc 3fe1 d13c b480 6d3d c5ad 163d
00000270: 0f55 02bd 48e2 93be 217a e63c 3bee 34be
00000280: 67b3 0cbc f463 633c 4dc7 6ebc 9e0e 9bbc
00000290: 3b43 d03d 3f57 1f3e 9a7b ccbd 4eec 60be
000002a0: a038 6dbd 935b 523d 940e 83be 7322 f9bd
000002b0: 4c55 3a3d f6c5 aebe 93dc 753e 0c5a a2bd
000002c0: f5e2 553e b83c 853e 6e10 a7bd a9ba 41be
000002d0: 8839 cc3d 20dd a23d 1fec de3d 88fd 813e
000002e0: 3c2e a3be 0e0f 11bd beed 8bbe e6be 503d
000002f0: d831 fcbc a20e 9e3d 8fa0 1cbd 3345 ac3c
00000300: 2530 243e c910 793c 4671 21bc 6712 543d
00000310: 741c 83bc 9970 8cbd 4eea 9cbd e48c a43d
00000320: 3bc2 3a3d 4a9b fbbc 7997 b6be 662f 30be
00000330: b321 07be d87a e43c 0d63 06bf e9ae c2bd
00000340: ca01 08be d9a5 bfbc e4c8 a5be adb8 b8be
00000350: 4ef8 62bd 89ed bbbc 78b2 c13c 6715 043e
00000360: 6a97 163d 7fee 803d 340c 933d 917f 313e
00000370: 2316 71be d706 8dbe 2e29 043e c72d 00bd
00000380: 630b 6d3e 7c3b 893e 72cf f8bd 492d 96bc
00000390: 6f30 623e e05f f23d c667 0fbe e750 45be
000003a0: 2a2a 95be a457 40bf 6d6b 74be d93f f5be
000003b0: 4672 8e3c 5e56 9abd 1037 1a3d 2ffe a73d
000003c0: f424 6d3e 2404 bd3d 471a 98be dc12 b5bd
000003d0: 1eba 923d 1112 523e 804f 4abe 9954 713d
000003e0: 1ee5 093e 8f13 aa3d f91a a73d 872d 25bf
000003f0: 022c 5ebd e377 013d 3a3d 70bd c177 c73b

conv3.bias f4 [64]
0.0010436123 0.3447401 0.14574708 -0.39988667 0.040712703 -0.022409515 0.11649198 -0.088438794
0.1327552 0.1350522 -0.36982104 -0.08980157 0.039253097 -0.10604789 0.10444109 0.14970075
-0.045362983 0.032729257 0.04464147 0.06275021 0.12417795 0.0012257423 -0.46858883 -0.14011382
0.0010225765 -0.16341771 0.35035196 0.085514456 0.24375598 0.14224467 0.13038583 0.2059385
-0.08390396 0.22570115 -0.066280216 -0.21829814 0.029694224 0.24950778 -0.22368793 0.03455201
0.0891667 0.18304196 0.031488445 -0.16641876 0.0500726 -0.03778463 0.05883772 0.111472644
-0.04268104 -0.06332254 0.0812704 -0.09519822 0.05733417 -0.17006761 0.13112158 -0.009014882
-0.13015564 0.027313031 -0.11119811 -0.20040765 0.079484366 0.008247516 -0.14261302 -0.04392908
00000000: d1c9 883a c681 b03e b93e 153e f2bd ccbe
00000010: 5dc2 263d 2994 b7bc 5993 ee3d 661f b5bd
00000020: fbf0 073e 204b 0a3e 2f59 bdbe e3e9 b7bd
00000030: dbc7 203d a32f d9bd 36e5 d53d 274b 193e
00000040: 89ce 39bd 1d0f 063d f9d9 363d 2f83 803d
00000050: 0251 fe3d 16a9 a03a e0ea efbe ff79 0fbe
00000060: f907 863a f956 27be 5561 b33e 3422 af3d
00000070: 2b9b 793e 96a8 113e dd83 053e 8be1 523e
00000080: d7d5 abbd 341e 673e ecbd 87bd 8c89 5fbe
00000090: 4d41 f33c f87e 7f3e 730e 65be 6986 0d3d
000000a0: 089d b63d 5a6f 3b3e 07fa 003d ae69 2abe
000000b0: ed18 4d3d 0ec4 1abd d2ff 703d c54b e43d
000000c0: 50d2 2ebd 3faf 81bd 1871 a63d 49f7 c2bd
000000d0: 3cd7 6a3d 3426 2ebe bc44 063e 28b3 13bc
000000e0: 8547 05be 94bf df3c d6bb e3bd aa37 4dbe
000000f0: b3c8 a23d 9720 073c 2609 12be fbee 33bd

conv4.weight f4 [64, 64, 2, 2]
0.044796348 -0.19745812 -0.08775577 -0.566592 -0.22573438 0.23237051 -0.20853713 0.060483087
-0.38618764 0.1183205 -0.27865398 -0.041573416 -0.10556911 -0.19476284 -0.16317394 -0.18268247
0.13731964 0.09754687 0.08412883 -0.33213836 -0.24412374 -0.33400032 -0.12850478 -0.19490717
0.039891805 -0.5668715 0.13458419 -0.17114861 -0.0528308 0.029769871 0.18147585 0.027748628
0.16943374 -0.19503136 0.30002522 0.03216031 -0.1904816 -0.28203592 -0.1155647 -0.12877725
-0.13193017 0.024799928 -0.2637923 -0.41664335 -0.47962624 0.09980295 -0.47597834 -0.44724214
-0.35944164 0.039387446 -0.09651296 -0.25914645 -0.021319576 -0.06945214 0.047124777 -0.08126972
0.26433915 -0.019710336 0.45022735 0.2685755 -0.13691665 -0.19715066 0.26589376 -0.012511689
-0.09041814 0.05614697 -0.3369635 -0.016728528 -0.20404719 -0.045357462 -0.094889104 -0.36213323
0.14883813 -0.18670617 0.05662212 0.0820924 -0.3820504 -0.1167292 -0.2560905 -0.07457981
-0.14767069 0.36816207 -0.0102690095 0.11662823 -0.38090986 0.4849006 0.028474102 -0.04724163
0.04354437 0.0393642 -0.3237422 0.08292584 -0.027955234 0.042950787 0.034015637 0.084612645
-0.49014547 -0.13636829 -0.19502927 0.2602628 0.031750347 0.28275564 -0.13674223 0.15797305
0.11388666 -0.18719032 0.21142848 -0.088394955 -0.22247861 -0.51697177 -0.15470223 -0.35651043
-0.15916616 -0.46228722 0.041202802 -0.23308007 -0.15410425 -0.2535348 -0.528815 -0.3664921
0.06279806 0.2827351 0.026531305 -0.26099125 -0.15075351 0.20815246 -0.23199652 0.0929385
-0.17342474 -0.11054861 -0.2154693 -0.17501436 0.07154571 -0.3532491 0.02527181 0.17011073
0.08040287 -0.14091253 -0.22220415 0.19777061 -0.14143713 0.044342965 -0.10830866 0.015162157
-0.04020481 -0.057443775 0.17729464 0.14060396 0.09235236 0.044419143 0.14886281 0.037324276
-0.16794512 0.030184167 -0.5031373 -0.5168629 -0.32229707 0.13347343 -0.2960631 -0.11093192
-0.15897517 0.20236348 -0.19676846 0.3130069 -0.21429253 -0.017350547 -0.042167038 -0.09497458
0.14725822 -0.14224598 -0.12097349 -0.2705472 -0.062022813 -0.04994573 -0.033401646 0.0019466849
0.09721868 0.092100665 -0.008244142 0.35031125 -0.1319934 0.023712933 -0.37491047 -0.13300835
-0.014055129 -0.40129128 0.24485205 -0.386128 0.10451969 -0.56647867 0.18321571 -0.088467896
-0.29184276 0.24099049 -0.17549483 0.089893065 -0.056737088 -0.23166311 0.35980204 -0.13541527
0.16814768 -0.15937664 0.3774032 0.12138963 -0.08458248 0.03763355 0.034837198 0.069431156
0.124793865 0.025862189 0.2552175 0.2460971 0.18673444 -0.40778917 -0.062192027 -0.11986298
0.3181721 -0.23343696 0.33474436 0.33284062 -0.29233098 -0.22815262 -0.107287906 0.023046685
0.14932007 0.1991411 -0.12210216 0.34845546 -0.26452756 0.17385359 -0.42482513 -0.10098481
-0.13137807 0.15099236 0.10236804 -0.34050882 -0.094780676 -0.0970034 0.011188057 0.008777248
0.047183055 -0.2587845 0.33920172 -0.37502033 0.034061804 -0.37276348 0.20131694 0.0037350585
-0.24702987 0.12798215 -0.08932456 -0.17862873 -0.18759571 0.13866383 -0.21101806 0.11163819
00000000: 607c 373d 7632 4abe 4cb9 b3bd 2c0c 11bf
00000010: ea26 67be 89f2 6d3e c28a 55be 1dbd 773d
00000020: 63ba c5be 0552 f23d bcab 8ebe e348 2abd
00000030: 9e34 d8bd e96f 47be 1217 27be 1d11 3bbe
00000040: 859d 0c3e a7c6 c73d bc4b ac3d 0a0e aabe
00000050: 93fb 79be 1702 abbe c296 03be bf95 47be
00000060: 9765 233d 7e1e 11bf 70d0 093e 9541 2fbe
00000070: 1c65 58bd f2df f33c ced4 393e 1751 e33c
00000080: 0a80 2d3e 4db6 47be e89c 993e 87ba 033d
00000090: 9c0d 43be 0367 90be 2fad ecbd 2fde 03be
000000a0: b418 07be 3829 cb3c c90f 87be 4752 d5be
000000b0: 9291 f5be 7d65 cc3d 6fb3 f3be ecfc e4be
000000c0: bc08 b8be bb54 213d 96a8 c5bd d8ae 84be
000000d0: 64a6 aebc ec3c 8ebd e905 413d bd70 a6bd
000000e0: 7657 873e 9277 a1bc 3384 e63e ba82 893e
000000f0: e133 0cbe dde1 49be 3a23 883e d4fd 4cbc
00000100: 252d b9bd 5dfa 653d 7b86 acbe 440a 89bc
00000110: bff1 50be bfc8 39bd 3855 c2bd 8769 b9be
00000120: 0669 183e e72f 3fbe 99ec 673d 0f20 a83d
00000130: 1c9c c3be b80f efbd 4b1e 83be 4dbd 98bd
00000140: fc36 17be bd7f bc3e 593f 28bc c8da ee3d
00000150: 9e06 c3be e444 f83e 8542 e93c 7080 41bd
00000160: 955b 323d 5b3c 213d 8ac1 a5be 06d5 a93d
00000170: 6002 e5bc 2aed 2f3d fb53 0b3d 6549 ad3d
00000180: 59f4 fabe 21a4 0bbe c1b5 47be 2a41 853e
00000190: a70c 023d 59c5 903e 2806 0cbe b0c3 213e
000001a0: 693d e93d d2ae 3fbe b580 583e 6a08 b5bd
000001b0: 6fd1 63be 4358 04bf 436a 1ebe 8988 b6be
000001c0: 74fc 22be e9b0 ecbe 45c4 283d 8bac 6ebe
000001d0: 81cd 1dbe 50cf 81be 6b60 07bf daa4 bbbe
000001e0: 459c 803d a8c2 903e 2e58 d93c a5a0 85be
000001f0: 215f 1abe eb25 553e 7f90 6dbe 8a56 be3d
00000200: 4196 31be 4f67 e2bd fca3 5cbe f736 33be
00000210: 8f86 923d 11dd b4be d406 cf3c 8231 2e3e
00000220: 43aa a43d 604b 10be 7c89 63be 6184 4a3e
00000230: e5d4 10be f8a0 353d eed0 ddbd b26a 783c
00000240: cdad 24bd 2a4a 6bbd ba8c 353e 7cfa 0f3e
00000250: 3c23 bd3d d9f0 353d 7e6f 183e 57e1 183d
00000260: cef9 2bbe c944 f73c 9bcd 00bf 2151 04bf
00000270: 1f04 a5be 42ad 083e 9595 97be 4630 e3bd
00000280: 63ca 22be 5f38 4f3e ac7d 49be 7142 a03e
00000290: 806f 5bbe bc22 8ebc 58b7 2cbd 0882 c2bd
000002a0: dcca 163e eea8 11be f3c0 f7bd 2a85 8abe
000002b0: a20b 7ebd e593 4cbd 2ad0 08bd e827 ff3a
000002c0: 961a c73d 469f bc3d 7012 07bc ff5b b33e
000002d0: 4729 07be a041 c23c 44f4 bfbe 5733 08be
000002e0: 7c47 66bc 0d76 cdbe 7fba 7a3e 92b2 c5be
000002f0: 6b0e d63d bf04 11bf e69c 3b3e a82e b5bd
00000300: 6a6c 95be 36c6 763e ebb4 33be db19 b83d
00000310: 2665 68bd 1839 6dbe f937 b83e 4daa 0abe
00000320: e82e 2c3e a133 23be fe3a c13e 209b f83d
00000330: 9439 adbd a325 1a3d 73b1 0e3d ec31 8e3d
00000340: ed93 ff3d f1dc d33c deab 823e e100 7c3e
00000350: 5037 3f3e bec9 d0be 11bd 7ebd b97a f5bd
00000360: 74e7 a23e 190a 6fbe 9d63 ab3e 166a aa3e
00000370: 68ac 95be d7a0 69be c3b9 dbbd 67cc bc3c
00000380: 5ce7 183e a5eb 4b3e b210 fabd c168 b23e
00000390: 2870 87be ad06 323e ae82 d9be 20d1 cebd
000003a0: f987 06be be9d 1a3e 56a6 d13d 2c57 aebe
000003b0: 5f1c c2bd b8a9 c6bd 1d4e 373c 72ce 0f3c
000003c0: 0543 413d 677f 84be d9ab ad3e aa02 c0be
000003d0: 6484 0b3d dbda bebe 0726 4e3e e2c7 743b
000003e0: 66f5 7cbe c10d 033e cbef b6bd 73ea 36be
000003f0: 1719 40be e4fd 0d3e 1e15 58be 90a2 e43d

conv4.bias f4 [64]
-0.07489937 -0.080268435 -0.0063651567 -0.10206627 0.083539225 0.13653229 0.0041678036 -0.05665772
-0.13873297 0.21557756 -0.09704897 -0.028006708 0.124117345 0.29430568 0.11973857 0.1712673
0.010223729 -0.13887265 0.16364917 0.04200882 0.37040165 0.08722105 -0.3161365 -0.047146328
-0.09143971 0.18478279 -0.046176028 0.3163442 0.091014 0.12493086 -0.15027507 0.08522751
0.25353336 0.14035152 -0.114171185 -0.1374693 -0.0726095 -0.22528325 -0.29733184 -0.24165775
0.05586983 -0.29827812 0.012288256 0.07543927 0.1042901 -0.06850997 0.10289025 -0.14539792
0.15942104 -0.18209188 -0.09501727 0.00016957059 0.17215958 0.26830107 0.26988786 -0.10358244
-0.024686975 0.01710996 -0.063975796 -0.099725954 0.13433854 0.18183242 -0.10564591 -0.071956225
00000000: d764 99bd c763 a4bd ce92 d0bb 1f08 d1bd
00000010: 9d16 ab3d 1fcf 0b3e 1292 883b ed11 68bd
00000020: 0410 0ebe 5dc0 5c3e 9cc1 c6bd 536e e5bc
00000030: 3c31 fe3d 3caf 963e 7f39 f53d b260 2f3e
00000040: 6d81 273c a234 0ebe a693 273e 7111 2c3d
00000050: 49a5 bd3e f3a0 b23d a5dc a1be 821c 41bd
00000060: be44 bbbd b337 3d3e 1323 3dbd def7 a13e
00000070: 8c65 ba3d c0db ff3d b5e1 19be c38b ae3d
00000080: 20cf 813e 4fb8 0f3e 95d2 e9bd c1c4 0cbe
00000090: 4ab4 94bd a7b0 66be e13b 98be 2175 77be
000000a0: c3d7 643d e9b7 98be ae54 493c e77f 9a3d
000000b0: 0c96 d53d f54e 8cbd 20b8 d23d 31e3 14be
000000c0: 453f 233e 4b76 3abe 6a98 c2bd c2ce 3139
000000d0: 9a4a 303e c25e 893e be2e 8a3e 0823 d4bd
000000e0: 573c cabc 302a 8c3c be05 83bd 1f3d ccbd
000000f0: 0b90 093e 4732 3a3e e25c d8bd c95d 93bd

conv5.weight f4 [128, 64, 2, 2]
-0.035861235 -0.18312855 -0.1284705 -0.2158419 0.020847756 -0.05123222 0.026554182 -0.084565185
0.168898 0.01873075 0.1915165 -0.21781608 -0.20722125 0.026219686 -0.22218011 -0.14378251
-0.4341855 -0.54570603 -0.14635955 -0.30074844 -0.33990517 0.035315234 -0.12600793 -0.17046618
-0.15740415 0.024050701 0.068906404 0.04268246 -0.2525911 -0.2425358 -0.20212226 -0.037201006
-0.059393093 -0.4347516 -0.038370173 -0.09157286 0.15063055 -0.03662853 0.27297845 -0.05314628
-0.16879418 -0.31513974 0.034120973 0.12955092 -0.4132385 -0.06308457 0.033288255 0.2944559
-0.21738924 -0.7946723 -0.050785355 -0.13825919 -0.26405334 -0.010482067 -0.20699629 0.058983155
-0.028421316 -0.17850685 -0.3900632 0.21855924 -0.29810664 0.102933764 0.076072104 -0.019897938
0.26254514 0.22058214 -0.46065915 -0.3139806 -0.0030755335 0.013189336 0.014591348 0.05747976
0.04269367 0.26491585 -0.31491673 -0.17695513 0.11564497 -0.15651034 0.04570211 0.20132436
0.11629444 -0.0026377842 0.120225504 0.04028614 -0.03583654 -0.098745935 -0.024256159 0.122401975
-0.3349668 0.04444043 -0.009013944 0.33029595 -0.3932049 -0.2822432 0.08292845 -0.0069277827
-0.072994895 -0.0319835 -0.075987674 -0.08296072 -0.15471032 -0.2126486 0.33615574 0.1571786
-0.0075807567 -0.06184296 0.22504982 -0.51352006 0.47976002 -0.04105752 0.25636086 0.16339684
0.15674134 0.025854168 0.65113074 -0.051547345 0.19549647 0.26371324 0.3671009 0.31215778
-0.043321423 0.033453118 -0.03368463 -0.1927454 0.22058827 -0.18285875 0.21728379 -0.35855788
-0.107780024 -0.062379427 -0.083442144 -0.07880664 -0.2644272 -0.0064270557 -0.06583626 -0.03479265
0.41259798 0.5904851 0.1973551 0.46153474 -0.1906401 0.27367306 -0.3131399 -0.017051702
0.03900858 0.06709482 0.026658885 -0.27480575 -0.3590872 -0.281969 -0.16352312 0.2971946
-0.02845452 0.3822686 -0.11179975 -0.23934612 -0.18842289 -0.17725395 -0.49357185 -0.25826898
-0.08723855 -0.2895002 0.24489224 -0.05405517 -0.36965165 -0.24410921 -0.20941468 -0.29641643
-0.046897642 0.089189306 -0.19266273 -0.40684047 0.08069902 0.1407636 0.121687144 0.38245285
-0.06846555 -0.22761142 -0.0008740968 -0.21760894 0.04248196 0.12590265 -0.22351982 -0.10005972
-0.43799964 -0.023133688 -0.4533436 -0.32144865 0.168742 -0.09528938 -0.28945816 -0.3544142
-0.13361466 -0.023368932 -0.15021506 -0.04852 0.15437575 -0.73365355 -0.2845502 -0.6183783
-0.20146686 0.0750966 -0.075802766 -0.25868753 0.17853066 0.07443282 0.21492784 -0.26975334
0.06775066 -0.23863654 -0.21023871 -0.28829676 0.28339195 0.42507547 0.052072756 -0.21250921
0.21155478 -0.2781508 -0.16887043 -0.3369119 -0.3279787 -0.45465025 0.18621269 -0.2344855
0.06350043 -0.13199571 0.14306432 0.05632177 0.06436398 0.1419571 -0.40238726 -0.17043222
0.024493609 0.29804936 -0.22769088 0.2998876 -0.23051707 -0.126525 -0.095517084 0.07235982
-0.0915353 0.10285563 0.10563856 0.9159517 -0.3446139 -0.19988847 -0.06050652 -0.41638792
0.13590468 0.09697525 -0.02525023 -0.14401738 -0.05587313 -0.014122362 0.00091926067 0.014769806
00000000: 3be3 12bd 0d86 3bbe c58d 03be a905 5dbe
00000010: eac8 aa3c e0d8 51bd 2888 d93c 8330 adbd
00000020: 99f3 2c3e 3b71 993c e71c 443e 2e0b 5fbe
00000030: cf31 54be abca d63c 2f83 63be b93b 13be
00000040: 904d debe 64b3 0bbf 47df 15be b3fb 99be
00000050: 0d08 aebe b5a6 103d 3908 01be b08e 2ebe
00000060: 8e2e 21be fa05 c53c cd1e 8d3d ced3 2e3d
00000070: 9f53 81be 4e5b 78be 23f9 4ebe 1560 18bd
00000080: 2c46 73bd c397 debe 0b2a 1dbd 8d8a bbbd
00000090: e53e 1a3e cc07 16bd d5c3 8b3e eaaf 59bd
000000a0: 62d8 2cbe ff59 a1be 6fc2 0b3d ffa8 043e
000000b0: ff93 d3be 7c32 81bd 4459 083d ecc2 963e
000000c0: 499b 5ebe a56f 4bbf 4e04 50bd d193 0dbe
000000d0: 0032 87be fabc 2bbc d6f6 53be 5298 713d
000000e0: d2d3 e8bc 80ca 36be 5db6 c7be fecd 5f3e
000000f0: 6fa1 98be f0ce d23d b1cb 9b3d 0001 a3bc
00000100: 516c 863e 49e0 613e 84db ebbe 11c2 a0be
00000110: e48e 49bb 1618 583c 8d10 6f3c e66f 6b3d
00000120: 8fdf 2e3d 0da3 873e c43c a1be ba33 35be
00000130: 45d7 ec3d 3f44 20be 2332 3b3d f927 4e3e
00000140: c82b ee3d adde 2cbb ca38 f63d 1403 253d
00000150: 56c9 12bd 4f3b cabd dab4 c6bc e3ad fa3d
00000160: c580 abbe 2b07 363d 39af 13bc 8d1c a93e
00000170: 2752 c9be 2e82 90be 64d6 a93d 7402 e3bb
00000180: 597e 95bd 2101 03bd 6d9f 9bbd 4fe7 a9bd
00000190: 626c 1ebe 8ec0 59be 9b1c ac3e 6df3 203e
000001a0: ff67 f8bb 0b4f 7dbd 7673 663e 0d76 03bf
000001b0: 1ba3 f53e ee2b 28bd bb41 833e 8051 273e
000001c0: cd80 203e 1fcc d33c 81b0 263f 4f23 53bd
000001d0: 3a30 483e 6c05 873e a6f4 bb3e 25d3 9f3e
000001e0: ce71 31bd 2306 093d e5f8 09bd 0d5f 45be
000001f0: e4e1 613e 533f 3bbe a47f 5e3e e694 b7be
00000200: c6bb dcbd 9281 7fbd b7e3 aabd 6065 a1bd
00000210: 0163 87be 0d9a d2bb 29d5 86bd bd82 0ebd
00000220: 0b40 d33e 082a 173f 7517 4a3e 484e ec3e
00000230: 2937 43be e01e 8c3e df53 a0be 03b0 8bbc
00000240: 76c7 1f3d 0269 893d bc63 da3c 57b3 8cbe
00000250: 47da b7be 3e5e 90be 9b72 27be e429 983e
00000260: 7419 e9bc b6b8 c33e 44f7 e4bd 2617 75be
00000270: eef1 40be 0f82 35be 73b5 fcbe d53b 84be
00000280: 20aa b2bd 5f39 94be 08c5 7a3e f468 5dbd
00000290: fb42 bdbe c4f7 79be cd70 56be e5c3 97be
000002a0: be17 40bd e2a8 b63d 6149 45be 654d d0be
000002b0: 8745 a53d 5524 103e 1c37 f93d dcd0 c33e
000002c0: ab37 8cbd f812 69be a523 65ba e1d4 5ebe
000002d0: 9001 2e3d a0ec 003e 61e2 64be 1cec ccbd
000002e0: 7d41 e0be dc82 bdbc a71c e8be eb94 a4be
000002f0: b4ca 2c3e 1427 c3bd dc33 94be c775 b5be
00000300: 48d2 08be 3470 bfbc fad1 19be e8bc 46bd
00000310: ad14 1e3e b8d0 3bbf 90b0 91be 0a4e 1ebf
00000320: 544d 4ebe 3fcc 993d 7b3e 9bbd b172 84be
00000330: bed0 363e 3c70 983d 0b16 5c3e 1c1d 8abe
00000340: dcc0 8a3d 235d 74be d148 57be a29b 93be
00000350: c018 913e 7ea3 d93e 3e4a 553d 049c 59be
00000360: d1a1 583e c869 8ebe 5fec 2cbe b77f acbe
00000370: d3ec a7be ebc7 e8be 8aae 3e3e f81c 70be
00000380: 830c 823d e229 07be 747f 123e a8b1 663d
00000390: 43d1 833d 345d 113e b405 cebe c985 2ebe
000003a0: d2a6 c83c ed99 983e cc27 69be de8a 993e
000003b0: ab0c 6cbe c58f 01be 769e c3bd 6331 943d
000003c0: dc76 bbbd f9a5 d23d 0859 d83d d07b 6a3f
000003d0: 3c71 b0be 90af 4cbe afd5 77bd cc30 d5be
000003e0: 992a 0b3e f69a c63d 92d9 cebc 4b79 13be
000003f0: 39db 64bd 7b61 67bc 8afa 703a 0efd 713c

conv5.bias f4 [128]
0.22765858 0.030984415 0.21953304 0.18539265 -0.09559855 0.11282229 0.20167539 0.08603156
0.19833663 -0.30968016 0.13347131 0.046146475 -0.25551793 -0.19641836 -0.11763137 0.060494587
-0.2615371 0.1572713 0.11687008 -0.10792633 0.12224461 0.024932927 -0.02009099 0.022223264
0.4002041 0.17002779 0.119848534 -0.45514044 -0.11881883 -0.16220286 -0.01431052 -0.013700913
0.0067385463 -0.2316435 0.15653259 0.19957727 0.043011356 0.09860248 -0.02914644 -0.024206905
0.060241677 0.04745869 0.08803734 0.08128583 0.0146769015 0.16969645 -0.04736491 0.22001056
0.1271524 0.12637503 -0.13506031 -0.26676676 -0.4021449 -0.26170668 0.067503035 0.19046094
0.043599945 0.18348159 -0.16397776 0.049544197 -0.048793525 0.22516468 0.17679256 0.19970497
-0.15333183 0.25269037 -0.097468376 0.23130967 -0.06238539 0.016502365 -0.009319076 -0.021606732
0.067361265 -0.16856481 -0.09995789 -0.21073724 0.014508366 -0.2787513 -0.18948139 0.035859227
0.12982817 -0.045281786 0.008476495 -0.079945 -0.0022307446 -0.009338459 -0.08469833 0.10181055
-0.34391764 0.28018624 0.13478571 -0.010208127 -0.13599378 -0.060848597 -0.126445 0.022450402
0.25981805 0.064145446 -0.13771598 0.30213773 -0.13178356 -0.13568819 0.13555624 -0.033356003
-0.12958546 -0.0775733 0.1943781 -0.1700183 0.1456874 0.17329058 0.26036295 -0.094751924
0.21878044 0.038818274 0.063959554 -0.024292916 -0.18427634 0.0575571 -0.450649 0.18059716
0.23457411 0.02619198 0.01703167 0.019177403 0.120508656 -0.08021639 -0.17138082 -0.18056343
00000000: 551f 693e 07d3 fd3c 45cd 603e 92d7 3d3e
00000010: 2cc9 c3bd 5f0f e73d fe83 4e3e 5131 b03d
00000020: c218 4b3e 668e 9ebe b4ac 083e 1604 3d3d
00000030: 3fd3 82be e521 49be b7e8 f0bd 2cc9 773d
00000040: 31e8 85be ba0b 213e 9559 ef3d 7b08 ddbd
00000050: 625b fa3d 2340 cc3c dc95 a4bc 900d b63c
00000060: 8de7 cc3e c41b 2e3e 2673 f53d 2b08 e9be
00000070: 4957 f3bd 8218 26be ac76 6abc cb79 60bc
00000080: 06cf dc3b f433 6dbe 144a 203e fc5d 4c3e
00000090: ad2c 303d 19f0 c93d 84c4 eebc 8f4d c6bc
000000a0: fabf 763d 0b64 423d ec4c b43d 2f79 a63d
000000b0: 6377 703c e8c4 2d3e b501 42bd 734a 613e
000000c0: 3d34 023e 7568 013e 404d 0abe a795 88be
000000d0: f0e5 cdbe 6bfe 85be 083f 8a3d 3108 433e
000000e0: db95 323d 99e2 3b3e c9e9 27be dbee 4a3d
000000f0: b8db 47bd 9291 663e 1c09 353e 767f 4c3e
00000100: 0503 1dbe a260 813e 809d c7bd 71dc 6c3e
00000110: d387 7fbd f82f 873c 0aaf 18bc 9a00 b1bc
00000120: b4f4 893d 419c 2cbe b9b6 ccbd 81cb 57be
00000130: 7fb4 6d3c 7eb8 8ebe 6907 42be 20e1 123d
00000140: adf1 043e 6579 39bd ffe0 0a3c 34ba a3bd
00000150: af31 12bb 5600 19bc 5176 adbd 0d82 d03d
00000160: f915 b0be 9274 8f3e 4405 0a3e fd3f 27bc
00000170: f441 0bbe 613c 79bd cc7a 01be e8e9 b73c
00000180: df06 853e b05e 833d 6b05 0dbe ccb1 9a3e
00000190: 45f2 06be d8f1 0abe 41cf 0a3e 4ea0 08bd
000001a0: 0db2 04be c0de 9ebd 0d0b 473e 4719 2ebe
000001b0: 142f 153e 1673 313e 4b4e 853e 4c0d c2bd
000001c0: fb07 603e e9ff 1e3d 3afd 823d f001 c7bc
000001d0: f0b2 3cbe fec0 6b3d 77bb e6be 76ee 383e
000001e0: 3234 703e 9090 d63c 0086 8b3c ee19 9d3c
000001f0: 3ecd f63d 7e48 a4bd 747e 2fbe 9fe5 38be

conv6.weight f4 [64, 128, 2, 2]
-0.03228266 -0.019642698 -0.5986398 -0.47719657 -0.21412395 -0.29295877 -0.3514509 -0.29944956
-0.131954 -0.40878773 -0.24181148 0.19825423 0.2055222 -0.034402523 -0.018798932 -0.10043594
-0.11247678 0.073449835 0.13577963 0.24069576 0.074873544 0.14802016 0.3750537 0.30706343
-0.047989808 0.16186608 0.061218575 -0.4110233 0.22331044 -0.028607097 -0.16583358 0.07403277
-0.20641348 -0.13503826 -0.076189674 -0.07122473 -0.35389808 -0.23548432 0.00020581057 -0.16230614
0.066009104 -0.01890064 0.14378223 0.059408728 0.0020594343 -0.17394587 -0.2847244 -0.36301005
-0.22638544 -0.45933825 0.16448735 -0.015021834 -0.2696671 0.07381155 0.07010732 -0.16259259
-0.25275996 -0.35926035 0.18428294 -0.09526872 -0.009900544 0.082708314 -0.021880576 -0.094365224
-0.021044197 0.06543441 0.008946865 0.107105955 0.048026796 0.048207637 0.45205086 0.43714115
0.02216346 0.07061134 0.1906293 0.21796039 -0.02050702 0.017779244 -0.02513591 0.02547871
0.118826196 0.037846223 0.053298246 -0.35018668 -0.1054564 0.20162535 0.21914457 0.25573194
0.10050115 -0.4115169 -0.2144065 -0.6267036 -0.24576797 -0.19712275 -0.6534875 -0.7927398
-0.051429007 -0.43679664 -0.6317424 -0.38881785 -0.00015158854 -0.4363165 -0.33365753 -0.8564593
-0.21363595 -0.3406464 0.0751904 -0.09712756 0.030079154 -0.12815739 0.053881835 0.23495588
-0.12667793 -0.057359606 0.064154446 -0.063331924 -0.02345432 -0.022922322 -0.06308745 -0.029640587
-0.11912244 0.25228348 0.04436132 -0.2539066 -0.17241699 -0.037618313 -0.009098435 -0.023318775
0.24412733 0.12809782 -0.09874661 0.23176737 0.024633935 -0.04986554 -0.07833309 -0.06758804
0.2796278 0.03516373 -0.2198588 -0.010931901 -0.11968192 -0.13164803 0.032775354 0.042970866
0.2600423 0.32272705 0.06715435 0.39081994 0.11374269 0.31698075 0.20026723 0.09159702
0.04109162 -0.3328755 0.09767588 -0.51621795 -0.17588955 -0.15572114 -0.030286988 0.26554015
0.13048662 -0.38735095 0.04735304 0.012128981 0.13388106 -0.09793177 0.048376206 0.08788129
0.18546124 -0.19572623 -0.21155208 -0.51270634 -0.29804337 0.06455824 0.32921445 0.1958121
0.14504184 0.033026613 0.24059561 0.22506627 -0.3399723 -0.36627787 -0.27032587 0.19138394
0.2134434 -0.06601959 0.28799972 0.14582638 -0.1961954 -0.0102703115 -0.16393015 -0.13540941
-0.16676927 -0.60362947 -0.09542954 -0.2820809 -0.17010798 0.20955323 0.29218233 -0.3431915
-0.24176478 -0.09384609 0.056380514 -0.15001479 0.25272396 -0.019654244 0.12627566 0.2556862
0.32752603 0.052824687 0.11721292 -0.08990333 0.24195671 0.24537931 0.04740396 0.08605987
-0.035771605 0.19639826 0.38680997 0.1721102 -0.1686331 -0.23659831 -0.06890335 -0.08559167
-0.055977345 -0.06016264 0.33282644 0.0954763 0.019543609 0.024109136 0.2692806 0.02064737
0.002674735 -0.017149465 -0.021013504 0.03214601 0.16731071 0.1646983 -0.23068552 -0.22968584
0.09025158 0.0069018034 -0.18904136 0.2520149 0.30758643 0.15980795 -0.12239101 0.032299645
-0.0030004277 0.15496673 -0.15974934 0.112128355 0.22970586 0.100472346 -0.23622406 -0.102532335
00000000: d33a 04bd b9e9 a0bc 7540 19bf 1c53 f4be
00000010: 4f43 5bbe b1fe 95be 5ff1 b3be 7451 99be
00000020: f31e 07be a04c d1be 6e9d 77be 2803 4b3e
00000030: 6974 523e a9e9 0cbd 3800 9abc 5cb1 cdbd
00000040: 3a5a e6bd de6c 963d d109 0b3e f378 763e
00000050: 4d57 993d 9992 173e 0a07 c03e 6b37 9d3e
00000060: f690 44bd 39c0 253e 54c0 7a3d a571 d2be
00000070: 7eab 643e 6e59 eabc 47d0 29be 7e9e 973d
00000080: 0e5e 53be 7847 0abe 5509 9cbd 45de 91bd
00000090: 2132 b5be cd22 71be dbce 5739 9533 26be
000000a0: c82f 873d 84d5 9abc a63b 133e 9156 733d
000000b0: 93f7 063b de1e 32be 66c7 91be 74dc b9be
000000c0: 96d1 67be 622e ebbe 5f6f 283e 231e 76bc
000000d0: ce11 8abe 832a 973d 6d94 8f3d ac7e 26be
000000e0: c169 81be f9f0 b7be abb4 3c3e 3f1c c3bd
000000f0: e435 22bc fa62 a93d e53e b3bc 8e42 c1bd
00000100: e164 acbc 7a02 863d df95 123c 5e5a db3d
00000110: bfb7 443d 5f75 453d 3673 e73e f7d0 df3e
00000120: 2590 b53c ae9c 903d 5434 433e 0231 5f3e
00000130: 57fe a7bc c7a5 913c d3e9 cdbc bab8 d03c
00000140: 265b f33d a404 1b3d 434f 5a3d ab4b b3be
00000150: 86f9 d7bd e076 4e3e 6f67 603e 4cef 823e
00000160: 8cd3 cd3d 58b2 d2be 618d 5bbe a66f 20bf
00000170: 99aa 7bbe 8cda 49be f54a 27bf fff0 4abf
00000180: 39a7 52bd cfa3 dfbe dfb9 21bf 2213 c7be
00000190: bdf3 1eb9 e064 dfbe 29d5 aabe eb40 5bbf
000001a0: 62c3 5abe 3469 aebe 6dfd 993d d0ea c6bd
000001b0: 8f68 f63c b13b 03be 33b3 5c3d 4698 703e
000001c0: dcb7 01be e8f1 6abd 6863 833d 2bb4 81bd
000001d0: 4623 c0bc 98c7 bbbc fe33 81bd d1d0 f2bc
000001e0: 77f6 f3bd 4d2b 813e 37b4 353d 0c00 82be
000001f0: 148e 30be a915 1abd 9a11 15bc 0407 bfbc
00000200: 84fc 793e 132c 033e aa3b cabd 6d54 6d3e
00000210: 1bcd c93c cf3f 4cbd 196d a0bd 996b 8abd
00000220: 602b 8f3e d807 103d aa22 61be b71b 33bc
00000230: cb1b f5bd bece 06be 733f 063d 3802 303d
00000240: 4424 853e 7b3c a53e 3888 893d 8d19 c83e
00000250: edf1 e83d 4d4b a23e da12 4d3e 3897 bb3d
00000260: b04f 283d a86e aabe 4b0a c83d dc26 04bf
00000270: 641c 34be 5d75 1fbe 6b1c f8bc e1f4 873e
00000280: 499e 053e dd52 c6be 43f5 413d a2b8 463c
00000290: 1e18 093e 7490 c8bd 2126 463d 1bfb b33d
000002a0: 8de9 3d3e 756c 48be 1ca1 58be b940 03bf
000002b0: 2499 98be 1c37 843d cc8e a83e f882 483e
000002c0: d985 143e ea46 073d b25e 763e c677 663e
000002d0: d910 aebe c688 bbbe 2768 8abe 27fa 433e
000002e0: e890 5a3e 4735 87bd b374 933e 8353 153e
000002f0: 72e7 48be cf44 28bc 4edd 27be c4a8 0abe
00000300: 90c5 2abe 7687 1abf 9070 c3bd e86c 90be
00000310: c930 2ebe 1f95 563e ec98 953e ccb6 afbe
00000320: 3091 77be 6132 c0bd 41ef 663d 7a9d 19be
00000330: 0965 813e f001 a1bc 684e 013e 4de9 823e
00000340: 7eb1 a73e b35e 583d 540d f03d 3d1f b8bd
00000350: 80c3 773e b744 7b3e a82a 423d 2840 b03d
00000360: 3f85 12bd a01c 493e f50b c63e a83d 303e
00000370: 28ae 2cbe d446 72be 331d 8dbd af4a afbd
00000380: 8048 65bd 1a6d 76bd 3a68 aa3e 1489 c33d
00000390: eb19 a03c 8680 c53c 26df 893e ac24 a93c
000003a0: 9b4a 2f3b 097d 8cbc 8324 acbc 89ab 033d
000003b0: 8053 2b3e aca6 283e d338 6cbe c432 6bbe
000003c0: d2d5 b83d 8628 e23b 0f94 41be 1908 813e
000003d0: f87b 9d3e b2a4 233e 23a8 fabd a24c 043d
000003e0: d3a2 44bb 99af 1e3e 5595 23be 8da3 e53d
000003f0: 0338 6b3e 72c4 cd3d b8e4 71be 79fc d1bd

conv6.bias f4 [64]
0.13401394 -0.06575603 -0.10937612 0.2004967 -0.12334737 0.29579148 0.11737504 0.06690593
0.13631567 0.063755505 0.13977014 0.2901065 0.117602885 -0.29555607 0.07980262 -0.27428737
0.39959976 -0.10604722 -0.19179378 0.06260901 -0.14330254 0.032690626 -0.06631779 -0.11232531
-0.1302985 0.082144976 -0.31507042 0.079140276 -0.19536372 -0.094861075 -0.31962124 0.06980867
-0.15262212 -0.47656614 -0.3373517 0.11956185 -0.13989559 -0.15056387 -0.11004876 -0.042780817
-0.11239836 -0.054317072 -0.24228592 -0.16471237 -0.1364493 0.13906074 0.03347736 0.24347726
-0.17534411 0.008300503 0.18187669 0.117731005 -0.250164 -0.3742873 -0.26637754 0.17576292
0.08292696 0.2162961 0.33534896 -0.07771119 -0.41527864 -0.16701974 0.32768208 -0.090306394
00000000: f33a 093e 19ab 86bd 9600 e0bd 024f 4d3e
00000010: 8c9d fcbd fb71 973e 5362 f03d fa05 893d
00000020: 5696 0b3e 3f92 823d e71f 0f3e d788 943e
00000030: c8d9 f03d 2053 97be 8e6f a33d 656f 8cbe
00000040: 5798 cc3e 492f d9bd 9765 44be 2739 803d
00000050: e7bd 12be 9be6 053d 9fd1 87bd d00a e6bd
00000060: f86c 05be a03b a83d e950 a1be 4c14 a23d
00000070: 6d0d 48be 8646 c2bd 65a5 a3be d9f7 8e3d
00000080: f948 1cbe 7a00 f4be 5db9 acbe d8dc f43d
00000090: ca40 0fbe 6a2d 1abe 3f61 e1bd f03a 2fbd
000000a0: 1d31 e6bd 947b 5ebd cd19 78be 5caa 28be
000000b0: 5eb9 0bbe f065 0e3e 8e1f 093d 1a52 793e
000000c0: 688d 33be d5fe 073c e23d 3a3e f41c f13d
000000d0: 7f15 80be 96a2 bfbe a362 88be 32fb 333e
000000e0: 9cd5 a93d ba7c 5d3e dcb2 ab3e 0b27 9fbd
000000f0: 679f d4be 3907 2bbe f2c5 a73e 8ff2 b8bd
