model/model_23.pth (torch_old, 571877 bytes, 24 tensors)

conv1.weight f4 [32, 3, 2, 2]
-0.10942039 -0.112590335 -0.15274987 0.3913237 -0.59399265 0.15155391 -0.13718788 0.43147594
-0.29659712 -0.07472759 0.0034491594 0.27487686 0.20193772 -0.12970135 0.12202564 0.0149190705
0.069865994 -0.06369966 0.32532457 0.03988179 -0.13666406 -0.24544135 -0.04107734 -0.23725775
-0.11975616 0.043245297 0.12542747 0.22977656 -0.33482128 0.20168176 -0.043429874 0.31010324
0.13625666 -0.19916326 -0.46030584 -0.117404796 0.3868181 -0.048418798 0.06760608 -0.27622434
0.38778812 -0.2308301 0.16627708 -0.19412702 -0.05915981 0.016976483 -0.21445026 -0.14689168
-0.15710331 -0.10460073 -0.3721712 -0.22054106 0.19637872 -0.08364237 0.3022976 0.22132452
-0.046281036 -0.28384188 0.15358527 0.023198873 -0.19079778 0.11668564 0.24087983 0.25592798
-0.1950911 -0.1328762 -0.005117465 -0.023351323 -0.32895657 -0.3583079 0.12071901 -0.17124452
0.034487985 -0.07585345 -0.055497784 -0.043422427 0.16646603 0.15846598 -0.20066363 0.19891068
-0.15858991 -0.2100345 -0.004609699 -0.103691906 0.23659928 0.051206417 -0.5717908 0.05972253
0.1273613 0.4880491 -0.11785005 -0.24466133 0.24301143 0.31716657 -0.3508687 -0.20605232
0.042554095 -0.28888837 0.18091118 -0.097532794 0.13457538 -0.457695 0.4160668 0.03567248
-0.23095445 -0.4019945 0.55434513 0.1045337 0.14486967 -0.033033777 0.03653657 0.15755863
0.21880454 -0.2765813 0.013014978 0.22446792 0.14918904 0.13961518 -0.19688624 -0.14794692
-0.11705722 0.040508315 0.28332195 -0.26661363 0.17022407 -0.18665332 -0.33800933 -0.12519702
0.21001256 0.26710254 -0.22562943 0.03179761 0.37191665 0.2230781 0.12586422 0.096669726
0.14150704 -0.0164215 -0.47633085 -0.52124995 -0.007997099 0.054579638 -0.27681732 0.04584421
0.012968891 0.008839664 -0.12549703 0.05647777 0.16101235 0.33084 -0.18735258 0.38413092
-0.135699 0.024768824 -0.42358267 -0.18256636 -0.36361068 -0.14973587 0.17841014 0.022091335
-0.262632 0.2162669 0.09105236 0.35112166 -0.31380764 0.055696856 -0.24148233 -0.028835297
-0.5327506 -0.30816892 -0.24770445 0.1345725 -0.050980043 0.081944175 0.32024297 0.4711126
0.0670201 -0.06351593 -0.21220304 0.34546593 0.1308262 0.10087413 -0.2166359 -0.15084462
0.009778728 0.3411513 -0.16956696 -0.25762188 0.117279276 -0.14880456 0.1561052 -0.20503445
0.021748014 -0.09515278 0.34162968 -0.3701768 0.2250722 -0.047111835 0.37551585 -0.46954164
0.19259104 -0.35845062 0.3211538 -0.32694548 -0.0229672 0.14674485 -0.22258821 0.21594779
-0.21731526 0.2504338 -0.20284837 0.29648602 -0.6053783 0.1810312 -0.06409503 0.28780887
0.117471635 -0.18557388 -0.17741522 0.29415447 -0.39865386 0.3187859 -0.43379995 -0.19736248
0.24822077 0.012542918 0.0032181162 0.40431288 0.18983074 0.44622853 -0.2613531 -0.2686369
0.32249215 0.21754572 -0.28011793 0.07872903 -0.31246603 0.33020097 -0.18427533 -0.38109037
-0.2620727 -0.051484182 0.17113425 0.05416691 -0.35361788 -0.15177865 -0.4216013 -0.29313618
-0.16979003 0.29066458 0.36551666 0.05258517 -0.01781675 0.19686438 -0.11767613 -0.21590596
00000000: cc17 e0bd c395 e6bd 766a 1cbe 945b c83e
00000010: e70f 18bf f330 1b3e fb7a 0cbe 6aea dc3e
00000020: 94db 97be c70a 99bd 4b0b 623b a9bc 8c3e
00000030: c3c8 4e3e 6ed0 04be 94e8 f93d 1e6f 743c
00000040: e715 8f3d f874 82bd f190 a63e 165b 233d
00000050: aaf1 0bbe fa54 7bbe b640 28bd b2f3 72be
00000060: b842 f5bd fb21 313d 0f70 003e 8c4a 6b3e
00000070: b26d abbe aa85 4e3e 86e3 31bd dac5 9e3e
00000080: de86 0b3e 74f1 4bbe 35ad ebbe ed71 f0bd
00000090: 060d c63e ca52 46bd 0e75 8a3d 476d 8dbe
000000a0: 2a8c c63e ba5e 6cbe 8a44 2a3e 3cc9 46be
000000b0: 8f51 72bd 4412 8b3c d998 5bbe c66a 16be
000000c0: b1df 20be e838 d6bd 398d bebe 84d5 61be
000000d0: 8117 493e b14c abbd c0c6 9a3e e5a2 623e
000000e0: 2f91 3dbd b953 91be 7545 1d3e 900b be3c
000000f0: 7e60 43be e1f8 ee3d 34a9 763e fe08 833e
00000100: f6c5 47be b310 08be 68b0 a7bb 464b bfbc
00000110: ff6c a8be 2274 b7be 873b f73d b95a 2fbe
00000120: 4643 0d3d 0e59 9bbd a551 63bd b7db 31bd
00000130: 1276 2a3e e844 223e c47a 4dbe 3eaf 4b3e
00000140: 6565 22be 4913 57be f50c 97bb 6c5c d4bd
00000150: 1547 723e d2bd 513d e260 12bf 9d9f 743d
00000160: 006b 023e 92e1 f93e 5e5b f1bd 8088 7abe
00000170: fdd7 783e a863 a23e 10a5 b3be 61ff 52be
00000180: 344d 2e3d 2de9 93be c840 393e 46bf c7bd
00000190: 21ce 093e 0057 eabe b506 d53e 4e1d 123d
000001a0: 537f 6cbe 39d2 cdbe 90e9 0d3f c415 d63d
000001b0: b758 143e 6d4e 07bd 5fa7 153d 0d57 213e
000001c0: 4c0e 603e 109c 8dbe c63c 553c ebda 653e
000001d0: 03c5 183e 48f7 0e3e 8c9c 49be 667f 17be
000001e0: b2bb efbd 0cec 253d 930f 913e 9581 88be
000001f0: 384f 2e3e 0c22 3fbe 8f0f adbe a633 00be
00000200: 880d 573e aac1 883e 670b 67be 363e 023d
00000210: dc6b be3e 966e 643e 8de2 003e c7fa c53d
00000220: 39e7 103e 6286 86bc a3e1 f3be a370 05bf
00000230: 4406 03bc e68e 5f3d 00bb 8dbe 23c7 3b3d
00000240: 797b 543c 3dd4 103c 4b82 00be 3c55 673d
00000250: 6ce0 243e dc63 a93e 5bd9 3fbe cfac c43e
00000260: aef4 0abe fde7 ca3c d4df d8be adf2 3abe
00000270: 2e2b babe 5c54 19be 26b1 363e e3f8 b43c
00000280: b477 86be 1275 5d3e a979 ba3d 38c6 b33e
00000290: 65ab a0be 6322 643d 2547 77be 0038 ecbc
000002a0: 5862 08bf 51c8 9dbe 3ca6 7dbe 60cd 093e
000002b0: 73d0 50bd 59d2 a73d e3f6 a33e ac35 f13e
000002c0: d641 893d a414 82bd c14b 59be e9e0 b03e
000002d0: 4ef7 053e 1997 ce3d cdd5 5dbe 0377 1abe
000002e0: f536 203c 62ab ae3e f6a2 2dbe 04e7 83be
000002f0: 1e30 f03d 3960 18be 0bda 1f3e 8df4 51be
00000300: e428 b23c 76df c2bd 16ea ae3e d087 bdbe
00000310: 5479 663e 57f8 40bd 9d43 c03e c367 f0be
00000320: 9636 453e d786 b7be 456e a43e 6665 a7be
00000330: b625 bcbc 4844 163e 2aee 63be 6b21 5d3e
00000340: e487 5ebe dc38 803e 7cb7 4fbe 04cd 973e
00000350: 13fa 1abf 3e60 393e 4144 83bd af5b 933e
00000360: f894 f03d 1407 3ebe 56ac 35be 6a9b 963e
00000370: 5c1c ccbe e837 a33e 071b debe 6419 4abe
00000380: 962d 7e3e d080 4d3c 08e7 523b 1902 cf3e
00000390: fd62 423e 1178 e43e 13d0 85be c78a 89be
000003a0: b11d a53e 4ec4 5e3e 9e6b 8fbe b03c a13d
000003b0: 8cfb 9fbe 1a10 a93e acb2 3cbe 471e c3be
000003c0: 652e 86be 14e1 52bd d13d 2f3e 1fde 5d3d
000003d0: 670d b5be dd6b 1bbe 20dc d7be f215 96be
000003e0: 70dd 2dbe fdd1 943e 0025 bb3e 8c63 573d
000003f0: 6ff4 91bc d196 493e 2f00 f1bd 7416 5dbe

conv1.bias f4 [32]
-0.3791597 -0.09312752 -0.4927385 -0.1690714 -0.38790736 -0.50475544 -0.5592676 0.13047127
0.08503289 -0.35181284 -0.40553588 -0.0235167 -0.09326589 -0.19673833 0.077124536 -0.3962734
-0.083171144 0.12001303 -0.16364771 -0.5285489 -0.5088308 -0.75441813 0.13479109 -0.6105842
0.051312126 -0.103552274 -0.36954737 -0.4591425 0.11448391 -0.46840224 -0.3977821 0.07047045
00000000: 3821 c2be a4b9 bebd 3848 fcbe 0e21 2dbe
00000010: cb9b c6be a737 01bf 292c 0fbf 439a 053e
00000020: b925 ae3d d020 b4be 66a2 cfbe 18a6 c0bc
00000030: 3002 bfbd c675 49be 78f3 9d3d 59e4 cabe
00000040: a255 aabd 64c9 f53d 4493 27be fb4e 07bf
00000050: bc42 02bf 8c21 41bf ad06 0a3e 3f4f 1cbf
00000060: aa2c 523d 3713 d4bd 5035 bdbe ba14 ebbe
00000070: 8a76 ea3d 6bd2 efbe 18aa cbbe d052 903d

conv2.weight f4 [32, 32, 2, 2]
-0.19748816 0.12040259 -0.0954191 -0.08759131 0.020388179 0.043774784 -0.06996111 0.012460253
-0.020036843 0.03218658 -0.20693715 -0.17826433 -0.09752353 -0.07913251 -0.033442657 -0.09795007
-0.09407521 0.02662558 -0.10996846 -0.19599289 -0.044470355 0.03291825 -0.03198371 0.07636663
0.03644179 0.14460449 -0.12476858 0.029767433 -0.30379802 -0.31994817 -0.053225365 -0.4446535
0.11002056 0.110382825 0.1415718 0.26790658 0.10968239 -0.08425242 0.12323072 0.10307928
-0.11253704 0.07233248 0.066795975 -0.02361509 -0.029308118 -0.26223537 0.17312504 -0.1614413
0.13050564 -0.03465 0.07357322 -0.18113446 0.061540794 0.07579857 0.006303518 -0.11243646
0.110053614 0.006553106 0.15313125 0.11864181 -0.00031358722 0.31977227 -0.07887459 -0.07974416
0.15230894 -0.024244951 -0.19604649 -0.009409042 0.042344283 -0.25109467 0.05328501 0.0027573304
0.06761686 0.0496233 -0.08422188 -0.20841035 -0.12459401 -0.25999746 0.05319811 0.093145326
0.2912188 0.35715967 -0.43139908 -0.18436272 -0.27363512 -0.13477157 -0.054777417 -0.21501017
-0.12959214 -0.0016361079 -0.03520834 -0.016766172 0.49098334 0.22463009 -0.23997013 -0.28951672
-0.29034185 0.10144597 0.12835339 -0.28174996 0.13032192 0.111918695 -0.20042208 -0.22531766
-0.08795513 0.23519422 0.058469925 -0.061922114 -0.04541217 0.11045811 -0.0014382537 0.042997368
0.14932483 0.16913223 0.17752415 0.3040677 0.03443603 0.26053262 -0.3324718 -0.1611023
-0.25943366 0.19715092 -0.124077536 0.085102424 0.15453528 -0.07015877 0.072101444 0.074790485
-0.22756688 -0.12436321 -0.16954076 -0.2712552 -0.39249104 -0.23553316 -0.30721167 -0.34569448
-0.3675267 -0.45244855 -0.5427829 -0.3015211 -0.21005102 -0.42066488 -0.4206588 -0.43037367
-0.23037356 -0.26209348 -0.23191018 -0.30957493 0.18632375 0.21305448 0.17976867 0.23882248
-0.35067278 -0.31040302 -0.28663003 -0.27335167 -0.3544935 -0.34087828 -0.534858 -0.39925632
-0.45330656 -0.11700968 -0.4385242 -0.34850833 -0.012024294 0.020227773 -0.13654956 0.052192394
0.028923243 -0.07570636 0.025514666 0.117465906 0.10565336 0.12796299 0.114851385 0.20087203
-0.42563146 -0.5850852 -0.6656842 -0.5090853 -0.09969746 -0.1598552 -0.11823874 -0.13700917
-0.176839 -0.3123678 -0.07918621 -0.18157913 0.22431773 0.17349732 0.25193143 0.26094705
-0.23178782 -0.025642201 -0.06382092 -0.06345353 -0.19409144 -0.25556242 -0.17950484 -0.24826416
0.01855598 0.019754842 0.09556789 0.035965525 -0.1835608 -0.2512914 -0.01233806 -0.13735597
0.33562008 0.3926619 0.32923186 0.44315192 0.20390733 0.0069043827 0.28374636 0.02840944
-0.37091374 -0.37728453 -0.5638629 -0.3103974 -0.23757367 -0.28260297 -0.28165144 -0.27030438
-0.4800082 -0.42551413 -0.6128202 -0.44630176 0.096030235 -0.026559904 -0.04886464 0.001508009
-0.22242345 -0.17606641 -0.17646238 -0.026006915 -0.048276212 0.0043377792 0.006407039 -0.011332579
-0.17494375 0.015179159 -0.07369473 -0.05527252 -0.035264928 0.01580303 -0.18544751 -0.024349682
-0.07344264 -0.037924353 0.04097618 0.030463822 -0.47180814 -0.31305632 -0.35335398 -0.3927544
00000000: 563a 4abe a295 f63d 176b c3bd 1363 b3bd
00000010: 1c05 a73c 304d 333d c547 8fbd 1726 4c3c
00000020: 4e24 a4bc 13d6 033d 55e7 53be ed8a 36be
00000030: 6bba c7bd 3a10 a2bd 2bfb 08bd 0c9a c8bd
00000040: 81aa c0bd e31d da3c 2537 e1bd 5cb2 48be
00000050: 8c26 36bd 49d5 063d 5a01 03bd 1c66 9c3d
00000060: fd43 153d 3313 143e ab86 ffbd d5da f33c
00000070: 6a8b 9bbe 3fd0 a3be d702 5abd a0a9 e3be
00000080: 7652 e13d 6410 e23d 33f8 103e 0d2b 893e
00000090: 29a1 e03d 888c acbd 6360 fc3d 3b1b d33d
000000a0: d279 e6bd 0d23 943d 54cc 883d 6f74 c1bc
000000b0: 9417 f0bc b743 86be b147 313e de50 25be
000000c0: 45a3 053e 29ed 0dbd 8ead 963d 507b 39be
000000d0: 3312 7c3d 483c 9b3d be8d ce3b 1645 e6bd
000000e0: ca63 e13d 70bb d63b 70ce 1c3e 7afa f23d
000000f0: f768 a4b9 31b9 a33e 0089 a1bd e850 a3bd
00000100: e0f6 1b3e 599d c6bc 69c0 48be 6228 1abc
00000110: 3371 2d3d 7b8f 80be 6241 5a3d 54b4 343b
00000120: b57a 8a3d cd41 4b3d 857c acbd 8669 55be
00000130: 252b ffbd 631e 85be 43e6 593d fac2 be3d
00000140: a11a 953e a2dd b63e 57e0 dcbe 95c9 3cbe
00000150: e719 8cbe 8f01 0abe 495e 60bd a02b 5cbe
00000160: cdb3 04be ac72 d6ba 9f36 10bd 3659 89bc
00000170: 2b62 fb3e 6e05 663e bbba 75be 893b 94be
00000180: b0a7 94be e8c2 cf3d 126f 033e 8841 90be
00000190: 1c73 053e a135 e53d 723b 4dbe acb9 66be
000001a0: d221 b4bd c1d6 703e 297e 6f3d 0ba2 7dbd
000001b0: 1d02 3abd dd37 e23d c983 bcba 021e 303d
000001c0: 9ce8 183e 0031 2d3e e4c8 353e c3ae 9b3e
000001d0: cb0c 0d3d 8864 853e be39 aabe 00f8 24be
000001e0: 7dd4 84be eee1 493e 5d1c febd 2e4a ae3d
000001f0: 7f3e 1e3e 67af 8fbd eca9 933d c12b 993d
00000200: 4b07 69be 23b2 febd 189c 2dbe f6e1 8abe
00000210: 96f4 c8be 9b2f 71be d94a 9dbe defe b0be
00000220: 762c bcbe 56a7 e7be d2f3 0abf f960 9abe
00000230: 9d17 57be 6361 d7be 9760 d7be f059 dcbe
00000240: 0ce7 6bbe 1e31 86be dd79 6dbe 9b80 9ebe
00000250: a7cb 3e3e f42a 5a3e 4715 383e e18d 743e
00000260: 628b b3be 25ed 9ebe 2cc1 92be c0f4 8bbe
00000270: 2c80 b5be 9987 aebe 74ec 08bf 536b ccbe
00000280: cc17 e8be c5a2 efbd 3e86 e0be af6f b2be
00000290: 8b01 45bc b7b4 a53c a6d3 0bbe b1c7 553d
000002a0: 70f0 ec3c f00b 9bbd 2204 d13c f791 f03d
000002b0: ca60 d83d bb08 033e 3437 eb3d 66b1 4d3e
000002c0: 5eec d9be 25c8 15bf 486a 2abf 6a53 02bf
000002d0: 2f2e ccbd 15b1 23be 2727 f2bd 224c 0cbe
000002e0: 4815 35be acee 9fbe 612c a2bd e1ef 39be
000002f0: 8cb3 653e 48a9 313e 28fd 803e da9a 853e
00000300: c959 6dbe 980f d2bc 8bb4 82bd edf3 81bd
00000310: e8bf 46be 14d9 82be 1ed0 37be f638 7ebe
00000320: b602 983c e8d4 a13c 19b9 c33d 9650 133d
00000330: 5df7 3bbe 44a9 80be 9325 4abc 0ba7 0cbe
00000340: 65d6 ab3e fb0a c93e 1491 a83e cfe4 e23e
00000350: 15cd 503e 293e e23b 3447 913e eaba e83c
00000360: 68e8 bdbe 702b c1be 5259 10bf 68ec 9ebe
00000370: 8346 73be 56b1 90be 9e34 90be 5665 8abe
00000380: a3c3 f5be fddc d9be c9e1 1cbf aa81 e4be
00000390: 80ab c43d 2894 d9bc 4a26 48bd 63a8 c53a
000003a0: f9c2 63be c14a 34be 8eb2 34be 740c d5bc
000003b0: 47bd 45bd ee23 8e3b 23f2 d13b 48ac 39bc
000003c0: 7424 33be 02b2 783c 43ed 96bd 7065 62bd
000003d0: f571 10bd 5b75 813c f4e5 3dbe fc78 c7bc
000003e0: 1869 96bd 9156 1bbd a4d6 273d 448f f93c
000003f0: d690 f1be eb48 a0be d0ea b4be 1b17 c9be

conv2.bias f4 [32]
0.04648235 -0.07517998 -0.10620877 -0.15136816 0.118953094 -0.09038321 -0.14534537 0.15062587
-0.061271142 0.14833201 -0.20295712 0.18931586 0.10281984 -0.1178572 -0.4536681 -0.1149933
0.010507801 0.0034022264 0.051721502 0.117957555 0.050157826 -0.21041523 0.04641107 0.13377324
-0.06641376 0.19276966 0.03404728 -0.12504102 0.006215897 0.20425354 0.27418515 -0.15473646
00000000: 4764 3e3d f6f7 99bd fc83 d9bd 4100 1bbe
00000010: ae9d f33d d51a b9bd 6bd5 14be ab3d 1a3e
00000020: 73f7 7abd 59e4 173e fed3 4fbe 04dc 413e
00000030: 3593 d23d 1e5f f1bd 2f47 e8be 9b81 ebbd
00000040: e928 2c3c e3f7 5e3b edd9 533d bb93 f13d
00000050: 4b72 4d3d 1777 57be 8919 3e3d dafb 083e
00000060: f003 88bd 6965 453e 2975 0b3d c10a 00be
00000070: b9ae cb3b d727 513e ff61 8c3e 3c73 1ebe

conv3.weight f4 [64, 32, 2, 2]
-0.10258643 0.09070912 0.010401767 0.29489994 0.039658725 -0.2199329 0.23552449 -0.20482212
0.059657857 0.0732221 0.090541326 0.030058619 0.032770418 -0.05884943 0.01451909 -0.03322069
-0.38360998 -0.3203937 -0.23222783 -0.27418554 -0.071721755 0.0482938 -0.0583845 0.04123001
0.029881464 -0.03259451 -0.046439733 -0.06557164 -0.14715058 -0.2106915 -0.31211087 -0.4227095
-0.028951067 -0.09234055 0.026125025 -0.025187235 0.25371966 -0.07129881 0.24311016 -0.39166367
0.18221815 0.30929568 0.22498578 0.3010154 0.050825045 0.09235613 0.026669363 0.045391746
-0.01809657 -0.36662537 0.38742238 -0.043196738 0.19372341 0.20769854 -0.0570526 -0.47446612
-0.13690968 -0.05669757 -0.033735905 -0.23784614 0.11429968 0.076116815 0.058635883 0.049263272
0.06797692 0.060166467 0.08840685 -0.010289012 0.045851063 0.06817737 -0.10906271 -0.098661736
0.15824094 -0.010948856 -0.12811098 -0.035082236 0.26857528 -0.042662602 0.122719295 0.019920496
-0.2614391 0.049013898 0.051178586 0.1594781 0.19583774 0.15498585 -0.04043014 0.099057384
-0.0853927 -0.02109472 -0.06396704 -0.030802961 -0.39003912 -0.13481925 0.35839403 0.20660095
0.14839959 -0.23194441 0.26573938 -0.21378402 0.39566845 -0.19268134 0.02233679 -0.3195509
0.06998423 -0.15575677 -0.19621223 -0.118781775 0.06716719 0.012745498 -0.079393454 -0.010751064
0.032551676 0.04065459 0.10272616 0.045406166 0.24894123 -0.08992205 0.15710035 0.005425406
0.06048932 0.2688734 0.117382415 0.22698563 0.010108359 0.016236404 0.1057284 -0.04419579
-0.20880987 -0.54969573 0.062253285 -0.016368931 0.23974055 -0.09246354 0.2510386 0.20681448
0.037951894 0.002729123 -0.10473322 -0.08102397 -0.06297825 -0.10160633 0.03639583 0.05983155
-0.08308753 -0.15368035 -0.18475884 -0.09421861 -0.007380301 -0.02563022 -0.025537461 0.06001095
-0.01475258 0.025620101 0.05798407 0.036786813 -0.031192593 -0.2880196 0.027631784 -0.17568594
-0.008587695 0.013878811 -0.014573884 -0.018927868 0.10149808 0.15584455 -0.09955485 -0.2189684
-0.05791533 0.051356863 -0.2559706 -0.12164774 0.045265555 -0.33975458 0.23979707 -0.07867899
0.20930858 0.26132903 -0.08171548 -0.18823104 0.10101458 0.08016194 0.11022572 0.2545943
-0.31808957 -0.035182826 -0.27407137 0.05136855 -0.030785486 0.07717635 -0.038239058 0.02102909
0.1603399 0.015201756 -0.009853667 0.051775362 -0.016004778 -0.06857414 -0.076618776 0.08034685
0.04495931 -0.0331396 -0.35551247 -0.17304167 -0.13319506 0.02646027 -0.5231856 -0.09556356
-0.13405824 -0.023697885 -0.32310617 -0.3601597 -0.055412583 -0.022940414 0.02364467 0.1289879
0.038566045 0.06352048 0.07417475 0.17392826 -0.23513655 -0.2751671 0.12908527 -0.030033972
0.23065326 0.2675103 -0.12208671 -0.019664133 0.22100125 0.11721305 -0.13897055 -0.19153194
-0.29275563 -0.7532776 -0.23842022 -0.47849512 0.017388474 -0.075360045 0.037650168 0.082027785
0.23328528 0.091595046 -0.2964198 -0.08714479 0.07048847 0.20505537 -0.19762594 0.05863725
0.13453242 0.0813765 0.08363323 -0.6439312 -0.054241188 0.031608474 -0.05865214 0.006087274
00000000: d618 d2bd b4c5 b93d 2c6c 2a3c 20fd 963e
00000010: 3071 223d 1736 61be 552d 713e e4bc 51be
00000020: cc5b 743d 78f5 953d bb6d b93d 7e3d f63c
00000030: 463a 063d 1a0c 71bd 7ae1 6d3c 6b12 08bd
00000040: 8768 c4be a50a a4be 22cd 6dbe 0c62 8cbe
00000050: dbe2 92bd b8cf 453d 9624 6fbd cde0 283d
00000060: f9c9 f43c d281 05bd 9737 3ebd 6d4a 86bd
00000070: a4ae 16be 83bf 57be ffcc 9fbe 616d d8be
00000080: ca2a edbc 0b1d bdbd 2604 d63c 7655 cebc
00000090: 8be7 813e 1c05 92bd dff1 783e 2488 c8be
000000a0: 6597 3a3e 015c 9e3e ac62 663e b11e 9a3e
000000b0: ec2d 503d 3625 bd3d b579 da3c b2ec 393d
000000c0: 423f 94bc 52b6 bbbe 3a5c c63e 10ef 30bd
000000d0: 6e5f 463e edae 543e fdaf 69bd 39ed f2be
000000e0: 0d32 0cbe b63b 68bd a92e 0abd f08d 73be
000000f0: f315 ea3d 22e3 9b3d 2e2c 703d 49c8 493d
00000100: 7c37 8b3d 1d71 763d a70e b53d 3f93 28bc
00000110: 53ce 3b3d 94a0 8b3d 455c dfbd 2a0f cabd
00000120: ea09 223e d562 33bc 862f 03be 64b2 0fbd
00000130: b382 893e fbbe 2ebd 4154 fb3d 4f30 a33c
00000140: 59db 85be ccc2 483d a3a0 513d 3a4e 233e
00000150: b089 483e 9cb4 1e3e 139a 25bd 99de ca3d
00000160: 5ee2 aebd d6ce acbc 2701 83bd 7e56 fcbc
00000170: 35b3 c7be 0f0e 0abe 6c7f b73e 338f 533e
00000180: 10f6 173e d682 6dbe fe0e 883e 33ea 5abe
00000190: 0e95 ca3e 424e 45be a5fb b63c 2d9c a3be
000001a0: e453 8f3d b47e 1fbe dceb 48be dc43 f3bd
000001b0: f48e 893d 7ed2 503c 0999 a2bd 3b25 30bc
000001c0: e854 053d 6d85 263d 1862 d23d d1fb 393d
000001d0: 73ea 7e3e 0d29 b8bd eade 203e 9bc7 b13b
000001e0: a6c3 773d c6a9 893e 3166 f03d ec6e 683e
000001f0: 889d 253c 3502 853c 2288 d83d a506 35bd
00000200: 41d2 55be dcb8 0cbf 4dfd 7e3d 2318 86bc
00000210: 8c7e 753e 865d bdbd 2288 803e 2dc7 533e
00000220: 7273 1b3d 16db 323b 5f7e d6bd e5ef a5bd
00000230: befa 80bd fb16 d0bd cb13 153d ed11 753d
00000240: cc29 aabd 625e 1dbe 6c31 3dbe b0f5 c0bd
00000250: 74d6 f1bb 78f6 d1bc f033 d1bc 0bce 753d
00000260: ceb4 71bc 3fe1 d13c b480 6d3d c5ad 163d
00000270: 9c87 ffbc 4e77 93be 0d5c e23c 04e7 33be
00000280: 67b3 0cbc f463 633c 4dc7 6ebc 9e0e 9bbc
00000290: 3ade cf3d b795 1f3e 6ae3 cbbd 4139 60be
000002a0: a038 6dbd 935b 523d 940e 83be 7322 f9bd
000002b0: 6068 393d 50f4 adbe 5d8d 753e 7322 a1bd
000002c0: fd54 563e ebcc 853e 725a a7bd a3bf 40be
000002d0: bbe0 ce3d f12b a43d 06be e13d 2f5a 823e
000002e0: a3dc a2be de1b 10bd 1553 8cbe d467 523d
000002f0: d831 fcbc a20e 9e3d 8fa0 1cbd 3345 ac3c
00000300: 2530 243e c910 793c 4671 21bc 6712 543d
00000310: 741c 83bc 9970 8cbd 4eea 9cbd e48c a43d
00000320: 4127 383d 64bd 07bd bb05 b6be d631 31be
00000330: 4964 08be 35c3 d83c 7eef 05bf d4b6 c3bd
00000340: 9046 09be 1122 c2bc 2c6e a5be da66 b8be
00000350: 4ef8 62bd 89ed bbbc 78b2 c13c 6715 043e
00000360: 6ef7 1d3d 0717 823d eee8 973d 401a 323e
00000370: a3c7 70be b4e2 8cbe ee2e 043e ce09 f6bc
00000380: 5e30 6c3e 1cf7 883e 9908 fabd ad16 a1bc
00000390: 274e 623e 650d f03d 4c4e 0ebe f320 44be
000003a0: 11e4 95be cdd6 40bf 6e24 74be 50fd f4be
000003b0: 4672 8e3c 5e56 9abd 1037 1a3d 2ffe a73d
000003c0: 56e2 6e3e 2f96 bb3d 56c4 97be f878 b2bd
000003d0: 425c 903d 09fa 513e 745e 4abe 9d2d 703d
000003e0: dec2 093e b9a8 a63d e647 ab3d add8 24bf
000003f0: 022c 5ebd e377 013d 3a3d 70bd c177 c73b

conv3.bias f4 [64]
0.002247661 0.3459813 0.14694831 -0.40100157 0.04151957 -0.02395914 0.11619275 -0.087484635
0.13383588 0.13428141 -0.3695715 -0.08968502 0.040308885 -0.106935166 0.103153646 0.15129347
-0.046000294 0.031827282 0.043271355 0.06335035 0.12647699 -0.0015620479 -0.46643466 -0.14011382
0.0011295617 -0.16341771 0.34879765 0.0854725 0.24416177 0.14425753 0.12926799 0.20796591
-0.08304886 0.22446844 -0.06643068 -0.21829814 0.029591424 0.25021988 -0.22279818 0.03408882
0.09077913 0.18267587 0.030942855 -0.16641876 0.049714107 -0.035388213 0.05869304 0.11076916
-0.04278863 -0.064474985 0.0808482 -0.09519822 0.057004735 -0.16900586 0.13076289 -0.009397204
-0.12869063 0.029079275 -0.11049853 -0.20040765 0.07906639 0.007484673 -0.14250274 -0.043628007
00000000: 7e4d 133b 7624 b13e 9e79 163e 1450 cdbe
00000010: 6d10 2a3d f545 c4bc 77f6 ed3d 252b b3bd
00000020: 460c 093e 1181 093e 7a38 bdbe c8ac b7bd
00000030: ee1a 253d d300 dbbd 3842 d33d adec 1a3e
00000040: ce6a 3cbd 535d 023d 4e3d 313d d4bd 813d
00000050: 2f83 013e a1bd ccba 86d0 eebe ff79 0fbe
00000060: cd0d 943a f956 27be 9b95 b23e 350c af3d
00000070: 8b05 7a3e 3fb8 133e d45e 043e 04f5 543e
00000080: 8515 aabd 0edb 653e cf0c 88bd 8c89 5fbe
00000090: b769 f23c d21c 803e 3525 64be b8a0 0b3d
000000a0: 69ea b93d 620f 3b3e df7b fd3c ae69 2abe
000000b0: 05a1 4b3d 3bf3 10bd 1d68 703d f1da e23d
000000c0: 2143 2fbd 760b 84bd be93 a53d 49f7 c2bd
000000d0: cc7d 693d df0f 2dbe b5e6 053e bbf6 19bc
000000e0: 7ac7 03be a937 ee3c 0e4d e2bd aa37 4dbe
000000f0: 8fed a13d fd41 f53b 3dec 11be 48b3 32bd

conv4.weight f4 [64, 64, 2, 2]
0.043507624 -0.19716933 -0.08560097 -0.56595594 -0.22663926 0.23434232 -0.2084439 0.060993366
-0.38846606 0.11567545 -0.28052804 -0.04338305 -0.10688298 -0.19188337 -0.16414464 -0.18362215
0.13686174 0.09785651 0.08301844 -0.3318611 -0.24460731 -0.3362307 -0.1291285 -0.19586018
0.037489425 -0.5693121 0.1326698 -0.17225325 -0.053497467 0.028837841 0.17904946 0.026577152
0.16972955 -0.19423665 0.29976004 0.034346677 -0.19380066 -0.28276312 -0.118236944 -0.12961917
-0.13028035 0.02482095 -0.26250353 -0.41789508 -0.48055488 0.09949485 -0.47853455 -0.44763088
-0.36129764 0.03950661 -0.09741046 -0.26104575 -0.020101227 -0.07197553 0.047628853 -0.08040007
0.26300916 -0.022140933 0.4478614 0.266038 -0.13857776 -0.19909804 0.26294658 -0.013080426
-0.09047783 0.05670412 -0.338726 -0.017359547 -0.20503893 -0.045921836 -0.09448535 -0.36368185
0.14605515 -0.1883499 0.056200676 0.081629336 -0.38125336 -0.11688727 -0.25726828 -0.07564008
-0.14978799 0.36727935 -0.012987827 0.11520133 -0.38026312 0.48399237 0.026855502 -0.047819957
0.043833736 0.03894542 -0.323301 0.08310862 -0.027955234 0.042950787 0.034015637 0.084612645
-0.49030453 -0.13720302 -0.1983659 0.25857398 0.031750347 0.28275564 -0.13674223 0.15797305
0.11227306 -0.18702312 0.20845614 -0.08826965 -0.22285953 -0.5165582 -0.15617247 -0.35451844
-0.16027747 -0.4633008 0.03989443 -0.23369476 -0.15268953 -0.2535749 -0.53030217 -0.36583024
0.063339464 0.28274763 0.02844904 -0.2614393 -0.1510325 0.20910162 -0.23339698 0.09219852
-0.17532887 -0.1101561 -0.21652612 -0.17448093 0.0710415 -0.35401922 0.024675885 0.16836883
0.07947494 -0.14128175 -0.22192504 0.19811593 -0.14143713 0.044342965 -0.10830866 0.015162157
-0.039964095 -0.058684368 0.176188 0.13873965 0.09317775 0.0435343 0.15014769 0.039172757
-0.16720831 0.030360414 -0.50244826 -0.5164536 -0.32301703 0.13279314 -0.29689494 -0.111211486
-0.15925328 0.20216769 -0.19800754 0.31199467 -0.21651836 -0.017534724 -0.04185088 -0.09634115
0.14474823 -0.14375219 -0.122799814 -0.26968345 -0.062022813 -0.04994573 -0.033401646 0.0019466849
0.09730068 0.08858708 -0.011758652 0.34716788 -0.13330239 0.022267545 -0.37712315 -0.13300622
-0.014714365 -0.40097466 0.24477886 -0.38705823 0.10357999 -0.5661716 0.18286037 -0.088848874
-0.29189345 0.24102129 -0.17663477 0.09065927 -0.057768203 -0.2327443 0.35856 -0.13813908
0.16560371 -0.15974666 0.37624872 0.12098875 -0.08458248 0.03763355 0.034837198 0.069431156
0.12353785 0.024807204 0.25387296 0.24495566 0.18509932 -0.40726924 -0.06091573 -0.12115343
0.31935504 -0.23397781 0.33407933 0.33486447 -0.29475063 -0.22981666 -0.108839385 0.020777522
0.14820336 0.19681822 -0.120935045 0.34725955 -0.26591408 0.17254865 -0.42494017 -0.10187857
-0.13313462 0.15064591 0.10105988 -0.33950156 -0.094780676 -0.0970034 0.011188057 0.008777248
0.04638954 -0.26098642 0.33896697 -0.3761826 0.033560485 -0.37491617 0.19948207 0.0023411242
-0.24952412 0.12646662 -0.092162155 -0.18114218 -0.18515381 0.13779074 -0.21119669 0.11104192
00000000: 0d35 323d c2e6 49be 904f afbd 7de2 10bf
00000010: 1f14 68be 6ff7 6f3e 5172 55be 2ed4 793d
00000020: 06e5 c6be 40e7 ec3d 5fa1 8fbe 6db2 31bd
00000030: 77e5 dabd 137d 44be 8815 28be 7207 3cbe
00000040: 7c25 0c3e fe68 c83d 9205 aa3d b3e9 a9be
00000050: 577a 7abe 6e26 acbe 433a 04be 928f 48be
00000060: 838e 193d 70be 11bf 98da 073e 2863 30be
00000070: 2920 5bbd 563d ec3c be58 373e 54b8 d93c
00000080: 95cd 2d3e f9e5 46be 267a 993e 1aaf 0c3d
00000090: ae73 46be 54c6 90be 3626 f2bd e3ba 04be
000000a0: 3668 05be 4e55 cb3c dd66 86be 58f6 d5be
000000b0: 4a0b f6be f5c3 cb3d 7b02 f5be e02f e5be
000000c0: 01fc b8be afd1 213d 237f c7bd caa7 85be
000000d0: 54ab a4bc e867 93bd 7916 433d cba8 a4bd
000000e0: 23a9 863e e760 b5bc 174e e53e 2236 883e
000000f0: 54e7 0dbe 5be0 4bbe efa0 863e 484f 56bc
00000100: 714c b9bd 9442 683d 7f6d adbe 9c35 8ebc
00000110: baf5 51be 8918 3cbd 8981 c1bd 8234 babe
00000120: 7b8f 153e ccde 40be ae32 663d 482d a73d
00000130: a433 c3be 9862 efbd abb8 83be 30e9 9abd
00000140: 0662 19be 0a0c bc3e e5ca 54bc adee eb3d
00000150: d9b1 c2be d9cd f73e 1200 dc3c dcde 43bd
00000160: 018b 333d 3c85 1f3d b587 a5be da34 aa3d
00000170: 6002 e5bc 2aed 2f3d fb53 0b3d 6549 ad3d
00000180: 3209 fbbe f37e 0cbe 6e20 4bbe cf63 843e
00000190: a70c 023d 59c5 903e 2806 0cbe b0c3 213e
000001a0: 6bef e53d fd82 3fbe 8775 553e b8c6 b4bd
000001b0: 4a35 64be 283d 04bf adeb 1fbe 7183 b5be
000001c0: c71f 24be c335 edbe 5868 233d ae4d 6fbe
000001d0: a55a 1cbe 92d4 81be e2c1 07bf 1a4e bbbe
000001e0: 1fb8 813d 4cc4 903e f60d e93c 5fdb 85be
000001f0: 44a8 1abe bc1e 563e 9eff 6ebe 94d2 bc3d
00000200: 6989 33be 8599 e1bd 06b9 5dbe 21ab 32be
00000210: 357e 913d 0242 b5be 1525 ca3c e168 2c3e
00000220: c2c3 a23d 2aac 10be 5140 63be e7de 4a3e
00000230: e5d4 10be f8a0 353d eed0 ddbd b26a 783c
00000240: 64b1 23bd 055f 70bd a16a 343e c411 0e3e
00000250: fad3 be3d 0651 323d 51c0 193e 9d73 203d
00000260: a838 2bbe 67b6 f83c 73a0 00bf 4e36 04bf
00000270: 7d62 a5be edfa 073e 9d02 98be d9c2 e3bd
00000280: 4b13 23be 0c05 4f3e 7dc2 4abe c4bd 9f3e
00000290: fdb6 5dbe fba4 8fbc d46b 2bbd 824e c5bd
000002a0: e138 143e c633 13be 787e fbbd f313 8abe
000002b0: a20b 7ebd e593 4cbd 2ad0 08bd e827 ff3a
000002c0: 9445 c73d 256d b53d 5ca7 40bc fdbf b13e
000002d0: 6c80 08be 6d6a b63c 4916 c1be c832 08be
000002e0: 8514 71bc 8d4c cdbe 4fa7 7a3e 7f2c c6be
000002f0: bf21 d43d 9ff0 10bf c03f 3b3e 66f6 b5bd
00000300: 0f73 95be 49ce 763e bfdf 34be 91ab b93d
00000310: 5a9e 6cbd 8654 6ebe 2d95 b73e 5574 0dbe
00000320: 0594 293e a194 23be aca3 c03e f3c8 f73d
00000330: 9439 adbd a325 1a3d 73b1 0e3d ec31 8e3d
00000340: 6a01 fd3d 7a38 cb3c a3fb 813e a8d5 7a3e
00000350: ad8a 3d3e 9885 d0be c682 79bd 4a1f f8bd
00000360: 8182 a33e e197 6fbe 720c ab3e 5b73 ab3e
00000370: 8ee9 96be 0f55 6bbe 2fe7 debd 9f35 aa3c
00000380: 9fc2 173e b78a 493e cbac f7bd 01cc b13e
00000390: e425 88be 98b0 303e c291 d9be b6a5 d0bd
000003a0: 7154 08be ec42 1a3e 7bf8 ce3d 26d3 adbe
000003b0: 5f1c c2bd b8a9 c6bd 1d4e 373c 72ce 0f3c
000003c0: f502 3e3d 03a0 85be 148d ad3e 019b c0be
000003d0: b876 093d 03f5 bfbe 0745 4c3e 8c6d 193b
000003e0: 4083 7fbe 7780 013e 83bf bcbd 567d 39be
000003f0: f698 3dbe 0419 0d3e f243 58be f269 e33d

conv4.bias f4 [64]
-0.077119574 -0.080268435 -0.0053558187 -0.10206627 0.08282606 0.13707182 0.0042583873 -0.056611538
-0.13873297 0.21709462 -0.09704897 -0.02756026 0.12259279 0.2945664 0.11837142 0.16954209
0.009915085 -0.13887265 0.1630075 0.042156074 0.37014392 0.087828435 -0.3161365 -0.04787059
-0.09143971 0.1844758 -0.046876203 0.31667104 0.090334885 0.12384913 -0.15027507 0.085960135
0.25517696 0.13990435 -0.111983925 -0.1374693 -0.07096214 -0.22505711 -0.2982161 -0.24165775
0.056822095 -0.3006777 0.013395046 0.07556591 0.103293315 -0.07017628 0.10521612 -0.14539792
0.15973999 -0.18209188 -0.09501727 0.0005758393 0.17165606 0.26916215 0.27038667 -0.10358244
-0.025434516 0.016162584 -0.063975796 -0.09897578 0.13401856 0.18244131 -0.10564591 -0.071956225
00000000: def0 9dbd c763 a4bd dd7f afbb 1f08 d1bd
00000010: b6a0 a93d 8e5c 0c3e f189 8b3b 80e1 67bd
00000020: 0410 0ebe 0d4e 5e3e 9cc1 c6bd 0ec6 e1bc
00000030: ee11 fb3d 68d1 963e b76c f23d 719c 2d3e
00000040: e172 223c a234 0ebe 70eb 263e d9ab 2c3d
00000050: 8183 bd3e 65df b33d a5dc a1be f413 44bd
00000060: be44 bbbd 39e7 3c3e 4301 40bd b522 a23e
00000070: 7f01 b93d 9da4 fd3d b5e1 19be de0b b03d
00000080: 8ea6 823e 1643 0f3e d457 e5bd c1c4 0cbe
00000090: 9954 91bd 5f75 66be c8af 98be 2175 77be
000000a0: 49be 683d 6df2 99be e576 5b3c 4dc2 9a3d
000000b0: 728b d33d 95b8 8fbd 8d7b d73d 31e3 14be
000000c0: e192 233e 4b76 3abe 6a98 c2bd ecf3 163a
000000d0: 9bc6 2f3e 9fcf 893e 1f70 8a3e 0823 d4bd
000000e0: 0c5c d0bc 6567 843c be05 83bd d0b3 cabd
000000f0: 293c 093e e5d1 3a3e e25c d8bd c95d 93bd

conv5.weight f4 [128, 64, 2, 2]
-0.037588984 -0.18361226 -0.12726091 -0.21644656 0.020847756 -0.05123222 0.026554182 -0.084565185
0.16947111 0.019458221 0.19003253 -0.21725307 -0.2078629 0.025895571 -0.22162232 -0.14316463
-0.43398938 -0.54554254 -0.14499633 -0.3010705 -0.33927506 0.03522253 -0.12481331 -0.16987172
-0.1564886 0.02429438 0.06943469 0.04274303 -0.25196567 -0.24166174 -0.20249598 -0.036113374
-0.05856195 -0.4338507 -0.03767562 -0.091688246 0.14937118 -0.037038665 0.27203786 -0.053725798
-0.16864 -0.31515947 0.036223542 0.12994197 -0.4119738 -0.06277107 0.03458485 0.29447588
-0.22003476 -0.79471093 -0.049679745 -0.13939308 -0.2664667 -0.010578081 -0.20693742 0.059140146
-0.028869411 -0.17726675 -0.38944775 0.21883698 -0.29964897 0.10294729 0.07676278 -0.019579077
0.2632479 0.22408547 -0.46015084 -0.31051508 -0.0030755335 0.013189336 0.014591348 0.05747976
0.043374825 0.26558766 -0.3129846 -0.17481627 0.115867116 -0.15660568 0.046068445 0.20159814
0.11549788 -0.0029379942 0.1192931 0.040334914 -0.035688825 -0.09964975 -0.0209765 0.123154365
-0.3349668 0.04444043 -0.009013944 0.33029595 -0.39275762 -0.28129172 0.082420126 -0.008264243
-0.072994895 -0.0319835 -0.075987674 -0.08296072 -0.15540507 -0.21314207 0.33667994 0.15701103
-0.0077823238 -0.062158737 0.2245088 -0.5141952 0.47933874 -0.041888457 0.2574192 0.16395862
0.15569691 0.024701998 0.65122026 -0.05249858 0.19554296 0.26381713 0.36830223 0.31185037
-0.04401235 0.03510278 -0.03247223 -0.19359198 0.22036682 -0.18375352 0.21691161 -0.35912317
-0.10713704 -0.062354073 -0.08331735 -0.08090762 -0.2663225 -0.007129284 -0.066086665 -0.036541924
0.41374636 0.5933617 0.19988166 0.4660042 -0.18804196 0.27465144 -0.3132847 -0.015879044
0.04039516 0.067664266 0.026874883 -0.27658138 -0.35723177 -0.28000668 -0.16119003 0.2979799
-0.028845556 0.38318992 -0.110508546 -0.23956573 -0.18752155 -0.17452842 -0.49194345 -0.25524592
-0.08671423 -0.28910342 0.24441616 -0.054288585 -0.3687161 -0.24389029 -0.20817149 -0.2965975
-0.046732027 0.09035906 -0.19268854 -0.40619737 0.08068085 0.14103647 0.12040578 0.38064015
-0.06922497 -0.22903095 -0.000780911 -0.21929853 0.042825006 0.12564236 -0.2230358 -0.09814256
-0.4388583 -0.022608716 -0.45474422 -0.32248265 0.17106389 -0.09358438 -0.28816715 -0.353097
-0.13229996 -0.024919111 -0.15050767 -0.05018849 0.15379114 -0.73425156 -0.28433484 -0.61871505
-0.19997805 0.07701025 -0.07681387 -0.2586715 0.17834038 0.07517627 0.21474157 -0.2697144
0.068656 -0.2376164 -0.20909983 -0.2878284 0.28248024 0.42514193 0.051340703 -0.21308984
0.21070762 -0.27788314 -0.16999689 -0.33740902 -0.3280004 -0.453243 0.18602268 -0.23362888
0.064815 -0.12957163 0.14380354 0.05794061 0.065206744 0.14153169 -0.40244052 -0.16976315
0.024752494 0.29930544 -0.22710206 0.30214334 -0.22947755 -0.12499495 -0.09545576 0.073669486
-0.09041538 0.10093986 0.10613309 0.91465485 -0.34305888 -0.19931565 -0.057688214 -0.41645476
0.13654347 0.09764795 -0.025398836 -0.14529017 -0.05587313 -0.014122362 0.00091926067 0.014769806
00000000: e8f6 19bd da04 3cbe af50 02be 2ba4 5dbe
00000010: eac8 aa3c e0d8 51bd 2888 d93c 8330 adbd
00000020: d689 2d3e d966 9f3c e397 423e 9777 5ebe
00000030: 03da 54be f322 d43c f6f0 62be c099 12be
00000040: db33 debe ada8 0bbf eb79 14be ea25 9abe
00000050: 76b5 adbe 8045 103d 1f9e ffbd daf2 2dbe
00000060: 8c3e 20be 0205 c73c c633 8e3d 5113 2f3d
00000070: a501 81be 2d76 77be 1b5b 4fbe 9eeb 13bd
00000080: a8de 6fbd ae21 debe c051 1abd 0cc7 bbbd
00000090: c2f4 183e dbb5 17bd 8c48 8b3e 950f 5cbd
000000a0: f7af 2cbe 955c a1be 235f 143d 820f 053e
000000b0: 3bee d2be 1e8e 80bd d8a8 0d3d 8bc5 963e
000000c0: cb50 61be 2d72 4bbf fd7c 4bbd 0fbd 0ebe
000000d0: 536e 88be b04f 2dbc 67e7 53be f03c 723d
000000e0: 8b7f ecbc 6a85 35be b265 c7be cd16 603e
000000f0: 976b 99be 07d6 d23d ce35 9d3d 4d64 a0bc
00000100: 6ec8 863e a976 653e e498 ebbe d5fb 9ebe
00000110: e48e 49bb 1618 583c 8d10 6f3c e66f 6b3d
00000120: cda9 313d 1bfb 873e 843f a0be 0903 33be
00000130: bd4b ed3d 3d5d 20be 44b2 3c3d be6f 4e3e
00000140: 278a ec3d 5d8b 40bb f14f f43d 3936 253d
00000150: 722e 12bd 2b15 ccbd e9d6 abbc 5b38 fc3d
00000160: c580 abbe 2b07 363d 39af 13bc 8d1c a93e
00000170: 8717 c9be 7805 90be e2cb a83d bf66 07bc
00000180: 597e 95bd 2101 03bd 6d9f 9bbd 4fe7 a9bd
00000190: 8222 1fbe ea41 5abe 5061 ac3e 80c7 203e
000001a0: dd02 ffbb 299a 7ebd a3e5 653e 4ca2 03bf
000001b0: e36b f53e 3b93 2bbd 73cc 833e c5e4 273e
000001c0: 036f 1f3e d85b ca3c 5fb6 263f c008 57bd
000001d0: 6a3c 483e 0a13 873e 1c92 bc3e daaa 9f3e
000001e0: 4b46 34bd efc7 0f3d 9a01 05bd fa3c 46be
000001f0: d7a7 613e e229 3cbe 141e 5e3e fede b7be
00000200: aa6a dbbd fc66 7fbd 49a2 aabd e5b2 a5bd
00000210: 6c5b 88be c59c e9bb 7258 87bd fcac 15bd
00000220: 90d6 d33e 8de6 173f c7ad 4c3e 1a98 ee3e
00000230: 128e 40be 1d9f 8c3e da66 a0be c514 82bc
00000240: 6575 253d 9093 8a3d b728 dc3c 139c 8dbe
00000250: 15e7 b6be 095d 8fbe 000f 25be d290 983e
00000260: 844d ecbc 7831 c43e 4e52 e2bd b850 75be
00000270: a605 40be 94b7 32be 03e0 fbbe 98af 82be
00000280: 3b97 b1bd 5d05 94be 3b48 7a3e b55d 5ebd
00000290: 5bc8 bcbe 60be 79be e82a 55be a1db 97be
000002a0: 156a 3fbd 2c0e b93d 2550 45be 1af9 cfbe
000002b0: 003c a53d dd6b 103e 4e97 f63d 44e3 c23e
000002c0: d2c5 8dbd 1787 6abe 0db6 4cba cb8f 60be
000002d0: 4669 2f3d 64a8 003e 7f63 64be f7fe c8bd
000002e0: 09b2 e0be ea35 b9bc 3cd4 e8be 721c a5be
000002f0: 5f2b 2f3e 2ba9 bfbd a58a 93be 21c9 b4be
00000300: a479 07be 2a23 ccbc af1e 1abe 7292 4dbd
00000310: 6d7b 1d3e e9f7 3bbf 5694 91be 1c64 1ebf
00000320: 0cc7 4cbe 8db7 9d3d 9750 9dbd 9770 84be
00000330: dc9e 363e 04f6 993d 37e5 5b3e 0118 8abe
00000340: 849b 8c3d b751 73be 441e 56be 3e5e 93be
00000350: 40a1 903e 34ac d93e a14a 523d 3934 5abe
00000360: bdc3 573e b346 8ebe aa13 2ebe e0c0 acbe
00000370: abef a7be 770f e8be bb7c 3e3e 693c 6fbe
00000380: babd 843d 6dae 04be 3c41 133e 2253 6d3d
00000390: 1d8b 853d afed 103e af0c cebe 64d6 2dbe
000003a0: bec5 ca3c 903e 993e 718d 68be 88b2 9a3e
000003b0: 2afc 6abe 5afd ffbd 4f7e c3bd 07e0 963d
000003c0: b32b b9bd 8fb9 ce3d 4e5c d93d d226 6a3f
000003d0: 6aa5 afbe 6719 4cbe 7a4a 6cbd 8f39 d5be
000003e0: 0dd2 0b3e a6fb c73d 3811 d0bc f2c6 14be
000003f0: 39db 64bd 7b61 67bc 8afa 703a 0efd 713c

conv5.bias f4 [128]
0.22698064 0.03261505 0.21865338 0.18477307 -0.09543725 0.115945786 0.20146087 0.08688249
0.19952375 -0.30887747 0.13357276 0.044480346 -0.2565171 -0.19667624 -0.118598744 0.058733094
-0.2615371 0.15714543 0.11820973 -0.10792633 0.12196747 0.02487798 -0.020370202 0.023789167
0.40004587 0.17121154 0.12039529 -0.45347056 -0.119261265 -0.16220286 -0.014392665 -0.012000007
0.0072845663 -0.2316435 0.15759751 0.1994788 0.04353991 0.09984783 -0.030070303 -0.02377544
0.059234794 0.048693925 0.088731214 0.07873634 0.012850514 0.16834237 -0.04501378 0.21963906
0.12772882 0.12844764 -0.13486728 -0.26598474 -0.4007878 -0.2609031 0.06850445 0.19088347
0.042592745 0.18178417 -0.16397776 0.048995443 -0.04919958 0.22500736 0.17902163 0.19928068
-0.15441094 0.2529271 -0.0967615 0.23039912 -0.06292007 0.015982157 -0.010017858 -0.022049973
0.06775853 -0.16798866 -0.102019966 -0.21013904 0.015476153 -0.2776472 -0.18948139 0.034089506
0.1303701 -0.04613567 0.009656789 -0.079945 -0.0016555544 -0.008325643 -0.085184 0.101930946
-0.3454094 0.2799214 0.13547836 -0.0109966835 -0.13599378 -0.063259706 -0.12780721 0.022324732
0.26191077 0.06284398 -0.13872865 0.30501434 -0.13178356 -0.13678165 0.1358245 -0.033012934
-0.12752543 -0.07791733 0.1924895 -0.16989946 0.14452574 0.1716528 0.25943446 -0.09522369
0.21785861 0.038111806 0.06405617 -0.023722332 -0.1830837 0.05680156 -0.45123053 0.17990543
0.23517038 0.024748601 0.017639112 0.019802613 0.12218128 -0.08013707 -0.17138082 -0.17956124
00000000: 9d6d 683e 5c97 053d ace6 5f3e 2735 3d3e
00000010: 9b74 c3bd fc74 ed3d c24b 4e3e 72ef b13d
00000020: f44f 4c3e 3025 9ebe 4cc7 083e 0631 363d
00000030: 3656 83be 7f65 49be e6e3 f2bd 1d92 703d
00000040: 31e8 85be bbea 203e f117 f23d 7b08 ddbd
00000050: 15ca f93d e8cc cb3c 69df a6bc 80e1 c23c
00000060: d0d2 cc3e 1452 2f3e ce91 f63d 4b2d e8be
00000070: 403f f4bd 8218 26be 36cf 6bbc ad9b 44bc
00000080: 5fb3 ee3b f433 6dbe 3e61 213e 2c44 4c3e
00000090: e856 323d 057d cc3d ff55 f6bc b6c4 c2bc
000000a0: 2fa0 723d 4873 473d b6b8 b53d 8540 a13d
000000b0: f68a 523c f161 2c3e 5f60 38bd 10e9 603e
000000c0: 58cb 023e c787 033e a61a 0abe 272f 88be
000000d0: 0f34 cdbe 1795 85be 104c 8c3d f576 433e
000000e0: bb75 2e3d a125 3a3e c9e9 27be 72af 483d
000000f0: 8085 49bd 5468 663e 7251 373e 3c10 4c3e
00000100: e71d 1ebe a97f 813e e52a c6bd bfed 6b3e
00000110: 3ddc 80bd 03ed 823c f121 24bc 25a2 b4bc
00000120: fcc4 8a3d 3805 2cbe d8ef d0bd b02e 57be
00000130: b18f 7d3c c627 8ebe 6907 42be 70a1 0b3d
00000140: bd7f 053e c2f8 3cbd 8237 1e3c 34ba a3bd
00000150: 30ff d8ba 4768 08bc f374 aebd 2cc1 d03d
00000160: 80d9 b0be dc51 8f3e d7ba 0a3e 6f2b 34bc
00000170: f441 0bbe 4e8e 81bd e5df 02be 5be2 b63c
00000180: 2b19 863e 58b4 803d e20e 0ebe d72a 9c3e
00000190: 45f2 06be 7d10 0cbe 9415 0b3e 9238 07bd
000001a0: 0796 02be 1f93 9fbd f81b 453e 20fa 2dbe
000001b0: 8efe 133e c0c5 2f3e 98d4 843e a304 c3bd
000001c0: 5416 5f3e 201b 1c3d e22f 833d 5655 c2bc
000001d0: 4b7a 3bbe c1a8 683d b007 e7be 2139 383e
000001e0: 81d0 703e 94bd ca3c e67f 903c 1739 a23c
000001f0: 2e3a fa3d e71e a4bd 747e 2fbe e7de 37be

conv6.weight f4 [64, 128, 2, 2]
-0.033095032 -0.01968162 -0.5996137 -0.47507706 -0.21469022 -0.29477862 -0.3513213 -0.29891032
-0.12868075 -0.40729994 -0.24192142 0.19691804 0.20574485 -0.03318957 -0.017169137 -0.099032596
-0.11203593 0.07356328 0.13561851 0.24060269 0.07606531 0.1481774 0.37601346 0.30907968
-0.04708443 0.16221093 0.060389776 -0.41105258 0.22456382 -0.027370589 -0.16651092 0.0731299
-0.20526737 -0.1363808 -0.07483903 -0.07172803 -0.35335454 -0.23688696 0.0021591622 -0.16225608
0.06635815 -0.0198676 0.14480147 0.059223842 0.00033588693 -0.17296496 -0.28612936 -0.36410886
-0.2268138 -0.45942765 0.16448368 -0.013566163 -0.27029768 0.07176123 0.06985395 -0.1632721
-0.2516041 -0.35878813 0.18426973 -0.09337431 -0.008198657 0.08534482 -0.020435907 -0.09311536
-0.021044197 0.06543441 0.008946865 0.107105955 0.049967278 0.048659794 0.4518077 0.43848518
0.024138197 0.07260553 0.19150311 0.2195774 -0.02050702 0.017779244 -0.02513591 0.02547871
0.11857431 0.037922643 0.052720234 -0.3487139 -0.10523806 0.20095007 0.2204337 0.25610942
0.10281226 -0.41205162 -0.21354456 -0.6242373 -0.24539833 -0.1972492 -0.6524682 -0.7942637
-0.05227145 -0.43642604 -0.63277876 -0.38883993 -0.00047193436 -0.4379885 -0.33463094 -0.8574746
-0.21407335 -0.34167504 0.07606146 -0.09618165 0.03112907 -0.1279377 0.05567706 0.23701079
-0.12822238 -0.056786727 0.06462515 -0.06150565 -0.02345432 -0.022922322 -0.06308745 -0.029640587
-0.1190868 0.25291944 0.044880573 -0.25329995 -0.17114499 -0.03866639 -0.008112249 -0.02285583
0.24322681 0.12954283 -0.09889249 0.23014754 0.024633935 -0.04986554 -0.07833309 -0.06758804
0.28049082 0.034283325 -0.21909279 -0.012094762 -0.11899638 -0.13166757 0.03418686 0.044230066
0.26090285 0.3236899 0.06669259 0.3896807 0.112986475 0.316507 0.20187616 0.092301995
0.0424263 -0.334337 0.09781852 -0.5141916 -0.17841618 -0.15501113 -0.029727113 0.26612034
0.12978427 -0.38669452 0.048478097 0.011937297 0.13520257 -0.09852694 0.048969 0.08979762
0.18484855 -0.19657998 -0.21088208 -0.5116372 -0.29804686 0.06505176 0.33022767 0.19622275
0.1456668 0.03402087 0.24272388 0.22617777 -0.3390294 -0.36616707 -0.27006313 0.19204384
0.21620381 -0.068230994 0.28817442 0.14458609 -0.19523951 -0.009996986 -0.16271678 -0.1346796
-0.16608573 -0.603719 -0.09549136 -0.28192768 -0.16928886 0.20986192 0.2941029 -0.34208027
-0.23917495 -0.09475375 0.05452564 -0.15015613 0.25286445 -0.019023558 0.12589648 0.25480798
0.3272164 0.052987404 0.117087536 -0.0903815 0.24178791 0.24638556 0.047552295 0.087903365
-0.035496764 0.19661605 0.38716057 0.1719371 -0.16958249 -0.23592871 -0.06845488 -0.08463331
-0.05834712 -0.06046928 0.33410883 0.09686273 0.019384766 0.024910746 0.27012596 0.020979306
0.002674735 -0.017149465 -0.021013504 0.03214601 0.16670236 0.16362892 -0.22969851 -0.22893327
0.09099536 0.008763065 -0.18814583 0.25289506 0.30935124 0.16069657 -0.11974376 0.03231905
-0.00452489 0.152949 -0.1616477 0.11266607 0.23051152 0.10122668 -0.2356101 -0.10324896
00000000: a88e 07bd 593b a1bc 4980 19bf 4d3d f3be
00000010: c1d7 5bbe 39ed 96be 63e0 b3be c60a 99be
00000020: e3c4 03be 9e89 d0be 40ba 77be e2a4 493e
00000030: c7ae 523e c9f1 07bd 4aa6 8cbc 9ad1 cabd
00000040: 1873 e5bd 58a8 963d 94df 0a3e 8d60 763e
00000050: 21c8 9b3d d1bb 173e d684 c03e b13f 9e3e
00000060: 9adb 40bd 9f1a 263e 455b 773d 7c75 d2be
00000070: 0ff4 653e 4938 e0bc d781 2abe 21c5 953d
00000080: 9c31 52be 69a7 0bbe 3545 99bd 25e6 92bd
00000090: e3ea b4be 7f92 72be bb80 0d3b 7526 26be
000000a0: c8e6 873d 61c1 a2bc d646 143e b394 723d
000000b0: fb19 b039 ba1d 31be 8c7f 92be 7a6c babe
000000c0: e041 68be 1a3a ebbe 696e 283e 9d44 5ebc
000000d0: 7564 8abe 8df7 923d 960f 8f3d cd30 27be
000000e0: 41d2 80be 14b3 b7be 34b1 3c3e 083b bfbd
000000f0: a953 06bc 44c9 ae3d 3469 a7bc 44b3 bebd
00000100: e164 acbc 7a02 863d df95 123c 5e5a db3d
00000110: 7daa 4c3d 7e4f 473d 5753 e73e 2181 e03e
00000120: 78bd c53c 35b2 943d 6419 443e e6d8 603e
00000130: 57fe a7bc c7a5 913c d3e9 cdbc bab8 d03c
00000140: 16d7 f23d c654 1b3d 2cf1 573d a18a b2be
00000150: 0d87 d7bd dbc5 4d3e 5fb9 613e c620 833e
00000160: 3c8f d23d 6ef8 d2be 6dab 5abe 04ce 1fbf
00000170: b349 7bbe b2fb 49be 2808 27bf de54 4bbf
00000180: 971a 56bd 3c73 dfbe cafd 21bf 0716 c7be
00000190: f56d f7b9 0740 e0be bf54 abbe 7583 5bbf
000001a0: 0b36 5bbe 08f0 aebe 1cc6 9b3d e3fa c4bd
000001b0: 6402 ff3c 1a02 03be a10d 643d f5b2 723e
000001c0: ba4c 03be 3399 68bd 315a 843d 59ed 7bbd
000001d0: 4623 c0bc 98c7 bbbc fe33 81bd d1d0 f2bc
000001e0: c8e3 f3bd a87e 813e b1d4 373d 88b0 81be
000001f0: a240 2fbe a660 1ebd 3de9 04bc 263c bbbc
00000200: 7310 793e e0a6 043e 2588 cabd ccab 6b3e
00000210: 1bcd c93c cf3f 4cbd 196d a0bd 996b 8abd
00000220: 7e9c 8f3e ac6c 0c3d dc59 60be 1c29 46bc
00000230: 60b4 f3bd ddd3 06be 8507 0c3d 962a 353d
00000240: 0f95 853e afba a53e 2096 883d 3b84 c73e
00000250: 7465 e73d 350d a23e a0b8 4e3e d408 bd3d
00000260: 33c7 2d3d 382e abbe 1455 c83d 10a2 03bf
00000270: bbb2 36be 3dbb 1ebe 4686 f3bc ed40 883e
00000280: 2be6 043e d3fc c5be f890 463d a794 433c
00000290: 8b72 0a3e 7ec8 c9bd b893 483d d1e7 b73d
000002a0: f048 3d3e 434c 49be 79f1 57be a8fa 02bf
000002b0: 9999 98be db39 853d 9a13 a93e 9eee 483e
000002c0: ad29 153e 7859 0b3d 9c8c 783e 259b 673e
000002d0: 4395 adbe 407a bbbe b745 8abe 24a7 443e
000002e0: 8864 5d3e b1bc 8bbd 998b 933e 600e 143e
000002f0: deec 47be 66ca 23bc 3a9f 26be 73e9 09be
00000300: 6112 2abe 548d 1abf f990 c3bd d358 90be
00000310: 0f5a 2dbe 0be6 563e a894 963e 2525 afbe
00000320: 47ea 74be 410e c2bd 4756 5f3d 87c2 19be
00000330: 7377 813e 4bd7 9bbc 02eb 003e 3176 823e
00000340: e888 a73e 5209 593d 97cb ef3d f019 b9bd
00000350: 4097 773e 7f4c 7c3e 32c6 423d ae06 b43d
00000360: 0e65 11bd b855 493e e939 c63e 4710 303e
00000370: 08a7 2dbe 4c97 71be 1232 8cbd 3b54 adbd
00000380: 64fd 6ebd a3ae 77bd 5010 ab3e f85f c63d
00000390: cdcc 9e3c 9f11 cc3c f34d 8a3e cbdc ab3c
000003a0: 9b4a 2f3b 097d 8cbc 8324 acbc 89ab 033d
000003b0: 06b4 2a3e 578e 273e 1636 6bbe 7c6d 6abe
000003c0: c65b ba3d f592 0f3c 4da9 40be 767b 813e
000003d0: 4963 9e3e a48d 243e 373c f5bd fb60 043d
000003e0: 8745 94bb aa9e 1c3e fa86 25be 78bd e63d
000003f0: 360b 6c3e ef4f cf3d c643 71be 3174 d3bd

conv6.bias f4 [64]
0.13542986 -0.06575603 -0.1110711 0.19949396 -0.12325864 0.29487103 0.11785572 0.06814373
0.13808842 0.06457937 0.14214848 0.2890044 0.11720311 -0.29702923 0.078314364 -0.27436432
0.39973158 -0.10604722 -0.19052736 0.0616885 -0.14330254 0.03376604 -0.06631779 -0.11232531
-0.1302985 0.08275273 -0.3161257 0.07939649 -0.19553998 -0.094861075 -0.31847027 0.07017078
-0.15124679 -0.4764691 -0.3376074 0.11897696 -0.13989559 -0.15107259 -0.108957395 -0.041877937
-0.11269751 -0.053250596 -0.24151222 -0.16395968 -0.1364493 0.14005211 0.033592686 0.24611229
-0.17630419 0.0074323467 0.18154004 0.11873897 -0.24945602 -0.37582237 -0.26537162 0.17585063
0.08250163 0.21543847 0.33489618 -0.07684452 -0.4160728 -0.16714592 0.3278798 -0.090306394
00000000: 20ae 0a3e 19ab 86bd 3f79 e3bd 2548 4c3e
00000010: 076f fcbd 56f9 963e 575e f13d f18e 8b3d
00000020: 0d67 0d3e 3042 843d 5f8f 113e 62f8 933e
00000030: 2f08 f03d 3714 98be 4863 a03d 7b79 8cbe
00000040: 9ea9 cc3e 492f d9bd 9b19 43be 15ad 7c3d
00000050: e7bd 12be 424e 0a3d 9fd1 87bd d00a e6bd
00000060: f86c 05be 437a a93d 3adb a1be a09a a23d
00000070: a23b 48be 8646 c2bd 890e a3be b3b5 8f3d
00000080: 70e0 1abe c2f3 f3be e1da acbe 31aa f33d
00000090: ca40 0fbe c6b2 1abe 0e25 dfbd 3388 2bbd
000000a0: f4cd e6bd 4c1d 5abd fb4e 77be 0ce5 27be
000000b0: 5eb9 0bbe d269 0f3e 7c98 093d dc04 7c3e
000000c0: 1689 34be 0b8b f33b a2e5 393e 6b2d f33d
000000d0: 6671 7fbe ca6b c0be cade 87be 3012 343e
000000e0: 9df6 a83d e79b 5c3e 8377 ab3e a960 9dbd
000000f0: 7e07 d5be 4d28 2bbe dcdf a73e 8ff2 b8bd
